src/models/dynamics_5.pt (torch, 47842 bytes, 13 tensors)

input_layer.weight f4 [42, 42]
0.104821235 -0.11742114 -0.1333881 0.14986978 -0.028570836 -0.0933176 -0.13776346 -0.08641661
-0.056752596 0.029617524 -0.12806721 -0.051672015 0.081812955 0.06059695 -0.05188687 -0.029798754
-0.02373124 -0.006120813 0.11590046 -0.056871504 0.07403601 0.0033680475 -0.1272507 -0.0445256
0.006022705 -0.13722712 0.073228724 -0.10697115 0.050110053 0.014860786 0.09866196 -0.08701675
0.029327832 -0.012203951 -0.14944312 0.11065157 0.13517958 0.100487806 0.038859732 -0.0053013493
-0.02105401 -0.055030137 -0.029980378 -0.0586386 -0.013445598 0.056251332 0.14548245 0.11271522
-0.06531787 -0.0021256648 0.08391407 0.054647412 0.10299959 0.008171829 -0.086854786 0.024708452
-0.044773564 -0.016710054 -0.14834607 -0.003244059 0.045543004 0.08184483 0.13939922 -0.14666432
0.081948295 0.104520716 0.09878375 -0.009406361 -0.095214985 -0.030045962 0.033458572 0.10902495
0.08416753 -0.051757645 0.045730527 0.1451247 0.15553749 0.110181026 -0.014724686 -0.07168432
-0.03586241 -0.14438373 -0.13714701 0.064067096 -0.11932079 0.124518245 0.10396931 0.022551017
-0.12149141 -0.09130856 -0.084992126 0.1048918 0.030826103 -0.0078089414 -0.006028769 -0.05152324
0.10179881 0.07678263 0.019454159 0.07267168 -0.1370148 0.08090601 -0.07532711 0.00804753
-0.10460036 0.08603424 -0.14114097 0.08346953 -0.13793355 -0.11604561 0.13308096 -0.08513629
0.056941997 0.06991848 -0.11647479 -0.15791118 0.07199852 -0.08298263 -0.14767809 -0.12613894
-0.11853603 -0.15007858 0.08554134 0.04443915 0.022548575 -0.13296005 -0.050651297 0.105067044
0.063485555 0.074061885 -0.02996804 -0.079529665 0.12805162 -0.00082253275 0.1385692 -0.113281675
0.12674493 -0.06413419 0.14815773 0.05636417 -0.12658343 -0.07377564 -0.13989407 0.08653613
-0.11600333 0.11315949 -0.02109828 -0.10918686 0.05221246 -0.0012894408 0.109220944 -0.15915188
-0.07435211 0.037303407 0.08143835 -0.15903674 0.1251038 0.096758686 -0.1544091 0.049668185
-0.13445258 -0.071983434 -0.04975895 0.10150914 -0.03357175 -0.016571084 -0.053249646 0.007988475
0.051516477 -0.056109384 -0.092408136 0.09475252 0.095616676 0.07117977 0.046498895 0.092853494
-0.07651807 0.070819415 -0.0015343332 -0.14660554 0.030365696 0.09271085 -0.0746483 -0.041450888
0.059838526 0.1109193 0.015026689 -0.1501103 -0.08020643 0.063363925 0.021317013 0.10942042
-0.0580881 0.029343609 0.0095120855 0.0037010098 -0.041891016 -0.051470924 -0.079109915 -0.1081557
-0.019240124 0.13275698 0.053947195 -0.054965574 0.1405217 -0.14420791 -0.12519422 -0.046182055
-0.015799815 0.14201428 -0.022073941 0.058289025 0.12610441 0.13143945 -0.1314876 0.07179614
-0.08065609 -0.079929985 0.073837064 -0.021932198 -0.14032929 -0.052993156 -0.088259704 -0.0143662235
-0.13701603 -0.13335784 -0.063353285 -0.0767678 0.05631738 0.049137764 0.041008577 -0.056318954
0.043098193 0.030647598 0.049653344 0.004218396 9.179476e-05 -0.0055676894 -0.09721748 -0.13292438
-0.029321019 -0.03518932 0.15302992 -0.0144434 0.028352452 0.11995315 -0.06980365 0.11271628
0.037409604 0.09629959 -0.15868576 -0.016863123 -0.09941534 -0.021118354 0.14157665 -0.11996618
00000000: 84ac d63d 7f7a f0bd e496 08be 7777 193e
00000010: 630d eabc 4c1d bfbd dd11 0dbe 31fb b0bd
00000020: 6975 68bd 73a0 f23c 0d24 03be 09a6 53bd
00000030: 8d8d a73d 8234 783d 5487 54bd 841c f4bc
00000040: 0468 c2bc 1a91 c8bb 385d ed3d 18f2 68bd
00000050: 31a0 973d 76ba 5c3b 024e 02be 7a60 36bd
00000060: 1d5a c53b 4485 0cbe f1f8 953d b113 dbbd
00000070: 3340 4d3d a77a 733c 480f ca3d d635 b2bd
00000080: ec40 f03c 15f3 47bc 9e07 19be 4a9d e23d
00000090: 846c 0a3e 8dcc cd3d 622b 1f3d f1b6 adbb
000000a0: 7679 acbc 4867 61bd 6999 f5bc 072f 70bd
000000b0: ed4a 5cbc cc67 663d 5af9 143e 3dd7 e63d
000000c0: 60c5 85bd bd4e 0bbb 24db ab3d f7d5 5f3d
000000d0: 73f1 d23d 23e3 053c ece0 b1bd 6169 ca3c
000000e0: 7c64 37bd 86e3 88bc 08e8 17be 479a 54bb
000000f0: 4d8b 3a3d 439e a73d abbe 0e3e 2c2f 16be
00000100: 82d4 a73d f50e d63d 224f ca3d 231d 1abc
00000110: 1300 c3bd f322 f6bc db0b 093d 7948 df3d
00000120: 0760 ac3d d3ff 53bd ef4f 3b3d 929b 143e
00000130: 3845 1f3e 97a6 e13d cf3f 71bc 3bcf 92bd
00000140: 76e4 12bd 54d9 13be 4470 0cbe 9c35 833d
00000150: 755e f4bd 6c03 ff3d dded d43d e9bc b83c
00000160: 7dd0 f8bd fbff babd 5a10 aebd 83d1 d63d
00000170: 0687 fc3c 26e2 ffbb fb8c c5bb 080a 53bd
00000180: e57b d03d 3640 9d3d 545e 9f3c e4d4 943d
00000190: 9c4d 0cbe 0db2 a53d 1a45 9abd cad9 033c
000001a0: b738 d6bd b832 b03d 4287 10be 13f2 aa3d
000001b0: 743e 0dbe 52a9 edbd 6046 083e ef5b aebd
000001c0: 033c 693d 6c31 8f3d 568a eebd 78b3 21be
000001d0: f673 933d ccf2 a9bd ed38 17be 912a 01be
000001e0: 05c3 f2bd 33ae 19be 4c30 af3d d305 363d
000001f0: cab7 b83c ae26 08be bc77 4fbd 642d d73d
00000200: b704 823d c2ad 973d 897f f5bc 73e0 a2bd
00000210: f71f 033e 3d9f 57ba 16e5 0d3e 3900 e8bd
00000220: 6cc9 013e c958 83bd a9b6 173e 1ede 663d
00000230: 169f 01be af17 97bd 6440 0fbe db39 b13d
00000240: 2793 edbd 2ac0 e73d 4dd6 acbc 5c9d dfbd
00000250: bcdc 553d 7402 a9ba 3baf df3d b6f8 22be
00000260: eb45 98bd 75cb 183d 26c9 a63d 87da 22be
00000270: 361b 003e 6b29 c63d 6b1d 1ebe de70 4b3d
00000280: f0ad 09be 0d6c 93bd 0ad0 4bbd 06e4 cf3d
00000290: 8882 09bd 15c0 87bc 4d1c 5abd 18e2 023c
000002a0: f102 533d f4d2 65bd 7a40 bdbd 9c0d c23d
000002b0: add2 c33d b3c6 913d a075 3e3d f929 be3d
000002c0: 82b5 9cbd c509 913d ae1b c9ba c31f 16be
000002d0: 7bc1 f83c 30df bd3d 35e1 98bd 68c8 29bd
000002e0: 3e19 753d a829 e33d 8032 763c 84b6 19be
000002f0: 4543 a4bd f2c4 813d 04a1 ae3c d017 e03d
00000300: caed 6dbd 0262 f03c 94d8 1b3c a48c 723b
00000310: ea95 2bbd 2dd3 52bd 6104 a2bd bc80 ddbd
00000320: 779d 9dbc 72f1 073e bcf7 5c3d 9523 61bd
00000330: ece4 0f3e 3dab 13be ea32 00be 6529 3dbd
00000340: 9d6e 81bc 316c 113e 69d4 b4bc 79c0 6e3d
00000350: 8421 013e 1098 063e afa4 06be db09 933d
00000360: 052f a5bd 55b2 a3bd e337 973d 27ab b3bc
00000370: 7bb2 0fbe 5a0f 59bd 81c1 b4bd 4f60 6bbc
00000380: ee4d 0cbe f58e 08be 5ebf 81bd 7038 9dbd
00000390: 0ead 663d ae44 493d 9cf8 273d b4ae 66bd
000003a0: bb87 303d ac10 fb3c 4e61 4b3d 783a 8a3b
000003b0: f081 c038 2a71 b6bb f519 c7bd 541d 08be
000003c0: a232 f0bc ad22 10bd e0b3 1c3e 03a4 6cbc
000003d0: 6743 e83c ffa9 f53d 37f5 8ebd cbd7 e63d
000003e0: d03a 193d b838 c53d 857e 22be 8824 8abc
000003f0: 459a cbbd 6600 adbc 78f9 103e d4b0 f5bd

input_layer.bias f4 [42]
0.05524991 0.06281288 0.11058677 0.071880475 0.111691505 0.111798465 0.07952017 -0.08893715
-0.04300842 -0.028676353 0.014838694 -0.046475843 -0.046895355 -0.024179172 -0.114575304 0.09942215
0.010642644 0.049141195 0.012805758 0.03145375 -0.12662509 -0.050732918 -0.1264509 0.107404634
-0.02902192 0.11819521 0.12287491 0.0830735 0.12202156 0.06895861 0.13693912 -0.10265404
0.10478457 0.102684356 -0.11689187 -0.04639195 -0.08176597 0.14695908 -0.012748712 0.0078123966
0.054667786 -0.15206473
00000000: bb4d 623d 0aa4 803d 517b e23d 1236 933d
00000010: 84be e43d 98f6 e43d 79db a23d ae24 b6bd
00000020: 9929 30bd acea eabc fe1d 733c 745d 3ebd
00000030: 5815 40bd 6613 c6bc 75a6 eabd d79d cb3d
00000040: 7c5e 2e3c 4748 493d 3ecf 513c a6d5 003d
00000050: 02aa 01be 52cd 4fbd 587c 01be f6f6 db3d
00000060: 61bf edbc 5510 f23d d7a5 fb3d 7022 aa3d
00000070: 71e6 f93d 2c3a 8d3d c539 0c3e 483c d2bd
00000080: 4b99 d63d 2d4c d23d 0165 efbd 7c05 3ebd
00000090: eb74 a7bd 717c 163e f9df 50bc 22ff ff3b
000000a0: 54eb 5f3d dbb6 1bbe

hidden_layers.0.weight f4 [42, 42]
0.07644381 0.116910204 -0.099029124 0.08554055 0.10364117 -0.04719065 -0.004078269 0.1525348
0.105839714 -0.1249333 0.08414927 0.037150398 0.08073601 0.08303748 -0.07186138 0.08660172
0.019132748 -0.100278325 0.07807723 -0.14203116 -0.10264307 -0.035298876 0.10788353 0.07414934
0.07804467 -0.1011413 -0.1503277 -0.06507171 -0.03016863 0.0425625 0.113214 0.04329218
-0.02927868 -0.14500685 0.04161817 0.104277626 -0.08493184 0.08237642 0.017212406 0.04851049
-0.05620341 -0.0059161335 -0.050004736 -0.10209238 0.07830471 0.03925374 -0.061483055 0.12693356
-0.040643312 -0.027595937 0.14916612 0.017351434 -0.018724993 -0.09343667 -0.06323369 -0.034660667
0.12826954 -0.13988328 -0.03457892 -0.06406197 -0.08042634 -0.075926155 0.14846091 -0.08082243
-0.035759605 -0.13047233 0.054998294 -0.10402767 0.07755947 -0.035359673 -0.04721664 0.01469858
-0.10184495 -0.08567255 0.09123793 0.13335271 -0.05193598 -0.013186485 0.1015064 -0.08896726
0.0038619637 0.105471596 -0.06830957 -0.03569425 0.15276672 0.0050096014 0.115978144 0.13931479
0.022271138 -0.002493153 0.09029805 -0.020721171 -0.12765586 -0.12640457 0.13845865 -0.09670843
-0.13832894 0.032189224 0.057001222 0.010804842 -0.07872912 0.07588157 0.15209697 0.10822223
0.07052479 -0.014181578 0.12688647 -0.13474226 0.018709326 -0.11309512 -0.07436068 -0.13192683
0.0044423426 -0.09148133 -0.03285422 0.06119004 -0.02173659 0.11231597 -0.10735116 0.082338214
0.073775 0.0036790264 -0.11728256 0.04658072 0.045345597 -0.14201567 -0.09900093 0.13590245
-0.1074981 -0.012188106 -0.07085774 -0.0952357 0.0945712 0.0018974948 -0.031700484 0.13992552
-0.0098396335 -0.07157492 0.06168203 -0.04548911 -0.08837426 -0.09278897 0.032765616 -0.1261104
-0.077858 0.02007579 -0.08134588 -0.09666047 0.096543565 -0.06461508 0.017844211 0.07191577
0.14975697 -0.065521926 0.005978204 -0.13258775 0.030231185 0.1375518 -0.11554042 -0.087372035
0.069987305 -0.09960062 -0.03665713 0.06912604 -0.020256372 0.0706936 0.059397306 0.11649947
0.007577388 0.019771198 0.0033658054 0.11909356 -0.054667417 -0.052168295 -0.041561518 0.12019341
0.032532774 0.13203865 0.028978497 0.046127573 0.0890085 0.115562946 0.11760426 0.13288105
-0.1140092 0.020394696 0.079119645 -0.12996134 0.035412654 -0.019538116 0.03634514 0.022165263
0.03673973 -0.1382707 -0.15038297 0.113591135 0.05057851 0.04333823 -0.019944623 -0.09970123
-0.11048916 -0.040917583 0.054593615 -0.0031283945 0.11315249 -0.02444545 0.10635391 -0.07034008
-0.112956315 -0.020329595 -0.11628071 -0.13683426 -0.04052213 -0.05382202 -0.05587121 0.02635732
-0.021686118 -0.048925858 -0.023410086 -0.053198535 0.108369015 -0.024211539 -0.0055664596 -0.068042494
-0.1419876 -0.017954893 -0.13286622 -0.1439192 0.024379905 -0.0298778 -0.081344515 -0.04407855
0.14213051 0.004018388 0.09539331 -0.058034495 0.11606958 0.124842465 0.061776116 0.116342396
-0.004026472 0.030796837 0.071949676 0.090784654 -0.093596555 -0.052302398 0.10273259 0.031571727
0.061754744 0.032348786 0.052245844 0.027421221 -0.046845682 0.08715232 0.046910033 -0.0920211
00000000: 928e 9c3d 9e6e ef3d c8cf cabd e22f af3d
00000010: d241 d43d fc4a 41bd 00a3 85bb 1532 1c3e
00000020: 7ec2 d83d 08dd ffbd 7456 ac3d 042b 183d
00000030: ec58 a53d 8e0f aa3d 0f2c 93bd 3e5c b13d
00000040: 48bc 9c3c b95e cdbd f4e6 9f3d 9e70 11be
00000050: 8836 d2bd 8e95 10bd 0af2 dc3d 9cdb 973d
00000060: e2d5 9f3d 2b23 cfbd 81ef 19be 5144 85bd
00000070: 3424 f7bc 0456 2e3d bedc e73d 2453 313d
00000080: d8d9 efbc ad7c 14be d077 2a3d 828f d53d
00000090: bff0 adbd f8b4 a83d 0801 8d3c f0b2 463d
000000a0: 8c35 66bd 20dc c1bb c4d1 4cbd cf15 d1bd
000000b0: 385e a03d 88c8 203d a8d5 7bbd dffa 013e
000000c0: 9a79 26bd e010 e2bc 01bf 183e 9824 8e3c
000000d0: 2865 99bc ba5b bfbd aa80 81bd 58f8 0dbd
000000e0: 1759 033e 903d 0fbe a0a2 0dbd ec32 83bd
000000f0: 91b6 a4bd 2c7f 9bbd 2306 183e 3b86 a5bd
00000100: aa78 12bd 8a9a 05be e445 613d 760c d5bd
00000110: 80d7 9e3d 4ed5 10bd 3c66 41bd 50d2 703c
00000120: 1694 d0bd 1775 afbd f4da ba3d 9d8d 083e
00000130: d2ba 54bd 200c 58bc 96e2 cf3d 7834 b6bd
00000140: 0019 7d3b 7e01 d83d e3e5 8bbd 2234 12bd
00000150: e16e 1c3e 9527 a43b f385 ed3d 89a8 0e3e
00000160: f671 b63c 2b64 23bb 2fee b83d 72bf a9bc
00000170: 38b8 02be 3370 01be 1bc8 0d3e 120f c6bd
00000180: 1aa6 0dbe d9d8 033d 1d7a 693d cb06 313c
00000190: bc3c a1bd cc67 9b3d 4fbf 1b3e 9ea3 dd3d
000001a0: 4d6f 903d d959 68bc 87ee 013e e0f9 09be
000001b0: 4d44 993c 6a9e e7bd 6a4a 98bd d417 07be
000001c0: 1291 913b 905a bbbd 2692 06bd 68a2 7a3d
000001d0: ef10 b2bc ea05 e63d edda dbbd f0a0 a83d
000001e0: 5917 973d d21b 713b d731 f0bd 6dcb 3e3d
000001f0: 4ebc 393d 8e6c 11be 00c1 cabd 032a 0b3e
00000200: f727 dcbd 9fb0 47bc dd1d 91bd ef0a c3bd
00000210: 8cae c13d 5cb5 f83a 5ed8 01bd a348 0f3e
00000220: 6a36 21bc df95 92bd 4ca6 7c3d ca52 3abd
00000230: 90fd b4bd 2508 bebd 3d35 063d 1623 01be
00000240: 0474 9fbd fc75 a43c ab98 a6bd edf5 c5bd
00000250: a2b8 c53d e954 84bd 062e 923c 9348 933d
00000260: e459 193e 5c30 86bd cfe4 c33b 15c5 07be
00000270: 64a7 f73c 61da 0c3e 75a0 ecbd 1cf0 b2bd
00000280: 8155 8f3d 69fb cbbd c925 16bd f491 8d3d
00000290: b1f0 a5bc cec7 903d 974a 733d 4697 ee3d
000002a0: bd4b f83b 35f7 a13c d894 5c3b 53e7 f33d
000002b0: f1ea 5fbd 6cae 55bd 693c 2abd f627 f63d
000002c0: 1641 053d 2435 073e 5064 ed3c 44f0 3c3d
000002d0: 174a b63d 44ac ec3d 81da f03d f811 083e
000002e0: a87d e9bd c712 a73c 7b09 a23d 9614 05be
000002f0: dc0c 113d 660e a0bc a4de 143d ed93 b53c
00000300: 667c 163d d696 0dbe fefd 19be 78a2 e83d
00000310: 692b 4f3d 6e83 313d e862 a3bc 2930 ccbd
00000320: 2448 e2bd 3299 27bd 8e9d 5f3d c005 4dbb
00000330: 7ebc e73d d341 c8bc 14d0 d93d 760e 90bd
00000340: a455 e7bd 408a a6bc 9524 eebd 481e 0cbe
00000350: 88fa 25bd 7a74 5cbd 36d9 64bd 4eeb d73c
00000360: 16a7 b1bc 7b66 48bd 82c6 bfbc b5e6 59bd
00000370: 93f0 dd3d 4757 c6bc d966 b6bb dd59 8bbd
00000380: 3365 11be 2416 93bc 150e 08be 8e5f 13be
00000390: 5eb8 c73c 4ac2 f4bc f497 a6bd b68b 34bd
000003a0: a98a 113e afac 833b 915d c33d 94b5 6dbd
000003b0: e3b5 ed3d 68ad ff3d f408 7d3d ec44 ee3d
000003c0: 7ff0 83bb a649 fc3c 5a5a 933d 4eed b93d
000003d0: 8daf bfbd 0a3b 56bd 7765 d23d 5b51 013d
000003e0: 8bf2 7c3d 2980 043d bdff 553d 78a2 e03c
000003f0: 42e1 3fbd ea7c b23d bc24 403d 8f75 bcbd

hidden_layers.0.bias f4 [42]
-0.034218155 -0.050568283 0.14816304 0.101950996 0.05190358 0.08434021 -0.1271771 0.044319954
-0.114091426 0.06254294 -0.028837856 0.08781327 -0.12265609 0.10815034 0.055069484 0.10756258
-0.14675963 -0.017336657 -0.08458415 -0.06349219 -0.016371736 -0.05971593 -0.088771366 -0.071288124
0.067414135 0.06564154 0.056631748 -0.118827395 -0.051541366 0.06250103 -0.080778725 -0.009608035
0.040453274 -0.112142354 -0.11655716 -0.13153845 -0.14868191 -0.124851465 -0.11269465 0.06376078
-0.018132038 0.038086712
00000000: 5628 0cbd b020 4fbd 0db8 173e afcb d03d
00000010: d998 543d 8fba ac3d b73a 02be d788 353d
00000020: c4a8 e9bd 8316 803d 5e3d ecbc 72d7 b33d
00000030: 1e33 fbbd ed7d dd3d 8a90 613d c549 dc3d
00000040: 2848 16be 9b05 8ebc 743a adbd 3108 82bd
00000050: 051e 86bc b198 74bd c3cd b5bd 82ff 91bd
00000060: 6c10 8a3d 126f 863d b1f6 673d c75b f3bd
00000070: 0a1d 53bd 8a00 803d 516f a5bd 056b 1dbc
00000080: 55b2 253d e4aa e5bd 85b5 eebd 04b2 06be
00000090: 1240 18be 20b2 ffbd 74cc e6bd 0395 823d
000000a0: a489 94bc d000 1c3d

hidden_layers.1.weight f4 [42, 42]
0.14191954 -0.021824375 0.025552101 0.14633779 0.12567331 -0.112273246 0.14837445 0.11468185
-0.059225254 0.118318245 -0.055452123 -0.13219729 0.1530316 0.10917688 0.13785978 0.057264946
0.13608108 -0.1330375 0.14068595 -0.047518127 -0.11409593 -0.110410474 0.07711768 -0.12060762
0.017160628 -0.1052545 0.06376128 0.14168395 0.004770085 0.09534301 -0.060431853 -0.017252998
-0.11843948 0.10996859 0.042326376 -0.006555021 0.01994732 -0.062362216 -0.09559643 -0.03912473
0.011390755 0.114331976 -0.106812015 0.06552604 -0.14210525 -0.13621256 -0.01834537 -0.045333274
-0.0053682327 -0.06460961 0.12918527 -0.07785274 0.13942392 0.017986387 -0.10616854 0.15028654
0.03155358 -0.13966063 -0.12793286 0.06429109 0.033686206 -0.10373445 0.15407066 0.073904976
-0.06347859 -0.14002311 0.01670298 -0.03213778 0.14150546 -0.14715901 0.09952851 0.09689523
-0.0941827 -0.054908164 0.12393947 0.110876635 0.07569903 0.13354914 0.058420435 -0.08577501
-0.13223757 -0.091608845 0.034327447 -0.13747866 -0.0821075 0.03055638 -0.04960754 -0.122246936
0.022755515 -0.09666509 -0.133794 -0.08086218 -0.12041314 -0.14410368 0.08323328 0.0144160595
0.070433095 0.14181143 -0.05181939 -0.12540944 -0.056323133 -0.102513865 -0.113648795 -0.012252733
0.12459668 -0.08485898 -0.07784162 0.08944527 -0.01845922 0.13664694 -0.13167419 0.10421194
-0.06415762 -0.09590576 0.10622983 -0.014688949 0.15742129 -0.06955067 0.09659876 -0.068991244
-0.13516667 -0.060531847 0.018338755 -0.118257694 -0.08591549 0.0781113 0.020014182 0.034858555
0.10830699 0.076567486 0.00847207 0.099288866 -0.07575573 -0.010887206 -0.028497115 0.10434322
-0.042878143 0.10265817 0.0036017746 0.068733335 -0.12240873 -0.071448825 0.13550262 0.13168965
-0.07921521 0.111366674 0.09908901 0.10625975 -0.057367347 -0.143687 -0.06739018 -0.1069402
0.09385598 -0.0380122 -0.067698374 0.1183206 0.005584821 -0.041535035 -0.12745628 0.06297037
0.08679506 0.0003592968 -0.11151712 -0.05867392 -0.11416857 -0.021456808 -0.13206217 0.10532831
0.049600407 -0.099011905 0.06024885 -0.037434306 0.10480953 0.09450858 -0.0068366677 0.09378008
0.089747936 -0.11972767 0.15040988 0.034129214 0.09055054 0.104397 0.0806088 0.115287624
-0.043983974 -0.052042138 0.009706201 0.059938908 -0.095892325 -0.013970624 0.036568902 -0.01086208
-0.08514026 -0.06288843 0.072561696 -0.063327044 -0.09922366 -0.01570112 0.012882993 0.13755737
0.0603695 -0.0037652552 0.023362175 -0.11597518 0.09887983 -0.1353175 0.12856339 -0.12168917
-0.13233635 0.07159636 0.10311626 -0.015649274 -0.05495361 -0.02865875 0.15507361 0.1548091
0.012785062 -0.058271132 -0.13497089 -0.07125021 -0.04399897 0.008727136 0.10543953 0.119929716
-0.08390126 -0.051242605 -0.14596595 0.02792608 0.08903315 0.00899668 -0.058946773 -0.10276684
-0.10651076 0.01936694 -0.045312922 0.14571951 0.006679161 -0.13612075 -0.020349443 -0.13132381
-0.019021317 4.1067367e-05 0.04680766 0.05843602 -0.06599013 0.06561598 -0.015182123 0.01652819
0.027761117 -0.0413928 -0.12979275 -0.08143302 -0.036223046 -0.14789784 -0.051601753 0.06954825
00000000: 5b53 113e 08c9 b2bc a452 d13c 93d9 153e
00000010: 81b0 003e 84ef e5bd 79ef 173e 51de ea3d
00000020: 2e96 72bd d650 f23d c421 63bd ba5e 07be
00000030: 51b4 1c3e 2198 df3d 1d2b 0d3e a68e 6a3d
00000040: d758 0b3e fb3a 08be fa0f 103e 5ea2 42bd
00000050: 20ab e9bd e31e e2bd e0ef 9d3d 2101 f7bd
00000060: 7294 8c3c ac8f d7bd 4695 823d 9915 113e
00000070: 604e 9c3b 3243 c33d 6487 77bd 2956 8dbc
00000080: 6690 f2bd 3637 e13d 6c5e 2d3d 80cb d6bb
00000090: 9068 a33c 866f 7fbd 10c8 c3bd 4141 20bd
000000a0: 4aa0 3a3c e226 ea3d 42c0 dabd 8432 863d
000000b0: 0a84 11be 4e7b 0bbe 0849 96bc 62af 39bd
000000c0: 00e8 afbb 0b52 84bd 2549 043e 4271 9fbd
000000d0: 25c5 0e3e 3058 933c e46e d9bd b7e4 193e
000000e0: 543e 013d 3203 0fbe d500 03be 0cab 833d
000000f0: 8cfa 093d ba72 d4bd b3c4 1d3e 7e5b 973d
00000100: 1001 82bd 3862 0fbe b0d4 883c e8a2 03bd
00000110: cfe6 103e dab0 16be 9ad5 cb3d 0271 c63d
00000120: dce2 c0bd 62e7 60bd fad3 fd3d 4a13 e33d
00000130: 1808 9b3d 1bc1 083e 444a 6f3d cfaa afbd
00000140: 4969 07be 6b9d bbbd f09a 0c3d 35c7 0cbe
00000150: fa27 a8bd 6051 fa3c 4731 4bbd 9a5c fabd
00000160: c669 ba3c 59f8 c5bd 4b01 09be 129b a5bd
00000170: 2a9b f6bd ea8f 13be 3676 aa3d 5631 6c3c
00000180: 3a3f 903d 0437 113e 9240 54bd 556b 00be
00000190: 16b3 66bd caf2 d1bd b3c0 e8bd b0bf 48bc
000001a0: 8b2c ff3d 8bca adbd 6d6b 9fbd 152f b73d
000001b0: ca37 97bc 2ded 0b3e 99d5 06be 126d d53d
000001c0: 1265 83bd 3d6a c4bd 068f d93d eba9 70bc
000001d0: 0c33 213e 9570 8ebd 92d5 c53d 484b 8dbd
000001e0: 2269 0abe 3ef0 77bd 283b 963c 1731 f2bd
000001f0: 76f4 afbd d1f8 9f3d c8f4 a33c d8c7 0e3d
00000200: 0ed0 dd3d 6acf 9c3d 70ce 0a3c f657 cb3d
00000210: d225 9bbd 4060 32bc c872 e9bc e6b1 d53d
00000220: fea0 2fbd 723e d23d c00b 6c3b 10c4 8c3d
00000230: 6eb1 fabd c353 92bd 33c1 0a3e a7d9 063e
00000240: 963b a2bd 3614 e43d 2eef ca3d b69e d93d
00000250: 06fa 6abd af22 13be dd03 8abd 7703 dbbd
00000260: 9037 c03d aeb2 1bbd 72a5 8abd 1252 f23d
00000270: e000 b73b a420 2abd e683 02be 9cf6 803d
00000280: 9cc1 b13d 0060 bc39 1663 e4bd 1054 70bd
00000290: 36d1 e9bd 30c6 afbc 4e3b 07be 5eb6 d73d
000002a0: cc29 4b3d c1c6 cabd 80c7 763d b754 19bd
000002b0: 61a6 d63d b78d c13d 2006 e0bb c50f c03d
000002c0: c4cd b73d c833 f5bd 0c05 1a3e 13cb 0b3d
000002d0: 9072 b93d 18ce d53d 3a16 a53d eb1b ec3d
000002e0: 8a28 34bd 232a 55bd c206 1f3c 8082 753d
000002f0: 3263 c4bd 0be5 64bc 46c9 153d def6 31bc
00000300: 045e aebd a6cb 80bd 3a9b 943d 9cb1 81bd
00000310: c635 cbbd a39f 80bc 3013 533c d7db 0c3e
00000320: 0246 773d 80c2 76bb 0862 bf3c 6584 edbd
00000330: 8281 ca3d ac90 0abe 1fa6 033e 2c38 f9bd
00000340: 2e83 07be 1da1 923d 9e2e d33d e832 80bc
00000350: 0917 61bd c1c5 eabc 9ecb 1e3e 4786 1e3e
00000360: 7078 513c b6ad 6ebd cf35 0abe a1eb 91bd
00000370: 4438 34bd 43fc 0e3c aef0 d73d b69d f53d
00000380: 6cd4 abbd c4e3 51bd 1978 15be 3cc5 e43c
00000390: 0357 b63d d066 133c 2c72 71bd 6c77 d2bd
000003a0: 5022 dabd 6ba7 9e3c 0b9a 39bd 7f37 153e
000003b0: dddc da3b 3d63 0bbe e0b3 a6bc c079 06be
000003c0: 98d2 9bbc c03f 2c38 64b9 3f3d 9c5a 6f3d
000003d0: d525 87bd ac61 863d 70be 78bc 2066 873c
000003e0: 486b e33c 7f8b 29bd 64e8 04be 5bc6 a6bd
000003f0: 9e5e 14bd 8872 17be 5c5c 53bd 506f 8e3d

hidden_layers.1.bias f4 [42]
0.09168312 -0.04403548 0.051721 -0.15007038 0.047765177 0.15295427 -0.023624808 -0.0026045293
0.009702527 -0.13502659 0.105896115 0.04166816 0.1574866 0.10775866 0.11538354 -0.09442019
0.047169432 0.14715487 0.13514319 0.10990156 -0.04265215 -0.11982927 0.019778643 -0.103109054
0.05956774 -0.12173088 -0.07385947 0.062532485 0.038914878 -0.12234442 -0.14769387 0.026946848
-0.11225091 0.019573838 0.0009765979 0.06855712 0.14121887 -0.05648236 0.005863853 -0.014342137
0.15081985 -0.014605567
00000000: 5cc4 bb3d 8c5e 34bd 66d9 533d 0dac 19be
00000010: 6ba5 433d 0ba0 1c3e d088 c1bc c0b0 2abb
00000020: 59f7 1e3c 6944 0abe 10e0 d83d 3cac 2a3d
00000030: 2b44 213e 93b0 dc3d 354e ec3d 5f5f c1bd
00000040: bc34 413d c4af 163e fa62 0a3e 1214 e13d
00000050: 05b4 2ebd 0c69 f5bd d206 a23c d72a d3bd
00000060: 4dfd 733d 0a4e f9bd a243 97bd 0811 803d
00000070: 3565 1f3d b68f fabd 103d 17be a3bf dc3c
00000080: cee3 e5bd 5059 a03c 3001 803a ad67 8c3d
00000090: ae9b 103e 0c5a 67bd 9025 c03b 48fb 6abc
000000a0: 8570 1a3e 304c 6fbc

hidden_layers.2.weight f4 [42, 42]
-0.024157971 -0.07850983 -0.12849873 -0.026909024 -0.056243822 0.1326866 -0.015039682 -0.14838691
0.02644065 0.01451011 -0.041148372 0.108000204 -0.15320294 -0.14588898 0.07547422 -0.010745198
-0.11663081 0.117039934 -0.018198922 0.14151333 0.12063675 -0.011009142 -0.036016665 -0.112801924
0.08981711 -0.1453731 0.053678498 -0.05501666 -0.09087625 -0.020615205 -0.012859285 -0.09781721
0.079412356 -0.123549975 0.15333326 0.07327998 -0.021725073 0.1340961 0.030302092 -0.12167893
-0.058377184 -0.088226445 0.10533847 0.021333635 0.1520079 -0.11924302 -0.03557553 -0.0013436377
0.09268141 0.026601866 -0.08757545 0.011526093 -0.12777303 0.12133296 -0.14563353 -0.1301316
-0.07120773 -0.09673016 -0.051433094 -0.093957715 -0.09148338 -0.05427654 -0.14095673 0.12819587
0.0072137713 0.11441864 -0.011515185 0.122628465 -0.029545128 -0.14956908 -0.04055368 0.013185799
-0.10139266 0.0062204897 0.07706986 -0.01521641 0.097406164 0.0012666881 0.115747854 -0.09802446
0.13406028 -0.09251855 0.09404251 0.12385823 -0.06728568 -0.09363876 0.090348974 -0.05662506
0.030845433 -0.11322187 0.09173703 0.1203108 0.07094416 0.08990185 -0.13157608 -0.01372005
-0.07932203 0.077766985 0.044130445 -0.13893418 -0.14899887 -0.0839054 -0.04360891 -0.099720955
0.07471712 -0.06711334 -0.021111906 0.06074612 0.08481352 0.1404713 -0.08259285 -0.10428809
0.12712722 -0.014302209 0.15124787 -0.04269035 0.026386112 0.028430417 0.03406635 -0.02422598
-0.0019619018 -0.13205911 0.14567928 0.10933538 -0.13695535 0.06179273 0.056365848 0.05636072
-0.04702179 -0.13879515 0.14318268 -0.14766672 -0.029462665 0.056431934 0.05757015 0.043137923
-0.014084541 0.06728596 0.070982054 0.01223147 -0.080270655 -0.10609905 0.041448303 -0.14801434
0.065351665 -0.13701668 -0.034159902 0.088510975 0.046659306 -0.10245471 -0.043590553 0.1300389
-0.11167772 -0.1436093 0.06833322 0.10566558 -0.052648507 0.10111764 0.041467085 0.0915943
-0.1149638 -0.0512049 -0.075194836 -0.120551065 -0.06980085 0.027687756 0.0065440075 -0.040583365
-0.004866272 0.10286869 -0.13892202 -0.003821373 0.109655425 -0.059246942 -0.07594112 0.022572547
-0.07348295 -0.123132974 0.027282476 -0.01889661 0.07850556 -0.038201936 0.010888144 0.09051515
0.07783599 0.12786533 -0.14555594 -0.026545405 0.10874687 0.15136601 -0.011134967 -0.08262589
-0.03835062 -0.13035218 -0.080753304 0.12502806 0.07419434 0.053032324 -0.15202136 -0.04440692
0.023086578 0.029629871 0.11623053 0.05121328 -0.058550313 -0.077642865 0.14831825 0.059603244
-0.045670338 0.04178065 -0.12375024 0.087137625 0.031840548 0.14237423 -0.114944525 0.0032941778
-0.14433117 -0.07989053 0.13731539 -0.097397596 -0.05810992 -0.15540068 0.05565769 0.09687517
-0.058424637 -0.060605645 -0.077748515 0.058469974 -0.13520882 0.08758948 0.05407843 -0.11935267
-0.016456818 0.10934363 0.14550644 0.00065745413 0.12034385 -0.12751551 -0.08857708 -0.051068135
0.08375144 0.13417245 0.07656737 -0.13343374 -0.075512506 0.07763996 -0.114128776 -0.007166803
0.02335883 0.063044526 0.10424805 0.012367025 -0.060234275 -0.04314144 0.14519988 0.084186435
00000000: f0e6 c5bc c3c9 a0bd 2c95 03be 5070 dcbc
00000010: ec5f 66bd ffde 073e 0069 76bc bdf2 17be
00000020: 109a d83c d0bb 6d3c 328b 28bd 362f dd3d
00000030: 3be1 1cbe ec63 15be 3a92 9a3d a00c 30bc
00000040: 22dc eebd a2b2 ef3d e815 95bc dfe8 103e
00000050: 6610 f73d b05f 34bc 3686 13bd b204 e7bd
00000060: 08f2 b73d b0dc 14be fcdd 5b3d 2659 61bd
00000070: 541d babd 38e1 a8bc c0af 52bc 6454 c8bd
00000080: f2a2 a23d c507 fdbd 6503 1d3e d013 963d
00000090: c8f8 b1bc 7d50 093e 183c f83c ce32 f9bd
000000a0: ea1c 6fbd 11b0 b4bd b2bb d73d e0c3 ae3c
000000b0: f5a7 1b3e af35 f4bd a6b7 11bd 001d b0ba
000000c0: c0cf bd3d 28ec d93c c25a b3bd f0d7 3c3c
000000d0: efd6 02be 6a7d f83d f520 15be 3841 05be
000000e0: 5cd5 91bd 761a c6bd 82ab 52bd e76c c0bd
000000f0: a35b bbbd 1451 5ebd f656 10be c745 033e
00000100: 8061 ec3b 5254 ea3d 30aa 3cbc a224 fb3d
00000110: a008 f2bc a328 19be 9e1b 26bd 4009 583c
00000120: f4a6 cfbd 40d5 cb3b ced6 9d3d 404e 79bc
00000130: e27c c73d 0007 a63a 360d ed3d 0cc1 c8bd
00000140: 1947 093e 5e7a bdbd 5c99 c03d 62a9 fd3d
00000150: 13cd 89bd aec5 bfbd e208 b93d aeef 67bd
00000160: 90af fc3c dee0 e7bd a0e0 bb3d 8265 f63d
00000170: 2c4b 913d 761e b83d e1bb 06be 10ca 60bc
00000180: 9773 a2bd 4c44 9f3d 20c2 343d c344 0ebe
00000190: 2993 18be 98d6 abbd 429f 32bd 803a ccbd
000001a0: 4a05 993d b872 89bd e0f2 acbc ecd0 783d
000001b0: b6b2 ad3d b5d7 0f3e 7126 a9bd fe94 d5bd
000001c0: a32d 023e d053 6abc b9e0 1a3e 14dc 2ebd
000001d0: b027 d83c e8e6 e83c 2889 0b3d 9075 c6bc
000001e0: 4093 00bb 813a 07be f32c 153e 3aeb df3d
000001f0: 063e 0cbe 601a 7d3d e0df 663d 80da 663d
00000200: ec99 40bd 5120 0ebe 7b9e 123e f235 17be
00000210: b05b f1bc 2c25 673d adce 6b3d 64b1 303d
00000220: d9c2 66bc 39cd 893d 0a5f 913d 8166 483c
00000230: f164 a4bd 754a d9bd b2c5 293d 1291 17be
00000240: 18d7 853d 1a4e 0cbe 41eb 0bbd 3e45 b53d
00000250: d41d 3f3d c6d3 d1bd 028c 32bd eb28 053e
00000260: 4ab7 e4bd 510e 13be 4af2 8b3d 3267 d83d
00000270: f6a5 57bd c416 cf3d 64d9 293d cb95 bb3d
00000280: 2472 ebbd 3bbc 51bd c0ff 99bd 7ae3 f6bd
00000290: bff3 8ebd 6fd1 e23c 1d6f d63b be3a 26bd
000002a0: 4075 9fbb d2ac d23d 9341 0ebe 0070 7abb
000002b0: 0693 e03d ecac 72bd 0587 9bbd 10ea b83c
000002c0: 3b7e 96bd 242d fcbd 807f df3c 10cd 9abc
000002d0: 86c7 a03d a279 1cbd 3064 323c 0260 b93d
000002e0: 7a68 9f3d 21ef 023e 9e0c 15be c075 d9bc
000002f0: aeb6 de3d b1ff 1a3e 706f 36bc c337 a9bd
00000300: 8a15 1dbd 0b7b 05be fd61 a5bd 5b07 003e
00000310: 34f3 973d 6c38 593d 7dab 1bbe 08e4 35bd
00000320: 1020 bd3c 58ba f23c 460a ee3d 04c5 513d
00000330: 74d2 6fbd 3903 9fbd bde0 173e 8822 743d
00000340: d210 3bbd 3022 2b3d c470 fdbd 3675 b23d
00000350: 3c6b 023d 8dca 113e 0968 ebbd 22e3 573b
00000360: 8dcb 13be a59d a3bd 689c 0c3e 6478 c7bd
00000370: ab04 6ebd 5b21 1fbe 51f9 633d 7d66 c63d
00000380: ac4e 6fbd a03d 78bd 9d3a 9fbd 367e 6f3d
00000390: 2e74 0abe 1d62 b33d 5881 5d3d 2c6f f4bd
000003a0: 73d0 86bc 8eef df3d a4ff 143e 0059 2c3a
000003b0: d676 f63d 6d93 02be e667 b5bd d22c 51bd
000003c0: e085 ab3d 8164 093e 5acf 9c3d dba2 08be
000003d0: 4da6 9abd b301 9f3d 59bc e9bd 80d7 eabb
000003e0: 045b bf3c 7d1d 813d 0080 d53d 109f 4a3c
000003f0: 37b8 76bd 14b5 30bd 47af 143e f069 ac3d

hidden_layers.2.bias f4 [42]
-0.12972435 -0.1271537 -0.002814144 0.10647993 -0.13170668 0.14070375 0.07002502 0.11995236
0.0708487 0.13902295 -0.093130484 -0.06624755 -0.008402184 0.090720735 -0.15178116 -0.11234468
0.1353019 -0.022114344 -0.10513194 0.13571139 -0.07235308 -0.118752345 0.01929894 -0.1448115
0.024293225 0.04030484 0.07569484 0.13320826 0.13058636 0.047770433 -0.096964315 0.07526098
0.031102639 -0.05592648 -0.1174134 0.128317 -0.009353399 0.040430386 -0.12074529 -0.057256743
0.15774949 0.15470055
00000000: 76d6 04be 9434 02be 806d 38bb 2612 da3d
00000010: 1ede 06be a514 103e 4769 8f3d 95a9 f53d
00000020: 2019 913d 085c 0e3e 32bb bebd ccac 87bd
00000030: 50a9 09bc cbcb b93d 856c 1bbe f814 e6bd
00000040: 958c 0a3e 2429 b5bc 6a4f d7bd edf7 0a3e
00000050: da2d 94bd 6e34 f3bd d018 9e3c 7749 14be
00000060: 9602 c73c b016 253d e505 9b3d bf67 083e
00000070: 6eb8 053e eeaa 433d 3a95 c6bd 6e22 9a3d
00000080: f6ca fe3c 2a13 65bd 7076 f0bd 8865 033e
00000090: 003f 19bc 559a 253d 4e49 f7bd 0c86 6abd
000000a0: 1589 213e d269 1e3e

hidden_layers.3.weight f4 [42, 42]
0.027267843 0.1175261 -0.09618592 0.00513315 0.059984922 0.12379121 -0.116253674 -0.028793756
-0.022279799 -0.062826455 -0.020915285 0.042328127 0.021298863 0.031788725 0.065127775 -0.043341957
-0.109119155 0.15201217 0.018780902 0.0009668233 0.030509487 -0.03273391 -0.07217865 -0.076576374
-0.02554163 -0.08217392 -0.109080255 0.058590423 0.046280168 0.02767133 0.08190091 -0.116013475
-0.115785606 0.023431152 0.13845952 0.101528175 -0.011025026 -0.08400063 0.12478228 0.0023884326
0.10331302 -0.12903495 -0.040065862 -0.14932911 0.082940266 0.08725479 0.14680286 0.03497137
0.073498905 0.114917085 0.063558534 0.025074497 -0.1382585 -0.1502821 0.047306523 -0.053815834
-0.14709121 -0.13435987 0.0069800317 -0.08137099 -0.008842424 -0.07522203 -0.052506536 0.07224396
-0.033491172 -0.10194309 -0.019378066 -0.04085367 -0.10328016 -0.14819717 -0.027088076 -0.058958486
0.12125425 0.06937699 -0.077740096 -0.060084186 0.027308226 0.049084544 -0.14211023 0.025615335
-0.011868522 -0.06826643 -0.0069370717 0.0010409802 0.10884507 -0.14178964 -0.13234615 -0.07259491
0.08486588 -0.038911883 0.15789412 -0.11835267 0.03323792 -0.058215253 -0.0923135 -0.08458156
-0.11860751 -0.066248134 0.07841648 0.1308885 -0.121816576 0.10998947 0.10835968 -0.05018141
0.15219761 0.040028468 0.0038772076 -0.018122748 -0.0048698136 -0.14734733 0.045842122 -0.12465597
0.10983154 -0.04578189 -0.08759386 0.06737852 0.085147806 0.104381874 0.14015453 0.12296907
0.13572548 -0.06309589 0.06669362 0.058923602 0.12387423 0.010742795 -0.021559075 -0.042664602
0.13781096 -0.088683784 0.14221679 -0.09006883 -0.12404951 -0.11411764 -0.15194455 0.01480113
-0.109026775 0.08958383 -0.03835319 -0.106958434 -0.1402213 -0.059595495 0.07006647 -0.112270236
0.14778532 -0.104150176 0.011292994 -0.05558107 -0.14910552 0.01850842 -0.07878924 -0.103918225
-0.04958845 0.037340745 -0.051392958 -0.049096458 -0.00673604 0.11092074 0.057109043 0.11078723
-0.09753074 0.05128169 -0.12126723 0.04161817 -0.12822458 0.044679314 0.027850896 -0.024248108
0.0656694 -0.05730424 -0.10854261 0.11209492 0.03139013 0.007210096 -0.021780679 -0.02448525
-0.08303119 0.03692288 -0.024808466 0.08796055 -0.09242608 0.10237361 0.06094934 0.11501138
0.07930725 0.14719467 0.031848446 -0.108822845 0.13230957 -0.08015328 0.025027543 -0.07389944
-0.11289958 0.13072486 -0.032034848 -0.1092868 -0.121691026 0.07283481 -0.11370307 -0.09770205
0.08971689 -0.062118717 -0.10307285 0.12976146 -0.00573878 -0.11663925 0.07604754 -0.09592505
0.11363175 0.08950749 -0.062078156 -0.11512582 0.13062991 -0.11724661 0.096303776 -0.026347961
0.026965933 0.023862755 0.11372359 0.01849487 -0.038930573 -0.030038986 0.11801565 0.14207274
0.15318902 -0.10490998 -0.07250446 -0.12951073 0.035152912 -0.093321115 -0.04047107 0.020785645
0.053574547 0.044705972 -0.09867196 0.104238376 -0.12704462 0.059745867 0.013642954 0.12408264
0.042721003 -0.088873096 -0.06671882 0.019522965 -0.10595046 -0.022581497 -0.02458021 0.06451998
-0.07022091 0.08833416 0.06836988 0.0072933477 -0.0780695 0.012351304 0.0733459 0.08428201
00000000: d060 df3c 86b1 f03d 20fd c4bd fc33 a83b
00000010: c0b2 753d 3f86 fd3d 6816 eebd e2e0 ebbc
00000020: 2084 b6bc 28ab 80bd 8856 abbc 4260 2d3d
00000030: f47a ae3c e534 023d b661 853d 5687 31bd
00000040: dd79 dfbd 14a9 1b3e 68da 993c 6a72 7d3a
00000050: 08ef f93c fe13 06bd 66d2 93bd 13d4 9cbd
00000060: ae3c d1bc cd4a a8bd 7865 dfbd 83fc 6f3d
00000070: 4690 3d3d fcae e23c aabb a73d 7998 edbd
00000080: 0121 edbd b0f2 bf3c 55c8 0d3e 01ee cf3d
00000090: 50a2 34bc 8608 acbd da8d ff3d 4087 1c3b
000000a0: c795 d33d bd21 04be 1a1c 24bd bbe9 18be
000000b0: 96dc a93d a4b2 b23d 7d53 163e 243e 0f3d
000000c0: 9886 963d a659 eb3d fa2a 823d 0869 cd3c
000000d0: a393 0dbe 8de3 19be 7cc4 413d fe6d 5cbd
000000e0: 149f 16be a295 09be c0b8 e43b d5a5 a6bd
000000f0: d0df 10bc 020e 9abd 1811 57bd a4f4 933d
00000100: 0a2e 09bd 8ac7 d0bd c0be 9ebc 2e56 27bd
00000110: 8c84 d3bd 00c1 17be d0e7 ddbc 747e 71bd
00000120: 2654 f83d 8615 8e3d 3336 9fbd d61a 76bd
00000130: 80b5 df3c e00c 493d 5885 11be 40d7 d13c
00000140: 3074 42bc 45cf 8bbd 6050 e3bb 8071 883a
00000150: 2aea de3d 4e31 11be c085 07be a4ac 94bd
00000160: 2ace ad3d 1162 1fbd ffae 213e e262 f2bd
00000170: 7c24 083d 1e73 6ebd dc0e bdbd 1939 adbd
00000180: 7fe8 f2bd 1aad 87bd d298 a03d a307 063e
00000190: f87a f9bd 2942 e13d aeeb dd3d 068b 4dbd
000001a0: b1d9 1b3e e4f4 233d c018 7e3b 2876 94bc
000001b0: f592 9fbb 38e2 16be f3c4 3b3d a14b ffbd
000001c0: 5cef e03d cb85 3bbd 6964 b3bd c0fd 893d
000001d0: f961 ae3d 2ac6 d53d ab84 0f3e 35d7 fb3d
000001e0: 9ffb 0a3e 6b38 81bd aa96 883d e059 713d
000001f0: c6b1 fd3d 8c02 303c a89c b0bc 14c1 2ebd
00000200: 511e 0d3e d89f b5bd 47a1 113e 0276 b8bd
00000210: ab0d febd 82b6 e9bd 5a97 1bbe 7080 723c
00000220: 6e49 dfbd ba77 b73d 3c18 1dbd 060d dbbd
00000230: 2c96 0fbe 681a 74bd 027f 8f3d f0ed e5bd
00000240: 0955 173e b04c d5bd 4006 393c faa8 63bd
00000250: 1eaf 18be f89e 973c 415c a1bd 14d3 d4bd
00000260: 421d 4bbd 9cf2 183d 6c81 52bd 5e19 49bd
00000270: 00ba dcbb 6a2a e33d 2ceb 693d 6ae4 e23d
00000280: 32be c7bd c00c 523d f45a f8bd d077 2a3d
00000290: 4e4d 03be a801 373d 9027 e43c f8a3 c6bc
000002a0: ae7d 863d dab7 6abd 974b debd 0592 e53d
000002b0: f092 003d ab42 ec3b 656d b2bc 4a95 c8bc
000002c0: 420c aabd 723c 173d 203b cbbc a924 b43d
000002d0: e249 bdbd 41a9 d13d 04a6 793d 168b eb3d
000002e0: d76b a23d 33ba 163e 8473 023d 83de debd
000002f0: 297c 073e 6727 a4bd 9006 cd3c 9758 97bd
00000300: e537 e7bd bddc 053e f936 03bd c2d1 dfbd
00000310: 2539 f9bd 6b2a 953d 28dd e8bd 0318 c8bd
00000320: 7dbd b73d 3270 7ebd dc17 d3bd 30e0 043e
00000330: 600c bcbb 8fe0 eebd d0be 9b3d 5a74 c4bd
00000340: c3b7 e83d b44f b73d aa45 7ebd 16c7 ebbd
00000350: d9c3 053e fe1e f0bd ea3a c53d aed7 d7bc
00000360: a9e7 dc3c d37b c33c eae7 e83d 8e82 973c
00000370: aa75 1fbd 5214 f6bc 30b2 f13d 847b 113e
00000380: 95dd 1c3e 0bdb d6bd 387d 94bd 769e 04be
00000390: 80fc 0f3d 241f bfbd fec4 25bd a846 aa3c
000003a0: fc70 5b3d 9c1d 373d 8614 cabd ee7a d53d
000003b0: fc17 02be 15b8 743d b286 5f3c 0a1f fe3d
000003c0: 38fc 2e3d 1903 b6bd e0a3 88bd a0ee 9f3c
000003d0: 8efc d8bd d5fc b8bc 705c c9bc 0d23 843d
000003e0: fbcf 8fbd 8ae8 b43d 8205 8c3d 09fd ee3b
000003f0: e7e2 9fbd 205d 4a3c 6036 963d 0c9c ac3d

hidden_layers.3.bias f4 [42]
0.019403527 -0.068839826 0.050616633 -0.13471605 0.072520666 0.13263579 0.14614923 -0.05795183
-0.10699502 0.14554134 -0.05441729 -0.09776786 -0.08043764 0.033231437 0.010575965 0.10126685
-0.09242151 0.070906125 0.07032646 0.14149496 -0.12749764 0.11679163 0.100796476 -0.065745994
-0.07881613 -0.032105096 -0.0817645 -0.1451612 -0.06692883 -0.120234534 0.08367342 0.08141678
0.08110701 0.029161956 -0.10660991 0.11051835 0.15923029 -0.08070082 0.0046389597 -0.09821072
0.111166745 0.097542636
00000000: 25f4 9e3c e5fb 8cbd 6353 4f3d 01f3 09be
00000010: b785 943d add1 073e 25a8 153e e65e 6dbd
00000020: 3420 dbbd ca08 153e aae4 5ebd 843a c8bd
00000030: 7dbc a4bd b01d 083d d046 2d3c ff64 cf3d
00000040: 7d47 bdbd 3b37 913d 5207 903d 0ee4 103e
00000050: be8e 02be 7330 ef3d 626e ce3d d6a5 86bd
00000060: 5a6a a1bd a280 03bd 2574 a7bd 23a5 14be
00000070: fc11 89bd 863d f6bd f85c ab3d d7bd a63d
00000080: 6f1b a63d 0ee5 ee3c 4c56 dabd 7257 e23d
00000090: 440d 233e 7946 a5bd 6a02 983b b422 c9bd
000000a0: 64ab e33d 6fc4 c73d

output_layer1.weight f4 [40, 42]
-0.12837888 0.14639516 -0.087731645 0.09633027 0.002052604 -0.09917434 -0.051865354 -0.052451998
-0.06444737 0.1119029 0.115005895 0.13223158 -0.0059798956 -0.09032747 -0.01598173 -0.022231786
-0.1319221 -0.069027 -0.099885456 -0.059526466 -0.03973154 0.0061704954 0.08576523 -0.117516756
-0.06673692 -0.14646734 -0.0058954954 -0.13372979 0.12561545 -0.06660353 -0.010681899 -0.07217683
0.12228591 -0.11507542 0.060576037 0.005511867 -0.120870784 0.054495707 0.13260172 -0.1256113
-0.0920765 0.03869752 -0.0022111796 0.09653406 -0.11717433 -0.057987593 0.004048439 -0.103921495
-0.07728725 -0.050627276 -0.08242316 -0.11595674 0.09523951 -0.020533308 -0.10487299 0.088738844
-0.004096245 0.0348167 0.06871267 0.0038308993 0.108436376 -0.11730667 -0.14803262 -0.046617508
0.11576513 0.024532065 -0.012364 -0.09355554 0.0718939 -0.12471554 -0.14899231 0.08721435
-0.042488314 -0.12168626 -0.04005938 0.043310657 0.012539953 -0.08344238 0.13063297 -0.050251238
0.03124445 6.361306e-05 0.04267394 0.04371647 -0.09679919 -0.00799942 -0.086142555 -0.0048448592
-0.0874147 -0.01203068 0.033981156 -0.060325906 0.023156647 0.06939447 -0.14791737 0.1467428
-0.072549805 0.040928856 -0.12651472 -0.04706738 -0.13807282 0.057390027 0.0016526389 0.09925347
0.13641588 0.044775095 -0.10223575 0.10316761 0.00029072165 0.04187888 -0.14083304 0.12534817
-0.11618726 0.11946739 0.13589476 0.062387116 -0.111814186 0.00823256 -0.09536956 -0.13695025
-0.14627665 0.091356024 0.12706636 -0.04205109 0.014313448 -0.014442091 0.08338919 0.09223591
0.02278921 0.13846697 -0.13227156 -0.14348233 -0.13722356 0.01701209 -0.10657051 0.053483486
0.09539465 0.038326487 0.15424056 0.019693628 0.0613671 0.14783458 -0.11002879 0.15486874
-0.10571417 0.04498152 0.097650275 0.15493385 -0.05201537 -0.14366925 -0.09505193 -0.022519425
-0.064741276 0.027275011 -0.050729584 -0.043280147 -0.008042343 0.123767 0.10692418 0.07430328
-0.06281124 -0.07980322 -0.10854731 -0.124518104 -0.017571324 0.091083616 0.07503804 -0.119647644
0.041102853 0.00668478 -0.028430808 0.08932255 -0.024064127 0.12703237 -0.13888802 0.028642267
-0.023557108 0.025622793 0.11765269 0.013633043 -0.08089738 0.06911497 0.02633457 -0.010204742
0.0019987226 -0.106427625 -0.017161747 0.04133682 -0.09573057 0.048354555 -0.14369342 0.08257888
0.06947178 0.13089357 0.13258024 -0.024994075 -0.04390995 0.09593056 0.018069178 -0.0077157826
0.1125906 0.02264459 0.14087595 0.12924786 -0.10872644 0.0030016005 0.1278675 -0.031582326
-0.031581048 0.06282644 0.01007549 0.118319765 -0.15225011 -0.09514239 0.037889402 0.11479747
0.08026239 0.10822992 0.12167861 -0.12328086 -0.07076843 -0.04709257 -0.0065677315 0.117900416
0.03693568 0.06299807 0.109878376 -0.15017687 -0.016858082 0.028341528 -0.023988679 -0.07115119
-0.034347292 0.13842945 0.09132603 -0.031532533 -0.10235904 0.13250624 0.12653667 0.0075409263
-0.009454189 -0.11049772 0.12431443 -0.14205153 -0.10195961 0.12500161 0.049066734 0.11524014
0.032752905 -0.06268885 -0.026158148 0.07526809 -0.03480926 0.088298336 -0.043202966 -0.0013234913
00000000: c175 03be 9de8 153e a6ac b3bd ce48 c53d
00000010: fb84 063b eb1b cbbd c470 54bd e8d7 56bd
00000020: fcfc 83bd 592d e53d 3688 eb3d b767 073e
00000030: 00f3 c3bb 9cfd b8bd 1eec 82bc 6f1f b6bc
00000040: 9616 07be 075e 8dbd bf90 ccbd 06d2 73bd
00000050: 8abd 22bd de31 ca3b aea5 af3d a0ac f0bd
00000060: 5ead 88bd 89fb 15be 002f c1bb 76f0 08be
00000070: 56a1 003e 6e67 88bd 2203 2fbc 72d1 93bd
00000080: 0971 fa3d a9ac ebbd 941e 783d e49c b43b
00000090: 1a8b f7bd e436 5f3d bfc8 073e 40a0 00be
000000a0: 9b92 bcbd 4a81 1e3d 70e9 10bb a6b3 c53d
000000b0: 18f9 efbd 6684 6dbd c5a8 843b cbd4 d4bd
000000c0: c748 9ebd 8c5e 4fbd 79cd a8bd ba7a edbd
000000d0: ef0c c33d 7835 a8bc a6c7 d6bd b6bc b53d
000000e0: cb39 86bb f59b 0e3d 3ab9 8c3d d30f 7b3b
000000f0: e413 de3d 7b3e f0bd dd95 17be 00f2 3ebd
00000100: 4516 ed3d 78f7 c83c 6092 4abc 0c9a bfbd
00000110: 1c3d 933d dc6a ffbd 7191 18be 709d b23d
00000120: 3a08 2ebd a536 f9bd 4e15 24bd 8466 313d
00000130: 6074 4d3c d7e3 aabd a6c4 053e 3ed4 4dbd
00000140: 5cf4 ff3c 0068 8538 dfca 2e3d 0b10 333d
00000150: a73e c6bd 0010 03bc 826b b0bd a0c1 9ebb
00000160: 7a06 b3bd 541c 45bc d32f 0b3d 4c18 77bd
00000170: 02b3 bd3c b01e 8e3d a777 17be bf43 163e
00000180: fe94 94bd 04a5 273d 138d 01be bac9 40bd
00000190: f662 0dbe ce11 6b3d 5c9d d83a 6745 cb3d
000001a0: 9bb0 0b3e 1766 373d fa60 d1bd 8a49 d33d
000001b0: 006c 9839 3089 2b3d 8936 10be 455b 003e
000001c0: 96f3 edbd 52ab f43d ff27 0b3e a289 7f3d
000001d0: d6fe e4bd dce1 063c 1e51 c3bd b03c 0cbe
000001e0: 8cc9 15be de18 bb3d af1d 023e c43d 2cbd
000001f0: f482 6a3c 859e 6cbc f4c7 aa3d 2ee6 bc3d
00000200: 70b0 ba3c 49ca 0d3e 3272 07be 08ed 12be
00000210: 5584 0cbe f05c 8b3c a441 dabd 8011 5b3d
00000220: 455e c33d 3cfc 1c3d 3df1 1d3e 8854 a13c
00000230: 115c 7b3d f361 173e c656 e1bd e995 1e3e
00000240: ac80 d8bd 8b3e 383d defc c73d fba6 1e3e
00000250: 120e 55bd 081e 13be 96aa c2bd a87a b8bc
00000260: 1397 84bd d86f df3c d3c9 4fbd 8646 31bd
00000270: 08c4 03bc 8e79 fd3d 11fb da3d 512c 983d
00000280: 2ea3 80bd df6f a3bd 0d4e debd 5903 ffbd
00000290: bdf1 8fbc 0c8a ba3d 8bad 993d d309 f5bd
000002a0: 775b 283d 000c db3b bae7 e8bc beee b63d
000002b0: 2222 c5bc c614 023e a938 0ebe 30a3 ea3c
000002c0: d6fa c0bc e4e6 d13c e5f3 f03d 205d 5f3c
000002d0: 87ad a5bd 268c 8d3d 99bb d73c ca31 27bc
000002e0: 00fd 023b baf6 d9bd cb96 8cbc cc50 293d
000002f0: 640e c4bd 6d0f 463d 5e24 13be 1e1f a93d
00000300: 3847 8e3d f708 063e 1dc3 073e 60c0 ccbc
00000310: ebda 33bd 3e77 c43d d005 943c add4 fcbb
00000320: e795 e63d 2681 b93c c941 103e 8d59 043e
00000330: f8ab debd 80b6 443b b3ef 023e 785c 01bd
00000340: 215b 01bd 26ab 803d ab13 253c a251 f23d
00000350: 74e7 1bbe 03da c2bd eb31 1b3d f01a eb3d
00000360: 9c60 a43d a6a7 dd3d a332 f93d ad7a fcbd
00000370: 0aef 90bd 24e4 40bd 2036 d7bb c675 f13d
00000380: de49 173d 2205 813d ea07 e13d f7c7 19be
00000390: f619 8abc 7e2c e83c e883 c4bc b7b7 91bd
000003a0: bfaf 0cbd 73c0 0d3e 2409 bb3d 4228 01bd
000003b0: 9ea1 d1bd b7af 073e d492 013e e019 f73b
000003c0: bee5 1abc a14c e2bd 9098 fe3d f575 11be
000003d0: 33d0 d0bd 6c00 003e 33fa 483d 0603 ec3d
000003e0: e927 063d 0363 80bd 9d49 d6bc 2826 9a3d
000003f0: 2894 0ebd c2d5 b43d 98f5 30bd 0079 adba

output_layer1.bias f4 [40]
0.027036332 -0.10626893 0.13838479 -0.04197193 -0.0076675806 0.121699676 -0.14376621 -0.054066863
-0.08232893 0.064502716 -0.09693423 0.013165832 -0.06930138 -0.14037423 -0.0069645634 0.0737569
0.13128851 -0.047296368 0.03884759 0.021528862 0.005059514 -0.048171252 -0.028017785 0.104323655
-0.05143433 -0.03472219 -0.13393378 0.020577183 -0.1048526 -0.02106959 0.0762358 -0.036741585
-0.10590586 0.1215732 -0.067928664 0.1446606 0.1505955 -0.11207261 -0.007614063 0.0587905
00000000: 4c7b dd3c 86a3 d9bd beb4 0d3e c2ea 2bbd
00000010: 5440 fbbb ae3d f93d 7337 13be 3775 5dbd
00000020: 129c a8bd 001a 843d 7485 c6bd 80b5 573c
00000030: e2ed 8dbd 43be 0fbe fe36 e4bb dc0d 973d
00000040: 7f70 063e d6b9 41bd a71e 1f3d 4c5d b03c
00000050: 48ca a53b 384f 45bd 8e85 e5bc a4a7 d53d
00000060: ceac 52bd db38 0ebd f025 09be 7b91 a83c
00000070: f6bc d6bd 229a acbc 8421 9c3d 587e 16bd
00000080: 2ce5 d8bd 5ffb f83d 2f1e 8bbd e921 143e
00000090: b535 1a3e 5386 e5bd 647f f9bb 4fce 703d

output_layer2.weight f4 [1, 42]
-0.14729252 -0.11850505 0.14502677 0.015489519 0.13312447 -0.0820573 -0.04639157 -0.08779936
-0.00047474305 -0.08443018 0.11926888 0.14553078 -0.14514333 0.02972141 -0.034359463 -0.14066413
0.120475635 -0.034295976 0.03489374 -0.13174036 0.059349656 0.014766544 -0.12303632 0.13161255
0.057734177 -0.09112174 0.0128792375 0.027899146 0.047842987 -0.045219474 0.1428611 0.060252666
-0.05919866 -0.0014172882 -0.07017463 0.10207096 0.044857018 0.10890578 0.11192293 0.027910948
-0.14653076 0.0066549447
00000000: dad3 16be c7b2 f2bd e681 143e c0c7 7d3c
00000010: c851 083e a80d a8bd 1605 3ebd 27d0 b3bd
00000020: efe6 f8b9 bbe9 acbd 3e43 f43d 0506 153e
00000030: 74a0 14be 507a f33c 82bc 0cbd 420a 10be
00000040: eebb f63d f079 0cbd bdec 0e3d f2e6 06be
00000050: a018 733d 60ef 713c 77fa fbbd 71c5 063e
00000060: ac7a 6c3d 099e babd 7003 533c c08c e43c
00000070: 02f7 433d 0e38 39bd 2e4a 123e 80cb 763d
00000080: 4b7a 72bd 4dc4 b9ba b7b7 8fbd 940a d13d
00000090: febb 373d fe09 df3d d937 e53d 80a5 e43c
000000a0: 290c 16be b911 da3b
