src/models/dynamics_20.pt (torch, 47860 bytes, 13 tensors)

input_layer.weight f4 [42, 42]
0	0x3df089b9	0.117450185
1	0xbdd78d21	-0.10524965
2	0xbe1530f1	-0.14569451
3	0x3e2676a7	0.162562
4	0xbd28d2e2	-0.04121674
5	0xbdd848b0	-0.10560739
6	0xbe00417a	-0.12524977
7	0xbdaf992a	-0.085741356
8	0xbd3b327c	-0.045702443
9	0x3c8e8e89	0.01740195
10	0xbdec98a4	-0.115525514
11	0xbd22fb5c	-0.039790496
12	0x3d902402	0.07038118
13	0x3d95be5b	0.07311698
14	0xbd20bb3d	-0.039241064
15	0xbd2dc253	-0.04242165
16	0xbd0941a4	-0.033509865
17	0x3bd52ccb	0.006505584
18	0x3dd407ac	0.10353026
19	0xbd42377a	-0.047416188
20	0x3db1c2ad	0.086797096
21	0x3c808026	0.015686106
22	0xbdeb3131	-0.11483992
23	0xbd69766b	-0.056997698
24	0x3c93a25a	0.018021751
25	0xbdffdc99	-0.124932475
26	0x3daf2d76	0.08553593
27	0xbdf4e177	-0.119570665
28	0x3d7e9526	0.062153958
29	0x3cdeb040	0.027183652
30	0x3dafe592	0.08588709
31	0xbd982d93	-0.074305676
32	0x3d2b0780	0.0417552
33	0xbccae1de	-0.024765905
34	0xbe0bba80	-0.13645363
35	0x3dc8f9ac	0.09813246
36	0x3dfbc658	0.122936904
37	0x3de7368c	0.11289701
38	0x3d533bcd	0.051570702
39	0xbc9171f8	-0.01775454
40	0xbd045636	-0.03230878
41	0xbd88a8e5	-0.06672839
42	0xbd319c84	-0.043362156
43	0xbd94ca6e	-0.07265173
44	0x3a8acb72	0.0010589196
45	0x3d2b3121	0.0417949
46	0x3e0b4b48	0.13602936
47	0x3e02641c	0.12733501
48	0xbda3afe1	-0.079925306
49	0x3c20e95b	0.009821261
50	0x3da60a38	0.08107418
51	0x3d56d6f5	0.052451093
52	0x3de19549	0.11014802
53	0x3b848374	0.0040439907
54	0xbd9ee927	-0.07759314
55	0x3c1e3ce0	0.009658068
56	0xbd75554d	-0.059895802
57	0xbb106901	-0.0022035243
58	0xbe129d34	-0.1431778
59	0xbc63a870	-0.013895139
60	0x3d74e508	0.059788734
61	0x3daaef34	0.083464056
62	0x3e01bf12	0.12670544
63	0xbe253b2c	-0.16135854
64	0x3d89a69c	0.06721231
65	0x3df49121	0.11941744
66	0x3dafc3c7	0.085822634
67	0xbcc43967	-0.023953153
68	0xbde0fb28	-0.10985404
69	0xbc83a81d	-0.016071374
70	0x3ca05f52	0.019576702
71	0x3dc1903f	0.09451341
72	0x3dcae052	0.09906067
73	0xbd892a5a	-0.06697531
74	0x3cff2b9c	0.031148724
75	0x3e23ade2	0.159843
76	0x3e102bf0	0.14079261
77	0x3e0048c6	0.12527761
78	0x39c23fa8	0.0003704999
79	0xbdb0980e	-0.08622752
80	0xbd4fa5db	-0.05069528
81	0xbe04db16	-0.129742
82	0xbdfa79fb	-0.12230297
83	0x3da143d6	0.07874267
84	0xbe03f120	-0.1288495
85	0x3dfa74be	0.12229298
86	0x3deebd22	0.11657168
87	0x3c11943b	0.008885439
88	0xbe025ac1	-0.12729932
89	0xbda6d3da	-0.08145876
90	0xbdc7e460	-0.09760356
91	0x3de4a53c	0.111643285
92	0x3cf7b8df	0.03023952
93	0xbc4081d6	-0.011749705
94	0xb9ee0e74	-0.00045405666
95	0xbd4bba1f	-0.049738046
96	0x3dd50f90	0.10403359
97	0x3d8231a3	0.06357124
98	0x3c2fd77d	0.010732529
99	0x3db302eb	0.08740791
100	0xbe087bf1	-0.1332853
101	0x3dac4f4a	0.08413561
102	0xbd933ef2	-0.0718974
103	0x3c031a21	0.008001835
104	0xbdd57674	-0.10422984
105	0x3d95d07d	0.073151566
106	0xbe1e7c1a	-0.15477028
107	0x3db5e0ca	0.08880766
108	0xbe116c69	-0.14201511
109	0xbe0518d0	-0.12997746
110	0x3e00d682	0.12581828
111	0xbd996e14	-0.07491699
112	0x3d462360	0.04837358
113	0x3d665adf	0.056239005
114	0xbdd05d93	-0.10174098
115	0xbe211364	-0.15730053
116	0x3d6cfaa0	0.057856202
117	0xbd8f21b1	-0.06988848
118	0xbe2669af	-0.16251253
119	0xbdf55f3c	-0.11981055
120	0xbdea135d	-0.114294745
121	0xbe27d482	-0.16389659
122	0x3da18f4c	0.0788866
123	0x3d366dea	0.044538416
124	0x3d10248d	0.035191108
125	0xbdfa9299	-0.122349925
126	0xbd888b78	-0.066672266
127	0x3de824f6	0.11335175
128	0x3da23d5f	0.07921862
129	0x3d709fdc	0.058746204
130	0xbd39a12e	-0.04531973
131	0xbd890daf	-0.06692063
132	0x3de6da1d	0.112720706
133	0x3c748f4e	0.014926745
134	0x3e1dd85e	0.15414569
135	0xbe0446fb	-0.12917702
136	0x3e11dd34	0.14244539
137	0xbd48b37b	-0.04899929
138	0x3e0a1e1f	0.13488053
139	0x3d3860e2	0.04501427
140	0xbe03e4a5	-0.1288019
141	0xbd71b0a4	-0.05900635
142	0xbe1bef6f	-0.15228055
143	0x3dc7c5fb	0.09754559
144	0xbdd78ffe	-0.10525511
145	0x3df1b3ae	0.11801849
146	0xbc8996cc	-0.016795538
147	0xbdfe0bd8	-0.12404603
148	0x3d16699c	0.03672181
149	0x3b384862	0.0028119315
150	0x3dc6cff1	0.097076304
151	0xbe330150	-0.1748097
152	0xbdb6e3fc	-0.08930203
153	0x3d5a84bb	0.053349238
154	0x3d86f1a7	0.0658906
155	0xbe332a6b	-0.1749665
156	0x3e0f53b5	0.13996775
157	0x3dcfaf09	0.10140807
158	0xbe2da673	-0.16958027
159	0x3d83150d	0.064004995
160	0xbe18d7ce	-0.14926073
161	0xbd886573	-0.06659975
162	0xbd549e14	-0.051908568
163	0x3db00b62	0.08595921
164	0xbd44cd61	-0.048047427
165	0xbcceeedd	-0.025260383
166	0xbd19f039	-0.03758261
167	0x3cc3151f	0.023813782
168	0x3d699457	0.057026234
169	0xbd6417f6	-0.055686913
170	0xbdc296f3	-0.095014475
171	0x3dc39dc9	0.095515795
172	0x3ddcbcdf	0.10778212
173	0x3d8f3753	0.06992974
174	0x3d43794e	0.047723107
175	0x3db4f2bd	0.08835361
176	0xbd96728e	-0.07346068
177	0x3da0af58	0.07845944
178	0xbc673ba8	-0.014113344
179	0xbe1aac48	-0.15104783
180	0x3cdb6619	0.026782082
181	0x3dbf1051	0.09329284
182	0xbd9c351b	-0.076273166
183	0xbd2bee3e	-0.041975252
184	0x3d62daa2	0.055384286
185	0x3dcbf65c	0.09959099
186	0x3c6d9f81	0.014503361
187	0xbe141500	-0.14461136
188	0xbdb9530d	-0.09049044
189	0x3d856c8d	0.06514845
190	0x3cc0acf5	0.023519972
191	0x3ddffbc4	0.10936692
192	0xbd636750	-0.05551845
193	0x3d06bbfe	0.032894127
194	0x3c334ecd	0.010944081
195	0xbb2a048d	-0.0025942654
196	0xbd1b895d	-0.037972797
197	0xbd449be2	-0.048000224
198	0xbda560ef	-0.08075129
199	0xbddfd6eb	-0.10929664
200	0xbc8e6699	-0.017382907
201	0x3e073534	0.13203889
202	0x3d66de93	0.056364607
203	0xbd634a5a	-0.05549083
204	0x3e105612	0.14095333
205	0xbe11bd2f	-0.14232324
206	0xbdff4d28	-0.12465888
207	0xbd327b50	-0.04357463
208	0xbc950ee1	-0.018195571
209	0x3e102e52	0.1408017
210	0xbc20890b	-0.009798299
211	0x3d951cfc	0.07280919
212	0x3de45048	0.11148125
213	0x3e16467f	0.1467533
214	0xbe073070	-0.13202071
215	0x3d697e24	0.057005063
216	0xbd865c8e	-0.06560622
217	0xbdbecb74	-0.09316149
218	0x3db1b28f	0.086766355
219	0xbd10404e	-0.035217576
220	0xbe0632e5	-0.13105352
221	0xbd2455a5	-0.04012074
222	0xbdcfb3d2	-0.1014172
223	0x3a1d2747	0.00059949275
224	0xbdfb4a05	-0.122699775
225	0xbe181f31	-0.14855649
226	0xbd97c164	-0.07409933
227	0xbd861aec	-0.06548104
228	0x3d295b25	0.041346688
229	0x3d736bb4	0.059428886
230	0x3d5b1cbe	0.053494208
231	0xbd2a3414	-0.04155357
232	0x3d6ce13e	0.057831995
233	0x3c8017c8	0.01563634
234	0x3d8319fa	0.06401439
235	0x3c9801d4	0.01855556
236	0x3c740bb5	0.014895369
237	0xbc95ebd1	-0.018300923
238	0xbdaa52ef	-0.083165996
239	0xbdf2e560	-0.11860156
240	0xbd35c99a	-0.044381715
241	0xbca4a73b	-0.020099273
242	0x3e2be422	0.16786245
243	0xbcf1f33e	-0.029534932
244	0x3d30e92b	0.043191116
245	0x3dd70aeb	0.10500129
246	0xbdacfe86	-0.08446984
247	0x3e02994d	0.12753792
248	0x3d576717	0.05258855
249	0x3da6b93d	0.081408
250	0xbe3117fc	-0.17294306
251	0xbcff45cc	-0.031161211
252	0xbde6ad4d	-0.11263523
253	0xbd148fc8	-0.036269933
254	0x3e20c245	0.15699108
255	0xbe0b5d0d	-0.13609715

input_layer.bias f4 [42]
0	0x3d2fd0d7	0.042923775
1	0x3d9e8f4f	0.07742178
2	0x3dfca76d	0.123366214
3	0x3db39f70	0.08770645
4	0x3ddf82e6	0.10913639
5	0x3dc6f340	0.09714365
6	0x3dc26899	0.09492607
7	0xbd98bcf5	-0.07457916
8	0xbd619410	-0.055072844
9	0xbca1f506	-0.019770157
10	0x3cfd2410	0.030900985
11	0xbd1a7741	-0.037711386
12	0xbd0e6aec	-0.034769937
13	0xbcec5dc9	-0.028853314
14	0xbdfe87b8	-0.1242823
15	0x3de73e8a	0.11291225
16	0x3b0c71fc	0.0021430245
17	0x3d10b87e	0.035332195
18	0x3ce3b7d8	0.027797624
19	0x3d3f99f1	0.04677767
20	0xbe0bceed	-0.13653155
21	0xbd34d213	-0.044145655
22	0xbe017c58	-0.1264509
23	0x3dd8a6e4	0.10578707
24	0xbc8c9c71	-0.01716444
25	0x3df33b34	0.118765265
26	0x3e0d89d7	0.13822113
27	0x3db93f22	0.09045245
28	0x3e0d7705	0.13814934
29	0x3dad5b1b	0.084646426
30	0x3e1c6ced	0.15275927
31	0xbdbe57bb	-0.09294077
32	0x3de2bfc0	0.1107173
33	0x3dea7815	0.11448685
34	0xbdf685d2	-0.12037243
35	0xbd3e057c	-0.04639195
36	0xbdad4df0	-0.08462131
37	0x3e2692cd	0.16266938
38	0xbc847d85	-0.016173134
39	0x3ac56895	0.0015061075
40	0x3d246d7c	0.040143475
41	0xbe1bb6db	-0.15206473

hidden_layers.0.weight f4 [42, 42]
0	0x3d9c8e92	0.07644381
1	0x3de3271f	0.11091446
2	0xbdd6d8c8	-0.104905665
3	0x3da2f746	0.0795732
4	0x3dca8f2d	0.0989059
5	0xbd414afc	-0.04719065
6	0xbb85a300	-0.004078269
7	0x3e169f97	0.14709316
8	0x3dd8c27e	0.105839714
9	0xbe04e9ce	-0.12979814
10	0x3dac5674	0.08414927
11	0x3cff8050	0.031189114
12	0x3d997158	0.07492322
13	0x3d9da33f	0.07697152
14	0xbd9b8f8c	-0.07595739
15	0x3da53d0c	0.080682844
16	0x3c9cbc48	0.019132748
17	0xbdda7653	-0.106671
18	0x3d952e1b	0.072841845
19	0xbe13e0fa	-0.1444129
20	0xbdd9468e	-0.1060916
21	0xbd21cbb0	-0.039500892
22	0x3ddcf20a	0.10788353
23	0x3d97db9c	0.07414934
24	0x3d9fd5e2	0.07804467
25	0xbddb4bce	-0.10707818
26	0xbe1ff86b	-0.15622108
27	0xbd913329	-0.07089836
28	0xbd13b9be	-0.03606581
29	0x3d16053a	0.03662608
30	0x3ddbaae6	0.10725956
31	0x3d1dee7c	0.038557515
32	0xbd10a6aa	-0.035315193
33	0xbe147cad	-0.14500685
34	0x3d2a77d0	0.04161817
35	0x3dd58f82	0.104277626
36	0xbdadf0bf	-0.08493184
37	0x3d9c740e	0.07639323
38	0x3c8d0108	0.017212406
39	0x3d46b2f0	0.04851049
40	0xbd6ad32c	-0.057330295
41	0xbbc1dc20	-0.0059161335
42	0xbd4cd1c4	-0.050004736
43	0xbdd115cf	-0.10209238
44	0x3da05e38	0.07830471
45	0x3d20c888	0.03925374
46	0xbd7bd5a8	-0.061483055
47	0x3e01fadf	0.12693356
48	0xbd26799a	-0.040643312
49	0xbce210e0	-0.027595937
50	0x3e18bf01	0.14916612
51	0x3c8e2498	0.017351434
52	0xbc996528	-0.018724993
53	0xbdbf5bba	-0.09343667
54	0xbd8180aa	-0.06323369
55	0xbd0df858	-0.034660667
56	0x3e035917	0.12826954
57	0xbe0f3d90	-0.13988328
58	0xbd0da2a0	-0.03457892
59	0xbd8332ec	-0.06406197
60	0xbda4b691	-0.08042634
61	0xbd9b7f2c	-0.075926155
62	0x3e180623	0.14846091
63	0xbda5863b	-0.08082243
64	0xbd1278aa	-0.035759605
65	0xbe059a8a	-0.13047233
66	0x3d6145e4	0.054998294
67	0xbdd50c76	-0.10402767
68	0x3d9ed780	0.07755947
69	0xbd10d54e	-0.035359673
70	0xbd41663c	-0.04721664
71	0x3c70d250	0.01469858
72	0xbdd09416	-0.10184495
73	0xbdaf7517	-0.08567255
74	0x3dbadaf4	0.09123793
75	0x3e088d9d	0.13335271
76	0xbd54bad2	-0.05193598
77	0xbc580c20	-0.013186485
78	0x3dcfe296	0.1015064
79	0xbdb63478	-0.08896726
80	0x3b7d1900	0.0038619637
81	0x3dd8017e	0.105471596
82	0xbd8be5e3	-0.06830957
83	0xbd123422	-0.03569425
84	0x3e28bbe3	0.16477923
85	0x3ca99d43	0.020704871
86	0x3e06bc96	0.13157877
87	0x3e1f12e2	0.15534547
88	0x3d15497e	0.03644704
89	0x3c25f380	0.010128856
90	0x3dd9900f	0.1062318
91	0xbbbb12c8	-0.005709026
92	0xbdedbed4	-0.11608663
93	0xbde6839a	-0.1125557
94	0x3e1e432c	0.15455312
95	0xbda59b1a	-0.08086224
96	0xbe00bc0e	-0.12571737
97	0x3d41569d	0.04720174
98	0x3d8713b6	0.065955564
99	0x3cd2bf9a	0.025726128
100	0xbd8bb073	-0.068207644
101	0x3db58414	0.088630825
102	0x3e2c4551	0.16823317
103	0x3dfdc5e1	0.12391258
104	0x3da2378f	0.07920753
105	0xbb9ff645	-0.0048816525
106	0x3e01ee87	0.12688647
107	0xbdf629db	-0.12019702
108	0x3d0dbf7e	0.03460645
109	0xbdc9cd57	-0.098536186
110	0xbd71248b	-0.05887274
111	0xbdeeb561	-0.11655689
112	0x3ca55d5a	0.020186115
113	0xbd9b6dff	-0.075893395
114	0xbc8b6aa9	-0.017018633
115	0x3d98e144	0.07464841
116	0xbbc43ab2	-0.0059884423
117	0x3e028983	0.12747769
118	0xbdd6f599	-0.10496063
119	0x3da8a0f0	0.082338214
120	0x3d9d8550	0.07691443
121	0x3ca20898	0.019779488
122	0xbde8a945	-0.113604106
123	0x3d5091c0	0.050920248
124	0x3d647df1	0.05578417
125	0xbe116c8e	-0.14201567
126	0xbdb05b36	-0.08611147
127	0x3e1b360c	0.15157336
128	0xbdbc3f48	-0.091917574
129	0x3b545217	0.0032397562
130	0xbd635517	-0.05550107
131	0xbda49097	-0.08035391
132	0x3de16ed4	0.11007467
133	0x3c8f1d20	0.017469943
134	0xbc972b6d	-0.018453324
135	0x3e1f7063	0.15570216
136	0x3baf93bf	0.005358189
137	0xbd655f24	-0.055998936
138	0x3d9a1137	0.07522815
139	0xbcfb86a4	-0.03070385
140	0xbd9a0a99	-0.075215526
141	0xbd9e26b6	-0.07722227
142	0x3d30eb35	0.04319306
143	0xbde55068	-0.11196977
144	0xbd8029ca	-0.06257971
145	0x3d11dbac	0.035609886
146	0xbd93a50b	-0.07209214
147	0xbdb2e605	-0.08735279
148	0x3dc5b8a2	0.096543565
149	0xbd49c375	-0.049258668
150	0x3d06dc7e	0.03292512
151	0x3db3223d	0.08746765
152	0x3e294ee5	0.16534002
153	0xbd4ca995	-0.049966414
154	0x3cb0a6c4	0.021563895
155	0xbdef7c61	-0.11693645
156	0x3d3b972f	0.045798477
157	0x3e1c79a0	0.15280771
158	0xbdccefec	-0.10006699
159	0xbd93aa06	-0.07210164
160	0x3d94a7d9	0.07258577
161	0xbdcbfb69	-0.09960062
162	0xbd1f2ec0	-0.038862944
163	0x3dad7b11	0.08470739
164	0xbc821bb0	-0.015882343
165	0x3d9a99d4	0.07548872
166	0x3d948d9a	0.07253571
167	0x3dee9746	0.11649947
168	0x3c9f312c	0.019432627
169	0x3d0e383b	0.034721594
170	0x3c9aa2ea	0.018876512
171	0x3e09cd10	0.13457131
172	0xbd234b1b	-0.039866548
173	0xbd1c6de6	-0.038190745
174	0xbcd9cc1f	-0.02658659
175	0x3e0a7830	0.1352241
176	0x3d395f7c	0.045257077
177	0x3e15ebeb	0.14640777
178	0x3d33e326	0.043917798
179	0x3d7b34fb	0.061329823
180	0x3dcfe4ee	0.10151087
181	0x3e057d98	0.13036191
182	0x3e044919	0.1291851
183	0x3e177f79	0.1479472
184	0xbdd52141	-0.10406733
185	0x3d102b75	0.035197694
186	0x3dc0879d	0.09400866
187	0xbdeb619a	-0.114932254
188	0x3d385911	0.045006815
189	0xbc26d8bb	-0.0101835085
190	0x3d14dea4	0.03634514
191	0x3d176c41	0.036968473
192	0x3d538685	0.05164196
193	0xbdfc7b67	-0.12328225
194	0xbe0a5371	-0.13508393
195	0x3e03e881	0.12881662
196	0x3d86bcfb	0.06579014
197	0x3d6f96ec	0.05849354
198	0xbb9a69f9	-0.00471234
199	0xbdadeb0b	-0.084920965
200	0xbdc31770	-0.09525955
201	0xbcd501fc	-0.026001923
202	0x3d5aec91	0.053448264
203	0xbb4d05c0	-0.0031283945
204	0x3dee6196	0.11639707
205	0xbc15be05	-0.0091395425
206	0x3dd42100	0.10357857
207	0xbd86f1fa	-0.06589122
208	0xbdcd7746	-0.10032515
209	0xbca68a40	-0.020329595
210	0xbdd4acc0	-0.10384512
211	0xbdf835e8	-0.12119657
212	0xbccbd2e6	-0.024880838
213	0xbd1aab69	-0.037761126
214	0xbd27d4ad	-0.040974308
215	0x3d247847	0.040153768
216	0xbbc112ba	-0.005892125
217	0xbd0c083d	-0.034187544
218	0xbc3ec4e2	-0.01164362
219	0xbd217703	-0.03942014
220	0x3dfe1023	0.124054216
221	0xbc06bcd6	-0.008223733
222	0x3bf7fa5c	0.007567687
223	0xbd59a2a7	-0.053133633
224	0xbe0867f1	-0.133209
225	0xbb2f439d	-0.0026743182
226	0xbdfa4900	-0.12220955
227	0xbe05fc7f	-0.13084601
228	0x3d243f68	0.04009953
229	0xbc67d86d	-0.014150721
230	0xbd932cb6	-0.07186262
231	0xbd0dabd2	-0.03458769
232	0x3e118aa9	0.14213051
233	0x3c9c5694	0.019084252
234	0x3de2fc2f	0.110832565
235	0xbd2fd706	-0.04292967
236	0x3e06de1b	0.13170664
237	0x3e0fddbb	0.14049427
238	0x3d9eec5f	0.07759928
239	0x3e0746cf	0.13210605
240	0x3c40fe6c	0.011779409
241	0x3d341fff	0.043975826
242	0x3db413ed	0.08792863
243	0x3dd9cd51	0.10634864
244	0xbdbaba06	-0.091175124
245	0xbd563b0a	-0.052302398
246	0x3dd8ebfb	0.10591885
247	0x3d42d875	0.04756971
248	0x3d8599c3	0.06523468
249	0x3d176d45	0.036969442
250	0x3d805013	0.06265273
251	0x3ce0a278	0.027421221
252	0xbd3fe142	-0.046845682
253	0x3db27cea	0.08715232
254	0x3d4024bc	0.046910033
255	0xbdbc758f	-0.0920211

hidden_layers.0.bias f4 [42]
0	0xbd2516b0	-0.04030484
1	0xbd4f20b0	-0.050568283
2	0x3e26c056	0.16284308
3	0x3df074e0	0.11741042
4	0x3d89179e	0.06693958
5	0x3dcbd06b	0.09951862
6	0xbe023ab7	-0.1271771
7	0x3d034b8d	0.032054473
8	0xbdff6193	-0.12469783
9	0x3d801583	0.06254103
10	0xbc6c439d	-0.014420417
11	0x3da3e665	0.08002929
12	0xbde23192	-0.11044611
13	0x3dfc587d	0.12321565
14	0x3d9077f5	0.0705413
15	0x3dc5e3b1	0.09662569
16	0xbe164828	-0.14675963
17	0xbcd8a61e	-0.026446398
18	0xbd91e770	-0.07124221
19	0xbd820831	-0.06349219
20	0xbb9b2888	-0.0047350563
21	0xbd893e16	-0.06701295
22	0xbdc0dd0f	-0.094171636
23	0xbda0d5f1	-0.07853306
24	0x3d77a86d	0.060463358
25	0x3da1882d	0.078873016
26	0x3d91eea2	0.07125594
27	0xbdf35bc7	-0.118827395
28	0xbd531d0a	-0.051541366
29	0x3d9e47a1	0.07728506
30	0xbda56f51	-0.080778725
31	0x3bba163e	0.005678921
32	0x3cfb2e88	0.030661836
33	0xbde5aae4	-0.112142354
34	0xbddc410f	-0.107545964
35	0xbe06b204	-0.13153845
36	0xbe18c649	-0.1491939
37	0xbdffb220	-0.124851465
38	0xbde6cc74	-0.11269465
39	0x3d5b5d3f	0.053555723
40	0xbb929792	-0.004473635
41	0x3d599f94	0.0531307

hidden_layers.1.weight f4 [42, 42]
0	0x3e17dcf3	0.14830379
1	0xbcb2c908	-0.021824375
2	0x3d28ffe6	0.04125967
3	0x3e261b82	0.16221431
4	0x3e10d992	0.14145496
5	0xbdc5b58a	-0.096537665
6	0x3e17ef79	0.14837445
7	0x3e0236a0	0.1271615
8	0xbd47e2c5	-0.04880025
9	0x3e08b669	0.13350834
10	0xbd22b6b5	-0.039725024
11	0xbdff4637	-0.12464564
12	0x3e28523b	0.16437618
13	0x3dffd089	0.12490947
14	0x3e1d531a	0.15363732
15	0x3d88c227	0.066776566
16	0x3e0b58d7	0.13608108
17	0xbdfc15f9	-0.123088785
18	0x3e1d96f8	0.15389621
19	0xbd42a25e	-0.047518127
20	0xbdcc7317	-0.09982889
21	0xbdcd6045	-0.100281276
22	0x3dbe95ae	0.09305893
23	0xbddca8c0	-0.10774374
24	0x3d01aa87	0.03165677
25	0xbdb75885	-0.08952431
26	0x3da2cdae	0.079493865
27	0x3e111599	0.14168395
28	0x3b9c4e60	0.004770085
29	0x3de3b8ec	0.111192554
30	0xbd778764	-0.060431853
31	0xbb25fe28	-0.002532849
32	0xbddf0dbf	-0.10891294
33	0x3de13736	0.10996859
34	0x3d4eae6f	0.05045932
35	0xbbd6cb80	-0.006555021
36	0x3c9f37bc	0.019435756
37	0xbd7f6f86	-0.062362216
38	0xbdc3c810	-0.09559643
39	0xbcf388f3	-0.029728388
40	0x3cdf5f96	0.027267259
41	0x3e04c502	0.12965778
42	0xbdcd1452	-0.100136414
43	0x3d863284	0.06552604
44	0xbe046f86	-0.12933168
45	0xbdfd5cc6	-0.12371211
46	0xbbbd6039	-0.005779293
47	0xbd05c17e	-0.03265523
48	0xbbafe800	-0.0053682327
49	0xbd572d6f	-0.052533563
50	0x3e0f483a	0.13992396
51	0xbd8554cf	-0.065103166
52	0x3e1c208b	0.15246789
53	0x3cb34758	0.021884605
54	0xbdc24f3b	-0.09487768
55	0x3e2714eb	0.16316573
56	0x3d3583a6	0.044315003
57	0xbe07020d	-0.13184376
58	0xbe0300d5	-0.12793286
59	0x3d9e69df	0.07735037
60	0x3d3cb29b	0.04606877
61	0xbdd472ba	-0.10373445
62	0x3e2afec8	0.16698754
63	0x3dac37f9	0.084091134
64	0xbd526bb7	-0.051372256
65	0xbe03753d	-0.12837692
66	0x3cf2efb2	0.029655311
67	0xbc9e49e0	-0.019322336
68	0x3e1dff53	0.1542943
69	0xbe16b0da	-0.14715901
70	0x3dcbd59a	0.09952851
71	0x3de06623	0.10956981
72	0xbdc0e2dc	-0.0941827
73	0xbd31fd60	-0.043454528
74	0x3e0736dc	0.13204521
75	0x3de3134a	0.110876635
76	0x3dac35a5	0.084086694
77	0x3e08c11b	0.13354914
78	0x3d6d3216	0.057909094
79	0xbdafaacf	-0.08577501
80	0xbe076949	-0.13223757
81	0xbdab57bc	-0.083663434
82	0x3d40d8de	0.04708182
83	0xbe02add9	-0.1276163
84	0xbd9b48cc	-0.07582244
85	0x3cfa5160	0.03055638
86	0xbd0a17fd	-0.033714283
87	0xbdd99893	-0.10624804
88	0x3d1e1bf8	0.03860089
89	0xbda561cd	-0.08075295
90	0xbe09014b	-0.133794
91	0xbd8b19d0	-0.06792033
92	0xbde175e5	-0.11008815
93	0xbe03d10e	-0.12872717
94	0x3dcaf13e	0.099092945
95	0x3cae4c63	0.021276658
96	0x3da76d35	0.081751265
97	0x3e2184df	0.15773343
98	0xbd130b06	-0.035899185
99	0xbdecd3be	-0.11563824
100	0xbd66b316	-0.056323133
101	0xbdbfc401	-0.09363557
102	0xbdcdc0a7	-0.10046511
103	0xbc48bfb0	-0.012252733
104	0x3e0ce767	0.13760148
105	0xbd9817bb	-0.07426401
106	0xbd7cb90e	-0.06169992
107	0x3dd2ea9c	0.102986544
108	0xbb6d937e	-0.0036251242
109	0x3e1c2f04	0.1525231
110	0xbded1e37	-0.11578029
111	0x3dd56d12	0.10421194
112	0xbd836512	-0.06415762
113	0xbda3b97a	-0.07994361
114	0x3dd98f06	0.10622983
115	0xb9042e10	-0.0001260566
116	0x3e2b06ce	0.16701815
117	0xbd8e7095	-0.06955067
118	0x3dd63e0a	0.10461052
119	0xbd8d4b48	-0.068991244
120	0xbe0aef46	-0.13567838
121	0xbd77f03e	-0.060531847
122	0x3c963b28	0.018338755
123	0xbddf562a	-0.10905106
124	0xbd8f24c4	-0.06989434
125	0x3dbf3c87	0.093377165
126	0x3ca3f4c8	0.020014182
127	0x3d0ec7d8	0.034858555
128	0x3dddd00e	0.10830699
129	0x3d9ccf6a	0.076567486
130	0x3c0ace70	0.00847207
131	0x3dcb57f6	0.099288866
132	0xbd9b25d2	-0.07575573
133	0xbc326040	-0.010887206
134	0xbce972c8	-0.028497115
135	0x3dd5b1e6	0.10434322
136	0xbd2fa0fe	-0.042878143
137	0x3dd23e72	0.10265817
138	0x3b6c0bc0	0.0036017746
139	0x3d8cc410	0.068733335
140	0xbdfab16e	-0.12240873
141	0xbd9253c3	-0.071448825
142	0x3e0ac133	0.13550262
143	0x3e06d9a7	0.13168965
144	0xbda23b96	-0.07921521
145	0x3de41436	0.111366674
146	0x3dcaef2e	0.09908901
147	0x3dd99eb6	0.10625975
148	0xbd6afa06	-0.057367347
149	0xbe1322af	-0.143687
150	0xbd8a03dd	-0.06739018
151	0xbddb0377	-0.1069402
152	0x3dc03790	0.09385598
153	0xbd1bb2ae	-0.0380122
154	0xbd8aa572	-0.067698374
155	0x3df25212	0.1183206
156	0x3bb700e0	0.005584821
157	0xbd2a20a4	-0.041535035
158	0xbe0283e6	-0.12745628
159	0x3d80f69c	0.06297037
160	0x3db1c19c	0.08679506
161	0x39bc6000	0.0003592968
162	0xbde46316	-0.11151712
163	0xbd705410	-0.05867392
164	0xbde9d136	-0.11416857
165	0xbcafc630	-0.021456808
166	0xbe073b4e	-0.13206217
167	0x3dd7b65e	0.10532831
168	0x3d659b23	0.056056153
169	0xbdcac6c1	-0.099011905
170	0x3d9892df	0.074498884
171	0xbcbd165c	-0.02308195
172	0x3df426d0	0.119214654
173	0x3ddf7325	0.10910634
174	0xbbe00620	-0.0068366677
175	0x3dd39174	0.10330477
176	0x3dcd244c	0.10016689
177	0xbddda871	-0.10823143
178	0x3e29a80a	0.16568008
179	0x3d21814f	0.03942996
180	0x3dd0cfb4	0.10195866
181	0x3df2ff8c	0.11865148
182	0x3dc3ae07	0.095546775
183	0x3dfa1cab	0.12212499
184	0xbd34288a	-0.043983974
185	0xbd3e2691	-0.0464235
186	0x3cbd00f9	0.023071753
187	0x3d758280	0.059938908
188	0xbdafce45	-0.08584265
189	0xbbd343db	-0.006447298
190	0x3d415087	0.047195937
191	0xbab8af23	-0.0014090281
192	0xbd9ab50b	-0.075540625
193	0xbd4522b6	-0.048128806
194	0x3db23bf1	0.08702839
195	0xbd81b19c	-0.063327044
196	0xbdcb35c6	-0.09922366
197	0xbab1e02b	-0.0013570836
198	0x3c531330	0.012882993
199	0x3e1c7e29	0.15282501
200	0x3d89a5be	0.06721066
201	0xbb76c280	-0.0037652552
202	0x3d0242e2	0.031802066
203	0xbded8465	-0.11597518
204	0x3dc975b8	0.09836906
205	0xbe0a90ac	-0.1353175
206	0x3e03a61f	0.12856339
207	0xbdec77d8	-0.11546296
208	0xbdf32b4f	-0.11873495
209	0x3db37548	0.08762604
210	0x3de05ad1	0.10954822
211	0xbc8032e8	-0.015649274
212	0xbd1f4504	-0.038884178
213	0xbc4c4ab0	-0.012468979
214	0x3e2f2c94	0.17106849
215	0x3e2f032a	0.1709105
216	0x3c517870	0.012785062
217	0xbd3ae6d4	-0.04563029
218	0xbdff00ef	-0.1245135
219	0xbd650e57	-0.05592188
220	0xbce50da5	-0.027960608
221	0x3c76aad1	0.015055374
222	0x3def1462	0.116738096
223	0x3e0b4728	0.13601363
224	0xbd8ad2ae	-0.06778465
225	0xbd2c1278	-0.0420098
226	0xbe157819	-0.14596595
227	0x3d11f615	0.035635073
228	0x3dd16537	0.10224383
229	0x3c1366d0	0.00899668
230	0xbd3dd00e	-0.046340995
231	0xbdbd6ac1	-0.09248877
232	0xbdb9b6f0	-0.09068096
233	0x3d052202	0.032503136
234	0xbcfdf443	-0.031000262
235	0x3e25ae9e	0.16179892
236	0x3cba6d2d	0.022757137
237	0xbe0b633d	-0.13612075
238	0xbca6b3e0	-0.020349443
239	0xbdebdd1b	-0.11516782
240	0xbc9bd298	-0.019021317
241	0x3c7266e9	0.0147950435
242	0x3d65258a	0.055944003
243	0x3d6f5a9c	0.05843602
244	0xbd6cc0d9	-0.0578011
245	0x3d8661ac	0.06561598
246	0xbc80906d	-0.015693868
247	0x3c876620	0.01652819
248	0x3ce36b48	0.027761117
249	0xbd06cfdc	-0.032913074
250	0xbde8ce38	-0.11367458
251	0xbd871b4a	-0.06597002
252	0xbd145e9e	-0.036223046
253	0xbe177288	-0.14789784
254	0xbd535c5c	-0.051601753
255	0x3d8e6f50	0.06954825

hidden_layers.1.bias f4 [42]
0	0x3ddb6efa	0.107145265
1	0xbcff603e	-0.031173822
2	0x3d8a2fc0	0.06747389
3	0xbe19ac0d	-0.15007038
4	0x3d774597	0.0603691
5	0x3e2cca35	0.16874011
6	0xbcc188d0	-0.023624808
7	0xbb2ab0c0	-0.0026045293
8	0x3cc85165	0.024452874
9	0xbe0a4469	-0.13502659
10	0x3df02023	0.117248796
11	0x3d690014	0.05688484
12	0x3e31325b	0.17304365
13	0x3dfa124f	0.12210523
14	0x3e05f19a	0.13080445
15	0xbdc15f5f	-0.09442019
16	0x3d76d057	0.060257282
17	0x3e26c921	0.16287662
18	0x3df75918	0.1207754
19	0x3deb6758	0.11494321
20	0xbcfa8f92	-0.030586038
21	0xbdf1d620	-0.11808419
22	0x3d0fbebc	0.035094008
23	0xbdd32ad7	-0.103109054
24	0x3d63fede	0.055662982
25	0xbdf94e0a	-0.12173088
26	0xbd9743a2	-0.07385947
27	0x3da0a0dc	0.078431815
28	0x3d5fb98e	0.054620318
29	0xbdfa8fb6	-0.12234442
30	0xbe173d10	-0.14769387
31	0x3ca7ac7a	0.020467985
32	0xbde5e3ce	-0.11225091
33	0x3d0428f7	0.03226563
34	0xbb2b06dc	-0.0026096618
35	0x3d9c0ddd	0.07619832
36	0x3e063129	0.1310469
37	0xbd675a0c	-0.05648236
38	0xbaa282ce	-0.0012398602
39	0xbc925bc8	-0.01786603
40	0x3e0b25a4	0.13588578
41	0xbc8eba53	-0.01742283

hidden_layers.2.weight f4 [42, 42]
0	0xbcc5e6f0	-0.024157971
1	0xbda0c9c3	-0.07850983
2	0xbe03952c	-0.12849873
3	0xbcdc7050	-0.026909024
4	0xbd665fec	-0.056243822
5	0x3e07deff	0.1326866
6	0xbc766900	-0.015039682
7	0xbe17f2bd	-0.14838691
8	0x3cd89a10	0.02644065
9	0x3c6dbbd0	0.01451011
10	0xbd288b32	-0.041148372
11	0x3ddd2f36	0.108000204
12	0xbe1ce13b	-0.15320294
13	0xbe1563ec	-0.14588898
14	0x3d9a923a	0.07547422
15	0xbc300ca0	-0.010745198
16	0xbdeedc22	-0.11663081
17	0x3defb2a2	0.117039934
18	0xbc9515e8	-0.018198922
19	0x3e10e8df	0.14151333
20	0x3df71066	0.12063675
21	0xbc345fb0	-0.011009142
22	0xbd138636	-0.036016665
23	0xbde704b2	-0.112801924
24	0x3db7f208	0.08981711
25	0xbe14dcb0	-0.1453731
26	0x3d5bddfc	0.053678498
27	0xbd615926	-0.05501666
28	0xbdba1d54	-0.09087625
29	0xbca8e138	-0.020615205
30	0xbc52afc0	-0.012859285
31	0xbdc85464	-0.09781721
32	0x3da2a2f2	0.079412356
33	0xbdfd07c5	-0.123549975
34	0x3e1d0365	0.15333326
35	0x3d9613d0	0.07327998
36	0xbcb1f8c8	-0.021725073
37	0x3e09507d	0.1340961
38	0x3cf83c18	0.030302092
39	0xbdf932ce	-0.12167893
40	0xbd6f1cea	-0.058377184
41	0xbdb4b011	-0.088226445
42	0x3dd7bbb2	0.10533847
43	0x3caec3e0	0.021333635
44	0x3e1ba7f5	0.1520079
45	0xbdf435af	-0.11924302
46	0xbd11b7a6	-0.03557553
47	0xbab01d00	-0.0013436377
48	0x3dbdcfc0	0.09268141
49	0x3cd9ec28	0.026601866
50	0xbdb35ac2	-0.08757545
51	0x3c3cd7f0	0.011526093
52	0xbe02d6ef	-0.12777303
53	0x3df87d6a	0.12133296
54	0xbe1520f5	-0.14563353
55	0xbe054138	-0.1301316
56	0xbd91d55c	-0.07120773
57	0xbdc61a76	-0.09673016
58	0xbd52ab82	-0.051433094
59	0xbdc06ce7	-0.093957715
60	0xbdbb5ba3	-0.09148338
61	0xbd5e5114	-0.05427654
62	0xbe1056f6	-0.14095673
63	0x3e0345c7	0.12819587
64	0x3bec6180	0.0072137713
65	0x3dea5452	0.11441864
66	0xbc3caa30	-0.011515185
67	0x3dfb24a2	0.122628465
68	0xbcf208a0	-0.029545128
69	0xbe1928a3	-0.14956908
70	0xbd261b9e	-0.04055368
71	0x3c580940	0.013185799
72	0xbdcfa6f4	-0.10139266
73	0x3bcbd540	0.0062204897
74	0x3d9dd6ce	0.07706986
75	0xbc794e40	-0.01521641
76	0x3dc77ce2	0.097406164
77	0x3aa60700	0.0012666881
78	0x3ded0d36	0.115747854
79	0xbdc8c10c	-0.09802446
80	0x3e094719	0.13406028
81	0xbdbd7a5e	-0.09251855
82	0x3dc0995c	0.09404251
83	0x3dfda962	0.12385823
84	0xbd89cd13	-0.06728568
85	0xbdbfc5ae	-0.09363876
86	0x3db908e2	0.090348974
87	0xbd67efae	-0.05662506
88	0x3cfcaf90	0.030845433
89	0xbde7e0de	-0.11322187
90	0x3dbbe0a0	0.09173703
91	0x3df66582	0.1203108
92	0x3d914b2c	0.07094416
93	0x3db81e76	0.08990185
94	0xbe06bbe1	-0.13157608
95	0xbc60ca10	-0.01372005
96	0xbda27397	-0.07932203
97	0x3d9f444c	0.077766985
98	0x3d34c220	0.044130445
99	0xbe0e44c3	-0.13893418
100	0xbe189329	-0.14899887
101	0xbdabd698	-0.0839054
102	0xbd329f42	-0.04360891
103	0xbdcc3a80	-0.099720955
104	0x3d99054a	0.07471712
105	0xbd8972b8	-0.06711334
106	0xbcacf2e0	-0.021111906
107	0x3d78d0ec	0.06074612
108	0x3dadb2b6	0.08481352
109	0x3e0fd7b5	0.1404713
110	0xbda92671	-0.08259285
111	0xbdd594fe	-0.10428809
112	0x3e022da3	0.12712722
113	0xbc6a53d0	-0.014302209
114	0x3e1ae0b9	0.15124787
115	0xbd2edc14	-0.04269035
116	0x3cd827b0	0.026386112
117	0x3ce8e6e8	0.028430417
118	0x3d0b8928	0.03406635
119	0xbcc67590	-0.02422598
120	0xbb009340	-0.0019619018
121	0xbe073a81	-0.13205911
122	0x3e152cf3	0.14567928
123	0x3ddfeb3a	0.10933538
124	0xbe0c3e06	-0.13695535
125	0x3d7d1a60	0.06179273
126	0x3d92b5e2	0.07163598
127	0x3d8c68ec	0.0685595
128	0xbd00e67f	-0.03146982
129	0xbe0e2051	-0.13879515
130	0x3e226118	0.15857351
131	0xbe080186	-0.13281831
132	0xbcf15bb0	-0.029462665
133	0x3d67252c	0.056431934
134	0x3d937921	0.07200838
135	0x3d30b164	0.043137923
136	0x3a70f096	0.00091911235
137	0x3da9cab3	0.08290615
138	0x3db00489	0.08594615
139	0x3ce0029f	0.027345
140	0xbd8681a1	-0.065676935
141	0xbdd94a75	-0.10609905
142	0x3d60406c	0.054748937
143	0xbe08b3de	-0.13349864
144	0x3d9dfbce	0.077140436
145	0xbdfc1e4c	-0.12310466
146	0xbc978323	-0.018495148
147	0x3db89c81	0.09014226
148	0x3d7fe292	0.062471934
149	0xbdd1d3c6	-0.10245471
150	0xbd24bb98	-0.040217966
151	0x3e0528eb	0.1300389
152	0xbde4b74a	-0.11167772
153	0xbe03d4ad	-0.12874098
154	0x3dacc401	0.08435822
155	0x3dd86732	0.10566558
156	0xbd57a5f6	-0.052648507
157	0x3ddbb3bf	0.10727643
158	0x3d29d964	0.041467085
159	0x3ddb9fc1	0.1072383
160	0xbde24086	-0.11047463
161	0xbd17c513	-0.03705318
162	0xbd7de7d5	-0.06198867
163	0xbdf6e37a	-0.120551065
164	0xbd738510	-0.05945307
165	0x3cffa04a	0.031204361
166	0x3ca5b4ee	0.020227876
167	0xbd1ab20d	-0.03776746
168	0xbb9f7540	-0.004866272
169	0x3dd2acd2	0.10286869
170	0xbe0e4193	-0.13892202
171	0xbb7a7000	-0.003821373
172	0x3de09306	0.109655425
173	0xbd72acec	-0.059246942
174	0xbd9b8705	-0.07594112
175	0x3cb8ea10	0.022572547
176	0xbd967e3b	-0.07348295
177	0xbdfc2d24	-0.123132974
178	0x3cdf7f80	0.027282476
179	0xbc9acd10	-0.01889661
180	0x3da0c786	0.07850556
181	0xbd1c79a2	-0.038201936
182	0x3c326430	0.010888144
183	0x3db96002	0.09051515
184	0x3d9f687a	0.07783599
185	0x3e02ef21	0.12786533
186	0xbe150c9e	-0.14555594
187	0xbcd975c0	-0.026545405
188	0x3ddeb6ae	0.10874687
189	0x3e1affb1	0.15136601
190	0xbc366f70	-0.011134967
191	0xbda937c3	-0.08262589
192	0xbd1d158a	-0.03835062
193	0xbe057b0b	-0.13035218
194	0xbda561fd	-0.080753304
195	0x3e00075b	0.12502806
196	0x3d97f334	0.07419434
197	0x3d59386c	0.053032324
198	0xbe1bab7d	-0.15202136
199	0xbd35e408	-0.04440692
200	0x3cbd2010	0.023086578
201	0x3cf2ba58	0.029629871
202	0x3dee0a46	0.11623053
203	0x3d51c504	0.05121328
204	0xbd6fd274	-0.058550313
205	0xbd9f0339	-0.077642865
206	0x3e17e0bd	0.14831825
207	0x3d742288	0.059603244
208	0xbd3b10d2	-0.045670338
209	0x3d2b2230	0.04178065
210	0xbddfc471	-0.1092614
211	0x3dcaa766	0.0989521
212	0x3d4093a9	0.04701582
213	0x3e11ca8d	0.14237423
214	0xbdcd75ea	-0.10032256
215	0x3c8fed1d	0.01756912
216	0xbe13cb8d	-0.14433117
217	0xbda39da5	-0.07989053
218	0x3e1a802c	0.15087956
219	0xbdc77864	-0.097397596
220	0xbd3351cc	-0.04377918
221	0xbe100ceb	-0.14067428
222	0x3d8f4f39	0.069975324
223	0x3de4054d	0.111338235
224	0xbd358918	-0.044320196
225	0xbd783da0	-0.060605645
226	0xbd84452d	-0.06458507
227	0x3d948913	0.07252707
228	0xbdfe0007	-0.12402349
229	0x3dcf40e4	0.10119799
230	0x3d8dde35	0.06927148
231	0xbdf11bfc	-0.11772916
232	0xbad81d62	-0.0016488249
233	0x3ddfef8e	0.10934363
234	0x3e12314b	0.14276616
235	0x3a2c5900	0.00065745413
236	0x3df676d6	0.12034385
237	0xbde7e62c	-0.11323199
238	0xbd97ed24	-0.07418278
239	0xbd512cd2	-0.051068135
240	0x3dab85e0	0.08375144
241	0x3e0c8550	0.1372273
242	0x3d9ccf5a	0.07656737
243	0xbdf1df47	-0.11810165
244	0xbd9c579e	-0.07633899
245	0x3dbb4867	0.09144669
246	0xbdcf2b75	-0.10115711
247	0xbbead780	-0.007166803
248	0x3d041741	0.03224874
249	0x3d883e09	0.06652457
250	0x3df0fed2	0.11767353
251	0x3c78bb7b	0.015181418
252	0xbd37ea65	-0.04490127
253	0xbcfdbe02	-0.030974392
254	0x3e24adad	0.16081877
255	0x3dac69f0	0.084186435

hidden_layers.2.bias f4 [42]
0	0xbe04d676	-0.12972435
1	0xbe023494	-0.1271537
2	0xbb386d80	-0.002814144
3	0x3df6ed1b	0.12056943
4	0xbe06de1e	-0.13170668
5	0x3e1e25a6	0.15444049
6	0x3dac5e8e	0.084164724
7	0x3e0a98d3	0.1353486
8	0x3d911920	0.0708487
9	0x3e1eec70	0.15519881
10	0xbdbebb32	-0.093130484
11	0xbd971f35	-0.07378999
12	0xbc36d682	-0.011159541
13	0x3dd8dd94	0.10589138
14	0xbe1a5850	-0.15072751
15	0xbddf0eaf	-0.108914725
16	0x3e19b392	0.15009907
17	0xbc0297e7	-0.007970787
18	0xbdd74f6a	-0.10513194
19	0x3dfc26ee	0.12312113
20	0xbd942dda	-0.07235308
21	0xbdee1583	-0.11625197
22	0x3c9e18d0	0.01929894
23	0xbe144977	-0.1448115
24	0x3d218790	0.039435923
25	0x3d1223a7	0.035678532
26	0x3dbb3592	0.09141077
27	0x3df73773	0.12071123
28	0x3df67be7	0.12035351
29	0x3d741d86	0.05959847
30	0xbdc14f5b	-0.09438964
31	0x3d93c520	0.07215333
32	0x3d3d282d	0.046180893
33	0xbd65132a	-0.05592648
34	0xbdf07670	-0.1174134
35	0x3e126f30	0.14300227
36	0xbc193f00	-0.009353399
37	0x3d5bc335	0.05365296
38	0xbdf7494e	-0.12074529
39	0xbd6a860c	-0.057256743
40	0x3e310edd	0.17290826
41	0x3e2cbaea	0.16868177

hidden_layers.3.weight f4 [42, 42]
0	0x3cdf60d0	0.027267843
1	0x3df0b186	0.1175261
2	0xbdc4fd20	-0.09618592
3	0x3a65031c	0.000873612
4	0x3d75b2c0	0.059984922
5	0x3df4fc60	0.11962199
6	0xbdf6d14b	-0.12051638
7	0xbd074850	-0.033027947
8	0xbcb68420	-0.022279799
9	0xbd895784	-0.067061454
10	0xbcab5688	-0.020915285
11	0x3d1c7991	0.038201872
12	0x3c9d63db	0.019212654
13	0x3ce1dc76	0.027570944
14	0x3d8561b6	0.065127775
15	0xbd318756	-0.043341957
16	0xbde81cad	-0.113335945
17	0x3e18bd5c	0.14915985
18	0x3c99da68	0.018780902
19	0xbb53a717	-0.0032295638
20	0x3cf9ef08	0.030509487
21	0xbd0613fe	-0.03273391
22	0xbd93d266	-0.07217865
23	0xbd9cd413	-0.076576374
24	0xbcf53143	-0.029930716
25	0xbdaf3822	-0.08555628
26	0xbde806ec	-0.11329445
27	0x3d5ef1d0	0.05442983
28	0x3d2c6827	0.042091515
29	0x3cc0a06b	0.023513993
30	0x3da7bbaa	0.08190091
31	0xbdf645dc	-0.12025043
32	0xbdf5f05a	-0.12008734
33	0x3cbff2b0	0.023431152
34	0x3e0dc855	0.13845952
35	0x3dc72df4	0.09725562
36	0xbc34a250	-0.011025026
37	0xbdb4a79c	-0.088210315
38	0x3dff8dda	0.12478228
39	0x3b1c8740	0.0023884326
40	0x3dcaee03	0.099086784
41	0xbe0875e1	-0.13326217
42	0xbd241c1a	-0.040065862
43	0xbe18e9bb	-0.14932911
44	0x3da9dc96	0.082940266
45	0x3db2b2a4	0.08725479
46	0x3e16537d	0.14680286
47	0x3d0f3e24	0.03497137
48	0x3d968698	0.073498905
49	0x3deb59a6	0.114917085
50	0x3d822afa	0.063558534
51	0x3ccd6908	0.025074497
52	0xbe0d93a3	-0.1382585
53	0xbe19e38d	-0.1502821
54	0x3d41c47c	0.047306523
55	0xbd5c6dfe	-0.053815834
56	0xbe169f14	-0.14709121
57	0xbe0995a2	-0.13435987
58	0x3be4b8c0	0.0069800317
59	0xbda6a5d5	-0.08137099
60	0xbc10dfd0	-0.008842424
61	0xbd9a0e02	-0.07522203
62	0xbd571118	-0.052506536
63	0x3d93f4a4	0.07224396
64	0xbd092e0a	-0.033491172
65	0xbdd0c78a	-0.10194309
66	0xbc9ebec0	-0.019378066
67	0xbd27562e	-0.04085367
68	0xbdd3848c	-0.10328016
69	0xbe17c100	-0.14819717
70	0xbcdde7d0	-0.027088076
71	0xbd717e74	-0.058958486
72	0x3df85426	0.12125425
73	0x3d8e1586	0.06937699
74	0xbd9f3633	-0.077740096
75	0xbd761ad6	-0.060084186
76	0x3cdfb580	0.027308226
77	0x3d490ce0	0.049084544
78	0xbe118558	-0.14211023
79	0x3cd1d740	0.025615335
80	0xbc427430	-0.011868522
81	0xbd8bcf45	-0.06826643
82	0xbbe35060	-0.0069370717
83	0x3a887180	0.0010409802
84	0x3ddeea2a	0.10884507
85	0xbe11314e	-0.14178964
86	0xbe0785c0	-0.13234615
87	0xbd6897a9	-0.05678526
88	0x3dadce2a	0.08486588
89	0xbcc98131	-0.024597736
90	0x3e317575	0.17329963
91	0xbdd36a66	-0.10323028
92	0x3d08247c	0.03323792
93	0xbd305ec1	-0.043059114
94	0xbdbd0edc	-0.0923135
95	0xbd9d46cc	-0.07679519
96	0xbdeb9d5c	-0.11504623
97	0xbd529de7	-0.05142012
98	0x3da2c8c6	0.07948451
99	0x3e09400e	0.13403341
100	0xbddb8d5a	-0.1072032
101	0x3dfd51be	0.12369107
102	0x3dddebae	0.10835968
103	0xbd162319	-0.036654565
104	0x3e1bd9b1	0.15219761
105	0x3d2da81c	0.04239665
106	0x3b7e18c0	0.0038772076
107	0xbc947628	-0.018122748
108	0x3c389822	0.01126674
109	0xbe133202	-0.14374545
110	0x3d79fdaf	0.061032947
111	0xbde6accc	-0.11263427
112	0x3dfa7f9a	0.12231369
113	0xbcf89a2a	-0.030346949
114	0xbda2a063	-0.079407476
115	0x3da72901	0.08162118
116	0x3dcf0a1e	0.101093516
117	0x3dd5c62a	0.104381874
118	0x3e0f84ab	0.14015453
119	0x3e0dda21	0.13852741
120	0x3e0afb9f	0.13572548
121	0xbd450160	-0.048097014
122	0x3d8896aa	0.06669362
123	0x3d7159e0	0.058923602
124	0x3e0dc4df	0.13844632
125	0x3cd45f09	0.025924223
126	0xbcb09ca8	-0.021559075
127	0xbd2ec114	-0.042664602
128	0x3e0d1e51	0.13781096
129	0xbdb59fd8	-0.088683784
130	0x3e11a147	0.14221679
131	0xbdb87602	-0.09006883
132	0xbdfe0dab	-0.12404951
133	0xbde9b682	-0.11411764
134	0xbe1b975a	-0.15194455
135	0x3c728070	0.01480113
136	0xbddf496e	-0.109026775
137	0x3db777ba	0.08958383
138	0xbd1d183c	-0.03835319
139	0xbddb0d06	-0.106958434
140	0xbe0f962c	-0.1402213
141	0xbd741a68	-0.059595495
142	0x3d8f7f02	0.07006647
143	0xbde5edf0	-0.112270236
144	0x3e175509	0.14778532
145	0xbdd54cb0	-0.104150176
146	0x3c390640	0.011292994
147	0xbd63a8fa	-0.05558107
148	0xbe18af1e	-0.14910552
149	0x3c979ef8	0.01850842
150	0xbda15c41	-0.07878924
151	0xbdd4d314	-0.103918225
152	0xbd4b1d42	-0.04958845
153	0x3d18f29c	0.037340745
154	0xbd52816c	-0.051392958
155	0xbd49195e	-0.049096458
156	0xbbdcba00	-0.00673604
157	0x3de32a6a	0.11092074
158	0x3d69eb2c	0.057109043
159	0x3de2e46a	0.11078723
160	0xbdc7be32	-0.09753074
161	0x3d520cc0	0.05128169
162	0xbdf85af4	-0.12126723
163	0x3d2a77d0	0.04161817
164	0xbe034d4e	-0.12822458
165	0x3d3701a8	0.044679314
166	0x3ce42790	0.027850896
167	0xbcc6a3f8	-0.024248108
168	0x3d867dae	0.0656694
169	0xbd6ab7da	-0.05730424
170	0xbdde4b97	-0.10854261
171	0x3e02fcb4	0.12791711
172	0x3d0092f0	0.03139013
173	0x3cb07989	0.021542327
174	0xbbd064d8	-0.0063596778
175	0xbc1920e7	-0.009346223
176	0xbdaa0c42	-0.08303119
177	0x3d556200	0.052095413
178	0xbccb3b20	-0.024808466
179	0x3dc416cb	0.0957466
180	0xbdb5f455	-0.08884493
181	0x3df01093	0.11721911
182	0x3d7e0585	0.062016983
183	0x3df1fa0b	0.1181527
184	0x3dc062db	0.09393855
185	0x3e24c0aa	0.1608912
186	0x3d027384	0.031848446
187	0xbdc321a9	-0.095279045
188	0x3e077c29	0.13230957
189	0xbd9f4f19	-0.077787586
190	0x3ccd0690	0.025027543
191	0xbd975897	-0.07389944
192	0xbdc62829	-0.09675629
193	0x3e098da2	0.13432935
194	0xbc89da53	-0.016827738
195	0xbdc72d45	-0.09725431
196	0xbddfa27c	-0.10919663
197	0x3db4cdb8	0.088283
198	0xbdd81b84	-0.10552123
199	0xbdaae38b	-0.083441816
200	0x3dd86b4a	0.10567339
201	0xbd7e7032	-0.062118717
202	0xbdd317dc	-0.10307285
203	0x3e14d278	0.14533412
204	0xbbbc0c60	-0.00573878
205	0xbdd01fda	-0.10162325
206	0x3d9bbed0	0.07604754
207	0xbdc4745a	-0.09592505
208	0x3e034c92	0.12822178
209	0x3dd66fc5	0.10470537
210	0xbd7e45aa	-0.062078156
211	0xbdebc716	-0.11512582
212	0x3e05c3d9	0.13062991
213	0xbe07d8a2	-0.13266233
214	0x3dc53aea	0.096303776
215	0xbd236f81	-0.03990126
216	0x3c460f4a	0.012088606
217	0x3c191cc3	0.009345236
218	0x3de8e7ea	0.11372359
219	0x3b814c12	0.003945836
220	0xbd1f75aa	-0.038930573
221	0xbd19e5ef	-0.037572797
222	0x3deb3cc6	0.11486201
223	0x3e02fadc	0.12791008
224	0x3e1bc47b	0.1521167
225	0xbddd542a	-0.10807069
226	0xbdb10c0e	-0.086448774
227	0xbe12c0f6	-0.14331421
228	0x3d0ffc80	0.035152912
229	0xbdd96612	-0.106151715
230	0xbd25c4fe	-0.04047107
231	0x3c96c540	0.018404603
232	0x3d5b70fc	0.053574547
233	0x3d371d9c	0.044705972
234	0xbdeac9af	-0.11464249
235	0x3dce3cbf	0.1007018
236	0xbe110a55	-0.14164098
237	0x3d460e25	0.048353333
238	0x3ae668e6	0.001757887
239	0x3ddfb52b	0.10923227
240	0x3d0d31de	0.034471385
241	0xbdd1d690	-0.10246003
242	0xbda8964a	-0.0823179
243	0x3c9feea0	0.019522965
244	0xbdd8fc8e	-0.10595046
245	0xbd1a2a9f	-0.037638303
246	0xbcc95c70	-0.02458021
247	0x3d4d5036	0.050125323
248	0xbd8fcffb	-0.07022091
249	0x3db4e88a	0.08833416
250	0x3d5f1866	0.054466628
251	0xbbef0868	-0.0072947033
252	0xbd9fe2e7	-0.0780695
253	0x3c4a5d20	0.012351304
254	0x3d963660	0.0733459
255	0x3d8d5488	0.06900889

hidden_layers.3.bias f4 [42]
0	0x3c78f1c1	0.015194357
1	0xbd8cfbe5	-0.068839826
2	0x3d84b6b8	0.06480163
3	0xbe09f301	-0.13471605
4	0x3db19c23	0.08672359
5	0x3df40228	0.11914474
6	0x3e081890	0.1329062
7	0xbd6d5ee6	-0.05795183
8	0xbdca88fe	-0.098894104
9	0x3e072584	0.13197905
10	0xbd2592d9	-0.040423248
11	0xbdc83a84	-0.09776786
12	0xbda4bc7d	-0.08043764
13	0x3d081db0	0.033231437
14	0x3c0b1891	0.008489744
15	0x3db350a6	0.08755617
16	0xbdbd477d	-0.09242151
17	0x3d729015	0.05921944
18	0x3dae6ff5	0.08517448
19	0x3e03412a	0.12817827
20	0xbe028ebe	-0.12749764
21	0x3e077f7f	0.1323223
22	0x3db433ed	0.087989666
23	0xbd81582f	-0.06315648
24	0xbda16a5a	-0.07881613
25	0xbd0380a2	-0.032105096
26	0xbda77425	-0.0817645
27	0xbe14a523	-0.1451612
28	0xbd56a234	-0.052400783
29	0xbdf63d86	-0.120234534
30	0x3dc8718e	0.09787284
31	0x3dc43c5d	0.09581826
32	0x3d8a9def	0.06768405
33	0x3d01fd97	0.031735983
34	0xbdda564c	-0.10660991
35	0x3dff8e73	0.12478342
36	0x3e3218c9	0.17392267
37	0xbda54679	-0.08070082
38	0x3c9adea3	0.01890499
39	0xbdc922b4	-0.09821072
40	0x3dca15db	0.0986745
41	0x3de867d6	0.1134793

output_layer1.weight f4 [40, 42]
0	0xbe0007f4	-0.12503034
1	0x3e15e89d	0.14639516
2	0xbdcfd95e	-0.101488814
3	0x3dc548ce	0.09633027
4	0xbc33ae9d	-0.010966924
5	0xbde125a7	-0.1099351
6	0xbd804a17	-0.062641315
7	0xbd56d7e8	-0.052451998
8	0xbd9b5af0	-0.07585704
9	0x3dceee03	0.10103991
10	0x3dcee464	0.10102156
11	0x3e0767b7	0.13223158
12	0xbbc3f300	-0.0059798956
13	0xbdb8fd9c	-0.09032747
14	0xbc63af97	-0.013896844
15	0xbd04532e	-0.03230589
16	0xbe071696	-0.1319221
17	0xbd96b388	-0.073584616
18	0xbde6ecd5	-0.11275641
19	0xbd8a9623	-0.067669176
20	0xbd22bd8a	-0.03973154
21	0xbbce8533	-0.0063024997
22	0x3da12404	0.078681976
23	0xbdf59cc5	-0.11992792
24	0xbd88ad5e	-0.06673692
25	0xbe15fb89	-0.14646734
26	0xbbc12f00	-0.0058954954
27	0xbe08f076	-0.13372979
28	0x3de46d8d	0.11153708
29	0xbd88676e	-0.06660353
30	0xbcc0c6aa	-0.02353223
31	0xbdad4d9a	-0.08462067
32	0x3de4496e	0.11146818
33	0xbe0183de	-0.1264796
34	0x3d781e94	0.060576037
35	0xbbec08a9	-0.007203181
36	0xbe08860b	-0.13332383
37	0x3d5f36e4	0.054495707
38	0x3df4589b	0.11930963
39	0xbe00a040	-0.1256113
40	0xbdc81119	-0.09768886
41	0x3cd57c61	0.026060285
42	0xbbb324c6	-0.00546703
43	0x3dc5b3a6	0.09653406
44	0xbdd777f3	-0.105209254
45	0xbd6d8466	-0.057987593
46	0x3c74f9cd	0.014952135
47	0xbdc4c339	-0.09607548
48	0xbd8e3c01	-0.069450386
49	0xbd4f5e8c	-0.050627276
50	0xbd92b4c5	-0.07163385
51	0xbddd29f1	-0.10799015
52	0x3ddf5765	0.10905341
53	0xbca83578	-0.020533308
54	0xbdd6c7a6	-0.10487299
55	0x3db5bcb6	0.088738844
56	0xbbca7fa5	-0.006179767
57	0x3d2be629	0.041967545
58	0x3d8cb93a	0.06871267
59	0x3bb1dee7	0.0054281834
60	0x3df3eb1f	0.1191008
61	0xbde59238	-0.1120953
62	0xbe1795dd	-0.14803262
63	0xbd15c925	-0.03656878
64	0x3df59a8e	0.119923696
65	0x3cdd7e78	0.027037844
66	0xbc4a9260	-0.012364
67	0xbdbf9a0c	-0.09355554
68	0x3d933d1c	0.0718939
69	0xbdff6adc	-0.12471554
70	0xbe0b6af2	-0.13615015
71	0x3db29d70	0.08721435
72	0xbd028e1a	-0.0318738
73	0xbde4ba2f	-0.11168324
74	0xbd039333	-0.032122802
75	0x3d54f4c4	0.05199124
76	0x3c4d7460	0.012539953
77	0xbd959e18	-0.073055446
78	0x3e100590	0.14064622
79	0xbd4dd43e	-0.050251238
80	0x3d2e270a	0.0425177
81	0x38856800	6.361306e-05
82	0x3d399b24	0.04531397
83	0x3d5d4716	0.05402287
84	0xbdbedbef	-0.09319293
85	0xbc031000	-0.00799942
86	0xbd91392f	-0.07090985
87	0xbb9ec1a0	-0.0048448592
88	0xbd940667	-0.07227784
89	0x3b34a4d4	0.0027564066
90	0x3d47ad26	0.04874911
91	0xbd77184c	-0.060325906
92	0x3d0e8f91	0.034804884
93	0x3dac7df7	0.084224634
94	0xbe09d345	-0.13459499
95	0x3e1643bf	0.1467428
96	0xbd9494fe	-0.072549805
97	0x3d27a504	0.040928856
98	0xbdfed512	-0.12442984
99	0xbd05d558	-0.032674164
100	0xbe0d62f6	-0.13807282
101	0x3d8798c4	0.066209346
102	0x3c89a4d4	0.016802229
103	0x3de4b4b3	0.11167278
104	0x3e0bb09b	0.13641588
105	0x3d758713	0.05994327
106	0xbdbaade6	-0.091152
107	0x3dd831d5	0.1055638
108	0x39986c00	0.00029072165
109	0x3d2b8930	0.04187888
110	0xbe103689	-0.14083304
111	0x3e005b45	0.12534817
112	0xbdcfc7eb	-0.10145553
113	0x3df4ab52	0.11946739
114	0x3e1ab828	0.15109313
115	0x3d9ed919	0.07756252
116	0xbdc6a293	-0.09698977
117	0x3cbb7d89	0.022887008
118	0xbdc3511e	-0.09536956
119	0xbdf95699	-0.1217472
120	0xbe0641c4	-0.13111025
121	0x3dbb18de	0.091356024
122	0x3e11a62c	0.14223546
123	0xbd2c3dc4	-0.04205109
124	0x3cc49065	0.023994634
125	0x3a3860f8	0.00070334924
126	0x3db091bf	0.08621549
127	0x3dbce62e	0.09223591
128	0x3c055ae7	0.008139349
129	0x3e0dca49	0.13846697
130	0xbe1650a1	-0.14679195
131	0xbe2108ba	-0.15725985
132	0xbe1aadbb	-0.15105335
133	0x3c8b5cf0	0.01701209
134	0xbdf268a0	-0.11836362
135	0x3d2278f7	0.039666142
136	0x3da6ec08	0.08150488
137	0x3d1cfc3c	0.038326487
138	0x3e1df13d	0.15424056
139	0x3ca15488	0.019693628
140	0x3d81f21c	0.06345007
141	0x3e09bef8	0.13451755
142	0xbde156c6	-0.11002879
143	0x3e14fcf1	0.14549614
144	0xbdf63871	-0.12022484
145	0x3d07817d	0.033082474
146	0x3dc7fcde	0.097650275
147	0x3e0fdf9d	0.14050145
148	0xbd811277	-0.0630235
149	0xbe1597d9	-0.14608707
150	0xbdc2aa96	-0.09505193
151	0xbcb87aa8	-0.022519425
152	0xbd849713	-0.064741276
153	0x3cdf6fd8	0.027275011
154	0xbd8591dd	-0.06521962
155	0xbd314686	-0.043280147
156	0xbcb8a7dc	-0.02254098
157	0x3ddfef7d	0.10934351
158	0x3dbed4a9	0.093179055
159	0x3d760b0a	0.06006912
160	0xbd80a32e	-0.06281124
161	0xbdc11f75	-0.09429828
162	0xbdfbdc1d	-0.12297843
163	0xbdff0359	-0.124518104
164	0xbd039a83	-0.032129776
165	0x3dba8a0c	0.091083616
166	0x3d84f979	0.06492896
167	0xbe0954dc	-0.13411278
168	0x3d1aa223	0.037752282
169	0x3bdb0c00	0.00668478
170	0xbd06446f	-0.032780107
171	0x3db6eebe	0.08932255
172	0xbcedd7bb	-0.029033532
173	0x3dfa2549	0.12214143
174	0xbe136510	-0.14394021
175	0x3ceaa330	0.028642267
176	0xbcd85c14	-0.026411094
177	0x3ca9b6bc	0.020717017
178	0x3decb56d	0.11558042
179	0x3c5f5d20	0.013633043
180	0xbda5ad87	-0.08089738
181	0x3d8d8c26	0.06911497
182	0x3cc6b216	0.02425484
183	0xbc6d9e38	-0.014503054
184	0x3b02fd00	0.0019987226
185	0xbde17363	-0.110083364
186	0xbcb62410	-0.022233993
187	0x3d1bd3ec	0.0380439
188	0xbdc40e64	-0.09573057
189	0x3d30c752	0.043158837
190	0xbe163f29	-0.14672531
191	0x3da4507e	0.08023165
192	0x3d8e4738	0.06947178
193	0x3e0608f7	0.13089357
194	0x3e07c31d	0.13258024
195	0xbcccc060	-0.024994075
196	0xbd4313ab	-0.04762618
197	0x3dc4773e	0.09593056
198	0x3c56ee68	0.013118364
199	0xbc52f62e	-0.012876077
200	0x3ddcdac3	0.10783913
201	0x3c8b1fa3	0.016982859
202	0x3e1041c9	0.14087595
203	0x3dfe3c34	0.124138266
204	0xbde95ede	-0.113950476
205	0x3b44b680	0.0030016005
206	0x3dfbff4f	0.123045556
207	0xbd015c78	-0.031582326
208	0xbd0ee825	-0.03488936
209	0x3d6c342c	0.057666942
210	0x3bd860df	0.006603345
211	0x3df251a2	0.118319765
212	0xbe238bf9	-0.15971364
213	0xbdc2da03	-0.09514239
214	0x3cf83694	0.030299462
215	0x3ddb0cc4	0.10695794
216	0x3d944f59	0.07241697
217	0x3ddda7a6	0.10822992
218	0x3df64787	0.120253615
219	0xbe06476d	-0.13113184
220	0xbd97bab5	-0.074086584
221	0xbd40e424	-0.04709257
222	0xbbd73620	-0.0065677315
223	0x3df175c6	0.117900416
224	0x3d0ebfe4	0.03485097
225	0x3d61d8a0	0.05513823
226	0x3de107ea	0.109878376
227	0xbe21949e	-0.15779349
228	0xbcc8f1c8	-0.024529353
229	0x3ca8292f	0.02052745
230	0xbcc483e8	-0.023988679
231	0xbda1a9fc	-0.0789375
232	0xbd2ce1a9	-0.042207394
233	0x3e0db8ae	0.13839981
234	0x3dbb0924	0.09132603
235	0xbd012842	-0.031532533
236	0xbdd1a19e	-0.10235904
237	0x3e07afb7	0.13250624
238	0x3df605bb	0.12012812
239	0x3bf719e0	0.0075409263
240	0xbc8c7792	-0.01714686
241	0xbdf2424e	-0.11829053
242	0x3dee77df	0.11643957
243	0xbe194a90	-0.1496985
244	0xbdd0d033	-0.10195961
245	0x3df013f5	0.117225565
246	0x3d290e57	0.04127344
247	0x3dec0306	0.11524014
248	0x3cce941e	0.025217112
249	0xbd806303	-0.06268885
250	0xbd0abe47	-0.03387287
251	0x3d8a593f	0.067553036
252	0xbd0112fb	-0.03151224
253	0x3db4d5c2	0.088298336
254	0xbd6ad988	-0.05733636
255	0xbaad7900	-0.0013234913

output_layer1.bias f4 [40]
0	0x3c760432	0.015015649
1	0xbdc65f45	-0.0968614
2	0x3e1d33df	0.15351819
3	0xbd667f26	-0.056273602
4	0xbc52d42e	-0.01286797
5	0x3de92eb5	0.11385862
6	0xbe20cd1e	-0.15703246
7	0xbd2041dd	-0.039125312
8	0xbd89173b	-0.06693884
9	0x3d8359d8	0.06413621
10	0xbdaaf612	-0.083477154
11	0x3ba5a2ee	0.005054823
12	0xbdaa9d35	-0.08330766
13	0xbe201a4b	-0.1563503
14	0xbcbcd786	-0.023051988
15	0x3daacb56	0.083395645
16	0x3defbfc6	0.117065
17	0xbd81d575	-0.06339542
18	0x3d575262	0.0525688
19	0x3d146d70	0.03623718
20	0xbc1daef3	-0.009624231
21	0xbd7e2962	-0.062051184
22	0xbccb342c	-0.02480515
23	0x3df6d274	0.120518595
24	0xbd1538a5	-0.036430974
25	0xbd4fbd7e	-0.050717823
26	0xbe0bd5d6	-0.1365579
27	0x3d0e01df	0.034669753
28	0xbdc4c44a	-0.09607752
29	0xbc53be1c	-0.012923744
30	0x3dbc0575	0.09180728
31	0xbd4705dd	-0.048589576
32	0xbde4e1a8	-0.11175853
33	0x3e0ca131	0.13733365
34	0xbd9366f8	-0.07197374
35	0x3e205e28	0.15660918
36	0x3e2a1aed	0.16611834
37	0xbdf80d6d	-0.12111936
38	0xbcbe4860	-0.02322787
39	0x3d8e9598	0.069621265

output_layer2.weight f4 [1, 42]
0	0xbe1348ce	-0.14383242
1	0xbdf2b2c7	-0.11850505
2	0x3e24b253	0.1608365
3	0x3c7dc7c0	0.015489519
4	0x3e18105b	0.14849989
5	0xbd8dff6c	-0.069334835
6	0xbd09fb98	-0.033687204
7	0xbdb3d027	-0.08779936
8	0x3c47f560	0.012204498
9	0xbd92ae58	-0.0716216
10	0x3e091a5b	0.1338896
11	0x3e150605	0.14553078
12	0xbe14a074	-0.14514333
13	0x3cf37a50	0.02972141
14	0xbd0430f3	-0.032273244
15	0xbe03813e	-0.1284227
16	0x3df6bbee	0.120475635
17	0xbccc4e17	-0.02493958
18	0x3d4ce65e	0.050024383
19	0xbdf6f8f6	-0.12059204
20	0x3d7318a0	0.059349656
21	0x3cf01cd4	0.029310621
22	0xbde6481c	-0.112442225
23	0x3e093ffb	0.13403313
24	0x3d6c7aac	0.057734177
25	0xbdba9e09	-0.09112174
26	0x3c530370	0.0128792375
27	0x3ce48cc0	0.027899146
28	0x3d82fc15	0.06395737
29	0xbd39380e	-0.045219474
30	0x3e21b5dc	0.1579203
31	0x3d9913c0	0.0747447
32	0xbd3e13b5	-0.046405513
33	0x3c43a3e3	0.011940929
34	0xbd8fb7b7	-0.07017463
35	0x3def5de7	0.11687832
36	0x3d732a8e	0.059366755
37	0x3ddf09fe	0.10890578
38	0x3e029fd6	0.12756285
39	0x3ce4a580	0.027910948
40	0xbe0bfac5	-0.1366988
41	0x3cafefa9	0.021476584
