src/models/dynamics_93.pt (torch, 47860 bytes, 13 tensors)

input_layer.weight f4 [42, 42]
00000000: f989 6b3d 6a73 51bd e1c6 103e 2edf 893c
00000010: 8575 dcbd 6a96 723d e744 3bbc 5f6f bebc
00000020: b442 fe3c 96e4 36bc 1ad9 18be fbea 943c
00000030: 7856 89bd f214 883d 9e7b f7bd 3bdb 91bd
00000040: 0e97 51bd d9b0 293d db9a 173e ff85 27be
00000050: 0351 d5bd 29b0 17be b021 8f3d c6df cc3d
00000060: a997 c1bd 5b39 89bd d63d 98bd 61e7 013e
00000070: 43a0 033e 366c 61bc f942 ecbd a157 073d
00000080: 800f 0a3e 1c98 2fbe 51b0 eebd 5d8a 3fbc
00000090: c1dd bc3d 796f 803c ee18 093d dacd f3bd
000000a0: 2be4 da3d 29b7 873d d013 a23d af19 033e
000000b0: d8b7 7f3d 7ea9 0cbd c56e 353d ff34 003e
000000c0: d46b 02bc 6c91 32bc 3826 c13d 919a 243d
000000d0: c921 e23d 7641 d0bb a08e 86bd a811 bbbd
000000e0: c5ec b93d 9c92 023e b5c8 163e 10af 7abc
000000f0: c2c5 cc3d 2cbe 293d 96ba 7d3d 483a 023e
00000100: f0f6 a93d e41f b8bd c35f 41bc 4daf c5bd
00000110: 2d86 213d fa25 b53d 5f86 36bd edfd 0f3e
00000120: 2c64 fa3d 5c0c 64bd 372e a7bd bc10 d9bd
00000130: 4b9a d4bd f20f e93d cf2f febc da0b e6bd
00000140: 45f8 16bc b3c6 dc3c 2504 e23d 25d3 e3bd
00000150: d422 93bd 0ae9 07bc f641 09be 975f ba3d
00000160: 8db5 50bd 67ad 74bb 0da7 6d3d 3b0b 58bc
00000170: 435c 093e e885 b33d df8e 11be 51ef 53bd
00000180: 3269 f3bc 515a 9d3d 9d14 9dbc 2126 b13d
00000190: 5a89 d1bd 50a7 f33d 8236 343d e4a7 d039
000001a0: 2995 c73d 6059 0ebd 729d 8d3d c034 8e3c
000001b0: 40bf 023e 5dcb a8bd 75af b33d ae24 90bd
000001c0: 4549 4b3c 31a3 45bc 6597 233e 06fb 26be
000001d0: d0f8 1e3e 836c 43bb f4fa 493d d9da 69bc
000001e0: c112 7b3d 0cc7 d4bd 91ad b73d 2bb7 233e
000001f0: 5c67 213b 7092 e9bd ea84 04bd 5600 eabc
00000200: f79d ac3d bc12 043e 911e 81bd e775 633d
00000210: cca7 243d 781b 86bd c19b be3c 8066 01be
00000220: 1ed5 b33d 5ee8 c2bd 80fa 7c3c 5d0d 9dbc
00000230: 1fc7 afbd 70dd 723d e67a a93d c606 6e3c
00000240: ec38 b33d 4ec7 093e b8c4 09be 6ae6 1a3e
00000250: 2604 b1bc 8450 fbbd 4bdb 143b c216 a53b
00000260: 28d1 073e 4583 e8bd d00e a0bd 9ea4 78bd
00000270: 513f b3bd 8513 c4bc ae93 2dbd 4778 653d
00000280: bf60 41bd 0922 0fbe 9696 9f3c 81b2 84ba
00000290: b654 1f3c 517c d5bc e619 853c fe6d 01be
000002a0: c693 4abd 08ef aebc 30de 03bc dc4c 09be
000002b0: e1ac 97bd f428 d3bd 00e2 75ba 003c adbd
000002c0: 8fe9 a8bd 04e5 403d a678 0cbd 81b1 03be
000002d0: ae02 c5bd 6006 663c 6007 e1bc e060 ffbd
000002e0: 0ad4 87bd 9010 6f3c 7367 a0bd 76c5 d83d
000002f0: 9e81 ec3d 362d 27bd 8e75 91bd 20bf ffbb
00000300: 36e1 79bd cb86 c4bd 1c70 2a3d cc83 223d
00000310: 6d10 edbd 66db 15be ba5e a83d 209c b13b
00000320: 34fb a13d 02c0 0ebd 922d 9a3d 6630 e83d
00000330: ea0b d63d d80f 763d 523e 9f3d 6ad9 c0bd
00000340: 5dc3 0dbe 8094 17bd c84a 94bc 7c00 03bd
00000350: a25a ea3c ed8c c73d 6bce aabd b873 cb3d
00000360: cf76 363d c684 05be a44b bb3d 1330 e5bc
00000370: 1aa6 b5bd e98e 443d 504b eebd 7130 f53d
00000380: 64f5 c93c 14c4 e2bd 97c5 11be 75ae f139
00000390: 6130 703d 9564 f4bd cdae 7cbd 1df4 82bd
000003a0: ca3e 2cbd 3733 0b3e 2c42 f63d efcf 043e
000003b0: 0c31 bdbd 4728 d03c 343a d73d b0f3 bd3b
000003c0: 6c62 93ba 7703 fe3c 7fb3 f0bd 74d9 a43d
000003d0: cb16 25be 298d 063d d2d5 fd3b 8223 a9bd
000003e0: 0c4e 0cbe 7bb6 6f3d f625 5bbd b76f 633d
000003f0: 34c8 b93d d57b c8bd 2f1e 96bd 61fb d4bd
0.057504628 -0.051135458 0.14138366 0.016830053 -0.107646026 0.059225477 -0.011430002 -0.023246465
0.031037666 -0.011162898 -0.14926568 0.018178454 -0.06705946 0.0664462 -0.12084125 -0.07121893
-0.051169448 0.04142842 0.14805166 -0.16359709 -0.104158424 -0.14813294 0.06988847 0.10003619
-0.09452755 -0.06700393 -0.07433669 0.1268592 0.12854104 -0.01375871 -0.115362115 0.033042554
0.13482475 -0.17147869 -0.116547234 -0.011690703 0.09221984 0.015678154 0.03347104 -0.119044974
0.10688051 0.06626732 0.07913935 0.12802766 0.062431186 -0.034341328 0.04429509 0.12520216
-0.007960279 -0.010898929 0.09431118 0.04018647 0.110416 -0.00635546 -0.06570172 -0.09134227
0.09078363 0.1275124 0.14725001 -0.015300527 0.09998657 0.041441128 0.06194552 0.12717545
0.08299053 -0.08990458 -0.0118026165 -0.096525766 0.0394346 0.08845134 -0.04456174 0.14061709
0.122261375 -0.05567585 -0.08163112 -0.10598895 -0.103809915 0.113799945 -0.031028656 -0.11232729
-0.0092144655 0.026950216 0.11035947 -0.11124257 -0.07184377 -0.008295307 -0.13404068 0.091002636
-0.05095439 -0.00373348 0.05802064 -0.013186271 0.13414101 0.08765775 -0.14214657 -0.0517419
-0.029713247 0.07683242 -0.019174868 0.08649851 -0.10231276 0.11897147 0.043997295 0.0003979794
0.09745247 -0.034753203 0.06914796 0.017359138 0.12768269 -0.082419135 0.087737 -0.07038246
0.012407606 -0.012062834 0.15975721 -0.16306695 0.15524602 -0.0029819317 0.049311593 -0.014273369
0.061297182 -0.10389528 0.08968652 0.15987842 0.0024628257 -0.11404884 -0.03235332 -0.028564613
0.08428567 0.12897772 -0.06304658 0.055532362 0.040199086 -0.06548208 0.023267629 -0.12636757
0.08780883 -0.09516977 0.015440583 -0.019171411 -0.08582901 0.05929321 0.08275394 0.014527982
0.08751091 0.13454935 -0.13453948 0.15126958 -0.021608423 -0.122712165 0.0022713717 0.0050381133
0.1326338 -0.11353163 -0.07815325 -0.060703866 -0.08752311 -0.023935089 -0.042377166 0.05602291
-0.047211405 -0.13977827 0.019480985 -0.0010123999 0.0097247865 -0.026060255 0.0162477 -0.12639615
-0.049457334 -0.021354213 -0.008048579 -0.13408226 -0.07406021 -0.103105456 -0.0009379685 -0.0845871
-0.08247673 0.047093406 -0.034294747 -0.12860681 -0.09619652 0.014039606 -0.027469337 -0.12469649
-0.0663224 0.014591351 -0.078322314 0.10584538 0.1154816 -0.0408146 -0.071025 -0.0078047663
-0.061005794 -0.09596022 0.041610822 0.039676473 -0.115753986 -0.14634475 0.08221193 0.005420223
0.07909241 -0.03485108 0.07528223 0.11337356 0.10451491 0.060073704 0.077755585 -0.094164684
-0.13844056 -0.037006855 -0.018102065 -0.031982884 0.02860767 0.09743676 -0.08340152 0.09934181
0.0445469 -0.1303893 0.09145287 -0.027977025 -0.08869572 0.047987852 -0.116354585 0.1197213
0.024653144 -0.11072555 -0.14235531 0.00046097083 0.058639888 -0.11933247 -0.06169014 -0.06394217
-0.042052068 0.13593756 0.1202434 0.12969945 -0.092378706 0.02540983 0.10509148 0.005796872
-0.0011244542 0.031007512 -0.11752986 0.080492884 -0.16121976 0.032849465 0.0077464366 -0.08258726
-0.13701648 0.058523636 -0.053503 0.05552646 0.09071389 -0.09789244 -0.07329976 -0.10399509

input_layer.bias f4 [42]
00000000: 5cdb 273d 5a82 11be ea56 25bd 3f21 e4bd
00000010: 829f 73bd 10cb 6dbd da68 ecbc a1c5 f4bd
00000020: 59e8 cfbc 25f9 853d 2503 ed3d 0c61 88bd
00000030: 5549 22be 2f51 003c 6c4d 153e 47b0 d13d
00000040: 0cad 1d3d 7400 b63d 8586 a53c 18b2 15be
00000050: 9185 c9bd 5dda ba3d 1ac3 adbd ae56 3fbb
00000060: d914 a93c 9389 6f3d e1b0 293e 2dc0 1b3e
00000070: bef5 5dbc cf38 87bd 6a3d e5bd e9f2 213c
00000080: e89a 193e b33f 85bd 03f2 27bd 053d 09be
00000090: f02b fbbd 41b7 37be 8bd7 353e 9663 08be
000000a0: b6b0 28bd f80f cdbc
0.04098068 -0.14209881 -0.04036609 -0.11139154 -0.05947829 -0.058054984 -0.02885859 -0.11951757
-0.025379347 0.06541661 0.115728654 -0.06659135 -0.15848286 0.007831856 0.14580315 0.102387
0.03849511 0.08886805 0.020205745 -0.14618719 -0.09839929 0.09123681 -0.08484478 -0.0029195952
0.020639824 0.05848081 0.1657138 0.15210028 -0.013547359 -0.06602632 -0.111933544 0.009884574
0.15000498 -0.0650629 -0.041002285 -0.13402183 -0.1226424 -0.17941 0.17758004 -0.13319239
-0.04118415 -0.025032029

hidden_layers.0.weight f4 [42, 42]
00000000: 557d d63d 1331 f63d 719b 3bbd 9c85 30bd
00000010: be51 cc3d 98ee 783d f6f5 593d 3212 923d
00000020: 8877 bdbd 5bb9 07bd dd10 b6bc d27e 22bd
00000030: 5294 fb3d 7b09 b83c 3a35 f3bd f0a0 10bd
00000040: aee9 f9bd 54a5 80bd 45e4 cebd 9b64 9abd
00000050: 28b4 113d 6d11 f93d 4002 e8bb 938a a03b
00000060: 03a1 87bd 4efb b6bd e106 66bb de47 d03d
00000070: d301 093e 65a4 8f3d d160 083e fb01 d43d
00000080: 2cf0 2b3d c362 09be 654b ffbc 57ba 183e
00000090: f8d0 8bbc f975 073d f0f4 7a3d b679 f23d
000000a0: a7d6 c5bd 0bdb 0b3e 6f68 8dbd 06f6 363d
000000b0: 1bec 7d3c 69f2 b93d e24c c0bd bf7c 1b3e
000000c0: 7503 023e a886 e8bd 7021 dbbc 2e0e 533c
000000d0: e66f 443d d6b6 683d 488b f13d 395b d33d
000000e0: 6f48 2d3e d47e 0f3d e94c 2b3e 6b93 813d
000000f0: a8b9 0e3e 0155 14be 030a a1bd 19ed 2bbd
00000100: 809d b7ba 81c1 fa3c 58e4 41bd 957f 09bb
00000110: 4b61 133e 8c8a 81bd 6c1c 973c 910f 95bd
00000120: 3aec 35bd a74b 8fbd b1bd 8e3d 7e1f d6bd
00000130: 1ae1 40bd 701d 9abc f009 4d3d e968 36bd
00000140: d569 dabc fa1e b93d 128e 0c3e 3b28 b23c
00000150: d563 ce3d 6ec6 30bd 33b5 dc3d 1d22 abbd
00000160: e8ac 8fbd d130 0e3e cf29 093d 8095 c4ba
00000170: bbe0 58bd ac17 5c3d a12a 203e 4a15 02be
00000180: da13 093d da9c 47bd 19a2 18be 674d f1ba
00000190: 5297 e03c e958 eebc bf41 f13d dc8a 533c
000001a0: a365 94bd 47aa 83bd 68f3 ee3c 143b 96bd
000001b0: 23c6 76bd e6fa 0bbe 688a 1f3e 414f 5e3d
000001c0: 0312 ec3c de9a 72bd b0e3 d93c c622 433d
000001d0: 648d dc3d 9a24 4d3d ef49 083e b0e2 01be
000001e0: eaed bf3d 7280 00be 9d67 e03b 6e91 d53d
000001f0: d654 c23d 8575 3cbd b246 b63d 6a78 21bd
00000200: 5758 1dbe f5f0 79bd 9b1c 003e aaa7 9b3d
00000210: c5da 9fbd 7847 473d 15c8 073e f115 113e
00000220: 36a9 53bd 0538 303e 9ad9 c13d fd2e 453d
00000230: f53f cf3d 654a 2d3e 6d2f e53c d106 c13d
00000240: 7c6d f7b9 3392 86bd 6334 f43d 37d0 d7bd
00000250: 2ec5 99bd 8080 773d 372a 0e3c c69d 2c3e
00000260: 2470 0f3e 30d9 1fbd 1420 21bd e8dc 013e
00000270: f4f5 8c3d 470d 2fbe 103c 063d ab2e 44bc
00000280: e267 323d b00a 85bd 908f e7bc 9500 d03d
00000290: 310f 413d a6eb 9f3d b169 98bd 4e53 5fbb
000002a0: fe6d c8bc 9268 0dbd 6f79 5abc de7e b8bd
000002b0: 7039 b4bc d835 883d 4efb d1bd 0eb4 823d
000002c0: 6bd1 debd 77de be3d 5dfa a53d 15e4 49bd
000002d0: 2267 1f3e 57bf 663c 28ec a8bd 687d 023e
000002e0: 342d d73d 8d99 db3b 6730 21bc 39b8 1f3d
000002f0: 15b3 06bd 8715 a0bc d06b 2b3c 451f cebd
00000300: a069 6f3d 70be a8bd 6f8b 9bbd feb1 d53d
00000310: 21bb 0f3d d4a4 c33d 5849 8ebd 9a97 373d
00000320: 4433 e23d 96fe af3d 9a1f cebc 9a2f f53d
00000330: 21c6 b9bd 6153 423a c936 3c3e 524f bdbd
00000340: ff12 8abc bdaf 2a3e 5be0 fd3c e7a5 21bd
00000350: 6b82 95bd c657 023d e795 1a3e 55e5 fe3d
00000360: ad32 ca3d 20c9 c93c 49f6 d3bd d9f0 08be
00000370: 784c 0b3e de78 88bd 6388 2dbd 0c50 fd3c
00000380: ed11 1c3e c0d9 19bd f342 d33d 992d 70bd
00000390: 7dd5 353e bfba 0cbe 3239 c1bc 50b4 743d
000003a0: 4815 163d ab96 b2bd 1bbf 45bd 1170 313e
000003b0: c9b7 7e3c 4878 f13c 0555 15bd 590c e83c
000003c0: 30eb 99bc b475 a53d 3447 a73c 3189 713c
000003d0: 9733 ce3d d9dd 0e3e c065 4bbb 6ee1 053c
000003e0: fe0a f73d 401c 2dbc 1882 e13d 73fa 4e3c
000003f0: 8231 a2bd b398 b63d 41f3 17be 2236 c43d
0.10473124 0.12021079 -0.045802537 -0.04309617 0.099765286 0.060774416 0.053213082 0.07132377
-0.092513144 -0.033135753 -0.022224838 -0.039671727 0.12284149 0.022465458 -0.118753865 -0.035309732
-0.12202774 -0.06281534 -0.10102133 -0.0753872 0.0355722 0.12161527 -0.0070803463 0.004899332
-0.066225074 -0.08934651 -0.0035099315 0.101699576 0.13379602 0.07013778 0.13318183 0.1035194
0.041977093 -0.13416581 -0.03116388 0.14914833 -0.017067418 0.033071492 0.061268747 0.11839621
-0.09660082 0.13657777 -0.06904685 0.04466822 0.015498186 0.09079439 -0.09389664 0.15184306
0.12696631 -0.11353809 -0.026749343 0.012881799 0.047958277 0.05681499 0.11794144 0.10320134
0.16922162 0.035033062 0.16728558 0.06326946 0.1393801 -0.14485551 -0.07863238 -0.04197416
-0.0014008731 0.030609848 -0.047336906 -0.0020980586 0.14392583 -0.06325254 0.01844617 -0.0727836
-0.044414736 -0.069968514 0.069697745 -0.104552254 -0.047089674 -0.018812865 0.050058305 -0.044533644
-0.026661793 0.090391114 0.1372607 0.021747699 0.10077635 -0.043157987 0.107767485 -0.08356116
-0.07015401 0.1388581 0.033487137 -0.0014998168 -0.052948695 0.053733513 0.15641262 -0.12703434
0.033466198 -0.04873357 -0.14905585 -0.0018409909 0.027415905 -0.02909513 0.11780118 0.012911525
-0.07245948 -0.06428962 0.0291688 -0.07335487 -0.06024755 -0.13669929 0.15580142 0.0542748
0.028817182 -0.059229724 0.026597828 0.047640584 0.107691556 0.050083734 0.13309453 -0.1268413
0.093715504 -0.12548998 0.006848289 0.10428129 0.094888374 -0.046010513 0.08900203 -0.039421476
-0.1536573 -0.06102081 0.12510912 0.07600339 -0.07805399 0.048652142 0.13259919 0.14168526
-0.051675044 0.1720887 0.09465332 0.048140515 0.10119621 0.1692291 0.027976716 0.09425128
-0.00047193083 -0.06570854 0.119240545 -0.10537761 -0.07508312 0.06042528 0.008677057 0.16857061
0.14007622 -0.039025486 -0.039337233 0.12681925 0.06882849 -0.17094909 0.032772124 -0.011974017
0.0435561 -0.06496179 -0.028266698 0.10156361 0.04713363 0.07808618 -0.07442034 -0.0034076753
-0.02446651 -0.034523554 -0.013334616 -0.09008573 -0.022000045 0.06650895 -0.10253011 0.06381999
-0.10879787 0.093197756 0.08104394 -0.04928978 0.15566686 0.014083705 -0.08248168 0.12743151
0.10506669 0.0067016543 -0.0098382 0.038994048 -0.03288563 -0.019541515 0.010462716 -0.10064558
0.05845034 -0.08239448 -0.07594954 0.1043434 0.03509057 0.09552923 -0.06947583 0.044822313
0.110449344 0.0859348 -0.025161553 0.1197197 -0.09070993 0.0007412937 0.18380274 -0.09243645
-0.016854761 0.16668601 0.03099077 -0.039464857 -0.07300266 0.03182199 0.15096246 0.12446085
0.09872947 0.024632037 -0.103497095 -0.13373126 0.1360339 -0.066636786 -0.042366397 0.030921958
0.15241213 -0.03756118 0.10315504 -0.058637235 0.1775722 -0.13743113 -0.023586843 0.059742272
0.03664139 -0.08720144 -0.048277956 0.17327906 0.0155467475 0.0294763 -0.036458034 0.0283262
-0.018788904 0.08079091 0.020419694 0.014742182 0.10068434 0.13951816 -0.003103599 0.008171422
0.120626435 -0.010565817 0.110111415 0.012632954 -0.07919599 0.08915844 -0.14838888 0.095806375

hidden_layers.0.bias f4 [42]
00000000: 39a7 0b3e 45e7 0a3e f312 10be 91c7 233e
00000010: 58cb 313d 7b8c f23d 2a4b 353e cd53 c43d
00000020: a8cb 0cbe 7d1f 5ebd 10b5 fabd a1e7 93bd
00000030: 0c76 3b3e 3167 8d3c 44b3 003e 1455 4d3d
00000040: 6e25 12bd e6cb 8c3d 64d1 c83d 2aa3 15be
00000050: fa5e b8bc 3eff 45bd f3f8 e73c ac5a f1bd
00000060: f98f d13d 2b5f 09be 3386 f43d 38ee 333e
00000070: 4bd5 813d 90ed f23d c82e e2bd c168 0a3e
00000080: 3bce 8bbd 789b 8bbd 8939 b6bc 67cd 6b3c
00000090: 268f 0abe dc81 e2bd bbfd ab3d 5b82 59bd
000000a0: 5ba0 883d e92b d33d
0.13638009 0.13564785 -0.14069729 0.15994097 0.043406814 0.11843201 0.17704454 0.09586296
-0.13749564 -0.05422925 -0.12241566 -0.07221914 0.1830675 0.01726112 0.12568384 0.050129965
-0.035680227 0.06874828 0.09805563 -0.14613023 -0.022506226 -0.04833912 0.02831695 -0.117848724
0.10232539 -0.1341521 0.11939659 0.17571342 0.063395105 0.11861718 -0.11044079 0.13516523
-0.06826445 -0.06816763 -0.022244232 0.014392233 -0.1353117 -0.11059925 0.083980046 -0.053102832
0.066712104 0.103111096

hidden_layers.1.weight f4 [42, 42]
00000000: 3688 8abc c297 8b3d 1f37 bdbd 94d7 f13d
00000010: 8823 49bd 5fce adbd f0e2 cc3d aa35 1cbe
00000020: cae3 ca3d 4e84 e7bd 1ead bdbd d498 363d
00000030: 0431 d23d 4679 52bd da4d 07bd a2d2 e8bd
00000040: 3887 0f3d 4073 6b3d 3628 fe3d 108e 583c
00000050: 2a41 45bd 56c0 38bd c0fd 94bc ca2d 68bd
00000060: 9531 76bc e8a1 11bd 3c9d e8bc 83ff 58bd
00000070: c92b bc3d 68ad d73d eec9 1bbe 0dd9 67bd
00000080: decb 6abd 394a 2e3d fe08 223d ad45 a4bc
00000090: 80c8 d23a 475b 0d3e f61b eebd 80a0 203b
000000a0: b9a9 913b 7ee5 bfbd 4fb1 06be a2d5 563d
000000b0: 62b2 d43d c792 8ebd dad1 08bd eda6 21be
000000c0: 96eb 163d 705a bfbd b0fd 623c 5bb2 41bd
000000d0: dd9b 063e bd8f 033e a6ab 113c 39ea a7bd
000000e0: 6acd 6a3d fd34 b03d 70bb f63c e5e2 263d
000000f0: dbfe b53d 900d 7f3d 80ed 96bc e0fb 7f3c
00000100: 19e7 fe3d 6c21 0d3d b11e dabc 4a78 a13d
00000110: d804 9b3b a369 d93d 66bd 9abd f92f 9c3b
00000120: 207b edbc de2d e73d 2ce2 92bb e39c e3b9
00000130: 5ac9 2ebe a76d ad3d 8280 9dbd 24c5 66bd
00000140: e532 a8bb 28bc 6bbc 91cc d4bd ca05 663d
00000150: 8b82 0fb9 a9d1 f63d 56a1 a53c dd31 b03d
00000160: 8101 83bd 6dcb c5bc 69b3 c9bd 71df db3d
00000170: 1c8d 043d a840 c63d 089d ad3c 5a9f d83d
00000180: 5460 a9bd 5c60 803d 0815 be3d ca7b e0bd
00000190: c0bc a1bd b854 c5bd cb14 223e 060b 15bd
000001a0: ce97 4fbd 94ef 243d 0883 153d 18d9 f1bd
000001b0: 989d 363e 860b c3bd 832e 253e 07d8 37bd
000001c0: 7dd3 bd3c 7a25 fc3d 7995 9f3d ce0b 313e
000001d0: c70f 313d 082f f03d fbea 88bd 91a1 b73d
000001e0: 5080 c3bd 0050 f23a 221b 06bc 27a7 203e
000001f0: 6d60 b93d b645 00bd 0fb7 133e 82ac 0dbe
00000200: 8264 ee3d 00fc deba a174 003e 8000 bc3b
00000210: 3e47 bfbd 0046 113b 2857 fdbd d4f2 2c3d
00000220: 1078 ed3c 3eab edbd 8001 0c3c 559f 82bd
00000230: 2ac1 f13d a03a 70bc 51a9 0b3e 18ee 943c
00000240: b871 a43d 336f 193e 5acc c73d ec95 483d
00000250: a0ea 2e3c 54c7 163d 8e74 de3d 2f7e 093e
00000260: 0a86 f9bd b8c4 9fbd 2854 ef3c 24ae 2c3d
00000270: 163c 66bd 1fea 1a3e aa00 0cbe 56dd cdbd
00000280: 6043 e73b d8a3 cfbc 9fbf 81bd 2a45 ebbd
00000290: 80af 353d 6ad9 dd3d 28cb 1abe 3018 08be
000002a0: 50a4 e43c 2d53 013e 00d3 a73d 098a 0f3e
000002b0: 053d 153e 8959 bd3d 27a7 65bd a5a0 f3bb
000002c0: 6551 c9bd f9d8 59bd ce09 f4bd 6109 943d
000002d0: d0e1 fd3d 95c0 1e3e 7c16 d9bd 82d5 59bd
000002e0: 6033 8dbb cf4e f2bd b64f 77bd 8e0f 01be
000002f0: c3e6 083c bae4 c53d e881 0fbe 17d3 c9bd
00000300: 49b3 1f3e e7fa 9abd d668 3fbd b387 c83d
00000310: 2ff2 933c 0af2 10bd 7a09 d4bd e076 a13d
00000320: 3cc0 dfbc a842 e7bc 3bc4 493d 2538 993d
00000330: ac1f 98bc c5e1 9abd 9de8 103e 90fb 09bd
00000340: 3274 263e c825 f13c e044 f2bd 22cd 4bbd
00000350: 66d9 f3bd 755a 93bd 7438 67bd efb2 edbd
00000360: f4d4 133d 5a4c d0bc 783e afbc e370 f13c
00000370: b4a3 fcbd 75c9 093e ea99 873d ce24 ee3a
00000380: ecb0 ca3d 514b a13d a077 2b3c f0c6 873d
00000390: b386 d0bc 2cf7 cfbd 9dc4 f03d 804a 9bba
000003a0: 5dc0 863d 3436 35bd c9d5 bfbd c039 68bd
000003b0: 6132 963d f01b 30be 0b08 9d3c 9544 5bbd
000003c0: b6b7 f3bd 2c2f 0ebd dc1f 98bd 2430 f3bd
000003d0: 75f3 f63d a19c 073e fc5a 9dbd fdad 8bbd
000003e0: 78e8 aebd dbbf eebd 7fe7 13be fde1 013e
000003f0: d4fa 903d e5e4 653d 9fea 20be 2821 9ebc
-0.016910654 0.06816055 -0.09239029 0.118086964 -0.04910615 -0.08486628 0.100042224 -0.15254846
0.099067286 -0.11304532 -0.09261535 0.044579342 0.10263255 -0.051385187 -0.03303323 -0.113683
0.035041064 0.057482958 0.124100134 0.013217464 -0.04815785 -0.0451053 -0.018187404 -0.056684293
-0.01502647 -0.035554796 -0.028395288 -0.05297805 0.09188039 0.105311215 -0.15213749 -0.05660348
-0.05732333 0.042551253 0.039559357 -0.020052755 0.0016081482 0.13804351 -0.11626427 0.0024509728
0.0044452813 -0.09369944 -0.13153575 0.05244983 0.10385586 -0.06961589 -0.033403255 -0.15786333
0.036845766 -0.093434215 0.013854429 -0.047289234 0.13145395 0.128478 0.008891022 -0.08198971
0.057324804 0.08603857 0.030118674 0.040743727 0.088865004 0.062268794 -0.018423796 0.0156240165
0.12446422 0.0344557 -0.026625963 0.078842714 0.004730802 0.10615852 -0.07555656 0.004766461
-0.028989375 0.11288045 -0.004482528 -0.00043413704 -0.17068997 0.0846818 -0.076905265 -0.05634035
-0.00513302 -0.014388122 -0.103905804 0.056157865 -0.00013686174 0.12051708 0.020218533 0.08603261
-0.06396771 -0.024144853 -0.09848673 0.107359774 0.032361135 0.09680301 0.021193042 0.10577269
-0.08270326 0.06268379 0.09281355 -0.10961111 -0.07897329 -0.096352994 0.15828244 -0.036387466
-0.05068188 0.040267542 0.036501914 -0.118089855 0.17833555 -0.09523682 0.16131024 -0.044883754
0.023172135 0.123118356 0.077921815 0.1728966 0.043227937 0.117277205 -0.06685444 0.08966363
-0.09545958 0.0018486977 -0.00818518 0.15688764 0.09051595 -0.03131648 0.144253 -0.13835338
0.11640264 -0.0017012358 0.1254449 0.0057373643 -0.0933976 0.0022166967 -0.12370139 0.042223766
0.028987914 -0.116049275 0.0085452795 -0.063780464 0.11804421 -0.014662415 0.13638808 0.018179938
0.08029503 0.14983825 0.09755774 0.0489711 0.010676056 0.036811188 0.10862075 0.13427041
-0.12183769 -0.07801193 0.029214934 0.04215826 -0.056209646 0.15128373 -0.13672128 -0.10051982
0.0070575923 -0.025346681 -0.06335377 -0.114878014 0.044356823 0.10832484 -0.1511656 -0.13290477
0.027910382 0.12629385 0.08194542 0.140175 0.14574058 0.09245593 -0.056067612 -0.007434922
-0.09829978 -0.053185437 -0.119159326 0.072283514 0.12396586 0.15503152 -0.10599992 -0.053182133
-0.004309103 -0.11831438 -0.060378753 -0.1260359 0.008355799 0.09662767 -0.14014399 -0.09854715
0.15595736 -0.07567387 -0.04673084 0.097915076 0.018059818 -0.035387076 -0.1035337 0.07884002
-0.027313344 -0.028230026 0.049259406 0.07481412 -0.01856979 -0.07562593 0.14151235 -0.033687174
0.16255262 0.02943696 -0.11829543 -0.049756177 -0.119067 -0.07194988 -0.056450322 -0.116063945
0.03609176 -0.025427032 -0.021392092 0.029472774 -0.123359114 0.13455756 0.06621154 0.0018168928
0.098970264 0.078756936 0.010465533 0.06629741 -0.025454855 -0.10154566 0.11756251 -0.0011847764
0.06579659 -0.044241145 -0.09366948 -0.0566957 0.07333828 -0.17198157 0.019168874 -0.0535322
-0.119002745 -0.034712955 -0.07427952 -0.118744165 0.120581545 0.13243343 -0.076833695 -0.06820295
-0.08540434 -0.11657687 -0.14443778 0.12683864 0.07079092 0.056126494 -0.15714501 -0.01930292

hidden_layers.1.bias f4 [42]
00000000: 3d7e 1cbd 5647 eaba 29f5 3d3e 4d86 98bd
00000010: 6efc a93d 7966 3a3d 72ab 37bd a853 35bd
00000020: 358b e43d a63a ea3d fac2 7cbd a22f 6a3b
00000030: 7cc8 043e defd 65bd b0c3 19be 9ad6 d2bd
00000040: 842d bdbd 5415 88bd 3c35 923d c5ac 07be
00000050: ae12 0a3e 0c33 8bbc 15b8 bcbd 2b28 08bd
00000060: 5737 c23d 6fe1 8ebb 0439 71bd 3c41 49bd
00000070: 794c 19bb 6644 1cbe e2c8 05be 8e22 d2bd
00000080: 4eb7 0bbe ea97 9f3d 663c 8b3d 113e 8f3d
00000090: 16ce 253d 7afa 043d eeb6 a4bd 4205 dcbd
000000a0: 6a3d b43d db45 fdbd
-0.038206328 -0.0017874043 0.18550552 -0.07447491 0.083001 0.04550788 -0.044841237 -0.044269234
0.11159364 0.114369676 -0.06170938 0.0035733958 0.12967104 -0.05615031 -0.15016055 -0.10294838
-0.09237197 -0.06644693 0.0713906 -0.132495 0.13483688 -0.016992114 -0.09214798 -0.033241432
0.094832115 -0.00436037 -0.058892265 -0.049134478 -0.0023391529 -0.15260467 -0.13064912 -0.10260497
-0.13644144 0.07792647 0.067986295 0.0699426 0.040479742 0.032465436 -0.080427036 -0.1074319
0.08800776 -0.123668395

hidden_layers.2.weight f4 [42, 42]
00000000: 8211 ee3d 3854 3e3d af5b 143e c201 e93d
00000010: 48db 1a3e 289c 273d a615 1c3e 701d 9dbd
00000020: 578e 2b3e fc26 503d 042c babd f861 0dbe
00000030: 2e7e 063d 6fe8 18bd 1850 c2bc c867 603d
00000040: d08b 24bc 302b 143d 8d62 d03d 778d cb3d
00000050: f40d 273e 3bbd 57bc 503a acbc ef47 033e
00000060: 373e d8bd 22b4 c73d f0c9 83bd 5853 8f3d
00000070: fc71 a93c 84c3 cfbd cea9 d23d 42cf dc3d
00000080: 751b 153d f3a3 95bd 2609 213d 450f 11be
00000090: 5791 dfba b820 01be 9f97 27bd 6835 853d
000000a0: fed2 0e3e 8056 d63c 209f fbbc 9023 a83c
000000b0: 706c dfbc 229f ed3d 0c95 7d3d c84a babd
000000c0: 9b50 0f3e 242f ddbd d8cc 9b3c d007 253d
000000d0: 2855 813c 80c9 f33c c041 213c 8dac b2bd
000000e0: 504b 003d 28d0 013d c0ce 02bc dc1a ba3d
000000f0: 4efd e93d 6002 f03b ccc1 cabd e41a 17be
00000100: 3eed 823d 64a6 26bd 08c3 bc3c ca76 e53d
00000110: 2ac6 d83d 5c1a f7bd 96bb 4cbd 9b9b debd
00000120: 3fe0 a6bd 5865 57bd ba85 e63d ed6c 9abd
00000130: 34bc b0bd f43a 743d c584 00be e8d9 9c3d
00000140: 448e a53d 9f8d 023e 0876 89bc 95c2 073e
00000150: e38d 073e ac67 9d3d f731 cc3b 9ad3 db3d
00000160: def9 23be 80cb 833c 003a b839 0620 62bd
00000170: 1b6a eabd c0a5 2d3d 79b8 0a3e 1936 80bd
00000180: 863f 15bd 27a1 843d 9f4f 15be 0eeb f0bd
00000190: b8e5 9d3d 22fe f83d 24ff 8cbc 4ec1 d7bd
000001a0: 6de5 70bd 1414 93bd 0858 e03d 53a8 5cbd
000001b0: c84f 743d f055 3abc 0859 de3c 4b2a 163e
000001c0: 32c9 ecbc a8c3 e0bd 30c7 713d 0229 1ebd
000001d0: ab19 173e 02af 073e e590 023e 13d4 0d3e
000001e0: 7fbb f63d 1f14 83bd 3e34 59bd 52ab 9bbd
000001f0: e654 2cbd 2d1a 0d3e 5d6e 023d c0d3 ebbd
00000200: 1580 553d 4acd b13d f048 2f3e c298 80bd
00000210: 157a 213e 4ef3 db3d 628b 313e 53b7 313e
00000220: ec90 1dbe 8bc4 333d 2929 63bd 3422 e8bc
00000230: 9480 25bd 528a 25bd b6a5 6ebd f413 bdbd
00000240: 7070 c7bb 5a3c 153d bb2d 2ebc 9bb6 f0bc
00000250: 4a4b 0d3e fe21 d93d 352b cbbd e744 01be
00000260: 56e6 9e3d 501b 39bd d29a e3bc 3ed8 01be
00000270: 60da e1bd a009 a73b 2979 783d 2b81 113e
00000280: 127e 173e 1205 49bd e94c 433d ef3b d8bc
00000290: 0b2c 3e3d 9041 6bbd 6ccc de3d 3680 09be
000002a0: 683d b23c 6aef 14bd d7c0 ea3d 9a53 ca3d
000002b0: 291f d03d 8fea e0bd a69f 973d 6fd6 06be
000002c0: e7b2 50bd db68 eebd 702a c2bc 8b56 d2bd
000002d0: 7a33 15bd 89d0 02be 2530 093e d8de 1dbd
000002e0: 5277 f63d f305 b6bd d4be adbd 462a 553d
000002f0: d552 88bd b0c4 6bbd 0a79 043d b8ab 793d
00000300: 3e56 f43d e159 08be ae5b 5dbd 1832 803d
00000310: 5a7a afbd b8b6 d33c 4a5c 06be 008e 343b
00000320: 4a99 d73d b51c b23d d1c4 10be c0a4 0abe
00000330: a2eb e0bd 981e e3bc e097 dbbd fec4 bf3d
00000340: 429e f03c 4080 c23b c467 95bd 8ab8 ac3d
00000350: 1aeb e3bd f873 e1bc 46ee e9bd b7fb bd3c
00000360: 784f d93d 2e54 f0bd 8ff1 de3d 7447 663d
00000370: 1831 e1bc 93c5 f5bd bfb6 333e 4bfe 993d
00000380: 80cc 0dbc b8be 34bd 47e2 07be 889f f7bd
00000390: 3271 b0bd baa3 f0bd ea34 633d 72c0 d8bc
000003a0: 5058 eabd b0b2 72bd 6346 a63a 2191 593b
000003b0: b74c abbd e83f b9bc 08ea 233e 255a 073e
000003c0: 40b0 68bc 7099 1b3c e8f3 8e3d 6b49 61bd
000003d0: dc73 803d 3dfe a93d ea23 99bd 8707 b23d
000003e0: bfe1 053e 40f5 b3bb c3fd d13b 5c56 623d
000003f0: 931e 30bd c175 febd 24ce 7e3d c8d1 2cbd
0.11624433 0.046467036 0.144881 0.113772884 0.15122712 0.040920407 0.15242633 -0.076716304
0.16753517 0.05081843 -0.090904266 -0.13806903 0.032835178 -0.03733104 -0.023719832 0.054786474
-0.0100430995 0.036174 0.10175047 0.09939092 0.16313916 -0.013167675 -0.0210239 0.12820409
-0.105587415 0.097511545 -0.06435001 0.069983184 0.020684235 -0.101447135 0.10286294 0.10781719
0.03640314 -0.073066615 0.039315365 -0.14165981 -0.0017056864 -0.12610137 -0.04091608 0.06504327
0.13947675 0.026164293 -0.030715525 0.02052477 -0.027273387 0.11602618 0.06190972 -0.09096295
0.13995592 -0.10800007 0.019018576 0.040290654 0.015787676 0.029759169 0.009842336 -0.08724318
0.031321824 0.031692654 -0.007983863 0.09087154 0.11425267 0.007324502 -0.09900245 -0.14756352
0.063929066 -0.040686026 0.023042217 0.11204298 0.10584672 -0.120655745 -0.049983583 -0.10869523
-0.0814824 -0.052586883 0.11255975 -0.07540307 -0.08629647 0.059626535 -0.12550648 0.0765875
0.08083776 0.12749337 -0.016779914 0.13257821 0.13237719 0.076857895 0.006231542 0.10733719
-0.16013286 0.016088247 0.00035138428 -0.05520632 -0.11446019 0.0423944 0.13546933 -0.06260318
-0.036437534 0.0647605 -0.14581154 -0.11763583 0.07709831 0.12157847 -0.017211504 -0.10534917
-0.058812547 -0.07181564 0.10954291 -0.053871464 0.059646398 -0.011373028 0.027142063 0.14664571
-0.028904531 -0.109748185 0.05902785 -0.038613327 0.14755885 0.13250354 0.12750585 0.13850431
0.12047481 -0.06400322 -0.053028338 -0.07601036 -0.042073153 0.13779517 0.031843532 -0.115149975
0.0521241 0.08681734 0.17117667 -0.06279136 0.15769227 0.10739766 0.17338327 0.17355089
-0.15387315 0.04388861 -0.055459175 -0.028336622 -0.040405825 -0.040415116 -0.058263503 -0.092323214
-0.0060864016 0.03643451 -0.01063102 -0.029383948 0.13798252 0.106021866 -0.099203505 -0.1262394
0.07758777 -0.045192063 -0.027783785 -0.12680146 -0.1102798 0.005097583 0.060662422 0.1420943
0.14794186 -0.0490771 0.04768077 -0.026395766 0.04642872 -0.057435572 0.10878834 -0.13427815
0.021757796 -0.036361136 0.114625625 0.09879227 0.10162193 -0.109822385 0.074034974 -0.13167737
-0.050951865 -0.11641093 -0.023701876 -0.10270413 -0.036426045 -0.12774862 0.13397272 -0.0385426
0.12034477 -0.088878535 -0.08483663 0.05204227 -0.06656424 -0.057560623 0.032341994 0.06095478
0.11930512 -0.13315536 -0.05404251 0.062595546 -0.085682586 0.025843963 -0.13121143 0.002755046
0.105272844 0.08696882 -0.1413758 -0.1353941 -0.109824434 -0.02772455 -0.10722327 0.09363745
0.029372338 0.0059356987 -0.07295182 0.084336355 -0.111288264 -0.027521119 -0.114224 0.023191316
0.106108606 -0.11734806 0.108859174 0.056220487 -0.02748923 -0.12000575 0.17550181 0.07519206
-0.008654714 -0.044127196 -0.13269912 -0.12090975 -0.0861534 -0.11749978 0.055470385 -0.026458953
-0.114426255 -0.05925244 0.0012685772 0.0033198076 -0.083642416 -0.02261348 0.16007245 0.13217981
-0.0142021775 0.009497032 0.06980115 -0.055001657 0.062720984 0.08300445 -0.07477553 0.08692842
0.13074397 -0.0054918826 0.0064084246 0.05525814 -0.042997908 -0.124248035 0.06220831 -0.04219225

hidden_layers.2.bias f4 [42]
00000000: 1b99 ddbd 92c1 7abd 3f03 abbd efad 463e
00000010: 9ead 56bd 3af6 263e 2445 ef3d 8e90 0b3d
00000020: b692 d7bd 6ac8 ff3c 834d b0bd d601 273e
00000030: 2d27 1bbe c19b 003e 84d5 443e 1a7a e6bd
00000040: 97fc 9a3d c06b d7bd bebe 39bd 9ec2 35bd
00000050: 5743 933c 66d7 053e 7161 023e cc4d b3bd
00000060: 5477 e4bd d4b6 3b3e 7abf 19be 47cf 593d
00000070: 9723 03be e2b9 2cbd 3219 13be 44c8 fbbd
00000080: e0d8 ffbd 23ef 74bd f975 e33d 1f4f d13d
00000090: 9568 d2bd 58df adbc 00d0 7a3c b622 1dbe
000000a0: c735 393e a815 eabc
-0.10820218 -0.06121976 -0.083502285 0.19402288 -0.052411668 0.16304865 0.116831094 0.034073405
-0.1052603 0.031223495 -0.08608534 0.16309294 -0.15151663 0.12559415 0.19222075 -0.11253758
0.07567709 -0.105185986 -0.04534792 -0.044375055 0.017976446 0.13070449 0.12732483 -0.08755073
-0.111555725 0.18331462 -0.15014449 0.05317619 -0.12806545 -0.04216946 -0.1436508 -0.12294057
-0.124925375 -0.05979837 0.11106486 0.10220169 -0.10273854 -0.021224663 0.01530838 -0.15345272
0.1808692 -0.02857478

hidden_layers.3.weight f4 [42, 42]
00000000: 7b17 41bc ed65 bbbd 579d 033b 646d 3d3d
00000010: 8183 09be 9959 3d3d 5d30 203e d146 dc3d
00000020: 37bc 9cbd 66c0 cbbd a12a f0bc da52 ac3d
00000030: 08c8 973d 8ae8 e33d 2dd3 493d 19a4 f4bd
00000040: 9d00 023e 58f2 2c3d 80a3 f1bb 1c26 09be
00000050: 6866 84bc fa9f 03bb 2854 cf3c 39ed 99bc
00000060: fcc3 15bd 11c2 153e 8e45 923d fbff c1bd
00000070: 4c0b 243d 5228 e93d 6a37 05be 0a7c fa3d
00000080: 5fe8 a7bd a369 ba3d 5e6c 8a3d d9ac af3d
00000090: b481 843d 58d8 ae3c 4755 e2bd 4a37 0cbe
000000a0: 6338 f539 c830 093e 33c3 d0bd 9053 6b3c
000000b0: 3732 b0bd eb6b 293e cb95 78bd a39a d43d
000000c0: 3d33 e23d 676e 0d3e f434 8b3d 7e25 b1bd
000000d0: 6032 e43d 0f65 04bd 263e 25bd b84b 413e
000000e0: f424 e13d 2655 8dbd a088 133e 30a3 f0bc
000000f0: 1230 54bd 87d2 cdbc 6f21 583d 5875 833d
00000100: f58b 383d fb8a ca3c 00a9 d5bb d0aa 383d
00000110: ebc9 023e 783b 583c e81d a7bd 0289 c0bd
00000120: 00fe 99bd 4c27 60bd 9c82 79bd df6c bebd
00000130: 79e1 053e 3b07 1b3d 60e9 c5bd 000d 623a
00000140: 20af 893c a0a1 0cbe a336 d9bc 45c8 7bbd
00000150: 92a1 03bd 0a62 f1bd 5bf6 b0bd b39e 153d
00000160: b25b e0bd 1fb8 98bd cf01 e1bb fd31 0ebd
00000170: ebe3 b9bd 2d7c 1d3d 57d4 febd 029e e33d
00000180: ed09 8cbd 6a9f 04bd 0a45 c53d f64f 09bd
00000190: 785d acbd 20b7 613c c2b5 f1bd 7173 95bc
000001a0: 6933 283e 42ae e63c 63af ec3d ede8 f5b9
000001b0: 2a89 e2bd f711 af3d 1eba 0ebe ff39 e9bd
000001c0: e268 e73d e81a 09bd 3018 db3c 6006 77bd
000001d0: 0bb2 04be 513b 2f3d cd6d d8bd a7d4 40bc
000001e0: f110 abbd 0147 17be e307 183e 171d 053e
000001f0: 4202 a0bd 59a4 043d b48b f13d bc9d c33d
00000200: 9379 fd3d de46 2c3e 2793 e4bd d9bb 31bd
00000210: a2c7 373e f1f5 d63c 6194 07be 9c23 abbd
00000220: 8902 153e 378b f23d 5f7f 0bbe a60f 4ebd
00000230: 9c85 d33d e892 0dbe bc74 d53d 5e05 d23d
00000240: 5814 f0bc c8dd 32bd 525b b0bd 9c78 75bc
00000250: 1a0d 1e3d 32fb 9cbb 389f b0bc 9214 bfbd
00000260: 7292 33bd 6318 f23d f7f5 12be cd41 183e
00000270: 800c 8bbd 90f8 373d 13c9 113e fdc1 88bd
00000280: e3b4 293e f78f 323e ba53 56bd 010c 99bd
00000290: 5e44 e13d c098 72bb 282e 7bbd 9edd ad3b
000002a0: 06ec 893d 247b 9d3d b482 da3d 2f22 2b3e
000002b0: 608b f5bd 2cdf 01bd cabf 6dbc df61 eb3d
000002c0: b4a2 8bbc ea96 b53d 9ff0 2fbd 6efb 1ebc
000002d0: 9889 183d efd3 fa3d 3cd6 9d3d d89d 2e3d
000002e0: 182d 303d 6663 0fbe 3692 913d 923e df3d
000002f0: 6093 1f3e 13c2 da3b 488b 0e3e 761f 053e
00000300: 0514 bbbd 7775 a43d 2870 533d 0eda 1e3e
00000310: 7ac1 bd3d 7ec7 bb3d 7299 cdbd bc8b b8bd
00000320: b8e5 473d c33e f93d 3d79 6c3d 178f bd3d
00000330: 82b9 71bd 1492 1dbe df4c 99bd 308e d6bd
00000340: ae95 d03d 441c 14be 806e 2bbd d7f9 053e
00000350: 2f2d d13c 3ae5 fb3d 9bbf 7f3c b256 3fbe
00000360: b24b bebd e80b c8bd a462 dc3d 4e88 913d
00000370: ee33 043e 1215 88bd a00d f1bb d079 fd3d
00000380: 1660 823d 9872 b93c 21c7 3c3d 0043 393c
00000390: 803a b93a 2e88 1abe da47 03be f353 08bb
000003a0: 8be7 a03c 9f29 73bb c0c9 5abc 95ad e93d
000003b0: 7dcd 0d3e b81d ba3c cc2c 6a3d 1c56 383d
000003c0: 69c1 86bd e00c a1bd 6293 c83d da3b 673d
000003d0: 97c8 1bbe 4e00 15bd c685 bf3d 59b6 023e
000003e0: 6066 f03b f1a8 063e fe0e 7dbd 2871 93bd
000003f0: a8dd 92bc b243 58bd d41a 923d 735d 113e
-0.011785383 -0.091503 0.0020082796 0.0462469 -0.13429071 0.046228025 0.15643449 0.10755695
-0.07653087 -0.099488065 -0.029317202 0.0841424 0.074112 0.11128338 0.04927366 -0.11945362
0.12695546 0.042223305 -0.007374227 -0.13393444 -0.016162112 -0.0020084367 0.025308684 -0.018789874
-0.03656386 0.14624812 0.07142173 -0.094726525 0.040049836 0.113846436 -0.1300942 0.1223069
-0.08198618 0.0910218 0.06758951 0.0857789 0.064700514 0.021343395 -0.110514216 -0.13692966
0.00046772053 0.13397515 -0.10193481 0.014363185 -0.08603328 0.16545074 -0.06068973 0.10381057
0.11044929 0.13811646 0.067972094 -0.08649729 0.11142421 -0.03232294 -0.040342472 0.1887654
0.109933764 -0.069010064 0.14407587 -0.029374689 -0.051803656 -0.025124801 0.05276626 0.06418866
0.04505535 0.024724474 -0.0065203905 0.045084774 0.12772338 0.013197772 -0.08160001 -0.09401132
-0.0751915 -0.054724976 -0.060915574 -0.09298109 0.13074292 0.037848692 -0.096636534 0.0008623153
0.016807139 -0.1373353 -0.02651531 -0.06147029 -0.032136507 -0.117862776 -0.086407386 0.0365283
-0.109549895 -0.07456993 -0.0068666707 -0.03471564 -0.09076675 0.0384485 -0.12442844 0.11114122
-0.06837831 -0.03237859 0.09632309 -0.033523522 -0.08416265 0.013776571 -0.11802246 -0.018243523
0.16425861 0.028159264 0.1155689 -0.00046903585 -0.11061318 0.085483484 -0.13938186 -0.11388015
0.11299302 -0.033472925 0.026744932 -0.060308814 -0.12958543 0.042781178 -0.10567818 -0.01176945
-0.08352841 -0.1477318 0.14846759 0.12999378 -0.07812931 0.032383297 0.117942244 0.0955157
0.12376704 0.16823909 -0.111608796 -0.043392036 0.17947248 0.02624032 -0.13240196 -0.08356401
0.14551748 0.118429594 -0.13622807 -0.050307892 0.10328218 -0.13825572 0.10422656 0.1025493
-0.029306576 -0.04366854 -0.08611168 -0.014982369 0.038586713 -0.004790687 -0.021560296 -0.09330095
-0.043840833 0.11821058 -0.1435164 0.14868851 -0.067894936 0.044914782 0.1423686 -0.06677625
0.16572909 0.1743773 -0.05232594 -0.07472993 0.10999368 -0.0037017316 -0.061323315 0.00530596
0.06734471 0.07689503 0.10669461 0.16712259 -0.11989474 -0.031706974 -0.014511058 0.11493277
-0.017045356 0.08866675 -0.042954084 -0.0097035 0.037240595 0.122474544 0.077068776 0.042631
0.043011755 -0.14002761 0.07107966 0.10900606 0.15583563 0.0066759675 0.13920319 0.13000283
-0.09134678 0.08030217 0.051620632 0.15512869 0.09265418 0.091689095 -0.10039033 -0.09011027
0.04880306 0.12170174 0.05773281 0.09255808 -0.059014805 -0.15387756 -0.07485365 -0.10476339
0.10184799 -0.14463907 -0.041853428 0.13083588 0.02553424 0.12299581 0.015609647 -0.18685415
-0.092917815 -0.09767896 0.10761002 0.07106076 0.12910435 -0.06644644 -0.0073563606 0.123767495
0.06365983 0.02263765 0.04608834 0.011307478 0.0014131814 -0.15091011 -0.12820378 -0.002080199
0.019641658 -0.0037103666 -0.013353765 0.11410061 0.13847919 0.02271925 0.057171628 0.045003995
-0.06579859 -0.07863784 0.09793736 0.056453563 -0.15213238 -0.036377244 0.09351687 0.12764873
0.007336423 0.13150384 -0.061781876 -0.07199317 -0.01792796 -0.052798934 0.07134023 0.14195804

hidden_layers.3.bias f4 [42]
00000000: 13e4 8f3d 2f02 893d 6b5c 073e 35fe 8dbc
00000010: 1181 e9bc ac2e f1bd e03e 513c 1277 13be
00000020: 8aef 47bd 92d4 d03d 4eb8 bf3d 5447 ecbd
00000030: 59cc 1dbe 70ec 1cbc b8ea da3c 1cb9 9c3d
00000040: 6cd9 59bd b521 20bd 9837 e3bd 0603 77bd
00000050: 33b9 263d 07c7 74bd 52a3 57bc db24 4b3d
00000060: f815 64bd ee1c 953d 5301 1cbd 1619 36bd
00000070: 890a 5f3d cabe b83d b82b 83bd 8864 9f3d
00000080: 74a8 2abd 76c1 fe3d f0d7 8e3c 447c a03d
00000090: cc03 a4bd 2cbd cfbd 7454 adbd 826b 0ebd
000000a0: 9680 82bd 2933 b83d
0.070259236 0.066898696 0.13218848 -0.01733313 -0.028503926 -0.1177648 0.012771338 -0.1440089
-0.048812427 0.101967946 0.09361325 -0.11537042 -0.15409984 -0.0095778555 0.02672325 0.07652494
-0.053185865 -0.039094646 -0.11094588 -0.060305618 0.040703963 -0.05976012 -0.013161497 0.049595695
-0.055685014 0.072809085 -0.0380872 -0.044457518 0.054453406 0.09020765 -0.06404823 0.07782847
-0.041664556 0.124392435 0.017436951 0.07836202 -0.08008537 -0.101435035 -0.08463374 -0.034770496
-0.06372182 0.08994133

output_layer1.weight f4 [40, 42]
00000000: f09b 1a3d 51f4 9c3a 13db 8a3d 853b f5bd
00000010: 8729 033d 0af8 d9bd 0892 9d3d fd22 e8bd
00000020: 4009 113d e003 09be 04a4 84bd d2fa 58bd
00000030: d615 83bd 6cd7 2dbd 3476 603d e659 08be
00000040: c15f a8bd 1f5c 07be 9000 edbd 1018 eabd
00000050: 6033 92bd f002 93bd 0a28 a8bc 237c 0bbe
00000060: c05b 9c3c e2b8 fd3d 3c39 b5bd d1d8 193e
00000070: 1333 01be 352a 2abe eab2 6abd 307f 68bd
00000080: ac43 643d 1bb7 0ebe 168d 04be 5071 d13d
00000090: 9896 85bd 40c9 b33c 9193 8f3a ca05 d63d
000000a0: db1d a9bd d31b e83d 24c0 893b 851e 1f3d
000000b0: 92c9 0f3e 8bd6 c53b c1c4 a73d 13c2 343c
000000c0: ee98 0cbe ff63 0d3e 9bd1 193e 8c26 2a3e
000000d0: deac 183e 74de a53d f8fa 483d 0098 eab8
000000e0: eaee d0bd 9ae8 f6bc 2372 0e3e 2b1c c73b
000000f0: e06e 61bd 7c9a 6cbd acca 313e 652f 6b3d
00000100: b72f 433d a941 92bd 6eba eb3d 8c82 ffbb
00000110: 52a1 073d c863 aebd 83ac 043d eddf 363e
00000120: 90e2 f3bd 1f07 68bd 8096 8bbc 2ec4 073c
00000130: 70fa 2e3d e345 69bd 2548 6dbd 7052 b33c
00000140: 2d68 093c c032 663c 0c82 a13d a798 d1bc
00000150: 6730 2abd 9310 18bd 77ab 29bc 3103 8abc
00000160: dea0 89bc 9fe1 bdbd 0088 cdbd 1bee c5bd
00000170: f9e0 b3bd 3372 ad3d e007 b5bd 035b b0bd
00000180: 747d 6d3d 2fde 043e b041 abbc 8081 813c
00000190: 24d6 923d 17b5 d53d 8f62 d83c 16a9 b0bd
000001a0: 96bc ddbd a153 ca3d e679 5bbd 408b 90bd
000001b0: c683 c83d fe44 1e3e 144b d23c 309e b73d
000001c0: 3ebb 2e3e 9967 8d3d 360a ba3d 467f 223e
000001d0: ab0d 173e fd08 2d3e b22d d53d f7aa a0bd
000001e0: 81f6 963d b85e 673d 830f 18bd 4615 c3bd
000001f0: cab1 da3d c08f 53bd 14b3 c6bb fa63 9ebd
00000200: 86dc 5b3d 8e4b c7bd 191b 27bd acae 19bd
00000210: f98d febd cc1e e5bd c0b8 733d 5389 b73d
00000220: a554 a9bc 00ff 7cba 953d eabd 3e86 ce3d
00000230: 7e0c dbbd 6485 693d 3c44 083d d89d 3bbd
00000240: ca73 dcbd be43 353d a220 853d 8498 f03d
00000250: 9916 9e3c 0257 55bd a03d 37bd 0aed f73d
00000260: 90e9 583d 8951 04be e5ea debd f963 d33d
00000270: 522f f43d 4352 dcbd 4819 3d3d e0a9 033e
00000280: 3bd4 d9bd 15b2 31bd 0ea2 f1bc 80d7 9dba
00000290: 980f c7bd 9462 1bbd 1e63 af3d 0b1b f8bd
000002a0: 6165 03be 947b 2d3d b10c e5bd cee3 69bc
000002b0: 51a6 c4bd 8d79 ff3d d02e 44bd 35e7 d43d
000002c0: 70bc 0c3c 8883 683d 1397 503d a84d 563d
000002d0: 564f f63d f400 1a3d d2d9 76bd bead cf3d
000002e0: 90a4 ccbd 8b8f fc3d a420 103e 0f1a e03d
000002f0: 6cb4 97bc 2ab9 933d ab8d ca3d a237 bdbd
00000300: c2f1 d9bd c579 f2bd ca39 9ebc 40c6 f0bd
00000310: 27ed d63c 442f 063d 782a 89bc da8a 123d
00000320: 1c58 473d a5d0 e03d 38f1 dcbc ac3a d03d
00000330: 69c0 50bc 18e5 fd3c 99ed 32bd 883f bf3d
00000340: 6210 15be f90d 023e 989e 213d bd9a c2bd
00000350: 7e93 bcbc 9317 71bd ed15 7dbd 6bb3 94bd
00000360: 77e5 0d3e b0c6 103e a0e5 a63b 69b5 393e
00000370: cf48 143e bdec 02be 4098 b4bc b0f3 7cbc
00000380: f723 193e 1635 ad3d 32d3 aa3d 5a27 eb3d
00000390: b5de 033d 3683 3f3d dca4 71bd cfbf 6b3d
000003a0: 39ec 013e ca58 d63d d059 553c 995d dbbc
000003b0: 57b1 c73b fe41 88bd 651a f23d 21a5 e1bd
000003c0: f89f 753d 6ac6 2f3e 40e8 7bbb 522c 273c
000003d0: 2798 a9bd 8cb9 003e 3b94 0b3e caf7 cfbd
000003e0: a64b eb3c 801b 553d 007e e7bd 179f fcbb
000003f0: 01da 6abd 7b37 b43c b0d9 d2bd 02a1 21be
0.03774637 0.0011974667 0.06780066 -0.11974243 0.032022025 -0.10643013 0.07693869 -0.113347985
0.035409212 -0.13380384 -0.06476596 -0.052973576 -0.06400649 -0.04244177 0.054800227 -0.13315544
-0.082213886 -0.13218735 -0.11572373 -0.11430371 -0.07138705 -0.07178295 -0.020526905 -0.13621573
0.019086719 0.12388779 -0.08848807 0.15024115 -0.1261714 -0.16617663 -0.057299532 -0.05676192
0.0557286 -0.13937037 -0.12944445 0.10226691 -0.06522864 0.02194655 0.0010954012 0.10450323
-0.082576476 0.11333432 0.004203813 0.038847465 0.14041737 0.0060375384 0.08191825 0.011032599
-0.13730213 0.13807677 0.15021364 0.16616267 0.14909694 0.0809907 0.049067467 -0.00011186302
-0.10201819 -0.03014021 0.13910727 0.006076356 -0.05503738 -0.057764515 0.1736247 0.057418246
0.047652926 -0.0714143 0.11510168 -0.007797545 0.03311283 -0.085151255 0.032391082 0.17858858
-0.11908448 -0.056647416 -0.017039537 0.008286519 0.042719305 -0.056951415 -0.05793013 0.021889895
0.008386654 0.014050186 0.078861326 -0.025585486 -0.041550066 -0.03712518 -0.010355822 -0.016847225
-0.01680034 -0.092715494 -0.100357056 -0.09664556 -0.087831445 0.084690474 -0.08839393 -0.08611109
0.05798097 0.12975381 -0.020905346 0.01580882 0.0716975 0.10434931 0.026414184 -0.086260006
-0.108269855 0.09879232 -0.05358305 -0.0705781 0.09790759 0.15456006 0.025670566 0.08965719
0.17063615 0.06904525 0.09083979 0.15868863 0.14751308 0.1689796 0.10409106 -0.07845109
0.07371236 0.056486815 -0.037124168 -0.09525542 0.10678442 -0.051650763 -0.0060638282 -0.07733913
0.053677104 -0.09731208 -0.040797327 -0.037520096 -0.12429423 -0.11187515 0.059502363 0.089617394
-0.020670244 -0.0009651035 -0.11437527 0.100841984 -0.10695742 0.057011977 0.0332682 -0.04580483
-0.107642725 0.044254057 0.06500365 0.1174784 0.019297885 -0.05208493 -0.044736505 0.121057585
0.052957118 -0.12921728 -0.10884646 0.10321803 0.11923088 -0.10757878 0.04616669 0.12857771
-0.10636183 -0.043382723 -0.029496219 -0.0012042373 -0.09719771 -0.03793581 0.08563827 -0.12114533
-0.12831642 0.04235418 -0.11184061 -0.014275504 -0.09602035 0.12474356 -0.047896206 0.10395662
0.008589849 0.056766063 0.050925326 0.052320153 0.12026851 0.037598565 -0.060266323 0.101405606
-0.09992325 0.12332066 0.14074951 0.1094247 -0.018518649 0.072130516 0.09890302 -0.09239127
-0.10641815 -0.11839632 -0.019314665 -0.11756563 0.02623613 0.03275992 -0.016743883 0.03577695
0.048668012 0.10977296 -0.02697049 0.10167441 -0.012741187 0.03099303 -0.043683622 0.093382895
-0.14557031 0.12700643 0.039457887 -0.0950217 -0.023019549 -0.058860373 -0.06178849 -0.07260784
0.13857065 0.14138293 0.0050932914 0.18135609 0.144809 -0.12785621 -0.022045255 -0.015438959
0.14955126 0.08457391 0.083410636 0.11482115 0.03219481 0.046755992 -0.058995113 0.05755597
0.12687768 0.10466154 0.013021901 -0.02677803 0.0060941386 -0.06653212 0.118214406 -0.11017824
0.05996701 0.17165533 -0.0038437992 0.010203438 -0.08280974 0.1257078 0.13630764 -0.10154684
0.028722595 0.05202818 -0.113033295 -0.0077093947 -0.05733681 0.021999111 -0.10295427 -0.15784076

output_layer1.bias f4 [40]
00000000: 103a 35be 76d7 813d 790e e83d b3f6 0fbe
00000010: 4219 003e ea4b 463e ef0c a8bd 7078 89bd
00000020: 8ae3 c93d 298b 9a3d a12f 91bd ab4c f2bd
00000030: 9ed0 1dbe ea08 02bc 5ec6 ce3d b467 60bd
00000040: 6f53 8abc a77d 11be ac3f 203e bf5d a6bd
00000050: a7a9 6cbc 113a fabd c555 09be 9927 b7bd
00000060: 6e3e 7a3d 9c1f 243d 8245 c43d a0d5 093d
00000070: 2dfc 9d3c 7be8 273e 2c9a 66bd 38f1 efbd
00000080: 7bf6 0abe 51e6 27b9 882c 96bd 853d f33b
00000090: 15ac df3d 2e12 ba3d 2f5d 013e 585a 20be
-0.1769793 0.06339924 0.113308854 -0.14058952 0.12509635 0.19364896 -0.08205592 -0.06712425
0.09857853 0.07546074 -0.070891626 -0.118310295 -0.15411612 -0.007936696 0.10096429 -0.0547864
-0.016885487 -0.14208089 0.15649289 -0.081233494 -0.014444745 -0.122181065 -0.13411625 -0.089430995
0.061094694 0.040069208 0.0958357 0.033650994 0.019285286 0.16397278 -0.056299374 -0.11715931
-0.13570587 -0.0001601216 -0.073327124 0.007423105 0.10921494 0.09085499 0.12633203 -0.15659463

output_layer2.weight f4 [1, 42]
00000000: 2f9a a93d 9cfe 693d a4ab f33d b95f 873d
00000010: 4a12 dc3d aec6 cfbc e05e be3c 06b0 17bd
00000020: 647a 093d deae 8d3d 37b5 bd3d 5fca babd
00000030: c8a4 a2bc 1e1e 09be 2b50 9abd ecca bd3d
00000040: 9e09 ba3d a80d 20bd a02d 6fbd 1deb 17bd
00000050: 737e 8c3b 5382 1a3d dbd7 c83d 5358 d13d
00000060: 38b0 d8bc cfbf 2f3d ce43 24bd 78af d4bc
00000070: 1e57 0cbc f67a a5bc ade2 143e b65d 843d
00000080: 00ac 96bd d753 033e 0294 ce3d 2307 863d
00000090: c8db 943d bc6e 513d 56be dcbd 1bb6 0c3e
000000a0: 70d0 bcbc db11 383e
0.08281361 0.05712758 0.11897972 0.066100545 0.10745676 -0.025363293 0.0232386 -0.037033103
0.033563986 0.06918119 0.092630796 -0.091206305 -0.019853964 -0.13390395 -0.07534822 0.0926722
0.090838656 -0.039075524 -0.05839312 -0.037089456 0.004287535 0.037721943 0.09806796 0.10221925
-0.026451215 0.042907532 -0.040103726 -0.025962576 -0.008565692 -0.020200234 0.14539595 0.064631864
-0.07357025 0.12824951 0.10086824 0.0654433 0.072684824 0.051130995 -0.10778491 0.13741343
-0.02304861 0.17975561
