src/models/dynamics_111.pt (torch, 47878 bytes, 13 tensors)

input_layer.weight f4 [42, 42]
00000000: 40c6 6a3d 1f65 51bd 4a02 113e e11f 873c
00000010: 231e dabd 312e 763d 025c 41bc ff7d cbbc
00000020: 5a89 fa3c 7537 39bc fe5a 19be 9e7b 8e3c
00000030: ec2d 8cbd 1c03 873d a8a3 f6bd 3c78 94bd
00000040: 02aa 54bd 73ed 263d 206c 183e e732 27be
00000050: 0ee9 d3bd 5767 17be 4c03 8e3d 1cad cd3d
00000060: e5dc c3bd f8ca 8abd c29e 96bd 3b73 023e
00000070: bcd9 043e 8383 5abc b679 ebbd 054f 043d
00000080: 9917 0b3e 23bb 2fbe d532 eebd 3414 3dbc
00000090: 2ac2 bd3d 59ff 813c 48ea 083d 1401 f3bd
000000a0: dab6 d93d 98ae 873d aa45 a13d c877 033e
000000b0: 98b6 803d 4343 0ebd c5e7 363d 219e 003e
000000c0: 1faf 08bc 748f 38bc 70eb c13d b82f 263d
000000d0: 475f e13d debc ddbb fb5a 87bd 75d9 bbbd
000000e0: 7cbc ba3d cc35 023e 7a4a 173e acac 80bc
000000f0: ba44 cd3d 550f 283d b9ea 7b3d d9cd 013e
00000100: 4613 a93d 68fb b8bd b7e7 45bc 7652 c7bd
00000110: dec0 203d 2645 b43d 820b 35bd 9d5f 103e
00000120: ec7f f93d 9e3d 64bd 31c5 a6bd 9ad6 d9bd
00000130: 837c d5bd 53a5 e73d 0af7 f8bc 12f2 e6bd
00000140: b01f 10bc 635f d93c 09a0 e13d 1832 e4bd
00000150: fb16 93bd e747 08bc f947 09be 186a ba3d
00000160: 7b9d 50bd 5b6a 75bb 34be 6d3d f56c 58bc
00000170: 3f56 093e db79 b33d 2b89 11be c0d7 53bd
00000180: 1a99 f3bc 1566 9d3d 5045 9dbc 8d19 b13d
00000190: 0995 d1bd cc9b f33d b14e 343d bf93 dc39
000001a0: 14a1 c73d 8f41 0ebd b8a9 8d3d 2764 8e3c
000001b0: 4cb9 023e aec0 a8bd 60bb b33d b218 90bd
000001c0: f3a9 4b3c e846 45bc 469d 233e 1d01 27be
000001d0: cefe 1e3e cdee 41bb f812 4a3d 787c 69bc
000001e0: d3fb 7a3d 28bc d4bd 93a1 b73d 32bd 233e
000001f0: 73f6 1f3b 4d9c e9bd 8fc3 03bd 02e8 eabc
00000200: 8060 ac3d d419 043e 4cc2 80bd eb40 653d
00000210: d5ea 243d 8b8d 86bd 9d9a bd3c 4986 01be
00000220: ceff b33d ade6 c2bd e566 793c 4832 9dbc
00000230: f8b8 afbd e0ab 713d 944a a93d 99fe 6c3c
00000240: 1281 b33d cce7 093e f99a 09be fe0e 1b3e
00000250: 81ec b0bc 5104 fbbd 8803 083b d82f 9f3b
00000260: 14f9 073e 3e2c e8bd c4bb 9fbd b3e1 78bd
00000270: 30e8 b2bd 414b c5bc efd1 2cbd eef1 653d
00000280: c69b 40bd 9afc 0ebe 01ad 9e3c e53f 18ba
00000290: 252b 1c3c b1ed d3bc 413c 843c 6cb1 01be
000002a0: c693 4abd 08ef aebc 30de 03bc dc4c 09be
000002b0: e1ac 97bd f428 d3bd 00e2 75ba 003c adbd
000002c0: 8fe9 a8bd 04e5 403d a678 0cbd 81b1 03be
000002d0: ae02 c5bd 6006 663c 6007 e1bc e060 ffbd
000002e0: 0ad4 87bd 9010 6f3c 7367 a0bd 76c5 d83d
000002f0: 9e81 ec3d 362d 27bd 8e75 91bd 20bf ffbb
00000300: 36e1 79bd cb86 c4bd 1c70 2a3d cc83 223d
00000310: 6d10 edbd 66db 15be ba5e a83d 209c b13b
00000320: 34fb a13d 02c0 0ebd 922d 9a3d 6630 e83d
00000330: ea0b d63d d80f 763d 523e 9f3d 6ad9 c0bd
00000340: 5dc3 0dbe 8094 17bd 4d6d 97bc c80f 02bd
00000350: b8eb ed3c 026d c63d f74b aabd b8ac cc3d
00000360: 4f80 343d 2e02 06be b1a0 bb3d 12fa e2bc
00000370: 148f b6bd 5868 423d 4e6c efbd b43c f43d
00000380: 7933 ce3c fdee e3bd fca3 11be ea23 24b9
00000390: 303b 713d d3d6 f4bd cfd3 7cbd cf77 83bd
000003a0: 6763 2ebd f513 0b3e b8c2 f53d e41d 043e
000003b0: 5d32 bdbd ca63 cf3c 7a5b d83d df1b d03b
000003c0: 7d02 adba 6e66 fd3c 7281 f0bd 300b a43d
000003d0: f360 25be 7783 053d 8831 063c e95f aabd
000003e0: 41eb 0bbe 61b5 6e3d b4a2 5bbd 783e 643d
000003f0: 44cd b93d ed84 c8bd 3d15 96bd 8cfd d4bd
0.057317972 -0.051121827 0.1416103 0.016494693 -0.106502794 0.060102645 -0.0118017215 -0.024840353
0.030583072 -0.011304726 -0.14976117 0.01739293 -0.068446964 0.0659239 -0.12042934 -0.072494954
-0.051919945 0.040753793 0.14884996 -0.16328011 -0.10347186 -0.14785515 0.069342226 0.100427836
-0.09563617 -0.067769945 -0.073544994 0.1273927 0.12973684 -0.013337019 -0.11497824 0.03230192
0.1358322 -0.1716123 -0.11630789 -0.011540461 0.092655495 0.01586883 0.033426553 -0.1186544
0.10630579 0.06625098 0.078746155 0.12838662 0.06284827 -0.034732115 0.044654626 0.12560321
-0.008342533 -0.011264671 0.09468734 0.040572852 0.11004501 -0.0067668995 -0.0660915 -0.09172336
0.09117982 0.12715834 0.14774504 -0.015707336 0.10022874 0.041030247 0.061503146 0.12676181
0.08255629 -0.09032327 -0.012079171 -0.09732525 0.039246432 0.088022515 -0.044200428 0.14098974
0.12182602 -0.055722825 -0.0814308 -0.10636635 -0.10424139 0.1131083 -0.030391235 -0.1127664
-0.008796617 0.026534742 0.110168524 -0.11142367 -0.071821176 -0.008317924 -0.13406362 0.09102267
-0.050931435 -0.0037447426 0.05804272 -0.013209571 0.13411807 0.087634765 -0.14212482 -0.051719427
-0.02973609 0.07685486 -0.01919809 0.086474515 -0.10233504 0.1189495 0.04402036 0.0004207175
0.0974752 -0.03473049 0.06917137 0.01738174 0.12765998 -0.08239876 0.08775973 -0.0703596
0.012430656 -0.012040831 0.15977964 -0.16309018 0.15526888 -0.00295918 0.049334496 -0.014250867
0.061275315 -0.103874505 0.08966365 0.15990141 0.002440837 -0.11406765 -0.03216892 -0.028675083
0.084168434 0.12900478 -0.06287059 0.055970114 0.040263016 -0.06569966 0.023145014 -0.12648882
0.08789025 -0.09516654 0.015222286 -0.019189015 -0.08580202 0.059001803 0.08266178 0.014464998
0.087648526 0.1346733 -0.13438024 0.15142438 -0.021597149 -0.12256683 0.0020754058 0.0048579983
0.1327861 -0.113365635 -0.07799485 -0.06076212 -0.087356925 -0.024083735 -0.042192396 0.056138925
-0.047023557 -0.13963547 0.019369604 -0.0005807861 0.009531771 -0.025870176 0.016142013 -0.12665337
-0.049457334 -0.021354213 -0.008048579 -0.13408226 -0.07406021 -0.103105456 -0.0009379685 -0.0845871
-0.08247673 0.047093406 -0.034294747 -0.12860681 -0.09619652 0.014039606 -0.027469337 -0.12469649
-0.0663224 0.014591351 -0.078322314 0.10584538 0.1154816 -0.0408146 -0.071025 -0.0078047663
-0.061005794 -0.09596022 0.041610822 0.039676473 -0.115753986 -0.14634475 0.08221193 0.005420223
0.07909241 -0.03485108 0.07528223 0.11337356 0.10451491 0.060073704 0.077755585 -0.094164684
-0.13844056 -0.037006855 -0.018484736 -0.03175333 0.029043064 0.0968876 -0.083152704 0.09993881
0.044067677 -0.13086769 0.09161509 -0.027707133 -0.08914009 0.04746279 -0.11690579 0.11925641
0.025171028 -0.11129568 -0.14222711 -0.00015653638 0.058894336 -0.11955037 -0.061725434 -0.06419336
-0.042575266 0.13581832 0.1200003 0.12902027 -0.09238122 0.025316138 0.10564323 0.0063509787
-0.0013199594 0.030932631 -0.1174344 0.08009946 -0.16150264 0.032596078 0.00819052 -0.08319075
-0.13663961 0.058278445 -0.053621963 0.055723637 0.090723544 -0.097909786 -0.0732827 -0.10399923

input_layer.bias f4 [42]
00000000: 24a3 283d e7fe 10be 9e6e 25bd b383 e4bd
00000010: 829f 73bd f7af 6bbd de00 ecbc a1c5 f4bd
00000020: 4c1b cbbc fd34 863d 5f9a ed3d 8b7a 87bd
00000030: 634c 22be e594 013c 418b 153e 9eae d13d
00000040: 80a9 1d3d a321 b63d 30bb a83c 70f6 15be
00000050: 006f c8bd 8c75 bc3d 1ac3 adbd 78a2 44bb
00000060: 98ac 9f3c ee41 703d 39da 293e d5e8 1b3e
00000070: df62 5dbc 46f8 88bd 6a3d e5bd 116f 253c
00000080: 1f8b 183e 5a53 85bd 2e2d 27bd 053d 09be
00000090: f02b fbbd daca 37be f522 363e 9663 08be
000000a0: 5516 27bd a44d ecbc
0.041171208 -0.14159738 -0.040388696 -0.11157932 -0.05947829 -0.05754086 -0.028809007 -0.11951757
-0.02479329 0.065530755 0.116017096 -0.0661517 -0.15849452 0.007909034 0.14603902 0.10238384
0.038491726 0.088931344 0.02059707 -0.1464479 -0.097867966 0.09202108 -0.08484478 -0.0030004065
0.019491479 0.058656625 0.16587152 0.15225537 -0.013512342 -0.066879794 -0.111933544 0.010097281
0.1489682 -0.06510039 -0.04081457 -0.13402183 -0.1226424 -0.17948475 0.17786773 -0.13319239
-0.04079278 -0.028845616

hidden_layers.0.weight f4 [42, 42]
00000000: 83ff d63d cc84 f63d e1af 3bbd 81c8 30bd
00000010: be51 cc3d 77d8 7a3d 180a 5a3d 3212 923d
00000020: ec59 bcbd 45e8 07bd 8461 b1bc 96f2 25bd
00000030: 0c94 fb3d 8c96 b83c b97e f3bd b26e 10bd
00000040: aa0c fabd f8b4 80bd 41fe cdbd cd6e 9abd
00000050: b16f 143d cc8b fa3d 4002 e8bb ecad a13b
00000060: e6ef 89bd 71b9 b6bd 3c24 5abb 608d cf3d
00000070: 440a 093e 1c8f 8d3d d160 083e adaf d33d
00000080: 6145 283d 996c 09be b13f 01bd 57ba 183e
00000090: f8d0 8bbc dca0 073d 5894 7b3d b679 f23d
000000a0: 32e8 c4bd c8d0 043e ce04 8dbd de7d 373d
000000b0: 7998 7d3c ccd3 b93d e24c c0bd c0df 1b3e
000000c0: 6704 023e a886 e8bd 841e d7bc 55a2 4e3c
000000d0: d36e 463d ad9a 633d c189 f13d 9f2b d43d
000000e0: 8b1f 2d3e 05bf 0f3d 2b05 2b3e aa73 813d
000000f0: 2d24 0f3e 045b 14be f9d4 9fbd 00d4 28bd
00000100: 809d b7ba 5e9a fb3c 8286 45bd 4262 04bb
00000110: 1584 133e df3d 82bd 5f19 973c 20b2 96bd
00000120: 3aec 35bd 769c 8fbd 9a42 8d3d 0b33 d6bd
00000130: 2444 42bd 701d 9abc f009 4d3d 6130 36bd
00000140: f685 d9bc fa1e b93d d4f6 0c3e 7da3 243c
00000150: 7120 ce3d df63 32bd 1dab dc3d c635 abbd
00000160: e8ac 8fbd 551f 0e3e 3812 093d 8095 c4ba
00000170: eed6 59bd ac17 5c3d e413 203e 881c 02be
00000180: c101 093d da9c 47bd fcbd 18be 76e7 f3ba
00000190: 20a5 e03c 0b9f eebc 46ed f03d 8014 533c
000001a0: 07a7 94bd 80d5 83bd 68f3 ee3c 143b 96bd
000001b0: 5aec 76bd 3218 0cbe 1265 1f3e 000a 5e3d
000001c0: 8268 eb3c 23c1 72bd b0e3 d93c 711c 433d
000001d0: d27a dc3d 42ff 4c3d 0a3a 083e b0e2 01be
000001e0: eaed bf3d f573 00be cc7e dc3b 6e91 d53d
000001f0: eb2f c23d bc94 3cbd b1ad b63d ffd7 20bd
00000200: a55d 1dbe 7041 7abd 9b1c 003e eda1 9c3d
00000210: 29d3 9fbd 7847 473d b960 083e 63f3 103e
00000220: d033 51bd 1a26 2e3e 86d3 c13d aa28 463d
00000230: 95a8 ce3d 385f 2d3e a99f e23c 33b8 c03d
00000240: fbe7 5a38 7b9a 86bd 299a f53d 0fef d5bd
00000250: 2ec5 99bd 5ae0 773d 87b5 ed3b d5aa 2c3e
00000260: 2690 0f3e cd3c 22bd 7952 21bd 4c8d 003e
00000270: f4f5 8c3d 9754 2fbe 925f 013d 29d0 44bc
00000280: f12b 303d b00a 85bd 908f e7bc d81c d03d
00000290: 4a65 413d a6eb 9f3d 2274 97bd 52b8 6bbc
000002a0: cfe4 afbc b2b8 eabc 0f75 5abc a531 c0bd
000002b0: 7039 b4bc 1494 983d cc13 cdbd 0eb4 823d
000002c0: e67c d0bd fdaf be3d 9b43 b33d 9f33 5dbd
000002d0: 2767 1f3e 1857 683c 3ba0 aabd 8ab0 023e
000002e0: aad1 d63d 01c3 d23b 9543 5cbb 47fc 2c3d
000002f0: d6c5 cabc 4d2c 5dbc d06b 2b3c 33fe cdbd
00000300: 32ba 4a3d 88fa a4bd ddc3 96bd 7d83 d03d
00000310: a95d 143d 3bf1 b13d 5849 8ebd e06f 313d
00000320: 65e9 d33d 96ff af3d b5a5 e8bc 9a2f f53d
00000330: 21c6 b9bd 3c9d 423a d0f6 3d3e 524f bdbd
00000340: 6a49 c1bb 1ad3 1d3e e680 ff3c f236 21bd
00000350: df8c 95bd 6f1d 023d e795 1a3e a89b ff3d
00000360: 053a ca3d 20c9 c93c 8715 d3bd e003 09be
00000370: dfc8 0b3e ca0a 8abd 5f89 2dbd cc35 fe3c
00000380: 07f2 1b3e d6a7 19bd 571d d33d 0e49 70bd
00000390: c935 363e 95c0 0cbe be08 bdbc e238 773d
000003a0: 4815 163d 2d81 b2bd 7d8a 49bd 7488 313e
000003b0: e99b 803c d3fc ee3c f247 15bd 452e e13c
000003c0: 30eb 99bc 562b a53d 565d a13c 39ea 703c
000003d0: 6388 cd3d d9dd 0e3e c065 4bbb bda7 063c
000003e0: b550 f73d 401c 2dbc 9f31 e23d dcb7 b73b
000003f0: 75b5 a1bd d4e6 b63d 7ef8 17be 6716 c43d
0.10497954 0.12037048 -0.045822028 -0.043159965 0.099765286 0.061241593 0.053232282 0.07132377
-0.09196839 -0.033180494 -0.021652944 -0.04051455 0.12284097 0.022532724 -0.11889405 -0.035261817
-0.12209447 -0.06284517 -0.10058261 -0.07540665 0.03623933 0.122336954 -0.0070803463 0.004934063
-0.0673521 -0.08922089 -0.0033285758 0.10134387 0.13382822 0.069120616 0.13318183 0.10336242
0.04108179 -0.13420333 -0.03155488 0.14914833 -0.017067418 0.03311239 0.06142077 0.11839621
-0.096146 0.12970269 -0.06885682 0.04479777 0.015478247 0.090736 -0.09389664 0.15222073
0.12696992 -0.11353809 -0.026259668 0.012611945 0.048445534 0.055567432 0.117938526 0.103598826
0.16906564 0.03509428 0.1670119 0.06320889 0.13978644 -0.14487845 -0.07804293 -0.041217804
-0.0014008731 0.030713256 -0.04822398 -0.0020200168 0.14405854 -0.06359457 0.018444715 -0.073581934
-0.044414736 -0.070122644 0.06897469 -0.104589544 -0.047428265 -0.018812865 0.050058305 -0.04447973
-0.026553135 0.090391114 0.13766032 0.010048744 0.100647815 -0.043552276 0.10774825 -0.08359866
-0.07015401 0.1387914 0.03346464 -0.0014998168 -0.05318349 0.053733513 0.15632588 -0.12706196
0.03344894 -0.04873357 -0.14916223 -0.001860841 0.027422488 -0.029128572 0.11764006 0.012883306
-0.072584204 -0.06437206 0.0291688 -0.07335487 -0.060283996 -0.13681105 0.15565899 0.054208755
0.028736357 -0.05926622 0.026597828 0.047634546 0.107656136 0.05004812 0.1330339 -0.1268413
0.093715504 -0.12544234 0.0067289826 0.10428129 0.09481796 -0.04604028 0.08919848 -0.03926849
-0.15367754 -0.061097562 0.12510912 0.076480724 -0.078039475 0.048652142 0.13318147 0.14155345
-0.051074803 0.17006722 0.09464173 0.048378624 0.10090748 0.16930854 0.027664023 0.09410133
5.21913e-05 -0.065724336 0.11992294 -0.104459874 -0.07508312 0.060516693 0.0072543058 0.16862042
0.14019832 -0.039608765 -0.039385293 0.125539 0.06882849 -0.17122112 0.031585284 -0.01201252
0.043010656 -0.06496179 -0.028266698 0.101617515 0.047215737 0.07808618 -0.073951975 -0.014387207
-0.02147141 -0.028652523 -0.013333573 -0.09384469 -0.022000045 0.07450119 -0.100135416 0.06381999
-0.101800725 0.09310911 0.08753129 -0.054004308 0.15566693 0.014180921 -0.08331343 0.12762657
0.10489209 0.0064319377 -0.0033609618 0.042232778 -0.024752539 -0.013499332 0.010462716 -0.1005825
0.049493976 -0.080555975 -0.07361577 0.101813294 0.036222134 0.08688589 -0.06947583 0.043319583
0.10347251 0.08593671 -0.028399328 0.1197197 -0.09070993 0.00074239424 0.18551183 -0.09243645
-0.005898644 0.1541256 0.031189393 -0.03935904 -0.0730226 0.03176635 0.15096246 0.12480861
0.098743476 0.024632037 -0.103068404 -0.13380384 0.13650845 -0.06740339 -0.042367335 0.031031512
0.15229045 -0.037513576 0.103083305 -0.05866342 0.17793955 -0.13745339 -0.023075458 0.060356982
0.03664139 -0.087160446 -0.04920434 0.17337209 0.015699344 0.02917329 -0.036445566 0.027487883
-0.018788904 0.08064906 0.019697826 0.0147042805 0.10035779 0.13951816 -0.003103599 0.008218703
0.120759405 -0.010565817 0.11044621 0.0056066345 -0.07895938 0.08930746 -0.14840886 0.095745854

hidden_layers.0.bias f4 [42]
00000000: 6fe4 0b3e a01f 0b3e f52a 10be f3ff 233e
00000010: dfdf 373d 6308 f33d 5f92 353e f8b3 c43d
00000020: 0dca 0cbe 9d20 5ebd 10b5 fabd 4d9e 93bd
00000030: 48aa 3b3e 3d1b 8f3c 14e5 003e be6b 4e3d
00000040: 6e25 12bd 0730 8d3d e9c5 ca3d 5fc9 19be
00000050: 2985 b6bc 3eff 45bd d6f7 e73c ac5a f1bd
00000060: e925 d23d 2b5f 09be 4ce2 f43d 9026 343e
00000070: aad4 813d 9bfa f53d 0836 e1bd 669d 0a3e
00000080: 515f 8bbd 049c 8bbd 1945 b6bc edc7 6b3c
00000090: 9e91 0abe dc81 e2bd 59f0 ab3d 0bd4 58bd
000000a0: 4700 893d 8a93 d33d
0.13661359 0.13586283 -0.14078887 0.16015606 0.044891234 0.11866834 0.17731617 0.09604639
-0.13748951 -0.05423032 -0.12241566 -0.07207928 0.18326676 0.017469043 0.12587386 0.05039572
-0.035680227 0.06893926 0.099010296 -0.15018223 -0.022280293 -0.04833912 0.02831642 -0.117848724
0.10261137 -0.1341521 0.11957225 0.17592835 0.063393906 0.1201069 -0.10996634 0.13536605
-0.068052895 -0.06816867 -0.022249745 0.014390928 -0.13532111 -0.11059925 0.08395452 -0.052936595
0.06689506 0.10330875

hidden_layers.1.weight f4 [42, 42]
00000000: 2189 8abc 8997 8b3d 1f37 bdbd 5bd7 f13d
00000010: fc23 49bd 98ce adbd b7e2 cc3d c835 1cbe
00000020: cae3 ca3d 4e84 e7bd 1ead bdbd d498 363d
00000030: cb30 d23d ba79 52bd 4e4e 07bd dbd2 e8bd
00000040: 3887 0f3d cc72 6b3d fd27 fe3d 108e 583c
00000050: 2a41 45bd 56c0 38bd c0fd 94bc ca2d 68bd
00000060: 6c33 76bc e8a1 11bd 279e e8bc f7ff 58bd
00000070: 902b bc3d 2fad d73d eec9 1bbe 81d9 67bd
00000080: decb 6abd c549 2e3d 8a08 223d 9846 a4bc
00000090: 80c8 d23a 475b 0d3e 2f1c eebd 80a0 203b
000000a0: 0ea6 913b b7e5 bfbd 13b2 06be 74d2 563d
000000b0: 62b2 d43d 5294 8ebd eed4 08bd b8a7 21be
000000c0: a4e8 163d 015c bfbd b0fd 623c 6cb3 41bd
000000d0: dd9b 063e bd8f 033e 139f 113c 52eb a7bd
000000e0: 6fca 6a3d da33 b03d 70bb f63c b1df 263d
000000f0: 0cfe b53d 900d 7f3d baef 96bc e0fb 7f3c
00000100: d5e6 fe3d 6c21 0d3d 7124 dabc 4a78 a13d
00000110: 19ee 9a3b 1968 d93d 43be 9abd 0918 9c3b
00000120: 207b edbc 572c e73d 22f3 92bb 9a19 e4b9
00000130: 08ca 2ebe 346d ad3d 8280 9dbd 24c5 66bd
00000140: b74b a8bb 0fc7 6bbc 2fce d4bd 2603 663d
00000150: a873 f1b9 924a f73d a01f a53c 1f20 b03d
00000160: 400c 92bd 683a c5bc 6cda c9bd ffd9 db3d
00000170: eed4 043d 9540 c63d 089d ad3c ae91 d83d
00000180: 6e26 a9bd 3cbb 7f3d c509 be3d d695 e1bd
00000190: c0bc a1bd 7c86 c5bd b1be 223e e92e 02bd
000001a0: 95fa 52bd 94ef 243d 9582 153d 18d9 f1bd
000001b0: de7e 363e 860b c3bd 8095 253e fb56 38bd
000001c0: 61d7 bd3c 7c53 fd3d f664 9f3d 46f5 303e
000001d0: 8409 303d e82e f03d 20e8 88bd 83ac b73d
000001e0: 9e95 c3bd 0050 f23a 51d2 05bc 3ec4 203e
000001f0: 8359 b93d 3f4c ffbc 0fb7 133e 82ac 0dbe
00000200: 8264 ee3d 00fc deba a174 003e 8000 bc3b
00000210: 3e47 bfbd 0046 113b 2857 fdbd d4f2 2c3d
00000220: 1078 ed3c 3eab edbd 8001 0c3c 559f 82bd
00000230: 2ac1 f13d a03a 70bc 51a9 0b3e 18ee 943c
00000240: b871 a43d 336f 193e 5acc c73d ec95 483d
00000250: a0ea 2e3c 54c7 163d 8e74 de3d 2f7e 093e
00000260: 0a86 f9bd b8c4 9fbd 2854 ef3c 24ae 2c3d
00000270: 163c 66bd 1fea 1a3e aa00 0cbe 56dd cdbd
00000280: 6043 e73b d8a3 cfbc 9fbf 81bd 2a45 ebbd
00000290: 80af 353d 6ad9 dd3d 28cb 1abe 3018 08be
000002a0: 009e e23c ff8c 013e 70b3 a73d 8286 0f3e
000002b0: c534 103e 1281 bd3d acd0 65bd 867d f3bb
000002c0: 0131 c9bd ebd7 59bd ce09 f4bd 8bfc 933d
000002d0: ce1b fe3d ce87 1e3e 8617 d9bd c3bc 5bbd
000002e0: 6033 8dbb e275 f2bd dbc9 74bd ed56 f9bd
000002f0: 7485 f93b bae4 c53d c681 0fbe 17d3 c9bd
00000300: b19d 1f3e e7fa 9abd b407 3ebd 0957 c83d
00000310: b9f5 933c 306a 0fbd fa33 d4bd 7956 a13d
00000320: 048b e1bc ba40 e7bc bcc8 493d ff38 993d
00000330: 7972 98bc c5e1 9abd 53ec 103e a08b 09bd
00000340: 6974 263e 2064 f23c 2946 f2bd c6cf 4bbd
00000350: 66d9 f3bd be5b 93bd 203b 67bd 3fb4 edbd
00000360: 85d2 133d a851 d0bc 783e afbc d96e f13c
00000370: b4a3 fcbd 75c9 093e 9a98 873d 46ea ed3a
00000380: aeaf ca3d 514a a13d a077 2b3c 9ac5 873d
00000390: 6289 d0bc 2cf7 cfbd 2fc4 f03d 804a 9bba
000003a0: 19c0 863d 3436 35bd fbd6 bfbd c039 68bd
000003b0: 3631 963d 941c 30be d404 9d3c 1547 5bbd
000003c0: b6b7 f3bd aa31 0ebd c020 98bd 9b30 f3bd
000003d0: 45f2 f63d 6a9c 073e fc5a 9dbd fdad 8bbd
000003e0: c3e9 aebd 26c1 eebd 2de8 13be 77e1 013e
000003f0: 779f 903d 565b 653d d121 21be 0755 9fbc
-0.016911091 0.068160124 -0.09239029 0.11808654 -0.049106583 -0.0848667 0.1000418 -0.15254891
0.099067286 -0.11304532 -0.09261535 0.044579342 0.10263213 -0.05138562 -0.03303366 -0.113683425
0.035041064 0.057482526 0.12409971 0.013217464 -0.04815785 -0.0451053 -0.018187404 -0.056684293
-0.015026908 -0.035554796 -0.028395725 -0.052978482 0.091879964 0.10531079 -0.15213749 -0.056603912
-0.05732333 0.04255082 0.039558925 -0.020053193 0.0016081482 0.13804351 -0.11626469 0.0024509728
0.004444844 -0.093699865 -0.13153867 0.052446797 0.10385586 -0.069618836 -0.03340619 -0.15786636
0.036842957 -0.0934372 0.013854429 -0.04729025 0.13145395 0.128478 0.008888024 -0.08199181
0.057321962 0.0860364 0.030118674 0.040740672 0.08886346 0.062268794 -0.018424857 0.0156240165
0.124463715 0.0344557 -0.026628705 0.078842714 0.0047280905 0.10615558 -0.07555821 0.0047636074
-0.028989375 0.11287754 -0.00448455 -0.00043506623 -0.17069256 0.084680945 -0.076905265 -0.05634035
-0.005135979 -0.014390721 -0.10390889 0.056155346 -0.00046053273 0.1207477 0.020156682 0.085998766
-0.07131243 -0.024075702 -0.09856114 0.10734939 0.032429628 0.09680287 0.021193042 0.10574661
-0.08259283 0.06243442 0.09279207 -0.11014907 -0.07897329 -0.096447915 0.15893055 -0.03178302
-0.051508505 0.040267542 0.036501486 -0.118089855 0.17821833 -0.09523682 0.16170311 -0.045004826
0.02317399 0.12369439 0.07782929 0.17281064 0.042977825 0.11727697 -0.06684899 0.08968451
-0.095500216 0.0018486977 -0.008167819 0.1569986 0.09050276 -0.031164287 0.144253 -0.13835338
0.11640264 -0.0017012358 0.1254449 0.0057373643 -0.0933976 0.0022166967 -0.12370139 0.042223766
0.028987914 -0.116049275 0.0085452795 -0.063780464 0.11804421 -0.014662415 0.13638808 0.018179938
0.08029503 0.14983825 0.09755774 0.0489711 0.010676056 0.036811188 0.10862075 0.13427041
-0.12183769 -0.07801193 0.029214934 0.04215826 -0.056209646 0.15128373 -0.13672128 -0.10051982
0.0070575923 -0.025346681 -0.06335377 -0.114878014 0.044356823 0.10832484 -0.1511656 -0.13290477
0.02766323 0.12651442 0.08188522 0.14016154 0.1408263 0.09253134 -0.056107208 -0.007430735
-0.098238 -0.05318443 -0.119159326 0.07225903 0.12407647 0.15481493 -0.1060019 -0.053646814
-0.004309103 -0.118388906 -0.059762817 -0.12174783 0.007614786 0.09662767 -0.14014348 -0.09854715
0.15587498 -0.07567387 -0.046394065 0.09782226 0.018061506 -0.035013378 -0.10361476 0.078778215
-0.027532108 -0.028229106 0.0492637 0.07481574 -0.018609272 -0.07562593 0.1415265 -0.033580422
0.16255344 0.029588759 -0.11829788 -0.049758695 -0.119067 -0.07195233 -0.05645287 -0.11606645
0.03608944 -0.025429562 -0.021392092 0.029471802 -0.123359114 0.13455756 0.06620903 0.0018151484
0.098967895 0.07875503 0.010465533 0.066294864 -0.025456134 -0.10154566 0.11756169 -0.0011847764
0.065796085 -0.044241145 -0.09367176 -0.0566957 0.07333605 -0.17198402 0.019167341 -0.053534586
-0.119002745 -0.034715332 -0.074281216 -0.11874505 0.12057928 0.13243261 -0.076833695 -0.06820295
-0.0854068 -0.11657934 -0.14444037 0.12683664 0.070616655 0.055995308 -0.15735556 -0.019449724

hidden_layers.1.bias f4 [42]
00000000: b17e 1cbd aea8 eaba f822 3e3e 4d86 98bd
00000010: 384c aa3d f063 3a3d 21fd 37bd a853 35bd
00000020: 22e0 e43d 908b ea3d fac2 7cbd a2d4 693b
00000030: 6e08 053e 0805 66bd b0c3 19be 9ad6 d2bd
00000040: 842d bdbd e8d4 87bd 18b5 923d 4db4 07be
00000050: 5e43 0a3e c7dc 89bc 2660 bcbd 084f 07bd
00000060: d8c0 c23d c6eb 8ebb 0439 71bd 3c41 49bd
00000070: e037 10bb 6644 1cbe e2c8 05be 8e22 d2bd
00000080: 98bb 0bbe d30c a03d 499d 8b3d 723d 8f3d
00000090: dca5 263d 73f1 043d b46d a4bd 4205 dcbd
000000a0: 44a2 b43d db45 fdbd
-0.03820676 -0.0017903054 0.18568027 -0.07447491 0.08315319 0.045505464 -0.044919137 -0.044269234
0.111755624 0.11452401 -0.06170938 0.0035679718 0.12991497 -0.056157142 -0.15016055 -0.10294838
-0.09237197 -0.066324055 0.07163447 -0.13252373 0.13502261 -0.016828908 -0.09198026 -0.033034354
0.09509438 -0.0043616025 -0.058892265 -0.049134478 -0.002200596 -0.15260467 -0.13064912 -0.10260497
-0.1364578 0.07814946 0.06817109 0.06994142 0.04068552 0.032456826 -0.08028737 -0.1074319
0.08820012 -0.123668395

hidden_layers.2.weight f4 [42, 42]
00000000: 8211 ee3d 3854 3e3d f671 143e c201 e93d
00000010: d4ce 1a3e 289c 273d 4bd4 1b3e 701d 9dbd
00000020: 797d 2b3e 9047 503d 042c babd 1a60 0dbe
00000030: 2646 063d c9e1 18bd 1850 c2bc c867 603d
00000040: d08b 24bc 41e8 123d df59 d03d 9f7e cb3d
00000050: 46ef 263e 83ea 58bc d7b6 acbc 410b 033e
00000060: a21b d8bd 22b4 c73d f0c9 83bd 5853 8f3d
00000070: 0e42 a43c 84c3 cfbd cea9 d23d 42cf dc3d
00000080: f30c 153d fbb3 95bd 6a0b 213d 450f 11be
00000090: d34a e7ba ef1e 01be 4039 28bd 6835 853d
000000a0: 55ef 0e3e 8056 d63c 209f fbbc 9023 a83c
000000b0: 706c dfbc 229f ed3d 0c95 7d3d c84a babd
000000c0: 9b50 0f3e 242f ddbd d8cc 9b3c d007 253d
000000d0: 2855 813c 80c9 f33c c041 213c 8dac b2bd
000000e0: 504b 003d 28d0 013d c0ce 02bc dc1a ba3d
000000f0: 4efd e93d 6002 f03b ccc1 cabd e41a 17be
00000100: 3eed 823d 64a6 26bd 08c3 bc3c ca76 e53d
00000110: 2ac6 d83d 5c1a f7bd 96bb 4cbd 9b9b debd
00000120: 3fe0 a6bd 5865 57bd ba85 e63d ed6c 9abd
00000130: 34bc b0bd f43a 743d c584 00be e8d9 9c3d
00000140: 448e a53d 9f8d 023e 0876 89bc 95c2 073e
00000150: e38d 073e ac67 9d3d 25b2 cb3b 9ad3 db3d
00000160: ddfd 23be 80cb 833c 003a b839 0620 62bd
00000170: 1872 eabd cb95 2d3d 79b8 0a3e dd38 80bd
00000180: 844f 15bd 2c9e 843d 9f4f 15be 0eeb f0bd
00000190: b8e5 9d3d 27f6 f83d 261f 8dbc b6c5 d7bd
000001a0: 24f5 70bd ff1b 93bd 0b50 e03d 4fb8 5cbd
000001b0: c93f 743d f055 3abc 0859 de3c 4b2a 163e
000001c0: 98d0 ecbc a8c3 e0bd 30c7 713d 0229 1ebd
000001d0: 5c17 173e 03ab 073e e78c 023e 13d4 0d3e
000001e0: 84b3 f63d 1f14 83bd e443 59bd 52ab 9bbd
000001f0: da64 2cbd 2d1a 0d3e d16e 023d bdd2 ebbd
00000200: 4508 563d 4acd b13d f340 2f3e cf97 80bd
00000210: de23 213e 4ef3 db3d 5a7e 313e 8cc8 313e
00000220: ec90 1dbe b4ca 333d 664d 63bd 0115 e8bc
00000230: 9480 25bd 528a 25bd b6a5 6ebd 6eda bdbd
00000240: 3103 c7bb b61e 153d 9d68 2fbc 6e34 f1bc
00000250: 3540 0d3e e692 d83d baf3 cabd b844 01be
00000260: 56e6 9e3d 501b 39bd 2c65 e6bc 3ed8 01be
00000270: 60da e1bd a009 a73b 3b6b 783d de7f 113e
00000280: 2587 173e ff03 49bd 141e 433d 6f2d d8bc
00000290: 2a7a 3d3d 9041 6bbd 8426 df3d 3680 09be
000002a0: 683d b23c 6aef 14bd adb9 ea3d 9a53 ca3d
000002b0: 6918 d03d 8fea e0bd 6d97 973d 6fd6 06be
000002c0: 91c0 50bd 6a70 eebd 702a c2bc c958 d2bd
000002d0: 5c41 15bd 89d0 02be 2530 093e d8de 1dbd
000002e0: 5277 f63d de08 b6bd 3cc6 adbd b51a 553d
000002f0: 8455 88bd 73d5 6bbd 806a 043d ef9e 793d
00000300: ca4e f43d e159 08be ae5b 5dbd 1832 803d
00000310: 2281 afbd b8b6 d33c 4a5c 06be 008e 343b
00000320: 4a99 d73d 0d15 b23d 3ec8 10be c0a4 0abe
00000330: 78f2 e0bd 981e e3bc 6da0 dbbd fec4 bf3d
00000340: 577c f03c 4080 c23b fd67 95bd c8b8 ac3d
00000350: 818c e3bd f873 e1bc 991e eabd 36fc bd3c
00000360: 778d d83d 2e54 f0bd c3b2 de3d bd82 663d
00000370: 1831 e1bc e9c1 f5bd 2d9b 333e 2401 9a3d
00000380: 80cc 0dbc b8be 34bd 47e2 07be 39d0 f8bd
00000390: f17b b0bd 63ad f0bd 8ddd 613d efc1 d9bc
000003a0: 1b86 eabd 4cbd 74bd 1734 b93a 9087 593b
000003b0: b74c abbd e83f b9bc 4513 233e 255a 073e
000003c0: 40b0 68bc 7099 1b3c e8f3 8e3d 3979 61bd
000003d0: 6876 803d defd a93d e362 99bd 8b0b b23d
000003e0: b698 053e 40f5 b3bb c416 da3b 5c56 623d
000003f0: 1f1e 30bd 9e74 febd 1e6e 7f3d c8d1 2cbd
0.11624433 0.046467036 0.14496598 0.113772884 0.15117961 0.040920407 0.15217702 -0.076716304
0.16747083 0.050849497 -0.090904266 -0.13806191 0.032781743 -0.0373247 -0.023719832 0.054786474
-0.0100430995 0.035866026 0.101733916 0.099362604 0.16302213 -0.013239506 -0.021083279 0.12797262
-0.105521455 0.097511545 -0.06435001 0.069983184 0.020051029 -0.101447135 0.10286294 0.10781719
0.036389302 -0.07309719 0.039317526 -0.14165981 -0.0017646201 -0.12609456 -0.041070223 0.06504327
0.13958485 0.026164293 -0.030715525 0.02052477 -0.027273387 0.11602618 0.06190972 -0.09096295
0.13995592 -0.10800007 0.019018576 0.040290654 0.015787676 0.029759169 0.009842336 -0.08724318
0.031321824 0.031692654 -0.007983863 0.09087154 0.11425267 0.007324502 -0.09900245 -0.14756352
0.063929066 -0.040686026 0.023042217 0.11204298 0.10584672 -0.120655745 -0.049983583 -0.10869523
-0.0814824 -0.052586883 0.11255975 -0.07540307 -0.08629647 0.059626535 -0.12550648 0.0765875
0.08083776 0.12749337 -0.016779914 0.13257821 0.13237719 0.076857895 0.006216305 0.10733719
-0.1601481 0.016088247 0.00035138428 -0.05520632 -0.11447543 0.04237918 0.13546933 -0.06260846
-0.036452785 0.064754814 -0.14581154 -0.11763583 0.07709831 0.12156325 -0.017226767 -0.10535757
-0.058827534 -0.07183074 0.10952767 -0.053886708 0.059631143 -0.011373028 0.027142063 0.14664571
-0.028908059 -0.109748185 0.05902785 -0.038613327 0.14755005 0.1324883 0.12749062 0.13850431
0.12045959 -0.06400322 -0.05304326 -0.07601036 -0.042088367 0.13779517 0.031843964 -0.115148045
0.05225398 0.08681734 0.1711462 -0.06278955 0.15736338 0.10739766 0.17333356 0.17361659
-0.15387315 0.043894485 -0.055493735 -0.028330328 -0.040405825 -0.040415116 -0.058263503 -0.09270178
-0.0060733785 0.03640624 -0.010706094 -0.029443946 0.13794024 0.10574894 -0.099097684 -0.1262387
0.07758777 -0.045192063 -0.028124414 -0.12680146 -0.1102798 0.005097583 0.060649138 0.14208934
0.14797647 -0.049076077 0.047636107 -0.026388852 0.046259083 -0.057435572 0.10896018 -0.13427815
0.021757796 -0.036361136 0.11461196 0.09879227 0.10160906 -0.109822385 0.07401929 -0.13167737
-0.050964896 -0.11642535 -0.023701876 -0.10270841 -0.036439285 -0.12774862 0.13397272 -0.0385426
0.12034477 -0.0888841 -0.08485076 0.052027423 -0.06656936 -0.057576608 0.03232813 0.060942587
0.1192909 -0.13315536 -0.05404251 0.062595546 -0.08569552 0.025843963 -0.13121143 0.002755046
0.105272844 0.08695421 -0.14138886 -0.1353941 -0.10983747 -0.02772455 -0.10723958 0.09363745
0.029356165 0.0059356987 -0.07295225 0.08433682 -0.11110783 -0.027521119 -0.11431617 0.023191553
0.10573857 -0.11734806 0.1087394 0.056277025 -0.02748923 -0.11999876 0.17539664 0.07519749
-0.008654714 -0.044127196 -0.13269912 -0.1214909 -0.0861739 -0.11751821 0.055142928 -0.026581733
-0.1145136 -0.05975084 0.0014129904 0.0033192374 -0.083642416 -0.02261348 0.1592532 0.13217981
-0.0142021775 0.009497032 0.06980115 -0.055047248 0.06272584 0.083003744 -0.07489564 0.08693608
0.13046536 -0.0054918826 0.006655546 0.05525814 -0.042997476 -0.12424587 0.062360875 -0.04219225

hidden_layers.2.bias f4 [42]
00000000: 215b ddbd 92c1 7abd 1b0b abbd a9cf 463e
00000010: eab8 56bd 7d29 273e 3492 ef3d 818e 0b3d
00000020: 8727 d6bd e1c1 ff3c c2ab b0bd ea27 273e
00000030: 2d27 1bbe 88bc 003e a1ff 443e 1a7a e6bd
00000040: df4d 9b3d c06b d7bd bebe 39bd a0c9 35bd
00000050: e347 943c 12ff 053e 0995 023e ec7e b3bd
00000060: 5477 e4bd d2dd 3b3e 7abf 19be 2fc9 593d
00000070: 9723 03be e2b9 2cbd 3219 13be 44c8 fbbd
00000080: e0d8 ffbd 9746 74bd b3a9 e33d 6ca0 d13d
00000090: 9568 d2bd 58df adbc 00d0 7a3c b622 1dbe
000000a0: a07a 393e 9e5f eabc
-0.10808397 -0.06121976 -0.083517276 0.19415154 -0.05242244 0.1632442 0.11697808 0.03407145
-0.10456758 0.031220378 -0.0862651 0.1632382 -0.15151663 0.12571919 0.1923814 -0.11253758
0.07583212 -0.105185986 -0.04534792 -0.044381738 0.018100685 0.13085583 0.12752165 -0.08764443
-0.111555725 0.18346336 -0.15014449 0.05317038 -0.12806545 -0.04216946 -0.1436508 -0.12294057
-0.124925375 -0.059637632 0.11116352 0.10235676 -0.10273854 -0.021224663 0.01530838 -0.15345272
0.18113184 -0.028610047

hidden_layers.3.weight f4 [42, 42]
00000000: 3912 42bc ed65 bbbd dd68 043b 95c6 3d3d
00000010: a781 09be 41f3 3d3d fd45 203e 0949 dc3d
00000020: 0c2b 9fbd 32bf cbbd 2aca f4bc 8389 ac3d
00000030: 08c8 973d b326 e43d 8811 4a3d 19a4 f4bd
00000040: f11d 023e 58f2 2c3d 80a3 f1bb 5d24 09be
00000050: 0f2f 83bc 25a0 fbba 5f87 d03c 7391 99bc
00000060: fcc3 15bd 7bdc 153e 8e45 923d 9dfd c1bd
00000070: 4c0b 243d 5228 e93d 6a37 05be 0a7c fa3d
00000080: 5fe8 a7bd ee71 ba3d 72a9 8a3d 29dd af3d
00000090: b481 843d 58d8 ae3c 4755 e2bd 4a37 0cbe
000000a0: c3d3 0e3a 1e28 093e 65de d0bd 9053 6b3c
000000b0: 082b b0bd 7082 293e df8c 78bd 1afd d43d
000000c0: e35f e23d 976f 0d3e a9ff 883d 3b24 b1bd
000000d0: b720 e33d b6f6 03bd 263e 25bd 8b6b 413e
000000e0: 0746 e13d 2655 8dbd c1a5 133e 30a3 f0bc
000000f0: 1230 54bd 8dc4 cdbc f2b0 583d 30a4 833d
00000100: 8737 393d 8deb ca3c 00a9 d5bb ee19 393d
00000110: ebc9 023e 4650 583c e81d a7bd 0289 c0bd
00000120: 00fe 99bd 4c27 60bd 9c82 79bd 8463 bebd
00000130: 3005 063e cf67 1b3d 60e9 c5bd 000d 623a
00000140: 20af 893c a0a1 0cbe e68e d8bc 4fea 7bbd
00000150: b228 04bd 0a62 f1bd 7ef0 b0bd 28bd 153d
00000160: 2258 e0bd bc86 98bd 842f e0bb a72d 0ebd
00000170: f881 bcbd 8b7e 1d3d 4a0e 00be 99b6 e33d
00000180: ed09 8cbd 2c5e 04bd 3547 c53d f64f 09bd
00000190: a141 acbd 20b7 613c c2b5 f1bd 7265 95bc
000001a0: b348 283e 06ee e63c a2e0 ec3d b730 e0b9
000001b0: 2a89 e2bd 122a af3d 1eba 0ebe b437 e9bd
000001c0: e268 e73d e81a 09bd 3018 db3c 6006 77bd
000001d0: 0bb2 04be d208 2f3d 0a45 d8bd 6c63 40bc
000001e0: f110 abbd 0147 17be e307 183e 171d 053e
000001f0: faf5 9fbd 9181 043d 5979 f13d bc9d c33d
00000200: a880 fd3d 4d60 2c3e fd8e e4bd 39e7 30bd
00000210: c8e0 373e c4ff d63c 47a2 08be 4622 abbd
00000220: 1982 143e f3c7 f23d 5f7f 0bbe d386 4dbd
00000230: 26ad d33d e892 0dbe 66b4 d53d 5e05 d23d
00000240: 5814 f0bc cbd6 32bd a10c b0bd acd1 73bc
00000250: e6c3 1e3d b08c 9bbb 389f b0bc 17d8 bebd
00000260: 7292 33bd 441b f23d f7f5 12be cd41 183e
00000270: 800c 8bbd 90f8 373d 13c9 113e b0b1 88bd
00000280: ded9 293e 9eab 323e ba53 56bd 010c 99bd
00000290: 5e44 e13d c098 72bb 78cf 7abd f0cd ac3b
000002a0: 42a2 893d 247b 9d3d e687 da3d dd27 2b3e
000002b0: fb87 f5bd a781 01bd 3278 6dbc 0d64 eb3d
000002c0: 9e29 96bc 1a98 b53d 6685 32bd e455 1ebc
000002d0: 9889 183d f6f0 fa3d 57d4 9d3d d89d 2e3d
000002e0: 6f5c 303d 6663 0fbe 3692 913d 1342 df3d
000002f0: 46a6 1f3e f97f db3b 92a2 0e3e ee29 053e
00000300: 0514 bbbd d089 a43d 2870 533d 34db 1e3e
00000310: 7ac1 bd3d 7ec7 bb3d 7299 cdbd bc8b b8bd
00000320: b8e5 473d a51f f93d 25c6 6c3d cf98 bd3d
00000330: 82b9 71bd 1492 1dbe df4c 99bd 308e d6bd
00000340: 0f9e d03d 0225 14be 4ba6 2bbd d7f9 053e
00000350: 1721 d13c 2bc1 fb3d e0ad 7f3c cc75 3fbe
00000360: b36e bebd e80b c8bd 0e67 dc3d 4e88 913d
00000370: 492c 043e 7a3a 88bd a00d f1bb 6d52 fd3d
00000380: 6d3c 823d 9872 b93c ba7d 3c3d 0043 393c
00000390: 803a b93a e189 1abe ad59 03be cba5 0cbb
000003a0: 432f a03c 6a44 77bb c0c9 5abc e087 e93d
000003b0: 7dcd 0d3e b81d ba3c cc2c 6a3d 1c56 383d
000003c0: 69c1 86bd e00c a1bd 6293 c83d 1208 673d
000003d0: e1da 1bbe 8a4d 15bd c685 bf3d 59b6 023e
000003e0: 6066 f03b f1a8 063e 6352 7dbd 3863 93bd
000003f0: a8dd 92bc b243 58bd d41a 923d 735d 113e
-0.011845165 -0.091503 0.0020204105 0.04633196 -0.13428365 0.046374563 0.15651698 0.10756118
-0.077718824 -0.09948577 -0.029881556 0.08424666 0.074112 0.11140194 0.049333125 -0.11945362
0.12706734 0.042223305 -0.007374227 -0.13392778 -0.01601365 -0.0019197507 0.025455175 -0.018746113
-0.03656386 0.14634888 0.07142173 -0.09472201 0.040049836 0.113846436 -0.1300942 0.1223069
-0.08198618 0.091037616 0.067706004 0.08587105 0.064700514 0.021343395 -0.110514216 -0.13692966
0.0005448425 0.1339421 -0.101986684 0.014363185 -0.086019576 0.16553664 -0.06068122 0.10399838
0.11053445 0.138121 0.06689388 -0.086494885 0.11090224 -0.032217704 -0.040342472 0.1888868
0.10999685 -0.069010064 0.14418699 -0.029374689 -0.051803656 -0.025118137 0.052903123 0.06427801
0.04521897 0.024770522 -0.0065203905 0.045190744 0.12772338 0.013202732 -0.08160001 -0.09401132
-0.0751915 -0.054724976 -0.060915574 -0.09296325 0.13087916 0.037940796 -0.096636534 0.0008623153
0.016807139 -0.1373353 -0.026435327 -0.06150275 -0.032265373 -0.117862776 -0.0863962 0.036557347
-0.1095431 -0.074475735 -0.006841602 -0.034711506 -0.09204477 0.03845076 -0.12505451 0.11118812
-0.06837831 -0.03231637 0.09632722 -0.033523522 -0.08410955 0.013776571 -0.11802246 -0.01823685
0.16433983 0.02818967 0.11566283 -0.00042760905 -0.11061318 0.08552946 -0.13938186 -0.11387578
0.11299302 -0.033472925 0.026744932 -0.060308814 -0.12958543 0.04273302 -0.10560043 -0.011742454
-0.08352841 -0.1477318 0.14846759 0.12999378 -0.07810588 0.032350127 0.11790723 0.0955157
0.12378055 0.16833611 -0.11160085 -0.04318926 0.17956841 0.026245005 -0.13343154 -0.083561465
0.14502753 0.118545435 -0.13622807 -0.050177407 0.1033576 -0.13825572 0.10434799 0.1025493
-0.029306576 -0.043661874 -0.08596159 -0.014881533 0.038761042 -0.004746996 -0.021560296 -0.093185596
-0.043840833 0.11821607 -0.1435164 0.14868851 -0.067894936 0.044914782 0.1423686 -0.06674516
0.16587016 0.1744828 -0.05232594 -0.07472993 0.10999368 -0.0037017316 -0.061233014 0.005273573
0.06720401 0.07689503 0.10670452 0.16714425 -0.11988827 -0.031617787 -0.014493989 0.114936925
-0.018330391 0.08866902 -0.04358425 -0.009664033 0.037240595 0.12252991 0.07706516 0.042631
0.0430569 -0.14002761 0.07107966 0.109012745 0.15590772 0.006698605 0.13929203 0.13004276
-0.09134678 0.08034098 0.051620632 0.15513307 0.09265418 0.091689095 -0.10039033 -0.09011027
0.04880306 0.12164239 0.057806153 0.092576616 -0.059014805 -0.15387756 -0.07485365 -0.10476339
0.10186397 -0.14467242 -0.041906636 0.13083588 0.025528474 0.12292703 0.01560542 -0.1869728
-0.09298458 -0.09767896 0.107618436 0.07106076 0.12907518 -0.066517785 -0.0073563606 0.12369237
0.063591816 0.02263765 0.04601834 0.011307478 0.0014131814 -0.15091659 -0.12827177 -0.0021461125
0.019553786 -0.0037729987 -0.013353765 0.11402869 0.13847919 0.02271925 0.057171628 0.045003995
-0.06579859 -0.07863784 0.09793736 0.05640418 -0.15220214 -0.0364509 0.09351687 0.12764873
0.007336423 0.13150384 -0.06184615 -0.07196659 -0.01792796 -0.052798934 0.07134023 0.14195804

hidden_layers.3.bias f4 [42]
00000000: d622 903d 484d 893d 4a71 073e 3ccb 8cbc
00000010: 2ee3 e8bc 015d f1bd e03e 513c 162b 13be
00000020: 8aef 47bd f503 d13d 23ec bf3d 5447 ecbd
00000030: 59cc 1dbe 70ec 1cbc b8ea da3c c1ef 9c3d
00000040: 6cd9 59bd 6a22 20bd 2919 e2bd 6be5 76bd
00000050: 98b5 263d abcf 74bd d933 56bc 578f 4b3d
00000060: f815 64bd 826b 953d 9470 1bbd 1619 36bd
00000070: d323 5f3d 50ba b83d b82b 83bd d9a8 9f3d
00000080: 74a8 2abd f2e5 fe3d f0d7 8e3c 7bc6 a03d
00000090: 8d9a a3bd 2cbd cfbd 7908 aebd 826b 0ebd
000000a0: 9680 82bd 495c b83d
0.070378944 0.06704193 0.1322681 -0.017186753 -0.02842864 -0.11785317 0.012771338 -0.14371905
-0.048812427 0.10205833 0.093712114 -0.11537042 -0.15409984 -0.0095778555 0.02672325 0.07662917
-0.053185865 -0.03909532 -0.11039955 -0.060277384 0.040700525 -0.05976836 -0.013073885 0.049697246
-0.055685014 0.07295896 -0.03794916 -0.044457518 0.054477524 0.09019911 -0.06404823 0.07795877
-0.041664556 0.12446202 0.017436951 0.07850357 -0.079884626 -0.101435035 -0.0849771 -0.034770496
-0.06372182 0.09001977

output_layer1.weight f4 [40, 42]
00000000: 4b9a 193d 1332 793a 6b45 8a3d 09a7 f5bd
00000010: cd47 023d eaec d9bd 0892 9d3d ed0b e8bd
00000020: 4009 113d 9342 09be d240 85bd d2fa 58bd
00000030: d615 83bd 6cd7 2dbd 3476 603d d595 08be
00000040: c15f a8bd 3f5c 07be 2965 eebd 4996 ecbd
00000050: b635 92bd 3f07 93bd 1ceb a9bc 2ab9 0bbe
00000060: c05b 9c3c 013b fd3d 8172 b5bd d1d8 193e
00000070: 614a 01be 452e 2abe eab2 6abd e96d 69bd
00000080: ac43 643d 62f8 0ebe 168d 04be 00e6 d03d
00000090: eaf7 85bd 40c9 b33c 771f 703a ca05 d63d
000000a0: db1d a9bd f394 e73d ae70 793b 5e73 1d3d
000000b0: 5a59 0f3e e4e1 b83b 07fb a63d b637 343c
000000c0: ee98 0cbe 7b4f 0d3e 9bd1 193e 11be 293e
000000d0: cf31 183e 74de a53d f8fa 483d 0098 eab8
000000e0: eaee d0bd 4826 fabc 2372 0e3e 3221 c73b
000000f0: 917c 66bd f8cd 73bd dccb 313e fb37 6b3d
00000100: 5499 413d 3e11 93bd 6eba eb3d fb3a 06bc
00000110: ec75 063d c863 aebd 5afa 033d 43e3 363e
00000120: 90e2 f3bd df9a 69bd 8096 8bbc 8739 013c
00000130: 70fa 2e3d aff0 6abd c1d4 6ebd 7052 b33c
00000140: 558d 013c c032 663c 0c82 a13d cc0b d5bc
00000150: 69f8 28bd 45d8 16bd 7b18 24bc abdd 87bc
00000160: bc68 87bc b7eb bdbd 0088 cdbd ad01 c6bd
00000170: f9e0 b3bd f809 ae3d d849 b4bd 035b b0bd
00000180: 747d 6d3d 2fde 043e b041 abbc add2 833c
00000190: 24d6 923d ccb4 d53d 8276 df3c fcab adbd
000001a0: 70ba ddbd f157 ca3d e55e 5abd faf5 8fbd
000001b0: c683 c83d 5f91 1e3e 817b d33c 309e b73d
000001c0: 37d6 2e3e c46f 8d3d 360a ba3d 00c8 223e
000001d0: ab0d 173e cd56 2d3e b22d d53d 4504 a0bd
000001e0: 1b77 973d b85e 673d c5fb 16bd 4615 c3bd
000001f0: cab1 da3d c244 52bd 799e cebb 17e3 9ebd
00000200: 55b7 5a3d 5cb7 c7bd 1ffc 27bd 029a 19bd
00000210: f98d febd 8908 e5bd c0b8 733d d50d b73d
00000220: a7c1 abbc 00ff 7cba 953d eabd 3e86 ce3d
00000230: 7e0c dbbd 5d97 683d 3c44 083d 3a9d 3bbd
00000240: 842c debd c754 303d f01e 853d 3594 f03d
00000250: c155 9c3c 2848 56bd a03d 37bd 2171 f73d
00000260: e163 583d 8951 04be 5615 dfbd 055c d33d
00000270: 522f f43d eac7 dcbd 4819 3d3d 156a 033e
00000280: 3bd4 d9bd 05c3 32bd 532a f3bc 80d7 9dba
00000290: 0668 c7bd 9462 1bbd 1e63 af3d e0a0 f8bd
000002a0: 0a6c 04be 6457 293d b04d e7bd 7b28 7abc
000002b0: dda9 c6bd 8672 ff3d d02e 44bd 40cc d43d
000002c0: 70bc 0c3c ce79 643d 5391 4b3d a84d 563d
000002d0: 564f f63d f400 1a3d d2d9 76bd c5a1 cd3d
000002e0: 90a4 ccbd d98f fc3d 5860 0c3e f052 db3d
000002f0: edb3 97bc dab4 933d bc8c c83d f53b bfbd
00000300: c2f1 d9bd ca7f f4bd c7c5 a5bc 40c6 f0bd
00000310: fa09 d43c fb21 063d 782a 89bc 35a5 0e3d
00000320: 1c58 473d dccd de3d 38f1 dcbc 2519 ce3d
00000330: d62d 61bc 18e5 fd3c 0f6c 38bd 883f bf3d
00000340: 6210 15be 07f2 003e 4457 233d 06bc c1bd
00000350: 40a7 b8bc 1794 6fbd 6288 7bbd b2bc 94bd
00000360: 77e5 0d3e c3bd 103e a0e5 a63b 9f21 3a3e
00000370: f0cd 143e bdec 02be 4098 b4bc b0f3 7cbc
00000380: f723 193e f905 ae3d 32d3 aa3d b127 eb3d
00000390: 480d 093d 241e 483d f49f 71bd 71c8 6b3d
000003a0: ab4f 023e 762c d73d d059 553c e6fb d7bc
000003b0: a414 cf3b fe41 88bd 9371 f23d f39c e1bd
000003c0: f89f 753d be2d 303e 40e8 7bbb 1d21 2e3c
000003d0: 2798 a9bd fb2e 013e a4ed 0b3e caf7 cfbd
000003e0: 3f29 ee3c 801b 553d 007e e7bd fc24 eebb
000003f0: 3143 6bbd 3d6a b33c 391b d3bd 7db2 21be
0.03750066 0.0009506058 0.06751522 -0.1199475 0.031806756 -0.10640891 0.07693869 -0.113304
0.035409212 -0.13404302 -0.06506504 -0.052973576 -0.06400649 -0.04244177 0.054800227 -0.13338406
-0.082213886 -0.13218783 -0.116403885 -0.11552102 -0.07139151 -0.071791165 -0.020741992 -0.13644853
0.019086719 0.1236477 -0.088597305 0.15024115 -0.1262603 -0.16619213 -0.057299532 -0.056989584
0.0557286 -0.13961938 -0.12944445 0.10200119 -0.065414265 0.02194655 0.0009159962 0.10450323
-0.082576476 0.11307707 0.0038061547 0.0384401 0.13998929 0.0056421626 0.081533484 0.010999611
-0.13730213 0.1379985 0.15021364 0.16576411 0.1486275 0.0809907 0.049067467 -0.00011186302
-0.10201819 -0.030535832 0.13910727 0.0060769552 -0.05627114 -0.0595226 0.17362922 0.057426434
0.047265366 -0.07181023 0.11510168 -0.008192773 0.032827303 -0.085151255 0.032221176 0.17860131
-0.11908448 -0.057032462 -0.017039537 0.007887251 0.042719305 -0.05735844 -0.058308367 0.021889895
0.007907231 0.014050186 0.078861326 -0.026006602 -0.041252527 -0.036827344 -0.010015602 -0.016585192
-0.016529433 -0.09273475 -0.100357056 -0.096682884 -0.087831445 0.08497995 -0.08803147 -0.08611109
0.05798097 0.12975381 -0.020905346 0.016091669 0.0716975 0.10434875 0.027278189 -0.08480069
-0.10826576 0.09880055 -0.053313155 -0.07029338 0.09790759 0.15485142 0.025815727 0.08965719
0.17073904 0.06906083 0.09083979 0.15896606 0.14751308 0.16927643 0.10409106 -0.07813314
0.073957644 0.056486815 -0.0368612 -0.09525542 0.10678442 -0.051335104 -0.0063055125 -0.07758158
0.053397495 -0.0975177 -0.041011926 -0.03750039 -0.12429423 -0.111832686 0.059502363 0.08938185
-0.020966364 -0.0009651035 -0.11437527 0.100841984 -0.10695742 0.056784976 0.0332682 -0.04580424
-0.108483344 0.0430496 0.065000415 0.11747018 0.01908386 -0.052314907 -0.044736505 0.120821245
0.052829627 -0.12921728 -0.108927414 0.10320286 0.11923088 -0.10780318 0.04616669 0.12833436
-0.10636183 -0.043643016 -0.029683268 -0.0012042373 -0.09736638 -0.03793581 0.08563827 -0.121400595
-0.12931839 0.041343108 -0.112941146 -0.01526844 -0.097003676 0.124730155 -0.047896206 0.1039052
0.008589849 0.055780225 0.04969914 0.052320153 0.12026851 0.037598565 -0.060266323 0.10040621
-0.09992325 0.12332124 0.13708627 0.107091784 -0.018518412 0.07212229 0.09792468 -0.09337608
-0.10641815 -0.11938436 -0.02023591 -0.11756563 0.025883663 0.03274725 -0.016743883 0.034825522
0.048668012 0.10879108 -0.02697049 0.1006339 -0.013743838 0.03099303 -0.045024928 0.093382895
-0.14557031 0.12592326 0.039878145 -0.09459691 -0.022540689 -0.05849084 -0.06140936 -0.07262553
0.13857065 0.14134888 0.0050932914 0.18176888 0.14531684 -0.12785621 -0.022045255 -0.015438959
0.14955126 0.08497233 0.083410636 0.1148218 0.03345993 0.04885687 -0.058990434 0.057564203
0.12725703 0.10506527 0.013021901 -0.026365232 0.006319599 -0.06653212 0.11838069 -0.11016264
0.05996701 0.1720495 -0.0038437992 0.010628012 -0.08280974 0.12615578 0.13664871 -0.10154684
0.029072402 0.05202818 -0.113033295 -0.0072675925 -0.057437126 0.021901244 -0.10307927 -0.15790744

output_layer1.bias f4 [40]
00000000: dc88 35be 1108 813d 48b7 e83d d13e 10be
00000010: 4e49 fe3d 0bcc 463e 5756 a8bd a6ac 89bd
00000020: ab8f ca3d 0f0f 9b3d af48 92bd edd4 f2bd
00000030: d50e 1ebe 91e4 ffbb 4eea ce3d 9dd9 60bd
00000040: 6cd6 8ebc 61a4 11be f6d9 1f3e 4e2b a7bd
00000050: c59f 7cbc 5ac6 fabd 44a9 09be c319 b8bd
00000060: 4f41 7e3d 2f65 223d 8ff3 c23d 1b57 053d
00000070: 4ab1 9e3c b18c 273e aef0 65bd 9ead eebd
00000080: 3f4d 0bbe ec01 9cb9 9046 97bd 0968 d43b
00000090: 2a10 e13d 6b88 b93d 4cd1 013e 7741 20be
-0.17727989 0.06300367 0.11363083 -0.14086463 0.124163255 0.19413774 -0.08219593 -0.06722383
0.09890684 0.075712316 -0.071427695 -0.118570186 -0.15435345 -0.0078092297 0.10103284 -0.054895032
-0.017436229 -0.14222862 0.15610489 -0.081625566 -0.015418951 -0.12244864 -0.13443476 -0.08989289
0.062074002 0.039647277 0.09519111 0.032553773 0.019371647 0.16362263 -0.056137733 -0.116542086
-0.13603686 -0.0002975607 -0.073865056 0.0064821285 0.10989411 0.09059223 0.12677497 -0.15649973

output_layer2.weight f4 [1, 42]
00000000: 3abe a93d 1b3f 6a3d 0de6 f33d 2f67 873d
00000010: 4c26 dc3d 550a d0bc e05e be3c fb71 18bd
00000020: 647a 093d 38ce 8d3d b3e0 bd3d 5fca babd
00000030: c8a4 a2bc 1e1e 09be 2b50 9abd 19df bd3d
00000040: 9e09 ba3d 0d0d 20bd 8a15 76bd 6b51 18bd
00000050: fc99 8c3b af79 1a3d e5e6 c83d d872 d13d
00000060: 38b0 d8bc d006 303d 2fc2 24bd 78af d4bc
00000070: e4af 0bbc a96b a5bc ade2 143e 997a 843d
00000080: 00ac 96bd 1d64 033e 0294 ce3d ac34 863d
00000090: efcd 943d bc6e 513d ceb9 dcbd 1bb6 0c3e
000000a0: 70d0 bcbc c829 383e
0.08288236 0.05718909 0.11909113 0.066114776 0.10749492 -0.025395552 0.0232386 -0.037218075
0.033563986 0.06924099 0.092713736 -0.091206305 -0.019853964 -0.13390395 -0.07534822 0.09271068
0.090838656 -0.039074946 -0.060079135 -0.03718702 0.0042908173 0.037713703 0.09809665 0.10226983
-0.026451215 0.042975247 -0.04022425 -0.025962576 -0.008525822 -0.020192938 0.14539595 0.06468696
-0.07357025 0.12831159 0.10086824 0.06553015 0.07265841 0.051130995 -0.10777627 0.13741343
-0.02304861 0.17984688
