src/models/dynamics_12.pt (torch, 47860 bytes, 13 tensors)

input_layer.weight f4 [42, 42]
0	0x3de11ef2	0.109922305
1	0xbde5280d	-0.1118928
2	0xbe0e3d61	-0.13890602
3	0x3e1f1e16	0.1553882
4	0xbd0b06fa	-0.0339422
5	0xbdca632a	-0.09882195
6	0xbe076996	-0.13223872
7	0xbda913bb	-0.082557164
8	0xbd525480	-0.051350117
9	0x3cc55821	0.024089875
10	0xbdfaee62	-0.12252499
11	0xbd3d1fcf	-0.046172913
12	0x3d9c4fdf	0.07632422
13	0x3d876cfa	0.066125825
14	0xbd3de314	-0.046359137
15	0xbd1096e7	-0.03530016
16	0xbced8b11	-0.028996976
17	0xba174c89	-0.00057715975
18	0x3de2081d	0.11036704
19	0xbd53e6ec	-0.051733896
20	0x3da30895	0.07960621
21	0x3c119e39	0.008887821
22	0xbdf9411e	-0.12170623
23	0xbd4d05ec	-0.050054476
24	0x3c3c9e2d	0.011512321
25	0xbe06dced	-0.13170214
26	0x3da140c5	0.07873682
27	0xbde616da	-0.11234827
28	0x3d63f4ff	0.05565357
29	0x3ca6db79	0.020368325
30	0x3dbebf55	0.093138374
31	0xbda6ddc5	-0.08147768
32	0x3d0ea3db	0.034824234
33	0xbc91487d	-0.01773476
34	0xbe135952	-0.14389542
35	0x3dd74483	0.105111144
36	0x3e04c3b6	0.12965283
37	0x3dd90f7b	0.10598656
38	0x3d35e278	0.04440543
39	0xbc313d0c	-0.010817777
40	0xbcd51949	-0.026013033
41	0xbd7835f2	-0.06059832
42	0xbd0f6eed	-0.035017896
43	0xbd85a95c	-0.06526443
44	0xbbf7e55a	-0.0075651826
45	0x3d4e1131	0.050309364
46	0x3e11bc6a	0.1423203
47	0x3df31e03	0.11870959
48	0xbd920f9e	-0.07131885
49	0x3aea1ace	0.0017860772
50	0x3da0f616	0.07859437
51	0x3d6866b4	0.05673857
52	0x3dd65083	0.10464575
53	0x3b482521	0.0030539709
54	0xbda45142	-0.08023311
55	0x3c95cc96	0.01828603
56	0xbd527f02	-0.051390655
57	0xbc2f889b	-0.010713722
58	0xbe116f9b	-0.1420273
59	0xbbca0416	-0.006165038
60	0x3d5247ab	0.05133788
61	0x3da007fb	0.07814022
62	0x3e0a1aaf	0.13486741
63	0xbe1c6014	-0.15271026
64	0x3d9b5ddd	0.075862624
65	0x3de2f1ea	0.11081298
66	0x3dbe7eeb	0.093015514
67	0xbc7bc93e	-0.015367804
68	0xbdcf7cf8	-0.10131258
69	0xbcc8b834	-0.024501897
70	0x3ce10c74	0.027471758
71	0x3dd336be	0.103131756
72	0x3db990c1	0.09060813
73	0xbd6fc49a	-0.058537103
74	0x3d22e2e2	0.039767154
75	0x3e1ae1eb	0.15125243
76	0x3e18c0f0	0.1491735
77	0x3deeda3a	0.11662717
78	0xbc060852	-0.008180695
79	0xbd9ef476	-0.07761471
80	0xbd2c9233	-0.042131614
81	0xbe0d56e7	-0.13802682
82	0xbe0613ac	-0.13093442
83	0x3d8fa71e	0.07014297
84	0xbdf8b4c6	-0.12143855
85	0x3df3aa4f	0.11897718
86	0x3de0c16b	0.109743915
87	0x3c867b29	0.01641615
88	0xbdf7f0fd	-0.12106512
89	0xbdae4b7e	-0.08510493
90	0xbdbae080	-0.09124851
91	0x3dd69436	0.10477488
92	0x3cd2fb68	0.025754645
93	0xbbb198af	-0.0054198126
94	0xbbe90974	-0.0071117226
95	0xbd60072b	-0.054694336
96	0x3dda80d0	0.106691
97	0x3d8f7d44	0.070063144
98	0x3c685558	0.014180504
99	0x3da262b1	0.0792898
100	0xbe06f4ef	-0.13179372
101	0x3da0fba2	0.07860495
102	0xbd8f839a	-0.07007523
103	0x3b3db202	0.0028945212
104	0xbddc78ab	-0.10765203
105	0x3da31ff3	0.07965078
106	0xbe16e084	-0.14734083
107	0x3db7b127	0.08969336
108	0xbe133668	-0.14376223
109	0xbdf96067	-0.121765904
110	0x3e01cb3c	0.12675184
111	0xbda9062a	-0.08253129
112	0x3d528e82	0.051405437
113	0x3d83b6ec	0.06431374
114	0xbde1392c	-0.10997233
115	0xbe26c750	-0.16286969
116	0x3d863c05	0.065544166
117	0xbd9ca911	-0.07649434
118	0xbe1df8f2	-0.15426996
119	0xbdf55d4d	-0.11980686
120	0xbde748fe	-0.11293219
121	0xbe2014cd	-0.15632935
122	0x3da2491e	0.07924102
123	0x3d4959f9	0.04915807
124	0x3ce9c0eb	0.028534373
125	0xbe030403	-0.12794499
126	0xbd6cdd42	-0.057828195
127	0x3de45528	0.11149055
128	0x3d90a3fa	0.07062526
129	0x3d894de6	0.06704311
130	0xbd17a696	-0.037024103
131	0xbd990e00	-0.074733734
132	0x3df7f25c	0.12106773
133	0x3bcc78e7	0.0062399986
134	0x3e1517e0	0.14559889
135	0xbdf6c98f	-0.12050163
136	0x3e09280b	0.13394181
137	0xbd6b9bd0	-0.05752164
138	0x3e11b5de	0.14229533
139	0x3d58fdf4	0.052976564
140	0xbdfb50c2	-0.12271263
141	0xbd89b6ff	-0.06724357
142	0xbe1446a1	-0.14480068
143	0x3dbfab98	0.09358901
144	0xbde72262	-0.11285855
145	0x3de3082a	0.110855415
146	0xbc68a6fb	-0.0141999675
147	0xbded3cfa	-0.11583896
148	0x3d3933f2	0.045215555
149	0xbb87417d	-0.00412768
150	0x3dd2f2c8	0.10300213
151	0xbe2a21aa	-0.16614404
152	0xbda630e4	-0.08114794
153	0x3d3650dd	0.04451071
154	0x3d97e7f1	0.07417286
155	0xbe2a3181	-0.16620447
156	0x3e06bc6c	0.13157815
157	0x3dd21af9	0.10259051
158	0xbe250878	-0.16116512
159	0x3d651675	0.05592962
160	0xbe103b73	-0.14085178
161	0xbd96e9d0	-0.07368815
162	0xbd64a2e6	-0.055819415
163	0x3dc18024	0.09448269
164	0xbd249de3	-0.040189635
165	0xbcc1d67e	-0.023661848
166	0xbd3cb6c9	-0.046072755
167	0x3c77ed95	0.015132328
168	0x3d666b97	0.05625495
169	0xbd5a7bbd	-0.053340662
170	0xbdc540df	-0.09631514
171	0x3dca560b	0.09879693
172	0x3dcfffa3	0.10156181
173	0x3d8b2f5e	0.06796144
174	0x3d4dc424	0.050235882
175	0x3db251bd	0.087069966
176	0xbd987461	-0.074440725
177	0x3d95511c	0.07290861
178	0xbbe5c588	-0.007012073
179	0xbe16a780	-0.14712334
180	0x3cdf164a	0.027232308
181	0x3dc55125	0.09634618
182	0xbd92a3ee	-0.07160173
183	0xbd38c55c	-0.04511009
184	0x3d6c0f7c	0.057631955
185	0x3ddaf70d	0.106916524
186	0x3c419b6a	0.011816839
187	0xbe16a770	-0.1471231
188	0xbdaa5d2f	-0.083185546
189	0x3d893d44	0.067011386
190	0x3ccf880d	0.025333429
191	0x3dd96b65	0.10616187
192	0xbd60b6e2	-0.05486191
193	0x3d0a2499	0.03372631
194	0x3c529bfb	0.012854571
195	0xbae10e02	-0.0017170312
196	0xbd1abe17	-0.03777894
197	0xbd41b0fa	-0.04728792
198	0xbdac7145	-0.08420042
199	0xbdd5ec2b	-0.10445436
200	0xbc7fa4b3	-0.015603232
201	0x3e040dec	0.12895936
202	0x3d7167af	0.05893677
203	0xbd702d21	-0.05863679
204	0x3e0d5bce	0.13804552
205	0xbe0fe0c8	-0.14050591
206	0xbdf7b4e1	-0.12095047
207	0xbd447705	-0.04796507
208	0xbca11b81	-0.019666435
209	0x3e0df7f1	0.13864113
210	0xbc7ea698	-0.015542649
211	0x3d85883a	0.06520124
212	0x3df3d5ae	0.119059905
213	0x3e0dcdb7	0.13848005
214	0xbe02b7a9	-0.12765373
215	0x3d849a29	0.06474716
216	0xbd96c0b5	-0.07360975
217	0xbdaed4b2	-0.08536662
218	0x3da5704a	0.08078058
219	0xbce1aa9a	-0.02754717
220	0xbe0db00c	-0.13836688
221	0xbd41779f	-0.04723322
222	0xbdc26d81	-0.094935425
223	0xbbf36e86	-0.007428947
224	0xbe05f814	-0.13082916
225	0xbe0fc29e	-0.14039084
226	0xbd8f4e0b	-0.069973074
227	0xbd95e823	-0.07319667
228	0x3d49aed7	0.049239006
229	0x3d6393de	0.05556094
230	0x3d3a82cb	0.04553489
231	0xbd49e2fa	-0.049288727
232	0x3d4d32fe	0.050097458
233	0x3cc1f587	0.023676647
234	0x3d6855f8	0.05672261
235	0x3c37d232	0.011219548
236	0x3bea21a0	0.0071451217
237	0xbc473074	-0.012157548
238	0xbdb8c542	-0.09021999
239	0xbe00f547	-0.12593566
240	0xbd140350	-0.03613597
241	0xbce8c675	-0.028414944
242	0x3e23e321	0.16004612
243	0xbcaf8a06	-0.02142812
244	0x3d0f9f37	0.03506395
245	0x3de78d72	0.113062754
246	0xbd9d18c3	-0.076707385
247	0x3df5459a	0.11976166
248	0x3d3577c1	0.04430366
249	0x3db74abf	0.089498036
250	0xbe299543	-0.16560845
251	0xbcc31720	-0.023814738
252	0xbdd6fbd2	-0.1049725
253	0xbce6d2b3	-0.028176641
254	0x3e1831c4	0.14862734
255	0xbe023985	-0.12717254

input_layer.bias f4 [42]
0	0x3d4bb380	0.04973173
1	0x3d8ceb51	0.068808205
2	0x3def08e8	0.116716206
3	0x3da1e3f9	0.079048105
4	0x3ddcbfdc	0.10778782
5	0x3dd68f0d	0.104765035
6	0x3db141f9	0.086551614
7	0xbdaa5260	-0.08316493
8	0xbd47aa5a	-0.048746444
9	0xbcdd49a4	-0.027012654
10	0x3cb48c2a	0.022039492
11	0xbd3a493e	-0.045480005
12	0xbd2a2d6d	-0.041547228
13	0xbcf2007b	-0.029541245
14	0xbdf5e382	-0.12006284
15	0x3dd61d49	0.104548045
16	0x3bdca960	0.0067340583
17	0x3d2cd5d7	0.04219612
18	0x3ca0be30	0.019621938
19	0x3d1c0d64	0.038098708
20	0xbe05ad59	-0.13054408
21	0xbd435a65	-0.04769363
22	0xbe017c58	-0.1264509
23	0x3dd6964b	0.10477885
24	0xbcb81ef7	-0.022475703
25	0x3deda8f0	0.11604488
26	0x3e0519f9	0.12998189
27	0x3daaab7a	0.08333488
28	0x3e045714	0.12923843
29	0x3d9b769d	0.07590983
30	0x3e13782c	0.1440131
31	0xbdce1c9e	-0.10064052
32	0x3dd9229f	0.106023066
33	0x3ddc937f	0.1077032
34	0xbdf40f5a	-0.119169906
35	0xbd3e057c	-0.04639195
36	0xbdab496f	-0.08363616
37	0x3e1d9cd3	0.15391855
38	0xbc7598a8	-0.014990009
39	0x3b87084c	0.004120862
40	0x3d42e63e	0.047582857
41	0xbe1bb6db	-0.15206473

hidden_layers.0.weight f4 [42, 42]
0	0x3d9c8e92	0.07644381
1	0x3ded7408	0.11594397
2	0xbdccc9ed	-0.09999452
3	0x3dad3477	0.084572725
4	0x3dd24761	0.10267521
5	0xbd414afc	-0.04719065
6	0xbb85a300	-0.004078269
7	0x3e1b36e5	0.1515766
8	0x3dd8c27e	0.105839714
9	0xbe00ba82	-0.12571147
10	0x3dac5674	0.08414927
11	0x3d1433df	0.03618228
12	0x3da36e4e	0.07980023
13	0x3da81b46	0.08208327
14	0xbd942117	-0.07232874
15	0x3daf60f5	0.08563415
16	0x3c9cbc48	0.019132748
17	0xbdcf56b6	-0.10123961
18	0x3d9eea5f	0.077595465
19	0xbe125219	-0.1428913
20	0xbdd23688	-0.10264307
21	0xbd10958e	-0.035298876
22	0x3ddcf20a	0.10788353
23	0x3d97db9c	0.07414934
24	0x3d9fd5e2	0.07804467
25	0xbdd11c56	-0.10210483
26	0xbe1aed4b	-0.15129583
27	0xbd873e4b	-0.06603678
28	0xbcff10fd	-0.03113603
29	0x3d2a6014	0.041595533
30	0x3de5e2c8	0.11224896
31	0x3d2f5a12	0.042810507
32	0xbcf7c5c1	-0.030245664
33	0xbe147cad	-0.14500685
34	0x3d2a77d0	0.04161817
35	0x3dd58f82	0.104277626
36	0xbdadf0bf	-0.08493184
37	0x3da6b94b	0.081408106
38	0x3c8d0108	0.017212406
39	0x3d46b2f0	0.04851049
40	0xbd6a8a53	-0.057260823
41	0xbbc1dc20	-0.0059161335
42	0xbd4cd1c4	-0.050004736
43	0xbdd115cf	-0.10209238
44	0x3da05e38	0.07830471
45	0x3d20c888	0.03925374
46	0xbd7bd5a8	-0.061483055
47	0x3e01fadf	0.12693356
48	0xbd26799a	-0.040643312
49	0xbce210e0	-0.027595937
50	0x3e18bf01	0.14916612
51	0x3c8e2498	0.017351434
52	0xbc996528	-0.018724993
53	0xbdbf5bba	-0.09343667
54	0xbd8180aa	-0.06323369
55	0xbd0df858	-0.034660667
56	0x3e035917	0.12826954
57	0xbe0f3d90	-0.13988328
58	0xbd0da2a0	-0.03457892
59	0xbd8332ec	-0.06406197
60	0xbda4b691	-0.08042634
61	0xbd9b7f2c	-0.075926155
62	0x3e180623	0.14846091
63	0xbda5863b	-0.08082243
64	0xbd1278aa	-0.035759605
65	0xbe059a8a	-0.13047233
66	0x3d6145e4	0.054998294
67	0xbdd50c76	-0.10402767
68	0x3d9ed780	0.07755947
69	0xbd10d54e	-0.035359673
70	0xbd41663c	-0.04721664
71	0x3c70d250	0.01469858
72	0xbdd09416	-0.10184495
73	0xbdaf7517	-0.08567255
74	0x3dbadaf4	0.09123793
75	0x3e088d9d	0.13335271
76	0xbd54bad2	-0.05193598
77	0xbc580c20	-0.013186485
78	0x3dcfe296	0.1015064
79	0xbdb63478	-0.08896726
80	0x3b7d1900	0.0038619637
81	0x3dd8017e	0.105471596
82	0xbd8be5e3	-0.06830957
83	0xbd123422	-0.03569425
84	0x3e234eb2	0.15947989
85	0x3c43fadb	0.011961664
86	0x3dfbd0e2	0.122957006
87	0x3e161b09	0.1465875
88	0x3ced9de8	0.02900596
89	0x3b7e4ce8	0.0038803164
90	0x3dc7a1bf	0.097476475
91	0xbc6889a8	-0.014192976
92	0xbdf8581d	-0.12126181
93	0xbdf72fc5	-0.12069658
94	0x3e152fa6	0.14568958
95	0xbdb77938	-0.089586675
96	0xbe089fd2	-0.13342217
97	0x3d1f6561	0.03891504
98	0x3d7ea307	0.062167194
99	0x3c908ac6	0.017644297
100	0xbd9439b7	-0.07237571
101	0x3da867e1	0.08222938
102	0x3e2329b6	0.1593388
103	0x3dec34b6	0.11533491
104	0x3d96db57	0.073660545
105	0xbc3320dd	-0.010933128
106	0x3e01ee87	0.12688647
107	0xbe02fb7c	-0.12791246
108	0x3cd332ef	0.025781123
109	0xbdd9d2a9	-0.10635883
110	0xbd89e995	-0.06734005
111	0xbdffcac1	-0.12489844
112	0x3c3d7172	0.011562692
113	0xbdacec8b	-0.084435545
114	0xbcd2c81d	-0.025730187
115	0x3d888d15	0.06667534
116	0xbc6df1ab	-0.01452295
117	0x3df492a0	0.11942029
118	0xbdd8a693	-0.105786465
119	0x3da8a0f0	0.082338214
120	0x3d9aeb46	0.07564406
121	0x3c32c600	0.010911465
122	0xbdeb4395	-0.114874996
123	0x3d4a096d	0.049325395
124	0x3d51cc4c	0.051220223
125	0xbe116c8e	-0.14201567
126	0xbdbcd27a	-0.09219833
127	0x3e122bda	0.1427454
128	0xbdce47a4	-0.10072258
129	0xbbb4d4f4	-0.00551855
130	0xbd82efda	-0.06393404
131	0xbdb4b64e	-0.08823834
132	0x3dcf7ac0	0.101308346
133	0x3c0f5bc6	0.008749908
134	0xbccba6c2	-0.02485979
135	0x3e1679c9	0.14694895
136	0xbb5b0b19	-0.0033423363
137	0xbd84b264	-0.06479338
138	0x3d8a3a2a	0.06749375
139	0xbd1fe5fd	-0.039037693
140	0xbda6e75e	-0.081495985
141	0xbdafea41	-0.08589602
142	0x3d1f5ed1	0.038908783
143	0xbdf4888f	-0.11940109
144	0xbd920f09	-0.07131774
145	0x3cdc16d1	0.026866348
146	0xbda006cc	-0.078137964
147	0xbdbf93cd	-0.09354363
148	0x3dc5b8a2	0.096543565
149	0xbd6c8c44	-0.057750955
150	0x3cc694b6	0.024240833
151	0x3da17877	0.07884305
152	0x3e205a50	0.15659451
153	0xbd705e8c	-0.058683917
154	0x3c5195c7	0.012792057
155	0xbe00bc36	-0.12571797
156	0x3d179794	0.03700979
157	0x3e13c21d	0.14429517
158	0xbddeb93c	-0.108751744
159	0xbda4fc14	-0.080558926
160	0x3d92d143	0.0716882
161	0xbdcbfb69	-0.09960062
162	0xbd1daa6c	-0.038492605
163	0x3d9b6c30	0.075889945
164	0xbc8e7ce2	-0.017393533
165	0x3d96d0d3	0.07364049
166	0x3d87afad	0.06625304
167	0x3dee9746	0.11649947
168	0x3c5ea488	0.013589032
169	0x3cd4e603	0.025988584
170	0x3c24dea1	0.0100628445
171	0x3e00da6b	0.1258332
172	0xbd464bea	-0.04841224
173	0xbd3cc3f3	-0.04608531
174	0xbd10bda8	-0.03533712
175	0x3e01be53	0.12670259
176	0x3d1ececd	0.03877144
177	0x3e0d401b	0.13793986
178	0x3d105664	0.03523864
179	0x3d5787c0	0.052619696
180	0x3dc058a6	0.09391908
181	0x3dfa29b7	0.12214988
182	0x3dfbf818	0.123031795
183	0x3e0e8d5c	0.13921112
184	0xbddda25f	-0.108219855
185	0x3cdef661	0.027217092
186	0x3daeb729	0.08531029
187	0xbdfd50c1	-0.12368918
188	0x3d1ec25c	0.038759574
189	0xbc85f196	-0.016350549
190	0x3d14dea4	0.03634514
191	0x3ce88524	0.028383799
192	0x3d2ff5f7	0.04295918
193	0xbe07246c	-0.13197488
194	0xbe1356c5	-0.14388569
195	0x3df5d2c2	0.120030895
196	0x3d69788e	0.056999736
197	0x3d4b9dfa	0.049711205
198	0xbc5d3864	-0.013502214
199	0xbdbed40e	-0.0931779
200	0xbdd51099	-0.104035564
201	0xbd0dbd7f	-0.034604546
202	0x3d5c8b4e	0.05384379
203	0xbb4d05c0	-0.0031283945
204	0x3deb904b	0.11502131
205	0xbc92a22e	-0.017899599
206	0x3dd617b9	0.104537435
207	0xbd8a7b42	-0.06761791
208	0xbdda8944	-0.106707126
209	0xbca68a40	-0.020329595
210	0xbde08fc3	-0.1096492
211	0xbe052c7f	-0.13005255
212	0xbd0a1771	-0.03371376
213	0xbd3f0a13	-0.046640467
214	0xbd49bfe1	-0.049255256
215	0x3d065587	0.03279641
216	0xbc71f1de	-0.014767138
217	0xbd2f3e4d	-0.042784024
218	0xbc8d9ef0	-0.017287701
219	0xbd43b5df	-0.047780868
220	0x3dec0ecb	0.11526259
221	0xbc8c2573	-0.0171077
222	0xb9bd4e24	-0.00036107108
223	0xbd7bfc07	-0.06151965
224	0xbe0c8767	-0.13723527
225	0xbc38ef1c	-0.011287477
226	0xbe019e1e	-0.12657973
227	0xbe0cf553	-0.13765459
228	0x3d0030c0	0.03129649
229	0xbcbc5ce9	-0.022993522
230	0xbd9fe18e	-0.07806693
231	0xbd2764b3	-0.04086752
232	0x3e118aa9	0.14213051
233	0x3c2ecb81	0.010668636
234	0x3dd11801	0.102096565
235	0xbd52a7aa	-0.05142943
236	0x3dfbbaef	0.12291514
237	0x3e06e3a7	0.1317278
238	0x3d8cc546	0.068735644
239	0x3dfc71e4	0.123264104
240	0x3b3e20fe	0.0029011364
241	0x3d12e54d	0.03586321
242	0x3da1eb5d	0.0790622
243	0x3dc827aa	0.0977319
244	0xbdbc7099	-0.09201164
245	0xbd563b0a	-0.052302398
246	0x3dd6396a	0.104601696
247	0x3d1e5c50	0.038662255
248	0x3d832368	0.064032376
249	0x3d105ea8	0.03524652
250	0x3d6cb4f4	0.057789758
251	0x3ce0a278	0.027421221
252	0xbd3fe142	-0.046845682
253	0x3db27cea	0.08715232
254	0x3d4024bc	0.046910033
255	0xbdbc758f	-0.0920211

hidden_layers.0.bias f4 [42]
0	0xbd10209c	-0.03518735
1	0xbd4f20b0	-0.050568283
2	0x3e1eb5f3	0.15499096
3	0x3ddeedce	0.108852014
4	0x3d6ea814	0.05826576
5	0x3dba700f	0.09103405
6	0xbe023ab7	-0.1271771
7	0x3d1c38f4	0.038140252
8	0xbdf023ed	-0.11725602
9	0x3d7c35b9	0.06157467
10	0xbcb9a834	-0.022663213
11	0x3da96db5	0.08272878
12	0xbdf2d93c	-0.118578404
13	0x3deb30ed	0.11483941
14	0x3d7eafb2	0.062179275
15	0x3dce903f	0.100861065
16	0xbe164828	-0.14675963
17	0xbcbb3e73	-0.022856927
18	0xbda0a1d7	-0.078433685
19	0xbd820831	-0.06349219
20	0xbc539c8d	-0.012915743
21	0xbd84828c	-0.06470212
22	0xbdbdaffa	-0.092620805
23	0xbd9d2919	-0.076738544
24	0x3d7e9708	0.062155753
25	0x3d928f7d	0.071562745
26	0x3d816cdd	0.06319592
27	0xbdf35bc7	-0.118827395
28	0xbd531d0a	-0.051541366
29	0x3d8ce91d	0.068804
30	0xbda56f51	-0.080778725
31	0xbb3ba3c2	-0.0028631543
32	0x3d0c711a	0.03428755
33	0xbde5aae4	-0.112142354
34	0xbdeb4fe3	-0.114898466
35	0xbe06b204	-0.13153845
36	0xbe184012	-0.14868191
37	0xbdffb220	-0.124851465
38	0xbde6cc74	-0.11269465
39	0x3d6b5ee7	0.057463553
40	0xbc5279d0	-0.012846425
41	0x3d3649e0	0.044504046

hidden_layers.1.weight f4 [42, 42]
0	0x3e1230da	0.14276448
1	0xbcb2c908	-0.021824375
2	0x3d051e59	0.032499645
3	0x3e1d01d5	0.1533273
4	0x3e07d0b6	0.1326321
5	0xbdd7bb6d	-0.105337955
6	0x3e17ef79	0.14837445
7	0x3df8d1a0	0.12149358
8	0xbd65ad96	-0.056073748
9	0x3e0058aa	0.12533823
10	0xbd46feeb	-0.048582952
11	0xbe025135	-0.1272629
12	0x3e208558	0.15675867
13	0x3dedd264	0.116123945
14	0x3e144121	0.1447797
15	0x3d819612	0.06327452
16	0x3e0b58d7	0.13608108
17	0xbe02629a	-0.12732926
18	0x3e1582c2	0.14600661
19	0xbd42a25e	-0.047518127
20	0xbddcc702	-0.10780145
21	0xbdd64ad5	-0.10463492
22	0x3dac7d52	0.084223405
23	0xbde946e5	-0.11390475
24	0x3cc5e12e	0.024155226
25	0xbdc96515	-0.09833733
26	0x3d90c7f0	0.07069385
27	0x3e111599	0.14168395
28	0x3b9c4e60	0.004770085
29	0x3dd18af9	0.10231585
30	0xbd778764	-0.060431853
31	0xbc339072	-0.010959731
32	0xbde62ed0	-0.112393975
33	0x3de13736	0.10996859
34	0x3d33ca64	0.043894187
35	0xbbd6cb80	-0.006555021
36	0x3ca36890	0.01994732
37	0xbd7f6f86	-0.062362216
38	0xbdc3c810	-0.09559643
39	0xbd07bab9	-0.033137057
40	0x3c970def	0.018439261
41	0x3df7d4c8	0.12101132
42	0xbdd8f072	-0.10592736
43	0x3d863284	0.06552604
44	0xbe0c656a	-0.13710561
45	0xbe068695	-0.13137276
46	0xbc5ebf49	-0.013595411
47	0xbd258a46	-0.04041507
48	0xbbafe800	-0.0053682327
49	0xbd72da02	-0.05928994
50	0x3e078484	0.13234144
51	0xbd94fd03	-0.07274821
52	0x3e13f805	0.1445008
53	0x3ca8411b	0.020538857
54	0xbdd1aaa7	-0.102376275
55	0x3e1f0675	0.15529807
56	0x3d15738a	0.03648714
57	0xbe0a515f	-0.13507603
58	0xbe0300d5	-0.12793286
59	0x3d8e8368	0.069586575
60	0x3d1cf0c5	0.038315553
61	0xbdd472ba	-0.10373445
62	0x3e22dd0b	0.15904634
63	0x3da000f6	0.07812683
64	0xbd734f13	-0.059401583
65	0xbe0b7df9	-0.13622274
66	0x3cb2e22d	0.021836365
67	0xbcde37e2	-0.027126256
68	0x3e1608cd	0.14651795
69	0xbe16b0da	-0.14715901
70	0x3dcbd59a	0.09952851
71	0x3dd09485	0.10184578
72	0xbdc0e2dc	-0.0941827
73	0xbd50f349	-0.051013265
74	0x3e03c99f	0.12869881
75	0x3de3134a	0.110876635
76	0x3d9e427a	0.07727523
77	0x3e08c11b	0.13354914
78	0x3d6f4a44	0.058420435
79	0xbdafaacf	-0.08577501
80	0xbe076949	-0.13223757
81	0xbdb1e933	-0.08687057
82	0x3d202671	0.03909916
83	0xbe09ed80	-0.13469505
84	0xbda65e8e	-0.081235036
85	0x3cfa5160	0.03055638
86	0xbd2e3a5d	-0.04253613
87	0xbdebd676	-0.115155146
88	0x3cf40bb5	0.029790739
89	0xbdb785f7	-0.08961099
90	0xbe09014b	-0.133794
91	0xbd972e12	-0.07381834
92	0xbdf02540	-0.11725855
93	0xbe0c45df	-0.13698529
94	0x3db8bc2b	0.09020265
95	0x3c9ad520	0.018900454
96	0x3d97daee	0.074148044
97	0x3e187508	0.14888394
98	0xbd3778f9	-0.044793103
99	0xbdf4396d	-0.119250156
100	0xbd66b316	-0.056323133
101	0xbdc78371	-0.09741867
102	0xbddde31d	-0.10834334
103	0xbc48bfb0	-0.012252733
104	0x3e04c325	0.12965067
105	0xbda177ac	-0.07884154
106	0xbd90955b	-0.07059737
107	0x3dc570b1	0.09640635
108	0xbc393d34	-0.011306096
109	0x3e131e58	0.14367044
110	0xbdff3e04	-0.124630004
111	0x3dd56d12	0.10421194
112	0xbd836512	-0.06415762
113	0xbdb5f088	-0.08883768
114	0x3dd98f06	0.10622983
115	0xbc0b0ce3	-0.008486959
116	0x3e276c7b	0.16349976
117	0xbd8e7095	-0.06955067
118	0x3dc90b3f	0.09816598
119	0xbd8d4b48	-0.068991244
120	0xbe0a6922	-0.13516667
121	0xbd77f03e	-0.060531847
122	0x3c963b28	0.018338755
123	0xbde63343	-0.11240246
124	0xbda13114	-0.07870689
125	0x3dada6f5	0.0847911
126	0x3ca3f4c8	0.020014182
127	0x3d0ec7d8	0.034858555
128	0x3dddd00e	0.10830699
129	0x3d9ccf6a	0.076567486
130	0x3c0ace70	0.00847207
131	0x3dcb57f6	0.099288866
132	0xbd9b25d2	-0.07575573
133	0xbc326040	-0.010887206
134	0xbce972c8	-0.028497115
135	0x3dd5b1e6	0.10434322
136	0xbd2fa0fe	-0.042878143
137	0x3dd23e72	0.10265817
138	0x3b6c0bc0	0.0036017746
139	0x3d8cc410	0.068733335
140	0xbdfab16e	-0.12240873
141	0xbd9253c3	-0.071448825
142	0x3e0ac133	0.13550262
143	0x3e06d9a7	0.13168965
144	0xbda23b96	-0.07921521
145	0x3de41436	0.111366674
146	0x3dcaef2e	0.09908901
147	0x3dd99eb6	0.10625975
148	0xbd6afa06	-0.057367347
149	0xbe1322af	-0.143687
150	0xbd8a03dd	-0.06739018
151	0xbddb0377	-0.1069402
152	0x3dc03790	0.09385598
153	0xbd1bb2ae	-0.0380122
154	0xbd8aa572	-0.067698374
155	0x3df25212	0.1183206
156	0x3bb700e0	0.005584821
157	0xbd2a20a4	-0.041535035
158	0xbe0283e6	-0.12745628
159	0x3d80f69c	0.06297037
160	0x3db1c19c	0.08679506
161	0x39bc6000	0.0003592968
162	0xbde46316	-0.11151712
163	0xbd705410	-0.05867392
164	0xbde9d136	-0.11416857
165	0xbcafc630	-0.021456808
166	0xbe073b4e	-0.13206217
167	0x3dd7b65e	0.10532831
168	0x3d4e9998	0.050439447
169	0xbdcac6c1	-0.099011905
170	0x3d88cfaa	0.06680234
171	0xbcfe46ee	-0.031039681
172	0x3de32550	0.11091101
173	0x3dcf3bde	0.10118841
174	0xbbe00620	-0.0068366677
175	0x3dcb6edb	0.099332534
176	0x3dbe4470	0.09290397
177	0xbde97dc3	-0.1140094
178	0x3e211d29	0.1573378
179	0x3d19ff8e	0.03759723
180	0x3dc11920	0.0942862
181	0x3de336b2	0.11094417
182	0x3db2ed2e	0.08736645
183	0x3df5231e	0.11969589
184	0xbd34288a	-0.043983974
185	0xbd468a32	-0.048471637
186	0x3c77490b	0.015093098
187	0x3d758280	0.059938908
188	0xbdbd7a75	-0.092518725
189	0xbc1928de	-0.009348122
190	0x3d2a3fc0	0.041564703
191	0xbbb264fb	-0.0054441667
192	0xbda3c7a0	-0.0799706
193	0xbd660a99	-0.05616245
194	0x3da2253f	0.079172604
195	0xbd81b19c	-0.063327044
196	0xbdcb35c6	-0.09922366
197	0xbc185c20	-0.009299308
198	0x3c531330	0.012882993
199	0x3e13bc66	0.14427337
200	0x3d84ae80	0.06478596
201	0xbb76c280	-0.0037652552
202	0x3ccc534f	0.024942068
203	0xbded8465	-0.11597518
204	0x3dca8182	0.09887983
205	0xbe0a90ac	-0.1353175
206	0x3e03a61f	0.12856339
207	0xbdf0f4cf	-0.117654435
208	0xbe01996e	-0.12656185
209	0x3da1717e	0.07882975
210	0x3dd507ee	0.10401903
211	0xbc8032e8	-0.015649274
212	0xbd4392e9	-0.047747526
213	0xbcaf88d4	-0.02142755
214	0x3e261b1f	0.16221283
215	0x3e25e656	0.16201147
216	0x3c517870	0.012785062
217	0xbd521fb7	-0.051299777
218	0xbe06f9bc	-0.13181204
219	0xbd83533e	-0.064123616
220	0xbd171a79	-0.03689048
221	0x3c52c6d6	0.012864789
222	0x3ddf9170	0.10916412
223	0x3e022ef3	0.12713222
224	0xbd9d2011	-0.07672132
225	0xbd39e70e	-0.045386367
226	0xbe157819	-0.14596595
227	0x3d050e35	0.032484252
228	0x3dc14521	0.094370134
229	0x3c1366d0	0.00899668
230	0xbd5e15de	-0.054220073
231	0xbdc65424	-0.09684017
232	0xbdcbac1c	-0.09944937
233	0x3cd71f88	0.026260152
234	0xbd1d0e8e	-0.03834396
235	0x3e1c8ffb	0.15289299
236	0x3c631b55	0.013861497
237	0xbe0b633d	-0.13612075
238	0xbca6b3e0	-0.020349443
239	0xbdfe30ea	-0.12411673
240	0xbc9bd298	-0.019021317
241	0x3bd1a6f4	0.006398076
242	0x3d578bbb	0.05262349
243	0x3d6f5a9c	0.05843602
244	0xbd83e7a6	-0.06440668
245	0x3d8661ac	0.06561598
246	0xbc78be70	-0.015182123
247	0x3c876620	0.01652819
248	0x3ce36b48	0.027761117
249	0xbd1355ef	-0.035970625
250	0xbdfaf83e	-0.1225438
251	0xbd98c29b	-0.07458993
252	0xbd145e9e	-0.036223046
253	0xbe177288	-0.14789784
254	0xbd535c5c	-0.051601753
255	0x3d8e6f50	0.06954825

hidden_layers.1.bias f4 [42]
0	0x3dca1377	0.09866994
1	0xbd1faba6	-0.038982056
2	0x3d711fd4	0.058868244
3	0xbe19ac0d	-0.15007038
4	0x3d5c7e92	0.053831644
5	0x3e2401c3	0.16016297
6	0xbcc188d0	-0.023624808
7	0xbb2ab0c0	-0.0026045293
8	0x3c843992	0.016140733
9	0xbe0a4469	-0.13502659
10	0x3de37b6e	0.11107527
11	0x3d483036	0.048874103
12	0x3e287df0	0.16454291
13	0x3dea39e0	0.1143682
14	0x3dfa174d	0.122114755
15	0xbdc15f5f	-0.09442019
16	0x3d561952	0.05227024
17	0x3e1debbd	0.15421958
18	0x3e03385c	0.12814468
19	0x3ddfec50	0.10933745
20	0xbd15ded7	-0.03658947
21	0xbdf5690c	-0.11982927
22	0x3cdcc9aa	0.02695163
23	0xbdd32ad7	-0.103109054
24	0x3d69857b	0.057012063
25	0xbdf94e0a	-0.12173088
26	0xbd9743a2	-0.07385947
27	0x3d8ee34c	0.06976947
28	0x3d3ce11c	0.04611312
29	0xbdfa8fb6	-0.12234442
30	0xbe173d10	-0.14769387
31	0x3cba0c9f	0.022711096
32	0xbde5e3ce	-0.11225091
33	0x3cd31a10	0.025769264
34	0xbab3a66c	-0.0013706214
35	0x3d8e335c	0.0694339
36	0x3e0a2b54	0.13493091
37	0xbd675a0c	-0.05648236
38	0x3b0d325a	0.0021544904
39	0xbc88628f	-0.016648559
40	0x3e13aacd	0.14420624
41	0xbc6f4c30	-0.014605567

hidden_layers.2.weight f4 [42, 42]
0	0xbcc5e6f0	-0.024157971
1	0xbda0c9c3	-0.07850983
2	0xbe03952c	-0.12849873
3	0xbcdc7050	-0.026909024
4	0xbd665fec	-0.056243822
5	0x3e07deff	0.1326866
6	0xbc766900	-0.015039682
7	0xbe17f2bd	-0.14838691
8	0x3cd89a10	0.02644065
9	0x3c6dbbd0	0.01451011
10	0xbd288b32	-0.041148372
11	0x3ddd2f36	0.108000204
12	0xbe1ce13b	-0.15320294
13	0xbe1563ec	-0.14588898
14	0x3d9a923a	0.07547422
15	0xbc300ca0	-0.010745198
16	0xbdeedc22	-0.11663081
17	0x3defb2a2	0.117039934
18	0xbc9515e8	-0.018198922
19	0x3e10e8df	0.14151333
20	0x3df71066	0.12063675
21	0xbc345fb0	-0.011009142
22	0xbd138636	-0.036016665
23	0xbde704b2	-0.112801924
24	0x3db7f208	0.08981711
25	0xbe14dcb0	-0.1453731
26	0x3d5bddfc	0.053678498
27	0xbd615926	-0.05501666
28	0xbdba1d54	-0.09087625
29	0xbca8e138	-0.020615205
30	0xbc52afc0	-0.012859285
31	0xbdc85464	-0.09781721
32	0x3da2a2f2	0.079412356
33	0xbdfd07c5	-0.123549975
34	0x3e1d0365	0.15333326
35	0x3d9613d0	0.07327998
36	0xbcb1f8c8	-0.021725073
37	0x3e09507d	0.1340961
38	0x3cf83c18	0.030302092
39	0xbdf932ce	-0.12167893
40	0xbd6f1cea	-0.058377184
41	0xbdb4b011	-0.088226445
42	0x3dd7bbb2	0.10533847
43	0x3caec3e0	0.021333635
44	0x3e1ba7f5	0.1520079
45	0xbdf435af	-0.11924302
46	0xbd11b7a6	-0.03557553
47	0xbab01d00	-0.0013436377
48	0x3dbdcfc0	0.09268141
49	0x3cd9ec28	0.026601866
50	0xbdb35ac2	-0.08757545
51	0x3c3cd7f0	0.011526093
52	0xbe02d6ef	-0.12777303
53	0x3df87d6a	0.12133296
54	0xbe1520f5	-0.14563353
55	0xbe054138	-0.1301316
56	0xbd91d55c	-0.07120773
57	0xbdc61a76	-0.09673016
58	0xbd52ab82	-0.051433094
59	0xbdc06ce7	-0.093957715
60	0xbdbb5ba3	-0.09148338
61	0xbd5e5114	-0.05427654
62	0xbe1056f6	-0.14095673
63	0x3e0345c7	0.12819587
64	0x3bec6180	0.0072137713
65	0x3dea5452	0.11441864
66	0xbc3caa30	-0.011515185
67	0x3dfb24a2	0.122628465
68	0xbcf208a0	-0.029545128
69	0xbe1928a3	-0.14956908
70	0xbd261b9e	-0.04055368
71	0x3c580940	0.013185799
72	0xbdcfa6f4	-0.10139266
73	0x3bcbd540	0.0062204897
74	0x3d9dd6ce	0.07706986
75	0xbc794e40	-0.01521641
76	0x3dc77ce2	0.097406164
77	0x3aa60700	0.0012666881
78	0x3ded0d36	0.115747854
79	0xbdc8c10c	-0.09802446
80	0x3e094719	0.13406028
81	0xbdbd7a5e	-0.09251855
82	0x3dc0995c	0.09404251
83	0x3dfda962	0.12385823
84	0xbd89cd13	-0.06728568
85	0xbdbfc5ae	-0.09363876
86	0x3db908e2	0.090348974
87	0xbd67efae	-0.05662506
88	0x3cfcaf90	0.030845433
89	0xbde7e0de	-0.11322187
90	0x3dbbe0a0	0.09173703
91	0x3df66582	0.1203108
92	0x3d914b2c	0.07094416
93	0x3db81e76	0.08990185
94	0xbe06bbe1	-0.13157608
95	0xbc60ca10	-0.01372005
96	0xbda27397	-0.07932203
97	0x3d9f444c	0.077766985
98	0x3d34c220	0.044130445
99	0xbe0e44c3	-0.13893418
100	0xbe189329	-0.14899887
101	0xbdabd698	-0.0839054
102	0xbd329f42	-0.04360891
103	0xbdcc3a80	-0.099720955
104	0x3d99054a	0.07471712
105	0xbd8972b8	-0.06711334
106	0xbcacf2e0	-0.021111906
107	0x3d78d0ec	0.06074612
108	0x3dadb2b6	0.08481352
109	0x3e0fd7b5	0.1404713
110	0xbda92671	-0.08259285
111	0xbdd594fe	-0.10428809
112	0x3e022da3	0.12712722
113	0xbc6a53d0	-0.014302209
114	0x3e1ae0b9	0.15124787
115	0xbd2edc14	-0.04269035
116	0x3cd827b0	0.026386112
117	0x3ce8e6e8	0.028430417
118	0x3d0b8928	0.03406635
119	0xbcc67590	-0.02422598
120	0xbb009340	-0.0019619018
121	0xbe073a81	-0.13205911
122	0x3e152cf3	0.14567928
123	0x3ddfeb3a	0.10933538
124	0xbe0c3e06	-0.13695535
125	0x3d7d1a60	0.06179273
126	0x3d81f4a6	0.06345491
127	0x3d7a2bac	0.061076805
128	0xbd236c60	-0.039898276
129	0xbe0e2051	-0.13879515
130	0x3e19eeb2	0.15032461
131	0xbe100320	-0.14063692
132	0xbcf15bb0	-0.029462665
133	0x3d67252c	0.056431934
134	0x3d824bba	0.063621
135	0x3d30b164	0.043137923
136	0xbbe595f1	-0.0070064
137	0x3d9891ca	0.07449682
138	0x3d9fc63a	0.078014806
139	0x3c9e8d1b	0.019354394
140	0xbd9620fd	-0.07330511
141	0xbdd94a75	-0.10609905
142	0x3d43f94c	0.04784517
143	0xbe10759d	-0.14107366
144	0x3d932e26	0.071865365
145	0xbe057d69	-0.13036121
146	0xbcdf4257	-0.027253313
147	0x3db5453e	0.088510975
148	0x3d5ccdce	0.05390721
149	0xbdd1d3c6	-0.10245471
150	0xbd29816b	-0.04138319
151	0x3e0528eb	0.1300389
152	0xbde4b74a	-0.11167772
153	0xbe0bd712	-0.13656262
154	0x3d9a9cbe	0.075494274
155	0x3dd86732	0.10566558
156	0xbd57a5f6	-0.052648507
157	0x3dd75717	0.10514658
158	0x3d29d964	0.041467085
159	0x3dc9e84a	0.09858759
160	0xbde56daf	-0.11202561
161	0xbd36103c	-0.044449076
162	0xbd8c4bae	-0.06850372
163	0xbdf6e37a	-0.120551065
164	0xbd843bb5	-0.06456701
165	0x3cf5ad66	0.02998991
166	0x3c5a0501	0.013306857
167	0xbd263abe	-0.040583365
168	0xbb9f7540	-0.004866272
169	0x3dd2acd2	0.10286869
170	0xbe0e4193	-0.13892202
171	0xbb7a7000	-0.003821373
172	0x3de09306	0.109655425
173	0xbd72acec	-0.059246942
174	0xbd9b8705	-0.07594112
175	0x3cb8ea10	0.022572547
176	0xbd967e3b	-0.07348295
177	0xbdfc2d24	-0.123132974
178	0x3cdf7f80	0.027282476
179	0xbc9acd10	-0.01889661
180	0x3da0c786	0.07850556
181	0xbd1c79a2	-0.038201936
182	0x3c326430	0.010888144
183	0x3db96002	0.09051515
184	0x3d9f687a	0.07783599
185	0x3e02ef21	0.12786533
186	0xbe150c9e	-0.14555594
187	0xbcd975c0	-0.026545405
188	0x3ddeb6ae	0.10874687
189	0x3e1affb1	0.15136601
190	0xbc366f70	-0.011134967
191	0xbda937c3	-0.08262589
192	0xbd1d158a	-0.03835062
193	0xbe057b0b	-0.13035218
194	0xbda561fd	-0.080753304
195	0x3e00075b	0.12502806
196	0x3d97f334	0.07419434
197	0x3d59386c	0.053032324
198	0xbe1bab7d	-0.15202136
199	0xbd35e408	-0.04440692
200	0x3cbd2010	0.023086578
201	0x3cf2ba58	0.029629871
202	0x3dee0a46	0.11623053
203	0x3d51c504	0.05121328
204	0xbd6fd274	-0.058550313
205	0xbd9f0339	-0.077642865
206	0x3e17e0bd	0.14831825
207	0x3d742288	0.059603244
208	0xbd3b10d2	-0.045670338
209	0x3d2b2230	0.04178065
210	0xbdf122de	-0.117742285
211	0x3dbbe0b6	0.091737196
212	0x3d1d4792	0.038398333
213	0x3e11ca8d	0.14237423
214	0xbddee423	-0.108833574
215	0x3c17af66	0.009258127
216	0xbe13cb8d	-0.14433117
217	0xbda39da5	-0.07989053
218	0x3e12371e	0.14278838
219	0xbdc77864	-0.097397596
220	0xbd558e71	-0.052137796
221	0xbe18cef1	-0.14922692
222	0x3d7c4f0a	0.061598815
223	0x3dd2d484	0.102944404
224	0xbd573389	-0.052539382
225	0xbd783da0	-0.060605645
226	0xbd947e97	-0.072507076
227	0x3d83bd6a	0.06432612
228	0xbe04efaa	-0.1298205
229	0x3dbeb092	0.09311022
230	0x3d7864d2	0.060643025
231	0xbdf46f2c	-0.11935267
232	0xbc27d39c	-0.010243323
233	0x3ddfef8e	0.10934363
234	0x3e13297a	0.14371291
235	0x3a2c5900	0.00065745413
236	0x3df676d6	0.12034385
237	0xbdf8e79e	-0.121535525
238	0xbda92ddc	-0.082607
239	0xbd512cd2	-0.051068135
240	0x3dab85e0	0.08375144
241	0x3e0b6fe2	0.13616899
242	0x3d9ccf5a	0.07656737
243	0xbe01d3a2	-0.12678388
244	0xbd9bc1e9	-0.07605345
245	0x3daa8f2b	0.083280884
246	0xbdde4869	-0.10853655
247	0xbbead780	-0.007166803
248	0x3cd6ede3	0.02623648
249	0x3d85c93c	0.06532523
250	0x3de11c0a	0.10991676
251	0x3c4a9f10	0.012367025
252	0xbd59b154	-0.05314763
253	0xbd1d60b8	-0.038422316
254	0x3e1bfc43	0.15232949
255	0x3dac69f0	0.084186435

hidden_layers.2.bias f4 [42]
0	0xbe04d676	-0.12972435
1	0xbe023494	-0.1271537
2	0xbb386d80	-0.002814144
3	0x3de81ea2	0.11333968
4	0xbe06de1e	-0.13170668
5	0x3e15fd05	0.146473
6	0x3d9d7198	0.07687682
7	0x3e01d563	0.12679057
8	0x3d911920	0.0708487
9	0x3e15c2fa	0.14625159
10	0xbdbebb32	-0.093130484
11	0xbd919713	-0.07108893
12	0xbc200861	-0.009767623
13	0x3dc86d4a	0.0978647
14	0xbe1b6c85	-0.15178116
15	0xbde614f8	-0.11234468
16	0x3e11ca4f	0.14237331
17	0xbc86e48f	-0.016466407
18	0xbdd74f6a	-0.10513194
19	0x3e0443ab	0.12916438
20	0xbd942dda	-0.07235308
21	0xbdf3346e	-0.118752345
22	0x3c9e18d0	0.01929894
23	0xbe144977	-0.1448115
24	0x3d007a71	0.03136677
25	0x3d18a32d	0.03726499
26	0x3da92fa3	0.08261039
27	0x3e01d4fd	0.12678905
28	0x3dff0234	0.12451592
29	0x3d56e2ba	0.052462317
30	0xbdc3279c	-0.09529039
31	0x3d99f8dd	0.0751817
32	0x3d1c59cd	0.03817158
33	0xbd65132a	-0.05592648
34	0xbdf07670	-0.1174134
35	0x3e0ab39e	0.13545081
36	0xbc193f00	-0.009353399
37	0x3d419e90	0.047270358
38	0xbdf7494e	-0.12074529
39	0xbd6a860c	-0.057256743
40	0x3e28c214	0.16480285
41	0x3e25571a	0.16146508

hidden_layers.3.weight f4 [42, 42]
0	0x3cdf60d0	0.027267843
1	0x3df0b186	0.1175261
2	0xbdc4fd20	-0.09618592
3	0x3b19b311	0.002345268
4	0x3d75b2c0	0.059984922
5	0x3df7ef96	0.12106244
6	0xbdf3cd26	-0.11904363
7	0xbd014a5b	-0.03156505
8	0xbcb68420	-0.022279799
9	0xbd865865	-0.06559829
10	0xbcab5688	-0.020915285
11	0x3d22506c	0.039627478
12	0x3ca34b6f	0.01993343
13	0x3cedcc7e	0.029028174
14	0x3d8561b6	0.065127775
15	0xbd318756	-0.043341957
16	0xbde520da	-0.111879066
17	0x3e19bf9a	0.15014496
18	0x3c99da68	0.018780902
19	0xbae945b3	-0.0017797261
20	0x3cf9ef08	0.030509487
21	0xbd0613fe	-0.03273391
22	0xbd93d266	-0.07217865
23	0xbd9cd413	-0.076576374
24	0xbce8c51d	-0.028414303
25	0xbdacd375	-0.0843877
26	0xbde50b91	-0.11183847
27	0x3d64d51c	0.0558673
28	0x3d32559e	0.043538682
29	0x3ccc64a7	0.024950339
30	0x3da7bbaa	0.08190091
31	0xbdf34661	-0.11878658
32	0xbdf2e523	-0.118601106
33	0x3cbff2b0	0.023431152
34	0x3e0dc855	0.13845952
35	0x3dca33e1	0.09873176
36	0xbc34a250	-0.011025026
37	0xbdb1ad11	-0.08675588
38	0x3dff8dda	0.12478228
39	0x3b1c8740	0.0023884326
40	0x3dcdeb8c	0.100546926
41	0xbe06f705	-0.13180168
42	0xbd241c1a	-0.040065862
43	0xbe18e9bb	-0.14932911
44	0x3da9dc96	0.082940266
45	0x3db2b2a4	0.08725479
46	0x3e16537d	0.14680286
47	0x3d0f3e24	0.03497137
48	0x3d968698	0.073498905
49	0x3deb59a6	0.114917085
50	0x3d822afa	0.063558534
51	0x3ccd6908	0.025074497
52	0xbe0d93a3	-0.1382585
53	0xbe19e38d	-0.1502821
54	0x3d41c47c	0.047306523
55	0xbd5c6dfe	-0.053815834
56	0xbe169f14	-0.14709121
57	0xbe0995a2	-0.13435987
58	0x3be4b8c0	0.0069800317
59	0xbda6a5d5	-0.08137099
60	0xbc10dfd0	-0.008842424
61	0xbd9a0e02	-0.07522203
62	0xbd571118	-0.052506536
63	0x3d93f4a4	0.07224396
64	0xbd092e0a	-0.033491172
65	0xbdd0c78a	-0.10194309
66	0xbc9ebec0	-0.019378066
67	0xbd27562e	-0.04085367
68	0xbdd3848c	-0.10328016
69	0xbe17c100	-0.14819717
70	0xbcdde7d0	-0.027088076
71	0xbd717e74	-0.058958486
72	0x3df85426	0.12125425
73	0x3d8e1586	0.06937699
74	0xbd9f3633	-0.077740096
75	0xbd761ad6	-0.060084186
76	0x3cdfb580	0.027308226
77	0x3d490ce0	0.049084544
78	0xbe118558	-0.14211023
79	0x3cd1d740	0.025615335
80	0xbc427430	-0.011868522
81	0xbd8bcf45	-0.06826643
82	0xbbe35060	-0.0069370717
83	0x3a887180	0.0010409802
84	0x3ddeea2a	0.10884507
85	0xbe11314e	-0.14178964
86	0xbe0785c0	-0.13234615
87	0xbd85daf0	-0.065359
88	0x3dadce2a	0.08486588
89	0xbd039a4f	-0.032129582
90	0x3e29015e	0.16504428
91	0xbde3eaf7	-0.111288
92	0x3d08247c	0.03323792
93	0xbd518ad8	-0.051157802
94	0xbdbd0edc	-0.0923135
95	0xbda3153f	-0.07963037
96	0xbdf01c9d	-0.117242076
97	0xbd72c6dc	-0.05927168
98	0x3da098d2	0.07841648
99	0x3e0607a3	0.1308885
100	0xbdeb3917	-0.114854984
101	0x3dec583e	0.11540268
102	0x3dddebae	0.10835968
103	0xbd31d9ca	-0.04342059
104	0x3e1bd9b1	0.15219761
105	0x3d23f4e4	0.040028468
106	0x3b7e18c0	0.0038772076
107	0xbc947628	-0.018122748
108	0x3b1d0e9c	0.0023965007
109	0xbe148b7f	-0.14506339
110	0x3d58bb55	0.05291303
111	0xbdf2233e	-0.11823128
112	0x3dee8449	0.11646325
113	0xbd1ed10d	-0.038773585
114	0xbdb01dee	-0.08599459
115	0x3d98363b	0.07432219
116	0x3dbd3ef2	0.092405215
117	0x3dd5c62a	0.104381874
118	0x3e0f84ab	0.14015453
119	0x3e05424c	0.13013572
120	0x3e0afb9f	0.13572548
121	0xbd658386	-0.056033634
122	0x3d8896aa	0.06669362
123	0x3d7159e0	0.058923602
124	0x3e05fa6c	0.1308381
125	0x3c91f818	0.017818496
126	0xbcb09ca8	-0.021559075
127	0xbd2ec114	-0.042664602
128	0x3e0d1e51	0.13781096
129	0xbdb59fd8	-0.088683784
130	0x3e11a147	0.14221679
131	0xbdb87602	-0.09006883
132	0xbdfe0dab	-0.12404951
133	0xbde9b682	-0.11411764
134	0xbe1b975a	-0.15194455
135	0x3c728070	0.01480113
136	0xbddf496e	-0.109026775
137	0x3db777ba	0.08958383
138	0xbd1d183c	-0.03835319
139	0xbddb0d06	-0.106958434
140	0xbe0f962c	-0.1402213
141	0xbd741a68	-0.059595495
142	0x3d8f7f02	0.07006647
143	0xbde5edf0	-0.112270236
144	0x3e175509	0.14778532
145	0xbdd54cb0	-0.104150176
146	0x3c390640	0.011292994
147	0xbd63a8fa	-0.05558107
148	0xbe18af1e	-0.14910552
149	0x3c979ef8	0.01850842
150	0xbda15c41	-0.07878924
151	0xbdd4d314	-0.103918225
152	0xbd4b1d42	-0.04958845
153	0x3d18f29c	0.037340745
154	0xbd52816c	-0.051392958
155	0xbd49195e	-0.049096458
156	0xbbdcba00	-0.00673604
157	0x3de32a6a	0.11092074
158	0x3d69eb2c	0.057109043
159	0x3de2e46a	0.11078723
160	0xbdc7be32	-0.09753074
161	0x3d520cc0	0.05128169
162	0xbdf85af4	-0.12126723
163	0x3d2a77d0	0.04161817
164	0xbe034d4e	-0.12822458
165	0x3d3701a8	0.044679314
166	0x3ce42790	0.027850896
167	0xbcc6a3f8	-0.024248108
168	0x3d867dae	0.0656694
169	0xbd6ab7da	-0.05730424
170	0xbdde4b97	-0.10854261
171	0x3df4641f	0.11933159
172	0x3d0092f0	0.03139013
173	0x3c65439b	0.013993169
174	0xbc6fb149	-0.01462967
175	0xbc8eb3c8	-0.01741971
176	0xbdaa0c42	-0.08303119
177	0x3d34259d	0.043981183
178	0xbccb3b20	-0.024808466
179	0x3dbe4843	0.092911266
180	0xbdba7e00	-0.09106064
181	0x3ddff361	0.10935093
182	0x3d79a604	0.06094934
183	0x3deb8b16	0.11501138
184	0x3db0ae32	0.08626975
185	0x3e1c44d3	0.1526063
186	0x3d027384	0.031848446
187	0xbdd10570	-0.10206115
188	0x3e077c29	0.13230957
189	0xbda42767	-0.08015328
190	0x3ccd0690	0.025027543
191	0xbd975897	-0.07389944
192	0xbdd8560b	-0.105632864
193	0x3e08337f	0.13300894
194	0xbccc7f5c	-0.024963073
195	0xbdd2a90a	-0.10286148
196	0xbdeba3cf	-0.115058534
197	0x3da38527	0.07984381
198	0xbde596fa	-0.11210437
199	0xbdb9df09	-0.09075744
200	0x3dc69acc	0.09697494
201	0xbd7e7032	-0.062118717
202	0xbdd317dc	-0.10307285
203	0x3e0c3715	0.13692887
204	0xbbbc0c60	-0.00573878
205	0xbde0696a	-0.10957606
206	0x3d9bbed0	0.07604754
207	0xbdc4745a	-0.09592505
208	0x3df6fb4f	0.12059652
209	0x3dc5cddf	0.096584074
210	0xbd7e45aa	-0.062078156
211	0xbdebc716	-0.11512582
212	0x3e05c3d9	0.13062991
213	0xbdfed248	-0.12442452
214	0x3dc53aea	0.096303776
215	0xbd06fd0a	-0.03295616
216	0x3ca31ac1	0.019910218
217	0x3c8a9569	0.016916947
218	0x3de8e7ea	0.11372359
219	0x3c3d658e	0.011559857
220	0xbd1f75aa	-0.038930573
221	0xbd0ebbde	-0.034847133
222	0x3deee64f	0.11665022
223	0x3e0a7ae4	0.13523442
224	0x3e1cdd95	0.15318902
225	0xbdd6db0b	-0.10490998
226	0xbda27735	-0.07932893
227	0xbe0a3458	-0.1349653
228	0x3d0ffc80	0.035152912
229	0xbdcca383	-0.09992125
230	0xbd25c4fe	-0.04047107
231	0x3caa46a8	0.020785645
232	0x3d5b70fc	0.053574547
233	0x3d371d9c	0.044705972
234	0xbdd8f6f6	-0.10593979
235	0x3dd0d5f3	0.101970576
236	0xbe09367f	-0.13399695
237	0x3d5b2df9	0.05351064
238	0x3beb2d2f	0.007177017
239	0x3df00f0f	0.11721622
240	0x3d286a06	0.041116737
241	0xbdc3f4bd	-0.095681645
242	0xbd97658d	-0.07392416
243	0x3c9feea0	0.019522965
244	0xbdd8fc8e	-0.10595046
245	0xbcf2ef0f	-0.029655008
246	0xbcc95c70	-0.02458021
247	0x3d6bd156	0.057572685
248	0xbd8fcffb	-0.07022091
249	0x3db4e88a	0.08833416
250	0x3d7c1494	0.061543062
251	0x39aeb670	0.00033323793
252	0xbd9fe2e7	-0.0780695
253	0x3c4a5d20	0.012351304
254	0x3d963660	0.0733459
255	0x3d9dfa46	0.077137515

hidden_layers.3.bias f4 [42]
0	0x3c8862ab	0.016648611
1	0xbd8cfbe5	-0.068839826
2	0x3d6b8623	0.05750097
3	0xbe09f301	-0.13471605
4	0x3da29f8e	0.07940589
5	0x3e00ec06	0.12590036
6	0x3e0ed502	0.13948444
7	0xbd6d5ee6	-0.05795183
8	0xbdda7f95	-0.106688656
9	0x3e0e20b4	0.13879663
10	0xbd452a2c	-0.04813592
11	0xbdc83a84	-0.09776786
12	0xbda4bc7d	-0.08043764
13	0x3d081db0	0.033231437
14	0x3c16e7bf	0.009210526
15	0x3dc18108	0.09448439
16	0xbdbd477d	-0.09242151
17	0x3d83a57a	0.064280465
18	0x3d9e6e4c	0.07735881
19	0x3e09f395	0.13471825
20	0xbe028ebe	-0.12749764
21	0x3dfdeed1	0.12399066
22	0x3dc0907d	0.09402559
23	0xbd86a5d6	-0.065745994
24	0xbda16a5a	-0.07881613
25	0xbd0380a2	-0.032105096
26	0xbda77425	-0.0817645
27	0xbe14a523	-0.1451612
28	0xbd759d16	-0.059964262
29	0xbdf63d86	-0.120234534
30	0x3db9753a	0.09055562
31	0x3db4f859	0.08836431
32	0x3d9859c6	0.07438998
33	0x3cdb575b	0.026775053
34	0xbdda564c	-0.10660991
35	0x3df07a72	0.117421046
36	0x3e2a37ed	0.16622896
37	0xbda54679	-0.08070082
38	0x3c3cfd40	0.011534989
39	0xbdc922b4	-0.09821072
40	0x3dd5c69f	0.104382746
41	0x3dd6605a	0.10467596

output_layer1.weight f4 [40, 42]
0	0xbe01373b	-0.12618725
1	0x3e15e89d	0.14639516
2	0xbdbe539d	-0.09293292
3	0x3dc548ce	0.09633027
4	0xbb26a1d7	-0.0025426054
5	0xbdd29bc2	-0.10283615
6	0xbd63585a	-0.05550418
7	0xbd56d7e8	-0.052451998
8	0xbd8bbb58	-0.06822842
9	0x3ddd95a7	0.108195595
10	0x3de01ae9	0.10942633
11	0x3e0767b7	0.13223158
12	0xbbc3f300	-0.0059798956
13	0xbdb8fd9c	-0.09032747
14	0xbc6f7c73	-0.014617073
15	0xbcd34336	-0.025788885
16	0xbe071696	-0.1319221
17	0xbd919bb5	-0.07109777
18	0xbdd5c8cb	-0.10438689
19	0xbd807807	-0.062728934
20	0xbd22bd8a	-0.03973154
21	0x3af646f6	0.0018789459
22	0x3da96ffe	0.08273314
23	0xbdf0aca0	-0.117516756
24	0xbd88ad5e	-0.06673692
25	0xbe15fb89	-0.14646734
26	0xbbc12f00	-0.0058954954
27	0xbe08f076	-0.13372979
28	0x3df5f8f5	0.120103754
29	0xbd88676e	-0.06660353
30	0xbc78e452	-0.015191155
31	0xbd9c9730	-0.07646024
32	0x3df2caad	0.118550636
33	0xbdf30f25	-0.11868123
34	0x3d781e94	0.060576037
35	0x3a8cd67c	0.0010745074
36	0xbe0027ea	-0.12515226
37	0x3d5f36e4	0.054495707
38	0x3e02dd3d	0.12779708
39	0xbe00a040	-0.1256113
40	0xbdc1ac1d	-0.09456656
41	0x3d0ca6ce	0.034338765
42	0xbb8e4893	-0.0043421476
43	0x3dc5b3a6	0.09653406
44	0xbde833f1	-0.11338032
45	0xbd6d8466	-0.057987593
46	0x3be64fe9	0.007028569
47	0xbdd10e6e	-0.1020783
48	0xbd9a9410	-0.07547772
49	0xbd4f5e8c	-0.050627276
50	0xbda2bc52	-0.079460755
51	0xbde99a36	-0.114063665
52	0x3dce214d	0.10064945
53	0xbca83578	-0.020533308
54	0xbdd6c7a6	-0.10487299
55	0x3db5bcb6	0.088738844
56	0xbbb2eaaa	-0.005460103
57	0x3d15ad42	0.036542185
58	0x3d8cb93a	0.06871267
59	0x3b83d3f6	0.0040230704
60	0x3de3ec4f	0.11129057
61	0xbded902f	-0.115997665
62	0xbe1795dd	-0.14803262
63	0xbd345b8a	-0.04403261
64	0x3def5edb	0.11688014
65	0x3cc8f778	0.024532065
66	0xbc4a9260	-0.012364
67	0xbdbf9a0c	-0.09355554
68	0x3d933d1c	0.0718939
69	0xbdff6adc	-0.12471554
70	0xbe140703	-0.144558
71	0x3db29d70	0.08721435
72	0xbd224981	-0.03962088
73	0xbdf3efb3	-0.119109534
74	0xbd1c3629	-0.03813759
75	0x3d38da22	0.045129903
76	0x3c4d7460	0.012539953
77	0xbda53d9e	-0.08068393
78	0x3e0865d1	0.1332009
79	0xbd4dd43e	-0.050251238
80	0x3d0d32c6	0.03447225
81	0x38856800	6.361306e-05
82	0x3d31317e	0.04326009
83	0x3d3e05dc	0.046392307
84	0xbdc1692b	-0.09443887
85	0xbc031000	-0.00799942
86	0xbda25092	-0.07925524
87	0xbb9ec1a0	-0.0048448592
88	0xbda5417c	-0.08069131
89	0xbbbedbfd	-0.0058245645
90	0x3d248840	0.040169
91	0xbd77184c	-0.060325906
92	0x3ce30e9b	0.027716925
93	0x3d9ae1e5	0.07562617
94	0xbe11ba2e	-0.14231178
95	0x3e1643bf	0.1467428
96	0xbd9494fe	-0.072549805
97	0x3d27a504	0.040928856
98	0xbe002757	-0.12515007
99	0xbd27ad00	-0.04093647
100	0xbe0d62f6	-0.13807282
101	0x3d801f4f	0.06255972
102	0x3c089d05	0.008338218
103	0x3dd758fb	0.105150186
104	0x3e0bb09b	0.13641588
105	0x3d525f50	0.05136043
106	0xbdc58e36	-0.09646265
107	0x3dd3498a	0.10316761
108	0x39986c00	0.00029072165
109	0x3d2b8930	0.04187888
110	0xbe103689	-0.14083304
111	0x3e005b45	0.12534817
112	0xbde03063	-0.10946729
113	0x3df4ab52	0.11946739
114	0x3e1201fc	0.1425857
115	0x3d8d3d43	0.0689645
116	0xbdd8318a	-0.10556324
117	0x3c6bd0a2	0.014393004
118	0xbdc3511e	-0.09536956
119	0xbe056c56	-0.13029608
120	0xbe0f0cc0	-0.13969707
121	0x3dbb18de	0.091356024
122	0x3e091514	0.13386947
123	0xbd2c3dc4	-0.04205109
124	0x3ca1ad60	0.019735992
125	0xbc002d87	-0.007823355
126	0x3dae91cb	0.085239016
127	0x3dbce62e	0.09223591
128	0x3c89b4d3	0.016809857
129	0x3e0dca49	0.13846697
130	0xbe0d713b	-0.13812725
131	0xbe18bc2f	-0.14915536
132	0xbe12536a	-0.14289632
133	0x3c8b5cf0	0.01701209
134	0xbde2cd86	-0.11074357
135	0x3d43c36e	0.0477938
136	0x3db80888	0.08986002
137	0x3d1cfc3c	0.038326487
138	0x3e1df13d	0.15424056
139	0x3ca15488	0.019693628
140	0x3d8078ec	0.06273064
141	0x3e1198e3	0.14218478
142	0xbde156c6	-0.11002879
143	0x3e196ffb	0.14984123
144	0xbde47a5d	-0.111561514
145	0x3d218a90	0.039438784
146	0x3dc7fcde	0.097650275
147	0x3e18b2bb	0.1491193
148	0xbd6b7f87	-0.057494666
149	0xbe131e08	-0.14366925
150	0xbdc2aa96	-0.09505193
151	0xbcb87aa8	-0.022519425
152	0xbd849713	-0.064741276
153	0x3cdf6fd8	0.027275011
154	0xbd680fe6	-0.056655787
155	0xbd314686	-0.043280147
156	0xbc6394ac	-0.013890427
157	0x3df19018	0.11795062
158	0x3dcf4fcf	0.10122644
159	0x3d8c98ce	0.06865083
160	0xbd80a32e	-0.06281124
161	0xbdaf6c38	-0.08565563
162	0xbdea3706	-0.11436276
163	0xbdff0359	-0.124518104
164	0xbcc0393b	-0.02346479
165	0x3dba8a0c	0.091083616
166	0x3d8eedba	0.069789365
167	0xbe007aa2	-0.1254678
168	0x3d1f5ffa	0.03890989
169	0x3bdb0c00	0.00668478
170	0xbced1432	-0.028940294
171	0x3db6eebe	0.08932255
172	0xbccd7664	-0.025080867
173	0x3e00197b	0.1250972
174	0xbe103ee7	-0.14086495
175	0x3ceaa330	0.028642267
176	0xbcafddab	-0.021468004
177	0x3cc23d72	0.02371094
178	0x3df4fa57	0.11961811
179	0x3c5f5d20	0.013633043
180	0xbda5ad87	-0.08089738
181	0x3d8d8c26	0.06911497
182	0x3ccc940a	0.024972934
183	0xbc48314f	-0.012218787
184	0x3b02fd00	0.0019987226
185	0xbddfb61e	-0.10923408
186	0xbc9603bc	-0.018312328
187	0x3d1fdc04	0.039028183
188	0xbdc40e64	-0.09573057
189	0x3d405873	0.04695935
190	0xbe15a41d	-0.14613385
191	0x3da91f1e	0.08257888
192	0x3d8e4738	0.06947178
193	0x3e0608f7	0.13089357
194	0x3e07c31d	0.13258024
195	0xbcccc060	-0.024994075
196	0xbd32d104	-0.043656364
197	0x3dc4773e	0.09593056
198	0x3c8acd1b	0.016943505
199	0xbc155c7c	-0.009116288
200	0x3de2b3d6	0.11069457
201	0x3caa4958	0.020786926
202	0x3e1041c9	0.14087595
203	0x3e030971	0.1279657
204	0xbde1945b	-0.11014625
205	0x3b44b680	0.0030016005
206	0x3e020f9f	0.12701271
207	0xbd015c78	-0.031582326
208	0xbd0c2b8a	-0.03422121
209	0x3d7c0f3f	0.061537977
210	0x3bffaff3	0.007802957
211	0x3df251a2	0.118319765
212	0xbe21d5f3	-0.15804271
213	0xbdc2da03	-0.09514239
214	0x3d040be3	0.0322379
215	0x3de01c31	0.10942877
216	0x3d996486	0.074898764
217	0x3ddda7a6	0.10822992
218	0x3df39949	0.11894471
219	0xbe03c0c4	-0.12866503
220	0xbd99437f	-0.07483577
221	0xbd40e424	-0.04709257
222	0xbbd73620	-0.0065677315
223	0x3df175c6	0.117900416
224	0x3d11b308	0.035571128
225	0x3d6c26c6	0.057654165
226	0x3de107ea	0.109878376
227	0xbe1edf2a	-0.15514818
228	0xbcb83255	-0.022484938
229	0x3cbd15e7	0.023081733
230	0xbcc483e8	-0.023988679
231	0xbd9d1e8e	-0.076718435
232	0xbd22224a	-0.03958348
233	0x3e0dc073	0.13842945
234	0x3dbb0924	0.09132603
235	0xbd012842	-0.031532533
236	0xbdd1a19e	-0.10235904
237	0x3e07afb7	0.13250624
238	0x3df79bc7	0.12090259
239	0x3bf719e0	0.0075409263
240	0xbc773091	-0.015087263
241	0xbdedb201	-0.11606217
242	0x3df38af0	0.118917346
243	0xbe16e746	-0.14736661
244	0xbdd0d033	-0.10195961
245	0x3df48006	0.11938481
246	0x3d322f7a	0.04350231
247	0x3dec0306	0.11524014
248	0x3cdd80e4	0.027038999
249	0xbd806303	-0.06268885
250	0xbcffe7f0	-0.031238526
251	0x3d8eb87c	0.06968781
252	0xbd05bd6b	-0.032651346
253	0x3db4d5c2	0.088298336
254	0xbd484a50	-0.048898995
255	0xbaad7900	-0.0013234913

output_layer1.bias f4 [40]
0	0x3cbbee47	0.022940768
1	0xbdd4d68b	-0.10392483
2	0x3e1455f6	0.14485916
3	0xbd43977a	-0.04775188
4	0xbc17c14a	-0.009262392
5	0x3dedf676	0.11619274
6	0xbe182701	-0.14858629
7	0xbd42a02c	-0.047516033
8	0xbd9ab000	-0.075531006
9	0x3d8964dc	0.067086905
10	0xbdbbea4a	-0.091755465
11	0x3c28c4dd	0.010300842
12	0xbd9973c6	-0.07492785
13	0xbe16fb78	-0.14744365
14	0xbc68119e	-0.0141643565
15	0x3d9af87a	0.075669244
16	0x3dffb576	0.12485783
17	0xbd5f148f	-0.054462966
18	0x3d35ea49	0.044412885
19	0x3cea400a	0.02859499
20	0xbac21596	-0.0014807459
21	0xbd5c394c	-0.05376558
22	0xbcc9478c	-0.024570249
23	0x3de484d6	0.11158149
24	0xbd36e0dc	-0.044648036
25	0xbd2b7308	-0.04185775
26	0xbe06bf17	-0.13158832
27	0x3cdb1db4	0.026747562
28	0xbdd1f760	-0.10252261
29	0xbc6b5ee6	-0.014365887
30	0x3daa1830	0.08305395
31	0xbd2ca7e7	-0.04215231
32	0xbdd65f5c	-0.10467407
33	0x3e03b87a	0.12863341
34	0xbd85c9c9	-0.06532628
35	0x3e184ee1	0.1487384
36	0x3e212dc4	0.15740114
37	0xbde900ee	-0.113771304
38	0xbc6f325b	-0.014599408
39	0x3d7fd29c	0.062456712

output_layer2.weight f4 [1, 42]
0	0xbe148230	-0.14502788
1	0xbdf2b2c7	-0.11850505
2	0x3e1bef51	0.1522801
3	0x3c7dc7c0	0.015489519
4	0x3e0f9ca1	0.14024593
5	0xbd9a9407	-0.07547765
6	0xbd2324b0	-0.03982991
7	0xbdb3d027	-0.08779936
8	0x3b8e2a90	0.00433857
9	0xbd9f6497	-0.07782858
10	0x3e00401e	0.12524459
11	0x3e150605	0.14553078
12	0xbe14a074	-0.14514333
13	0x3cf37a50	0.02972141
14	0xbd0724be	-0.032994024
15	0xbe095fad	-0.13415404
16	0x3df6bbee	0.120475635
17	0xbce9cb96	-0.02853946
18	0x3d2bdd6d	0.041959215
19	0xbe00700d	-0.12542744
20	0x3d7318a0	0.059349656
21	0x3cb1e34e	0.021714833
22	0xbdef3e26	-0.11681776
23	0x3e06c571	0.13161255
24	0x3d6c7aac	0.057734177
25	0xbdba9e09	-0.09112174
26	0x3c530370	0.0128792375
27	0x3ce48cc0	0.027899146
28	0x3d61772d	0.055045296
29	0xbd39380e	-0.045219474
30	0x3e198716	0.14992937
31	0x3d899d65	0.06719474
32	0xbd57604f	-0.05258208
33	0x3ba83771	0.0051335623
34	0xbd8fb7b7	-0.07017463
35	0x3ddf6836	0.109085485
36	0x3d542977	0.051797356
37	0x3ddf09fe	0.10890578
38	0x3df3f63b	0.11912199
39	0x3ce4a580	0.027910948
40	0xbe0ff5f3	-0.14058666
41	0x3c5fa303	0.013649705
