src/models/dynamics_108.pt (torch, 47878 bytes, 13 tensors)

input_layer.weight f4 [42, 42]
00000000: a02f 6b3d 6ead 51bd f7e3 103e fb1a 883c
00000010: cd6c dabd 9455 753d 7af7 3ebc 0b5d c9bc
00000020: fd8a fa3c ef33 3abc 9f2f 19be 67ed 8f3c
00000030: 5fb0 8bbd 8053 873d cded f6bd 1c03 94bd
00000040: 01b5 54bd 9ba9 273d 814f 183e dc28 27be
00000050: 02f7 d3bd 8859 17be f056 8e3d 09b8 cd3d
00000060: 3998 c3bd 5741 8abd 58be 96bd 9070 023e
00000070: 0d9f 043e 7dd3 5cbc e36e ebbd bab1 043d
00000080: 75f6 0a3e 78a1 2fbe 8314 eebd f53b 3cbc
00000090: 6e93 bd3d 55de 813c bb9b 083d 19f0 f2bd
000000a0: 798b d93d 2a98 873d 5583 a13d 8e5b 033e
000000b0: 6c75 803d 13c6 0dbd 5781 363d af7e 003e
000000c0: 39c8 06bc b7b6 36bc 5aad c13d 63b3 253d
000000d0: 8d9b e13d cdab d9bb 941d 87bd 039d bbbd
000000e0: 0c7e ba3d 4452 023e ae2f 173e ce5f 7fbc
000000f0: 211f cd3d 1792 283d 868e 7c3d 80ee 013e
00000100: 2357 a93d 43b8 b8bd 4196 44bc 50d9 c6bd
00000110: 9f29 213d 7892 b43d 5f7f 35bd 5442 103e
00000120: 79c2 f93d cc2f 64bd ece7 a6bd de99 d9bd
00000130: b538 d5bd 6c0f e83d ef79 fabc 24ad e6bd
00000140: 162b 12bc 3d5d da3c f17a e13d c425 e4bd
00000150: cd17 93bd 5a41 08bc 8f47 09be 5e69 ba3d
00000160: 249f 50bd 4f5d 75bb 9bbc 6d3d 3566 58bc
00000170: a956 093e b07a b33d 9089 11be 60d9 53bd
00000180: cc95 f3bc 4565 9d3d f341 9dbc 6c1a b13d
00000190: 3a94 d1bd 989c f33d 064d 343d ffc0 db39
000001a0: 42a0 c73d 3443 0ebd dfa8 8d3d e160 8e3c
000001b0: b6b9 023e 6bc1 a8bd 8eba b33d 8619 90bd
000001c0: 46a3 4b3c 474d 45bc de9c 233e b100 27be
000001d0: 64fe 1e3e 2909 42bb 4f11 4a3d fc82 69bc
000001e0: 69fd 7a3d e9bc d4bd 67a2 b73d c8bc 233e
000001f0: ed0f 203b 9f9b e9bd cace 03bd f4e0 eabc
00000200: 8763 ac3d 9217 043e 34c5 80bd 5d4e 653d
00000210: 5af1 243d 4287 86bd 6099 bd3c 6186 01be
00000220: d501 b43d 06e3 c2bd fe90 793c 132a 9dbc
00000230: 38be afbd f5a7 713d ed4b a93d 0ce3 6c3c
00000240: 0e7f b33d 3be7 093e 859b 09be 590e 1b3e
00000250: 86e8 b0bc 3805 fbbd 677a 083b 2483 a03b
00000260: 70f7 073e c72f e8bd ebbd 9fbd 6bf0 78bd
00000270: d0e8 b2bd ef39 c5bc 6adb 2cbd 41ea 653d
00000280: a7a2 40bd 07fe 0ebe 75d5 9e3c 12f5 2eba
00000290: 9257 1c3c 72f8 d3bc cbc2 833c 43a8 01be
000002a0: c693 4abd 08ef aebc 30de 03bc dc4c 09be
000002b0: e1ac 97bd f428 d3bd 00e2 75ba 003c adbd
000002c0: 8fe9 a8bd 04e5 403d a678 0cbd 81b1 03be
000002d0: ae02 c5bd 6006 663c 6007 e1bc e060 ffbd
000002e0: 0ad4 87bd 9010 6f3c 7367 a0bd 76c5 d83d
000002f0: 9e81 ec3d 362d 27bd 8e75 91bd 20bf ffbb
00000300: 36e1 79bd cb86 c4bd 1c70 2a3d cc83 223d
00000310: 6d10 edbd 66db 15be ba5e a83d 209c b13b
00000320: 34fb a13d 02c0 0ebd 922d 9a3d 6630 e83d
00000330: ea0b d63d d80f 763d 523e 9f3d 6ad9 c0bd
00000340: 5dc3 0dbe 8094 17bd fe82 96bc ba59 02bd
00000350: 66e4 ec3c 81bf c63d 696a aabd 3b55 cc3d
00000360: 2011 353d 55e0 05be 5a84 bb3d c7a7 e3bc
00000370: 874a b6bd 4506 433d 641e efbd 1683 f43d
00000380: 94fd cc3c 579b e3bd 34ad 11be 2885 6b37
00000390: 52f9 703d f8b2 f4bd 8ebe 7cbd 6b4f 83bd
000003a0: f5c6 2dbd cf1e 0b3e 96e1 f53d 1f51 043e
000003b0: ad2b bdbd c8b1 cf3c 200c d83d 5c0b cb3b
000003c0: 2111 a5ba 1980 fd3c a68b f0bd 3f48 a43d
000003d0: 8d4a 25be 89d5 053d 351a 043c 4306 aabd
000003e0: 3408 0cbe 8602 6f3d a0f3 5bbd 8b09 643d
000003f0: a6ce b93d 0885 c8bd 1419 96bd 39fa d4bd
0.057418466 -0.051190786 0.14149462 0.016614428 -0.10665283 0.059896067 -0.011655683 -0.0245805
0.030583853 -0.011364921 -0.14959572 0.017569257 -0.068207495 0.06607723 -0.12057076 -0.072271556
-0.05193043 0.040933233 0.14874078 -0.1632418 -0.103498474 -0.14780247 0.06950176 0.100448675
-0.095505185 -0.06750744 -0.07360524 0.12738252 0.12951298 -0.013478157 -0.11495759 0.032396056
0.13570578 -0.17151439 -0.11625006 -0.011488904 0.092566356 0.015853086 0.03335164 -0.11862201
0.106223054 0.0662082 0.07886378 0.12827894 0.062723964 -0.034612726 0.04455694 0.12548326
-0.008226448 -0.011151961 0.09456892 0.04045428 0.11015997 -0.0066427947 -0.065974385 -0.09160807
0.09106073 0.12726694 0.14764282 -0.015586806 0.10015703 0.041154947 0.06165936 0.12688637
0.08268573 -0.0901952 -0.011998714 -0.09709418 0.039346334 0.08816999 -0.044310924 0.14087802
0.12195296 -0.055709645 -0.08149704 -0.10625051 -0.10411207 0.113310665 -0.03057572 -0.11263493
-0.008921405 0.026655788 0.11009777 -0.11140016 -0.07182274 -0.008316362 -0.13406204 0.091021284
-0.05093302 -0.003743965 0.058041196 -0.013207962 0.13411964 0.08763635 -0.14212632 -0.051720977
-0.029734515 0.07685331 -0.019196486 0.08647618 -0.1023335 0.11895102 0.044018768 0.00041914728
0.097473636 -0.03473206 0.06916975 0.01738018 0.12766156 -0.082400165 0.08775817 -0.07036118
0.012429064 -0.01204235 0.15977809 -0.16308858 0.1552673 -0.002960751 0.049332913 -0.0142524205
0.061276827 -0.10387594 0.08966523 0.15989983 0.0024423555 -0.114066355 -0.03217963 -0.02867172
0.08417421 0.12899616 -0.062876135 0.055982936 0.040269233 -0.06568767 0.023144424 -0.12648918
0.08789412 -0.095159575 0.015232323 -0.019185102 -0.08581203 0.058998067 0.08266435 0.014458429
0.08764468 0.13467114 -0.13438232 0.15142192 -0.02159525 -0.12256855 0.002082491 0.0048984457
0.13277984 -0.11337238 -0.07799896 -0.060776155 -0.08735812 -0.024075476 -0.042201437 0.056131605
-0.047030117 -0.13964091 0.019388894 -0.00066740916 0.009542363 -0.025875304 0.016084095 -0.12661843
-0.049457334 -0.021354213 -0.008048579 -0.13408226 -0.07406021 -0.103105456 -0.0009379685 -0.0845871
-0.08247673 0.047093406 -0.034294747 -0.12860681 -0.09619652 0.014039606 -0.027469337 -0.12469649
-0.0663224 0.014591351 -0.078322314 0.10584538 0.1154816 -0.0408146 -0.071025 -0.0078047663
-0.061005794 -0.09596022 0.041610822 0.039676473 -0.115753986 -0.14634475 0.08221193 0.005420223
0.07909241 -0.03485108 0.07528223 0.11337356 0.10451491 0.060073704 0.077755585 -0.094164684
-0.13844056 -0.037006855 -0.018373009 -0.03182385 0.028917503 0.09704495 -0.083210774 0.09977194
0.044205785 -0.13073857 0.091561034 -0.027789963 -0.08900934 0.0476134 -0.116757184 0.11939065
0.02502326 -0.11113613 -0.14226228 1.4038094e-05 0.05883152 -0.11948198 -0.061705165 -0.06411632
-0.04242607 0.13585971 0.12005918 0.1292157 -0.09236846 0.025353327 0.10549188 0.0061964225
-0.0012593606 0.03094487 -0.11745386 0.08021592 -0.1614172 0.032674346 0.008062889 -0.083019756
-0.13675004 0.058352016 -0.053699136 0.055673163 0.09072618 -0.09790999 -0.07329002 -0.10399289

input_layer.bias f4 [42]
00000000: dd25 283d 5e23 11be fb6c 25bd 6c85 e4bd
00000010: 829f 73bd 1743 6cbd 520c ecbc a1c5 f4bd
00000020: ea7f ccbc 5b41 863d ac56 ed3d 3079 87bd
00000030: 2d4c 22be 6723 013c 6b6d 153e b1af d13d
00000040: 93a4 1d3d 7cfb b53d 3545 a73c fbfe 15be
00000050: d0bd c8bd 3203 bc3d 1ac3 adbd d844 44bb
00000060: 2414 a03c abd0 6f3d cebf 293e 60cc 1b3e
00000070: f4dc 5ebc 2be2 88bd 6a3d e5bd 9cda 233c
00000080: 2c99 183e ff51 85bd a99c 27bd 053d 09be
00000090: f02b fbbd 80c9 37be f6fa 353e 9663 08be
000000a0: 2894 27bd b7d9 e9bc
0.041051734 -0.14173648 -0.040387135 -0.11158261 -0.05947829 -0.05768117 -0.028814469 -0.11951757
-0.024963338 0.06555434 0.11588797 -0.066149116 -0.15849371 0.007881976 0.14592521 0.102385886
0.03848703 0.088858575 0.020418743 -0.14648049 -0.09801829 0.09180297 -0.08484478 -0.002994826
0.019540854 0.05854861 0.16577074 0.15214682 -0.013602484 -0.06683763 -0.111933544 0.010000851
0.1490218 -0.0650978 -0.040920887 -0.13402183 -0.1226424 -0.1794796 0.17771515 -0.13319239
-0.040912777 -0.028546197

hidden_layers.0.weight f4 [42, 42]
00000000: 01ad d63d ba33 f63d 77ae 3bbd b5ca 30bd
00000010: be51 cc3d d04e 7a3d 5504 5a3d 3212 923d
00000020: efc2 bcbd 5dc0 07bd cdc5 b2bc 9f0a 26bd
00000030: 1194 fb3d dd74 b83c 54ac f3bd 2c73 10bd
00000040: c3fe f9bd addc 80bd 974b cebd 796e 9abd
00000050: 36a1 133d 002c fa3d 4002 e8bb ce99 a13b
00000060: b3b7 89bd 1802 b7bd 02bc 63bb 3d73 cf3d
00000070: b3f1 083e eab8 8d3d d160 083e 21a0 d33d
00000080: 0199 283d eb6b 09be 1361 01bd 57ba 183e
00000090: f8d0 8bbc e59d 073d d40c 7b3d b679 f23d
000000a0: ab21 c5bd 4b5e 053e 5e4a 8dbd 05eb 363d
000000b0: 3f9e 7d3c 54d3 b93d e24c c0bd d9c3 1b3e
000000c0: b603 023e a886 e8bd d79b d8bc bd5c 523c
000000d0: e6d6 453d 2078 633d dc89 f13d 88ff d33d
000000e0: c90e 2d3e 4bb9 0f3d a01f 2b3e f258 813d
000000f0: 0100 0f3e bf5a 14be 0230 a0bd 8e9b 29bd
00000100: 809d b7ba 648b fb3c e129 45bd 38c5 0bbb
00000110: 4e63 133e cd4d 82bd 8283 963c 158f 96bd
00000120: 3aec 35bd 97a4 8fbd 8867 8d3d b131 d6bd
00000130: 3e56 42bd 701d 9abc f009 4d3d 4834 36bd
00000140: 0975 dabc fa1e b93d 91dd 0c3e ebd5 333c
00000150: f520 ce3d e55e 32bd cfab dc3d 6b34 abbd
00000160: e8ac 8fbd 7a1f 0e3e d913 093d 8095 c4ba
00000170: 4bd5 59bd ac17 5c3d 7912 203e 081c 02be
00000180: 0103 093d da9c 47bd a7bd 18be b6df f3ba
00000190: 2ca4 e03c cca2 eebc f8ed f03d 1016 533c
000001a0: d2a8 94bd a8da 83bd 68f3 ee3c 143b 96bd
000001b0: b7e9 76bd 1618 0cbe b264 1f3e c70b 5e3d
000001c0: 306c eb3c 7ebe 72bd b0e3 d93c cb1f 433d
000001d0: 1b7c dc3d d601 4d3d ce39 083e b0e2 01be
000001e0: eaed bf3d d174 00be d280 dc3b 6e91 d53d
000001f0: 932b c23d 9492 3cbd 665a b63d 0983 21bd
00000200: 485d 1dbe d143 7abd 9b1c 003e a35e 9c3d
00000210: 36d5 9fbd 7847 473d c328 083e 5311 113e
00000220: fceb 51bd 721b 2e3e f1d3 c13d adf8 453d
00000230: 2282 ce3d 4a5d 2d3e c883 e33c 339a c03d
00000240: 86d6 00b9 5c9a 86bd 6733 f53d 9e65 d6bd
00000250: 2ec5 99bd bbd9 773d 217d f23b 5187 2c3e
00000260: de67 0f3e 3556 22bd 69ab 21bd d4aa 003e
00000270: f4f5 8c3d 3657 2fbe c2df 013d 02c5 44bc
00000280: c61f 303d b00a 85bd 908f e7bc e41a d03d
00000290: 6cd1 403d a6eb 9f3d d7ac 97bd 44f7 5cbc
000002a0: 4a3a b9bc 5889 f9bc 5c75 5abc 2cbb c0bd
000002b0: 7039 b4bc a5f7 953d fec5 cdbd 0eb4 823d
000002c0: d19e d3bd 74dd be3d 159c b03d 612f 5dbd
000002d0: 2767 1f3e a8c1 673c dae0 abbd edab 023e
000002e0: 0cf2 d63d 3846 c23b e907 9cbb 5e85 2b3d
000002f0: dfa7 d6bc 6b46 6fbc d06b 2b3c 7c00 cebd
00000300: 4b2a 4e3d 620b a7bd 1a0a 99bd bc0f d03d
00000310: 222b 113d 5066 b33d 5849 8ebd c8d2 303d
00000320: 2740 d53d 85ff af3d e12a eabc 9a2f f53d
00000330: 21c6 b9bd 2298 423a 410c 3d3e 524f bdbd
00000340: 3c71 efbb 9ada 1e3e 4872 fe3c 10b7 21bd
00000350: 268c 95bd 971b 023d e795 1a3e 9068 ff3d
00000360: 9337 ca3d 20c9 c93c 2569 d3bd 16f4 08be
00000370: b9a4 0b3e 7c18 8abd 4e89 2dbd 7a00 fe3c
00000380: 64df 1b3e 16ac 19bd db2b d33d ef86 70bd
00000390: 4a15 363e 54c0 0cbe 5143 bebc 5499 763d
000003a0: 4815 163d a982 b2bd b42e 49bd 0c6b 313e
000003b0: 3c32 7f3c cdaa ee3c f494 15bd bfb7 e13c
000003c0: 30eb 99bc 4521 a53d 9fe3 a13c 33f5 703c
000003d0: 727c cd3d d9dd 0e3e c065 4bbb 0b9a 063c
000003e0: 2316 f73d 401c 2dbc 5207 e23d aeb3 c93b
000003f0: cb03 a2bd 6599 b63d 21f8 17be 5c15 c43d
0.104822166 0.12021585 -0.04582068 -0.043162066 0.099765286 0.061110318 0.053226788 0.07132377
-0.09216868 -0.033142436 -0.021822834 -0.040537473 0.12284101 0.022516662 -0.11898103 -0.035266086
-0.12206795 -0.062920906 -0.10073011 -0.07540602 0.036042415 0.122154236 -0.0070803463 0.004931665
-0.06724491 -0.08935946 -0.0034749513 0.10129402 0.13373451 0.06920035 0.13318183 0.103332765
0.04116154 -0.13420074 -0.031586718 0.14914833 -0.017067418 0.033109564 0.06129153 0.11839621
-0.09625562 0.13024251 -0.0689895 0.044657726 0.015479623 0.09073511 -0.09389664 0.15211429
0.12696728 -0.11353809 -0.026441498 0.012839493 0.048300646 0.055534482 0.11793873 0.10351473
0.16900171 0.03508882 0.16711283 0.06315793 0.13964845 -0.14487742 -0.07821657 -0.041408114
-0.0014008731 0.030706115 -0.048135642 -0.0021327268 0.1439335 -0.063624956 0.018373255 -0.073515095
-0.044414736 -0.07013815 0.06904513 -0.10458697 -0.04744553 -0.018812865 0.050058305 -0.044483453
-0.026667135 0.090391114 0.13756396 0.010976295 0.1006488 -0.04354753 0.107749574 -0.08359607
-0.07015401 0.13879195 0.033466194 -0.0014998168 -0.053181928 0.053733513 0.15632047 -0.12706006
0.03345013 -0.04873357 -0.14916097 -0.00186061 0.027422033 -0.029130362 0.11764139 0.012883678
-0.072587624 -0.0643819 0.0291688 -0.07335487 -0.06028148 -0.13681063 0.15565756 0.05421045
0.028738111 -0.0592637 0.026597828 0.047637742 0.10765859 0.05005058 0.133033 -0.1268413
0.093715504 -0.12544562 0.0067292238 0.10428129 0.094809674 -0.046038225 0.08903961 -0.039431605
-0.15367615 -0.06109983 0.12510912 0.07635238 -0.07804339 0.048652142 0.132968 0.14166765
-0.051250443 0.17002657 0.09464253 0.04833286 0.100834146 0.16930118 0.0277728 0.09404411
-0.00012286947 -0.065724105 0.11972695 -0.10468601 -0.07508312 0.06051038 0.0074001704 0.16848494
0.14004466 -0.039632995 -0.03947011 0.12565166 0.06882849 -0.17123112 0.031707533 -0.012009861
0.04299905 -0.06496179 -0.028266698 0.10161379 0.04707472 0.07808618 -0.074060135 -0.013486687
-0.022610802 -0.030460998 -0.013333645 -0.094107 -0.022000045 0.07322625 -0.1004753 0.06381999
-0.10333026 0.093195826 0.0862352 -0.054000262 0.15566693 0.014145292 -0.083924964 0.12760897
0.104953855 0.005928781 -0.004761685 0.041875236 -0.026203094 -0.014604191 0.010462716 -0.10058686
0.050333302 -0.08156468 -0.0747263 0.10159251 0.035441525 0.08759749 -0.06947583 0.043169767
0.10412627 0.08593658 -0.0285849 0.1197197 -0.09070993 0.0007423182 0.18461706 -0.09243645
-0.0073071998 0.15513077 0.031060353 -0.039481223 -0.07302122 0.031764593 0.15096246 0.124711156
0.09873881 0.024632037 -0.10322789 -0.13374361 0.13637055 -0.06742951 -0.042367272 0.031006087
0.15221936 -0.03751763 0.10311099 -0.058722433 0.17781559 -0.13745242 -0.023225458 0.06020482
0.03664139 -0.08716328 -0.049116805 0.17325991 0.015575942 0.029134179 -0.036519006 0.027553437
-0.018788904 0.08062986 0.019761859 0.014706898 0.10033502 0.13951816 -0.003103599 0.008215438
0.12064769 -0.010565817 0.110365525 0.0061554527 -0.0791088 0.089159764 -0.14840747 0.095743865

hidden_layers.0.bias f4 [42]
00000000: 06c6 0b3e f500 0b3e 902c 10be c5d8 233e
00000010: 133a 353d bdcf f23d 626f 353e 0585 c43d
00000020: 29ca 0cbe 8920 5ebd 10b5 fabd d9d5 93bd
00000030: fb8c 3b3e 4d47 8e3c bec7 003e 2b2e 4e3d
00000040: 6e25 12bd 32f9 8c3d 073a ca3d 44f8 18be
00000050: 9883 b7bc 3eff 45bd eaf7 e73c ac5a f1bd
00000060: 60d7 d13d 2b5f 09be 00bd f43d ea08 343e
00000070: b5d4 813d b86e f53d 0524 e1bd b480 0a3e
00000080: 3f9a 8bbd fa9b 8bbd 4d44 b6bc 4ec8 6b3c
00000090: 8691 0abe dc81 e2bd 40f2 ab3d 2046 59bd
000000a0: e8cd 883d 3e59 d33d
0.13649759 0.13574584 -0.14079499 0.1600066 0.044244837 0.11856029 0.1771827 0.09595684
-0.13748993 -0.054230247 -0.12241566 -0.072185226 0.18315499 0.017367983 0.12576196 0.050336998
-0.035680227 0.06883468 0.09874349 -0.14938456 -0.022401616 -0.04833912 0.028316457 -0.117848724
0.10246158 -0.1341521 0.119501114 0.17581525 0.06339399 0.119840086 -0.10993198 0.13525659
-0.068165295 -0.068168595 -0.022249365 0.014391018 -0.13532075 -0.11059925 0.08395815 -0.053045392
0.066798985 0.10319756

hidden_layers.1.weight f4 [42, 42]
00000000: 1189 8abc 8c97 8b3d 1f37 bdbd 5ed7 f13d
00000010: f423 49bd 95ce adbd bae2 cc3d c535 1cbe
00000020: cae3 ca3d 4e84 e7bd 1ead bdbd d498 363d
00000030: ce30 d23d b279 52bd 464e 07bd d8d2 e8bd
00000040: 3887 0f3d d472 6b3d 0028 fe3d 108e 583c
00000050: 2a41 45bd 56c0 38bd c0fd 94bc ca2d 68bd
00000060: 4b33 76bc e8a1 11bd 179e e8bc efff 58bd
00000070: 932b bc3d 32ad d73d eec9 1bbe 79d9 67bd
00000080: decb 6abd cd49 2e3d 9208 223d 8846 a4bc
00000090: 80c8 d23a 475b 0d3e 2c1c eebd 80a0 203b
000000a0: 4fa6 913b b4e5 bfbd 05b2 06be add2 563d
000000b0: 62b2 d43d 3794 8ebd b8d4 08bd aaa7 21be
000000c0: d8e8 163d e65b bfbd b0fd 623c 59b3 41bd
000000d0: dd9b 063e bd8f 033e f29f 113c 3feb a7bd
000000e0: a4ca 6a3d ee33 b03d 70bb f63c eadf 263d
000000f0: 1afe b53d 900d 7f3d 93ef 96bc e0fb 7f3c
00000100: dae6 fe3d 6c21 0d3d 0b24 dabc 4a78 a13d
00000110: acef 9a3b 3468 d93d 33be 9abd b019 9c3b
00000120: 207b edbc 722c e73d f6f1 92bb fe10 e4b9
00000130: fcc9 2ebe 3c6d ad3d 8280 9dbd 24c5 66bd
00000140: 004a a8bb 4ec6 6bbc 13ce d4bd 5503 663d
00000150: e13c 05ba 5b09 f73d f42a a53c 1dee af3d
00000160: 6ed7 90bd 5112 c6bc d306 cabd 3eae db3d
00000170: f9cf 043d 9540 c63d 089d ad3c 396a d83d
00000180: a95a a9bd 5e84 7f3d 61d5 bd3d 5882 e1bd
00000190: c0bc a1bd 3bad c5bd b18a 223e 64ad 04bd
000001a0: b9fc 52bd 94ef 243d 9d82 153d 18d9 f1bd
000001b0: a56a 363e 860b c3bd d377 253e 0e9c 38bd
000001c0: 1cd7 bd3c d212 fd3d d261 9f3d e8de 303e
000001d0: 47d4 2f3d eb2e f03d 53e8 88bd c2ab b73d
000001e0: 1f94 c3bd 0050 f23a 31d7 05bc 92a8 203e
000001f0: ac2a b93d 2035 00bd 0fb7 133e 82ac 0dbe
00000200: 8264 ee3d 00fc deba a174 003e 8000 bc3b
00000210: 3e47 bfbd 0046 113b 2857 fdbd d4f2 2c3d
00000220: 1078 ed3c 3eab edbd 8001 0c3c 559f 82bd
00000230: 2ac1 f13d a03a 70bc 51a9 0b3e 18ee 943c
00000240: b871 a43d 336f 193e 5acc c73d ec95 483d
00000250: a0ea 2e3c 54c7 163d 8e74 de3d 2f7e 093e
00000260: 0a86 f9bd b8c4 9fbd 2854 ef3c 24ae 2c3d
00000270: 163c 66bd 1fea 1a3e aa00 0cbe 56dd cdbd
00000280: 6043 e73b d8a3 cfbc 9fbf 81bd 2a45 ebbd
00000290: 80af 353d 6ad9 dd3d 28cb 1abe 3018 08be
000002a0: 0545 e23c 2b70 013e 3db6 a73d 7170 0f3e
000002b0: 8f9a 103e d150 bd3d d61b 66bd 57f6 f5bb
000002c0: 3d33 c9bd fed7 59bd ce09 f4bd d4d9 933d
000002d0: 06ee fd3d 3c7b 1e3e 0d45 d9bd 9b9c 5bbd
000002e0: 6033 8dbb 2699 f2bd 5288 75bd ba75 fabd
000002f0: eb6a f93b bae4 c53d c981 0fbe 17d3 c9bd
00000300: 098c 1f3e e7fa 9abd 8a6a 3ebd d037 c83d
00000310: 7af5 933c 00bc 0fbd bd36 d4bd da2d a13d
00000320: 7dec e1bc dc40 e7bc 6dc8 493d ef38 993d
00000330: ab6c 98bc c5e1 9abd 13ec 103e 01ef 09bd
00000340: 345f 263e 4a60 f13c 1246 f2bd 97cf 4bbd
00000350: 66d9 f3bd a75b 93bd f13a 67bd 27b4 edbd
00000360: b0d2 133d 4b51 d0bc 783e afbc fd6e f13c
00000370: b4a3 fcbd 75c9 093e b298 873d 51ee ed3a
00000380: c4af ca3d 624a a13d a077 2b3c b2c5 873d
00000390: 3389 d0bc 2cf7 cfbd 37c4 f03d 804a 9bba
000003a0: 1ec0 863d 3436 35bd e6d6 bfbd c039 68bd
000003b0: 4b31 963d 891c 30be 0d05 9d3c e946 5bbd
000003c0: b6b7 f3bd 7e31 0ebd b020 98bd 9330 f3bd
000003d0: 5af2 f63d 6d9c 073e fc5a 9dbd fdad 8bbd
000003e0: ace9 aebd 0fc1 eebd 21e8 13be 80e1 013e
000003f0: e17a 903d d909 653d 031e 21be b3fc 9fbc
-0.016911061 0.06816015 -0.09239029 0.11808656 -0.049106553 -0.08486668 0.10004182 -0.15254886
0.099067286 -0.11304532 -0.09261535 0.044579342 0.10263215 -0.05138559 -0.03303363 -0.1136834
0.035041064 0.057482556 0.12409973 0.013217464 -0.04815785 -0.0451053 -0.018187404 -0.056684293
-0.015026878 -0.035554796 -0.028395696 -0.052978452 0.091879986 0.10531081 -0.15213749 -0.056603882
-0.05732333 0.04255085 0.039558955 -0.020053163 0.0016081482 0.13804351 -0.11626467 0.0024509728
0.0044448744 -0.09369984 -0.13153847 0.05244701 0.10385586 -0.069618635 -0.03340599 -0.15786615
0.03684315 -0.093437 0.013854429 -0.04729018 0.13145395 0.128478 0.008888232 -0.081991665
0.05732216 0.08603655 0.030118674 0.040740885 0.08886357 0.062268794 -0.018424785 0.0156240165
0.12446375 0.0344557 -0.026628515 0.078842714 0.004728278 0.10615578 -0.07555809 0.0047638044
-0.028989375 0.11287774 -0.0044844104 -0.0004350021 -0.17069238 0.084681004 -0.076905265 -0.05634035
-0.0051357746 -0.014390541 -0.10390868 0.05615552 -0.0005082619 0.12062331 0.020162083 0.085903384
-0.0707234 -0.024178656 -0.09864583 0.107265934 0.0324249 0.09680287 0.021193042 0.10567135
-0.08269245 0.062382095 0.092692144 -0.11011189 -0.07897329 -0.09652182 0.15873219 -0.03239192
-0.051510546 0.040267542 0.036501516 -0.118089855 0.17814119 -0.09523682 0.1615899 -0.0450707
0.023173861 0.12357105 0.077823296 0.17272532 0.042927053 0.11727699 -0.06684937 0.08968307
-0.09549736 0.0018486977 -0.008168981 0.15689304 0.09041342 -0.031300664 0.144253 -0.13835338
0.11640264 -0.0017012358 0.1254449 0.0057373643 -0.0933976 0.0022166967 -0.12370139 0.042223766
0.028987914 -0.116049275 0.0085452795 -0.063780464 0.11804421 -0.014662415 0.13638808 0.018179938
0.08029503 0.14983825 0.09755774 0.0489711 0.010676056 0.036811188 0.10862075 0.13427041
-0.12183769 -0.07801193 0.029214934 0.04215826 -0.056209646 0.15128373 -0.13672128 -0.10051982
0.0070575923 -0.025346681 -0.06335377 -0.114878014 0.044356823 0.10832484 -0.1511656 -0.13290477
0.027620802 0.12640445 0.08189056 0.14007737 0.1412146 0.0924393 -0.05617889 -0.0075061726
-0.09824226 -0.0531845 -0.119159326 0.07219282 0.12398915 0.15476698 -0.106088735 -0.053616147
-0.004309103 -0.11845617 -0.05994446 -0.12229486 0.0076116226 0.09662767 -0.14014353 -0.09854715
0.15580763 -0.07567387 -0.046488322 0.097762704 0.018061388 -0.0350914 -0.10362003 0.078700736
-0.027578587 -0.02822917 0.049263407 0.07481562 -0.018606504 -0.07562593 0.14152555 -0.033675198
0.16247255 0.02946486 -0.11829771 -0.04975852 -0.119067 -0.07195216 -0.056452695 -0.11606627
0.0360896 -0.025429389 -0.021392092 0.029471869 -0.123359114 0.13455756 0.06620921 0.0018152689
0.09896806 0.078755155 0.010465533 0.06629504 -0.025456047 -0.10154566 0.11756175 -0.0011847764
0.06579612 -0.044241145 -0.093671605 -0.0566957 0.07333621 -0.17198385 0.019167447 -0.053534422
-0.119002745 -0.03471517 -0.0742811 -0.11874499 0.12057944 0.13243265 -0.076833695 -0.06820295
-0.08540663 -0.11657917 -0.14444019 0.12683678 0.07054687 0.055917595 -0.15734105 -0.019529676

hidden_layers.1.bias f4 [42]
00000000: a97e 1cbd f5a1 eaba 2a08 3e3e 4d86 98bd
00000010: 8422 aa3d 1c64 3a3d 9850 38bd a853 35bd
00000020: 97b2 e43d bc58 ea3d fac2 7cbd eada 693b
00000030: a2e8 043e 8904 66bd b0c3 19be 9ad6 d2bd
00000040: 842d bdbd 998a 87bd 327d 923d c8b3 07be
00000050: 291e 0a3e b26b 8abc 178a bcbd 84ab 07bd
00000060: c66a c23d 0feb 8ebb 0439 71bd 3c41 49bd
00000070: 56aa 16bb 6644 1cbe e2c8 05be 8e22 d2bd
00000080: 4cbb 0bbe ddc0 9f3d 3b6b 8b3d 7d3d 8f3d
00000090: 8e3b 263d 13f2 043d 3384 a4bd 4205 dcbd
000000a0: 2e69 b43d db45 fdbd
-0.03820673 -0.001790105 0.18557802 -0.07447491 0.083073646 0.045505628 -0.044998735 -0.044269234
0.11166876 0.11442706 -0.06170938 0.0035683461 0.12979367 -0.05615667 -0.15016055 -0.10294838
-0.09237197 -0.06618232 0.07152785 -0.13252175 0.13488068 -0.016897056 -0.09206026 -0.033122554
0.09493022 -0.0043615173 -0.058892265 -0.049134478 -0.0022989712 -0.15260467 -0.13064912 -0.10260497
-0.13645667 0.078004576 0.06807562 0.0699415 0.04058414 0.032457422 -0.080330275 -0.1074319
0.08809124 -0.123668395

hidden_layers.2.weight f4 [42, 42]
00000000: 8211 ee3d 3854 3e3d fb5f 143e c201 e93d
00000010: 7fc1 1a3e 289c 273d 95d3 1b3e 701d 9dbd
00000020: a270 2b3e e304 503d 042c babd 3b60 0dbe
00000030: bf11 063d 3ee2 18bd 1850 c2bc c867 603d
00000040: d08b 24bc 25df 123d b73b d03d a57f cb3d
00000050: 97e0 263e c8c5 59bc e21d adbc f805 033e
00000060: ed3a d8bd 22b4 c73d f0c9 83bd 5853 8f3d
00000070: 2998 a23c 84c3 cfbd cea9 d23d 42cf dc3d
00000080: f30d 153d d7d0 95bd 20d1 203d 450f 11be
00000090: b822 eeba 0e1f 01be 744a 28bd 6835 853d
000000a0: 8ddc 0e3e 8056 d63c 209f fbbc 9023 a83c
000000b0: 706c dfbc 229f ed3d 0c95 7d3d c84a babd
000000c0: 9b50 0f3e 242f ddbd d8cc 9b3c d007 253d
000000d0: 2855 813c 80c9 f33c c041 213c 8dac b2bd
000000e0: 504b 003d 28d0 013d c0ce 02bc dc1a ba3d
000000f0: 4efd e93d 6002 f03b ccc1 cabd e41a 17be
00000100: 3eed 823d 64a6 26bd 08c3 bc3c ca76 e53d
00000110: 2ac6 d83d 5c1a f7bd 96bb 4cbd 9b9b debd
00000120: 3fe0 a6bd 5865 57bd ba85 e63d ed6c 9abd
00000130: 34bc b0bd f43a 743d c584 00be e8d9 9c3d
00000140: 448e a53d 9f8d 023e 0876 89bc 95c2 073e
00000150: e38d 073e ac67 9d3d f9ba cb3b 9ad3 db3d
00000160: 97fd 23be 80cb 833c 003a b839 0620 62bd
00000170: 8b71 eabd e696 2d3d 79b8 0a3e ac38 80bd
00000180: 694e 15bd 619e 843d 9f4f 15be 0eeb f0bd
00000190: b8e5 9d3d b4f6 f83d f01c 8dbc 68c5 d7bd
000001a0: 0ff4 70bd 731b 93bd 9850 e03d 34b7 5cbd
000001b0: e440 743d f055 3abc 0859 de3c 4b2a 163e
000001c0: 16d0 ecbc a8c3 e0bd 30c7 713d 0229 1ebd
000001d0: 8517 173e 49ab 073e 2d8d 023e 13d4 0d3e
000001e0: 11b4 f63d 1f14 83bd cf42 59bd 52ab 9bbd
000001f0: bf63 2cbd 2d1a 0d3e c96e 023d cfd2 ebbd
00000200: 0699 553d 4acd b13d 0d2a 2f3e e097 80bd
00000210: 8723 213e 4ef3 db3d 8f67 313e 4cae 313e
00000220: ec90 1dbe 47ca 333d 57a6 63bd ea15 e8bc
00000230: 9480 25bd 528a 25bd b6a5 6ebd ade9 bdbd
00000240: 9d37 cabb c220 153d 5a9d 30bc daf9 f1bc
00000250: b128 0d3e 0779 d83d e623 cbbd bb44 01be
00000260: 56e6 9e3d 501b 39bd a0d0 e7bc 3ed8 01be
00000270: 60da e1bd a009 a73b 316c 783d 9566 113e
00000280: 926d 173e 1204 49bd 56bc 423d 6f2e d8bc
00000290: f150 3d3d 9041 6bbd d7e8 de3d 3680 09be
000002a0: 683d b23c 6aef 14bd 2cba ea3d 9a53 ca3d
000002b0: e118 d03d 8fea e0bd fe97 973d 6fd6 06be
000002c0: 9fbf 50bd e56f eebd 702a c2bc a158 d2bd
000002d0: 6640 15bd 89d0 02be 2530 093e d8de 1dbd
000002e0: 5277 f63d aa08 b6bd b9c5 adbd c81b 553d
000002f0: 5555 88bd 4bd4 6bbd 806b 043d d19f 793d
00000300: 4e4f f43d e159 08be ae5b 5dbd 1832 803d
00000310: aa80 afbd b8b6 d33c 4a5c 06be 008e 343b
00000320: 4a99 d73d 9515 b23d 02c8 10be c0a4 0abe
00000330: 00f2 e0bd 981e e3bc d69f dbbd fec4 bf3d
00000340: ae7e f03c 4080 c23b fa67 95bd c4b8 ac3d
00000350: 1cd8 e3bd f873 e1bc 8359 eabd 2dfc bd3c
00000360: dd8b d83d 2e54 f0bd 6379 de3d 14f7 653d
00000370: 1831 e1bc 2ac2 f5bd a97e 333e f200 9a3d
00000380: 80cc 0dbc b8be 34bd 47e2 07be a7e2 f8bd
00000390: f9bc b0bd b8ac f0bd 3076 613d 8cb4 dabc
000003a0: 56c1 eabd 37f5 74bd 8e59 a83a 3988 593b
000003b0: b74c abbd e83f b9bc b5cc 223e 255a 073e
000003c0: 40b0 68bc 7099 1b3c e8f3 8e3d cbf7 61bd
000003d0: 5d36 803d e4fd a93d c09f 99bd 440b b23d
000003e0: 0d8b 053e 40f5 b3bb 6c17 d53b 5c56 623d
000003f0: 271e 30bd b274 febd 86fb 7e3d c8d1 2cbd
0.11624433 0.046467036 0.14489739 0.113772884 0.15112875 0.040920407 0.15217431 -0.076716304
0.16742185 0.05078591 -0.090904266 -0.1380624 0.032731768 -0.037325136 -0.023719832 0.054786474
-0.0100430995 0.03585734 0.1016764 0.09936456 0.16296612 -0.013291784 -0.021132413 0.12795246
-0.10558114 0.097511545 -0.06435001 0.069983184 0.019847946 -0.101447135 0.10286294 0.10781719
0.036390256 -0.07315224 0.039261937 -0.14165981 -0.0018168306 -0.12609503 -0.04108663 0.06504327
0.13951321 0.026164293 -0.030715525 0.02052477 -0.027273387 0.11602618 0.06190972 -0.09096295
0.13995592 -0.10800007 0.019018576 0.040290654 0.015787676 0.029759169 0.009842336 -0.08724318
0.031321824 0.031692654 -0.007983863 0.09087154 0.11425267 0.007324502 -0.09900245 -0.14756352
0.063929066 -0.040686026 0.023042217 0.11204298 0.10584672 -0.120655745 -0.049983583 -0.10869523
-0.0814824 -0.052586883 0.11255975 -0.07540307 -0.08629647 0.059626535 -0.12550648 0.0765875
0.08083776 0.12749337 -0.016779914 0.13257821 0.13237719 0.076857895 0.0062173572 0.10733719
-0.16014706 0.016088247 0.00035138428 -0.05520632 -0.11447438 0.042380236 0.13546933 -0.06260809
-0.03645173 0.06475521 -0.14581154 -0.11763583 0.07709831 0.1215643 -0.017225713 -0.10535699
-0.058826502 -0.0718297 0.10952872 -0.053885654 0.059632197 -0.011373028 0.027142063 0.14664571
-0.028907817 -0.109748185 0.05902785 -0.038613327 0.14755066 0.13248934 0.12749167 0.13850431
0.12046064 -0.06400322 -0.05304223 -0.07601036 -0.042087313 0.13779517 0.031843934 -0.11514818
0.052147888 0.08681734 0.17105885 -0.06278968 0.15736209 0.10739766 0.1732466 0.17351645
-0.15387315 0.04389408 -0.055578556 -0.028330762 -0.040405825 -0.040415116 -0.058263503 -0.09273086
-0.0061711804 0.036408193 -0.010779703 -0.029538084 0.13785054 0.10569959 -0.099189565 -0.12623875
0.07758777 -0.045192063 -0.028297722 -0.12680146 -0.1102798 0.005097583 0.060650054 0.14199288
0.14787892 -0.049076147 0.047542892 -0.026389329 0.04621977 -0.057435572 0.108842544 -0.13427815
0.021757796 -0.036361136 0.11461291 0.09879227 0.10160995 -0.109822385 0.07402037 -0.13167737
-0.050963994 -0.11642436 -0.023701876 -0.10270811 -0.03643837 -0.12774862 0.13397272 -0.0385426
0.12034477 -0.08888371 -0.08484978 0.052028447 -0.06656901 -0.057575505 0.032329082 0.06094343
0.11929189 -0.13315536 -0.05404251 0.062595546 -0.085694626 0.025843963 -0.13121143 0.002755046
0.105272844 0.08695523 -0.14138797 -0.1353941 -0.10983658 -0.02772455 -0.10723846 0.09363745
0.02935728 0.0059356987 -0.072952226 0.08433679 -0.11125204 -0.027521119 -0.11442854 0.023191536
0.10573552 -0.11734806 0.108629964 0.056143835 -0.02748923 -0.119999245 0.17528786 0.075197116
-0.008654714 -0.044127196 -0.13269912 -0.121526055 -0.08629794 -0.117516935 0.055044353 -0.02669742
-0.11462657 -0.059804168 0.0012844072 0.0033192767 -0.083642416 -0.02261348 0.15898402 0.13217981
-0.0142021775 0.009497032 0.06980115 -0.055167954 0.06260369 0.08300379 -0.07501173 0.08693555
0.13041325 -0.0054918826 0.0065030362 0.05525814 -0.042997506 -0.124246016 0.06225159 -0.04219225

hidden_layers.2.bias f4 [42]
00000000: 417b ddbd 92c1 7abd 900a abbd 11bc 463e
00000010: 23b8 56bd 0f09 273e f769 ef3d a58e 0b3d
00000020: 5e0a d6bd 54c2 ff3c 9527 b0bd 8511 273e
00000030: 2d27 1bbe 3eaa 003e 4deb 443e 1a7a e6bd
00000040: f529 9b3d c06b d7bd bebe 39bd 25c9 35bd
00000050: 94b0 933c 05ec 053e 477a 023e 877b b3bd
00000060: 5477 e4bd d7cb 3b3e 7abf 19be 9bc9 593d
00000070: 9723 03be e2b9 2cbd 3219 13be 44c8 fbbd
00000080: e0d8 ffbd 0894 74bd 3b8e e33d c877 d13d
00000090: 9568 d2bd 58df adbc 00d0 7a3c b622 1dbe
000000a0: 8855 393e 835a eabc
-0.108145244 -0.06121976 -0.08351624 0.19407679 -0.0524217 0.1631205 0.11690133 0.034071583
-0.10451196 0.031220593 -0.086013 0.16315277 -0.15151663 0.12564942 0.19230385 -0.11253758
0.07576362 -0.105185986 -0.04534792 -0.04438128 0.018028535 0.13078316 0.12741958 -0.08763795
-0.111555725 0.18339477 -0.15014449 0.05317078 -0.12806545 -0.04216946 -0.1436508 -0.12294057
-0.124925375 -0.059711486 0.11111113 0.102279246 -0.10273854 -0.021224663 0.01530838 -0.15345272
0.18099034 -0.028607612

hidden_layers.3.weight f4 [42, 42]
00000000: 425a 43bc ed65 bbbd cf5a 043b a773 3d3d
00000010: c881 09be 9cb5 3d3d fc30 203e e248 dc3d
00000020: 76fc 9ebd 47bf cbbd c9b7 f4bc fc5d ac3d
00000030: 08c8 973d 2dfc e33d c1c2 493d 19a4 f4bd
00000040: e206 023e 58f2 2c3d 80a3 f1bb 7b24 09be
00000050: 5316 84bc d53c 03bb b3f3 cf3c c997 99bc
00000060: fcc3 15bd 45c8 153e 8e45 923d c7fd c1bd
00000070: 4c0b 243d 5228 e93d 6a37 05be 0a7c fa3d
00000080: 5fe8 a7bd 8643 ba3d 0e8e 8a3d 4bae af3d
00000090: b481 843d 58d8 ae3c 4755 e2bd 4a37 0cbe
000000a0: b961 f639 b728 093e 7f16 d1bd 9053 6b3c
000000b0: 872b b0bd 9a64 293e 7c8d 78bd 28c7 d43d
000000c0: ec22 e23d 826f 0d3e 0c19 893d 5124 b1bd
000000d0: 9219 e33d fe72 04bd 263e 25bd d54c 413e
000000e0: 560b e13d 2655 8dbd 9285 133e 30a3 f0bc
000000f0: 1230 54bd 84c5 cdbc a51b 583d 1e66 833d
00000100: 98c4 383d e2e4 ca3c 00a9 d5bb 57a2 383d
00000110: ebc9 023e d74e 583c e81d a7bd 0289 c0bd
00000120: 00fe 99bd 4c27 60bd 9c82 79bd 36a1 bebd
00000130: 17ef 053e f3e2 1a3d 60e9 c5bd 000d 623a
00000140: 20af 893c a0a1 0cbe 3b74 d9bc f5e7 7bbd
00000150: 5e85 04bd 0a62 f1bd e5f0 b0bd 5767 153d
00000160: 6158 e0bd 83a2 98bd b0e5 e2bb f32d 0ebd
00000170: 5251 bcbd 617e 1d3d db0b 00be 8889 e33d
00000180: ed09 8cbd fab4 04bd 051f c53d f64f 09bd
00000190: 3072 acbd 20b7 613c c2b5 f1bd 6966 95bc
000001a0: 7628 283e b739 e63c 0abd ec3d adb0 e1b9
000001b0: 2a89 e2bd 0b01 af3d 1eba 0ebe dc37 e9bd
000001c0: e268 e73d e81a 09bd 3018 db3c 6006 77bd
000001d0: 0bb2 04be f89e 2e3d 745f d8bd 74e9 41bc
000001e0: f110 abbd 0147 17be e307 183e 171d 053e
000001f0: 531e a0bd f883 043d be4c f13d bc9d c33d
00000200: 2a80 fd3d a948 2c3e 468f e4bd 1c44 31bd
00000210: b4c8 373e 16ff d63c 1c92 08be 5e22 abbd
00000220: 4281 143e 5f96 f23d 5f7f 0bbe 9de8 4dbd
00000230: a37e d33d e892 0dbe f780 d53d 5e05 d23d
00000240: 5814 f0bc 46d7 32bd 4049 b0bd 065c 75bc
00000250: b764 1e3d ffa5 9bbb 389f b0bc a107 bfbd
00000260: 7292 33bd 111b f23d f7f5 12be cd41 183e
00000270: 800c 8bbd 90f8 373d 13c9 113e 15e3 88bd
00000280: d8c7 293e 3e91 323e ba53 56bd 010c 99bd
00000290: 5e44 e13d c098 72bb 4f2a 7bbd b3e0 ac3b
000002a0: 5579 893d 247b 9d3d 8987 da3d a914 2b3e
000002b0: 3788 f5bd 6bb3 01bd b6ad 6ebc e663 eb3d
000002c0: d352 95bc 0598 b53d c974 32bd c299 1fbc
000002d0: 9889 183d eac9 fa3d b1b0 9d3d d89d 2e3d
000002e0: ee04 303d 6663 0fbe 3692 913d d441 df3d
000002f0: cb88 1f3e 2bfa d83b 8092 0e3e 3529 053e
00000300: 0514 bbbd 2365 a43d 2870 533d 20db 1e3e
00000310: 7ac1 bd3d 7ec7 bb3d 7299 cdbd bc8b b8bd
00000320: b8e5 473d 3df0 f83d 9696 6c3d 1c6d bd3d
00000330: 82b9 71bd 1492 1dbe df4c 99bd 308e d6bd
00000340: 167a d03d 6824 14be 71a2 2bbd d7f9 053e
00000350: ed21 d13c a8c3 fb3d 19af 7f3c a673 3fbe
00000360: 486c bebd e80b c8bd c066 dc3d 4e88 913d
00000370: d12c 043e e437 88bd a00d f1bb 2555 fd3d
00000380: e33e 823d 9872 b93c cc82 3c3d 0043 393c
00000390: 803a b93a c389 1abe 7158 03be 6d59 0cbb
000003a0: fd3b a03c dafb 76bb c0c9 5abc 7a8a e93d
000003b0: 7dcd 0d3e b81d ba3c cc2c 6a3d 1c56 383d
000003c0: 69c1 86bd e00c a1bd 6293 c83d a50b 673d
000003d0: 9ed9 1bbe 3448 15bd c685 bf3d 59b6 023e
000003e0: 6066 f03b f1a8 063e bb4d 7dbd 2f64 93bd
000003f0: a8dd 92bc b243 58bd d41a 923d 735d 113e
-0.011923375 -0.091503 0.0020195728 0.046252873 -0.13428414 0.046315774 0.15643686 0.10756089
-0.07762997 -0.09948593 -0.029872792 0.084163636 0.074112 0.11132083 0.049257997 -0.11945362
0.12697938 0.042223305 -0.007374227 -0.13392822 -0.016123926 -0.0020025272 0.02538476 -0.018749135
-0.03656386 0.14627178 0.07142173 -0.09472232 0.040049836 0.113846436 -0.1300942 0.1223069
-0.08198618 0.0909491 0.06765376 0.085781656 0.064700514 0.021343395 -0.110514216 -0.13692966
0.00046993585 0.13394438 -0.10209369 0.014363185 -0.08602052 0.16542283 -0.060681805 0.103895485
0.11041817 0.13812068 0.066942304 -0.08649505 0.110888615 -0.032336228 -0.040342472 0.18876965
0.1098849 -0.069010064 0.14406422 -0.029374689 -0.051803656 -0.025118597 0.05276074 0.06415962
0.04510936 0.024767343 -0.0065203905 0.045076694 0.12772338 0.013202391 -0.08160001 -0.09401132
-0.0751915 -0.054724976 -0.060915574 -0.09308092 0.13079487 0.037814092 -0.096636534 0.0008623153
0.016807139 -0.1373353 -0.02654468 -0.06150051 -0.03235375 -0.117862776 -0.08639697 0.036475506
-0.10954357 -0.07452872 -0.0069243535 -0.03471179 -0.09195198 0.038450602 -0.12504523 0.111102164
-0.06837831 -0.032399155 0.09625057 -0.033523522 -0.08420217 0.013776571 -0.11802246 -0.01823731
0.16421685 0.028103692 0.11559494 -0.00043046978 -0.11061318 0.08545121 -0.13938186 -0.113876075
0.11299302 -0.033472925 0.026744932 -0.060308814 -0.12958543 0.042632073 -0.10565081 -0.011835445
-0.08352841 -0.1477318 0.14846759 0.12999378 -0.07818284 0.032352418 0.117822155 0.0955157
0.12377961 0.16824593 -0.1116014 -0.043277845 0.17947656 0.026244681 -0.13336986 -0.083561644
0.14502433 0.11845087 -0.13622807 -0.050270665 0.103268884 -0.13825572 0.10424989 0.1025493
-0.029306576 -0.043662332 -0.08607721 -0.014975553 0.038670268 -0.004750013 -0.021560296 -0.09327627
-0.043840833 0.11821569 -0.1435164 0.14868851 -0.067894936 0.044914782 0.1423686 -0.066839375
0.1658014 0.17438218 -0.05232594 -0.07472993 0.10999368 -0.0037017316 -0.061319645 0.0052758097
0.067125954 0.07689503 0.106703825 0.167071 -0.119888715 -0.031665247 -0.014567783 0.114936635
-0.01822797 0.08866886 -0.043568406 -0.009741249 0.037240595 0.12245543 0.07699717 0.042631
0.04297345 -0.14002761 0.07107966 0.109012276 0.15579526 0.006621619 0.13923073 0.13004
-0.09134678 0.08027103 0.051620632 0.15513277 0.09265418 0.091689095 -0.10039033 -0.09011027
0.04880306 0.12155197 0.057760797 0.092493266 -0.059014805 -0.15387756 -0.07485365 -0.10476339
0.10179536 -0.14467013 -0.041902963 0.13083588 0.025528872 0.12293178 0.015605711 -0.1869646
-0.09297997 -0.09767896 0.107617855 0.07106076 0.12907721 -0.06651285 -0.0073563606 0.12369756
0.06359651 0.02263765 0.046023175 0.011307478 0.0014131814 -0.15091614 -0.12826706 -0.0021415607
0.019559855 -0.0037686736 -0.013353765 0.114033654 0.13847919 0.02271925 0.057171628 0.045003995
-0.06579859 -0.07863784 0.09793736 0.05640759 -0.15219733 -0.03644581 0.09351687 0.12764873
0.007336423 0.13150384 -0.061841708 -0.07196843 -0.01792796 -0.052798934 0.07134023 0.14195804

hidden_layers.3.bias f4 [42]
00000000: ac08 903d 8822 893d 0065 073e ee55 8dbc
00000010: 953b e9bc ce59 f1bd e03e 513c 3d35 13be
00000020: 8aef 47bd 09de d03d 31d4 bf3d 5447 ecbd
00000030: 59cc 1dbe 70ec 1cbc b8ea da3c 82d7 9c3d
00000040: 6cd9 59bd 5d22 20bd 3be4 e1bd f6d8 76bd
00000050: d7b5 263d 12cf 74bd bde6 56bc 6360 4b3d
00000060: f815 64bd 5739 953d 946b 1bbd 1619 36bd
00000070: 5eeb 5e3d 9fba b83d b82b 83bd 7983 9f3d
00000080: 74a8 2abd 07cf fe3d f0d7 8e3c 5aae a03d
00000090: a0c1 a3bd 2cbd cfbd 0baf adbd 826b 0ebd
000000a0: 9680 82bd f54b b83d
0.07032904 0.066960394 0.13222122 -0.017252889 -0.028470794 -0.11784707 0.012771338 -0.14375778
-0.048812427 0.101986 0.09366644 -0.11537042 -0.15409984 -0.0095778555 0.02672325 0.07658292
-0.053185865 -0.03909527 -0.1102986 -0.060265504 0.04070076 -0.05976779 -0.013116536 0.04965247
-0.055685014 0.07286327 -0.03794439 -0.044457518 0.054423682 0.0901997 -0.06404823 0.07788748
-0.041664556 0.12441831 0.017436951 0.07845755 -0.079959154 -0.101435035 -0.084806524 -0.034770496
-0.06372182 0.08998863

output_layer1.weight f4 [40, 42]
00000000: 3bae 1a3d f255 9f3a 39dd 8a3d 0926 f5bd
00000010: 544c 033d aeed d9bd 0892 9d3d 6807 e8bd
00000020: 4009 113d e3fe 08be e79c 84bd d2fa 58bd
00000030: d615 83bd 6cd7 2dbd 3476 603d a252 08be
00000040: c15f a8bd 3c5c 07be 2c00 edbd 0126 e9bd
00000050: 8d35 92bd f306 93bd b8e1 a7bc f975 0bbe
00000060: c05b 9c3c e6c2 fd3d 0226 b5bd d1d8 193e
00000070: d530 01be fd2d 2abe eab2 6abd d667 68bd
00000080: ac43 643d a3b3 0ebe 168d 04be 9776 d13d
00000090: bc7b 85bd 40c9 b33c e9f0 9c3a ca05 d63d
000000a0: db1d a9bd 0526 e83d 60b8 643b 6227 1c3d
000000b0: 45fe 0e3e 1236 af3b a75d a63d 4541 343c
000000c0: ee98 0cbe 2d4f 0d3e 9bd1 193e 0d6d 293e
000000d0: 30d1 173e 74de a53d f8fa 483d 0098 eab8
000000e0: eaee d0bd 85ab fcbc 2372 0e3e d920 c73b
000000f0: 5eb4 69bd 8ae1 79bd c7cb 313e 6337 6b3d
00000100: 195f 403d 5db2 93bd 6eba eb3d 1655 0bbc
00000110: 98bc 053d c863 aebd 0685 033d 07e3 363e
00000120: 90e2 f3bd 92d6 6abd 8096 8bbc 592e f83b
00000130: 70fa 2e3d 224c 6cbd 9dff 6fbd 7052 b33c
00000140: a3b3 f73b c032 663c 0c82 a13d b8c3 d7bc
00000150: 6cf1 29bd a3d1 17bd 9858 28bc d9bb 89bc
00000160: 1349 89bc 04eb bdbd 0088 cdbd 1006 c6bd
00000170: f9e0 b3bd 5490 ad3d 32df b4bd 035b b0bd
00000180: 747d 6d3d 2fde 043e b041 abbc 0fe7 813c
00000190: 24d6 923d d2b4 d53d e927 da3c e4d1 b0bd
000001a0: 96ba ddbd a557 ca3d 814e 5bbd b16f 90bd
000001b0: c683 c83d 1e54 1e3e 2754 d23c 309e b73d
000001c0: abc2 2e3e 346f 8d3d 360a ba3d ec8c 223e
000001d0: ab0d 173e 8319 2d3e b22d d53d 2186 a0bd
000001e0: 5a01 973d b85e 673d ac1c 18bd 4615 c3bd
000001f0: cab1 da3d 774d 53bd fed0 c7bb 1c76 9ebd
00000200: 1ea4 5b3d 384f c7bd cd2a 27bd 6f9b 19bd
00000210: f98d febd 1104 e5bd c0b8 733d 4a78 b73d
00000220: ceba a9bc 00ff 7cba 953d eabd 3e86 ce3d
00000230: 7e0c dbbd 1f6e 693d 3c44 083d 459d 3bbd
00000240: 2b04 ddbd b389 353d 0e1f 853d 8194 f03d
00000250: d5f7 9d3c 2b73 55bd a03d 37bd 43dc f73d
00000260: 57e1 583d 8951 04be 86f3 debd 925c d33d
00000270: 522f f43d 7560 dcbd 4819 3d3d d49f 033e
00000280: 3bd4 d9bd 2ce0 31bd 1a92 f1bc 80d7 9dba
00000290: c7f2 c6bd 9462 1bbd 1e63 af3d b02d f8bd
000002a0: 0f83 04be 11fe 283d 447f e7bd b6a0 7bbc
000002b0: 88da c6bd 0273 ff3d d02e 44bd 43d2 d43d
000002c0: 70bc 0c3c 4322 643d 6428 4b3d a84d 563d
000002d0: 564f f63d f400 1a3d d2d9 76bd 1673 cd3d
000002e0: 90a4 ccbd d38f fc3d 0c16 0c3e 30a9 da3d
000002f0: f6b3 97bc 26b5 933d 685d c83d b168 bfbd
00000300: c2f1 d9bd 18ad f4bd 9c97 a6bc 40c6 f0bd
00000310: 90d1 d33c e622 063d 782a 89bc 214d 0e3d
00000320: 1c58 473d 40a3 de3d 38f1 dcbc 59e9 cd3d
00000330: eed1 62bc 18e5 fd3c df0c 39bd 883f bf3d
00000340: 6210 15be 01d9 003e 3d72 223d 952f c2bd
00000350: f49d babc 5a6a 70bd f65f 7cbd 0fbc 94bd
00000360: 77e5 0d3e efba 103e a0e5 a63b 52e9 393e
00000370: c289 143e bdec 02be 4098 b4bc b0f3 7cbc
00000380: f723 193e 5e96 ad3d 32d3 aa3d ab27 eb3d
00000390: bdcc 063d 481c 433d 4ba0 71bd d8c7 6b3d
000003a0: ac19 023e bebc d63d d059 553c 33bf d9bc
000003b0: 0134 cb3b fe41 88bd a247 f23d 839d e1bd
000003c0: f89f 753d 5cf7 2f3e 40e8 7bbb 208d 2a3c
000003d0: 2798 a9bd 0bf3 003e 41ba 0b3e caf7 cfbd
000003e0: f755 ec3c 801b 553d 007e e7bd 6aa8 f5bb
000003f0: 4cfa 69bd a0fd b53c 7367 d2bd b664 21be
0.037763815 0.0012156351 0.06780476 -0.11970145 0.032055214 -0.10641037 0.07693869 -0.11329538
0.035409212 -0.13378482 -0.06475239 -0.052973576 -0.06400649 -0.04244177 0.054800227 -0.13312772
-0.082213886 -0.13218778 -0.115722984 -0.11384202 -0.0713912 -0.0717906 -0.020493373 -0.13619222
0.019086719 0.123906896 -0.0884514 0.15024115 -0.12616284 -0.16619106 -0.057299532 -0.05673965
0.0557286 -0.13935713 -0.12944445 0.10227697 -0.06517741 0.02194655 0.0011973652 0.10450323
-0.082576476 0.11335377 0.0034899935 0.038123496 0.13964184 0.005347022 0.081233315 0.01100189
-0.13730213 0.13799734 0.15021364 0.16545506 0.14825892 0.0809907 0.049067467 -0.00011186302
-0.10201819 -0.030843506 0.13910727 0.006076914 -0.057056777 -0.061006106 0.17362891 0.057425868
0.046965692 -0.072117545 0.11510168 -0.008504173 0.03265056 -0.085151255 0.032109283 0.17860042
-0.11908448 -0.057333536 -0.017039537 0.0075738844 0.042719305 -0.057689793 -0.05859338 0.021889895
0.007559256 0.014050186 0.078861326 -0.026338443 -0.041490003 -0.03706516 -0.010275029 -0.016813206
-0.016758477 -0.09273341 -0.100357056 -0.09669125 -0.087831445 0.08474794 -0.088316336 -0.08611109
0.05798097 0.12975381 -0.020905346 0.015857248 0.0716975 0.10434879 0.026630359 -0.086337835
-0.10826604 0.09879998 -0.053541664 -0.070525534 0.09790759 0.15461776 0.025674893 0.08965719
0.17066447 0.06905976 0.09083979 0.1587407 0.14751308 0.16904263 0.10409106 -0.07838083
0.07373305 0.056486815 -0.03713672 -0.09525542 0.10678442 -0.051587548 -0.006097912 -0.07737371
0.05362331 -0.09731907 -0.040812302 -0.03750175 -0.12429423 -0.11182416 0.059502363 0.0895849
-0.020718958 -0.0009651035 -0.11437527 0.100841984 -0.10695742 0.056989785 0.0332682 -0.04580428
-0.107918106 0.044320773 0.06500064 0.11747075 0.019283215 -0.052111786 -0.044736505 0.121025585
0.052949276 -0.12921728 -0.10886292 0.10320391 0.11923088 -0.10760585 0.04616669 0.12853938
-0.10636183 -0.043426678 -0.029488612 -0.0012042373 -0.09714275 -0.03793581 0.08563827 -0.12118089
-0.1294062 0.04125792 -0.11303571 -0.015358141 -0.0970965 0.12473108 -0.047896206 0.10391667
0.008589849 0.055696737 0.049599066 0.052320153 0.12026851 0.037598565 -0.060266323 0.100317165
-0.09992325 0.1233212 0.13680285 0.10676801 -0.01851843 0.07212286 0.09783441 -0.0934614
-0.10641815 -0.119470775 -0.020335965 -0.11756563 0.025856763 0.032748125 -0.016743883 0.034741525
0.048668012 0.10870981 -0.02697049 0.10054273 -0.013843996 0.03099303 -0.04517829 0.093382895
-0.14557031 0.1258278 0.039659727 -0.09481732 -0.022780396 -0.058695175 -0.061614953 -0.07262432
0.13857065 0.1413381 0.0050932914 0.18155411 0.14505675 -0.12785621 -0.022045255 -0.015438959
0.14955126 0.08475946 0.083410636 0.114821754 0.032910097 0.047634393 -0.058990758 0.057563633
0.12705106 0.104852185 0.013021901 -0.026580429 0.0062012677 -0.06653212 0.11830069 -0.11016371
0.05996701 0.17184204 -0.0038437992 0.010409623 -0.08280974 0.12592714 0.13645269 -0.10154684
0.028849585 0.05202818 -0.113033295 -0.007496883 -0.057123467 0.022215664 -0.102736376 -0.15761074

output_layer1.bias f4 [40]
00000000: db40 35be 1160 803d 2e41 e83d ea0a 10be
00000010: c326 fe3d f78f 463e 48b2 a7bd d531 89bd
00000020: 8a28 ca3d 3ba3 9a3d a6ee 91bd b854 f2bd
00000030: dabd 1dbe 6009 f8bb 5a52 ce3d 5d60 5fbd
00000040: 73d7 8bbc 8d4c 11be 5a3e 1f3e 14c0 a6bd
00000050: 7b9e 7dbc b851 fabd 9d70 09be d7bd b7bd
00000060: 8ec6 7e3d b6c4 1f3d 6493 c23d cf53 043d
00000070: e379 9b3c 1818 273e c4fc 64bd eb61 edbd
00000080: e111 0bbe 6ca4 70b8 3af2 96bd 0582 c33b
00000090: e4cf e03d 42c5 b83d c89f 013e 3eee 1fbe
-0.17700522 0.06268323 0.11340557 -0.14066663 0.12409737 0.19390856 -0.08188301 -0.06698958
0.098710135 0.07550665 -0.07125597 -0.11832565 -0.15404454 -0.007569477 0.10074301 -0.05453526
-0.017070508 -0.14189358 0.15551129 -0.08142105 -0.015479679 -0.12222618 -0.13421865 -0.08971756
0.062201075 0.039005958 0.09500769 0.03230649 0.018979019 0.16317785 -0.05590512 -0.11590942
-0.13581039 -5.737359e-05 -0.0737042 0.0059664273 0.10977152 0.09021999 0.12658608 -0.15618226

output_layer2.weight f4 [1, 42]
00000000: c9a2 a93d fc0d 6a3d 04c8 f33d 1d44 873d
00000010: bc03 dc3d aa05 d0bc e05e be3c a85a 18bd
00000020: 647a 093d 2cb5 8d3d 27c0 bd3d 5fca babd
00000030: c8a4 a2bc 1e1e 09be 2b50 9abd a5c0 bd3d
00000040: 9e09 ba3d 180d 20bd ede6 75bd 9151 18bd
00000050: 1598 8c3b 487a 1a3d 72c6 c83d 2558 d13d
00000060: 38b0 d8bc 60d1 2f3d 5bdd 24bd 78af d4bc
00000070: 09d0 0bbc b76c a5bc ade2 143e 9760 843d
00000080: 00ac 96bd 9358 033e 0294 ce3d f417 863d
00000090: faa7 943d bc6e 513d f2e8 dcbd 1bb6 0c3e
000000a0: 70d0 bcbc 8218 383e
0.08283002 0.057142243 0.11903384 0.066047885 0.107429 -0.025393326 0.0232386 -0.03719583
0.033563986 0.069193214 0.09265166 -0.091206305 -0.019853964 -0.13390395 -0.07534822 0.0926526
0.090838656 -0.039074987 -0.06003468 -0.037187163 0.0042905905 0.037714273 0.098034754 0.1022189
-0.026451215 0.042924285 -0.040250164 -0.025962576 -0.008533486 -0.02019344 0.14539595 0.064637356
-0.07357025 0.12826757 0.10086824 0.065475374 0.072586015 0.051130995 -0.10786618 0.13741343
-0.02304861 0.17978099
