src/models/dynamics_46.pt (torch, 47860 bytes, 13 tensors)

input_layer.weight f4 [42, 42]
0	0x3dffb5d8	0.12485856
1	0xbdcb7d41	-0.09936
2	0xbe1b71c8	-0.15180123
3	0x3e2d4f76	0.16924843
4	0xbd4476bc	-0.047964796
5	0xbde4ca70	-0.111714244
6	0xbdf3689c	-0.11885187
7	0xbdb904cb	-0.09034117
8	0xbd28499c	-0.041085824
9	0x3c3baf3e	0.011455355
10	0xbddf7e99	-0.109128185
11	0xbd0c4b2a	-0.03425137
12	0x3d860986	0.06544785
13	0x3da2dcc1	0.07952262
14	0xbd05ace8	-0.0326356
15	0xbd48c76f	-0.04901832
16	0xbd167c2a	-0.036739506
17	0x3c55d5af	0.013051434
18	0x3dc758d1	0.09733737
19	0xbd355dfd	-0.044279087
20	0x3dbf8416	0.09351365
21	0x3cb2b7c4	0.021816142
22	0xbdde68f0	-0.10859859
23	0xbd81b331	-0.06333006
24	0x3cc26f6e	0.023734774
25	0xbdf36d3b	-0.118860684
26	0x3dbbba52	0.09166397
27	0xbe015eaa	-0.12633768
28	0x3d8aebc2	0.067832485
29	0x3d08a5d0	0.033361256
30	0x3da1ea01	0.07905961
31	0xbd8a7371	-0.067603
32	0x3d44f7c4	0.04808785
33	0xbcffd685	-0.03123022
34	0xbe046e3a	-0.12932673
35	0x3dbbe627	0.091747575
36	0x3def7d3c	0.116938084
37	0x3df4132b	0.119177185
38	0x3d6e920a	0.058244742
39	0xbcc5362c	-0.024073683
40	0xbd1a9e41	-0.03774858
41	0xbd934537	-0.07190936
42	0xbd1c21e9	-0.038118277
43	0xbdbdc2e1	-0.09265686
44	0x3abb1c6c	0.0014275438
45	0x3d28b8f1	0.041192
46	0x3e16d53e	0.14729783
47	0x3e0500b5	0.12988551
48	0xbda91664	-0.08256224
49	0x3b9bc5c4	0.0047538
50	0x3d9a68c4	0.07539514
51	0x3d8138b3	0.06309643
52	0x3dc49455	0.095986046
53	0xbbbb4a5f	-0.005715653
54	0xbd910938	-0.070818365
55	0x3bfba151	0.0076791425
56	0xbd73ab05	-0.05948927
57	0xbb4dc5dd	-0.0031398453
58	0xbe0e40a3	-0.13891844
59	0xbcd405f9	-0.025881754
60	0x3d9a6204	0.07538226
61	0x3d9d8aeb	0.07692512
62	0x3e00f367	0.1259285
63	0xbe2517f6	-0.16122422
64	0x3d8a20d5	0.067445435
65	0x3e04dbb4	0.12974435
66	0x3d8bd514	0.06827751
67	0xbc9fff97	-0.019531054
68	0xbe04db03	-0.12974171
69	0xbcb75857	-0.02238099
70	0x39c94a32	0.00038392987
71	0x3dc6804a	0.09692438
72	0x3dc5d46d	0.096596576
73	0xbdad5481	-0.084633835
74	0x3d03c69f	0.03217184
75	0x3e2591ad	0.16168852
76	0x3e13dc3e	0.14439484
77	0x3e06b320	0.13154268
78	0x3c815140	0.015785813
79	0xbdafe300	-0.08588219
80	0xbd65a6da	-0.056067325
81	0xbdd8902a	-0.10574372
82	0xbdefdddc	-0.11712238
83	0x3daacf34	0.08340302
84	0xbdfaa0c0	-0.12237692
85	0x3de87a17	0.11351412
86	0x3de41ee3	0.11138704
87	0x3c5bb494	0.013409752
88	0xbdf3f5ee	-0.11912142
89	0xbdb1f9f6	-0.086902544
90	0xbdc0b39e	-0.09409259
91	0x3dd7262b	0.10505327
92	0x3cbf35e8	0.023341134
93	0xbb89a53b	-0.004200605
94	0xbc0402ee	-0.008057339
95	0xbd6ccd1c	-0.057812795
96	0x3de55dd5	0.11199538
97	0x3d8aa791	0.06770242
98	0x3c8a780c	0.016902946
99	0x3da812db	0.082067214
100	0xbe01bd51	-0.12669875
101	0x3daac31d	0.08337996
102	0xbd80dd2e	-0.06292187
103	0x399f9119	0.0003043495
104	0xbdc2f754	-0.0951983
105	0x3da10a0f	0.07863247
106	0xbe195186	-0.14972505
107	0x3db799a4	0.089648515
108	0xbe1aeeed	-0.15130205
109	0xbdfca992	-0.123370305
110	0x3de4c2dd	0.1116998
111	0xbda79a2e	-0.08183704
112	0x3d0e5042	0.03474451
113	0x3d7cf268	0.061754614
114	0xbddc5575	-0.10758487
115	0xbe28bafd	-0.1647758
116	0x3d816c09	0.06319434
117	0xbd9770a9	-0.07394535
118	0xbe2019ec	-0.15634888
119	0xbdfeeb57	-0.12447231
120	0xbde49c8f	-0.11162674
121	0xbe2297ff	-0.15878294
122	0x3da7f55c	0.082010955
123	0x3d5c7ff3	0.05383296
124	0x3d0ac47c	0.03387879
125	0xbe008dfa	-0.1255416
126	0xbd8091a4	-0.06277779
127	0x3dcd9cf0	0.10039699
128	0x3da2b0d7	0.07943886
129	0x3d6f9b5f	0.058497783
130	0xbd1845f9	-0.037176106
131	0xbd86147b	-0.06546875
132	0x3de2b336	0.11069338
133	0x3c336d2c	0.010951322
134	0x3e197612	0.14986446
135	0xbdf9a3fc	-0.12189481
136	0x3e08de66	0.13366088
137	0xbd65e94c	-0.056130692
138	0x3e0f4b25	0.13993509
139	0x3d334762	0.043769248
140	0xbe028152	-0.12744644
141	0xbd75c65b	-0.06000362
142	0xbe1867b1	-0.14883305
143	0x3dbcd9c7	0.09221225
144	0xbdbc6a40	-0.09199953
145	0x3de6858a	0.11255939
146	0xbc7f1314	-0.015568513
147	0xbdfd0384	-0.12354186
148	0x3d183d94	0.0371681
149	0x3c3a5215	0.011372109
150	0x3daca755	0.084303536
151	0xbe2f5950	-0.17123914
152	0xbddf0c02	-0.10890962
153	0x3d474e91	0.04865891
154	0x3d41433d	0.047183264
155	0xbe313aa2	-0.17307523
156	0x3e0d209f	0.13781975
157	0x3db2b831	0.08726538
158	0xbe2c84df	-0.16847561
159	0x3d8588df	0.06520247
160	0xbe15c244	-0.14624888
161	0xbd7dd668	-0.06197205
162	0xbd1e65ab	-0.038671177
163	0x3db0dfb7	0.0863642
164	0xbd55f971	-0.05223984
165	0xbbd48c2a	-0.0064864354
166	0xbd0634ab	-0.03276507
167	0x3ce511e8	0.02796264
168	0x3d70c64c	0.05878286
169	0xbd832d80	-0.06405163
170	0xbdbabd1f	-0.09118103
171	0x3dbb280a	0.09138496
172	0x3df6f4fb	0.12058445
173	0x3d95a759	0.0730731
174	0x3d32e7a6	0.04367795
175	0x3db6f31b	0.089330874
176	0xbd9c43f6	-0.0763015
177	0x3dbd42bc	0.09241244
178	0xbcacd9b3	-0.0210999
179	0xbe294438	-0.1652993
180	0x3cf2a02d	0.029617393
181	0x3db64111	0.08899129
182	0xbda37561	-0.079813726
183	0xbd198bee	-0.037486963
184	0x3d6521c5	0.05594041
185	0x3dc0e7f2	0.0941924
186	0x3c85645b	0.016283205
187	0xbe132a64	-0.1437164
188	0xbdc4e6a0	-0.09614301
189	0x3d7cb221	0.061693314
190	0x3cab13a8	0.020883396
191	0x3de9c5be	0.114146695
192	0xbd7b5070	-0.061356008
193	0x3d001e71	0.03127903
194	0x3bd920a5	0.006626206
195	0xbb804170	-0.0039140508
196	0xbd2ced4b	-0.042218488
197	0xbd48fbf9	-0.049068425
198	0xbd9d13b1	-0.076697715
199	0xbde81c07	-0.11333471
200	0xbca5f637	-0.020259006
201	0x3e0b9922	0.13632634
202	0x3d5724b3	0.052525233
203	0xbd4fc437	-0.050724234
204	0x3e175be0	0.14781141
205	0xbe156d3f	-0.14592455
206	0xbe03ea3d	-0.12882324
207	0xbd1cb7b1	-0.03826112
208	0xbc6c0822	-0.014406236
209	0x3e1520b2	0.14563254
210	0xbb873127	-0.0041257325
211	0x3da6670a	0.08125122
212	0x3dd343d0	0.103156686
213	0x3e1ffffe	0.15624997
214	0xbe0f298d	-0.13980694
215	0x3d471d75	0.048612077
216	0xbd679210	-0.05653578
217	0xbdceae27	-0.10091811
218	0x3dbc0e5d	0.09182427
219	0xbd362ec6	-0.0444782
220	0xbdf978d7	-0.121812515
221	0xbd028168	-0.031861693
222	0xbddae9ff	-0.106891625
223	0x3c1f7d2d	0.009734434
224	0xbde8c338	-0.1136536
225	0xbe21ce8f	-0.15801452
226	0xbd9bca97	-0.07607
227	0xbd6692f5	-0.056292493
228	0x3d07c2a2	0.0331446
229	0x3d79697d	0.060891617
230	0x3d8130b5	0.06308118
231	0xbd0787ed	-0.033088613
232	0x3d87b7b7	0.06626838
233	0x3bd370c7	0.006452653
234	0x3d92e9c8	0.071734965
235	0x3cd5c3c3	0.026094323
236	0x3cc11f5a	0.02357452
237	0xbcc5a3f9	-0.02412604
238	0xbd9bd9e6	-0.0760992
239	0xbde314bc	-0.11087939
240	0xbd5cc734	-0.053900912
241	0xbc2f0cad	-0.0106841745
242	0x3e34cc50	0.17656064
243	0xbd1ef2fd	-0.03880595
244	0x3d58118a	0.0527511
245	0x3dc40f87	0.09573274
246	0xbdbec1aa	-0.09314282
247	0x3e0b7384	0.13618284
248	0x3d7e485f	0.062080737
249	0x3d939b38	0.0720734
250	0xbe38e30d	-0.18055363
251	0xbd20aae0	-0.03922546
252	0xbde996ab	-0.11405691
253	0xbd480485	-0.048832435
254	0x3e28e44b	0.16493337
255	0xbe10bedf	-0.14135312

input_layer.bias f4 [42]
0	0x3d16b181	0.036790375
1	0x3da9a2e2	0.082830206
2	0x3df8eef4	0.12154952
3	0x3dbde39f	0.09271931
4	0x3de8cdd0	0.113673806
5	0x3db58bed	0.08864579
6	0x3dd4afeb	0.10385116
7	0xbd8ec608	-0.06971365
8	0xbd78aede	-0.06071364
9	0xbc74bc1e	-0.014937429
10	0x3d20b284	0.039232746
11	0xbd08189b	-0.03322659
12	0xbd1b243a	-0.037876345
13	0xbd047b9a	-0.032344438
14	0xbe03c96a	-0.12869802
15	0x3def14d0	0.116738915
16	0xbacfa193	-0.0015841
17	0x3cedfc03	0.029050833
18	0x3d086278	0.033297032
19	0x3d5e5162	0.05427683
20	0xbe141b1a	-0.14463463
21	0xbd00ae6b	-0.031416338
22	0xbe0c1854	-0.13681155
23	0x3dcfde3a	0.10149808
24	0xbc400842	-0.011720719
25	0x3df46b28	0.11934501
26	0x3e11bdf3	0.14232616
27	0x3dbd9a6c	0.09257969
28	0x3e143d3c	0.14476484
29	0x3db64e9f	0.089017145
30	0x3e2271ec	0.1586377
31	0xbdc6377b	-0.09678551
32	0x3de6dec7	0.1127296
33	0x3df9a4cd	0.121896364
34	0xbdfbd731	-0.12296904
35	0xbd3e057c	-0.04639195
36	0xbdb16153	-0.08661141
37	0x3e2c1956	0.1680654
38	0xbc8c5bd3	-0.017133629
39	0xba21a48a	-0.0006166181
40	0x3d06ba3f	0.032892462
41	0xbe1bb6db	-0.15206473

hidden_layers.0.weight f4 [42, 42]
0	0x3d9c8e92	0.07644381
1	0x3df7e7c5	0.121047534
2	0xbdbd98df	-0.092576735
3	0x3dbb3fef	0.09143054
4	0x3db6fc49	0.08934838
5	0xbd50cc0b	-0.05097584
6	0xbbfc1b8a	-0.0076937126
7	0x3e249977	0.16074167
8	0x3dd8c27e	0.105839714
9	0xbdf15b4a	-0.1178499
10	0x3d9e8aa0	0.07741284
11	0x3d333597	0.04375228
12	0x3db04587	0.08607011
13	0x3db9ad9a	0.09066315
14	0xbd80fa91	-0.06297792
15	0x3db9f3b0	0.09079683
16	0x3c9cbc48	0.019132748
17	0xbde65d62	-0.1124828
18	0x3da24caa	0.07924779
19	0xbe1cf9a8	-0.15329611
20	0xbde974f3	-0.113992594
21	0xbcd650f4	-0.026161648
22	0x3dd25c9b	0.10271569
23	0x3d8c1758	0.0684039
24	0x3d9219c1	0.071338184
25	0xbdd09d6a	-0.10186274
26	0xbe1441f2	-0.14478281
27	0xbd6f5115	-0.058426935
28	0xbcc8ee9c	-0.02452784
29	0x3d44343f	0.04790139
30	0x3df3029e	0.118657336
31	0x3d58d383	0.05293609
32	0xbcc11cd2	-0.023573313
33	0xbe1b5885	-0.15170486
34	0x3d1ce2f7	0.038302388
35	0x3dd58f82	0.104277626
36	0xbdc0f714	-0.094221264
37	0x3db3b2fc	0.08774373
38	0x3c8d0108	0.017212406
39	0x3d46b2f0	0.04851049
40	0xbd8228e5	-0.06355456
41	0xbbc1dc20	-0.0059161335
42	0xbd4cd1c4	-0.050004736
43	0xbdd115cf	-0.10209238
44	0x3da05e38	0.07830471
45	0x3d20c888	0.03925374
46	0xbd7bd5a8	-0.061483055
47	0x3e01fadf	0.12693356
48	0xbd26799a	-0.040643312
49	0xbce210e0	-0.027595937
50	0x3e18bf01	0.14916612
51	0x3c8e2498	0.017351434
52	0xbc996528	-0.018724993
53	0xbdbf5bba	-0.09343667
54	0xbd8180aa	-0.06323369
55	0xbd0df858	-0.034660667
56	0x3e035917	0.12826954
57	0xbe0f3d90	-0.13988328
58	0xbd0da2a0	-0.03457892
59	0xbd8332ec	-0.06406197
60	0xbda4b691	-0.08042634
61	0xbd9b7f2c	-0.075926155
62	0x3e180623	0.14846091
63	0xbda5863b	-0.08082243
64	0xbd1278aa	-0.035759605
65	0xbe059a8a	-0.13047233
66	0x3d6145e4	0.054998294
67	0xbdd50c76	-0.10402767
68	0x3d9ed780	0.07755947
69	0xbd10d54e	-0.035359673
70	0xbd41663c	-0.04721664
71	0x3c70d250	0.01469858
72	0xbdd09416	-0.10184495
73	0xbdaf7517	-0.08567255
74	0x3dbadaf4	0.09123793
75	0x3e088d9d	0.13335271
76	0xbd54bad2	-0.05193598
77	0xbc580c20	-0.013186485
78	0x3dcfe296	0.1015064
79	0xbdb63478	-0.08896726
80	0x3b7d1900	0.0038619637
81	0x3dd8017e	0.105471596
82	0xbd8be5e3	-0.06830957
83	0xbd123422	-0.03569425
84	0x3e2d4360	0.16920233
85	0x3cb93c66	0.022611808
86	0x3e043b2b	0.12913196
87	0x3e1a73f4	0.15083295
88	0x3d3433c4	0.04399468
89	0x3c8fd4fe	0.017557617
90	0x3de62805	0.11238102
91	0xbc256886	-0.010095721
92	0xbde4c6a8	-0.11170703
93	0xbde505ea	-0.11182769
94	0x3e226f20	0.15862703
95	0xbdafc880	-0.08583164
96	0xbe067a24	-0.1313253
97	0x3d1d35cd	0.038381387
98	0x3d8c5e39	0.06853909
99	0x3cecdcbf	0.028913854
100	0xbd84c265	-0.0648239
101	0x3dc303e3	0.09522226
102	0x3e310f22	0.17290929
103	0x3e053f75	0.13012488
104	0x3dace99c	0.08442995
105	0xbc91c497	-0.017793937
106	0x3df3af2e	0.11898647
107	0xbde40f1c	-0.111356944
108	0x3d2477c2	0.040153272
109	0xbdbe7ec7	-0.093015246
110	0xbd708cf9	-0.058728192
111	0xbdef1c36	-0.11675303
112	0x3ca733c3	0.020410424
113	0xbd99cc43	-0.07509663
114	0xbc7f4b42	-0.015581908
115	0x3d87da18	0.06633395
116	0xbba371a9	-0.0049879146
117	0x3e0dd4cb	0.13850705
118	0xbdd014a3	-0.10160186
119	0x3da8a0f0	0.082338214
120	0x3d9f7d65	0.07787589
121	0x3c9acabe	0.018895503
122	0xbde68c57	-0.112572365
123	0x3d55df5c	0.052214965
124	0x3d74ca93	0.059763502
125	0xbe116c8e	-0.14201567
126	0xbda5d373	-0.08096971
127	0x3e1e0773	0.15432529
128	0xbdc012e1	-0.09378601
129	0xba6299c8	-0.0008644131
130	0xbd3ea675	-0.046545465
131	0xbd90d489	-0.07071788
132	0x3defdb16	0.11711709
133	0x3c5b6253	0.013390142
134	0xbc53c087	-0.01292432
135	0x3e20eb8c	0.15714854
136	0x3c27ab0f	0.010233655
137	0xbd782749	-0.06058434
138	0x3d8ef27f	0.06979846
139	0xbd21399f	-0.039361592
140	0xbd916e97	-0.071011715
141	0xbd956083	-0.07293799
142	0x3d3f2a43	0.046671163
143	0xbdd57a6f	-0.10423743
144	0xbd69811f	-0.057007905
145	0x3d2f2173	0.04275651
146	0xbd881ea5	-0.0664647
147	0xbdccefce	-0.100066766
148	0x3db5c34c	0.088751405
149	0xbd20c663	-0.039251696
150	0x3d213c11	0.039363924
151	0x3dc0f5df	0.09421896
152	0x3e2a5439	0.16633691
153	0xbd49f295	-0.04930361
154	0x3cb94ed2	0.022620592
155	0xbdec05f4	-0.11524573
156	0x3d44f8c3	0.0480888
157	0x3e143547	0.14473449
158	0xbdc9391c	-0.09825346
159	0xbd776e0c	-0.060407683
160	0x3d9bdd6a	0.07610591
161	0xbdcbfb69	-0.09960062
162	0xbd19b191	-0.037522856
163	0x3dad149e	0.08451198
164	0xbc701dd6	-0.014655551
165	0x3d9dac7a	0.07698913
166	0x3da00558	0.07813519
167	0x3dee9746	0.11649947
168	0x3cc82784	0.024432905
169	0x3d1894b8	0.037251204
170	0x3c8bc332	0.01706085
171	0x3e05c15f	0.13062046
172	0xbcfebd95	-0.03109626
173	0xbce7739d	-0.02825337
174	0xbca394ea	-0.019968469
175	0x3e065e23	0.13121848
176	0x3d50e5a7	0.051000264
177	0x3e17330f	0.14765571
178	0x3d4647fd	0.048408497
179	0x3d693062	0.056930907
180	0x3dc514bf	0.09623098
181	0x3df9ae5e	0.12191461
182	0x3e0837bb	0.1330251
183	0x3e1ba23c	0.15198606
184	0xbdce39cd	-0.100696184
185	0x3d33af2e	0.043868236
186	0x3dcb2682	0.09919454
187	0xbddd9f30	-0.10821378
188	0x3d4df240	0.050279856
189	0xbcb9a9f3	-0.022664046
190	0x3ce90540	0.028444886
191	0x3d3fdb2b	0.046839874
192	0x3d6c34d6	0.057667576
193	0xbdef5947	-0.1168695
194	0xbe096836	-0.1341866
195	0x3e047d6a	0.12938467
196	0x3d88b86c	0.06675801
197	0x3d7612e9	0.060076628
198	0xbb29c1ff	-0.0025902984
199	0xbdbdd92a	-0.092699364
200	0xbdbfab32	-0.09358825
201	0xbc66d3d6	-0.014088592
202	0x3d66078f	0.056159552
203	0xbb4d05c0	-0.0031283945
204	0x3df06242	0.11737491
205	0xbc1928c2	-0.009348096
206	0x3dd288e2	0.102800146
207	0xbd841310	-0.064489484
208	0xbdc15f4c	-0.094420046
209	0xbca68a40	-0.020329595
210	0xbdca9994	-0.09892574
211	0xbdf29f32	-0.1184677
212	0xbcdbc4d0	-0.026827246
213	0xbd2c0e83	-0.042006027
214	0xbd040a69	-0.03223649
215	0x3d48de01	0.049039844
216	0x3a8c5687	0.001070694
217	0xbd1ce750	-0.038306534
218	0xbbdcd696	-0.006739448
219	0xbd1b7c80	-0.03796053
220	0x3e03f1ad	0.1288516
221	0xbc536333	-0.012902069
222	0x3b067e3a	0.0020522014
223	0xbd7d16cc	-0.06178932
224	0xbe058fec	-0.13043183
225	0x3ac54111	0.0015049299
226	0xbdf304e9	-0.11866171
227	0xbdfda7be	-0.1238551
228	0x3d3aa3c3	0.04556633
229	0xbbe88186	-0.0070955185
230	0xbd87f082	-0.0663767
231	0xbd41a5e0	-0.04727733
232	0x3e09816f	0.13428281
233	0x3cecf5c2	0.02892578
234	0x3defe831	0.11714209
235	0xbd14dddb	-0.03634439
236	0x3e07cba6	0.1326128
237	0x3e1079d1	0.1410897
238	0x3da0f3a7	0.07858973
239	0x3e08f0c2	0.13373092
240	0x3c65ae8f	0.014018669
241	0x3d1272ca	0.035754003
242	0x3db7c05d	0.08972237
243	0x3df1efdd	0.118133284
244	0xbdb3dc7a	-0.08782287
245	0xbd563b0a	-0.052302398
246	0x3ddb1693	0.10697665
247	0x3d41d48a	0.047321834
248	0x3d879984	0.06621078
249	0x3d1d27e6	0.03836813
250	0x3d8936e1	0.066999204
251	0x3ce0a278	0.027421221
252	0xbd3fe142	-0.046845682
253	0x3db27cea	0.08715232
254	0x3d4024bc	0.046910033
255	0xbdbc758f	-0.0920211

hidden_layers.0.bias f4 [42]
0	0xbd04da3f	-0.0324347
1	0xbd4f20b0	-0.050568283
2	0x3e2cc562	0.1687217
3	0x3dfee78d	0.124465086
4	0x3d973cd4	0.07384649
5	0x3dda0371	0.10645188
6	0xbe023ab7	-0.1271771
7	0x3cdc6a91	0.026906284
8	0xbdf73c0e	-0.120720014
9	0x3d87ba52	0.06627335
10	0xbbe1a485	-0.0068860673
11	0x3d9f6969	0.07783777
12	0xbdd2ce70	-0.10293281
13	0x3e05fac0	0.13083935
14	0x3da09851	0.07841552
15	0x3dbed613	0.09318175
16	0xbe164828	-0.14675963
17	0xbcf634a1	-0.030054392
18	0xbd9da6ba	-0.07697816
19	0xbd820831	-0.06349219
20	0x3b6c7b85	0.0036084366
21	0xbd8c2197	-0.06842344
22	0xbdcf3b19	-0.10118694
23	0xbda91037	-0.08255046
24	0x3d6ddc0f	0.058071192
25	0x3daf0a73	0.08546915
26	0x3d9d5054	0.07681337
27	0xbdd253cd	-0.1026989
28	0xbd531d0a	-0.051541366
29	0x3dab2ac8	0.08357769
30	0xbdb19370	-0.086706996
31	0x3c1a407f	0.009414791
32	0x3ce311a9	0.027718382
33	0xbde5aae4	-0.112142354
34	0xbde33923	-0.11094882
35	0xbe06b204	-0.13153845
36	0xbe22a205	-0.15882118
37	0xbdffb220	-0.124851465
38	0xbde6cc74	-0.11269465
39	0x3d4e5eac	0.050383255
40	0x3b0d79c9	0.0021587482
41	0x3d76e391	0.060275618

hidden_layers.1.weight f4 [42, 42]
0	0x3e0c9533	0.1372879
1	0xbcb2c908	-0.021824375
2	0x3d3eb0b4	0.046555236
3	0x3e2a5f32	0.16637877
4	0x3e105b78	0.14097393
5	0xbdbda3c2	-0.0925975
6	0x3e17ef79	0.14837445
7	0x3e0703a2	0.1318498
8	0xbd6df6bc	-0.058096632
9	0x3e13072c	0.14358205
10	0xbd1c9364	-0.0382265
11	0xbdfaec39	-0.12252087
12	0x3e280852	0.16409424
13	0x3e0360ba	0.12829867
14	0x3e1fe680	0.15615273
15	0x3d8e94cd	0.06961975
16	0x3e0b58d7	0.13608108
17	0xbdeec93c	-0.11659476
18	0x3e1cacb7	0.1530026
19	0xbd42a25e	-0.047518127
20	0xbdc92d59	-0.098231025
21	0xbdc558c1	-0.09636069
22	0x3db25361	0.087073095
23	0xbde4a679	-0.11164565
24	0x3d0ca7fd	0.034339894
25	0xbdb04bc3	-0.086082004
26	0x3dabd9d4	0.08391157
27	0x3dfd59a3	0.123706125
28	0x3b9c4e60	0.004770085
29	0x3dec8c33	0.115501784
30	0xbd906253	-0.07050004
31	0xbb77000f	-0.0037689244
32	0xbdd9441e	-0.106086954
33	0x3de13736	0.10996859
34	0x3d27a522	0.040928967
35	0xbbd6cb80	-0.006555021
36	0x3bedb1b9	0.007253852
37	0xbd7f6f86	-0.062362216
38	0xbdc3c810	-0.09559643
39	0xbcdcdd9a	-0.026961137
40	0x3cc93a7a	0.024564017
41	0x3e03deb4	0.12877923
42	0xbde42f98	-0.1114189
43	0x3d863284	0.06552604
44	0xbe00793c	-0.12546247
45	0xbdf793d6	-0.12088744
46	0xbbe757e4	-0.007060038
47	0xbcf72141	-0.030167224
48	0xbbafe800	-0.0053682327
49	0xbd3f50d4	-0.046707943
50	0x3e058775	0.13039954
51	0xbd5fb77a	-0.054618336
52	0x3e1ca754	0.15298206
53	0x3cbc3701	0.022975447
54	0xbdc347cf	-0.09535181
55	0x3e2929df	0.16519879
56	0x3d3a91f1	0.045549337
57	0xbe044e1a	-0.12920418
58	0xbe0300d5	-0.12793286
59	0x3db9ba8a	0.09068783
60	0x3d3827eb	0.044959944
61	0xbdd472ba	-0.10373445
62	0x3e2c6ce0	0.16838408
63	0x3db90492	0.09034075
64	0xbd6d7a4d	-0.057977963
65	0xbe07f608	-0.13277447
66	0x3cfe4129	0.03103693
67	0xbc8cbda7	-0.017180277
68	0x3e211e9c	0.15734333
69	0xbe28914e	-0.1646168
70	0x3dcbd59a	0.09952851
71	0x3de6980c	0.112594694
72	0xbdd55549	-0.104166575
73	0xbd393c9d	-0.04522382
74	0x3e09ff06	0.1347619
75	0x3de3134a	0.110876635
76	0x3d990656	0.074719116
77	0x3e08c11b	0.13354914
78	0x3d3c58a9	0.04598299
79	0xbdafaacf	-0.08577501
80	0xbe076949	-0.13223757
81	0xbda602af	-0.081059806
82	0x3d335a3a	0.04378722
83	0xbe04655b	-0.12929289
84	0xbdb02ce0	-0.08602309
85	0x3cfa5160	0.03055638
86	0xbcdfa6f8	-0.027301297
87	0xbdce993e	-0.100878224
88	0x3d218973	0.039437722
89	0xbd9ae8c1	-0.075639255
90	0xbe09014b	-0.133794
91	0xbd811d02	-0.06304361
92	0xbdf2e63b	-0.11860319
93	0xbdf1d695	-0.118085064
94	0x3dd09ac2	0.10185768
95	0x3cbe19f0	0.023205727
96	0x3da996b3	0.08280697
97	0x3e263afc	0.16233438
98	0xbd0387f8	-0.03211209
99	0xbde6d254	-0.11270586
100	0xbd66b316	-0.056323133
101	0xbdb2552d	-0.08707652
102	0xbdcce70c	-0.10005006
103	0xbc48bfb0	-0.012252733
104	0x3e0fa9e6	0.14029655
105	0xbd8f4782	-0.06996061
106	0xbd8913de	-0.066932425
107	0x3dcc0944	0.09962705
108	0xb99fb91a	-0.00030464755
109	0x3e20ed67	0.15715562
110	0xbde1b5ea	-0.110210255
111	0x3dafff37	0.085936
112	0xbd836512	-0.06415762
113	0xbd987fcd	-0.07446251
114	0x3dc503ab	0.0961984
115	0xb8863a9a	-6.400533e-05
116	0x3e2df392	0.16987446
117	0xbd8e7095	-0.06955067
118	0x3dc39d0e	0.0955144
119	0xbd8d4b48	-0.068991244
120	0xbe17b416	-0.14814791
121	0xbd77f03e	-0.060531847
122	0x3c963b28	0.018338755
123	0xbdd9c3b6	-0.10633032
124	0xbd922326	-0.0713561
125	0x3dc0193a	0.093798116
126	0x3ca3f4c8	0.020014182
127	0x3d0ec7d8	0.034858555
128	0x3dddd00e	0.10830699
129	0x3d9ccf6a	0.076567486
130	0x3c0ace70	0.00847207
131	0x3dcb57f6	0.099288866
132	0xbd9b25d2	-0.07575573
133	0xbc326040	-0.010887206
134	0xbce972c8	-0.028497115
135	0x3dd5b1e6	0.10434322
136	0xbd2fa0fe	-0.042878143
137	0x3dd23e72	0.10265817
138	0x3b6c0bc0	0.0036017746
139	0x3d8cc410	0.068733335
140	0xbdfab16e	-0.12240873
141	0xbd9253c3	-0.071448825
142	0x3e0ac133	0.13550262
143	0x3e06d9a7	0.13168965
144	0xbda23b96	-0.07921521
145	0x3de41436	0.111366674
146	0x3dcaef2e	0.09908901
147	0x3dd99eb6	0.10625975
148	0xbd6afa06	-0.057367347
149	0xbe1322af	-0.143687
150	0xbd8a03dd	-0.06739018
151	0xbddb0377	-0.1069402
152	0x3dc03790	0.09385598
153	0xbd1bb2ae	-0.0380122
154	0xbd8aa572	-0.067698374
155	0x3df25212	0.1183206
156	0x3bb700e0	0.005584821
157	0xbd2a20a4	-0.041535035
158	0xbe0283e6	-0.12745628
159	0x3d80f69c	0.06297037
160	0x3db1c19c	0.08679506
161	0x39bc6000	0.0003592968
162	0xbde46316	-0.11151712
163	0xbd705410	-0.05867392
164	0xbde9d136	-0.11416857
165	0xbcafc630	-0.021456808
166	0xbe073b4e	-0.13206217
167	0x3dd7b65e	0.10532831
168	0x3d3467ef	0.04404443
169	0xbdcac6c1	-0.099011905
170	0x3d9f9e61	0.0779388
171	0xbcaa9bac	-0.020826183
172	0x3defccaa	0.117089584
173	0x3de4045f	0.11133646
174	0xbbe00620	-0.0068366677
175	0x3dda4024	0.10656765
176	0x3db80edd	0.0898721
177	0xbdd1060f	-0.10206234
178	0x3e296f37	0.16546331
179	0x3d279971	0.040917818
180	0x3dcd124c	0.100132555
181	0x3df65d7f	0.12029552
182	0x3dc547aa	0.096328095
183	0x3dfe2693	0.12409701
184	0xbd34288a	-0.043983974
185	0xbd3640cd	-0.044495393
186	0x3ca9aa56	0.020711105
187	0x3d758280	0.059938908
188	0xbdb028ff	-0.086015694
189	0xbb83bd35	-0.004020358
190	0x3d220d49	0.03956345
191	0xbb56506b	-0.0032701741
192	0xbd96eded	-0.073695995
193	0xbd3df7bb	-0.046378832
194	0x3db79452	0.08963837
195	0xbda57e61	-0.080807455
196	0xbdcb35c6	-0.09922366
197	0x3a8c5bf6	0.0010708559
198	0x3b36f028	0.002791414
199	0x3e19c804	0.15017706
200	0x3d8dadc4	0.06917909
201	0xbb76c280	-0.0037652552
202	0x3cb2ff50	0.021850258
203	0xbded8465	-0.11597518
204	0x3db14e5b	0.08657523
205	0xbe0a90ac	-0.1353175
206	0x3e03a61f	0.12856339
207	0xbde8d315	-0.11368386
208	0xbdfc0704	-0.123060256
209	0x3daed100	0.08535957
210	0x3dca283b	0.098709546
211	0xbc8032e8	-0.015649274
212	0xbd06a21f	-0.032869454
213	0xbbf6fcf1	-0.007537477
214	0x3e2f5b00	0.17124557
215	0x3e33c136	0.17554173
216	0x3c517870	0.012785062
217	0xbd27b25c	-0.04094158
218	0xbe08e760	-0.13369513
219	0xbd39ba5f	-0.045343753
220	0xbcd2daab	-0.025739035
221	0x3c89e6ef	0.01683375
222	0x3df01111	0.11722005
223	0x3e0f765e	0.14009997
224	0xbd843d1b	-0.064569674
225	0xbd20d801	-0.039268497
226	0xbe157819	-0.14596595
227	0x3d25df37	0.040496077
228	0x3dd0f415	0.10202805
229	0x3c1366d0	0.00899668
230	0xbd33fff8	-0.043945283
231	0xbdb54564	-0.08851126
232	0xbdc596e6	-0.09647922
233	0x3cec21ce	0.028824713
234	0xbce53682	-0.027980093
235	0x3e29f3fe	0.16596982
236	0x3ce4bcba	0.027922023
237	0xbe1da539	-0.15395059
238	0xbca6b3e0	-0.020349443
239	0xbde1767e	-0.11008929
240	0xbcee7581	-0.029108765
241	0x3c68fb9b	0.014220144
242	0x3d70302a	0.058639683
243	0x3d6f5a9c	0.05843602
244	0xbd898af2	-0.06715955
245	0x3d8661ac	0.06561598
246	0xbce46628	-0.027880743
247	0x3c876620	0.01652819
248	0x3ce36b48	0.027761117
249	0xbcf94a2a	-0.030430872
250	0xbded377c	-0.115828484
251	0xbd877af8	-0.06615251
252	0xbd145e9e	-0.036223046
253	0xbe177288	-0.14789784
254	0xbd535c5c	-0.051601753
255	0x3d8e6f50	0.06954825

hidden_layers.1.bias f4 [42]
0	0x3deb99e9	0.115039654
1	0xbcc6f6e7	-0.024287654
2	0x3d9c4d9e	0.07631992
3	0xbe19ac0d	-0.15007038
4	0x3d865c54	0.06560579
5	0x3e358903	0.17728047
6	0xbcc188d0	-0.023624808
7	0xbb2ab0c0	-0.0026045293
8	0x3d052233	0.032503318
9	0xbe0a4469	-0.13502659
10	0x3df6ef52	0.120573655
11	0x3d7e153f	0.06203198
12	0x3e39d00c	0.1814577
13	0x3e0531ff	0.13007353
14	0x3e0daa6a	0.13834539
15	0xbdc15f5f	-0.09442019
16	0x3d8a0139	0.067385145
17	0x3e2ee6b0	0.17080188
18	0x3de9161f	0.113811724
19	0x3df5a721	0.11994768
20	0xbceb1dd7	-0.028700752
21	0xbde8b4cd	-0.1136261
22	0x3d31b734	0.043387607
23	0xbdd32ad7	-0.103109054
24	0x3d5f8271	0.054567758
25	0xbdf94e0a	-0.12173088
26	0xbd6723a1	-0.056430463
27	0x3db47187	0.08810716
28	0x3d81922c	0.06326708
29	0xbdfa8fb6	-0.12234442
30	0xbe173d10	-0.14769387
31	0x3c98c185	0.018646965
32	0xbde5e3ce	-0.11225091
33	0x3d1f77e5	0.0389327
34	0xbb6cf2d6	-0.0036155484
35	0x3da8380b	0.08213814
36	0x3e03d87b	0.1287555
37	0xbd2a7e58	-0.041624397
38	0xbb8f8633	-0.0043800115
39	0xbc9a747d	-0.018854374
40	0x3dfcd81c	0.12345907
41	0xbca176c7	-0.019709958

hidden_layers.2.weight f4 [42, 42]
0	0xbcc5e6f0	-0.024157971
1	0xbda0c9c3	-0.07850983
2	0xbe03952c	-0.12849873
3	0xbcdc7050	-0.026909024
4	0xbd665fec	-0.056243822
5	0x3e07deff	0.1326866
6	0xbc766900	-0.015039682
7	0xbe17f2bd	-0.14838691
8	0x3cd89a10	0.02644065
9	0x3c6dbbd0	0.01451011
10	0xbd288b32	-0.041148372
11	0x3ddd2f36	0.108000204
12	0xbe1ce13b	-0.15320294
13	0xbe1563ec	-0.14588898
14	0x3d9a923a	0.07547422
15	0xbc300ca0	-0.010745198
16	0xbdeedc22	-0.11663081
17	0x3defb2a2	0.117039934
18	0xbc9515e8	-0.018198922
19	0x3e10e8df	0.14151333
20	0x3df71066	0.12063675
21	0xbc345fb0	-0.011009142
22	0xbd138636	-0.036016665
23	0xbde704b2	-0.112801924
24	0x3db7f208	0.08981711
25	0xbe14dcb0	-0.1453731
26	0x3d5bddfc	0.053678498
27	0xbd615926	-0.05501666
28	0xbdba1d54	-0.09087625
29	0xbca8e138	-0.020615205
30	0xbc52afc0	-0.012859285
31	0xbdc85464	-0.09781721
32	0x3da2a2f2	0.079412356
33	0xbdfd07c5	-0.123549975
34	0x3e1d0365	0.15333326
35	0x3d9613d0	0.07327998
36	0xbcb1f8c8	-0.021725073
37	0x3e09507d	0.1340961
38	0x3cf83c18	0.030302092
39	0xbdf932ce	-0.12167893
40	0xbd6f1cea	-0.058377184
41	0xbdb4b011	-0.088226445
42	0x3dd7bbb2	0.10533847
43	0x3caec3e0	0.021333635
44	0x3e1ba7f5	0.1520079
45	0xbdf435af	-0.11924302
46	0xbd11b7a6	-0.03557553
47	0xbab01d00	-0.0013436377
48	0x3dbdcfc0	0.09268141
49	0x3cd9ec28	0.026601866
50	0xbdb35ac2	-0.08757545
51	0x3c3cd7f0	0.011526093
52	0xbe02d6ef	-0.12777303
53	0x3df87d6a	0.12133296
54	0xbe1520f5	-0.14563353
55	0xbe054138	-0.1301316
56	0xbd91d55c	-0.07120773
57	0xbdc61a76	-0.09673016
58	0xbd52ab82	-0.051433094
59	0xbdc06ce7	-0.093957715
60	0xbdbb5ba3	-0.09148338
61	0xbd5e5114	-0.05427654
62	0xbe1056f6	-0.14095673
63	0x3e0345c7	0.12819587
64	0x3bec6180	0.0072137713
65	0x3dea5452	0.11441864
66	0xbc3caa30	-0.011515185
67	0x3dfb24a2	0.122628465
68	0xbcf208a0	-0.029545128
69	0xbe1928a3	-0.14956908
70	0xbd261b9e	-0.04055368
71	0x3c580940	0.013185799
72	0xbdcfa6f4	-0.10139266
73	0x3bcbd540	0.0062204897
74	0x3d9dd6ce	0.07706986
75	0xbc794e40	-0.01521641
76	0x3dc77ce2	0.097406164
77	0x3aa60700	0.0012666881
78	0x3ded0d36	0.115747854
79	0xbdc8c10c	-0.09802446
80	0x3e094719	0.13406028
81	0xbdbd7a5e	-0.09251855
82	0x3dc0995c	0.09404251
83	0x3dfda962	0.12385823
84	0xbd89cd13	-0.06728568
85	0xbdbfc5ae	-0.09363876
86	0x3db908e2	0.090348974
87	0xbd67efae	-0.05662506
88	0x3cfcaf90	0.030845433
89	0xbde7e0de	-0.11322187
90	0x3dbbe0a0	0.09173703
91	0x3df66582	0.1203108
92	0x3d914b2c	0.07094416
93	0x3db81e76	0.08990185
94	0xbe06bbe1	-0.13157608
95	0xbc60ca10	-0.01372005
96	0xbda27397	-0.07932203
97	0x3d9f444c	0.077766985
98	0x3d34c220	0.044130445
99	0xbe0e44c3	-0.13893418
100	0xbe189329	-0.14899887
101	0xbdabd698	-0.0839054
102	0xbd329f42	-0.04360891
103	0xbdcc3a80	-0.099720955
104	0x3d99054a	0.07471712
105	0xbd8972b8	-0.06711334
106	0xbcacf2e0	-0.021111906
107	0x3d78d0ec	0.06074612
108	0x3dadb2b6	0.08481352
109	0x3e0fd7b5	0.1404713
110	0xbda92671	-0.08259285
111	0xbdd594fe	-0.10428809
112	0x3e022da3	0.12712722
113	0xbc6a53d0	-0.014302209
114	0x3e1ae0b9	0.15124787
115	0xbd2edc14	-0.04269035
116	0x3cd827b0	0.026386112
117	0x3ce8e6e8	0.028430417
118	0x3d0b8928	0.03406635
119	0xbcc67590	-0.02422598
120	0xbb009340	-0.0019619018
121	0xbe073a81	-0.13205911
122	0x3e152cf3	0.14567928
123	0x3ddfeb3a	0.10933538
124	0xbe0c3e06	-0.13695535
125	0x3d7d1a60	0.06179273
126	0x3d9ff8ad	0.07811103
127	0x3d8d933a	0.06912847
128	0xbcd215d2	-0.02564517
129	0xbe0e2051	-0.13879515
130	0x3e28f2bf	0.1649885
131	0xbe0058f6	-0.12533936
132	0xbcf15bb0	-0.029462665
133	0x3d67252c	0.056431934
134	0x3d9ae0f4	0.07562438
135	0x3d30b164	0.043137923
136	0x3c008938	0.0078452155
137	0x3db834f0	0.08994472
138	0x3dbdcb05	0.092672385
139	0x3d0b3ccf	0.03399354
140	0xbd70361c	-0.058645353
141	0xbdd94a75	-0.10609905
142	0x3d702345	0.058627386
143	0xbe01ad61	-0.12663795
144	0x3da71bc8	0.08159596
145	0xbdf022c7	-0.11725383
146	0xbc53701d	-0.012905148
147	0x3db01bc1	0.08599044
148	0x3d8db7ab	0.069197975
149	0xbdd1d3c6	-0.10245471
150	0xbd20dbb0	-0.03927201
151	0x3e0528eb	0.1300389
152	0xbe0445dc	-0.12917274
153	0xbdf84d9c	-0.12124178
154	0x3db4b143	0.088228725
155	0x3dd86732	0.10566558
156	0xbd57a5f6	-0.052648507
157	0x3ddf3e48	0.10900551
158	0x3d29d964	0.041467085
159	0x3de92c93	0.11385455
160	0xbddfac5f	-0.10921549
161	0xbd01aaa8	-0.03165689
162	0xbd61768e	-0.055044703
163	0xbe0a20db	-0.13489096
164	0xbd60a5a1	-0.054845456
165	0x3d03d918	0.03218946
166	0x3ce66ba7	0.028127505
167	0xbd115556	-0.035481773
168	0x3c0428f5	0.008066406
169	0x3def2919	0.11677761
170	0xbe017420	-0.12641954
171	0xbb7a7000	-0.003821373
172	0x3dfb1c30	0.12261236
173	0xbd40f063	-0.04710425
174	0xbd9b8705	-0.07594112
175	0x3cb8ea10	0.022572547
176	0xbd76d8c5	-0.06026532
177	0xbdfc2d24	-0.123132974
178	0x3d26e3d4	0.040744618
179	0xbbc85372	-0.006113463
180	0x3dbaeaac	0.09126791
181	0xbccea588	-0.025225416
182	0x3cbf3372	0.02333996
183	0x3db96002	0.09051515
184	0x3dbc4a72	0.09193887
185	0x3e0fc1f2	0.14038828
186	0xbe150c9e	-0.14555594
187	0xbc5b4e6e	-0.013385398
188	0x3df99e12	0.12188353
189	0x3e29aeb0	0.16570544
190	0x3abed272	0.0014558567
191	0xbda937c3	-0.08262589
192	0xbd1d158a	-0.03835062
193	0xbe057b0b	-0.13035218
194	0xbd8265b4	-0.063670546
195	0x3e0c078e	0.13674757
196	0x3db35de7	0.08758145
197	0x3d59386c	0.053032324
198	0xbe1bab7d	-0.15202136
199	0xbd35e408	-0.04440692
200	0x3cbd2010	0.023086578
201	0x3d2bb99a	0.04192505
202	0x3dee0a46	0.11623053
203	0x3d843127	0.064546876
204	0xbd493bec	-0.04912941
205	0xbd8a0de6	-0.06740932
206	0x3e124ae7	0.14286385
207	0x3d742288	0.059603244
208	0xbd12b25c	-0.035814628
209	0x3d2b2230	0.04178065
210	0xbddc4632	-0.10755576
211	0x3dc5aa6e	0.096516475
212	0x3d455fe3	0.048187148
213	0x3e11ca8d	0.14237423
214	0xbdca2472	-0.09870233
215	0x3caf3059	0.021385359
216	0xbe13cb8d	-0.14433117
217	0xbda39da5	-0.07989053
218	0x3e19eac3	0.1503096
219	0xbdc77864	-0.097397596
220	0xbd291e97	-0.04128894
221	0xbe0dab71	-0.13834931
222	0x3d93ebee	0.072227344
223	0x3de82753	0.113356255
224	0xbd282f0f	-0.041060504
225	0xbd783da0	-0.060605645
226	0xbd85fa82	-0.06541921
227	0x3d9aa68e	0.07551299
228	0xbdf3c09c	-0.11901972
229	0x3dd24ffc	0.10269162
230	0x3d8fd8dc	0.070237845
231	0xbdfba53c	-0.12287375
232	0x39879e32	0.0002586707
233	0x3ddfef8e	0.10934363
234	0x3e1167d1	0.14199759
235	0x3a2c5900	0.00065745413
236	0x3dd2b389	0.1028815
237	0xbddfe31d	-0.1093199
238	0xbd992c06	-0.074791
239	0xbd512cd2	-0.051068135
240	0x3dab85e0	0.08375144
241	0x3e0d668a	0.13808647
242	0x3d9ccf5a	0.07656737
243	0xbdee1869	-0.116257496
244	0xbd9cd129	-0.07657082
245	0x3dbcd725	0.09220723
246	0xbdbcbfa9	-0.09216244
247	0xbcb13ded	-0.021635974
248	0x3d1d73dd	0.038440574
249	0x3d8a3a10	0.06749356
250	0x3e02c647	0.1277095
251	0x3c8f13bd	0.017465467
252	0xbd1e4d64	-0.038648024
253	0xbcf98ceb	-0.030462703
254	0x3e2a5a9e	0.1663613
255	0x3dac69f0	0.084186435

hidden_layers.2.bias f4 [42]
0	0xbe04d676	-0.12972435
1	0xbe023494	-0.1271537
2	0xbb386d80	-0.002814144
3	0x3e035a66	0.12827453
4	0xbdf6f1ab	-0.12057813
5	0x3e2515cf	0.161216
6	0x3dbc8712	0.0920545
7	0x3e1359f9	0.1438979
8	0x3d911920	0.0708487
9	0x3e286cbb	0.16447727
10	0xbdbebb32	-0.093130484
11	0xbd9b99aa	-0.075976685
12	0xbc2bcd40	-0.010485947
13	0x3de9e917	0.114214115
14	0xbe237b68	-0.15965044
15	0xbddb49dc	-0.10707447
16	0x3e222374	0.15833837
17	0x3b071418	0.0020611342
18	0xbdd74f6a	-0.10513194
19	0x3ded4523	0.115854524
20	0xbd942dda	-0.07235308
21	0xbde7f5d3	-0.11326184
22	0x3c9e18d0	0.01929894
23	0xbe1e5808	-0.15463269
24	0x3d45a0d3	0.048249077
25	0x3d0a3d3b	0.0337498
26	0x3dcecf2d	0.100981094
27	0x3dea8e32	0.11452903
28	0x3dead573	0.114664935
29	0x3d8501a3	0.06494453
30	0xbdd01d51	-0.10161842
31	0x3d867fd4	0.0656735
32	0x3d617ba2	0.055049546
33	0xbd65132a	-0.05592648
34	0xbdf07670	-0.1174134
35	0x3e1a217c	0.15051836
36	0xbc193f00	-0.009353399
37	0x3d6aeab6	0.057352744
38	0xbdf7494e	-0.12074529
39	0xbd7fea6d	-0.062479425
40	0x3e39568a	0.18099418
41	0x3e344a22	0.17606404

hidden_layers.3.weight f4 [42, 42]
0	0x3cdf60d0	0.027267843
1	0x3df0b186	0.1175261
2	0xbdc4fd20	-0.09618592
3	0xb9a85bb2	-0.00032111775
4	0x3d75b2c0	0.059984922
5	0x3df29741	0.11845256
6	0xbdf94426	-0.121712014
7	0xbd0c25a1	-0.034215573
8	0xbcb68420	-0.022279799
9	0xbd8bc64d	-0.06824932
10	0xbcab5688	-0.020915285
11	0x3d17bbfe	0.037044518
12	0x3c9898b7	0.018627508
13	0x3cd82b7f	0.026387928
14	0x3d8561b6	0.065127775
15	0xbd318756	-0.043341957
16	0xbdea88c1	-0.11451865
17	0x3e17ebdb	0.14836065
18	0x3c99da68	0.018780902
19	0xbb906515	-0.004406581
20	0x3cf9ef08	0.030509487
21	0xbd0613fe	-0.03273391
22	0xbd93d266	-0.07217865
23	0xbd9cd413	-0.076576374
24	0xbcff4700	-0.031161785
25	0xbdb12983	-0.08650496
26	0xbdea72a3	-0.114476465
27	0x3d5a2a28	0.05326286
28	0x3d27983c	0.040916666
29	0x3cb71302	0.02234793
30	0x3da7bbaa	0.08190091
31	0xbdf8b4ed	-0.12143884
32	0xbdf868ef	-0.121293895
33	0x3cbff2b0	0.023431152
34	0x3e0dc855	0.13845952
35	0x3dc4b9a9	0.09605724
36	0xbc34a250	-0.011025026
37	0xbdb712a8	-0.08939105
38	0x3dff8dda	0.12478228
39	0x3b1c8740	0.0023884326
40	0x3dc88088	0.097901404
41	0xbe09acb3	-0.13444786
42	0xbd241c1a	-0.040065862
43	0xbe18e9bb	-0.14932911
44	0x3da9dc96	0.082940266
45	0x3db2b2a4	0.08725479
46	0x3e16537d	0.14680286
47	0x3d0f3e24	0.03497137
48	0x3d968698	0.073498905
49	0x3deb59a6	0.114917085
50	0x3d822afa	0.063558534
51	0x3ccd6908	0.025074497
52	0xbe0d93a3	-0.1382585
53	0xbe19e38d	-0.1502821
54	0x3d41c47c	0.047306523
55	0xbd5c6dfe	-0.053815834
56	0xbe169f14	-0.14709121
57	0xbe0995a2	-0.13435987
58	0x3be4b8c0	0.0069800317
59	0xbda6a5d5	-0.08137099
60	0xbc10dfd0	-0.008842424
61	0xbd9a0e02	-0.07522203
62	0xbd571118	-0.052506536
63	0x3d93f4a4	0.07224396
64	0xbd092e0a	-0.033491172
65	0xbdd0c78a	-0.10194309
66	0xbc9ebec0	-0.019378066
67	0xbd27562e	-0.04085367
68	0xbdd3848c	-0.10328016
69	0xbe17c100	-0.14819717
70	0xbcdde7d0	-0.027088076
71	0xbd717e74	-0.058958486
72	0x3df85426	0.12125425
73	0x3d8e1586	0.06937699
74	0xbd9f3633	-0.077740096
75	0xbd761ad6	-0.060084186
76	0x3cdfb580	0.027308226
77	0x3d490ce0	0.049084544
78	0xbe118558	-0.14211023
79	0x3cd1d740	0.025615335
80	0xbc427430	-0.011868522
81	0xbd8bcf45	-0.06826643
82	0xbbe35060	-0.0069370717
83	0x3a887180	0.0010409802
84	0x3ddeea2a	0.10884507
85	0xbe11314e	-0.14178964
86	0xbe0785c0	-0.13234615
87	0xbd4e6df9	-0.050397847
88	0x3d8fe37b	0.0702581
89	0xbc8c531f	-0.017129479
90	0x3e3885df	0.18019818
91	0xbdc57c6a	-0.09642871
92	0x3d08247c	0.03323792
93	0xbd140bd5	-0.036144096
94	0xbdbd0edc	-0.0923135
95	0xbd988f25	-0.07449178
96	0xbdedd86d	-0.116135456
97	0xbd3757a6	-0.044761322
98	0x3d8b242a	0.06794007
99	0x3e00a626	0.1256338
100	0xbdcccf3f	-0.100004666
101	0x3e01cf63	0.12676768
102	0x3dddebae	0.10835968
103	0xbceaf728	-0.028682306
104	0x3e1bd9b1	0.15219761
105	0x3d148b87	0.036265876
106	0x3b7e18c0	0.0038772076
107	0xbcf7e176	-0.030258875
108	0x3c899c2b	0.0167981
109	0xbe1b54e4	-0.15169102
110	0x3d8c1cdd	0.06841443
111	0xbddc436b	-0.107550465
112	0x3e02fb62	0.12791207
113	0xbcc5da14	-0.02415184
114	0xbd9cceae	-0.076566085
115	0x3db984ca	0.09058531
116	0x3ddb79ff	0.10716628
117	0x3dd5c62a	0.104381874
118	0x3e0f84ab	0.14015453
119	0x3e14a361	0.14515449
120	0x3e0afb9f	0.13572548
121	0xbd237b67	-0.039912608
122	0x3d8896aa	0.06669362
123	0x3d5bf624	0.053701535
124	0x3e152f61	0.14568855
125	0x3d068718	0.03284368
126	0xbcb09ca8	-0.021559075
127	0xbd2ec114	-0.042664602
128	0x3e0d1e51	0.13781096
129	0xbdb59fd8	-0.088683784
130	0x3e11a147	0.14221679
131	0xbdb87602	-0.09006883
132	0xbdfe0dab	-0.12404951
133	0xbde9b682	-0.11411764
134	0xbe1b975a	-0.15194455
135	0x3c728070	0.01480113
136	0xbddf496e	-0.109026775
137	0x3db777ba	0.08958383
138	0xbd1d183c	-0.03835319
139	0xbddb0d06	-0.106958434
140	0xbe0f962c	-0.1402213
141	0xbd741a68	-0.059595495
142	0x3d8f7f02	0.07006647
143	0xbde5edf0	-0.112270236
144	0x3e175509	0.14778532
145	0xbdd54cb0	-0.104150176
146	0x3c390640	0.011292994
147	0xbd63a8fa	-0.05558107
148	0xbe18af1e	-0.14910552
149	0x3c979ef8	0.01850842
150	0xbda15c41	-0.07878924
151	0xbdd4d314	-0.103918225
152	0xbd4b1d42	-0.04958845
153	0x3d18f29c	0.037340745
154	0xbd52816c	-0.051392958
155	0xbd49195e	-0.049096458
156	0xbbdcba00	-0.00673604
157	0x3de32a6a	0.11092074
158	0x3d69eb2c	0.057109043
159	0x3de2e46a	0.11078723
160	0xbdc7be32	-0.09753074
161	0x3d520cc0	0.05128169
162	0xbdf85af4	-0.12126723
163	0x3d2a77d0	0.04161817
164	0xbe034d4e	-0.12822458
165	0x3d3701a8	0.044679314
166	0x3ce42790	0.027850896
167	0xbcc6a3f8	-0.024248108
168	0x3d867dae	0.0656694
169	0xbd6ab7da	-0.05730424
170	0xbdde4b97	-0.10854261
171	0x3e095ef8	0.13415134
172	0x3c894659	0.016757177
173	0x3ced17ac	0.028941952
174	0x39d364a8	0.0004032005
175	0xbb2e548b	-0.0026600685
176	0xbdaa0c42	-0.08303119
177	0x3d713714	0.058890417
178	0xbccb3b20	-0.024808466
179	0x3dc8ce80	0.09805012
180	0xbdb9645e	-0.09052347
181	0x3dfd799e	0.12376712
182	0x3d505b5f	0.05086839
183	0x3de12736	0.10993807
184	0x3dcef268	0.10104829
185	0x3e27b44c	0.16377372
186	0x3d027384	0.031848446
187	0xbdb2b923	-0.08726718
188	0x3e077c29	0.13230957
189	0xbdabc554	-0.08387247
190	0x3ccd0690	0.025027543
191	0xbdaf6576	-0.08564274
192	0xbdbb2b7c	-0.09139153
193	0x3e015d0e	0.12633154
194	0xbc1cd552	-0.009572344
195	0xbdbcbc2d	-0.09215579
196	0xbdd41f9e	-0.10357593
197	0x3dc13661	0.094342
198	0xbdd20ba5	-0.10256127
199	0xbd987457	-0.07444065
200	0x3de48ad1	0.1115929
201	0xbd7e7032	-0.062118717
202	0xbdd317dc	-0.10307285
203	0x3e1b775d	0.15182252
204	0xbbbc0c60	-0.00573878
205	0xbdbf7f7c	-0.093504876
206	0x3d9bbed0	0.07604754
207	0xbdcf262d	-0.10114703
208	0x3e0aa460	0.13539267
209	0x3de459b0	0.11149919
210	0xbd7e45aa	-0.062078156
211	0xbdebc716	-0.11512582
212	0x3e05c3d9	0.13062991
213	0xbe144b9c	-0.14481968
214	0x3dce3491	0.1006862
215	0xbd492688	-0.049109012
216	0x3a8f07d8	0.0010912372
217	0xba9bd29e	-0.001188833
218	0x3de8e7ea	0.11372359
219	0xbbdbc759	-0.0067071137
220	0xbd1f75aa	-0.038930573
221	0xbd22f781	-0.03978682
222	0x3dded714	0.10880867
223	0x3df141bf	0.11780118
224	0x3e18b962	0.14914468
225	0xbdf4bf4a	-0.11950548
226	0xbdc44409	-0.09583289
227	0xbe21ddf5	-0.15807326
228	0x3d0ffc80	0.035152912
229	0xbde7dc8b	-0.11321362
230	0xbd25c4fe	-0.04047107
231	0x3b9606c2	0.0045784423
232	0x3d5b70fc	0.053574547
233	0x3d45a415	0.048252184
234	0xbe031cf6	-0.12804016
235	0x3dc8527a	0.09781356
236	0xbe1c02f3	-0.152355
237	0x3d334066	0.043762587
238	0xbb5602c8	-0.0032655466
239	0x3dc6fced	0.097162105
240	0x3cb32346	0.021867406
241	0xbde21197	-0.11038511
242	0xbdc22f36	-0.09481661
243	0x3c9feea0	0.019522965
244	0xbdd8fc8e	-0.10595046
245	0xbd494515	-0.049138147
246	0xbcc95c70	-0.02458021
247	0x3d24ad2b	0.04020421
248	0xbd8fcffb	-0.07022091
249	0x3db4e88a	0.08833416
250	0x3d396891	0.045265738
251	0xbc93e2e9	-0.018052535
252	0xbd9fe2e7	-0.0780695
253	0x3c4a5d20	0.012351304
254	0x3d963660	0.0733459
255	0x3d68d365	0.056842227

hidden_layers.3.bias f4 [42]
0	0x3c6599f0	0.014013752
1	0xbd8cfbe5	-0.068839826
2	0x3d950dd2	0.07278027
3	0xbe09f301	-0.13471605
4	0x3dc1e8b4	0.09468213
5	0x3de2fd91	0.1108352
6	0x3dff9fa0	0.12481618
7	0xbd6d5ee6	-0.05795183
8	0xbdc06a67	-0.09395295
9	0x3dfc8d47	0.12331634
10	0xbd025d07	-0.031827
11	0xbdc83a84	-0.09776786
12	0xbda4bc7d	-0.08043764
13	0x3d081db0	0.033231437
14	0x3c018245	0.007904594
15	0x3da35e68	0.07976991
16	0xbdbd477d	-0.09242151
17	0x3d61bbd3	0.055110764
18	0x3dbf4452	0.09339203
19	0x3dfa6be4	0.1222761
20	0xbe028ebe	-0.12749764
21	0x3e0fe569	0.14052357
22	0x3da9d085	0.08291725
23	0xbd6ac7e0	-0.057319522
24	0xbda16a5a	-0.07881613
25	0xbd0380a2	-0.032105096
26	0xbda77425	-0.0817645
27	0xbe2265a5	-0.15859087
28	0xbd359811	-0.044334475
29	0xbdf63d86	-0.120234534
30	0x3dd8b9ab	0.10582288
31	0x3dd4d158	0.10391492
32	0x3d74adce	0.059736066
33	0x3d17f1ca	0.037095822
34	0xbdda564c	-0.10660991
35	0x3e07e666	0.13271484
36	0x3e3a739e	0.18208167
37	0xbda54679	-0.08070082
38	0x3cdc3dc4	0.02688492
39	0xbdc922b4	-0.09821072
40	0x3dc07d13	0.09398856
41	0x3df8650a	0.12128647

output_layer1.weight f4 [40, 42]
0	0xbdfe237f	-0.12409114
1	0x3e15e89d	0.14639516
2	0xbdd469bf	-0.10371732
3	0x3dc548ce	0.09633027
4	0xbc5f00d3	-0.013611036
5	0xbdf6fcc6	-0.120599315
6	0xbd968212	-0.07349028
7	0xbd56d7e8	-0.052451998
8	0xbd9c530b	-0.07633027
9	0x3db7f14d	0.08981571
10	0x3dcc9394	0.09989086
11	0x3e0767b7	0.13223158
12	0xbbc3f300	-0.0059798956
13	0xbdb8fd9c	-0.09032747
14	0xbc5a1bc8	-0.013312288
15	0xbd20f1a6	-0.039292954
16	0xbe071696	-0.1319221
17	0xbd9ad605	-0.07560352
18	0xbdec8885	-0.115494765
19	0xbd9351f3	-0.07193365
20	0xbd22bd8a	-0.03973154
21	0xbc231daa	-0.009955803
22	0x3d9a4f83	0.07534697
23	0xbdf007de	-0.117202505
24	0xbd88ad5e	-0.06673692
25	0xbe15fb89	-0.14646734
26	0xbbc12f00	-0.0058954954
27	0xbe092049	-0.13391222
28	0x3de0c7cd	0.10975609
29	0xbd88676e	-0.06660353
30	0xbcd5ac42	-0.026083115
31	0xbdb79e75	-0.0896577
32	0x3dd1b139	0.10238881
33	0xbe038d75	-0.1284693
34	0x3d781e94	0.060576037
35	0xbc2fa994	-0.010721583
36	0xbe0c39d6	-0.13693938
37	0x3d5f36e4	0.054495707
38	0x3def215e	0.11676286
39	0xbe00a040	-0.1256113
40	0xbdcd43c7	-0.10022693
41	0x3cb951dc	0.022622041
42	0xbbd1114b	-0.0063802353
43	0x3dc5b3a6	0.09653406
44	0xbdd60db3	-0.10451832
45	0xbd6d8466	-0.057987593
46	0x3c822c92	0.015890393
47	0xbdb40f06	-0.08791928
48	0xbd7a8009	-0.06115726
49	0xbd4f5e8c	-0.050627276
50	0xbd93b38e	-0.07211982
51	0xbdcbb083	-0.09945776
52	0x3ddf6d39	0.109095044
53	0xbca83578	-0.020533308
54	0xbdd6c7a6	-0.10487299
55	0x3db5bcb6	0.088738844
56	0xbbdda230	-0.006763719
57	0x3d42de11	0.04757506
58	0x3d8cb93a	0.06871267
59	0x3bd73fdc	0.006568892
60	0x3df5e57d	0.12006662
61	0xbddeaab8	-0.10872406
62	0xbe1795dd	-0.14803262
63	0xbd0f8cb8	-0.03504631
64	0x3dfac000	0.12243652
65	0x3cc1b954	0.023647942
66	0xbc4a9260	-0.012364
67	0xbdbf9a0c	-0.09355554
68	0x3d933d1c	0.0718939
69	0xbe018468	-0.12648165
70	0xbe0ae815	-0.13565095
71	0x3db29d70	0.08721435
72	0xbcff1854	-0.03113953
73	0xbddf3d29	-0.10900337
74	0xbccd1f8a	-0.025039453
75	0x3d551b4d	0.05202799
76	0x3c4d7460	0.012539953
77	0xbd928d2d	-0.071558334
78	0x3e118635	0.14211352
79	0xbd4dd43e	-0.050251238
80	0x3d31c261	0.043398265
81	0x38856800	6.361306e-05
82	0x3d4072b4	0.04698439
83	0x3d63156b	0.055440348
84	0xbdbcc99f	-0.09218144
85	0xbc031000	-0.00799942
86	0xbd8b67d8	-0.06806916
87	0xbb9ec1a0	-0.0048448592
88	0xbd8d2ef0	-0.06893718
89	0x3c870801	0.016483309
90	0x3d7fe7b7	0.06247684
91	0xbd77184c	-0.060325906
92	0x3d134621	0.035955552
93	0x3dc9fb93	0.09862437
94	0xbe08192c	-0.13290852
95	0x3e1643bf	0.1467428
96	0xbd9494fe	-0.072549805
97	0x3d27a504	0.040928856
98	0xbdfda299	-0.12384529
99	0xbcbdf674	-0.023188807
100	0xbe0d62f6	-0.13807282
101	0x3d8daa29	0.06917221
102	0x3ca5ece0	0.020254552
103	0x3df08af6	0.11745255
104	0x3e0bb09b	0.13641588
105	0x3d8415e3	0.06449487
106	0xbdb1af7f	-0.08676051
107	0x3dd3a054	0.103333145
108	0x39986c00	0.00029072165
109	0x3d2b8930	0.04187888
110	0xbe103689	-0.14083304
111	0x3dff6ec0	0.12472296
112	0xbdcaef7e	-0.09908961
113	0x3df4ab52	0.11946739
114	0x3e1e10ce	0.15436098
115	0x3dab401d	0.08361838
116	0xbdae8101	-0.08520699
117	0x3cd309c8	0.0257615
118	0xbdc3511e	-0.09536956
119	0xbdf06165	-0.117373265
120	0xbe019f55	-0.12658437
121	0x3dbb18de	0.091356024
122	0x3e14f73e	0.1454744
123	0xbd2c3dc4	-0.04205109
124	0x3ce0ee5f	0.027457414
125	0x3ba3759a	0.0049883844
126	0x3db2315d	0.087008215
127	0x3dbce62e	0.09223591
128	0x3bb93175	0.0056516477
129	0x3e0dca49	0.13846697
130	0xbe19526e	-0.1497285
131	0xbe2d0e78	-0.1690005
132	0xbe26e32c	-0.16297597
133	0x3c8b5cf0	0.01701209
134	0xbdf3bad3	-0.11900868
135	0x3ce08554	0.027407326
136	0x3da44614	0.08021179
137	0x3d1cfc3c	0.038326487
138	0x3e1df13d	0.15424056
139	0x3ca15488	0.019693628
140	0x3d832423	0.06403377
141	0x3e017291	0.1264136
142	0xbde156c6	-0.11002879
143	0x3e11603d	0.14196868
144	0xbdfc6fbd	-0.12326
145	0x3ce22c9e	0.027609166
146	0x3dc7fcde	0.097650275
147	0x3e0bb686	0.13643846
148	0xbd8a608f	-0.06756698
149	0xbe12d210	-0.14337945
150	0xbdc2aa96	-0.09505193
151	0xbcb87aa8	-0.022519425
152	0xbd849713	-0.064741276
153	0x3ce468b6	0.027881961
154	0xbd899d99	-0.067195125
155	0xbd314686	-0.043280147
156	0xbcd00073	-0.02539084
157	0x3dd49193	0.103793286
158	0x3daa2e90	0.08309662
159	0x3d6c104a	0.057632722
160	0xbd80a32e	-0.06281124
161	0xbdc92aef	-0.09822642
162	0xbe021082	-0.1270161
163	0xbdff0359	-0.124518104
164	0xbd0f3842	-0.03496576
165	0x3dba8a0c	0.091083616
166	0x3d79c515	0.060978968
167	0xbe0d4043	-0.13794045
168	0x3d16c8b7	0.03681251
169	0x3bdb0c00	0.00668478
170	0xbd308342	-0.043093927
171	0x3db6eebe	0.08932255
172	0xbd22712d	-0.039658714
173	0x3de764fa	0.112985566
174	0xbe1d05f1	-0.15334298
175	0x3ceaa330	0.028642267
176	0xbd15967d	-0.03652047
177	0x3c3095cf	0.010777905
178	0x3dd74b04	0.10512355
179	0x3c5f5d20	0.013633043
180	0xbda5ad87	-0.08089738
181	0x3d8d8c26	0.06911497
182	0x3cc1ecfd	0.023672575
183	0xbc9ab521	-0.018885197
184	0x3b02fd00	0.0019987226
185	0xbde2dcdd	-0.110772826
186	0xbd072e5d	-0.0330032
187	0x3d175b97	0.03695258
188	0xbdc40e64	-0.09573057
189	0x3d04a3a2	0.032382615
190	0xbe16c58b	-0.14723794
191	0x3d93c3e3	0.07215097
192	0x3d8e4738	0.06947178
193	0x3e0608f7	0.13089357
194	0x3e07c31d	0.13258024
195	0xbd111142	-0.03541685
196	0xbd6e6e19	-0.058210466
197	0x3dc4773e	0.09593056
198	0x3b201013	0.0024423643
199	0xbcc10f5d	-0.023566896
200	0x3dce1a5a	0.1006362
201	0x3be558bf	0.0069991047
202	0x3e1041c9	0.14087595
203	0x3de8e0b7	0.11370986
204	0xbdff3d49	-0.12462861
205	0x3b44b680	0.0030016005
206	0x3de68636	0.112560675
207	0xbd015c78	-0.031582326
208	0xbd11234e	-0.03543406
209	0x3d40c853	0.047066044
210	0x3bb8776c	0.0056294706
211	0x3df251a2	0.118319765
212	0xbe273298	-0.16327894
213	0xbdc2da03	-0.09514239
214	0x3cd9d497	0.026590629
215	0x3dda6ab6	0.10664885
216	0x3d93bb1a	0.07213421
217	0x3ddda7a6	0.10822992
218	0x3df0cc23	0.11757686
219	0xbe05f43c	-0.1308145
220	0xbd9cf39c	-0.07663652
221	0xbd40e424	-0.04709257
222	0xbbd73620	-0.0065677315
223	0x3df175c6	0.117900416
224	0x3d0c5b05	0.03426649
225	0x3d598209	0.053102527
226	0x3de107ea	0.109878376
227	0xbe23c793	-0.159941
228	0xbce8d151	-0.028420122
229	0x3c96ff15	0.01843218
230	0xbcc483e8	-0.023988679
231	0xbdab0eb6	-0.08352415
232	0xbd359e3c	-0.044340357
233	0x3e0aa535	0.13539584
234	0x3dbb0924	0.09132603
235	0xbd012842	-0.031532533
236	0xbdd1a19e	-0.10235904
237	0x3e0e1053	0.13873415
238	0x3df069ff	0.11738967
239	0x3bf719e0	0.0075409263
240	0xbcadad61	-0.021200838
241	0xbdfbef0c	-0.12301454
242	0x3deb8681	0.11500264
243	0xbe1ebce4	-0.15501744
244	0xbdd0d033	-0.10195961
245	0x3de6d1e1	0.112705
246	0x3d15d6d3	0.036581825
247	0x3dec0306	0.11524014
248	0x3cb14cd8	0.021643087
249	0xbd806303	-0.06268885
250	0xbd138101	-0.0360117
251	0x3d81625d	0.063175894
252	0xbcfa929e	-0.03058749
253	0x3db4d5c2	0.088298336
254	0xbd7839c2	-0.060601957
255	0xbaad7900	-0.0013234913

output_layer1.bias f4 [40]
0	0x3c1875f0	0.009305462
1	0xbdbfac81	-0.093590744
2	0x3e244222	0.16040853
3	0xbd802cfa	-0.062585786
4	0xbcc1203e	-0.023574945
5	0x3dde284e	0.10847531
6	0xbe28030f	-0.16407417
7	0xbd027384	-0.031848446
8	0xbd781ed7	-0.060576286
9	0x3d7ab0d6	0.0612038
10	0xbd9758e1	-0.07389999
11	0x3b810755	0.0039376416
12	0xbdba8f1d	-0.09109328
13	0xbe26e175	-0.16296943
14	0xbcf5239d	-0.029924208
15	0x3db8d198	0.09024352
16	0x3de3b9ba	0.11119409
17	0xbd92938d	-0.07157049
18	0x3d6d66da	0.057959415
19	0x3d2c908d	0.042130042
20	0xbc77d7a8	-0.0151271
21	0xbd8ddb89	-0.06926639
22	0xbcc0d0da	-0.023537088
23	0x3e022895	0.12710793
24	0xbcb46753	-0.022021925
25	0xbd703a3a	-0.05864928
26	0xbe0fcca5	-0.1404291
27	0x3d1af60b	0.0378323
28	0xbdbaa53a	-0.09113546
29	0xbc707950	-0.014677361
30	0x3dc9ca56	0.09853046
31	0xbd55e455	-0.052219708
32	0xbdf0a2e7	-0.11749821
33	0x3e153cd0	0.1457398
34	0xbd9c2ef3	-0.07626142
35	0x3e25a294	0.161753
36	0x3e31fada	0.17380849
37	0xbe01d1e3	-0.12677722
38	0xbce562cc	-0.028001212
39	0x3d985812	0.07438673

output_layer2.weight f4 [1, 42]
0	0xbe124a65	-0.14286192
1	0xbdf2b2c7	-0.11850505
2	0x3e2b91a2	0.16754773
3	0x3c7dc7c0	0.015489519
4	0x3e1f4b52	0.15556076
5	0xbd80920b	-0.062778555
6	0xbcdd6eb6	-0.02703033
7	0xbdb3d027	-0.08779936
8	0x3c7bf641	0.015378536
9	0xbd84de3a	-0.06487699
10	0x3e0d5fd6	0.1380609
11	0x3e150605	0.14553078
12	0xbe14a074	-0.14514333
13	0x3cf37a50	0.02972141
14	0xbd01cb5f	-0.03168809
15	0xbdfc2834	-0.12312356
16	0x3df6bbee	0.120475635
17	0xbcb45d35	-0.0220171
18	0x3d694d17	0.056958284
19	0xbdeeb6b3	-0.11655941
20	0x3d7318a0	0.059349656
21	0x3d16c54e	0.03680926
22	0xbddef80d	-0.10887156
23	0x3e0556b6	0.13021359
24	0x3d6c7aac	0.057734177
25	0xbdba9e09	-0.09112174
26	0x3c530370	0.0128792375
27	0x3c7f1db1	0.015571044
28	0x3d8ec71b	0.0697157
29	0xbd39380e	-0.045219474
30	0x3e288c7c	0.1645984
31	0x3daa4bb9	0.08315224
32	0xbd2465ac	-0.040136024
33	0x3c9234ba	0.017847408
34	0xbd8fb7b7	-0.07017463
35	0x3dff47da	0.124648765
36	0x3d88f652	0.06687607
37	0x3ddf09fe	0.10890578
38	0x3e0a1581	0.13484766
39	0x3ce4a580	0.027910948
40	0xbe08bf0a	-0.13354126
41	0x3cef0355	0.029176394
