src/models/dynamics_57.pt (torch, 47860 bytes, 13 tensors)

input_layer.weight f4 [42, 42]
0	0x3d640cfe	0.055676453
1	0xbd4c51dd	-0.04988276
2	0x3e12bc2f	0.14329599
3	0x3c40cebe	0.011768041
4	0xbdd5317f	-0.10409831
5	0x3d8217bc	0.06352183
6	0xbc66f3eb	-0.0140962405
7	0xbcf35929	-0.0297056
8	0x3d00af54	0.031417206
9	0xbc28dd40	-0.010306656
10	0xbe1c898c	-0.15286845
11	0x3c66baea	0.01408265
12	0xbd96e5ad	-0.07368026
13	0x3d81bf26	0.06335287
14	0xbdf03199	-0.1172821
15	0xbd9ce802	-0.076614395
16	0xbd5b435d	-0.05353104
17	0x3d19a35b	0.037509304
18	0x3e1acc2d	0.1511695
19	0xbe27d43d	-0.16389556
20	0xbdd2cc61	-0.102928884
21	0xbe17c1c1	-0.14820005
22	0x3d86873f	0.06568765
23	0x3dcfe908	0.10151869
24	0xbdc8db31	-0.098074324
25	0xbd91f543	-0.07126858
26	0xbd96f157	-0.07370251
27	0x3e023387	0.12714969
28	0x3e08f871	0.13376023
29	0xbc2da36b	-0.010598044
30	0xbde9ff49	-0.11425645
31	0x3d01d812	0.0317002
32	0x3e0c5be3	0.13706927
33	0xbe316b79	-0.17326154
34	0xbdeea378	-0.11652273
35	0xbc5282e3	-0.012848589
36	0x3dbf1588	0.09330279
37	0x3c785dcf	0.015159084
38	0x3d0cbddd	0.034360755
39	0xbdf30bac	-0.118674606
40	0x3ddb2497	0.10700338
41	0x3d87a049	0.06622369
42	0x3d9ab582	0.07554151
43	0x3e069344	0.13142115
44	0x3d87c5ed	0.06629548
45	0xbd1dab73	-0.038493585
46	0x3d3d1e56	0.04617151
47	0x3e040a2b	0.12894504
48	0xbc401bfd	-0.011725423
49	0xbc723a55	-0.014784415
50	0x3dca33c4	0.09873155
51	0x3d34c947	0.044137266
52	0x3dd9a272	0.10626687
53	0xbc2940f2	-0.010330426
54	0xbd8e41f8	-0.06946176
55	0xbdc2bc3a	-0.095085576
56	0x3dc1a0c8	0.09454495
57	0x3dfddfcf	0.12396204
58	0x3e15e9cf	0.14639972
59	0xbc9bd831	-0.019023987
60	0x3dd11f17	0.10211008
61	0x3d1954a5	0.03743424
62	0x3d5f78e4	0.05455865
63	0x3dfc32b5	0.12314359
64	0x3da1deeb	0.07903846
65	0xbdc0b11d	-0.09408782
66	0xbc64052d	-0.01391725
67	0xbdd56642	-0.10419895
68	0x3d009c41	0.031399015
69	0x3da72596	0.08161466
70	0xbd27570b	-0.040854495
71	0x3e139563	0.14412455
72	0x3df298ed	0.118455745
73	0xbd646f1a	-0.055770017
74	0xbda2425a	-0.07922812
75	0xbde11885	-0.10991005
76	0xbddd28c8	-0.10798794
77	0x3ddb77ed	0.107162334
78	0xbcd21368	-0.02564402
79	0xbdeea2b4	-0.11652127
80	0xbbaf8ba3	-0.005357222
81	0x3cc11814	0.023571052
82	0x3de8cf90	0.113677144
83	0xbdd9cc1c	-0.10634634
84	0xbd950c72	-0.072777644
85	0xbbf13468	-0.0073609836
86	0xbe0849ad	-0.13309355
87	0x3db8ad64	0.09017447
88	0xbd5497f7	-0.051902737
89	0xbb56302b	-0.003268252
90	0x3d69ea94	0.057108477
91	0xbc484697	-0.012223861
92	0x3e0a54a7	0.13508855
93	0x3db57778	0.088606775
94	0xbe127a86	-0.14304551
95	0xbd57bcae	-0.052670173
96	0xbcebae66	-0.028769683
97	0x3d9b7423	0.07590511
98	0xbc953948	-0.01821579
99	0x3db32de6	0.08748989
100	0xbdcfa6e3	-0.10139253
101	0x3df58300	0.11987877
102	0x3d304f61	0.04304445
103	0xba0de498	-0.0005412786
104	0x3dc5a951	0.09651435
105	0xbd12313f	-0.035691496
106	0x3d8ba26e	0.068180904
107	0x3c868e84	0.016425379
108	0x3e03b515	0.12862046
109	0xbdaa848f	-0.08326065
110	0x3db1c37d	0.086798646
111	0xbd921409	-0.07132728
112	0x3c3bafbd	0.0114554735
113	0xbc548760	-0.012971729
114	0x3e22a478	0.15883052
115	0xbe25ff51	-0.16210677
116	0x3e1e0110	0.15430093
117	0xbb80821a	-0.0039217593
118	0x3d461b25	0.04836573
119	0xbc791566	-0.015202856
120	0x3d7ec5d7	0.062200394
121	0xbdd688bd	-0.104752995
122	0x3db99d45	0.090632
123	0x3e22be1b	0.15892832
124	0x3b5cee6c	0.0033711446
125	0xbde7faec	-0.113271564
126	0xbd092f2a	-0.033492245
127	0xbce0af16	-0.027427237
128	0x3daeb00a	0.085296705
129	0x3e00d40c	0.1258089
130	0xbd82b4e9	-0.06382162
131	0x3d6b0af7	0.057383504
132	0x3d1fb80a	0.038993873
133	0xbd84e57e	-0.06489085
134	0x3cc7ca03	0.024388319
135	0xbe004c70	-0.12529159
136	0x3db0a61d	0.086254336
137	0xbdc6bbf5	-0.09703819
138	0x3c828324	0.015931673
139	0xbca8ba11	-0.020596536
140	0xbdabab62	-0.08382298
141	0x3d73732c	0.05943601
142	0x3dab354e	0.083597764
143	0x3c73b729	0.014875212
144	0x3db16906	0.0866261
145	0x3e08c12d	0.1335494
146	0xbe0a9ca2	-0.13536313
147	0x3e1a050b	0.15040986
148	0xbcc06648	-0.023486272
149	0xbdfce9a2	-0.123492494
150	0x3b4d1c2e	0.0031297314
151	0x3b602e38	0.0034207236
152	0x3e06c80b	0.13162248
153	0xbdea5949	-0.11442811
154	0xbda1c496	-0.07898824
155	0xbd7ad5da	-0.0612391
156	0xbdb4bae6	-0.088247105
157	0xbcbc5d0a	-0.022993583
158	0xbd318c9f	-0.043346997
159	0x3d61d305	0.055132885
160	0xbd445357	-0.04793104
161	0xbe104617	-0.14089237
162	0x3caac15b	0.020844152
163	0x3a36e386	0.00069766527
164	0x3c2c7054	0.010524828
165	0xbcdbeaed	-0.02684542
166	0x3c82d1db	0.015969208
167	0xbe00838b	-0.1255018
168	0xbd4a93c6	-0.049457334
169	0xbcaeef08	-0.021354213
170	0xbc03de30	-0.008048579
171	0xbe094cdc	-0.13408226
172	0xbd97ace1	-0.07406021
173	0xbdd328f4	-0.103105456
174	0xba75e200	-0.0009379685
175	0xbdad3c00	-0.0845871
176	0xbda8e98f	-0.08247673
177	0x3d40e504	0.047093406
178	0xbd0c78a6	-0.034294747
179	0xbe03b181	-0.12860681
180	0xbdc502ae	-0.09619652
181	0x3c660660	0.014039606
182	0xbce10760	-0.027469337
183	0xbdff60e0	-0.12469649
184	0xbd87d40a	-0.0663224
185	0x3c6f1090	0.014591351
186	0xbda06773	-0.078322314
187	0x3dd8c576	0.10584538
188	0x3dec819e	0.1154816
189	0xbd272d36	-0.0408146
190	0xbd91758e	-0.071025
191	0xbbffbf20	-0.0078047663
192	0xbd79e136	-0.061005794
193	0xbdc486cb	-0.09596022
194	0x3d2a701c	0.041610822
195	0x3d2283cc	0.039676473
196	0xbded106d	-0.115753986
197	0xbe15db66	-0.14634475
198	0x3da85eba	0.08221193
199	0x3bb19c20	0.005420223
200	0x3da1fb34	0.07909241
201	0xbd0ec002	-0.03485108
202	0x3d9a2d92	0.07528223
203	0x3de83066	0.11337356
204	0x3dd60bea	0.10451491
205	0x3d760fd8	0.060073704
206	0x3d9f3e52	0.077755585
207	0xbdc0d96a	-0.094164684
208	0xbe0dc35d	-0.13844056
209	0xbd179480	-0.037006855
210	0xbcab6f9c	-0.020927243
211	0xbcf1727b	-0.029473534
212	0x3d019d43	0.031644117
213	0x3dc074b3	0.093972586
214	0xbdad0d07	-0.084497504
215	0x3dd15715	0.10221688
216	0x3d29df0b	0.041472476
217	0xbe068f01	-0.13140489
218	0x3dc096d5	0.09403769
219	0xbcce7ab3	-0.025204992
220	0xbdbc8a37	-0.0920605
221	0x3d371b44	0.044703737
222	0xbdf12b37	-0.11775821
223	0x3deedd36	0.116632864
224	0x3ce33a9a	0.027737904
225	0xbde7b45c	-0.11313698
226	0xbe1027b7	-0.1407765
227	0xbb1341f8	-0.002246974
228	0x3d6dc748	0.058051378
229	0xbdf9bac7	-0.12193828
230	0xbd8308f1	-0.0639819
231	0xbd887e86	-0.066647574
232	0xbd3973af	-0.04527634
233	0x3e08da0f	0.13364433
234	0x3df8077d	0.12110803
235	0x3dff3301	0.124609
236	0xbdc1e1b9	-0.09466881
237	0x3cbb320d	0.022851015
238	0x3ddae0be	0.106873974
239	0x3c0920d3	0.008369642
240	0xbb68a175	-0.0035496627
241	0x3d0548a2	0.03253997
242	0xbdf38832	-0.118912116
243	0x3d9e796c	0.07738003
244	0xbe27f7f4	-0.1640318
245	0x3cf4e625	0.029894898
246	0x3c350ec4	0.011050884
247	0xbdaf506c	-0.08560261
248	0xbe095068	-0.13409579
249	0x3d65be7e	0.05608987
250	0xbd4dfd44	-0.05029036
251	0x3d701dda	0.05862222
252	0x3db79e27	0.08965712
253	0xbdc63b45	-0.096792735
254	0xbd944c42	-0.072411075
255	0xbdd75ae6	-0.105153844

input_layer.bias f4 [42]
0	0x3d2489f0	0.04017061
1	0xbe0e36dc	-0.13888115
2	0xbd21836e	-0.03943198
3	0xbde40bc5	-0.11135057
4	0xbd739f82	-0.05947829
5	0xbd638693	-0.05554826
6	0xbce9b242	-0.028527383
7	0xbdf4c5a1	-0.11951757
8	0xbcb71445	-0.022348532
9	0x3d8530a2	0.065034166
10	0x3deb4720	0.114881754
11	0xbd8411d9	-0.06448717
12	0xbe21cad0	-0.15800023
13	0x3c02a647	0.007974214
14	0x3e13e3f1	0.14442421
15	0x3dd37d74	0.10326663
16	0x3d1f8f6d	0.03895514
17	0x3db349a4	0.0875428
18	0x3cbf6689	0.023364322
19	0xbe13d584	-0.14436918
20	0xbdc479b7	-0.09593528
21	0x3dc1971d	0.09452651
22	0xbdadc31a	-0.08484478
23	0xbaf58f30	-0.001873469
24	0x3c833cc1	0.01602018
25	0x3d698c71	0.0570187
26	0x3e28a68b	0.16469781
27	0x3e1a214c	0.15051764
28	0xbc724a8b	-0.01478828
29	0xbd93c1bc	-0.07214686
30	0xbde53d6a	-0.111933544
31	0x3c1582e4	0.009125445
32	0x3e14832c	0.14503163
33	0xbd8213fa	-0.063514665
34	0xbd2c59a3	-0.04207767
35	0xbe093d05	-0.13402183
36	0xbdfb2bf0	-0.1226424
37	0xbe348d8c	-0.17632121
38	0x3e3401b2	0.17578772
39	0xbe086396	-0.13319239
40	0xbd1de674	-0.038549855
41	0xbd16ec71	-0.03684658

hidden_layers.0.weight f4 [42, 42]
0	0x3dda1798	0.106490314
1	0x3e003000	0.1251831
2	0xbd384f0e	-0.044997267
3	0xbd2ac8a6	-0.04169526
4	0x3dcc51be	0.099765286
5	0x3d86e38f	0.06586372
6	0x3d5ce1d4	0.053926304
7	0x3d921232	0.07132377
8	0xbdb4f7fc	-0.08836362
9	0xbd0771bf	-0.03306746
10	0xbca03e81	-0.019561054
11	0xbd29388a	-0.041313685
12	0x3dfb9fac	0.12286314
13	0x3caa47d2	0.0207862
14	0xbdf3971d	-0.11894057
15	0xbd139391	-0.036029402
16	0xbdf9d106	-0.12198071
17	0xbd807011	-0.06271375
18	0xbdc938d6	-0.09825294
19	0xbd972c38	-0.07381481
20	0x3d26eedc	0.040755138
21	0x3dffa201	0.12482072
22	0xbbe80240	-0.0070803463
23	0x3b8ba7cb	0.004261946
24	0xbd8db856	-0.06919925
25	0xbdb42579	-0.0879621
26	0xbb22b3e0	-0.0024826452
27	0x3dcd34de	0.10019849
28	0x3e0a6f70	0.13519073
29	0x3d8a3677	0.067486696
30	0x3e0860d1	0.13318183
31	0x3dd45fbd	0.10369823
32	0x3d1a90f3	0.03773589
33	0xbe07ccac	-0.1326167
34	0xbd00d6f1	-0.031454984
35	0x3e18ba57	0.14914833
36	0xbc8bd0f8	-0.017067418
37	0x3d008a92	0.03138215
38	0x3d7c98d9	0.061669204
39	0x3df279b6	0.11839621
40	0xbdb9c457	-0.09070652
41	0x3e06ebcd	0.13175888
42	0xbd899848	-0.067184985
43	0x3d4ae476	0.049534284
44	0x3c85b567	0.016321851
45	0x3dbcdbba	0.09221597
46	0xbdc04ce2	-0.09389664
47	0x3e205b44	0.15659815
48	0x3e02d54b	0.12776677
49	0xbde886a8	-0.11353809
50	0xbcb9a589	-0.022661941
51	0x3c5eb0c9	0.013591954
52	0x3d4f619f	0.050630208
53	0x3d5fcf33	0.05464096
54	0x3df1ca8b	0.1180621
55	0x3dc0825e	0.093998656
56	0x3e2d669d	0.16933675
57	0x3d0bf517	0.034169283
58	0x3e2bcac4	0.16776568
59	0x3d8258ae	0.063645706
60	0x3e11bf6d	0.1423318
61	0xbe12be8c	-0.143305
62	0xbd96d3ec	-0.0736464
63	0xbd1c8bd9	-0.038219307
64	0xbab79d80	-0.0014008731
65	0x3cebae29	0.02876957
66	0xbd4a2357	-0.04935011
67	0xba1fa105	-0.00060893624
68	0x3e149e41	0.14513494
69	0xbd839aff	-0.064260475
70	0x3ca3347c	0.019922487
71	0xbd98b12f	-0.0745567
72	0xbd35ec3a	-0.044414736
73	0xbd8e6981	-0.06953717
74	0x3d888ade	0.06667112
75	0xbdd2f7dd	-0.103011824
76	0xbd40b5a6	-0.047048233
77	0xbc9a1d70	-0.018812865
78	0x3d4d09f0	0.050058305
79	0xbd3f8838	-0.046760768
80	0xbcd51215	-0.026009599
81	0x3db91efa	0.090391114
82	0x3e129a5d	0.14316697
83	0x3baab2dd	0.0052093104
84	0x3dd5323c	0.10409972
85	0xbd20ed65	-0.039288897
86	0x3dde55cb	0.108562075
87	0xbda7f5c4	-0.08201173
88	0xbd8face8	-0.07015401
89	0x3e11f052	0.14251831
90	0x3d0cf870	0.034416616
91	0xbac49580	-0.0014998168
92	0xbd4a0c25	-0.04932799
93	0x3d5c17ac	0.053733513
94	0x3e23768a	0.15963188
95	0xbe00ea27	-0.12589322
96	0x3d0bff61	0.034179095
97	0xbd479cda	-0.04873357
98	0xbe15decb	-0.1463577
99	0xbb1c1186	-0.0023814156
100	0x3cde5c9d	0.02714377
101	0xbcda1d75	-0.026625374
102	0x3df7befc	0.12096974
103	0x3c6d1c35	0.014472057
104	0xbd8c8c8d	-0.068627454
105	0xbd7898c3	-0.06069256
106	0x3ceef368	0.0291688
107	0xbd963b14	-0.07335487
108	0xbd709b49	-0.05874184
109	0xbe08baff	-0.13352583
110	0x3e22b0ad	0.15887709
111	0x3d68a2de	0.056795947
112	0x3d01e98c	0.03171687
113	0xbd6c6e22	-0.05772222
114	0x3cd9e3b0	0.026597828
115	0x3d4cea12	0.050027914
116	0x3ddf8c98	0.10915488
117	0x3d532b2a	0.051554836
118	0x3e0abad6	0.13547835
119	0xbe01e2b0	-0.1268413
120	0x3dbfedea	0.093715504
121	0xbe0284d1	-0.12745978
122	0x3c21b3d4	0.0098695345
123	0x3dd5916e	0.10428129
124	0x3dcb2cb2	0.09920634
125	0xbd376bf8	-0.0447807
126	0x3dbb9d81	0.09160901
127	0xbd09c606	-0.033636115
128	0xbe1c7d47	-0.15282165
129	0xbd743476	-0.059620343
130	0x3e001c9b	0.12510912
131	0x3da77723	0.081770204
132	0xbd9e5379	-0.07730765
133	0x3d474778	0.048652142
134	0x3e0d319f	0.1378846
135	0x3e116e59	0.1420225
136	0xbd451489	-0.048115287
137	0x3e2cd9b9	0.1687993
138	0x3dc2d4ad	0.09513221
139	0x3d320eef	0.043471273
140	0x3dcf8f05	0.10134701
141	0x3e2c7ffa	0.16845694
142	0x3cec80ff	0.028870104
143	0x3dc1bc64	0.09459761
144	0x3b6c23a2	0.003603198
145	0xbd83580f	-0.0641328
146	0x3e004edf	0.12530087
147	0xbdcd64ee	-0.100290164
148	0xbd99c52e	-0.07508312
149	0x3d714045	0.058899183
150	0x3bab452f	0.005226753
151	0x3e2eb94b	0.17062871
152	0x3e11433e	0.14185807
153	0xbd25a4db	-0.04044042
154	0xbd191576	-0.037373982
155	0x3dfd6019	0.12371845
156	0x3d8cf5f4	0.06882849
157	0xbe2ea609	-0.17055525
158	0x3ce4fb0e	0.027951743
159	0xbc2a200b	-0.010383616
160	0x3d31875f	0.04334199
161	0xbd850ab0	-0.06496179
162	0xbce78f90	-0.028266698
163	0x3dcb7138	0.09933704
164	0x3d45d0f6	0.048294984
165	0x3d9feba6	0.07808618
166	0xbd8a7677	-0.067608766
167	0xbc62672b	-0.0138185425
168	0xbd48b310	-0.048998892
169	0xbd0e2fe4	-0.03471364
170	0xbc5b2e2e	-0.013377709
171	0xbdd4573c	-0.10368201
172	0xbcb43970	-0.022000045
173	0x3d801384	0.06253722
174	0xbdf23ccb	-0.118280016
175	0x3d82b40e	0.06381999
176	0xbde3a1b7	-0.11114829
177	0x3dbf180f	0.09330761
178	0x3d79d33b	0.06099246
179	0xbd6183e7	-0.055057433
180	0x3e1f6610	0.15566278
181	0x3c2e8d85	0.010653858
182	0xbde2d5c9	-0.110759325
183	0x3e025dc8	0.12731087
184	0x3dd7e52b	0.10541757
185	0xbcc4d186	-0.02402569
186	0xbc43c0db	-0.011947836
187	0x3cc461a2	0.023972336
188	0xbd1687eb	-0.036750715
189	0xbcb13d20	-0.021635592
190	0x3c2b6bd0	0.010462716
191	0xbdd057ff	-0.10173034
192	0x3cc8436a	0.024446208
193	0xbde0891a	-0.1096365
194	0xbdc46f50	-0.09591544
195	0x3d9fb1aa	0.077975586
196	0x3c1294a1	0.008946569
197	0x3d803558	0.062601745
198	0xbd8e4958	-0.06947583
199	0x3c80e01a	0.01573186
200	0x3d9be441	0.07611895
201	0x3dafd54f	0.08585607
202	0xbd729966	-0.059228323
203	0x3df52f9a	0.1197197
204	0xbdb9c621	-0.09070993
205	0x3a3668a9	0.00069583446
206	0x3e2c5fe7	0.16833459
207	0xbdbd4f52	-0.09243645
208	0xbc9032d6	-0.017602365
209	0x3e2027b8	0.15640152
210	0x3d065c7c	0.032803044
211	0xbd0e9d0b	-0.034817737
212	0xbd93d2a3	-0.0721791
213	0x3d082dcf	0.03324681
214	0x3e1a95e7	0.15096246
215	0x3e0474ae	0.12935135
216	0x3dcbc16d	0.099490024
217	0x3cc9c920	0.024632037
218	0xbdcbc202	-0.099491134
219	0xbe08cdc3	-0.13359742
220	0x3e0e0f14	0.1387294
221	0xbd8bff2d	-0.0683578
222	0xbd2d5fe3	-0.042327773
223	0x3ce74267	0.028229905
224	0x3e1bf0ad	0.1522853
225	0xbd1ccbe7	-0.038280394
226	0x3dd36996	0.10322873
227	0xbd6f6e9e	-0.058455102
228	0x3e38c9e0	0.18045759
229	0xbe0b1a1a	-0.13584176
230	0xbc991d87	-0.018690838
231	0x3d812aab	0.063069664
232	0x3d161548	0.03664139
233	0xbdb42300	-0.08795738
234	0xbd513239	-0.051073287
235	0x3e32e75c	0.17471069
236	0x3c883d1f	0.016630707
237	0x3ce5d1ee	0.028054204
238	0xbd0f5b80	-0.03499937
239	0x3cd3b1d1	0.025841625
240	0xbc99eb30	-0.018788904
241	0x3da60fd6	0.08108489
242	0x3c86586e	0.016399588
243	0x3c8597f3	0.016307807
244	0x3dcdc2ea	0.100469425
245	0x3e0eddd9	0.13951816
246	0xbb4b65c0	-0.003103599
247	0x3bcbc3a4	0.0062183905
248	0x3df809c9	0.12111241
249	0xbc2d1c40	-0.010565817
250	0x3ded4b1c	0.115865916
251	0x3bde76d0	0.006789066
252	0xbd9ea12b	-0.07745584
253	0x3dc08a09	0.09401328
254	0xbe171b48	-0.147565
255	0x3dc71896	0.09721486

hidden_layers.0.bias f4 [42]
0	0x3e0a389b	0.13498156
1	0x3e097d7a	0.13426772
2	0xbe0d539a	-0.13801423
3	0x3e225449	0.15852465
4	0x3cf9c50b	0.030489465
5	0x3def82b0	0.116948485
6	0x3e337f80	0.17529106
7	0x3dc18648	0.0944944
8	0xbe0ce19a	-0.13757935
9	0xbd5df131	-0.054185096
10	0xbdfab510	-0.12241566
11	0xbd958f52	-0.07302727
12	0x3e39fc97	0.18162762
13	0x3c80ae0f	0.015707998
14	0x3dfee1bf	0.124454014
15	0x3d47a260	0.048738837
16	0xbd12256e	-0.035680227
17	0x3d89e3b0	0.06732881
18	0x3dcd1049	0.10012872
19	0xbe1f6bb2	-0.15568426
20	0xbcc0a19b	-0.02351456
21	0xbd45ff3e	-0.04833912
22	0x3ce826b6	0.028338771
23	0xbdf15aac	-0.117848724
24	0x3dcdce67	0.10049134
25	0xbe095f2b	-0.1341521
26	0x3df33c2b	0.118767105
27	0x3e325b19	0.17417563
28	0x3d81ef51	0.06344474
29	0x3df40703	0.119154
30	0xbde42a1e	-0.11140846
31	0x3e08e808	0.13369763
32	0xbd8ead6e	-0.06966673
33	0xbd8b8504	-0.0681248
34	0xbcb45bf8	-0.02201651
35	0x3c6cafb0	0.014446184
36	0xbe08f56f	-0.13374875
37	0xbde281dc	-0.11059925
38	0x3dad7660	0.08469844
39	0xbd5caaa4	-0.053873673
40	0x3d85c452	0.06531586
41	0x3dd01df5	0.10161964

hidden_layers.1.weight f4 [42, 42]
0	0xbc8a6254	-0.01689259
1	0x3d8ba13b	0.06817862
2	0xbdbd371f	-0.09239029
3	0x3df1e10d	0.11810503
4	0xbd491098	-0.04908809
5	0xbdadc4e6	-0.08484821
6	0x3dccec69	0.10006029
7	0xbe1c30ed	-0.15253039
8	0x3dcae3ca	0.099067286
9	0xbde7844e	-0.11304532
10	0xbdbdad1e	-0.09261535
11	0x3d3698d4	0.044579342
12	0x3dd23a7d	0.10265062
13	0xbd52665a	-0.05136714
14	0xbd073aea	-0.03301517
15	0xbde8c929	-0.11366493
16	0x3d0f8738	0.035041064
17	0x3d6b8630	0.057501018
18	0x3dfe31af	0.1241182
19	0x3c588e10	0.013217464
20	0xbd45412a	-0.04815785
21	0xbd38c056	-0.0451053
22	0xbc94fdc0	-0.018187404
23	0xbd682dca	-0.056684293
24	0xbc75e5d1	-0.015008406
25	0xbd11a1e8	-0.035554796
26	0xbce8775a	-0.028377224
27	0xbd58ec93	-0.05295999
28	0x3dbc3542	0.091898456
29	0x3dd7b6e1	0.10532928
30	0xbe1bc9ee	-0.15213749
31	0xbd67c61d	-0.05658542
32	0xbd6acbde	-0.05732333
33	0x3d2e5d27	0.042569306
34	0x3d221bee	0.039577417
35	0xbca41fcb	-0.020034691
36	0x3ad2c880	0.0016081482
37	0x3e0d5b47	0.13804351
38	0xbdee127d	-0.1162462
39	0x3b20a080	0.0024509728
40	0x3b924145	0.004463347
41	0xbdbfdc05	-0.09368137
42	0xbe06919f	-0.13141488
43	0x3d57586a	0.052574553
44	0x3dd4b262	0.10385586
45	0xbd8e52cd	-0.06949387
46	0xbd0852c6	-0.033282064
47	0xbe218639	-0.15773858
48	0x3d1764de	0.03696143
49	0xbdbf19b6	-0.09331076
50	0x3c62fdb0	0.013854429
51	0xbd418627	-0.04724708
52	0x3e069bdd	0.13145395
53	0x3e038fbd	0.128478
54	0x3c13b345	0.009014909
55	0xbda7bd0c	-0.08190355
56	0x3d6b4889	0.05744222
57	0x3db06429	0.08612854
58	0x3cf6bb70	0.030118674
59	0x3d276729	0.040869866
60	0x3db62027	0.08892851
61	0x3d7f0d90	0.062268794
62	0xbc96918e	-0.018379953
63	0x3c7ffbe0	0.0156240165
64	0x3dfef1d3	0.12448468
65	0x3d0d216c	0.0344557
66	0xbcd9311f	-0.02651268
67	0x3da1784a	0.078842714
68	0x3b9eb042	0.004842789
69	0x3dd9a968	0.10628015
70	0xbd9a99ec	-0.075488895
71	0x3ba00cb3	0.0048843264
72	0xbced7b20	-0.028989375
73	0x3de76d22	0.11300112
74	0xbb90258d	-0.0043990077
75	0xb9cf7d34	-0.000395754
76	0xbe2ead17	-0.17058216
77	0x3dad7fe4	0.08471659
78	0xbd9d8082	-0.076905265
79	0xbd66c524	-0.05634035
80	0xbba431be	-0.0050108125
81	0xbc69f9ef	-0.01428078
82	0xbdd489f7	-0.10377877
83	0x3d66730c	0.05626206
84	0xbb1b1ad9	-0.0023667125
85	0x3df7f6a9	0.121075936
86	0x3cbb6e9b	0.02287989
87	0x3db03db6	0.086055204
88	0xbdaaaa4a	-0.08333261
89	0xbcc0d9e8	-0.023541406
90	0xbdcc8ea6	-0.099881455
91	0x3ddc362f	0.10752522
92	0x3cf1cbc2	0.029516105
93	0x3dc643d0	0.09680903
94	0x3cad9d08	0.021193042
95	0x3de00393	0.10938182
96	0xbda94b65	-0.082663335
97	0x3d81545c	0.063149184
98	0x3dbe5b76	0.092947885
99	0xbde283a2	-0.11060263
100	0xbda1bcc0	-0.07897329
101	0xbdc4c883	-0.09608557
102	0x3e25fe6a	0.16210333
103	0xbd0d9920	-0.03456986
104	0xbd4b2c82	-0.049602993
105	0x3d24ef94	0.040267542
106	0x3d159549	0.036519323
107	0xbdf1d918	-0.118089855
108	0x3e357154	0.17719012
109	0xbdc30b86	-0.09523682
110	0x3e255421	0.16145374
111	0xbd39e83a	-0.045387484
112	0x3cbd32e7	0.023095561
113	0x3dfcc3db	0.12342044
114	0x3da1cb77	0.07900136
115	0x3e313476	0.17305169
116	0x3d32bbea	0.04363624
117	0x3df03419	0.11728687
118	0xbd8960bd	-0.067079045
119	0x3db5dd99	0.08880157
120	0xbdc04a01	-0.09389115
121	0x3af25000	0.0018486977
122	0xbc11fd57	-0.008910499
123	0x3e23e2c3	0.16004471
124	0x3dba9d94	0.09112087
125	0xbcf1e1d8	-0.029526636
126	0x3e13b70f	0.144253
127	0xbe0dac82	-0.13835338
128	0x3dee6482	0.11640264
129	0xbadefc00	-0.0017012358
130	0x3e0074a1	0.1254449
131	0x3bbc0080	0.0057373643
132	0xbdbf473e	-0.0933976
133	0x3b114600	0.0022166967
134	0xbdfd5728	-0.12370139
135	0x3d2cf2d4	0.042223766
136	0x3ced7810	0.028987914
137	0xbdedab3e	-0.116049275
138	0x3c0c0180	0.0085452795
139	0xbd829f55	-0.063780464
140	0x3df1c12a	0.11804421
141	0xbc703aa0	-0.014662415
142	0x3e0ba951	0.13638808
143	0x3c94ee18	0.018179938
144	0x3da471b8	0.08029503
145	0x3e196f33	0.14983825
146	0x3dc7cc5a	0.09755774
147	0x3d4895ec	0.0489711
148	0x3c2eeaa0	0.010676056
149	0x3d16c754	0.036811188
150	0x3dde748e	0.10862075
151	0x3e097e2f	0.13427041
152	0xbdf9860a	-0.12183769
153	0xbd9fc4b8	-0.07801193
154	0x3cef5428	0.029214934
155	0x3d2cae24	0.04215826
156	0xbd663c16	-0.056209646
157	0x3e1aea1f	0.15128373
158	0xbe0c00aa	-0.13672128
159	0xbdcddd56	-0.10051982
160	0x3be74360	0.0070575923
161	0xbccfa3d8	-0.025346681
162	0xbd81bf9f	-0.06335377
163	0xbdeb452a	-0.114878014
164	0x3d35af80	0.044356823
165	0x3dddd96a	0.10832484
166	0xbe1acb28	-0.1511656
167	0xbe081830	-0.13290477
168	0x3cd507fc	0.026004784
169	0x3e01d0da	0.12677327
170	0x3dad0ef8	0.08450121
171	0x3e0f8f25	0.14019449
172	0x3e0acaad	0.13553877
173	0x3dbe85f3	0.093028925
174	0xbd6aa3b5	-0.05728503
175	0xbbeced02	-0.007230402
176	0xbdce93b1	-0.10086764
177	0xbd5a0440	-0.05322671
178	0xbdf409ce	-0.119159326
179	0x3d9b2520	0.075754404
180	0x3dfdf60d	0.12400446
181	0x3e1f4f34	0.15557557
182	0xbdd8df36	-0.10589449
183	0xbd5cf6ea	-0.053946413
184	0xbb8d3360	-0.004309103
185	0xbdf1a546	-0.117991015
186	0xbd689a81	-0.05678797
187	0xbdfe85dd	-0.12427876
188	0x3c1aef77	0.009456507
189	0x3dc5e4ba	0.09662767
190	0xbe0f874c	-0.14016455
191	0xbdc9d317	-0.09854715
192	0x3e1ead86	0.15495881
193	0xbd9afae7	-0.07567387
194	0xbd3ee415	-0.046604235
195	0x3dc7af74	0.09750262
196	0x3c935ffa	0.017990101
197	0xbd10bbcc	-0.035335347
198	0xbdd1d95a	-0.10246535
199	0x3da1d4c7	0.07901912
200	0xbcdbb1bf	-0.026818154
201	0xbce79251	-0.028268011
202	0x3d490a0e	0.049081855
203	0x3d9914e9	0.074746914
204	0xbc8b8de5	-0.017035434
205	0xbd9ae1c5	-0.07562593
206	0x3e104d99	0.14092101
207	0xbcfb1e24	-0.03065402
208	0x3e2713a8	0.16316092
209	0x3cff36c1	0.031154038
210	0xbdf20fd7	-0.118194275
211	0xbd4b5f9e	-0.049651735
212	0xbdf3d966	-0.119067
213	0xbd932570	-0.07184875
214	0xbd66c9e7	-0.056344893
215	0xbded7cae	-0.115960464
216	0x3d1439b1	0.03618783
217	0xbccf7138	-0.025322542
218	0xbcaf3e78	-0.021392092
219	0x3cf1c4e1	0.029512824
220	0xbdfca3b4	-0.123359114
221	0x3e09c975	0.13455756
222	0x3d87d02d	0.06631503
223	0x3af7966d	0.0018889435
224	0x3dcae3e2	0.099067464
225	0x3da17499	0.07883567
226	0x3c2b77a0	0.010465533
227	0x3d87fdfb	0.0664024
228	0xbcd017ae	-0.025401916
229	0xbdcff72c	-0.10154566
230	0x3df0d657	0.11759632
231	0xba9b4a80	-0.0011847764
232	0x3d86cb10	0.065817
233	0xbd353634	-0.044241145
234	0xbdbfa477	-0.09357541
235	0xbd6839c0	-0.0566957
236	0x3d966306	0.07343106
237	0xbe300183	-0.17188077
238	0x3c9d8cc8	0.019232169
239	0xbd5add43	-0.053433668
240	0xbdf3b7b6	-0.119002745
241	0xbd0dc887	-0.034615066
242	0xbd97fb22	-0.07420947
243	0xbdf31ce7	-0.11870747
244	0x3df7248d	0.120675184
245	0x3e07a584	0.13246733
246	0xbd9d5afc	-0.076833695
247	0xbd8badfd	-0.06820295
248	0xbdaeb2ed	-0.08530221
249	0xbdee8a85	-0.11647514
250	0xbe13cbae	-0.14433166
251	0x3e01f7cb	0.12692182
252	0x3d9f9b6e	0.07793318
253	0x3d809bfb	0.06279751
254	0xbe1b3137	-0.15155493
255	0xbc4a6d34	-0.012355138

hidden_layers.1.bias f4 [42]
0	0xbd1c6b4d	-0.038188267
1	0xbada925a	-0.0016675696
2	0x3e3c7268	0.18403018
3	0xbd98864d	-0.07447491
4	0x3da772f2	0.08176221
5	0x3d3acf0b	0.045607608
6	0xbd21f174	-0.03953691
7	0xbd3553a8	-0.044269234
8	0x3de1bcf8	0.11022371
9	0x3de777ae	0.11302124
10	0xbd7cc2fa	-0.06170938
11	0x3b78dea0	0.0037974492
12	0x3e0327ce	0.12808153
13	0xbd64d5ad	-0.05586784
14	0xbe19c3b0	-0.15016055
15	0xbdd2d69a	-0.10294838
16	0xbdbd2d84	-0.09237197
17	0xbd876b03	-0.06612208
18	0x3d8ec115	0.06970421
19	0xbe06758e	-0.13130781
20	0x3e08da0c	0.13364428
21	0xbc947220	-0.018120825
22	0xbdbf69ec	-0.09346375
23	0xbd0dfeb0	-0.034666717
24	0x3dbe710c	0.09298906
25	0xbb8d3691	-0.0043094833
26	0xbd713904	-0.058892265
27	0xbd49413c	-0.049134478
28	0xbb6908fa	-0.003555833
29	0xbe1c4466	-0.15260467
30	0xbe05c8e2	-0.13064912
31	0xbdd2228e	-0.10260497
32	0xbe0b0687	-0.13576709
33	0x3d9c993d	0.076464154
34	0x3d8829c9	0.06648595
35	0x3d8f57e4	0.06999186
36	0x3d1f1e7b	0.038847428
37	0x3d066ef1	0.032820646
38	0xbda6a2c2	-0.08136512
39	0xbddc0542	-0.1074319
40	0x3db1771f	0.08665299
41	0xbdfd45db	-0.123668395

hidden_layers.2.weight f4 [42, 42]
0	0x3dee1182	0.11624433
1	0x3d3e5438	0.046467036
2	0x3e146184	0.14490324
3	0x3de901c2	0.113772884
4	0x3e1ac836	0.15115437
5	0x3d279c28	0.040920407
6	0x3e204397	0.15650783
7	0xbd9d1d70	-0.076716304
8	0x3e2ba18e	0.16760847
9	0x3d4e532e	0.050372295
10	0xbdba2c04	-0.090904266
11	0xbe0daf3a	-0.13836375
12	0x3d061b88	0.0327411
13	0xbd19fb03	-0.0375929
14	0xbcc25018	-0.023719832
15	0x3d6067c8	0.054786474
16	0xbc248bd0	-0.0100430995
17	0x3d1c654e	0.03818255
18	0x3dd07b68	0.10179788
19	0x3dcdf2cb	0.10056075
20	0x3e22e127	0.15906201
21	0xbc4f9cdd	-0.012671676
22	0xbca6d605	-0.020365724
23	0x3e037178	0.12836254
24	0xbdd846ee	-0.10560404
25	0x3dc7b422	0.097511545
26	0xbd83c9f0	-0.06435001
27	0x3d8f5358	0.069983184
28	0x3ccd622a	0.025071222
29	0xbdcfc384	-0.101447135
30	0x3dd2a9ce	0.10286294
31	0x3ddccf42	0.10781719
32	0x3d1772fc	0.036974892
33	0xbd956171	-0.07293976
34	0x3d200136	0.039063655
35	0xbe110f45	-0.14165981
36	0xbaf28de5	-0.0018505423
37	0xbe016a5b	-0.12638228
38	0xbd213c60	-0.03936422
39	0x3d853568	0.06504327
40	0x3e0f6764	0.14004284
41	0x3cd65680	0.026164293
42	0xbcfb9f20	-0.030715525
43	0x3ca82390	0.02052477
44	0xbcdf6c70	-0.027273387
45	0x3ded9f22	0.11602618
46	0x3d7d950c	0.06190972
47	0xbdba4ac8	-0.09096295
48	0x3e0f509b	0.13995592
49	0xbddd2f24	-0.10800007
50	0x3c9bccd8	0.019018576
51	0x3d2507d0	0.040290654
52	0x3c815528	0.015787676
53	0x3cf3c980	0.029759169
54	0x3c2141c0	0.009842336
55	0xbdb2ac8d	-0.08724318
56	0x3d004b50	0.031321824
57	0x3d01d028	0.031692654
58	0xbc02cec0	-0.007983863
59	0x3dba1adc	0.09087154
60	0x3de9fd4e	0.11425267
61	0x3bf00260	0.007324502
62	0xbdcac1cc	-0.09900245
63	0xbe171ae4	-0.14756352
64	0x3d82ed3e	0.063929066
65	0xbd26a664	-0.040686026
66	0x3cbcc308	0.023042217
67	0x3de576ca	0.11204298
68	0x3dd8c62a	0.10584672
69	0xbdf71a5c	-0.120655745
70	0xbd4cbb96	-0.049983583
71	0xbdde9b9b	-0.10869523
72	0xbda6e03f	-0.0814824
73	0xbd576558	-0.052586883
74	0x3de685ba	0.11255975
75	0xbd9a6ced	-0.07540307
76	0xbdb0bc34	-0.08629647
77	0x3d743af4	0.059626535
78	0xbe0084c5	-0.12550648
79	0x3d9cd9e8	0.0765875
80	0x3da58e44	0.08083776
81	0x3e028d9f	0.12749337
82	0xbc897608	-0.016779914
83	0x3e07c295	0.13257821
84	0x3e078de3	0.13237719
85	0x3d9d67ac	0.076857895
86	0x3be0d1d8	0.006860953
87	0x3ddbd39a	0.10733719
88	0xbe2354e6	-0.15950355
89	0x3c83cb80	0.016088247
90	0x39b83a00	0.00035138428
91	0xbd622006	-0.05520632
92	0xbde91ff1	-0.113830455
93	0x3d3038b3	0.043022823
94	0x3e0ab879	0.13546933
95	0xbd7f8714	-0.06238468
96	0xbd12ab0c	-0.035807654
97	0x3d851c69	0.064995594
98	0xbe154f9f	-0.14581154
99	0xbdf0eb0e	-0.11763583
100	0x3d9de5b8	0.07709831
101	0x3dfa47d2	0.1222073
102	0xbc87d53e	-0.016581174
103	0xbdd70b69	-0.10500223
104	0xbd6e5c47	-0.05819347
105	0xbd91ccc1	-0.07119132
106	0x3de1a20f	0.11017238
107	0xbd5a1456	-0.05324205
108	0x3d76e49c	0.060276613
109	0xbc3a55f0	-0.011373028
110	0x3cde5908	0.027142063
111	0x3e162a4b	0.14664571
112	0xbceb96e7	-0.02875848
113	0xbde0c3a8	-0.109748185
114	0x3d71c730	0.05902785
115	0xbd1e2902	-0.038613327
116	0x3e177949	0.1479236
117	0x3e08540a	0.13313308
118	0x3e0335cf	0.12813495
119	0x3e0dd413	0.13850431
120	0x3df804f1	0.121103175
121	0xbd83141f	-0.06400322
122	0xbd56addf	-0.05241191
123	0xbd9bab52	-0.07601036
124	0xbd29c216	-0.04144486
125	0x3e0d1a2d	0.13779517
126	0x3d025b6d	0.03182547
127	0xbdebfd40	-0.11522913
128	0x3d563adf	0.052302238
129	0x3db1cd4a	0.08681734
130	0x3e2f549f	0.17122124
131	0xbd80bfe3	-0.062865995
132	0x3e26adc6	0.16277227
133	0x3ddbf34e	0.10739766
134	0x3e31c464	0.17360073
135	0x3e315b2f	0.1731994
136	0xbe1d90ec	-0.15387315
137	0x3d32c63e	0.04364609
138	0xbd632270	-0.055452764
139	0xbcea4346	-0.028596532
140	0xbd258094	-0.040405825
141	0xbd258a52	-0.040415116
142	0xbd6ea5b6	-0.058263503
143	0xbdb83718	-0.08994883
144	0xbbc092d3	-0.005876878
145	0x3d1a04e2	0.037602313
146	0xbc61a98a	-0.013773331
147	0xbceaac5c	-0.02864664
148	0x3e0e3e0e	0.1389086
149	0x3dd99d6b	0.10625728
150	0xbdcaf9b4	-0.09910908
151	0xbe014cad	-0.12626906
152	0x3d9ee656	0.07758777
153	0xbd391b50	-0.045192063
154	0xbccc73ec	-0.02495762
155	0xbe01d83e	-0.12680146
156	0xbde1da60	-0.1102798
157	0x3ba709a0	0.005097583
158	0x3d7ab8a6	0.06121125
159	0x3e11d30d	0.14240666
160	0x3e175a05	0.14780433
161	0xbd493194	-0.049119547
162	0x3d432fbd	0.04765295
163	0xbcda9320	-0.026681483
164	0x3d455e21	0.04818547
165	0xbd6b4190	-0.057435572
166	0x3de08903	0.10963633
167	0xbe098036	-0.13427815
168	0x3cb23d68	0.021757796
169	0xbd14ef6a	-0.036361136
170	0x3debe89a	0.115189746
171	0x3dca539a	0.09879227
172	0x3dd13611	0.102153905
173	0xbde0ea8f	-0.109822385
174	0x3d98f346	0.07468276
175	0xbe06d66f	-0.13167737
176	0xbd4e7ea3	-0.05041374
177	0xbded3019	-0.115814395
178	0xbcc22a70	-0.023701876
179	0xbdd1f9fb	-0.10252758
180	0xbd12f602	-0.035879143
181	0xbe02d089	-0.12774862
182	0x3e093025	0.13397272
183	0xbd1dded8	-0.0385426
184	0x3df67752	0.12034477
185	0xbdb58d0a	-0.08864792
186	0xbdac8ca8	-0.084252656
187	0x3d57acd5	0.05265506
188	0xbd87e3cc	-0.06635246
189	0xbd691055	-0.05690034
190	0x3d06d189	0.032914672
191	0x3d7bbbe2	0.061458476
192	0x3df58a54	0.119892746
193	0xbe0859e1	-0.13315536
194	0xbd5d5bae	-0.05404251
195	0x3d803218	0.062595546
196	0xbdae6266	-0.08514862
197	0x3cd3b6b8	0.025843963
198	0xbe065c4a	-0.13121143
199	0x3b348e00	0.002755046
200	0x3dd7994a	0.105272844
201	0x3db358be	0.087571606
202	0xbe10379f	-0.14083718
203	0xbe0aa4c0	-0.1353941
204	0xbddfd12d	-0.10928569
205	0xbce31e98	-0.02772455
206	0xbdda367d	-0.10654924
207	0x3dbfc4fe	0.09363745
208	0x3cf6175c	0.030040435
209	0x3bc28040	0.0059356987
210	0xbd955e4d	-0.07293377
211	0x3dacae65	0.084317006
212	0xbde312d5	-0.11087576
213	0xbce173f8	-0.027521119
214	0xbde9b0e5	-0.11410693
215	0x3cbde764	0.023181625
216	0x3de49335	0.1116089
217	0xbdf0542e	-0.11734806
218	0x3ddf91ff	0.109165184
219	0x3d650919	0.05591688
220	0xbce13118	-0.02748923
221	0xbdf65cd0	-0.12029421
222	0x3e33cb7b	0.1755809
223	0x3d9988a4	0.07496765
224	0xbc0dcc80	-0.008654714
225	0xbd34beb8	-0.044127196
226	0xbe07e247	-0.13269912
227	0xbdf1fb3b	-0.118154965
228	0xbdafb346	-0.085791156
229	0xbdef1517	-0.116739444
230	0x3d4f30c8	0.05058363
231	0xbcd2c1f4	-0.02572725
232	0xbde8206b	-0.11334308
233	0xbd72a197	-0.059236135
234	0x3acf01f2	0.0015793426
235	0x3b5b1c63	0.0033433668
236	0xbdab4cb7	-0.083642416
237	0xbcb93fe8	-0.02261348
238	0x3e2b7c86	0.1674672
239	0x3e075a25	0.13217981
240	0xbc68b040	-0.0142021775
241	0x3c1b9970	0.009497032
242	0x3d8ef3e8	0.06980115
243	0xbd5f7788	-0.054557353
244	0x3d802c0e	0.06258403
245	0x3daa0d71	0.08303345
246	0xbd99463e	-0.07484101
247	0x3db161e5	0.0866125
248	0x3e07cc36	0.13261494
249	0xbbb3f540	-0.0054918826
250	0x3bf6e7d1	0.007534959
251	0x3d62565c	0.05525814
252	0xbd303183	-0.043015968
253	0xbdfea511	-0.12433828
254	0x3d7e79a0	0.06212771
255	0xbd2cd1c8	-0.04219225

hidden_layers.2.bias f4 [42]
0	0xbde070ba	-0.10959001
1	0xbd7ac192	-0.06121976
2	0xbda9be1d	-0.08288214
3	0x3e4581e3	0.19287829
4	0xbd54dab8	-0.0519664
5	0x3e257e47	0.16161452
6	0x3dec7e41	0.115475185
7	0x3d0be596	0.034154497
8	0xbddba7c6	-0.107253596
9	0x3d006b34	0.031352237
10	0xbdaca919	-0.0843069
11	0x3e25cd1c	0.16191524
12	0xbe1b272d	-0.15151663
13	0x3dfee82e	0.124466285
14	0x3e43640d	0.19081135
15	0xbde67a1a	-0.11253758
16	0x3d989127	0.074495606
17	0xbdd76bc0	-0.105185986
18	0xbd39bebe	-0.04534792
19	0xbd34a13e	-0.044099085
20	0x3c884c70	0.01663801
21	0x3e0488d7	0.12942825
22	0x3e013296	0.12616953
23	0xbdab605a	-0.08367987
24	0xbde47754	-0.111555725
25	0x3e3a6b19	0.18204917
26	0xbe19bf7a	-0.15014449
27	0x3d5acb05	0.05341627
28	0xbe032397	-0.12806545
29	0xbd2cb9e2	-0.04216946
30	0xbe131932	-0.1436508
31	0xbdfbc844	-0.12294057
32	0xbdffd8e0	-0.124925375
33	0xbd7bdd59	-0.06149039
34	0x3de262b0	0.110539794
35	0x3dceb06a	0.10092242
36	0xbdd26895	-0.10273854
37	0xbcaddf58	-0.021224663
38	0x3c7ad000	0.01530838
39	0xbe1d22b6	-0.15345272
40	0x3e36fd42	0.17870048
41	0xbcde2622	-0.027117793

hidden_layers.3.weight f4 [42, 42]
0	0xbc31082d	-0.010805172
1	0xbdbb65ed	-0.091503
2	0x3ac58cdd	0.0015071888
3	0x3d3b950f	0.04579645
4	0xbe09d05b	-0.13458388
5	0x3d37b80d	0.04485326
6	0x3e1f8f75	0.15582068
7	0x3ddbeb3f	0.10738229
8	0xbd97ef10	-0.074186444
9	0xbdcbf1f9	-0.09958262
10	0xbce43423	-0.027856892
11	0x3dab73b2	0.083716765
12	0x3d97c808	0.074112
13	0x3de2b476	0.110695764
14	0x3d478e9f	0.04872
15	0xbdf4a419	-0.11945362
16	0x3e01b551	0.12666823
17	0x3d2cf258	0.042223305
18	0xbbf1a380	-0.007374227
19	0xbe096e56	-0.13420996
20	0xbc81cc70	-0.015844554
21	0xbb21275a	-0.0024590106
22	0x3cc9ea84	0.024647959
23	0xbca8bbdd	-0.020597393
24	0xbd15c3fc	-0.03656386
25	0x3e151dc5	0.14562137
26	0x3d92458e	0.07142173
27	0xbdc261be	-0.09491299
28	0x3d240b4c	0.040049836
29	0x3de92852	0.113846436
30	0xbe05376a	-0.1300942
31	0x3dfa7c0a	0.1223069
32	0xbda7e85f	-0.08198618
33	0x3dbc8ff9	0.09207148
34	0x3d8946ec	0.067029804
35	0x3dae8a1e	0.085224375
36	0x3d8481b4	0.064700514
37	0x3caed858	0.021343395
38	0xbde25547	-0.110514216
39	0xbe0c374a	-0.13692966
40	0xb8ccbb9d	-9.762424e-05
41	0x3e0a9673	0.13533954
42	0xbdcdca95	-0.10048405
43	0x3c6b5390	0.014363185
44	0xbdb15aae	-0.08659874
45	0x3e297e3e	0.16552064
46	0xbd7a0649	-0.06104115
47	0x3dd1dbec	0.10247025
48	0x3de1ff7c	0.11035058
49	0x3e0d3d44	0.13792902
50	0x3d8fe202	0.070255294
51	0xbdb159ef	-0.086597316
52	0x3de7a871	0.113114245
53	0xbd03f31a	-0.03221426
54	0xbd253e26	-0.040342472
55	0x3e4135ce	0.18868181
56	0x3de10ceb	0.10988792
57	0xbd8d5526	-0.069010064
58	0x3e13cf65	0.14434583
59	0xbcf0a330	-0.029374689
60	0xbd543012	-0.051803656
61	0xbcd01430	-0.025400251
62	0x3d5bc1f6	0.053651772
63	0x3d83a174	0.06427279
64	0x3d377362	0.044787772
65	0x3cbaf5e7	0.022822333
66	0xbbd5a900	-0.0065203905
67	0x3d381527	0.044942047
68	0x3e02c9eb	0.12772338
69	0x3c54e00f	0.012992873
70	0xbda71de8	-0.08160001
71	0xbdc08902	-0.09401132
72	0xbd99fe00	-0.0751915
73	0xbd60274c	-0.054724976
74	0xbd79829c	-0.060915574
75	0xbdbb5bcc	-0.09148368
76	0x3e05964a	0.13045612
77	0x3d1b15e7	0.037862685
78	0xbdc5e960	-0.096636534
79	0x3a620d00	0.0008623153
80	0x3c89af20	0.016807139
81	0xbe0ca1a0	-0.1373353
82	0xbcd9d3a1	-0.02659017
83	0xbd764a1d	-0.060129274
84	0xbd00b8c9	-0.031426225
85	0xbdf1620a	-0.117862776
86	0xbdb1e8a6	-0.08686952
87	0x3d12e313	0.035861086
88	0xbde0eefa	-0.10983081
89	0xbd9b76db	-0.07591029
90	0xbbfc0f86	-0.00769228
91	0xbd0ee506	-0.034886383
92	0xbdb52275	-0.08844463
93	0x3d1d1a71	0.038355295
94	0xbdfc14ea	-0.123086765
95	0x3de2495b	0.11049148
96	0xbd8c09ed	-0.06837831
97	0xbd07d59d	-0.033162702
98	0x3dc3b90f	0.095567815
99	0xbd094ff6	-0.033523522
100	0xbdad75d6	-0.08469741
101	0x3c61b720	0.013776571
102	0xbdf1b5c2	-0.11802246
103	0xbc97b596	-0.018519204
104	0x3e2837bb	0.1642751
105	0x3ce123c0	0.027482867
106	0x3deb16a3	0.11478927
107	0xbb0ee2fd	-0.0021802776
108	0xbde2892a	-0.11061318
109	0x3dad685e	0.08467172
110	0xbe0eba1e	-0.13938186
111	0xbde998c8	-0.11406094
112	0x3de768e2	0.11299302
113	0xbd091ae8	-0.033472925
114	0x3cdb1830	0.026744932
115	0xbd770660	-0.060308814
116	0xbe04b20b	-0.12958543
117	0x3d327ad6	0.043574177
118	0xbdd9bc75	-0.106316485
119	0xbc4dd15f	-0.012562125
120	0xbdab10f1	-0.08352841
121	0xbe174701	-0.1477318
122	0x3e1807e3	0.14846759
123	0x3e051d17	0.12999378
124	0xbda19161	-0.07889057
125	0x3d0a4113	0.033753466
126	0x3df438a3	0.11924865
127	0x3dc39dbc	0.0955157
128	0x3dfc5516	0.12320916
129	0x3e2c32d5	0.16816266
130	0xbde53f16	-0.11193673
131	0xbd37c380	-0.044864178
132	0x3e378ac0	0.17924023
133	0x3cd56018	0.026046798
134	0xbe0541d0	-0.13013387
135	0xbdab5a76	-0.083668634
136	0x3e16a66a	0.1471192
137	0x3df27549	0.118387766
138	0xbe0b7f5f	-0.13622807
139	0xbd4efc68	-0.050533682
140	0x3dd326b0	0.103101134
141	0xbe0d92e8	-0.13825572
142	0x3dd5aedc	0.104337424
143	0x3dd2055e	0.1025493
144	0xbcf01458	-0.029306576
145	0xbd33fead	-0.04394405
146	0xbdaee6b2	-0.085400954
147	0xbc767cb5	-0.015044381
148	0x3d1c6975	0.03818651
149	0xbbd81eee	-0.006595484
150	0xbcb09f38	-0.021560296
151	0xbdbfa488	-0.09357554
152	0xbd339272	-0.043840833
153	0x3df1a1e3	0.117984556
154	0xbe12f5f7	-0.1435164
155	0x3e1841cd	0.14868851
156	0xbd8b0c80	-0.067894936
157	0x3d37f890	0.044914782
158	0x3e11c913	0.1423686
159	0xbd85fa29	-0.06541855
160	0x3e294fd3	0.16534357
161	0x3e326ac1	0.17423536
162	0xbd5653ba	-0.05232594
163	0xbd990c01	-0.07472993
164	0x3de1445e	0.10999368
165	0xbb7298c0	-0.0037017316
166	0xbd7c03eb	-0.061527174
167	0x3bd9b473	0.0066438257
168	0x3d8b2803	0.06794741
169	0x3d9d7b24	0.07689503
170	0x3dd9abfe	0.10628508
171	0x3e2a5b64	0.16636425
172	0xbdf617bf	-0.12016248
173	0xbd078cdf	-0.03309333
174	0xbc7cc1ac	-0.015427034
175	0x3deb0817	0.114761524
176	0xbc7124c5	-0.014718239
177	0x3db565f6	0.08857338
178	0xbd2aa139	-0.04165766
179	0xbc2b2e97	-0.01044812
180	0x3d188998	0.037240595
181	0x3df90a89	0.121602125
182	0x3d9c1ca8	0.07622653
183	0x3d2e9dd8	0.042631
184	0x3d2d9090	0.042374194
185	0xbe0f6366	-0.14002761
186	0x3d919236	0.07107966
187	0x3ddeae12	0.10873045
188	0x3e1f76fc	0.15572733
189	0x3bc17f86	0.0059050946
190	0x3e0dad3f	0.1383562
191	0x3e036f09	0.12835325
192	0xbdbb1405	-0.09134678
193	0x3da2a060	0.07940745
194	0x3d537028	0.051620632
195	0x3e1eaa7d	0.15494724
196	0x3dbdc17a	0.09265418
197	0x3dbbc77e	0.091689095
198	0xbdcd9972	-0.10039033
199	0xbdb88bbc	-0.09011027
200	0x3d47e5b8	0.04880306
201	0x3dfaa876	0.122391626
202	0x3d69afbf	0.05705237
203	0x3dbbb7ef	0.09165942
204	0xbd71b982	-0.059014805
205	0xbe1d9214	-0.15387756
206	0xbd994cdf	-0.07485365
207	0xbdd68e30	-0.10476339
208	0x3dcedad0	0.10100329
209	0xbe12b343	-0.14326195
210	0xbd226db9	-0.03965542
211	0x3e05f9d7	0.13083588
212	0x3cd320be	0.025772449
213	0x3e00db3c	0.12583631
214	0x3c814e70	0.015784472
215	0xbe3a51f5	-0.18195327
216	0xbdb8a599	-0.0901596
217	0xbdc80be8	-0.09767896
218	0x3ddbac5a	0.10726233
219	0x3d91884e	0.07106076
220	0x3e056f72	0.13030794
221	0xbd820bf4	-0.06349936
222	0xbbf10da0	-0.0073563606
223	0x3e01ea91	0.12687136
224	0x3d882146	0.066469714
225	0x3cb97298	0.02263765
226	0x3d489f5b	0.0489801
227	0x3c394300	0.011307478
228	0x3ab93a80	0.0014131814
229	0xbe1a4183	-0.15064053
230	0xbe0067a5	-0.12539537
231	0x3a286fd2	0.0006425354
232	0x3cbea3bb	0.023271432
233	0xba93375d	-0.001123171
234	0xbc5ac9c0	-0.013353765
235	0x3defc34e	0.11707173
236	0x3e0dcd7d	0.13847919
237	0x3cba1db8	0.02271925
238	0x3d6a2ccc	0.057171628
239	0x3d38561c	0.045003995
240	0xbd86c169	-0.06579859
241	0xbda10ce0	-0.07863784
242	0x3dc89362	0.09793736
243	0x3d6f96db	0.058493476
244	0xbe18d4da	-0.14924946
245	0xbd0889ec	-0.033334658
246	0x3dbf85c6	0.09351687
247	0x3e02b659	0.12764873
248	0x3bf06660	0.007336423
249	0x3e06a8f1	0.13150384
250	0xbd722f21	-0.059126977
251	0xbd95b105	-0.073091544
252	0xbc92dda8	-0.01792796
253	0xbd5843b2	-0.052798934
254	0x3d921ad4	0.07134023
255	0x3e115d73	0.14195804

hidden_layers.3.bias f4 [42]
0	0x3d8dcd94	0.069239765
1	0x3d873027	0.06600981
2	0x3e064e62	0.13115838
3	0xbc95c99c	-0.018284611
4	0xbcf23875	-0.029567936
5	0xbde9b514	-0.11411491
6	0x3c513ee0	0.012771338
7	0xbe127d50	-0.14305615
8	0xbd47ef8a	-0.048812427
9	0x3dcec6ed	0.10096536
10	0x3dbd94e1	0.09256912
11	0xbdec4754	-0.11537042
12	0xbe1dcc59	-0.15409984
13	0xbc1cec70	-0.0095778555
14	0x3cdaeab8	0.02672325
15	0x3d9aafaa	0.075530365
16	0xbd59d96c	-0.053185865
17	0xbd2004a5	-0.03906693
18	0xbdec8767	-0.115492634
19	0xbd78893e	-0.06067776
20	0x3d274e09	0.040845904
21	0xbd736224	-0.059419766
22	0xbc6871fd	-0.014187333
23	0x3d47232d	0.04861753
24	0xbd6415f8	-0.055685014
25	0x3d92bf27	0.07165366
26	0xbd18f649	-0.03734425
27	0xbd361916	-0.044457518
28	0x3d62e452	0.055393524
29	0x3db977c6	0.09056048
30	0xbd832bb8	-0.06404823
31	0x3d9d7d6a	0.076899365
32	0xbd2aa874	-0.041664556
33	0x3dfca246	0.12335639
34	0x3c8ed7f0	0.017436951
35	0x3d9e11d3	0.077182434
36	0xbda7fbea	-0.08202346
37	0xbdcfbd2c	-0.101435035
38	0xbda36496	-0.079781696
39	0xbd0e6b82	-0.034770496
40	0xbd828096	-0.06372182
41	0x3db615f1	0.08890904

output_layer1.weight f4 [40, 42]
0	0x3d0f7e4b	0.03503255
1	0xbac20dfa	-0.0014805191
2	0x3d852fcf	0.065032594
3	0xbdfb445f	-0.122689
4	0x3ceed2c1	0.02915323
5	0xbddbc415	-0.10730759
6	0x3d9d9208	0.07693869
7	0xbdea210c	-0.114320844
8	0x3d110940	0.035409212
9	0xbe0bb51b	-0.13643305
10	0xbd8ae404	-0.06781772
11	0xbd58fad2	-0.052973576
12	0xbd8315d6	-0.06400649
13	0xbd2dd76c	-0.04244177
14	0x3d607634	0.054800227
15	0xbe0b33b5	-0.13593943
16	0xbda85fc1	-0.082213886
17	0xbe0756ec	-0.13216752
18	0xbdee5d97	-0.116389446
19	0xbdfa1e39	-0.12212796
20	0xbd91d30e	-0.071203336
21	0xbd9250ae	-0.07144295
22	0xbcbf7525	-0.023371289
23	0xbe0e4428	-0.13893187
24	0x3c9c5bc0	0.019086719
25	0x3df8334a	0.121191576
26	0xbdb7c614	-0.08973327
27	0x3e19d8d1	0.15024115
28	0xbe023593	-0.1271575
29	0xbe298250	-0.16553617
30	0xbd6ab2ea	-0.057299532
31	0xbd7343d7	-0.05939087
32	0x3d6443ac	0.0557286
33	0xbe115816	-0.14193758
34	0xbe048d16	-0.12944445
35	0x3dcbe0f7	0.09955018
36	0xbd8c2459	-0.0684287
37	0x3cb3c940	0.02194655
38	0xbb656aa3	-0.0035006187
39	0x3dd605ca	0.10450323
40	0xbda91ddb	-0.082576476
41	0x3de2201d	0.11041281
42	0x3bad3c11	0.0052867015
43	0x3d236226	0.039888524
44	0x3e10ce85	0.14141281
45	0x3bf1ac38	0.0073752664
46	0x3daa6863	0.083206914
47	0x3c4b1502	0.012395145
48	0xbe0c98ee	-0.13730213
49	0x3e0e7c8d	0.139147
50	0x3e19d19b	0.15021364
51	0x3e2b386b	0.1672074
52	0x3e19d0ef	0.15021108
53	0x3da5de74	0.0809907
54	0x3d48faf8	0.049067467
55	0xb8ea9800	-0.00011186302
56	0xbdd0eeea	-0.10201819
57	0xbced2865	-0.028949926
58	0x3e0e7223	0.13910727
59	0x3bc64cb5	0.0060516247
60	0xbd5f8916	-0.054574095
61	0xbd615e56	-0.055021606
62	0x3e319989	0.17343725
63	0x3d69cc7d	0.05707978
64	0x3d485a4a	0.04891423
65	0xbd8ff76b	-0.07029613
66	0x3debba6e	0.11510168
67	0xbbdbea7b	-0.006711302
68	0x3d0c32d3	0.034228157
69	0xbdae63c8	-0.085151255
70	0x3d0589d1	0.032602135
71	0x3e365613	0.17806272
72	0xbdf3e290	-0.11908448
73	0xbd638d2c	-0.055554554
74	0xbc8b9680	-0.017039537
75	0x3c17b69b	0.009259845
76	0x3d2efa70	0.042719305
77	0xbd650c11	-0.05591971
78	0xbd66c30a	-0.056338347
79	0x3cb35270	0.021889895
80	0x3c2a8b7a	0.01040923
81	0x3c6632c0	0.014050186
82	0x3da1820c	0.078861326
83	0xbcc7f7ac	-0.024410091
84	0xbd208272	-0.039186902
85	0xbd0e9c7e	-0.03481721
86	0xbc029969	-0.007971146
87	0xbc6808e8	-0.01416228
88	0xbc68c600	-0.014207363
89	0xbdbc40c8	-0.091920435
90	0xbdcd8800	-0.100357056
91	0xbdc46361	-0.095892675
92	0xbdb3e0f9	-0.087831445
93	0x3db21771	0.08695877
94	0xbdaf7930	-0.085680366
95	0xbdb05b03	-0.08611109
96	0x3d6d7d74	0.05798097
97	0x3e04de2f	0.12975381
98	0xbcab41b0	-0.020905346
99	0x3c95d280	0.01828885
100	0x3d92d624	0.0716975
101	0x3dd5c113	0.104372166
102	0x3cddbaa5	0.027066538
103	0xbda08467	-0.07837754
104	0xbdde156f	-0.10843932
105	0x3dc9a14c	0.09845218
106	0xbd510003	-0.0510254
107	0xbd8bac60	-0.06819987
108	0x3dc883c6	0.09790759
109	0x3e20ab08	0.15690243
110	0x3cdc0dfd	0.026862139
111	0x3db79e30	0.08965719
112	0x3e2f4032	0.17114332
113	0x3d8c168f	0.0684024
114	0x3dba0a36	0.09083979
115	0x3e24d57c	0.16097063
116	0x3e170dab	0.14751308
117	0x3e2f45f8	0.17116535
118	0x3dd52db2	0.10409106
119	0xbd9bdaea	-0.07610114
120	0x3d9d339d	0.0767586
121	0x3d675eb8	0.056486815
122	0xbd050f76	-0.032485448
123	0xbdc31546	-0.09525542
124	0x3ddab1ca	0.10678442
125	0xbd48ee01	-0.049055103
126	0xbc1ac849	-0.009447166
127	0xbda530a2	-0.080659166
128	0x3d4dc045	0.05023219
129	0xbdceec24	-0.10103634
130	0xbd35edaf	-0.044416126
131	0xbd1d0468	-0.03833428
132	0xbdfe8df9	-0.12429423
133	0xbde726c2	-0.11286689
134	0x3d73b8c0	0.059502363
135	0x3db0d912	0.08635153
136	0xbcc8af3a	-0.024497617
137	0xba7cff00	-0.0009651035
138	0xbdea3d95	-0.11437527
139	0x3dce863e	0.100841984
140	0xbddb0c7e	-0.10695742
141	0x3d5b2fed	0.053512502
142	0x3d08443c	0.0332682
143	0xbd3bb79f	-0.04582941
144	0xbdde4bbc	-0.10854289
145	0x3d113648	0.035452157
146	0x3d8566bd	0.065137364
147	0x3df14ab3	0.11781826
148	0x3c80be85	0.015715847
149	0xbd633ad2	-0.055476017
150	0xbd373da0	-0.044736505
151	0x3df10e31	0.11770285
152	0x3d525797	0.051353063
153	0xbe045189	-0.12921728
154	0xbde0ff97	-0.1098625
155	0x3dd4acde	0.10384534
156	0x3df42f52	0.11923088
157	0xbde304f9	-0.11084933
158	0x3d3d1948	0.04616669
159	0x3e0068ec	0.12540025
160	0xbdd9d43b	-0.10636183
161	0xbd3f8bf3	-0.046764325
162	0xbd098c74	-0.033581212
163	0xba9dd780	-0.0012042373
164	0xbdd32914	-0.103105694
165	0xbd1b6294	-0.03793581
166	0x3daf631e	0.08563827
167	0xbdff9e90	-0.12481415
168	0xbe057c99	-0.13035811
169	0x3d254ccb	0.04035644
170	0xbde97502	-0.113992706
171	0xbc87f099	-0.016594218
172	0xbdc930b6	-0.09823744
173	0x3e004dfe	0.12529752
174	0xbd442ed0	-0.047896206
175	0x3dd55e15	0.10418335
176	0x3c0cbc70	0.008589849
177	0x3d609b62	0.054835685
178	0x3d45e64b	0.048315328
179	0x3d564da8	0.052320153
180	0x3df64f56	0.12026851
181	0x3d1a00f4	0.037598565
182	0xbd76d9d2	-0.060266323
183	0x3dcb4e87	0.09927087
184	0xbdcca490	-0.09992325
185	0x3dfc82f0	0.12329662
186	0x3e0f3d17	0.13988148
187	0x3ddc24a1	0.10749174
188	0xbc97c8d4	-0.01852838
189	0x3d946b7f	0.07247066
190	0x3dc613ef	0.09671771
191	0xbdc160d6	-0.09442298
192	0xbdd9f1c2	-0.10641815
193	0xbdf6939c	-0.12039873
194	0xbca10baf	-0.019658891
195	0xbdf0c640	-0.11756563
196	0x3cd6198e	0.026135232
197	0x3d0853ff	0.03328323
198	0xbc892a78	-0.016743883
199	0x3d0ac1b4	0.033876136
200	0x3d47581c	0.048668012
201	0x3ddcfdd9	0.10790605
202	0xbcdcf138	-0.02697049
203	0x3dcbfb75	0.09960071
204	0xbc7d77da	-0.015470469
205	0x3cfde518	0.03099303
206	0xbd493a0f	-0.049127635
207	0x3dbf3f88	0.093382895
208	0xbe151062	-0.14557031
209	0x3dff5c63	0.12468793
210	0x3d300119	0.042969797
211	0xbdbb7c4e	-0.091545686
212	0xbc9eea87	-0.01939894
213	0xbd61c242	-0.0551169
214	0xbd6e1e72	-0.058134504
215	0xbd93344e	-0.07187711
216	0x3e0de577	0.13857065
217	0x3e11ced7	0.1423906
218	0x3ba6e5a0	0.0050932914
219	0x3e3d32b4	0.18476373
220	0x3e185982	0.14877895
221	0xbe02ecbd	-0.12785621
222	0xbcb49840	-0.022045255
223	0xbc7cf3b0	-0.015438959
224	0x3e1923f7	0.14955126
225	0x3db48582	0.08814527
226	0x3daad332	0.083410636
227	0x3deb192f	0.11479413
228	0x3d072c8e	0.033001475
229	0x3d654614	0.055975035
230	0xbd726f5b	-0.059188228
231	0x3d6a5b2f	0.057215866
232	0x3e05a397	0.13050686
233	0x3ddd84d0	0.108163476
234	0x3c5559d0	0.013021901
235	0xbcbecf0f	-0.023292093
236	0x3bf5e409	0.0075039905
237	0xbd8841fe	-0.06653212
238	0x3df4e66a	0.119580105
239	0xbde2f744	-0.110823184
240	0x3d759ff8	0.05996701
241	0x3e333ef3	0.17504482
242	0xbb7be840	-0.0038437992
243	0x3c5e00d9	0.013550007
244	0xbda99827	-0.08280974
245	0x3e04587e	0.12924382
246	0x3e0facbc	0.14030737
247	0xbdcff7ca	-0.10154684
248	0x3d0d0284	0.034426227
249	0x3d551b80	0.05202818
250	0xbde77e00	-0.113033295
251	0xbb811fbb	-0.00394055
252	0xbd74f9a1	-0.059808377
253	0x3ca059e9	0.019574123
254	0xbdd7f0cd	-0.10543976
255	0xbe2472f8	-0.16059482

output_layer1.bias f4 [40]
0	0xbe3729de	-0.17887065
1	0x3d828b4c	0.06374225
2	0x3deadc55	0.11467806
3	0xbe123eae	-0.14281723
4	0x3dfdba6c	0.12389073
5	0x3e48faf1	0.19626977
6	0xbdab41a8	-0.08362132
7	0xbd8eaa1b	-0.06966039
8	0x3dccba0a	0.09996422
9	0x3d9db6ba	0.07700868
10	0xbd963d7b	-0.07335945
11	0xbdf58d62	-0.11989857
12	0xbe20530d	-0.15656681
13	0xbc0f3e7a	-0.008742923
14	0x3dd192fa	0.10233112
15	0xbd682859	-0.056679104
16	0xbca8f6ec	-0.020625554
17	0xbe131247	-0.14362441
18	0x3e238743	0.15969567
19	0xbda982b0	-0.0827688
20	0xbc826a6a	-0.015919883
21	0xbdfbfd8e	-0.12304221
22	0xbe0ae544	-0.1356402
23	0xbdb9ad6e	-0.09066282
24	0x3d7dc77f	0.061957832
25	0x3d24e579	0.040257905
26	0x3dc33e3d	0.095333554
27	0x3d02426c	0.031801626
28	0x3cb226f4	0.02174709
29	0x3e29cdd3	0.16582422
30	0xbd64fccb	-0.055905145
31	0xbdf3d842	-0.11906482
32	0xbe0bcf21	-0.13653232
33	0xbabf9975	-0.0014617877
34	0xbd998560	-0.074961424
35	0x3c097986	0.00839079
36	0x3de368c6	0.11103968
37	0x3dbb6c3a	0.09151502
38	0x3e030f5d	0.1279883
39	0xbe20acd9	-0.15690936

output_layer2.weight f4 [1, 42]
0	0x3da6fa12	0.08153166
1	0x3d64da71	0.055872384
2	0x3df099dc	0.11748096
3	0x3d8544d2	0.06507267
4	0x3dd9e2b5	0.10638944
5	0xbcc4dbee	-0.024030652
6	0x3cbe5ee0	0.0232386
7	0xbd1356f9	-0.035971615
8	0x3d097a64	0.033563986
9	0x3d8b2417	0.06793993
10	0x3dba68e3	0.09102037
11	0xbdbaca5f	-0.091206305
12	0xbca2a4c8	-0.019853964
13	0xbe091e1e	-0.13390395
14	0xbd9a502b	-0.07534822
15	0x3dbb4d85	0.09145645
16	0x3dba099e	0.090838656
17	0xbd202690	-0.039099276
18	0xbd63f305	-0.055651683
19	0xbd17328e	-0.036913447
20	0x3b880d33	0.004151964
21	0x3d1be736	0.038062297
22	0x3dc69cd8	0.09697884
23	0x3dcedc90	0.10100663
24	0xbcd8b038	-0.026451215
25	0x3d2a9edc	0.041655406
26	0xbd21866b	-0.03943483
27	0xbcd4af78	-0.025962576
28	0xbc14cd3f	-0.009082138
29	0xbca7f2f1	-0.020501586
30	0x3e14e2ad	0.14539595
31	0x3d81f33a	0.0634522
32	0xbd96ac00	-0.07357025
33	0x3e020c2e	0.12699959
34	0x3dce9402	0.10086824
35	0x3d832d09	0.06405074
36	0x3d94569e	0.072430834
37	0x3d516ebc	0.051130995
38	0xbdddc3b5	-0.10828344
39	0x3e0cb61b	0.13741343
40	0xbcbcd070	-0.02304861
41	0x3e3694d1	0.17830206
