src/models/dynamics_116.pt (torch, 47878 bytes, 13 tensors)

input_layer.weight f4 [42, 42]
00000000: 917e 6a3d 1242 51bd c21a 113e 79b4 863c
00000010: 5a18 dabd a59b 763d a328 43bc 7f31 ccbc
00000020: 86a5 fa3c c248 38bc e173 19be 4cb4 8d3c
00000030: 3854 8cbd 8dd7 863d a283 f6bd 63a1 94bd
00000040: f95e 54bd cb8c 263d 3c6f 183e 2e3a 27be
00000050: 1a01 d4bd 4a77 17be d2df 8d3d e887 cd3d
00000060: 67e6 c3bd 7a4c 8bbd cd98 96bd 5067 023e
00000070: e5ee 043e f740 59bc 2c9c ebbd 4c52 043d
00000080: 4928 0b3e 9cd2 2fbe 8e5b eebd f609 3ebc
00000090: 2e02 be3d 39ee 813c 0c30 093d dd1d f3bd
000000a0: 8f4c da3d 85ba 873d 1919 a13d d78b 033e
000000b0: a2e5 803d 989c 0ebd 8935 373d c9b4 003e
000000c0: 320a 0abc c7de 39bc 3a17 c23d 5c88 263d
000000d0: 1d35 e13d d8a6 e0bb 2887 87bd 7e04 bcbd
000000e0: 5ce9 ba3d b621 023e 9163 173e 3d62 81bc
000000f0: 375e cd3d 67b2 273d 7174 7b3d 8cb6 013e
00000100: fae1 a83d f12a b9bd f2da 46bc 33b0 c7bd
00000110: 097d 203d 9c0e b43d 6cb9 34bd 9e74 103e
00000120: b650 f93d 4b43 64bd fbab a6bd a201 dabd
00000130: f8ac d5bd 4556 e73d a9df f7bc 1024 e7bd
00000140: 22a7 0ebc 83a6 d83c efff e13d 6a40 e4bd
00000150: 1016 93bd 404f 08bc 7048 09be e86a ba3d
00000160: 9d9b 50bd fd78 75bb ffbf 6d3d 8774 58bc
00000170: c855 093e ec78 b33d bb88 11be ecd5 53bd
00000180: d09c f3bc ff66 9d3d 1549 9dbc 9418 b13d
00000190: f095 d1bd e89a f33d 9150 343d 2480 dd39
000001a0: 00a2 c73d b73f 0ebd abaa 8d3d d367 8e3c
000001b0: d6b8 023e dbbf a8bd 4cbc b33d c417 90bd
000001c0: 70b1 4b3c c23f 45bc bb9d 233e 9601 27be
000001d0: 45ff 1e3e 3cd1 41bb d314 4a3d 2875 69bc
000001e0: 0cfa 7a3d 50bb d4bd a4a0 b73d a9bd 233e
000001f0: dfd9 1f3b 119d e9bd 90d3 03bd 04d2 eabc
00000200: da79 ac3d 180c 043e bad5 80bd 4ef1 643d
00000210: 1cb5 243d 687a 86bd 50ce bd3c b27f 01be
00000220: 6a0b b43d 4fe4 c2bd 660e 7a3c 3a3a 9dbc
00000230: 8abb afbd 7b05 723d 2558 a93d cbc5 6d3c
00000240: 4873 b33d 4de3 093e 7da3 09be d307 1b3e
00000250: 8eea b0bc 1415 fbbd 6742 093b 6b44 9e3b
00000260: aef3 073e 383c e8bd a9cc 9fbd efd8 78bd
00000270: 62fb b2bd 680f c5bc f3e3 2cbd efb8 653d
00000280: d1bb 40bd a801 0fbe 3bb2 9e3c d3b5 4cba
00000290: 38aa 1c3c 9f2c d4bc e691 853c 4eaf 01be
000002a0: c693 4abd 08ef aebc 30de 03bc dc4c 09be
000002b0: e1ac 97bd f428 d3bd 00e2 75ba 003c adbd
000002c0: 8fe9 a8bd 04e5 403d a678 0cbd 81b1 03be
000002d0: ae02 c5bd 6006 663c 6007 e1bc e060 ffbd
000002e0: 0ad4 87bd 9010 6f3c 7367 a0bd 76c5 d83d
000002f0: 9e81 ec3d 362d 27bd 8e75 91bd 20bf ffbb
00000300: 36e1 79bd cb86 c4bd 1c70 2a3d cc83 223d
00000310: 6d10 edbd 66db 15be ba5e a83d 209c b13b
00000320: 34fb a13d 02c0 0ebd 922d 9a3d 6630 e83d
00000330: ea0b d63d d80f 763d 523e 9f3d 6ad9 c0bd
00000340: 5dc3 0dbe 8094 17bd 53f4 97bc bee6 01bd
00000350: e984 ee3c f63b c63d 6b36 aabd 24e1 cc3d
00000360: e22c 343d bc16 06be c8ae bb3d db99 e2bc
00000370: bab5 b6bd 3d0b 423d 2a9c efbd e913 f43d
00000380: 74e7 ce3c 8420 e4bd e79c 11be e81d 87b9
00000390: b463 713d f6e9 f4bd 9adb 7cbd 6f8d 83bd
000003a0: 1abf 2ebd e20e 0b3e d0ad f53d 74fc 033e
000003b0: f933 bdbd c63e cf3c f98a d83d a214 d33b
000003c0: 1b15 b1ba 8458 fd3c 8678 f0bd 30e8 a33d
000003d0: 286d 25be 4653 053d b25d 073c ce99 aabd
000003e0: ceda 0bbe 558b 6e3d 66d5 5abd 8128 643d
000003f0: 2fcc b93d dc84 c8bd 0c12 96bd 3b01 d5bd
0.05724961 -0.0510884 0.14170364 0.016443478 -0.10649176 0.060207028 -0.011911544 -0.024925945
0.030596506 -0.011247816 -0.1498561 0.017297886 -0.06852001 0.06584082 -0.12036826 -0.072573446
-0.051848385 0.040661614 0.14886183 -0.16330788 -0.103517726 -0.14791599 0.06927456 0.10035688
-0.0956543 -0.06801696 -0.07353363 0.12734723 0.12981756 -0.013260118 -0.11504397 0.032305047
0.13589586 -0.17170185 -0.116385564 -0.011599055 0.092777595 0.015860664 0.033493087 -0.1187093
0.10659134 0.06627373 0.07866115 0.12846313 0.06293799 -0.03481731 0.04472879 0.12568964
-0.008425282 -0.011344618 0.09477086 0.040657386 0.10996459 -0.006855827 -0.06617576 -0.09180544
0.09126541 0.12708172 0.14784075 -0.015793914 0.10027736 0.040941622 0.061390344 0.12667292
0.082462266 -0.090413935 -0.012137162 -0.09750404 0.039181743 0.08791849 -0.044122145 0.14106986
0.121735975 -0.055728238 -0.081382714 -0.10644843 -0.10433382 0.112957515 -0.030258017 -0.11286175
-0.00870684 0.026446586 0.110351436 -0.111450985 -0.071819425 -0.008319676 -0.13406539 0.09102422
-0.050929654 -0.0037456148 0.05804443 -0.013211376 0.13411629 0.087632984 -0.14212315 -0.051717684
-0.02973786 0.076856606 -0.019199887 0.08647266 -0.102336764 0.118947804 0.044022147 0.00042247877
0.09747696 -0.034728732 0.06917318 0.017383492 0.12765822 -0.082397185 0.08776149 -0.07035783
0.012432441 -0.012039127 0.15978138 -0.16309199 0.15527065 -0.0029574176 0.049336266 -0.014249124
0.06127362 -0.103872895 0.08966187 0.15990318 0.0024391336 -0.11406911 -0.032184184 -0.028664596
0.08421679 0.12895238 -0.06290765 0.05589419 0.04021178 -0.06566316 0.023169667 -0.12646368
0.087912396 -0.09516203 0.015262222 -0.019192804 -0.08580692 0.059087258 0.08268765 0.01451249
0.087622225 0.13465615 -0.13441272 0.15139703 -0.02159622 -0.1225988 0.002094412 0.0048299334
0.1327655 -0.11339611 -0.07802708 -0.06075376 -0.08739354 -0.024055198 -0.042209577 0.05608457
-0.047054116 -0.13965476 0.019372096 -0.00078090763 0.009562068 -0.025900183 0.016304921 -0.1266453
-0.049457334 -0.021354213 -0.008048579 -0.13408226 -0.07406021 -0.103105456 -0.0009379685 -0.0845871
-0.08247673 0.047093406 -0.034294747 -0.12860681 -0.09619652 0.014039606 -0.027469337 -0.12469649
-0.0663224 0.014591351 -0.078322314 0.10584538 0.1154816 -0.0408146 -0.071025 -0.0078047663
-0.061005794 -0.09596022 0.041610822 0.039676473 -0.115753986 -0.14634475 0.08221193 0.005420223
0.07909241 -0.03485108 0.07528223 0.11337356 0.10451491 0.060073704 0.077755585 -0.094164684
-0.13844056 -0.037006855 -0.01854912 -0.031714194 0.02911611 0.096794054 -0.08311161 0.1000388
0.043988116 -0.1309461 0.09164196 -0.027661255 -0.0892138 0.047374 -0.11699708 0.1191786
0.02525685 -0.11139014 -0.1422001 -0.00025771488 0.058932975 -0.11958687 -0.061732866 -0.06423461
-0.042662717 0.13579896 0.11996043 0.12889272 -0.092384286 0.025298487 0.10573382 0.0064416686
-0.0013510318 0.030925997 -0.11741738 0.080032706 -0.16154921 0.03255012 0.008262085 -0.08330117
-0.13657686 0.058238346 -0.05342617 0.05570269 0.09072148 -0.09790966 -0.07327661 -0.10400625

input_layer.bias f4 [42]
00000000: bb2d 293d 2de3 10be 7470 25bd 8460 e4bd
00000010: 829f 73bd 4257 6bbd 4cff ebbc a1c5 f4bd
00000020: 873a cabc e528 863d 55e8 ed3d 83aa 87bd
00000030: a04c 22be 0745 033c 1bb0 153e f3af d13d
00000040: d8d8 1d3d 105b b63d 16db a93c 5bda 15be
00000050: e92e c8bd 7cd7 bc3d 1ac3 adbd f048 47bb
00000060: 06ba a03c d2d5 703d 80fa 293e cf0e 1c3e
00000070: f53e 5bbc 62b0 88bd 6a3d e5bd 4472 273c
00000080: 3ca9 183e df54 85bd 55b1 26bd 053d 09be
00000090: f02b fbbd 5fcc 37be b255 363e 9663 08be
000000a0: d4d0 26bd ebf0 ebbc
0.041303378 -0.1414916 -0.040390447 -0.111512214 -0.05947829 -0.057456262 -0.028808258 -0.11951757
-0.024686111 0.06550769 0.116165794 -0.066243194 -0.15849543 0.008012063 0.1461796 0.10238638
0.038536876 0.089040875 0.020734351 -0.14634077 -0.097745724 0.09220788 -0.08484478 -0.0030408464
0.019619953 0.058797665 0.16599464 0.15240024 -0.013381709 -0.06674267 -0.111933544 0.010220114
0.14908308 -0.065103285 -0.04069646 -0.13402183 -0.1226424 -0.17949055 0.17806128 -0.13319239
-0.040726498 -0.028801402

hidden_layers.0.weight f4 [42, 42]
00000000: ef5b d73d 4ff9 f63d 77b1 3bbd 95ba 30bd
00000010: be51 cc3d 5ff8 7a3d b80d 5a3d 3212 923d
00000020: d9f5 bbbd 9217 08bd 7b63 b0bc 6b1f 25bd
00000030: 0794 fb3d 8511 b93c b432 f3bd 8860 10bd
00000040: f11b fabd 1592 80bd f9ba cdbd cb75 9abd
00000050: 13df 143d 34b9 fa3d 4002 e8bb 5fc9 a13b
00000060: f0ef 89bd 6f66 b6bd 13de 4ebb b8cb cf3d
00000070: 9723 093e 5b9a 8d3d d160 083e 4fbf d33d
00000080: fe72 283d 5d6d 09be 51fe 00bd 57ba 183e
00000090: f8d0 8bbc 2ea4 073d d838 7c3d b679 f23d
000000a0: aef9 c4bd d99c 043e b2ba 8cbd 884d 383d
000000b0: ff91 7d3c a1d8 b93d e24c c0bd 0fe3 1b3e
000000c0: bd04 023e a886 e8bd ffc3 d5bc 1c18 4a3c
000000d0: 9cce 463d e3d2 643d a389 f13d cfd4 d43d
000000e0: 703b 2d3e 15d3 0f3d 2ee8 2a3e 4d86 813d
000000f0: db41 0f3e eb5d 14be b5aa 9fbd 0785 28bd
00000100: 809d b7ba 9dae fb3c f28f 45bd 46c2 f8ba
00000110: e3a8 133e 2513 82bd 8ea5 973c cbad 96bd
00000120: 3aec 35bd 3797 8fbd ad4d 8d3d 8f34 d6bd
00000130: ad1e 42bd 701d 9abc f009 4d3d 012c 36bd
00000140: b870 d8bc fa1e b93d 19eb 0c3e f34c 1e3c
00000150: 58de cd3d bfb6 32bd 55aa dc3d 4b37 abbd
00000160: e8ac 8fbd c500 0e3e 6410 093d 8095 c4ba
00000170: 8b71 5abd ac17 5c3d 81ef 1f3e 171d 02be
00000180: 5a00 093d da9c 47bd f5d2 18be 75d5 f0ba
00000190: 31a6 e03c 583c efbc 3cad f03d a6fb 523c
000001a0: 82f9 94bd 9338 84bd 68f3 ee3c 143b 96bd
000001b0: 51ef 76bd 1336 0cbe b846 1f3e 1fbe 5d3d
000001c0: d1a7 ea3c 1ac4 72bd b0e3 d93c b7df 423d
000001d0: 6179 dc3d 5dfc 4c3d a92a 083e b0e2 01be
000001e0: eaed bf3d fe72 00be 9f9d d83b 6e91 d53d
000001f0: a6f5 c13d 2897 3cbd 3800 b73d f8ec 1fbd
00000200: 0e5e 1dbe eb31 7abd 9b1c 003e 29a2 9c3d
00000210: 2cd2 9fbd 7847 473d 6b90 083e d6cd 103e
00000220: bdd1 50bd de9a 2e3e 0dd3 c13d c0dc 463d
00000230: 1be8 ce3d e966 2d3e 3fa6 e13c a6c4 c03d
00000240: b446 4239 8ca2 86bd 35c1 f53d 5cca d5bd
00000250: 2ec5 99bd 4de9 773d 5ab2 ec3b 61ce 2c3e
00000260: 76ba 0f3e a1e3 21bd 620b 21bd 6f8c 003e
00000270: f4f5 8c3d 3e56 2fbe 0f6a 013d aadc 44bc
00000280: 584a 303d b00a 85bd 908f e7bc 091f d03d
00000290: 6305 423d a6eb 9f3d d196 97bd 09ef 72bc
000002a0: 7c8f a6bc 03e9 d8bc b874 5abc 0220 bebd
000002b0: 7039 b4bc bb78 993d b296 ccbd 0eb4 823d
000002c0: aba6 cdbd 1d78 be3d 101a b53d 8853 5abd
000002d0: 2767 1f3e 33b8 6a3c 5bda a8bd 73c1 023e
000002e0: 2fae d63d 93c1 dd3b 1f47 0ebb 8b73 273d
000002f0: a9c4 c3bc a8b3 53bc d06b 2b3c e9fa cdbd
00000300: 787e 493d 25e5 a2bd f765 94bd be84 d13d
00000310: ef3f 173d cb9a b13d 5849 8ebd bab7 313d
00000320: 6dbb d33d aaff af3d f125 e6bc 9a2f f53d
00000330: 21c6 b9bd f5a2 423a 9af2 3e3e 524f bdbd
00000340: 0ad6 c6bb 9437 1d3e 2a52 003d a784 20bd
00000350: ae8d 95bd 0a2a 023d e795 1a3e c29e ff3d
00000360: 903b ca3d 20c9 c93c 2dcb d2bd 5e16 09be
00000370: 8adf 0b3e 6fa5 89bd 7289 2dbd 03fe fe3c
00000380: b710 1c3e a599 19bd 5c0d d33d bd18 70bd
00000390: d64f 363e b1c3 0cbe f381 bcbc 5673 773d
000003a0: 4815 163d 1f7f b2bd ec85 49bd 97a8 313e
000003b0: 50bf 813c d6c7 ef3c e1fd 14bd 7d59 e13c
000003c0: 30eb 99bc 8334 a53d 10b8 a13c eadd 703c
000003d0: 729f cd3d d9dd 0e3e c065 4bbb 19b7 063c
000003e0: 9995 f73d 401c 2dbc 9519 e23d 5336 b13b
000003f0: 4261 a1bd ec52 b73d e7f8 17be 321d c43d
0.10515582 0.120592706 -0.04582354 -0.04314669 0.099765286 0.06127202 0.05323574 0.07132377
-0.09177751 -0.033225603 -0.021531811 -0.040313166 0.12284093 0.022591362 -0.11874905 -0.03524831
-0.12212361 -0.06277863 -0.10045428 -0.075419985 0.036345553 0.12242356 -0.0070803463 0.0049373354
-0.067352176 -0.089062564 -0.0031565472 0.10146278 0.13392483 0.069142066 0.13318183 0.103392236
0.04112529 -0.13420625 -0.031492535 0.14914833 -0.017067418 0.03311556 0.061577648 0.11839621
-0.09617935 0.12950458 -0.06871547 0.044995815 0.015476703 0.09074522 -0.09389664 0.15223335
0.1269712 -0.11353809 -0.026094435 0.01233485 0.04853688 0.05586518 0.1179383 0.103921525
0.16917205 0.035113413 0.16690132 0.06324444 0.13989966 -0.14488952 -0.07796232 -0.04114249
-0.0014008731 0.03072291 -0.04823298 -0.0018978796 0.14419894 -0.06351308 0.01851156 -0.07357367
-0.044414736 -0.07011264 0.06899581 -0.104592435 -0.047392536 -0.018812865 0.050058305 -0.04447556
-0.026420936 0.090391114 0.13761558 0.009661901 0.10052174 -0.04363131 0.10774676 -0.08360156
-0.07015401 0.13867481 0.033462897 -0.0014998168 -0.05333094 0.053733513 0.15618707 -0.1270641
0.0334476 -0.04873357 -0.14924224 -0.0018374162 0.027422996 -0.029203579 0.11751792 0.0128773805
-0.07274152 -0.06456103 0.0291688 -0.07335487 -0.060286824 -0.13692503 0.15554321 0.05413639
0.028644474 -0.05926905 0.026597828 0.047576632 0.10765339 0.05004536 0.13297524 -0.1268413
0.093715504 -0.12543866 0.006610587 0.10428129 0.09470682 -0.04604259 0.089355886 -0.03904435
-0.1536791 -0.06108276 0.12510912 0.07648117 -0.07803759 0.048652142 0.13336341 0.1414102
-0.050981272 0.17051265 0.09464083 0.048550367 0.10102864 0.16933788 0.027545093 0.09412508
0.0001852762 -0.06573972 0.11999742 -0.104389876 -0.07508312 0.060525227 0.0072234096 0.16875602
0.14035973 -0.039523724 -0.039317496 0.12553571 0.06882849 -0.17122743 0.031595286 -0.012015501
0.04303965 -0.06496179 -0.028266698 0.101621695 0.04736842 0.07808618 -0.07401813 -0.014827498
-0.02033209 -0.026478296 -0.013333492 -0.09283449 -0.022000045 0.07493731 -0.0998968 0.06381999
-0.10041555 0.093002535 0.08842862 -0.053302318 0.15566693 0.014326143 -0.08244773 0.12769108
0.10482442 0.0067674606 -0.0021709872 0.040881675 -0.023897486 -0.012921251 0.010462716 -0.10057623
0.049192876 -0.07953862 -0.07246011 0.10230397 0.036926206 0.086721025 -0.06947583 0.043388106
0.10338483 0.08593686 -0.028094264 0.1197197 -0.09070993 0.0007424795 0.18647233 -0.09243645
-0.006067996 0.15353233 0.031328358 -0.039189007 -0.07302414 0.031778373 0.15096246 0.124814525
0.09874642 0.024632037 -0.10292659 -0.13387439 0.13659492 -0.06721007 -0.042367406 0.031126982
0.15240751 -0.037500042 0.103052825 -0.058617342 0.17803892 -0.13746525 -0.023011183 0.060412727
0.03664139 -0.08715653 -0.049199983 0.17349468 0.015838295 0.029270094 -0.03637493 0.027508492
-0.018788904 0.080666564 0.019741088 0.014701346 0.100401774 0.13951816 -0.003103599 0.008222365
0.1208908 -0.010565817 0.11040036 0.0054080873 -0.078798786 0.08951363 -0.14841042 0.09575881

hidden_layers.0.bias f4 [42]
00000000: 7c0b 0c3e 6e45 0b3e a74f 10be 552d 243e
00000010: 7ae6 3a3d 6c4f f33d 03be 353e 8ced c43d
00000020: edc9 0cbe b320 5ebd 10b5 fabd 7c5b 93bd
00000030: d5ce 3b3e b020 903c 3c09 013e 4e89 4e3d
00000040: 6e25 12bd fe74 8d3d fa46 cb3d e6be 19be
00000050: ad38 b5bc 3eff 45bd c0f7 e73c ac5a f1bd
00000060: e287 d23d 2b5f 09be 3607 f53d 924a 343e
00000070: 9ed4 813d 246a f63d bee5 e1bd 66c0 0a3e
00000080: 9a15 8bbd 0f9c 8bbd fe45 b6bc 80c7 6b3c
00000090: b991 0abe dc81 e2bd 37ee ab3d 324c 58bd
000000a0: 353e 893d 8ada d33d
0.13676256 0.13600704 -0.14092885 0.16032918 0.045629956 0.11880383 0.17748265 0.09615621
-0.13748904 -0.054230403 -0.12241566 -0.07195184 0.18340619 0.017593712 0.12601179 0.050423913
-0.035680227 0.0690708 0.09925647 -0.15014228 -0.022121752 -0.04833912 0.028316379 -0.117848724
0.10279824 -0.1341521 0.11964266 0.17606571 0.06339382 0.120319635 -0.11030148 0.13549957
-0.067912295 -0.06816875 -0.022250172 0.014390826 -0.13532151 -0.11059925 0.08395045 -0.05280704
0.06701318 0.103444174

hidden_layers.1.weight f4 [42, 42]
00000000: 3389 8abc 8497 8b3d 1f37 bdbd 56d7 f13d
00000010: 0524 49bd 9dce adbd b2e2 cc3d c935 1cbe
00000020: cae3 ca3d 4e84 e7bd 1ead bdbd d498 363d
00000030: c630 d23d c379 52bd 574e 07bd e0d2 e8bd
00000040: 3887 0f3d c372 6b3d f827 fe3d 108e 583c
00000050: 2a41 45bd 56c0 38bd c0fd 94bc ca2d 68bd
00000060: 9133 76bc e8a1 11bd 399e e8bc 0000 59bd
00000070: 8b2b bc3d 2aad d73d eec9 1bbe 8ad9 67bd
00000080: decb 6abd bc49 2e3d 8108 223d aa46 a4bc
00000090: 80c8 d23a 475b 0d3e 341c eebd 80a0 203b
000000a0: c5a5 913b bce5 bfbd 22b2 06be 36d2 563d
000000b0: 62b2 d43d 7094 8ebd 2bd5 08bd c8a7 21be
000000c0: 6ae8 163d 215c bfbd b0fd 623c 81b3 41bd
000000d0: dd9b 063e bd8f 033e 1a9e 113c 68eb a7bd
000000e0: 33ca 6a3d c433 b03d 70bb f63c 72df 263d
000000f0: fbfd b53d 900d 7f3d e7ef 96bc e0fb 7f3c
00000100: d0e6 fe3d 6c21 0d3d e324 dabc 4a78 a13d
00000110: 56ec 9a3b fb67 d93d 54be 9abd 2e16 9c3b
00000120: 207b edbc 392c e73d 72f4 92bb 4423 e4b9
00000130: 15ca 2ebe 2b6d ad3d 8280 9dbd 24c5 66bd
00000140: a34d a8bb e7c7 6bbc 4fce d4bd f302 663d
00000150: 0ebf c0b9 da8e f73d 8cf6 a43c 2a60 b03d
00000160: bd96 92bd 7f57 c4bc c793 c9bd cb0c dc3d
00000170: 7fda 043d 9540 c63d 089d ad3c 0ea9 d83d
00000180: 73f0 a8bd f106 803d ec49 be3d 919f e1bd
00000190: c0bc a1bd 2f5c c5bd c9e2 223e 6e72 01bd
000001a0: ddae 52bd 94ef 243d 8c82 153d 18d9 f1bd
000001b0: 6c9a 363e 860b c3bd d6b2 253e 11ff 37bd
000001c0: aed7 bd3c bd7b fd3d d584 9f3d ed11 313e
000001d0: 8e50 303d e62e f03d e8e7 88bd 5dad b73d
000001e0: 4c97 c3bd 0050 f23a d8cc 05bc 36db 203e
000001f0: e18d b93d 303e febc 0fb7 133e 82ac 0dbe
00000200: 8264 ee3d 00fc deba a174 003e 8000 bc3b
00000210: 3e47 bfbd 0046 113b 2857 fdbd d4f2 2c3d
00000220: 1078 ed3c 3eab edbd 8001 0c3c 559f 82bd
00000230: 2ac1 f13d a03a 70bc 51a9 0b3e 18ee 943c
00000240: b871 a43d 336f 193e 5acc c73d ec95 483d
00000250: a0ea 2e3c 54c7 163d 8e74 de3d 2f7e 093e
00000260: 0a86 f9bd b8c4 9fbd 2854 ef3c 24ae 2c3d
00000270: 163c 66bd 1fea 1a3e aa00 0cbe 56dd cdbd
00000280: 6043 e73b d8a3 cfbc 9fbf 81bd 2a45 ebbd
00000290: 80af 353d 6ad9 dd3d 28cb 1abe 3018 08be
000002a0: 8247 e33c caaa 013e ffa9 a73d 62a2 0f3e
000002b0: d00b 103e 09b3 bd3d bd5a 65bd 8da7 f0bb
000002c0: 7e2e c9bd d6d7 59bd ce09 f4bd 740f 943d
000002d0: a24a fe3d 699a 1e3e 8ce0 d8bd ddca 5bbd
000002e0: 6033 8dbb e74f f2bd 864a 74bd 1f0f f9bd
000002f0: 58aa fb3b bae4 c53d c381 0fbe 17d3 c9bd
00000300: 8eb5 1f3e e7fa 9abd e3a6 3dbd 6e7e c83d
00000310: fff5 933c 4937 0fbd 8918 d4bd c689 a13d
00000320: 170b e1bc 9440 e7bc 16c9 493d 1039 993d
00000330: fc78 98bc c5e1 9abd 9bec 103e 753c 09bd
00000340: bd8b 263e cc54 f33c 4346 f2bd fbcf 4bbd
00000350: 66d9 f3bd d85b 93bd 573b 67bd 59b4 edbd
00000360: 53d2 133d 1152 d0bc 783e afbc b06e f13c
00000370: b4a3 fcbd 75c9 093e 8098 873d bde5 ed3a
00000380: 96af ca3d 3d4a a13d a077 2b3c 80c5 873d
00000390: 9989 d0bc 2cf7 cfbd 26c4 f03d 804a 9bba
000003a0: 14c0 863d 3436 35bd 13d7 bfbd c039 68bd
000003b0: 1e31 963d a11c 30be 9504 9d3c 4747 5bbd
000003c0: b6b7 f3bd dc31 0ebd d120 98bd a430 f3bd
000003d0: 2df2 f63d 659c 073e fc5a 9dbd fdad 8bbd
000003e0: dde9 aebd 40c1 eebd 3ae8 13be 6ce1 013e
000003f0: a9e4 903d 85fc 653d fc25 21be 4e08 9ebc
-0.016911125 0.06816009 -0.09239029 0.1180865 -0.049106617 -0.08486674 0.10004176 -0.15254892
0.099067286 -0.11304532 -0.09261535 0.044579342 0.10263209 -0.051385652 -0.033033695 -0.11368346
0.035041064 0.057482492 0.12409967 0.013217464 -0.04815785 -0.0451053 -0.018187404 -0.056684293
-0.015026943 -0.035554796 -0.028395759 -0.052978516 0.09187993 0.10531075 -0.15213749 -0.056603946
-0.05732333 0.042550787 0.03955889 -0.020053227 0.0016081482 0.13804351 -0.11626473 0.0024509728
0.00444481 -0.0936999 -0.1315389 0.052446567 0.10385586 -0.06961906 -0.033406418 -0.1578666
0.03684274 -0.09343744 0.013854429 -0.04729033 0.13145395 0.128478 0.008887792 -0.08199197
0.05732174 0.086036235 0.030118674 0.040740438 0.088863336 0.062268794 -0.018424941 0.0156240165
0.12446368 0.0344557 -0.026628917 0.078842714 0.0047278805 0.10615536 -0.075558335 0.004763386
-0.028989375 0.11287732 -0.0044847066 -0.00043513824 -0.17069276 0.08468088 -0.076905265 -0.05634035
-0.005136208 -0.014390922 -0.10390913 0.056155156 -0.0003676344 0.12087794 0.020137094 0.08612092
-0.07157657 -0.023967503 -0.098426394 0.107446276 0.032434937 0.09680287 0.021193042 0.105791196
-0.08248987 0.06251324 0.09291443 -0.11016763 -0.07897329 -0.09636723 0.15906824 -0.03160327
-0.051436294 0.040267542 0.036501452 -0.118089855 0.17832345 -0.09523682 0.16181502 -0.044920985
0.023174133 0.12377117 0.077890076 0.17291994 0.043045573 0.11727695 -0.066848576 0.08968613
-0.09550342 0.0018486977 -0.008166514 0.15708622 0.090602644 -0.031035513 0.144253 -0.13835338
0.11640264 -0.0017012358 0.1254449 0.0057373643 -0.0933976 0.0022166967 -0.12370139 0.042223766
0.028987914 -0.116049275 0.0085452795 -0.063780464 0.11804421 -0.014662415 0.13638808 0.018179938
0.08029503 0.14983825 0.09755774 0.0489711 0.010676056 0.036811188 0.10862075 0.13427041
-0.12183769 -0.07801193 0.029214934 0.04215826 -0.056209646 0.15128373 -0.13672128 -0.10051982
0.0070575923 -0.025346681 -0.06335377 -0.114878014 0.044356823 0.10832484 -0.1511656 -0.13290477
0.027744059 0.12662807 0.08186721 0.14026788 0.14067006 0.09262664 -0.055994738 -0.0073441924
-0.09823321 -0.053184353 -0.119159326 0.0722951 0.12416579 0.1548859 -0.10589704 -0.053660262
-0.004309103 -0.118316464 -0.059641384 -0.12161087 0.0076802187 0.09662767 -0.14014344 -0.09854715
0.15596601 -0.07567387 -0.046301734 0.097897395 0.018061636 -0.034964833 -0.10356242 0.07887606
-0.027471108 -0.028229035 0.049264036 0.07481587 -0.018612377 -0.07562593 0.14152758 -0.033504922
0.16264243 0.02970352 -0.118298076 -0.049758893 -0.119067 -0.07195252 -0.056453075 -0.11606664
0.036089253 -0.025429757 -0.021392092 0.029471725 -0.123359114 0.13455756 0.06620884 0.0018150132
0.098967716 0.07875488 0.010465533 0.06629467 -0.025456237 -0.10154566 0.11756162 -0.0011847764
0.06579605 -0.044241145 -0.09367194 -0.0566957 0.07333587 -0.17198421 0.019167224 -0.053534772
-0.119002745 -0.03471552 -0.07428134 -0.11874512 0.1205791 0.13243254 -0.076833695 -0.06820295
-0.085407 -0.11657953 -0.14444056 0.12683648 0.070748635 0.056149025 -0.15737146 -0.01929107

hidden_layers.1.bias f4 [42]
00000000: ba7e 1cbd 38b0 eaba 0843 3e3e 4d86 98bd
00000010: c47d aa3d be63 3a3d 5b5e 37bd a853 35bd
00000020: c817 e53d 1ac8 ea3d fac2 7cbd 96cd 693b
00000030: a42e 053e 9505 66bd b0c3 19be 9ad6 d2bd
00000040: 842d bdbd 7612 88bd 6df9 923d e3b4 07be
00000050: 1371 0a3e f92b 89bc ac29 bcbd 55d9 06bd
00000060: 5f29 c33d 94ec 8ebb 0439 71bd 3c41 49bd
00000070: beac 09bb 6644 1cbe e2c8 05be 8e22 d2bd
00000080: eebb 0bbe a46f a03d 67db 8b3d 663d 8f3d
00000090: d32a 273d c1f0 043d d358 a4bd 4205 dcbd
000000a0: 7be8 b43d db45 fdbd
-0.038206793 -0.00179053 0.18580258 -0.07447491 0.08324769 0.045505278 -0.04476772 -0.044269234
0.111861765 0.114639476 -0.06170938 0.0035675517 0.13006073 -0.056157667 -0.15016055 -0.10294838
-0.09237197 -0.06644146 0.071764804 -0.13252597 0.13519697 -0.0167446 -0.09187636 -0.032922108
0.09529375 -0.0043616984 -0.058892265 -0.049134478 -0.0021007503 -0.15260467 -0.13064912 -0.10260497
-0.13645908 0.07833794 0.06828957 0.06994133 0.040812325 0.032456163 -0.080247544 -0.1074319
0.08833405 -0.123668395

hidden_layers.2.weight f4 [42, 42]
00000000: 8211 ee3d 3854 3e3d 2982 143e c201 e93d
00000010: 0edc 1a3e 289c 273d 4edc 1b3e 701d 9dbd
00000020: da89 2b3e 5286 503d 042c babd f55f 0dbe
00000030: ff78 063d 45e1 18bd 1850 c2bc c867 603d
00000040: d08b 24bc f6f5 123d aa75 d03d 797d cb3d
00000050: cc06 273e 2c1b 58bc 6d5e acbc e611 033e
00000060: 4d00 d8bd 22b4 c73d f0c9 83bd 5853 8f3d
00000070: 7239 a63c 84c3 cfbd cea9 d23d 42cf dc3d
00000080: d20b 153d 1b9a 95bd 4742 213d 450f 11be
00000090: 8746 e0ba cb1e 01be 302b 28bd 6835 853d
000000a0: 80fe 0e3e 8056 d63c 209f fbbc 9023 a83c
000000b0: 706c dfbc 229f ed3d 0c95 7d3d c84a babd
000000c0: 9b50 0f3e 242f ddbd d8cc 9b3c d007 253d
000000d0: 2855 813c 80c9 f33c c041 213c 8dac b2bd
000000e0: 504b 003d 28d0 013d c0ce 02bc dc1a ba3d
000000f0: 4efd e93d 6002 f03b ccc1 cabd e41a 17be
00000100: 3eed 823d 64a6 26bd 08c3 bc3c ca76 e53d
00000110: 2ac6 d83d 5c1a f7bd 96bb 4cbd 9b9b debd
00000120: 3fe0 a6bd 5865 57bd ba85 e63d ed6c 9abd
00000130: 34bc b0bd f43a 743d c584 00be e8d9 9c3d
00000140: 448e a53d 9f8d 023e 0876 89bc 95c2 073e
00000150: e38d 073e ac67 9d3d 3ea8 cb3b 9ad3 db3d
00000160: 2cfe 23be 80cb 833c 003a b839 0620 62bd
00000170: b672 eabd 8e94 2d3d 79b8 0a3e 1439 80bd
00000180: c150 15bd f09d 843d 9f4f 15be 0eeb f0bd
00000190: b8e5 9d3d 89f5 f83d a221 8dbc 0dc6 d7bd
000001a0: 5bf6 70bd 9b1c 93bd 6d4f e03d 8cb9 5cbd
000001b0: 8c3e 743d f055 3abc 0859 de3c 4b2a 163e
000001c0: 2bd1 ecbc a8c3 e0bd 30c7 713d 0229 1ebd
000001d0: 2f17 173e b4aa 073e 988c 023e 13d4 0d3e
000001e0: e6b2 f63d 1f14 83bd 1a45 59bd 52ab 9bbd
000001f0: 1766 2cbd 2d1a 0d3e da6e 023d a9d2 ebbd
00000200: 7584 563d 4acd b13d 125d 2f3e bc97 80bd
00000210: 7f2e 213e 4ef3 db3d 0c9a 313e 1de7 313e
00000220: ec90 1dbe 2fcb 333d 3ce1 62bd fc13 e8bc
00000230: 9480 25bd 528a 25bd b6a5 6ebd 9bc0 bdbd
00000240: 2549 c3bb 6b1c 153d 886c 2dbc 2347 f0bc
00000250: e65a 0d3e 0bba d83d d0be cabd b344 01be
00000260: 56e6 9e3d 501b 39bd f666 e4bc 3ed8 01be
00000270: 60da e1bd a009 a73b 276a 783d fc9c 113e
00000280: 32a5 173e ea03 49bd ba98 433d 4f2c d8bc
00000290: 2cae 3d3d 9041 6bbd 5f66 df3d 3680 09be
000002a0: 683d b23c 6aef 14bd 20b9 ea3d 9a53 ca3d
000002b0: e317 d03d 8fea e0bd cb96 973d 6fd6 06be
000002c0: a0c1 50bd 0071 eebd 702a c2bc f658 d2bd
000002d0: 7042 15bd 89d0 02be 2530 093e d8de 1dbd
000002e0: 5277 f63d 1709 b6bd cfc6 adbd 8019 553d
000002f0: bb55 88bd bfd6 6bbd 5f69 043d f29d 793d
00000300: 374e f43d e159 08be ae5b 5dbd 1832 803d
00000310: a981 afbd b8b6 d33c 4a5c 06be 008e 343b
00000320: 4a99 d73d 7514 b23d 81c8 10be c0a4 0abe
00000330: 00f3 e0bd 981e e3bc 16a1 dbbd fec4 bf3d
00000340: b779 f03c 4080 c23b 0268 95bd cdb8 ac3d
00000350: 8c43 e3bd f873 e1bc fcdf e9bd 40fc bd3c
00000360: 15a7 d83d 2e54 f0bd 67ee de3d ea0e 673d
00000370: 1831 e1bc a0c1 f5bd d7b8 333e 5c01 9a3d
00000380: 80cc 0dbc b8be 34bd 47e2 07be 13b4 f8bd
00000390: 7e3b b0bd 22ae f0bd c685 623d 16c9 d8bc
000003a0: f54d eabd a172 74bd 4cfe c83a d186 593b
000003b0: b74c abbd e83f b9bc 6a6c 233e 255a 073e
000003c0: 40b0 68bc 7099 1b3c e8f3 8e3d 1dfe 60bd
000003d0: d8b6 803d d7fd a93d 5420 99bd da0b b23d
000003e0: 7da6 053e 40f5 b3bb 8a79 de3b 5c56 623d
000003f0: 161e 30bd 8874 febd 20ef 7f3d c8d1 2cbd
0.11624433 0.046467036 0.14502777 0.113772884 0.15123007 0.040920407 0.15220758 -0.076716304
0.16751805 0.050909348 -0.090904266 -0.13806136 0.032830235 -0.03732421 -0.023719832 0.054786474
-0.0100430995 0.035879098 0.10178693 0.099360414 0.16311187 -0.013190072 -0.02104112 0.12799796
-0.10546932 0.097511545 -0.06435001 0.069983184 0.020291064 -0.101447135 0.10286294 0.10781719
0.036388226 -0.07304784 0.039369848 -0.14165981 -0.0017110863 -0.12609403 -0.04105681 0.06504327
0.13964272 0.026164293 -0.030715525 0.02052477 -0.027273387 0.11602618 0.06190972 -0.09096295
0.13995592 -0.10800007 0.019018576 0.040290654 0.015787676 0.029759169 0.009842336 -0.08724318
0.031321824 0.031692654 -0.007983863 0.09087154 0.11425267 0.007324502 -0.09900245 -0.14756352
0.063929066 -0.040686026 0.023042217 0.11204298 0.10584672 -0.120655745 -0.049983583 -0.10869523
-0.0814824 -0.052586883 0.11255975 -0.07540307 -0.08629647 0.059626535 -0.12550648 0.0765875
0.08083776 0.12749337 -0.016779914 0.13257821 0.13237719 0.076857895 0.0062151244 0.10733719
-0.16014928 0.016088247 0.00035138428 -0.05520632 -0.114476606 0.042378 0.13546933 -0.06260887
-0.036453966 0.06475437 -0.14581154 -0.11763583 0.07709831 0.12156207 -0.017227951 -0.10535822
-0.058828693 -0.071831904 0.10952649 -0.05388789 0.05962996 -0.011373028 0.027142063 0.14664571
-0.028908333 -0.109748185 0.05902785 -0.038613327 0.14754938 0.13248712 0.12748945 0.13850431
0.12045841 -0.06400322 -0.053044416 -0.07601036 -0.042089548 0.13779517 0.031843998 -0.115147896
0.052372415 0.08681734 0.17125347 -0.06278941 0.15740393 0.10739766 0.1734392 0.17373319
-0.15387315 0.043894943 -0.05539058 -0.028329842 -0.040405825 -0.040415116 -0.058263503 -0.09265252
-0.0059596472 0.036404055 -0.010584958 -0.029330796 0.13804206 0.1058236 -0.09899676 -0.12623863
0.07758777 -0.045192063 -0.027881127 -0.12680146 -0.1102798 0.005097583 0.06064811 0.14220041
0.14809111 -0.049076 0.047753073 -0.026388315 0.04630868 -0.057435572 0.109081976 -0.13427815
0.021757796 -0.036361136 0.11461091 0.09879227 0.10160806 -0.109822385 0.07401808 -0.13167737
-0.050965905 -0.11642647 -0.023701876 -0.10270874 -0.036440313 -0.12774862 0.13397272 -0.0385426
0.12034477 -0.088884525 -0.08485185 0.05202627 -0.06656977 -0.057577845 0.032327052 0.060941644
0.11928981 -0.13315536 -0.05404251 0.062595546 -0.085696526 0.025843963 -0.13121143 0.002755046
0.105272844 0.08695308 -0.14138986 -0.1353941 -0.109838486 -0.02772455 -0.10724084 0.09363745
0.029354913 0.0059356987 -0.072952285 0.084336855 -0.11096868 -0.027521119 -0.11419675 0.023191571
0.10578743 -0.11734806 0.108853154 0.056410708 -0.02748923 -0.11999822 0.1755098 0.075197905
-0.008654714 -0.044127196 -0.13269912 -0.121437214 -0.08605097 -0.11751963 0.055303358 -0.026463073
-0.114406504 -0.05967963 0.0015334575 0.003319193 -0.083642416 -0.02261348 0.15959325 0.13217981
-0.0142021775 0.009497032 0.06980115 -0.05492984 0.06284875 0.08300369 -0.07476869 0.08693667
0.13051791 -0.0054918826 0.006789391 0.05525814 -0.042997442 -0.1242457 0.062483907 -0.04219225

hidden_layers.2.bias f4 [42]
00000000: b039 ddbd 92c1 7abd b70b abbd 6fe7 463e
00000010: c9b9 56bd aa4c 273e 68c3 ef3d 588e 0b3d
00000020: 4d09 d6bd 60c1 ff3c 855a b1bd 6244 273e
00000030: 2d27 1bbe d1d2 003e ad18 453e 1a7a e6bd
00000040: e678 9b3d c06b d7bd bebe 39bd 2bca 35bd
00000050: 7107 953c 1016 063e 6cb9 023e ba82 b3bd
00000060: 5477 e4bd a0f5 3b3e 7abf 19be b6c8 593d
00000070: 9723 03be e2b9 2cbd 3219 13be 44c8 fbbd
00000080: e0d8 ffbd f5ee 73bd fec7 e33d 12d3 d13d
00000090: 9568 d2bd 58df adbc 00d0 7a3c b622 1dbe
000000a0: 7ea8 393e 5865 eabc
-0.10802019 -0.06121976 -0.08351844 0.19424222 -0.052423272 0.16337839 0.11707193 0.034071296
-0.10450993 0.031220138 -0.08659843 0.1633468 -0.15151663 0.1258042 0.19247694 -0.11253758
0.07591419 -0.105185986 -0.04534792 -0.044382256 0.018192025 0.13094354 0.12766045 -0.087651685
-0.111555725 0.18355417 -0.15014449 0.05316993 -0.12806545 -0.04216946 -0.1436508 -0.12294057
-0.124925375 -0.05955406 0.1112213 0.102453366 -0.10273854 -0.021224663 0.01530838 -0.15345272
0.18130681 -0.028612778

hidden_layers.3.weight f4 [42, 42]
00000000: 9dc6 40bc ed65 bbbd a078 043b 991c 3e3d
00000010: 8281 09be c83a 3e3d 195c 203e 3649 dc3d
00000020: 6756 9fbd 1abf cbbd 10c8 f4bc 02b6 ac3d
00000030: 08c8 973d f152 e43d 6a65 4a3d 19a4 f4bd
00000040: fb34 023e 58f2 2c3d 80a3 f1bb 3a24 09be
00000050: 0851 82bc ad54 f0ba 6f1e d13c 578a 99bc
00000060: fcc3 15bd 60f1 153e 8e45 923d 6ffd c1bd
00000070: 4c0b 243d 5228 e93d 6a37 05be 0a7c fa3d
00000080: 5fe8 a7bd 059e ba3d d6c4 8a3d d50e b03d
00000090: b481 843d 58d8 ae3c 4755 e2bd 4a37 0cbe
000000a0: 5d5a 233a 7127 093e 9c96 d0bd 9053 6b3c
000000b0: 7b2a b0bd 09a8 293e 2d8c 78bd 4044 d53d
000000c0: 50ad e23d af6f 0d3e 6af1 883d 2124 b1bd
000000d0: 2e38 e33d 075c 03bd 263e 25bd 1192 413e
000000e0: 5891 e13d 2655 8dbd 45cd 133e 30a3 f0bc
000000f0: 1230 54bd 77c3 cdbc e863 593d a0f2 833d
00000100: bcc4 393d 08f3 ca3c 00a9 d5bb 92af 393d
00000110: ebc9 023e e351 583c e81d a7bd 0289 c0bd
00000120: 00fe 99bd 4c27 60bd 9c82 79bd 2b18 bebd
00000130: de1f 063e 8111 1c3d 60e9 c5bd 000d 623a
00000140: 20af 893c a0a1 0cbe 9f6c d7bc f2ec 7bbd
00000150: ccaa 03bd 0a62 f1bd 0af0 b0bd da2e 163d
00000160: dc57 e0bd b05f 98bd 998b dcbb 512d 0ebd
00000170: 56a5 bcbd b97e 1d3d f00a 00be 6cf1 e33d
00000180: ed09 8cbd 31ec 03bd f97d c53d f64f 09bd
00000190: 1903 acbd 20b7 613c c2b5 f1bd 5c64 95bc
000001a0: dd70 283e 78dd e73c 240e ed3d 0882 deb9
000001b0: 2a89 e2bd 2560 af3d 1eba 0ebe 8737 e9bd
000001c0: e268 e73d e81a 09bd 3018 db3c 6006 77bd
000001d0: 0bb2 04be 4090 2f3d c423 d8bd 9155 3ebc
000001e0: f110 abbd 0147 17be e307 183e 171d 053e
000001f0: febf 9fbd df7e 043d a1a9 f13d bc9d c33d
00000200: 3581 fd3d 1a7a 2c3e ab8e e4bd 2c79 30bd
00000210: 5bfb 373e 8800 d73c 7db0 08be 2c22 abbd
00000220: 3387 143e 53fd f23d 5f7f 0bbe 0c1c 4dbd
00000230: 02e1 d33d e892 0dbe b4ea d53d 5e05 d23d
00000240: 5814 f0bc 41d6 32bd a2ce afbd b321 72bc
00000250: ee29 1f3d 4d70 9bbb 389f b0bc 80a4 bebd
00000260: 7292 33bd 7c1b f23d f7f5 12be cd41 183e
00000270: 800c 8bbd 90f8 373d 13c9 113e 147f 88bd
00000280: c5ec 293e e8c8 323e ba53 56bd 010c 99bd
00000290: 5e44 e13d c098 72bb c66b 7abd e4b8 ac3b
000002a0: 36d8 893d 247b 9d3d 4d88 da3d a240 2b3e
000002b0: b887 f5bd a63c 01bd c0e2 6bbc 3864 eb3d
000002c0: afd2 96bc 3298 b53d 1285 32bd c5ba 1cbc
000002d0: 9889 183d de22 fb3d d103 9e3d d89d 2e3d
000002e0: dbc9 303d 6663 0fbe 3692 913d 5842 df3d
000002f0: c6c9 1f3e d5c2 de3b 8db6 0e3e bd2a 053e
00000300: 0514 bbbd e8b8 a43d 2870 533d 4cdb 1e3e
00000310: 7ac1 bd3d 7ec7 bb3d 7299 cdbd bc8b b8bd
00000320: b8e5 473d 285a f93d 6c00 6d3d 49d2 bd3d
00000330: 82b9 71bd 1492 1dbe df4c 99bd 308e d6bd
00000340: fbcc d03d af25 14be 9daa 2bbd d7f9 053e
00000350: 2720 d13c 5fbe fb3d 80ac 7f3c 3478 3fbe
00000360: 6871 bebd e80b c8bd 6567 dc3d 4e88 913d
00000370: b12b 043e 603d 88bd a00d f1bb 604f fd3d
00000380: aa39 823d 9872 b93c 0978 3c3d 0043 393c
00000390: 803a b93a 028a 1abe 0e5b 03be 74fb 0cbb
000003a0: fe20 a03c ce95 77bb c0c9 5abc f484 e93d
000003b0: 7dcd 0d3e b81d ba3c cc2c 6a3d 1c56 383d
000003c0: 69c1 86bd e00c a1bd 6293 c83d 0f04 673d
000003d0: 4cdc 1bbe 8553 15bd c685 bf3d 59b6 023e
000003e0: 6066 f03b f1a8 063e 9c57 7dbd 2362 93bd
000003f0: a8dd 92bc b243 58bd d41a 923d 735d 113e
-0.011766103 -0.091503 0.00202135 0.04641399 -0.1342831 0.046442777 0.15660132 0.107561514
-0.07780152 -0.09948559 -0.029880553 0.08433153 0.074112 0.11148632 0.049413122 -0.11945362
0.12715523 0.042223305 -0.007374227 -0.13392726 -0.01590778 -0.0018335782 0.025527207 -0.018742723
-0.03656386 0.14642859 0.07142173 -0.09472167 0.040049836 0.113846436 -0.1300942 0.1223069
-0.08198618 0.09112171 0.06775825 0.08596579 0.064700514 0.021343395 -0.110514216 -0.13692966
0.0006231422 0.13393952 -0.101849765 0.014363185 -0.086018525 0.16568007 -0.060680557 0.10413408
0.11068213 0.13812135 0.06686671 -0.08649469 0.110947 -0.032070186 -0.040342472 0.18903376
0.1101405 -0.069010064 0.14433773 -0.029374689 -0.051803656 -0.025117619 0.053073794 0.064427614
0.045353636 0.02477409 -0.0065203905 0.045333453 0.12772338 0.013203117 -0.08160001 -0.09401132
-0.0751915 -0.054724976 -0.060915574 -0.092819534 0.13098094 0.03810263 -0.096636534 0.0008623153
0.016807139 -0.1373353 -0.026296912 -0.061505266 -0.032145306 -0.117862776 -0.08639534 0.036665775
-0.10954258 -0.07440126 -0.0067305085 -0.034711186 -0.09211223 0.03845093 -0.12504172 0.11130032
-0.06837831 -0.03220767 0.09643168 -0.033523522 -0.08399028 0.013776571 -0.11802246 -0.018236332
0.16449304 0.028303847 0.11574963 -0.0004244002 -0.11061318 0.0856326 -0.13938186 -0.11387544
0.11299302 -0.033472925 0.026744932 -0.060308814 -0.12958543 0.042862177 -0.10553697 -0.01161708
-0.08352841 -0.1477318 0.14846759 0.12999378 -0.078002915 0.032347556 0.11799932 0.0955157
0.1237816 0.16843453 -0.11160024 -0.04308431 0.17966978 0.02624537 -0.13348575 -0.08356127
0.145047 0.11864724 -0.13622807 -0.050075576 0.10345651 -0.13825572 0.10445157 0.1025493
-0.029306576 -0.04366136 -0.08584334 -0.014778542 0.038858347 -0.004743612 -0.021560296 -0.0930872
-0.043840833 0.118216485 -0.1435164 0.14868851 -0.067894936 0.044914782 0.1423686 -0.06664863
0.16594227 0.17459452 -0.05232594 -0.07472993 0.10999368 -0.0037017316 -0.061137937 0.005271064
0.06730692 0.07689503 0.106705286 0.16723874 -0.11988777 -0.03155198 -0.014397323 0.114937246
-0.018411009 0.088669196 -0.043583937 -0.009566014 0.037240595 0.1226251 0.07715572 0.042631
0.043161254 -0.14002761 0.07107966 0.10901326 0.15604314 0.006798128 0.13936825 0.13004585
-0.09134678 0.080430806 0.051620632 0.15513343 0.09265418 0.091689095 -0.10039033 -0.09011027
0.04880306 0.12175399 0.05786173 0.09268624 -0.059014805 -0.15387756 -0.07485365 -0.10476339
0.10195347 -0.144675 -0.041910756 0.13083588 0.025528027 0.1229217 0.015605092 -0.18698198
-0.09298974 -0.09767896 0.107619084 0.07106076 0.12907292 -0.06652331 -0.0073563606 0.12368655
0.06358655 0.02263765 0.046012912 0.011307478 0.0014131814 -0.15091708 -0.12827703 -0.0021512182
0.019546982 -0.00377785 -0.013353765 0.11402312 0.13847919 0.02271925 0.057171628 0.045003995
-0.06579859 -0.07863784 0.09793736 0.056400355 -0.15220755 -0.036456604 0.09351687 0.12764873
0.007336423 0.13150384 -0.06185113 -0.071964525 -0.01792796 -0.052798934 0.07134023 0.14195804

hidden_layers.3.bias f4 [42]
00000000: 263f 903d 4983 893d 8c81 073e d02f 8cbc
00000010: bf70 e8bc 9760 f1bd e03e 513c 4f18 13be
00000020: 8aef 47bd 883a d13d be07 c03d 5447 ecbd
00000030: 59cc 1dbe 70ec 1cbc b8ea da3c 080b 9d3d
00000040: 6cd9 59bd 7722 20bd b52a e2bd 80ec 76bd
00000050: 50b5 263d 57d0 74bd 845e 55bc e6c3 4b3d
00000060: f815 64bd 6cad 953d 9a53 1bbd 1619 36bd
00000070: 6a81 5f3d f7b9 b83d b82b 83bd 3ad7 9f3d
00000080: 74a8 2abd 2b05 ff3d f0d7 8e3c e3da a03d
00000090: 8c76 a3bd 2cbd cfbd 0372 aebd 826b 0ebd
000000a0: 9680 82bd df6d b83d
0.070432946 0.06714494 0.13233012 -0.017112643 -0.028374074 -0.11786001 0.012771338 -0.14364742
-0.048812427 0.10216242 0.09376477 -0.11537042 -0.15409984 -0.0095778555 0.02672325 0.0766812
-0.053185865 -0.03909537 -0.11043302 -0.060284138 0.040700257 -0.059769 -0.013023023 0.04974737
-0.055685014 0.07308468 -0.037921526 -0.044457518 0.05456678 0.09019845 -0.06404823 0.07804723
-0.041664556 0.124521576 0.017436951 0.07854249 -0.079815954 -0.101435035 -0.0851784 -0.034770496
-0.06372182 0.09005331

output_layer1.weight f4 [40, 42]
00000000: 0afd 173d 2702 113a a562 893d e269 f6bd
00000010: 59c0 003d 0dec d9bd 0892 9d3d 0610 e8bd
00000020: 4009 113d 19a8 09be 5036 86bd d2fa 58bd
00000030: d615 83bd 6cd7 2dbd 3476 603d b8fa 08be
00000040: c15f a8bd 415c 07be 216c f0bd 6f61 f1bd
00000050: e335 92bd 9507 93bd e9fa acbc f91d 0cbe
00000060: c05b 9c3c 316f fc3d 36e6 b5bd d1d8 193e
00000070: e66f 01be 962e 2abe eab2 6abd 7ff7 6abd
00000080: ac43 643d 4a5f 0fbe 168d 04be 1c0e d03d
00000090: 6ab4 86bd 40c9 b33c af3d 003a ca05 d63d
000000a0: db1d a9bd deba e63d 9d2e 943b ce64 203d
000000b0: e426 103e a7ec ce3b a45f a83d ff2c 343c
000000c0: ee98 0cbe 6d54 0d3e 9bd1 193e e375 2a3e
000000d0: d20c 193e 74de a53d f8fa 483d 0098 eab8
000000e0: eaee d0bd c66e f4bc 2372 0e3e 9621 c73b
000000f0: cf87 5fbd eb22 67bd f4cb 313e a538 6b3d
00000100: de61 443d 74a3 91bd 6eba eb3d c054 f5bb
00000110: 3a21 083d c863 aebd 1809 053d 85e3 363e
00000120: 90e2 f3bd 3acf 66bd 8096 8bbc dfde 0c3c
00000130: 70fa 2e3d 63e0 67bd a12a 6cbd 7052 b33c
00000140: ae6a 0e3c c032 663c 0c82 a13d 11e1 cebc
00000150: 5994 27bd 2b73 15bd 9208 1ebc 022c 85bc
00000160: e9b7 84bc 7fec bdbd 0088 cdbd 4ffe c5bd
00000170: f9e0 b3bd 33b8 ae3d 2a74 b3bd 035b b0bd
00000180: 747d 6d3d 2fde 043e b041 abbc 7a93 863c
00000190: 24d6 923d c7b4 d53d 5ccd e63c 3d7f a9bd
000001a0: 46ba ddbd 4758 ca3d 0607 59bd a047 8fbd
000001b0: c683 c83d 16e9 1e3e 5423 d53c 309e b73d
000001c0: 4af1 2e3e 6570 8d3d 360a ba3d b81c 233e
000001d0: ab0d 173e 6dae 2d3e b22d d53d 244b 9fbd
000001e0: bf21 983d b85e 673d 065a 15bd 4615 c3bd
000001f0: cab1 da3d cbc8 50bd 1cbe d7bb 9175 9fbd
00000200: b57a 593d 7c44 c8bd ac15 29bd 6998 19bd
00000210: f98d febd 040b e5bd c0b8 733d b37e b63d
00000220: c27a aebc 00ff 7cba 953d eabd 3e86 ce3d
00000230: 7e0c dbbd 6176 673d 3c44 083d 2e9d 3bbd
00000240: 92ab dfbd 1cf0 293d cf1e 853d df93 f03d
00000250: a222 9a3c 7566 57bd a03d 37bd 30e1 f63d
00000260: a0bc 573d 8951 04be 5d40 dfbd 675b d33d
00000270: 522f f43d 3353 ddbd 4819 3d3d fa21 033e
00000280: 3bd4 d9bd 2cf2 33bd 4456 f5bc 80d7 9dba
00000290: 3807 c8bd 9462 1bbd 1e63 af3d 183c f9bd
000002a0: ece9 03be e85a 2b3d 2035 e6bd b2f8 71bc
000002b0: bca1 c5bd f971 ff3d d02e 44bd ecd4 d43d
000002c0: 70bc 0c3c 1871 663d a8f9 4d3d a84d 563d
000002d0: 564f f63d f400 1a3d d2d9 76bd b5a7 ce3d
000002e0: 90a4 ccbd de8f fc3d 90d2 0d3e bc35 de3d
000002f0: e3b3 97bc 84b4 933d d990 c93d ed3c bebd
00000300: c2f1 d9bd b67f f3bd 35cd a1bc 40c6 f0bd
00000310: 345a d53c f320 063d 782a 89bc c993 103d
00000320: 1c58 473d d5c6 df3d 38f1 dcbc a926 cf3d
00000330: 517b 58bc 18e5 fd3c c964 35bd 883f bf3d
00000340: 6210 15be 6b7e 013e 4059 243d 6d39 c1bd
00000350: de71 b6bc 6ba0 6ebd 7295 7abd 6abd 94bd
00000360: 77e5 0d3e 8fbe 103e a0e5 a63b 4861 3a3e
00000370: 151b 153e bdec 02be 4098 b4bc b0f3 7cbc
00000380: f723 193e 1084 ae3d 32d3 aa3d b727 eb3d
00000390: 387f 0b3d 1c1e 4d3d 939f 71bd 1cc9 6b3d
000003a0: ac8c 023e 97aa d73d d059 553c 80fe d5bc
000003b0: f549 d33b fe41 88bd 419d f23d 519c e1bd
000003c0: f89f 753d 436b 303e 40e8 7bbb ce2a 323c
000003d0: 2798 a9bd 4872 013e 3228 0c3e caf7 cfbd
000003e0: 8a3a f03c 801b 553d 007e e7bd e5a2 e5bb
000003f0: 1278 6dbd 6efc ae3c 1a4f d4bd 2139 22be
0.03710655 0.0005531632 0.06708268 -0.12031914 0.031433437 -0.10640726 0.07693869 -0.11331181
0.035409212 -0.1344303 -0.06553328 -0.052973576 -0.06400649 -0.04244177 0.054800227 -0.13376892
-0.082213886 -0.13218786 -0.11739374 -0.11786162 -0.07139184 -0.071791805 -0.021115737 -0.13683309
0.019086719 0.123258956 -0.088818 0.15024115 -0.12640342 -0.16619334 -0.057299532 -0.057364937
0.0557286 -0.14001194 -0.12944445 0.10158941 -0.0657738 0.02194655 0.0004892004 0.10450323
-0.082576476 0.11266111 0.0045221583 0.039158635 0.14077336 0.0063148323 0.08221367 0.010997056
-0.13730213 0.13801737 0.15021364 0.16646533 0.14946297 0.0809907 0.049067467 -0.00011186302
-0.10201819 -0.029837977 0.13910727 0.006077002 -0.054572877 -0.056429785 0.17362958 0.057427067
0.047944896 -0.07111254 0.11510168 -0.0074869096 0.033234812 -0.085151255 0.032479376 0.1786023
-0.11908448 -0.05634997 -0.017039537 0.0085980585 0.042719305 -0.056610476 -0.05765784 0.021889895
0.008692427 0.014050186 0.078861326 -0.025253804 -0.04091296 -0.036486786 -0.009645598 -0.016256336
-0.016200976 -0.09273624 -0.100357056 -0.09667646 -0.087831445 0.08531227 -0.08762391 -0.08611109
0.05798097 0.12975381 -0.020905346 0.016427744 0.0716975 0.10434871 0.028174095 -0.08276222
-0.108265445 0.09880119 -0.052985214 -0.06996083 0.09790759 0.15518603 0.026017822 0.08965719
0.17084232 0.06906203 0.09083979 0.15928924 0.14751308 0.1696107 0.10409106 -0.07778004
0.074283116 0.056486815 -0.036462806 -0.09525542 0.10678442 -0.05097274 -0.006583942 -0.07786096
0.05309554 -0.09778687 -0.041280434 -0.037498865 -0.12429423 -0.11183742 0.059502363 0.08910885
-0.02129877 -0.0009651035 -0.11437527 0.100841984 -0.10695742 0.05650938 0.0332682 -0.045804195
-0.10921396 0.04148875 0.06500017 0.11746954 0.018815342 -0.052587945 -0.044736505 0.1205467
0.05267012 -0.12921728 -0.10900948 0.10320168 0.11923088 -0.108068846 0.04616669 0.1280593
-0.10636183 -0.043932125 -0.029948361 -0.0012042373 -0.09767002 -0.03793581 0.08563827 -0.12169665
-0.12882203 0.04183474 -0.112406015 -0.014768766 -0.09649989 0.124729104 -0.047896206 0.10392174
0.008589849 0.0562602 0.05028692 0.052320153 0.12026851 0.037598565 -0.060266323 0.10090581
-0.09992325 0.12332128 0.13849854 0.10850093 -0.018518394 0.07212165 0.098420806 -0.092889644
-0.10641815 -0.11889593 -0.01975117 -0.11756563 0.026043989 0.032746267 -0.016743883 0.03529719
0.048668012 0.10926596 -0.02697049 0.10114796 -0.013212995 0.03099303 -0.04428557 0.093382895
-0.14557031 0.12645881 0.040124178 -0.09434781 -0.022271093 -0.058258455 -0.06117768 -0.0726269
0.13857065 0.14135192 0.0050932914 0.18201172 0.14561112 -0.12785621 -0.022045255 -0.015438959
0.14955126 0.08521283 0.083410636 0.114821844 0.034056872 0.050077543 -0.058990072 0.05756484
0.12748975 0.10530584 0.013021901 -0.026122332 0.0064480253 -0.06653212 0.118464 -0.11016143
0.05996701 0.17228417 -0.0038437992 0.010874463 -0.08280974 0.12641251 0.13687208 -0.10154684
0.029324789 0.05202818 -0.113033295 -0.007007944 -0.057975836 0.021360602 -0.1036665 -0.15842105

output_layer1.bias f4 [40]
00000000: 32f4 35be 4784 823d 8a5f e93d 4184 10be
00000010: ee23 ff3d 0f10 473e a46e a9bd d271 8abd
00000020: 6117 cb3d cda9 9b3d a389 92bd 9495 f3bd
00000030: 568e 1ebe e9d2 07bc cbf9 cf3d 4262 63bd
00000040: 34d4 92bc 4e3d 12be 4918 213e 3dae a7bd
00000050: b2a5 75bc 5a75 fbbd 44f8 09be 857e b8bd
00000060: a817 7c3d 090b 283d b019 c43d 7eb0 083d
00000070: 1a60 a43c 8d7e 283e a4f4 67bd 1184 f1bd
00000080: 64a4 0bbe c53f 35ba 2b8a 97bd 3382 fd3b
00000090: a21d e13d 5620 bb3d 7a07 023e 6fe6 20be
-0.17768934 0.06372886 0.11395176 -0.14112951 0.12458025 0.1943972 -0.08273056 -0.06759991
0.099165685 0.07600746 -0.07155158 -0.11893764 -0.15483984 -0.008290031 0.10155066 -0.055513628
-0.017923452 -0.14281198 0.1573192 -0.0818753 -0.014993118 -0.122782424 -0.13473612 -0.09008507
0.061545998 0.04102615 0.09575212 0.03337144 0.020065356 0.16454525 -0.05662979 -0.11792768
-0.13636929 -0.00069141045 -0.073994 0.007736468 0.1099198 0.09137027 0.12698165 -0.15712903

output_layer2.weight f4 [1, 42]
00000000: 79d8 a93d 9a6e 6a3d 3c03 f43d 9587 873d
00000010: da45 dc3d 930f d0bc e05e be3c d58f 18bd
00000020: 647a 093d 42e6 8d3d 2701 be3d 5fca babd
00000030: c8a4 a2bc 1e1e 09be 2b50 9abd b2fb bd3d
00000040: 9e09 ba3d 010d 20bd 4396 76bd 415d 18bd
00000050: 1e9c 8c3b 0379 1a3d c604 c93d 548c d13d
00000060: 38b0 d8bc 053a 303d f9c4 24bd 78af d4bc
00000070: e58e 0bbc 7b6a a5bc ade2 143e 2b93 843d
00000080: 00ac 96bd 5c6f 033e 0294 ce3d 6050 863d
00000090: 9cef 943d bc6e 513d 2194 dcbd 1bb6 0c3e
000000a0: 70d0 bcbc 5a3a 383e
0.08293242 0.057234384 0.119146794 0.06617657 0.10755511 -0.025398051 0.0232386 -0.037246544
0.033563986 0.06928684 0.092775635 -0.091206305 -0.019853964 -0.13390395 -0.07534822 0.09276523
0.090838656 -0.0390749 -0.060201894 -0.03719831 0.0042910716 0.037713062 0.098153636 0.102318436
-0.026451215 0.04302408 -0.04022691 -0.025962576 -0.008517955 -0.020192375 0.14539595 0.064733826
-0.07357025 0.12835449 0.10086824 0.06558299 0.07272264 0.051130995 -0.10770441 0.13741343
-0.02304861 0.1799101
