src/models/dynamics_53.pt (torch, 47860 bytes, 13 tensors)

input_layer.weight f4 [42, 42]
0.055486027 -0.049533878 0.1434674 0.011373589 -0.104593046 0.06358313 -0.014233751 -0.029548071
0.031829666 -0.009974192 -0.15324996 0.013825281 -0.073567964 0.063106254 -0.11712224 -0.07666941
-0.05310408 0.037563812 0.15066221 -0.16422576 -0.10344438 -0.14846209 0.06541654 0.101227425
-0.09759326 -0.07208967 -0.07427438 0.1266603 0.1336023 -0.010654202 -0.11448916 0.032306947
0.13664939 -0.17351109 -0.116749726 -0.0133862365 0.0934926 0.015409245 0.034529917 -0.11883447
0.10674397 0.06596077 0.07538348 0.13159709 0.06645803 -0.03872791 0.046027906 0.12911883
-0.0119376965 -0.015032235 0.099069424 0.044396337 0.10597264 -0.010518657 -0.0696563 -0.09530796
0.094732724 0.12375574 0.14616969 -0.0191901 0.10207611 0.03720942 0.05355733 0.122924924
0.078873664 -0.094318315 -0.013926033 -0.10473736 0.029867454 0.08082082 -0.04062773 0.14430389
0.1183009 -0.055549502 -0.07899992 -0.11017823 -0.10821428 0.10668204 -0.025609955 -0.11697321
-0.005171135 0.0235064 0.11343294 -0.10635233 -0.073236525 -0.006901884 -0.13262817 0.089767516
-0.052368727 -0.0030396527 0.056660265 -0.011750963 0.13555415 0.08907309 -0.14348722 -0.053126305
-0.028306045 0.07544945 -0.017744524 0.08797703 -0.10094035 0.12032458 0.042576253 -0.0010028023
0.096053384 -0.03615254 0.06770572 0.015966555 0.12908126 -0.08367415 0.08633757 -0.07179153
0.010987624 -0.013418334 0.15837519 -0.16163498 0.15383656 -0.004383563 0.047900964 -0.015659578
0.062644206 -0.10517445 0.09109658 0.15846145 0.0038174659 -0.11288963 -0.034117095 -0.026760401
0.08595544 0.124466605 -0.06439197 0.05761733 0.038329322 -0.06433411 0.02503373 -0.12464594
0.08544802 -0.09787255 0.01644689 -0.021335946 -0.083020754 0.05987958 0.08426827 0.015382142
0.0860387 0.13289887 -0.13595662 0.14980438 -0.024293218 -0.12408883 0.003720134 0.0025932426
0.13099864 -0.11502711 -0.07958423 -0.061804146 -0.08882907 -0.022395333 -0.043967023 0.054485485
-0.048500236 -0.14153358 0.021568023 0.0014770634 0.011114877 -0.027431784 0.016419288 -0.12497732
-0.049457334 -0.021354213 -0.008048579 -0.13408226 -0.07406021 -0.103105456 -0.0009379685 -0.0845871
-0.08247673 0.047093406 -0.034294747 -0.12860681 -0.09619652 0.014039606 -0.027469337 -0.12469649
-0.0663224 0.014591351 -0.078322314 0.10584538 0.1154816 -0.0408146 -0.071025 -0.0078047663
-0.061005794 -0.09596022 0.041610822 0.039676473 -0.115753986 -0.14634475 0.08221193 0.005420223
0.07909241 -0.03485108 0.07528223 0.11337356 0.10451491 0.060073704 0.077755585 -0.094164684
-0.13844056 -0.037006855 -0.021348156 -0.028867148 0.032030977 0.093785286 -0.08543257 0.102158844
0.041196983 -0.13070813 0.09477256 -0.02458672 -0.09246267 0.044451576 -0.117120124 0.11631015
0.027946768 -0.112882875 -0.13995403 -0.0020774833 0.057179913 -0.12261118 -0.06488404 -0.06728749
-0.04556743 0.13289705 0.122000895 0.12377984 -0.09557775 0.022002462 0.1063688 0.008276476
-0.0042200596 0.033440825 -0.11975017 0.07690554 -0.16465348 0.029107125 0.011566877 -0.08580482
-0.13361433 0.055508398 -0.050109785 0.058761865 0.089116186 -0.09625681 -0.07188916 -0.10568618
00000000: 5145 633d 09e4 4abd 1ee9 123e 4a58 3a3c
00000010: e134 d6bd df37 823d ae34 69bc cc0e f2bc
00000020: d35f 023d cb6a 23bc 8fed 1cbe 6e83 623c
00000030: cdaa 96bd da3d 813d c9dd efbd da04 9dbd
00000040: aa83 59bd 83dc 193d 3247 1a3e cc2a 28be
00000050: a6da d3bd 7206 18be 1bf9 853d 5350 cf3d
00000060: fade c7bd c0a3 93bd 2b1d 98bd 3db3 013e
00000070: 0bcf 083e f68e 2ebc 4b79 eabd 4a54 043d
00000080: d1ed 0b3e e4ac 31be 7b1a efbd f251 5bbc
00000090: 0c79 bf3d 0f77 7c3c 3e6f 0d3d 7d5f f3bd
000000a0: 959c da3d 7116 873d a762 9a3d 63c1 063e
000000b0: 261b 883d 28a1 1ebd c287 3c3d ba37 043e
000000c0: 5496 43bc c349 76bc e9e4 ca3d efd8 353d
000000d0: 2f08 d93d 7256 2cbc f6a7 8ebd d230 c3bd
000000e0: 3b03 c23d a673 fd3d 82ad 153e 8e34 9dbc
000000f0: 480d d13d e868 183d ee5e 5b3d 10c0 fb3d
00000100: 8488 a13d f629 c1bd 042a 64bc 8a80 d6bd
00000110: 97ac f43c 6385 a53d 4369 26bd 66c4 133e
00000120: be47 f23d e087 63bd b6ca a1bd 20a5 e1bd
00000130: 739f ddbd 1d7c da3d f8cb d1bc a68f efbd
00000140: a072 a9bb 7e90 c03c 874f e83d 40cf d9bd
00000150: 08fd 95bd 3329 e2bb aecf 07be 08d8 b73d
00000160: 9780 56bd e934 47bb 9814 683d 1c87 40bc
00000170: b5ce 0a3e f46b b63d 50ee 12be f89a 59bd
00000180: 14e2 e7bc 3e85 9a3d f75c 91bc 4d2d b43d
00000190: d0b9 cebd bc6c f63d 7064 2e3d 7670 83ba
000001a0: a3b7 c43d b014 14bd 4ca9 8a3d 4bcc 823c
000001b0: e12d 043e 5a5d abbd c0d1 b03d 7007 93bd
000001c0: 6f05 343c 92d8 5bbc 1b2d 223e a483 25be
000001d0: 5587 1d3e fea3 8fbb cd33 443d 8448 80bc
000001e0: 9b4b 803d b465 d7bd d890 ba3d b843 223e
000001f0: 732e 7a3b ae32 e7bd 5ebe 0bbd a138 dbbc
00000200: 6809 b03d 59e8 fe3d f0df 83bd 2600 6c3d
00000210: 35ff 1c3d 9ac1 83bd 8913 cd3c 5f46 ffbd
00000220: 5fff ae3d 6771 c8bd a1bb 863c b9c8 aebc
00000230: c906 aabd 4a44 753d d894 ac3d 6105 7c3c
00000240: 0f35 b03d a416 083e 3638 0bbe 5266 193e
00000250: 9202 c7bc 4922 febd 7ecd 733b 64f3 293b
00000260: 8224 063e 5593 ebbd 0ffd a2bd 5826 7dbd
00000270: 04ec b5bd 6b76 b7bc c416 34bd 2c2c 5f3d
00000280: 2fa8 46bd 2eee 10be 6caf b03c 069a c13a
00000290: 2c1b 363c 9fb8 e0bc be81 863c 1cf4 ffbd
000002a0: c693 4abd 08ef aebc 30de 03bc dc4c 09be
000002b0: e1ac 97bd f428 d3bd 00e2 75ba 003c adbd
000002c0: 8fe9 a8bd 04e5 403d a678 0cbd 81b1 03be
000002d0: ae02 c5bd 6006 663c 6007 e1bc e060 ffbd
000002e0: 0ad4 87bd 9010 6f3c 7367 a0bd 76c5 d83d
000002f0: 9e81 ec3d 362d 27bd 8e75 91bd 20bf ffbb
00000300: 36e1 79bd cb86 c4bd 1c70 2a3d cc83 223d
00000310: 6d10 edbd 66db 15be ba5e a83d 209c b13b
00000320: 34fb a13d 02c0 0ebd 922d 9a3d 6630 e83d
00000330: ea0b d63d d80f 763d 523e 9f3d 6ad9 c0bd
00000340: 5dc3 0dbe 8094 17bd 54e2 aebc cc7a ecbc
00000350: ea32 033d 8012 c03d 45f7 aebd a838 d13d
00000360: 2bbe 283d 5ad8 05be 1e18 c23d 176a c9bc
00000370: 115d bdbd db12 363d addc efbd 0434 ee3d
00000380: 9ff0 e43c 232f e7bd 1c50 0fbe 6326 08bb
00000390: 7c35 6a3d 921b fbbd ece1 84bd 06ce 89bd
000003a0: eaa4 3abd 2a16 083e 9bdb f93d 4980 fd3d
000003b0: 44be c3bd 823e b43c e3d7 d93d 0e9a 073c
000003c0: 6d48 8abb 3ff9 083d 943f f5bd a780 9d3d
000003d0: ec9a 28be 1172 ee3c 0083 3d3c 70ba afbd
000003e0: 32d2 08be c65c 633d eb3f 4dbd 48b0 703d
000003f0: 8c82 b63d 4a22 c5bd a03a 93bd ff71 d8bd

input_layer.bias f4 [42]
0.039889034 -0.13898486 -0.038972985 -0.1109334 -0.05947829 -0.055387504 -0.028077833 -0.11951757
-0.022513997 0.06500595 0.114573635 -0.06411888 -0.15776306 0.008043581 0.14407349 0.1036896
0.039040856 0.08730043 0.023567528 -0.14337069 -0.096055396 0.09457131 -0.08484478 -0.001762989
0.016085546 0.056613337 0.16440304 0.15024179 -0.015105516 -0.072170116 -0.111933544 0.009011681
0.14510031 -0.06275115 -0.042348973 -0.13402183 -0.1226424 -0.17480348 0.175472 -0.13319239
-0.03861435 -0.03707755
00000000: af62 233d 0c52 0ebe 23a2 1fbd 0d31 e3bd
00000010: 829f 73bd 02de 62bd 7c03 e6bc a1c5 f4bd
00000020: 466f b8bc d721 853d 95a5 ea3d c250 83bd
00000030: a48c 21be 39c9 033c 0088 133e 375b d43d
00000040: 4ee9 1f3d 91ca b23d b010 c13c c4cf 12be
00000050: b1b8 c4bd 9aae c13d 1ac3 adbd 1814 e7ba
00000060: d6c5 833c 63e3 673d 4559 283e fcd8 193e
00000070: 207d 77bc edcd 93bd 6a3d e5bd bba5 133c
00000080: 2d95 143e ad83 80bd 1e76 2dbd 053d 09be
00000090: f02b fbbd afff 32be efae 333e 9663 08be
000000a0: 152a 1ebd a1de 17bd

hidden_layers.0.weight f4 [42, 42]
0.10668181 0.12594408 -0.044601575 -0.040960796 0.099765286 0.06681157 0.054365795 0.07132377
-0.08812081 -0.033093754 -0.019279322 -0.04140407 0.12287378 0.020594705 -0.11874671 -0.03639876
-0.122064486 -0.062311012 -0.09810597 -0.07304816 0.04134847 0.12495235 -0.0070803463 0.0041332464
-0.06886196 -0.0877383 -0.0023673018 0.10032051 0.13553767 0.0678323 0.13318183 0.104142375
0.03791889 -0.13185589 -0.030989788 0.14914833 -0.017067418 0.030552058 0.06166808 0.11839621
-0.089399315 0.13159434 -0.06702377 0.050208148 0.016726578 0.09294872 -0.09389664 0.1574557
0.12822078 -0.11353809 -0.022527305 0.013547677 0.050874524 0.054635897 0.11812139 0.092962824
0.16954686 0.033723854 0.16755491 0.06403851 0.14246917 -0.1425487 -0.07319114 -0.038131446
-0.0014008731 0.028425794 -0.0489669 -0.00040501676 0.14525048 -0.06410898 0.020254882 -0.07416696
-0.044414736 -0.069106944 0.066919826 -0.102255225 -0.046603657 -0.018812865 0.050058305 -0.047855113
-0.025999853 0.090391114 0.14443232 0.004576375 0.10455695 -0.03874986 0.10895251 -0.081250384
-0.07015401 0.14326702 0.034873333 -0.0014998168 -0.04914163 0.053733513 0.16007842 -0.12533247
0.034529395 -0.04873357 -0.1457465 -0.0026827008 0.027010052 -0.025950994 0.12131516 0.015232237
-0.06825941 -0.060494095 0.0291688 -0.07335487 -0.05800228 -0.13299586 0.15935363 0.05742764
0.03231881 -0.056981966 0.026597828 0.050732616 0.10987403 0.05227769 0.13619852 -0.1268413
0.093715504 -0.12842768 0.010310807 0.10428129 0.10020046 -0.044176396 0.091855764 -0.032819565
-0.15241103 -0.05888422 0.12510912 0.08272423 -0.076849975 0.048652142 0.13817807 0.14199948
-0.04777993 0.16881564 0.09536753 0.043070707 0.101571456 0.1680474 0.02881804 0.0950008
0.0038580878 -0.06336712 0.12591709 -0.09999245 -0.07508312 0.058660544 0.00552847 0.17088874
0.14203872 -0.04029905 -0.036985576 0.124035515 0.06882849 -0.17010489 0.02809785 -0.009602666
0.043782186 -0.06496179 -0.028266698 0.098242976 0.048374653 0.07808618 -0.066169806 -0.014143148
-0.050585978 -0.034748603 -0.013398885 -0.10665984 -0.022000045 0.062720306 -0.12037118 0.06381999
-0.11126555 0.09328192 0.059740636 -0.05505453 0.15566076 0.010387324 -0.112934895 0.12720804
0.10536552 -0.026535422 -0.0120915165 0.01968766 -0.03696838 -0.02173431 0.010462716 -0.10190458
0.020196414 -0.11175536 -0.097029984 0.07606287 0.0071025095 0.058347885 -0.06947583 0.01300387
0.07204954 0.085807726 -0.06341252 0.1197197 -0.09070993 0.0006734971 0.16752568 -0.09243645
-0.016180322 0.15613565 0.032970794 -0.034127943 -0.07177441 0.03399139 0.15096246 0.13023
0.09994839 0.024632037 -0.09930973 -0.13363074 0.13898626 -0.06843138 -0.04230879 0.027947487
0.15247557 -0.03864916 0.10313813 -0.05806009 0.18059057 -0.13506785 -0.018187335 0.06317469
0.03664139 -0.08809883 -0.050711688 0.17491491 0.01673272 0.028178371 -0.03466283 0.026211275
-0.018788904 0.08153026 0.016613463 0.017076673 0.10092318 0.13951816 -0.003103599 0.0052587283
0.121103056 -0.010565817 0.11713799 0.0065894006 -0.07732753 0.09468052 -0.14716017 0.09795085
00000000: fe7b da3d 7cf7 003e 24b0 36bd 82c6 27bd
00000010: be51 cc3d 81d4 883d abae 5e3d 3212 923d
00000020: af78 b4bd 518d 07bd abef 9dbc 5097 29bd
00000030: 40a5 fb3d 3ab6 a83c 7a31 f3bd de16 15bd
00000040: f2fc f9bd d539 7fbd c8eb c8bd 469a 95bd
00000050: 035d 293d 05e7 ff3d 4002 e8bb 2f70 873b
00000060: 8007 8dbd 23b0 b3bd bc24 1bbb d774 cd3d
00000070: 63ca 0a3e a9eb 8a3d d160 083e 9948 d53d
00000080: d750 1b3d 3b05 07be 4cde fdbc 57ba 183e
00000090: f8d0 8bbc 4f48 fa3c ab97 7c3d b679 f23d
000000a0: fd16 b7bd abc0 063e c243 89bd 0fa7 4d3d
000000b0: 2d06 893c e65b be3d e24c c0bd 113c 213e
000000c0: 4f4c 033e a886 e8bd 2f8b b8bc 13f7 5d3c
000000d0: ce61 503d e4c9 5f3d a1e9 f13d 4b63 be3d
000000e0: b19d 2d3e 0622 0a3d 8493 2b3e 9f26 833d
000000f0: 70e3 113e 49f8 11be 3de5 95bd b82f 1cbd
00000100: 809d b7ba 36dd e83c 8491 48bd 6e58 d4b9
00000110: 8bbc 143e 924b 83bd 91ed a53c d9e4 97bd
00000120: 3aec 35bd f187 8dbd 430d 893d 306b d1bd
00000130: 7ae3 3ebd 701d 9abc f009 4d3d b903 44bd
00000140: a5fd d4bc fa1e b93d 11e6 133e 6af5 953b
00000150: f421 d63d 2cb8 1ebd 7e22 df3d 9a66 a6bd
00000160: e8ac 8fbd 97b4 123e 57d7 0e3d 8095 c4ba
00000170: bc48 49bd ac17 5c3d 99eb 233e 2857 00be
00000180: b26e 0d3d da9c 47bd 923e 15be 40d0 2fbb
00000190: 2f44 dd3c 2e97 d4bc 1574 f83d a290 793c
000001a0: 97cb 8bbd a8c8 77bd 68f3 ee3c 143b 96bd
000001b0: cc93 6dbd 1130 08be 992d 233e 3f39 6b3d
000001c0: ba60 043d ec65 69bd b0e3 d93c 01cd 4f3d
000001d0: a305 e13d 2221 563d a077 0b3e b0e2 01be
000001e0: eaed bf3d 8c82 03be a9ee 283c 6e91 d53d
000001f0: e635 cd3d 4ff2 34bd e01e bc3d cf6d 06bd
00000200: a311 1cbe 9430 71bd 9b1c 003e 526b a93d
00000210: 8563 9dbd 7847 473d 8d7e 0d3e 5068 113e
00000220: e3b4 43bd 02de 2c3e 0d50 c33d e96a 303d
00000230: b204 d03d 9e14 2c3e cf13 ec3c c88f c23d
00000240: f9d7 7c3b 9fc6 81bd 69f0 003e d7c8 ccbd
00000250: 2ec5 99bd 0a46 703d 2b28 b53b 75fd 2e3e
00000260: 9972 113e 9e10 25bd 307e 17bd 5506 fe3d
00000270: f4f5 8c3d fa2f 2ebe 762d e63c 8054 1dbc
00000280: f354 333d b00a 85bd 908f e7bc 9d33 c93d
00000290: 8024 463d a6eb 9f3d 0984 87bd aab8 67bc
000002a0: 3e33 4fbd 8d54 0ebd ff86 5bbc 7970 dabd
000002b0: 7039 b4bc 8173 803d 2a85 f6bd 0eb4 823d
000002c0: 31df e3bd 970a bf3d 99b2 743d dc80 61bd
000002d0: 8965 1f3e 982f 2a3c 694a e7bd d342 023e
000002e0: e1c9 d73d d060 d9bc 7f1b 46bc 0448 a13c
000002f0: 286c 17bd 270c b2bc d06b 2b3c 59b3 d0bd
00000300: f372 a53c ffdf e4bd a8b7 c6bd dac6 9b3d
00000310: 2bbc e83b 31fe 6e3d 5849 8ebd 2f0e 553c
00000320: b68e 933d f6bb af3d 6cde 81bd 9a2f f53d
00000330: 21c6 b9bd a08d 303a da8b 2b3e 524f bdbd
00000340: 988c 84bc 06e2 1f3e 620c 073d bec9 0bbd
00000350: 76fe 92bd 8e3a 0b3d e795 1a3e 035b 053e
00000360: beb1 cc3d 20c9 c93c e662 cbbd 7fd6 08be
00000370: 6a52 0e3e c025 8cbd fb4b 2dbd 21f2 e43c
00000380: 8e22 1c3e 954e 1ebd 153a d33d 6bd0 6dbd
00000390: bcec 383e 3a4f 0abe 9bfd 94bc bb61 813d
000003a0: 4815 163d 296d b4bd 0fb7 4fbd e51c 333e
000003b0: 0f13 893c 54d6 e63c 9dfa 0dbd 07b9 d63c
000003c0: 30eb 99bc 56f9 a63d f518 883c 61e4 8b3c
000003d0: d0b0 ce3d d9dd 0e3e c065 4bbb 6951 ac3b
000003e0: e104 f83d 401c 2dbc 0be6 ef3d e6eb d73b
000003f0: e55d 9ebd dce7 c13d 28b1 16be 759a c83d

hidden_layers.0.bias f4 [42]
0.13465188 0.13388652 -0.13778804 0.15816958 0.02981106 0.11658356 0.1748774 0.09412138
-0.1367 -0.054163404 -0.12241566 -0.07333581 0.1812206 0.015317551 0.12409213 0.04858572
-0.035680227 0.066948205 0.09990756 -0.15644778 -0.02369679 -0.04833912 0.02834949 -0.117848724
0.100136355 -0.1341521 0.11856379 0.17375198 0.06346913 0.119066134 -0.11159767 0.13327527
-0.070035085 -0.06810376 -0.021904612 0.014472694 -0.13297582 -0.11059925 0.08504642 -0.054134212
0.06491419 0.10121118
00000000: 2fe2 093e 8c19 093e 4f18 0dbe 35f7 213e
00000010: 5336 f43c 5dc3 ee3d 1013 333e b6c2 c03d
00000020: 16fb 0bbe 72da 5dbd 10b5 fabd 1631 96bd
00000030: e591 393e 77f6 7a3c 0424 fe3d d201 473d
00000040: 6e25 12bd 241c 893d 569c cc3d d933 20be
00000050: c51f c2bc 3eff 45bd 313d e83c ac5a f1bd
00000060: 4a14 cd3d 2b5f 09be 93d1 f23d 0aec 313e
00000070: 1afc 813d f2d8 f33d 528d e4bd 5079 083e
00000080: 8e6e 8fbd fc79 8bbd 4d71 b3bc e11e 6d3c
00000090: d02a 08be dc81 e2bd d12c ae3d d6bb 5dbd
000000a0: bbf1 843d cf47 cf3d

hidden_layers.1.weight f4 [42, 42]
-0.016883712 0.06818749 -0.09239029 0.118113905 -0.049079217 -0.08483934 0.100069165 -0.15252152
0.099067286 -0.11304532 -0.09261535 0.044579342 0.10265949 -0.05135827 -0.033006296 -0.11365606
0.035041064 0.05750989 0.124127075 0.013217464 -0.04815785 -0.0451053 -0.018187404 -0.056684293
-0.01499953 -0.035554796 -0.028368346 -0.052951116 0.09190733 0.105338156 -0.15213749 -0.056576546
-0.05732333 0.042578176 0.03958629 -0.020025814 0.0016081482 0.13804351 -0.11623733 0.0024509728
0.004472223 -0.0936725 -0.13135548 0.052635845 0.10385586 -0.069433905 -0.033222508 -0.15767725
0.03701826 -0.09325012 0.013854429 -0.04722637 0.13145395 0.128478 0.009075784 -0.0818612
0.057499923 0.08617275 0.030118674 0.04093185 0.08895972 0.062268794 -0.018358411 0.0156240165
0.12449474 0.0344557 -0.02645702 0.078842714 0.0048978156 0.106339924 -0.07545564 0.0049422416
-0.028989375 0.113060415 -0.004357968 -0.0003768938 -0.1705292 0.08473367 -0.076905265 -0.05634035
-0.0049507637 -0.014228036 -0.10371634 0.05631327 -0.0026193322 0.120989494 0.023801899 0.08599731
-0.0837469 -0.023527693 -0.10015881 0.107628725 0.027958179 0.096811995 0.021193042 0.10999972
-0.08275397 0.06350849 0.09288311 -0.11016265 -0.07897329 -0.09592975 0.1620672 -0.034139156
-0.049094874 0.040267542 0.03652788 -0.118089855 0.17704035 -0.09523682 0.16175517 -0.045342438
0.023057936 0.12309806 0.07957557 0.17308913 0.043942135 0.117291614 -0.06718941 0.088377975
-0.093120806 0.0018486977 -0.009267229 0.16047934 0.09122345 -0.029266883 0.144253 -0.13835338
0.11640264 -0.0017012358 0.1254449 0.0057373643 -0.0933976 0.0022166967 -0.12370139 0.042223766
0.028987914 -0.116049275 0.0085452795 -0.063780464 0.11804421 -0.014662415 0.13638808 0.018179938
0.08029503 0.14983825 0.09755774 0.0489711 0.010676056 0.036811188 0.10862075 0.13427041
-0.12183769 -0.07801193 0.029214934 0.04215826 -0.056209646 0.15128373 -0.13672128 -0.10051982
0.0070575923 -0.025346681 -0.06335377 -0.114878014 0.044356823 0.10832484 -0.1511656 -0.13290477
0.025814928 0.12672533 0.08541278 0.14017883 0.13529389 0.09308934 -0.057504777 -0.0070763715
-0.1022884 -0.053246986 -0.119159326 0.07641479 0.12395796 0.15599334 -0.10591958 -0.053487815
-0.004309103 -0.11777676 -0.056779005 -0.123853795 0.010010634 0.09662767 -0.14017464 -0.09854715
0.15485537 -0.07567387 -0.04632553 0.0975969 0.017955843 -0.035591837 -0.10189377 0.07910942
-0.026446922 -0.028286679 0.048994612 0.07471389 -0.016281791 -0.07562593 0.14063023 -0.030171538
0.16331491 0.031463124 -0.11814458 -0.049600415 -0.119067 -0.07179908 -0.056293085 -0.11590963
0.036235034 -0.025271194 -0.021392092 0.029532503 -0.123359114 0.13455756 0.06636587 0.0019243471
0.09911522 0.07887437 0.010465533 0.066453986 -0.025375906 -0.10154566 0.11761294 -0.0011847764
0.06582703 -0.044241145 -0.093529195 -0.0566957 0.07347665 -0.17183127 0.01926327 -0.05338525
-0.119002745 -0.034566965 -0.07417505 -0.11868945 0.1207212 0.13248402 -0.076833695 -0.06820295
-0.08525203 -0.11642516 -0.14427952 0.1269627 0.079019964 0.063843645 -0.15009618 -0.011291716
00000000: b64f 8abc e2a5 8b3d 1f37 bdbd b4e5 f13d
00000010: 4a07 49bd 3fc0 adbd 10f1 cc3d 9a2e 1cbe
00000020: cae3 ca3d 4e84 e7bd 1ead bdbd d498 363d
00000030: 243f d23d 0d5d 52bd 9c31 07bd 82c4 e8bd
00000040: 3887 0f3d 7e8f 6b3d 5636 fe3d 108e 583c
00000050: 2a41 45bd 56c0 38bd c0fd 94bc ca2d 68bd
00000060: 97c0 75bc e8a1 11bd bc64 e8bc 45e3 58bd
00000070: e939 bc3d 88bb d73d eec9 1bbe cfbc 67bd
00000080: decb 6abd 7466 2e3d 3c25 223d 2d0d a4bc
00000090: 80c8 d23a 475b 0d3e d60d eebd 80a0 203b
000000a0: ba8b 923b 5ed7 bfbd 0d82 06be af98 573d
000000b0: 62b2 d43d 5d33 8ebd 5314 08bd 2576 21be
000000c0: 76a0 173d ebf9 bebd b0fd 623c 7070 41bd
000000d0: dd9b 063e bd8f 033e 99b2 143c d8a6 a7bd
000000e0: 0a85 6b3d 577b b03d 70bb f63c 28a8 273d
000000f0: 8430 b63d 900d 7f3d 6164 96bc e0fb 7f3c
00000100: 19f7 fe3d 6c21 0d3d 64bc d8bc 4a78 a13d
00000110: db7d a03b bfc8 d93d 7d88 9abd 87f2 a13b
00000120: 207b edbc 388c e73d 49cd 8ebb d499 c5b9
00000130: 359f 2ebe d988 ad3d 8280 9dbd 24c5 66bd
00000140: 043a a2bb b51c 69bc 3c69 d4bd bea8 663d
00000150: 1aa9 2bbb 57c9 f73d 33fc c23c 5c1f b03d
00000160: 7f83 abbd 26bd c0bc 1020 cdbd 736c dc3d
00000170: 8d08 e53c 5e45 c63d 089d ad3c 8847 e13d
00000180: ea7a a9bd bd10 823d 8039 be3d f59c e1bd
00000190: c0bc a1bd d176 c4bd f2f4 253e 80d5 0bbd
000001a0: b517 49bd 94ef 243d 429e 153d 18d9 f1bd
000001b0: 114a 353e 860b c3bd 26a3 253e feb8 39bd
000001c0: ffe3 bc3c d61a fc3d 84f8 a23d 473e 313e
000001d0: abfc 333d 9636 f03d 9a9a 89bd 83ff b43d
000001e0: 1fb6 bebd 0050 f23a 93d5 17bc b254 243e
000001f0: 5cd3 ba3d 1ac1 efbc 0fb7 133e 82ac 0dbe
00000200: 8264 ee3d 00fc deba a174 003e 8000 bc3b
00000210: 3e47 bfbd 0046 113b 2857 fdbd d4f2 2c3d
00000220: 1078 ed3c 3eab edbd 8001 0c3c 559f 82bd
00000230: 2ac1 f13d a03a 70bc 51a9 0b3e 18ee 943c
00000240: b871 a43d 336f 193e 5acc c73d ec95 483d
00000250: a0ea 2e3c 54c7 163d 8e74 de3d 2f7e 093e
00000260: 0a86 f9bd b8c4 9fbd 2854 ef3c 24ae 2c3d
00000270: 163c 66bd 1fea 1a3e aa00 0cbe 56dd cdbd
00000280: 6043 e73b d8a3 cfbc 9fbf 81bd 2a45 ebbd
00000290: 80af 353d 6ad9 dd3d 28cb 1abe 3018 08be
000002a0: d479 d33c 49c4 013e e5ec ae3d 0a8b 0f3e
000002b0: 7b8a 0a3e a0a5 be3d 218a 6bbd e8e0 e7bb
000002c0: 957c d1bd 8319 5abd ce09 f4bd 5b7f 9c3d
000002d0: acdd fd3d b8bc 1f3e 5dec d8bd 0a16 5bbd
000002e0: 6033 8dbb f134 f1bd 1a91 68bd 0fa7 fdbd
000002f0: a403 243c bae4 c53d f189 0fbe 17d3 c9bd
00000300: 6892 1e3e e7fa 9abd d7bf 3dbd e2e0 c73d
00000310: 2218 933c bfc8 11bd aead d0bd 1f04 a23d
00000320: 37a7 d8bc 77b9 e7bc 93ae 483d 9903 993d
00000330: 6461 85bc c5e1 9abd 5f01 103e 4d2a f7bc
00000340: 063c 273e 7adf 003d c9f5 f1bd ce29 4bbd
00000350: 66d9 f3bd 650b 93bd 9493 66bd 0762 edbd
00000360: 306b 143d 8905 cfbc 783e afbc 26ee f13c
00000370: b4a3 fcbd 75c9 093e d4ea 873d 603a fc3a
00000380: ecfc ca3d e388 a13d a077 2b3c 0719 883d
00000390: 22e1 cfbc 2cf7 cfbd 0edf f03d 804a 9bba
000003a0: 52d0 863d 3436 35bd 3c8c bfbd c039 68bd
000003b0: ed7a 963d 89f4 2fbe 01ce 9d3c 7eaa 5abd
000003c0: b6b7 f3bd 1796 0dbd 17e9 97bd 7413 f3bd
000003d0: ad3c f73d e4a9 073e fc5a 9dbd fdad 8bbd
000003e0: 9e98 aebd 5070 eebd 03be 13be 8302 023e
000003f0: 38d5 a13d 75c0 823d d0b2 19be e400 39bc

hidden_layers.1.bias f4 [42]
-0.038179394 -0.0016086865 0.1835595 -0.07447491 0.08138118 0.045656618 -0.038875666 -0.044269234
0.10980202 0.11257203 -0.06170938 0.0039075427 0.12764332 -0.055729043 -0.15016055 -0.10294838
-0.09237197 -0.06545137 0.06927497 -0.13072446 0.13340828 -0.018418742 -0.09384368 -0.03505896
0.09248613 -0.004284479 -0.058892265 -0.049134478 -0.003919383 -0.15260467 -0.13064912 -0.10260497
-0.13543572 0.076070756 0.06603646 0.07001606 0.0383689 0.032995187 -0.08163751 -0.1074319
0.08624714 -0.123668395
00000000: ff61 1cbd 90da d2ba 06f7 3b3e 4d86 98bd
00000010: 2dab a63d 6f02 3b3d 173c 1fbd a853 35bd
00000020: e2df e03d 2a8c e63d fac2 7cbd d80a 803b
00000030: eeb4 023e 2344 64bd b0c3 19be 9ad6 d2bd
00000040: 842d bdbd 5e0b 86bd 09e0 8d3d a2dc 05be
00000050: 2e9c 083e e7e2 96bc 1e31 c0bd fc99 0fbd
00000060: 5e69 bd3d d164 8cbb 0439 71bd 3c41 49bd
00000070: 2b6e 80bb 6644 1cbe e2c8 05be 8e22 d2bd
00000080: a9af 0abe fcca 9b3d 203e 873d 9464 8f3d
00000090: b528 1d3d f625 073d 9131 a7bd 4205 dcbd
000000a0: 57a2 b03d db45 fdbd

hidden_layers.2.weight f4 [42, 42]
0.11624433 0.046467036 0.14483798 0.113772884 0.15117174 0.040920407 0.15668064 -0.076716304
0.16768016 0.05028108 -0.090904266 -0.13850853 0.03279346 -0.03772157 -0.023719832 0.054786474
-0.0100430995 0.038505 0.10181625 0.10113556 0.15856265 -0.012415659 -0.020163614 0.12867694
-0.105667144 0.097511545 -0.06435001 0.069983184 0.025924169 -0.101447135 0.10286294 0.10781719
0.03725584 -0.07289186 0.0390652 -0.14165981 -0.0017742366 -0.12652026 -0.038767498 0.06504327
0.14009371 0.026164293 -0.030715525 0.02052477 -0.027273387 0.11602618 0.06190972 -0.09096295
0.13995592 -0.10800007 0.019018576 0.040290654 0.015787676 0.029759169 0.009842336 -0.08724318
0.031321824 0.031692654 -0.007983863 0.09087154 0.11425267 0.007324502 -0.09900245 -0.14756352
0.063929066 -0.040686026 0.023042217 0.11204298 0.10584672 -0.120655745 -0.049983583 -0.10869523
-0.0814824 -0.052586883 0.11255975 -0.07540307 -0.08629647 0.059626535 -0.12550648 0.0765875
0.08083776 0.12749337 -0.016779914 0.13257821 0.13237719 0.076857895 0.0071702264 0.10733719
-0.15919434 0.016088247 0.00035138428 -0.05520632 -0.11352102 0.043331612 0.13546933 -0.06227731
-0.03549815 0.06511114 -0.14581154 -0.11763583 0.07709831 0.122516274 -0.016271448 -0.10483175
-0.05788927 -0.070884556 0.11048169 -0.052932777 0.060586285 -0.011373028 0.027142063 0.14664571
-0.028686663 -0.109748185 0.05902785 -0.038613327 0.14810282 0.13344245 0.12844406 0.13850431
0.12141195 -0.06400322 -0.05210902 -0.07601036 -0.041136134 0.13779517 0.0318166 -0.115268014
0.052197713 0.08681734 0.1711936 -0.06290267 0.16307117 0.10739766 0.17363255 0.17306073
-0.15387315 0.04352692 -0.055451382 -0.028724246 -0.040405825 -0.040415116 -0.058263503 -0.08968182
-0.0058962614 0.038176145 -0.01424583 -0.02839053 0.13910177 0.10654907 -0.099216715 -0.12628363
0.07758777 -0.045192063 -0.02452375 -0.12680146 -0.1102798 0.005097583 0.06148093 0.14242676
0.14776644 -0.049140405 0.04769366 -0.026821878 0.048771486 -0.057435572 0.10967173 -0.13427815
0.021757796 -0.036361136 0.11546694 0.09879227 0.1024153 -0.109822385 0.07500106 -0.13167737
-0.05014932 -0.115521275 -0.023701876 -0.10244083 -0.03561041 -0.12774862 0.13397272 -0.0385426
0.12034477 -0.088534586 -0.083965704 0.052956175 -0.0662484 -0.056575894 0.033196066 0.06170598
0.12018148 -0.13315536 -0.05404251 0.062595546 -0.084886245 0.025843963 -0.13121143 0.002755046
0.105272844 0.0878678 -0.14057252 -0.1353941 -0.10902098 -0.02772455 -0.10621804 0.09363745
0.030368717 0.0059356987 -0.072924905 0.084307484 -0.11118623 -0.027521119 -0.11437562 0.023176862
0.11179753 -0.11734806 0.10894377 0.05556412 -0.02748923 -0.12043595 0.1753496 0.07485739
-0.008654714 -0.044127196 -0.13269912 -0.11828043 -0.08604497 -0.11636583 0.04963183 -0.025769942
-0.11341917 -0.059252188 0.0012751417 0.003354943 -0.083642416 -0.02261348 0.1686335 0.13217981
-0.0142021775 0.009497032 0.06980115 -0.05477599 0.06227915 0.083047695 -0.07507952 0.08645727
0.13294412 -0.0054918826 0.0073520993 0.05525814 -0.043024838 -0.124382615 0.06197446 -0.04219225
00000000: 8211 ee3d 3854 3e3d 6850 143e c201 e93d
00000010: c4cc 1a3e 289c 273d e470 203e 701d 9dbd
00000020: 59b4 2b3e 89f3 4d3d 042c babd 2ed5 0dbe
00000030: 6f52 063d ef81 1abd 1850 c2bc c867 603d
00000040: d08b 24bc 6bb7 1d3d 0a85 d03d 2920 cf3d
00000050: 3f5e 223e 0c6b 4bbc 2a2e a5bc e3c3 033e
00000060: 0468 d8bd 22b4 c73d f0c9 83bd 5853 8f3d
00000070: ec5e d43c 84c3 cfbd cea9 d23d 42cf dc3d
00000080: 9499 183d 5448 95bd d502 203d 450f 11be
00000090: 808d e8ba 878e 01be abca 1ebd 6835 853d
000000a0: ba74 0f3e 8056 d63c 209f fbbc 9023 a83c
000000b0: 706c dfbc 229f ed3d 0c95 7d3d c84a babd
000000c0: 9b50 0f3e 242f ddbd d8cc 9b3c d007 253d
000000d0: 2855 813c 80c9 f33c c041 213c 8dac b2bd
000000e0: 504b 003d 28d0 013d c0ce 02bc dc1a ba3d
000000f0: 4efd e93d 6002 f03b ccc1 cabd e41a 17be
00000100: 3eed 823d 64a6 26bd 08c3 bc3c ca76 e53d
00000110: 2ac6 d83d 5c1a f7bd 96bb 4cbd 9b9b debd
00000120: 3fe0 a6bd 5865 57bd ba85 e63d ed6c 9abd
00000130: 34bc b0bd f43a 743d c584 00be e8d9 9c3d
00000140: 448e a53d 9f8d 023e 0876 89bc 95c2 073e
00000150: e38d 073e ac67 9d3d 38f4 ea3b 9ad3 db3d
00000160: d703 23be 80cb 833c 003a b839 0620 62bd
00000170: b57d e8bd 7d7c 313d 79b8 0a3e 7e16 7fbd
00000180: 8266 11bd fd58 853d 9f4f 15be 0eeb f0bd
00000190: b8e5 9d3d d0e9 fa3d b34b 85bc 07b2 d6bd
000001a0: 4d1d 6dbd ec2b 91bd 3944 e23d 0ad0 58bd
000001b0: 5329 783d f055 3abc 0859 de3c 4b2a 163e
000001c0: 4b00 ebbc a8c3 e0bd 30c7 713d 0229 1ebd
000001d0: 44a8 173e 23a5 083e d786 033e 13d4 0d3e
000001e0: d4a6 f83d 1f14 83bd 4570 55bd 52ab 9bbd
000001f0: 5d7e 28bd 2d1a 0d3e 2052 023d a311 ecbd
00000200: 45cd 553d 4acd b13d 604d 2f3e 1dd3 80bd
00000210: 21fc 263e 4ef3 db3d bbcc 313e d536 313e
00000220: ec90 1dbe 4949 323d fd20 63bd 1c4f ebbc
00000230: 9480 25bd 528a 25bd b6a5 6ebd 1aab b7bd
00000240: 6d35 c1bb 975e 1c3d 5767 69bc 4293 e8bc
00000250: b270 0e3e 6636 da3d 2232 cbbd 7f50 01be
00000260: 56e6 9e3d 501b 39bd 08e6 c8bc 3ed8 01be
00000270: 60da e1bd a009 a73b 6dd3 7b3d 52d8 113e
00000280: 1650 173e 7347 49bd 6d5a 433d 8eb9 dbbc
00000290: 9cc4 473d 9041 6bbd 929b e03d 3680 09be
000002a0: 683d b23c 6aef 14bd ee79 ec3d 9a53 ca3d
000002b0: 1dbf d13d 8fea e0bd 289a 993d 6fd6 06be
000002c0: 6069 4dbd 6b96 ecbd 702a c2bc 7fcc d1bd
000002d0: 39dc 11bd 89d0 02be 2530 093e d8de 1dbd
000002e0: 5277 f63d 9f51 b5bd 36f6 abbd 93e8 583d
000002f0: 3ead 87bd 20bc 67bd 99f8 073d 69bf 7c3d
00000300: b521 f63d e159 08be ae5b 5dbd 1832 803d
00000310: d7d8 adbd b8b6 d33c 4a5c 06be 008e 343b
00000320: 4a99 d73d 08f4 b33d 3ef2 0fbe c0a4 0abe
00000330: 6446 dfbd 981e e3bc d888 d9bd fec4 bf3d
00000340: d1c7 f83c 4080 c23b a759 95bd 67a9 ac3d
00000350: 9bb5 e3bd f873 e1bc c43d eabd 67dd bd3c
00000360: 1af6 e43d 2e54 f0bd e91d df3d 3497 633d
00000370: 1831 e1bc 20a7 f6bd d88e 333e d54e 993d
00000380: 80cc 0dbc b8be 34bd 47e2 07be 033d f2bd
00000390: 5838 b0bd 3551 eebd bf4a 4b3d 7c1b d3bc
000003a0: 4f48 e8bd 6cb2 72bd a822 a73a 9ade 5b3b
000003b0: b74c abbd e83f b9bc 43ae 2c3e 255a 073e
000003c0: 40b0 68bc 7099 1b3c e8f3 8e3d ca5c 60bd
000003d0: 6c18 7f3d e914 aa3d 4bc3 99bd 8210 b13d
000003e0: 8122 083e 40f5 b3bb e1e9 f03b 5c56 623d
000003f0: d03a 30bd 50bc febd eed8 7d3d c8d1 2cbd

hidden_layers.2.bias f4 [42]
-0.110018745 -0.06121976 -0.08257744 0.19247077 -0.051747605 0.1609667 0.115031436 0.034194347
-0.107093774 0.0314155 -0.08362879 0.16147037 -0.15151663 0.124076165 0.1903972 -0.11253758
0.074097194 -0.105185986 -0.04534792 -0.043963484 0.016214 0.12901074 0.12583683 -0.08177783
-0.111555725 0.18168189 -0.15014449 0.053534232 -0.12806545 -0.04216946 -0.1436508 -0.12294057
-0.124925375 -0.061943665 0.11043694 0.10051498 -0.10273854 -0.021224663 0.01530838 -0.15345272
0.17815684 -0.026401874
00000000: 8251 e1bd 92c1 7abd 5c1e a9bd 0f17 453e
00000010: 4cf5 53bd 74d4 243e 9a95 eb3d 5f0f 0c3d
00000020: fb53 dbbd 8aad 003d 9245 abbd 7d58 253e
00000030: 2d27 1bbe a51b fe3d 7cf7 423e 1a7a e6bd
00000040: 45c0 973d c06b d7bd bebe 39bd 0e13 34bd
00000050: 39d3 843c 641b 043e 5fdb 003e 237b a7bd
00000060: 5477 e4bd d10a 3a3e 7abf 19be b646 5b3d
00000070: 9723 03be e2b9 2cbd 3219 13be 44c8 fbbd
00000080: e0d8 ffbd a4b8 7dbd c32c e23d ccda cd3d
00000090: 9568 d2bd 58df adbc 00d0 7a3c b622 1dbe
000000a0: bf6e 363e be48 d8bc

hidden_layers.3.weight f4 [42, 42]
-0.010495971 -0.091503 0.0012609678 0.045614842 -0.13472794 0.044480216 0.15562893 0.10729647
-0.07351634 -0.099629074 -0.027394906 0.08353446 0.074112 0.11045853 0.048538167 -0.11945362
0.12653431 0.042223305 -0.007374227 -0.13434535 -0.015827661 -0.002613109 0.024372594 -0.021485552
-0.03656386 0.14539725 0.07142173 -0.09500462 0.040049836 0.113846436 -0.1300942 0.1223069
-0.08198618 0.09242322 0.06678678 0.085034095 0.064700514 0.021343395 -0.110514216 -0.13692966
-0.0002704925 0.13600999 -0.100152545 0.014363185 -0.08687658 0.16539384 -0.061213836 0.10204287
0.11021135 0.13783692 0.07088797 -0.086646475 0.113569036 -0.032339696 -0.040342472 0.1884946
0.10975765 -0.069010064 0.14427504 -0.029374689 -0.051803656 -0.025535624 0.053722814 0.0641755
0.044534113 0.021887682 -0.0065203905 0.044765133 0.12772338 0.012892192 -0.08160001 -0.09401132
-0.0751915 -0.054724976 -0.060915574 -0.091112435 0.13022487 0.037733037 -0.096636534 0.0008623153
0.016807139 -0.1373353 -0.026710635 -0.059470337 -0.031145021 -0.117862776 -0.0870966 0.035650272
-0.10996887 -0.076264024 -0.00791221 -0.034970272 -0.087760545 0.0383095 -0.12262953 0.11027897
-0.06837831 -0.03342407 0.095359415 -0.033523522 -0.084866606 0.013776571 -0.11802246 -0.018654678
0.16425222 0.027297346 0.114507146 -0.0030211313 -0.11061318 0.084424905 -0.13938186 -0.11414977
0.11299302 -0.033472925 0.026744932 -0.060308814 -0.12958543 0.043901272 -0.10656167 -0.012785098
-0.08352841 -0.1477318 0.14846759 0.12999378 -0.079089984 0.034426726 0.119580425 0.0955157
0.12293503 0.16802688 -0.11209788 -0.045312535 0.1790938 0.025951706 -0.12948354 -0.08372004
0.14758417 0.11825293 -0.13622807 -0.050728764 0.10296339 -0.13825572 0.10425492 0.1025493
-0.029306576 -0.044079453 -0.08533941 -0.015150916 0.03792116 -0.007482308 -0.021560296 -0.09375971
-0.043840833 0.11787349 -0.1435164 0.14868851 -0.067894936 0.044914782 0.1423686 -0.06504783
0.16510224 0.17409538 -0.05232594 -0.07472993 0.10999368 -0.0037017316 -0.06165587 0.0073012137
0.06823934 0.07689503 0.106083855 0.16615574 -0.120294034 -0.033447478 -0.015644092 0.11467738
-0.014018571 0.08852751 -0.04118548 -0.010659061 0.037240595 0.12134207 0.076020665 0.042631
0.04220603 -0.14002761 0.07107966 0.108595006 0.15570834 0.005722087 0.13807425 0.12754273
-0.09134678 0.07916261 0.051620632 0.15485807 0.09265418 0.091689095 -0.10039033 -0.09011027
0.04880306 0.12272936 0.056809265 0.091437116 -0.059014805 -0.15387756 -0.07485365 -0.10476339
0.100806884 -0.14258526 -0.03857538 0.13083588 0.025889501 0.12723206 0.015870396 -0.1795451
-0.088804305 -0.09767896 0.10709148 0.07106076 0.13089935 -0.06205126 -0.0073563606 0.12839651
0.067850396 0.02263765 0.050401025 0.011307478 0.0014131814 -0.15050781 -0.12401539 0.0019804067
0.025054993 0.00014810095 -0.013353765 0.11853165 0.13847919 0.02271925 0.057171628 0.045003995
-0.06579859 -0.07863784 0.09793736 0.059495833 -0.1478329 -0.03183962 0.09351687 0.12764873
0.007336423 0.13150384 -0.05782244 -0.07363124 -0.01792796 -0.052798934 0.07134023 0.14195804
00000000: 4bf7 2bbc ed65 bbbd 0f47 a53a a1d6 3a3d
00000010: 1ff6 09be e330 363d 315d 1f3e 40be db3d
00000020: bc8f 96bd 540a ccbd 486b e0bc 1d14 ab3d
00000030: 08c8 973d 1538 e23d f5cf 463d 19a4 f4bd
00000040: 3692 013e 58f2 2c3d 80a3 f1bb d491 09be
00000050: 03a9 81bc b240 2bbb 09a9 c73c 7802 b0bc
00000060: fcc3 15bd 04e3 143e 8e45 923d c891 c2bd
00000070: 4c0b 243d 5228 e93d 6a37 05be 0a7c fa3d
00000080: 5fe8 a7bd 6348 bd3d 82c7 883d 5b26 ae3d
00000090: b481 843d 58d8 ae3c 4755 e2bd 4a37 0cbe
000000a0: e4d0 8db9 3446 0b3e c71c cdbd 9053 6b3c
000000b0: 59ec b1bd 015d 293e 5cbb 7abd dafb d03d
000000c0: 7db6 e13d 1f25 0d3e b62d 913d b573 b1bd
000000d0: e296 e83d a176 04bd 263e 25bd ba04 413e
000000e0: 9ec8 e03d 2655 8dbd d6bc 133e 30a3 f0bc
000000f0: 1230 54bd 1630 d1bc 740c 5c3d 726e 833d
00000100: 6769 363d cc4d b33c 00a9 d5bb a55b 373d
00000110: ebc9 023e c639 533c e81d a7bd 0289 c0bd
00000120: 00fe 99bd 4c27 60bd 9c82 79bd 2899 babd
00000130: ab59 053e f58d 1a3d 60e9 c5bd 000d 623a
00000140: 20af 893c a0a1 0cbe 43d0 dabc 2b97 73bd
00000150: d823 ffbc 0a62 f1bd b45f b2bd 0506 123d
00000160: 5c37 e1bd 5030 9cbd 37a2 01bc fd3c 0fbd
00000170: cdbb b3bd 6cea 1c3d 3125 fbbd f1d9 e13d
00000180: ed09 8cbd ade7 08bd cc4b c33d f64f 09bd
00000190: 8bce adbd 20b7 613c c2b5 f1bd b2d1 98bc
000001a0: bc31 283e af9e df3c b982 ea3d 2cfe 45bb
000001b0: 2a89 e2bd f7e6 ac3d 1eba 0ebe 5bc7 e9bd
000001c0: e268 e73d e81a 09bd 3018 db3c 6006 77bd
000001d0: 0bb2 04be d2d1 333d 013d dabd 9678 51bc
000001e0: f110 abbd 0147 17be e307 183e 171d 053e
000001f0: eef9 a1bd 0a03 0d3d 95e6 f43d bc9d c33d
00000200: 5cc5 fb3d 3d0f 2c3e 9393 e5bd a399 39bd
00000210: 5d64 373e ac98 d43c 5597 04be 6a75 abbd
00000220: 4e20 173e 982e f23d 5f7f 0bbe f7c8 4fbd
00000230: 78de d23d e892 0dbe 9a83 d53d 5e05 d23d
00000240: 5814 f0bc a88c 34bd 6ec6 aebd 8c3b 78bc
00000250: 3853 1b3d 262e f5bb 389f b0bc 1705 c0bd
00000260: 7292 33bd a867 f13d f7f5 12be cd41 183e
00000270: 800c 8bbd 90f8 373d 13c9 113e cc37 85bd
00000280: 9010 293e 0f46 323e ba53 56bd 010c 99bd
00000290: 5e44 e13d c098 72bb de8a 7cbd 053f ef3b
000002a0: 11c1 8b3d 247b 9d3d 7e42 d93d bb24 2a3e
000002b0: b85c f6bd 3900 09bd 0a28 80bc f9db ea3d
000002c0: 26ae 65bc e94d b53d 1bb2 28bd 58a3 2ebc
000002d0: 9889 183d 3182 f83d b9b0 9b3d d89d 2e3d
000002e0: 3be0 2c3d 6663 0fbe 3692 913d 0f67 de3d
000002f0: 0272 1f3e 5880 bb3b 5663 0d3e 909a 023e
00000300: 0514 bbbd 0220 a23d 2870 533d 1d93 1e3e
00000310: 7ac1 bd3d 7ec7 bb3d 7299 cdbd bc8b b8bd
00000320: b8e5 473d 8859 fb3d d5b0 683d 6243 bb3d
00000330: 82b9 71bd 1492 1dbe df4c 99bd 308e d6bd
00000340: d773 ce3d df01 12be 3801 1ebd d7f9 053e
00000350: 3816 d43c 1f49 023e a202 823c acda 37be
00000360: 08df b5bd e80b c8bd c752 db3d 4e88 913d
00000370: 7b0a 063e 7629 7ebd a00d f1bb 607a 033e
00000380: 26f5 8a3d 9872 b93c 4e71 4e3d 0043 393c
00000390: 803a b93a b81e 1abe c8fb fdbd b6c9 013b
000003a0: 2140 cd3c 8c4b 1b39 c0c9 5abc b9c0 f23d
000003b0: 7dcd 0d3e b81d ba3c cc2c 6a3d 1c56 383d
000003c0: 69c1 86bd e00c a1bd 6293 c83d e7b1 733d
000003d0: 8261 17be 436a 02bd c685 bf3d 59b6 023e
000003e0: 6066 f03b f1a8 063e 39d7 6cbd facb 96bd
000003f0: a8dd 92bc b243 58bd d41a 923d 735d 113e

hidden_layers.3.bias f4 [42]
0.06887332 0.06561391 0.1308073 -0.01868103 -0.029915838 -0.11232146 0.012771338 -0.14265288
-0.048812427 0.10058806 0.0922085 -0.11537042 -0.15409984 -0.0095778555 0.02672325 0.07517528
-0.053185865 -0.03905331 -0.11484735 -0.060719065 0.040915653 -0.059252523 -0.014536705 0.04826916
-0.055685014 0.071213305 -0.036931902 -0.044457518 0.055563085 0.09073385 -0.06404823 0.076520234
-0.041664556 0.123013936 0.017436951 0.07679854 -0.0825317 -0.101435035 -0.07905829 -0.034770496
-0.06372182 0.08857637
00000000: 750d 8d3d 9660 863d 59f2 053e f608 99bc
00000010: 0f12 f5bc cb08 e6bd e03e 513c 9913 12be
00000020: 8aef 47bd 1d01 ce3d cfd7 bc3d 5447 ecbd
00000030: 59cc 1dbe 70ec 1cbc b8ea da3c 7ff5 993d
00000040: 6cd9 59bd 5df6 1fbd 1635 ebbd 8eb4 78bd
00000050: 2c97 273d c6b2 72bd 5c2b 6ebc e2b5 453d
00000060: f815 64bd 48d8 913d e845 17bd 1619 36bd
00000070: 1e96 633d abd2 b93d b82b 83bd a4b6 9c3d
00000080: 74a8 2abd bbee fb3d f0d7 8e3c 8e48 9d3d
00000090: 6106 a9bd 2cbd cfbd 50e9 a1bd 826b 0ebd
000000a0: 9680 82bd 8767 b53d

output_layer1.weight f4 [40, 42]
0.034950126 -0.0015385494 0.06501712 -0.122892536 0.028974308 -0.107738756 0.07693869 -0.114654444
0.035409212 -0.13649411 -0.06791801 -0.052973576 -0.06400649 -0.04244177 0.054800227 -0.13607511
-0.082213886 -0.13215776 -0.1163798 -0.122688726 -0.071113065 -0.07127587 -0.023537785 -0.13903391
0.019086719 0.12110752 -0.089757524 0.15024115 -0.12691242 -0.16522145 -0.057299532 -0.059476852
0.0557286 -0.14197297 -0.12944445 0.09949577 -0.06878995 0.02194655 -0.0038238033 0.10450323
-0.082576476 0.11030211 0.005246503 0.03982354 0.14128481 0.0074560246 0.083270065 0.01306466
-0.13730213 0.13962585 0.15021364 0.16715524 0.15014297 0.0809907 0.049067467 -0.00011186302
-0.10201819 -0.028929116 0.13910727 0.006039473 -0.054311458 -0.054780606 0.17334515 0.056913387
0.04896462 -0.07031154 0.11510168 -0.0067471243 0.034394037 -0.085151255 0.032340262 0.17780432
-0.11908448 -0.055575356 -0.017039537 0.0091807395 0.042719305 -0.05599544 -0.0561083 0.021889895
0.0103982 0.014050186 0.078861326 -0.024441728 -0.03919971 -0.03485593 -0.008050692 -0.014042832
-0.014114602 -0.09152976 -0.100357056 -0.09565841 -0.087831445 0.08692405 -0.08567389 -0.08611109
0.05798097 0.12975381 -0.020905346 0.01833437 0.0716975 0.104383394 0.027063278 -0.077796504
-0.10852258 0.09828504 -0.050946742 -0.0681922 0.09790759 0.15689054 0.02686607 0.08965719
0.17082281 0.06808651 0.09083979 0.1609615 0.14751308 0.17110349 0.10409106 -0.076142415
0.07705743 0.056486815 -0.0321801 -0.09525542 0.10678442 -0.049036566 -0.0096146995 -0.0807988
0.05012573 -0.10134362 -0.044692997 -0.038734347 -0.12429423 -0.113175295 0.059502363 0.08621058
-0.02470128 -0.0009651035 -0.11437527 0.100841984 -0.10695742 0.053285576 0.0332682 -0.045841493
-0.10854148 0.0348172 0.06520306 0.11798527 0.01545362 -0.05566329 -0.044736505 0.11753573
0.051274687 -0.12921728 -0.10963795 0.10415358 0.11923088 -0.11101487 0.04616669 0.12528832
-0.10636183 -0.046904452 -0.03407233 -0.0012042373 -0.10366303 -0.03793581 0.08563827 -0.12502338
-0.13022631 0.04050429 -0.11384194 -0.016552776 -0.09816998 0.12556972 -0.047896206 0.104444675
0.008589849 0.054990422 0.04837987 0.052320153 0.12026851 0.037598565 -0.060266323 0.099369615
-0.09992325 0.12328482 0.14014745 0.10734642 -0.01853316 0.072637804 0.09679388 -0.09429884
-0.10641815 -0.12026306 -0.019361844 -0.11756563 0.026528511 0.03354036 -0.016743883 0.034021992
0.048668012 0.10807748 -0.02697049 0.09974177 -0.0155701395 0.03099303 -0.049709544 0.093382895
-0.14557031 0.12477716 0.043134175 -0.09140594 -0.019293485 -0.05482933 -0.057874348 -0.071518056
0.13857065 0.1427 0.0050932914 0.18490314 0.14897871 -0.12785621 -0.022045255 -0.015438959
0.14955126 0.08836114 0.083410636 0.11478085 0.032951195 0.056619633 -0.05928311 0.057048738
0.13075453 0.10834575 0.013021901 -0.023127332 0.0075154393 -0.06653212 0.11936627 -0.11114008
0.05996701 0.1752069 -0.0038437992 0.013663484 -0.08280974 0.12938313 0.14075565 -0.10154684
0.034910813 0.05202818 -0.113033295 -0.0037397165 -0.059842497 0.019566009 -0.10539945 -0.160758
00000000: dd27 0f3d 27a9 c9ba b227 853d 15af fbbd
00000010: 875b ed3c 23a6 dcbd 0892 9d3d f3cf eabd
00000020: 4009 113d 1dc5 0bbe 9918 8bbd d2fa 58bd
00000030: d615 83bd 6cd7 2dbd 3476 603d 4657 0bbe
00000040: c15f a8bd 5d54 07be 8858 eebd 3a44 fbbd
00000050: baa3 91bd 15f9 91bd 50d2 c0bc e85e 0ebe
00000060: c05b 9c3c 3807 f83d cbd2 b7bd d1d8 193e
00000070: 54f5 01be d02f 29be eab2 6abd 009e 73bd
00000080: ac43 643d 5d61 11be 168d 04be 70c4 cb3d
00000090: bfe1 8cbd 40c9 b33c c698 7abb ca05 d63d
000000a0: db1d a9bd 13e6 e13d dbea ab3b 021e 233d
000000b0: f7ac 103e ab51 f43b 7f89 aa3d 280d 563c
000000c0: ee98 0cbe 14fa 0e3e 9bd1 193e be2a 2b3e
000000d0: 14bf 193e 74de a53d f8fa 483d 0098 eab8
000000e0: eaee d0bd c1fc ecbc 2372 0e3e c6e6 c53b
000000f0: b175 5ebd a161 60bd 6481 313e 031e 693d
00000100: 208f 483d 7fff 8fbd 6eba eb3d fb16 ddbb
00000110: c3e0 0c3d c863 aebd 3977 043d 5612 363e
00000120: 90e2 f3bd fca2 63bd 8096 8bbc d06a 163c
00000130: 70fa 2e3d 795b 65bd d1d1 65bd 7052 b33c
00000140: 365d 2a3c c032 663c 0c82 a13d 053a c8bc
00000150: e08f 20bd 17c5 0ebd 0de7 03bc e813 66bc
00000160: ee40 67bc f473 bbbd 0088 cdbd 8ee8 c3bd
00000170: f9e0 b3bd 3c05 b23d cb75 afbd 035b b0bd
00000180: 747d 6d3d 2fde 043e b041 abbc f631 963c
00000190: 24d6 923d f6c6 d53d cfb3 dd3c c653 9fbd
000001a0: 1641 debd ab49 c93d 88ad 50bd 5aa8 8bbd
000001b0: c683 c83d eaa7 203e 3c16 dc3c 309e b73d
000001c0: 2dec 2e3e f170 8b3d 360a ba3d 17d3 243e
000001d0: ab0d 173e c135 2f3e b22d d53d 8ef0 9bbd
000001e0: 49d0 9d3d b85e 673d 48cf 03bd 4615 c3bd
000001f0: cab1 da3d 91da 48bd f986 1dbc d779 a5bd
00000200: a350 4d3d 3e8d cfbd 0110 37bd e8a7 1ebd
00000210: f98d febd 73c8 e7bd c0b8 733d 2c8f b03d
00000220: 575a cabc 00ff 7cba 953d eabd 3e86 ce3d
00000230: 7e0c dbbd fa41 5a3d 3c44 083d 4ac4 3bbd
00000240: ff4a debd 7b9c 0e3d 2f89 853d 43a2 f13d
00000250: 2e31 7d3c 31ff 63bd a03d 37bd 93b6 f03d
00000260: 6805 523d 8951 04be dd89 e0bd 794e d53d
00000270: 522f f43d c45b e3bd 4819 3d3d 954b 003e
00000280: 3bd4 d9bd e21e 40bd 6d8f 0bbd 80d7 9dba
00000290: 484d d4bd 9462 1bbd 1e63 af3d 2106 00be
000002a0: 0c5a 05be d4e7 253d f725 e9bd b099 87bc
000002b0: 580d c9bd 5995 003e d02e 44bd 17e7 d53d
000002c0: 70bc 0c3c a33d 613d f829 463d a84d 563d
000002d0: 564f f63d f400 1a3d d2d9 76bd 4c82 cb3d
000002e0: 90a4 ccbd c07c fc3d d082 0f3e 71d8 db3d
000002f0: dbd2 97bc 21c3 943d df3b c63d c01f c1bd
00000300: c2f1 d9bd 7b4c f6bd bb9c 9ebc 40c6 f0bd
00000310: 5252 d93c 9e61 093d 782a 89bc a55a 0b3d
00000320: 1c58 473d ba57 dd3d 38f1 dcbc 6a45 cc3d
00000330: e619 7fbc 18e5 fd3c 3c9c 4bbd 883f bf3d
00000340: 6210 15be 2b8b ff3d 76ad 303d 0a33 bbbd
00000350: 5f0d 9ebc b894 60bd a70d 6dbd 0f78 92bd
00000360: 77e5 0d3e f31f 123e a0e5 a63b 4057 3d3e
00000370: e08d 183e bdec 02be 4098 b4bc b0f3 7cbc
00000380: f723 193e aff6 b43d 32d3 aa3d 3912 eb3d
00000390: d5f7 063d fde9 673d d9d2 72bd f0ab 693d
000003a0: 84e4 053e 60e4 dd3d d059 553c 8875 bdbc
000003b0: 1344 f63b fe41 88bd 4e76 f43d 699d e3bd
000003c0: f89f 753d 7069 333e 40e8 7bbb cedc 5f3c
000003d0: 2798 a9bd 037d 043e 4022 103e caf7 cfbd
000003e0: a4fe 0e3d 801b 553d 007e e7bd 0816 75bb
000003f0: 681d 75bd e548 a03c abdb d7bd bf9d 24be

output_layer1.bias f4 [40]
-0.17861497 0.06338118 0.11434633 -0.14263049 0.12422161 0.19608586 -0.0833189 -0.0694795
0.09963872 0.07672058 -0.07315308 -0.11960383 -0.15637879 -0.008436008 0.10203338 -0.05649269
-0.020878442 -0.1433539 0.15982206 -0.082448 -0.015634457 -0.12264054 -0.13536246 -0.09039736
0.061644707 0.040138233 0.09549925 0.031861015 0.021608757 0.1656373 -0.055479318 -0.119232215
-0.1361677 -0.0011294422 -0.07467728 0.008341045 0.111060746 0.091353655 0.12768975 -0.15652668
00000000: d8e6 36be fecd 813d 692e ea3d ba0d 12be
00000010: e667 fe3d bbca 483e 19a3 aabd 454b 8ebd
00000020: 630f cc3d ae1f 9d3d 48d1 95bd daf2 f4bd
00000030: c321 20be 2f37 0abc e0f6 d03d e164 67bd
00000040: 4409 abbc 5dcb 12be 65a8 233e 7fda a8bd
00000050: d513 80bc f72a fbbd 759c 0abe 4022 b9bd
00000060: 297f 7c3d fd67 243d 1c95 c33d b280 023d
00000070: d904 b13c d39c 293e 483e 63bd 0530 f4bd
00000080: 8c6f 0bbe cb09 94ba 67f0 98bd e1a8 083c
00000090: d173 e33d a017 bb3d 1ac1 023e 8848 20be

output_layer2.weight f4 [1, 42]
0.08123923 0.055567067 0.1171074 0.06495616 0.10622345 -0.023375832 0.0232386 -0.03558212
0.033563986 0.06764103 0.090692945 -0.091206305 -0.019853964 -0.13390395 -0.07534822 0.09122561
0.090838656 -0.039110947 -0.05534179 -0.036933597 0.0040853485 0.038229536 0.09679629 0.100740515
-0.026451215 0.041366793 -0.039554972 -0.025962576 -0.0093023805 -0.020649659 0.14539595 0.06317971
-0.07357025 0.12669338 0.10086824 0.06372095 0.0726785 0.051130995 -0.10837431 0.13741343
-0.02304861 0.17799842
00000000: c160 a63d 4b9a 633d 01d6 ef3d bc07 853d
00000010: ae8b d93d ac7e bfbc e05e be3c 8fbe 11bd
00000020: 647a 093d 6187 8a3d 39bd b93d 5fca babd
00000030: c8a4 a2bc 1e1e 09be 2b50 9abd 7ed4 ba3d
00000040: 9e09 ba3d cd32 20bd 13ae 62bd af47 17bd
00000050: 63de 853b 9396 1c3d 223d c63d 0b51 ce3d
00000060: 38b0 d8bc 3a70 293d 6504 22bd 78af d4bc
00000070: 0369 18bc 7929 a9bc ade2 143e 5d64 813d
00000080: 00ac 96bd e9bb 013e 0294 ce3d 2180 823d
00000090: 77d8 943d bc6e 513d 5af3 ddbd 1bb6 0c3e
000000a0: 70d0 bcbc 3845 363e
