src/models/dynamics_97.pt (torch, 47860 bytes, 13 tensors)

input_layer.weight f4 [42, 42]
000000 fe 0a 6c 3d d1 f2 51 bd 11 a3 10 3e d8 aa 8a 3c
       0.05762767 -0.05125696 0.14124705 0.016927168
000010 9f 04 dc bd 1a 8e 72 3d 03 02 39 bc 9e 04 c0 bc
       -0.10743069 0.05921755 -0.011291984 -0.023439702
000020 87 26 fc 3c bd c8 39 bc 15 c4 18 be 01 d9 94 3c
       0.03078009 -0.011339364 -0.1491855 0.018169882
000030 db 98 89 bd f8 3b 88 3d 61 c1 f7 bd 49 10 92 bd
       -0.06718608 0.06652063 -0.12097431 -0.071320124
000040 9c 0e 53 bd 20 f6 29 3d ff b7 17 3e 8b 48 27 be
       -0.051527604 0.04149449 0.14816283 -0.16336267
000050 c7 cd d4 bd 7c 72 17 be b6 5c 8f 3d 7b 45 cd 3d
       -0.103908114 -0.14789766 0.07000105 0.10023018
000060 1a 06 c2 bd 8c 0f 89 bd d2 b2 97 bd d7 24 02 3e
       -0.0947382 -0.066924185 -0.07407154 0.12709366
000070 06 b3 03 3e 6a 87 63 bc 79 d6 eb bd 0f a9 06 3d
       0.12861261 -0.013887266 -0.11515517 0.03287607
000080 de 54 0a 3e 0c 6f 2f be 70 3d ee bd f4 46 3c bc
       0.13508937 -0.17132205 -0.11632812 -0.011491526
000090 b1 c9 bc 3d ba 57 82 3c 02 4f 08 3d 38 54 f3 bd
       0.09218157 0.015910972 0.033278473 -0.11881298
0000a0 69 42 da 3d c6 53 87 3d 57 4a a2 3d 15 00 03 3e
       0.10657198 0.066077754 0.079243354 0.12793
0000b0 f5 41 7f 3d 9b 30 0c bd 4b 29 35 3d bc 18 00 3e
       0.06231876 -0.03422604 0.044228833 0.12509435
0000c0 ae a8 00 bc 75 cb 30 bc e6 e6 c0 3d 04 26 24 3d
       -0.007852716 -0.010790695 0.094190404 0.040075317
0000d0 f2 5c e2 3d 97 89 cc bb 30 56 86 bd fa d9 ba bd
       0.11052884 -0.006241988 -0.06559408 -0.09123607
0000e0 46 b4 b9 3d 0f ad 02 3e 05 c8 16 3e 58 eb 78 bc
       0.090675876 0.12761329 0.14724739 -0.015192829
0000f0 0a a4 cc 3d 21 36 2a 3d e3 7f 7e 3d 69 58 02 3e
       0.099922255 0.041555528 0.06213368 0.12729038
000100 83 33 aa 3d a0 e0 b7 bd 79 4c 40 bc 6f 45 c5 bd
       0.08310606 -0.08978391 -0.0117369825 -0.09632384
000110 ad 3c 22 3d e0 7e b5 3d 8c f3 36 bd 73 e3 0f 3e
       0.039608646 0.0886209 -0.04466586 0.14051609
000120 36 9e fa 3d 10 00 64 bd 9c 4e a7 bd 65 d7 d8 bd
       0.122372076 -0.055664122 -0.081692904 -0.10587958
000130 c3 5b d4 bd 4f 6d e9 3d 3d 80 ff bc b5 d3 e5 bd
       -0.10369065 0.11397802 -0.031189078 -0.112220205
000140 ac ca 18 bc 62 9e dd 3c e1 8a e1 3d de 49 e4 bd
       -0.0093256645 0.027053062 0.11012817 -0.111469015
000150 26 1e 93 bd 89 0e 08 bc 57 44 09 be be 63 ba 3d
       -0.07183485 -0.008304247 -0.13404976 0.091010556
000160 09 ac 50 bd 17 f8 74 bb 34 b0 6d 3d db 31 58 bc
       -0.050945316 -0.0037379318 0.05802937 -0.01319548
000170 e2 59 09 3e 25 81 b3 3d 9e 8c 11 be 00 e6 53 bd
       0.13413194 0.08764867 -0.14213797 -0.051733017
000180 22 7c f3 bc f8 5e 9d 3d dc 27 9d bc 28 21 b1 3d
       -0.029722277 0.076841295 -0.019184045 0.08648902
000190 f8 8d d1 bd c4 a2 f3 3d 10 40 34 3d 1f 5e d5 39
       -0.102321565 0.118962795 0.044006407 0.00040696652
0001a0 df 99 c7 3d f6 4f 0e bd 4c a2 8d 3d 7d 47 8e 3c
       0.097461455 -0.034744225 0.06915721 0.017368073
0001b0 e6 bc 02 3e 25 c7 a8 bd 2b b4 b3 3d f1 1f 90 bd
       0.12767372 -0.08241109 0.08774599 -0.07037342
0001c0 7b 6f 4b 3c b7 7e 45 bc b8 99 23 3e 6f fd 26 be
       0.012416716 -0.012054137 0.15976608 -0.16307615
0001d0 2e fb 1e 3e a4 d5 42 bb 72 04 4a 3d 8c b5 69 bc
       0.15525505 -0.002972939 0.049320646 -0.014264476
0001e0 b1 09 7b 3d be c2 d4 bd d3 a8 b7 3d 8c b9 23 3e
       0.06128854 -0.103887066 0.089677475 0.1598875
0001f0 8d d5 20 3b 56 96 e9 bd cb 54 04 bd 7d 28 ea bc
       0.0024541349 -0.114056274 -0.032307427 -0.02858376
000200 51 93 ac 3d a8 0e 04 3e 27 0c 81 bd 5d cb 63 3d
       0.08426536 0.12896216 -0.06301146 0.055613864
000210 e3 c3 24 3d 3e 2d 86 bd fe 54 be 3c c8 6d 01 be
       0.040225875 -0.06551598 0.023233887 -0.12639534
000220 b8 e1 b3 3d 3e f0 c2 bd 77 51 7c 3c 16 12 9d bc
       0.08783287 -0.09518479 0.015400282 -0.019173663
000230 b9 d4 af bd c5 99 72 3d 6f 6e a9 3d c8 08 6e 3c
       -0.085854955 0.059228677 0.08273017 0.014528461
000240 5b 48 b3 3d ae ce 09 3e 6f bb 09 be c3 ef 1a 3e
       0.08754035 0.13457748 -0.13450406 0.15130524
000250 15 d4 b0 bc bb 42 fb bd 46 d4 11 3b 7d 99 a3 3b
       -0.021585504 -0.12268587 0.002225177 0.0049926625
000260 4c da 07 3e 97 71 e8 bd d0 fc 9f bd 43 ce 78 bd
       0.13266867 -0.113497905 -0.07811892 -0.06074358
000270 ed 2e b3 bd f4 5e c4 bc 4b 68 2d bd 57 81 65 3d
       -0.08749185 -0.023971058 -0.04233579 0.05603155
000280 79 34 41 bd a8 18 0f be a4 5e 9f 3c 9c 72 80 ba
       -0.047169182 -0.1397425 0.019454308 -0.0009799781
000290 42 ad 1e 3c bc 2e d5 bc 43 e1 84 3c 59 77 01 be
       0.009684863 -0.026023261 0.016220694 -0.12643184
0002a0 c6 93 4a bd 08 ef ae bc 30 de 03 bc dc 4c 09 be
       -0.049457334 -0.021354213 -0.008048579 -0.13408226
0002b0 e1 ac 97 bd f4 28 d3 bd 00 e2 75 ba 00 3c ad bd
       -0.07406021 -0.103105456 -0.0009379685 -0.0845871
0002c0 8f e9 a8 bd 04 e5 40 3d a6 78 0c bd 81 b1 03 be
       -0.08247673 0.047093406 -0.034294747 -0.12860681
0002d0 ae 02 c5 bd 60 06 66 3c 60 07 e1 bc e0 60 ff bd
       -0.09619652 0.014039606 -0.027469337 -0.12469649
0002e0 0a d4 87 bd 90 10 6f 3c 73 67 a0 bd 76 c5 d8 3d
       -0.0663224 0.014591351 -0.078322314 0.10584538
0002f0 9e 81 ec 3d 36 2d 27 bd 8e 75 91 bd 20 bf ff bb
       0.1154816 -0.0408146 -0.071025 -0.0078047663
000300 36 e1 79 bd cb 86 c4 bd 1c 70 2a 3d cc 83 22 3d
       -0.061005794 -0.09596022 0.041610822 0.039676473
000310 6d 10 ed bd 66 db 15 be ba 5e a8 3d 20 9c b1 3b
       -0.115753986 -0.14634475 0.08221193 0.005420223
000320 34 fb a1 3d 02 c0 0e bd 92 2d 9a 3d 66 30 e8 3d
       0.07909241 -0.03485108 0.07528223 0.11337356
000330 ea 0b d6 3d d8 0f 76 3d 52 3e 9f 3d 6a d9 c0 bd
       0.10451491 0.060073704 0.077755585 -0.094164684
000340 5d c3 0d be 80 94 17 bd da cc 93 bc 63 30 03 bd
       -0.13844056 -0.037006855 -0.018042017 -0.032028567
000350 bf cd e9 3c f9 b8 c7 3d e8 cf aa bd 04 4b cb 3d
       0.02854049 0.097520776 -0.08340436 0.099264175
000360 a4 c2 36 3d 79 77 05 be d7 34 bb 3d 0b 9e e5 bc
       0.044619218 -0.13033856 0.09140938 -0.028029462
000370 cc 7e b5 bd 3f e0 44 3d 44 2c ee bd a1 55 f5 3d
       -0.08862075 0.04806542 -0.11629537 0.11979223
000380 b8 59 c9 3c 26 9e e2 bd ab c9 11 be 2f 0b 0d 3a
       0.024578914 -0.11065321 -0.14237086 0.00053803896
000390 8b 22 70 3d 6b 4c f4 bd 07 8f 7c bd f2 d9 82 bd
       0.058626693 -0.11928638 -0.06165984 -0.06389226
0003a0 de ef 2b bd 7d 3c 0b 3e 3c 46 f6 3d 44 eb 04 3e
       -0.041976802 0.13597293 0.12025115 0.12980372
0003b0 63 21 bd bd 74 79 d0 3c 68 18 d7 3d de 9c bb 3b
       -0.09234884 0.025448538 0.10502702 0.005725487
0003c0 5e ff 8d ba 61 ed fd 3c 6f af f0 bd 55 fc a4 3d
       -0.0010833552 0.03099698 -0.11752211 0.08055941
0003d0 c3 08 25 be bf c2 06 3d c7 95 fb 3b 42 fe a8 bd
       -0.16116624 0.032900568 0.007677767 -0.08251621
0003e0 01 5e 0c be 20 e5 6f 3d 8d ea 5b bd fd 08 63 3d
       -0.13707735 0.05856812 -0.053690482 0.055428494
0003f0 46 cc b9 3d b5 80 c8 bd f1 1d 96 bd 55 f8 d4 bd
       0.09072165 -0.09790174 -0.073299296 -0.10398928

input_layer.bias f4 [42]
000000 fa 4e 27 3d 24 9e 11 be 49 60 25 bd c5 2f e4 bd
       0.040846802 -0.14220482 -0.040375028 -0.11141924
000010 82 9f 73 bd 4b 0a 6e bd 80 39 ec bc a1 c5 f4 bd
       -0.05947829 -0.058115285 -0.028836012 -0.11951757
000020 1b ad d0 bc bb 16 86 3d 12 c7 ec 3d 9b 30 88 bd
       -0.025473168 0.06547304 0.11561407 -0.06649896
000030 8a 4a 22 be 6a 77 00 3c 1c 2f 15 3e 29 ac d1 3d
       -0.15848747 0.0078409705 0.14568752 0.10237915
000040 bc 94 1d 3d 9b ca b5 3d 62 88 a4 3c 8c c8 15 be
       0.038471922 0.088765346 0.020084564 -0.14627284
000050 f8 a8 c9 bd af af ba 3d 1a c3 ad bd 8d 6e 41 bb
       -0.09846681 0.0911554 -0.08484478 -0.0029515356
000060 9d 21 a6 3c 7e 0e 6f 3d 18 92 29 3e 49 9c 1b 3e
       0.0202797 0.05836343 0.16559637 0.15196337
000070 2e 34 60 bc 2e b3 87 bd 6a 3d e5 bd 73 8a 20 3c
       -0.013684316 -0.06625973 -0.111933544 0.009798634
000080 54 4c 19 3e 77 47 85 bd 84 71 28 bd 05 3d 09 be
       0.14970523 -0.065077715 -0.041123882 -0.13402183
000090 f0 2b fb bd 00 bf 37 be 9e af 35 3e 96 63 08 be
       -0.1226424 -0.17943954 0.17742774 -0.13319239
0000a0 23 fc 28 bd bd be d6 bc
       -0.04125608 -0.026213998

hidden_layers.0.weight f4 [42, 42]
000000 46 20 d6 3d a7 dd f5 3d 85 a3 3b bd da a1 30 bd
       0.104553744 0.120051675 -0.04581024 -0.043123104
000010 be 51 cc 3d 08 94 78 3d 3a fc 59 3d 32 12 92 3d
       0.099765286 0.06068805 0.053219058 0.07132377
000020 5c bd bd bd ee b4 07 bd b9 e2 b6 bc 64 75 23 bd
       -0.09264633 -0.033131532 -0.022324907 -0.039906874
000030 36 94 fb 3d a3 31 b8 3c 41 a7 f3 bd 12 95 10 bd
       0.12284128 0.022484606 -0.118971355 -0.035298415
000040 0e f1 f9 bd c2 06 81 bd 5d 11 cf bd eb 6a 9a bd
       -0.12204181 -0.06300117 -0.10110734 -0.07539924
000050 10 44 11 3d 40 f5 f8 3d 40 02 e8 bb bb fd a0 3b
       0.0354653 0.12156153 -0.0070803463 0.0049130595
000060 32 47 88 bd fd 65 b7 bd af 91 71 bb a6 c1 cf 3d
       -0.066542044 -0.089549996 -0.0036860516 0.101443574
000070 44 d1 08 3e 01 09 8f 3d d1 60 08 3e d6 a3 d3 3d
       0.13361079 0.06984139 0.13318183 0.103339836
000080 d9 f8 2a 3d a6 66 09 be 66 ae 00 bd 57 ba 18 3e
       0.041741226 -0.13418064 -0.03141632 0.14914833
000090 f8 d0 8b bc ec 86 07 3d b1 4e 7a 3d b6 79 f2 3d
       -0.017067418 0.033087656 0.061110202 0.11839621
0000a0 de ed c5 bd a9 84 09 3e b6 c2 8d bd 96 54 36 3d
       -0.0966451 0.13429512 -0.06921904 0.04451426
0000b0 0d cb 7d 3c 8f e5 b9 3d e2 4c c0 bd 67 67 1b 3e
       0.015490306 0.09076988 -0.09389664 0.15176164
0000c0 a5 03 02 3e a8 86 e8 bd 42 38 dc bc e7 6d 53 3c
       0.12696703 -0.11353809 -0.026882295 0.012904621
0000d0 24 07 44 3d 1d 48 67 3d ad 8a f1 3d c0 99 d3 3d
       0.047858372 0.056465257 0.117940284 0.1033206
0000e0 ed 14 2d 3e ba 8d 0f 3d e8 3b 2b 3e 58 3f 81 3d
       0.16902514 0.03504727 0.16722071 0.0631091
0000f0 e9 a1 0e 3e 48 58 14 be 69 41 a1 bd 70 32 2c bd
       0.13928951 -0.14486802 -0.07873804 -0.04204029
000100 80 9d b7 ba 38 17 fb 3c 70 ea 42 bd 2c fa 15 bb
       -0.0014008731 0.03065072 -0.04758686 -0.002288471
000110 16 34 13 3e 5f 02 82 bd f1 bb 95 3c a1 89 95 bd
       0.14375338 -0.063481085 0.018278094 -0.07301641
000120 3a ec 35 bd f3 9b 8f bd 8a 59 8e 3d 39 27 d6 bd
       -0.044414736 -0.07012167 0.06950672 -0.104567
000130 d4 bb 41 bd 70 1d 9a bc f0 09 4d 3d 91 52 36 bd
       -0.047298267 -0.018812865 0.050058305 -0.044512335
000140 53 c3 db bc fa 1e b9 3d 9f 81 0c 3e be 3d 91 3c
       -0.026826536 0.090391114 0.13721322 0.017729636
000150 fc 32 ce 3d 93 86 31 bd 36 b1 dc 3d e3 29 ab bd
       0.10068318 -0.04334123 0.10775988 -0.08357599
000160 e8 ac 8f bd 00 21 0e 3e 7b 20 09 3d 80 95 c4 ba
       -0.07015401 0.13879776 0.03347824 -0.0014998168
000170 ae 76 59 bd ac 17 5c 3d c8 14 20 3e 26 18 02 be
       -0.053091697 0.053733513 0.15632927 -0.12704524
000180 b3 0c 09 3d da 9c 47 bd 21 b4 18 be f6 5b f1 ba
       0.033459377 -0.04873357 -0.14912464 -0.0018414247
000190 c7 9c e0 3c b8 a9 ee bc e9 0a f1 3d c2 56 53 3c
       0.027418507 -0.029133663 0.11769659 0.012899103
0001a0 84 9a 94 bd 71 dc 83 bd 68 f3 ee 3c 14 3b 96 bd
       -0.07256034 -0.0643853 0.0291688 -0.07335487
0001b0 3e d5 76 bd a9 10 0c be fd 70 1f 3e 57 1b 5e 3d
       -0.060261957 -0.1367823 0.15570445 0.054225292
0001c0 38 91 eb 3c fe a9 72 bd b0 e3 d9 3c 11 0f 43 3d
       0.02875577 -0.05924415 0.026597828 0.04762179
0001d0 0d 86 dc 3d d7 15 4d 3d 6b 3e 08 3e b0 e2 01 be
       0.10767756 0.050069656 0.1330506 -0.1268413
0001e0 ea ed bf 3d 82 7b 00 be 7d 8e dd 3b 6e 91 d5 3d
       0.093715504 -0.12547114 0.0067613707 0.10428129
0001f0 dd 32 c2 3d dc 81 3c bd 13 c9 b5 3d 44 38 22 bd
       0.09482358 -0.04602228 0.088762425 -0.03960444
000200 70 5a 1d be fe 12 7a bd 9b 1c 00 3e 5e 73 9b 3d
       -0.1536653 -0.06105327 0.12510912 0.07590364
000210 ed d7 9f bd 78 47 47 3d a9 9c 07 3e f2 18 11 3e
       -0.078048564 0.048652142 0.13243355 0.14169672
000220 ad 37 54 bd e1 a1 2f 3e 32 d7 c1 3d 2e 7a 45 3d
       -0.05181091 0.17151596 0.094648734 0.048212223
000230 e9 a4 ce 3d ca 4e 2d 3e f7 84 e4 3c 23 86 c0 3d
       0.10090048 0.16924587 0.027895434 0.094005845
000240 85 b0 1b ba 48 98 86 bd a9 f2 f3 3d cc fc d7 bd
       -0.0005939084 -0.06572014 0.11911518 -0.10546264
000250 2e c5 99 bd 62 a6 77 3d 83 88 07 3c 42 57 2c 3e
       -0.07508312 0.06046141 0.008272293 0.16830161
000260 16 2f 0f 3e aa 4d 21 bd d2 1e 22 bd 5e 7a 01 3e
       0.13982806 -0.039380707 -0.039580174 0.12644336
000270 f4 f5 8c 3d da 4a 2f be 5a ee 04 3d 7f 6e 44 bc
       0.06882849 -0.17118397 0.032453872 -0.011989235
000280 c4 1c 31 3d b0 0a 85 bd 90 8f e7 bc c1 0b d0 3d
       0.043240324 -0.06496179 -0.028266698 0.10158492
000290 93 0b 40 3d a6 eb 9f 3d ca 84 98 bd 6a ab ea bb
       0.046886038 0.07808618 -0.074472025 -0.0071615474
0002a0 86 2d d0 bc 5a 3c 0f bd b3 77 5a bc 2f cf bb bd
       -0.025412332 -0.034969665 -0.013334203 -0.091703765
0002b0 70 39 b4 bc fb 90 89 3d 6c 09 d0 bd 0e b4 82 3d
       -0.022000045 0.06717106 -0.10158047 0.06381999
0002c0 dd b4 de bd f3 e5 be 3d 5f f5 a5 3d 9a 91 4f bd
       -0.10874341 0.09321203 0.081034414 -0.050675966
0002d0 26 67 1f 3e e7 1f 67 3c 05 44 ac bd ba 87 02 3e
       0.15566692 0.014106727 -0.08411411 0.12747088
0002e0 d6 15 d7 3d b7 03 ab 3b 1d 72 1f bc 7c 0d 22 3d
       0.10502212 0.0052189487 -0.009731797 0.03956364
0002f0 70 8a 04 bd 5c 8b 9c bc d0 6b 2b 3c 32 12 ce bd
       -0.032358587 -0.01910942 0.010462716 -0.10062064
000300 61 00 64 3d 8d 51 ab bd a7 cd 9d bd 57 23 d2 3d
       0.055664424 -0.08365164 -0.07705241 0.10260647
000310 9d 55 0a 3d 9e ff bd 3d 58 49 8e bd 98 2f 31 3d
       0.033773053 0.09277271 -0.06947583 0.04325828
000320 84 f4 dd 3d fb fe af 3d 94 45 df bc 9a 2f f5 3d
       0.10837653 0.085935555 -0.027254857 0.1197197
000330 21 c6 b9 bd 92 70 42 3a 95 3f 3b 3e 52 4f bd bd
       -0.09070993 0.0007417287 0.18285973 -0.09243645
000340 3f e3 76 bc 9a 30 26 3e 97 81 fc 3c f3 3a 22 bd
       -0.015068828 0.16229478 0.030823512 -0.039607
000350 8c 86 95 bd 1f 3e 02 3d e7 95 1a 3e ae b7 fe 3d
       -0.073010534 0.031797525 0.15096246 0.12437378
000360 d1 34 ca 3d 20 c9 c9 3c e2 39 d4 bd 18 ef 08 be
       0.09873355 0.024632037 -0.10362603 -0.13372457
000370 58 32 0b 3e a5 e8 88 bd c6 88 2d bd 5e 91 fd 3c
       0.13593423 -0.066849984 -0.042366765 0.030953106
000380 df de 1b 3e 24 ce 19 bd 78 3a d3 3d 3e d9 70 bd
       0.15221737 -0.037550107 0.103138864 -0.05880093
000390 f8 bd 35 3e 17 be 0c be d5 15 c2 bc ec 73 74 3d
       0.17748249 -0.13744389 -0.023692051 0.059680864
0003a0 48 15 16 3d 2d 8e b2 bd 8d d3 46 bd bd 3e 31 3e
       0.03664139 -0.08718524 -0.048541594 0.17309089
0003b0 8b 05 7c 3c b8 9b ef 3c d2 07 16 bd e9 06 e6 3c
       0.015382181 0.029249057 -0.03662855 0.028079467
0003c0 30 eb 99 bc 8a 21 a5 3d 55 b4 a5 3c 5c 4a 71 3c
       -0.018788904 0.08063038 0.02022759 0.014727201
0003d0 11 c2 cd 3d d9 dd 0e 3e c0 65 4b bb cf 2f 06 3c
       0.10046781 0.13951816 -0.003103599 0.008190109
0003e0 26 bb f6 3d 40 1c 2d bc 54 67 e1 3d 9c 49 28 3c
       0.120474145 -0.010565817 0.110060364 0.010271456
0003f0 03 94 a2 bd 84 45 b6 3d 52 f5 17 be 5d 28 c4 3d
       -0.07938387 0.08899978 -0.14839676 0.09578011

hidden_layers.0.bias f4 [42]
000000 82 8e 0b 3e 2d c8 0a 3e cd 29 10 be 99 92 23 3e
       0.13628581 0.13552924 -0.14078446 0.15973891
000010 d5 8f 2f 3d 38 5c f2 3d 9e 2a 35 3e 29 28 c4 3d
       0.04286178 0.118339956 0.17692038 0.095779724
000020 05 cb 0c be ef 1f 5e bd 10 b5 fa bd a9 29 94 bd
       -0.13749321 -0.054229673 -0.12241566 -0.072345085
000030 58 57 3b 3e f7 a5 8c 3c e3 92 00 3e a1 4f 4d 3d
       0.18295038 0.017168982 0.12556033 0.05012477
000040 6e 25 12 bd 38 95 8c 3d 28 c6 c8 3d 95 a2 15 be
       -0.035680227 0.06864399 0.0980342 -0.14612801
000050 b9 39 b9 bc 3e ff 45 bd 84 f8 e7 3c ac 5a f1 bd
       -0.022610532 -0.04833912 0.028316744 -0.117848724
000060 70 53 d1 3d 2b 5f 09 be 9a 6d f4 3d aa cf 33 3e
       0.102209926 -0.1341521 0.11934967 0.17559686
000070 0b d5 81 3d c4 0d f3 3d ac 12 e2 bd f8 49 0a 3e
       0.06339463 0.1186786 -0.11038718 0.1350478
000080 d4 08 8c bd af 9b 8b bd 1b 3e b6 bc 3c cb 6b 3c
       -0.06837621 -0.06816804 -0.022246411 0.014391717
000090 c9 90 0a be dc 81 e2 bd 3a fa ab 3d aa 0c 5a bd
       -0.13531794 -0.11059925 0.08397336 -0.053234734
0000a0 b6 6e 88 3d 39 ec d2 3d
       0.066617414 0.10298962

hidden_layers.1.weight f4 [42, 42]
000000 93 88 8a bc ab 97 8b 3d 1f 37 bd bd 7d d7 f1 3d
       -0.016910827 0.06816038 -0.09239029 0.11808679
000010 b6 23 49 bd 76 ce ad bd d9 e2 cc 3d b5 35 1c be
       -0.049106322 -0.08486645 0.10004205 -0.15254863
000020 ca e3 ca 3d 4e 84 e7 bd 1e ad bd bd d4 98 36 3d
       0.099067286 -0.11304532 -0.09261535 0.044579342
000030 ed 30 d2 3d 74 79 52 bd 08 4e 07 bd b9 d2 e8 bd
       0.10263238 -0.051385358 -0.0330334 -0.11368317
000040 38 87 0f 3d 12 73 6b 3d 1f 28 fe 3d 10 8e 58 3c
       0.035041064 0.057482786 0.12409996 0.013217464
000050 2a 41 45 bd 56 c0 38 bd c0 fd 94 bc ca 2d 68 bd
       -0.04815785 -0.0451053 -0.018187404 -0.056684293
000060 4f 32 76 bc e8 a1 11 bd 99 9d e8 bc b1 ff 58 bd
       -0.015026643 -0.035554796 -0.02839546 -0.05297822
000070 b2 2b bc 3d 51 ad d7 3d ee c9 1b be 3b d9 67 bd
       0.09188022 0.10531104 -0.15213749 -0.05660365
000080 de cb 6a bd 0b 4a 2e 3d d0 08 22 3d 0a 46 a4 bc
       -0.05732333 0.04255108 0.039559186 -0.020052928
000090 80 c8 d2 3a 47 5b 0d 3e 0d 1c ee bd 80 a0 20 3b
       0.0016081482 0.13804351 -0.11626444 0.0024509728
0000a0 46 a8 91 3b 95 e5 bf bd 9c b1 06 be 61 d4 56 3d
       0.0044451086 -0.09369961 -0.1315369 0.052448634
0000b0 62 b2 d4 3d 64 93 8e bd 12 d3 08 bd 3d a7 21 be
       0.10385586 -0.06961706 -0.033404417 -0.15786453
0000c0 6c ea 16 3d 0e 5b bf bd b0 fd 62 3c c7 b2 41 bd
       0.036844656 -0.09343539 0.013854429 -0.047289636
0000d0 dd 9b 06 3e bd 8f 03 3e ae a6 11 3c a8 ea a7 bd
       0.13145395 0.128478 0.008889837 -0.08199054
0000e0 3c cc 6a 3d 8a 34 b0 3d 70 bb f6 3c a0 e1 26 3d
       0.05732368 0.08603771 0.030118674 0.040742517
0000f0 8a fe b5 3d 90 0d 7f 3d 61 ee 96 bc e0 fb 7f 3c
       0.0888644 0.062268794 -0.018424215 0.0156240165
000100 fe e6 fe 3d 6c 21 0d 3d f7 20 da bc 4a 78 a1 3d
       0.12446402 0.0344557 -0.026627047 0.078842714
000110 db fb 9a 3b 07 69 d9 3d be bd 9a bd 83 26 9c 3b
       0.0047297305 0.106157355 -0.07555722 0.004765333
000120 20 7b ed bc 43 2d e7 3d e0 e8 92 bb 2e ce e3 b9
       -0.028989375 0.1128793 -0.0044833273 -0.0004345043
000130 9f c9 2e be 79 6d ad 3d 82 80 9d bd 24 c5 66 bd
       -0.170691 0.08468146 -0.076905265 -0.05634035
000140 b4 3c a8 bb 77 c0 6b bc 35 cd d4 bd bf 04 66 3d
       -0.0051341895 -0.014389149 -0.10390703 0.05615687
000150 dd c5 ce b9 b2 8a f6 3d 19 6b a5 3c 2a ca af 3d
       -0.00039438801 0.12038173 0.02019267 0.085834816
000160 d1 43 88 bd af 48 c7 bc 50 1a ca bd fe 80 db 3d
       -0.0665356 -0.02432665 -0.098683 0.10717963
000170 80 a9 04 3d a0 40 c6 3d 08 9d ad 3c 91 39 d8 3d
       0.03238821 0.09680295 0.021193042 0.10557855
000180 fb b1 a9 bd 8c d4 7f 3d 24 aa bd 3d ac e3 e0 bd
       -0.082859 0.06245856 0.092609674 -0.10980925
000190 c0 bc a1 bd 81 c3 c5 bd f0 f7 21 3e 66 25 13 bd
       -0.07897329 -0.0965643 0.15817237 -0.035924338
0001a0 ef 20 51 bd 94 ef 24 3d da 82 15 3d 18 d9 f1 bd
       -0.0510568 0.040267542 0.036501743 -0.118089855
0001b0 1e 68 36 3e 86 0b c3 bd 70 31 25 3e 84 aa 38 bd
       0.17813155 -0.09523682 0.1613214 -0.04508449
0001c0 07 d5 bd 3c 48 31 fc 3d a3 8b 9f 3d b2 d2 30 3e
       0.023172868 0.12314087 0.077903055 0.17267874
0001d0 8d 13 30 3d fb 2e f0 3d db e9 88 bd e5 a5 b7 3d
       0.042987395 0.11727711 -0.066852294 0.08967189
0001e0 84 88 c3 bd 00 50 f2 3a 13 fe 05 bc 2a 7a 20 3e
       -0.09547523 0.0018486977 -0.008178252 0.15671602
0001f0 b9 fc b8 3d e9 0f 01 bd 0f b7 13 3e 82 ac 0d be
       0.09032578 -0.031509314 0.144253 -0.13835338
000200 82 64 ee 3d 00 fc de ba a1 74 00 3e 80 00 bc 3b
       0.11640264 -0.0017012358 0.1254449 0.0057373643
000210 3e 47 bf bd 00 46 11 3b 28 57 fd bd d4 f2 2c 3d
       -0.0933976 0.0022166967 -0.12370139 0.042223766
000220 10 78 ed 3c 3e ab ed bd 80 01 0c 3c 55 9f 82 bd
       0.028987914 -0.116049275 0.0085452795 -0.063780464
000230 2a c1 f1 3d a0 3a 70 bc 51 a9 0b 3e 18 ee 94 3c
       0.11804421 -0.014662415 0.13638808 0.018179938
000240 b8 71 a4 3d 33 6f 19 3e 5a cc c7 3d ec 95 48 3d
       0.08029503 0.14983825 0.09755774 0.0489711
000250 a0 ea 2e 3c 54 c7 16 3d 8e 74 de 3d 2f 7e 09 3e
       0.010676056 0.036811188 0.10862075 0.13427041
000260 0a 86 f9 bd b8 c4 9f bd 28 54 ef 3c 24 ae 2c 3d
       -0.12183769 -0.07801193 0.029214934 0.04215826
000270 16 3c 66 bd 1f ea 1a 3e aa 00 0c be 56 dd cd bd
       -0.056209646 0.15128373 -0.13672128 -0.10051982
000280 60 43 e7 3b d8 a3 cf bc 9f bf 81 bd 2a 45 eb bd
       0.0070575923 -0.025346681 -0.06335377 -0.114878014
000290 80 af 35 3d 6a d9 dd 3d 28 cb 1a be 30 18 08 be
       0.044356823 0.10832484 -0.1511656 -0.13290477
0002a0 21 e6 e2 3c 27 34 01 3e de c5 a7 3d ab 5c 0f 3e
       0.027697625 0.12617551 0.08192037 0.14000194
0002b0 8e 7b 13 3e ea 03 bd 3d c3 4e 66 bd ed f3 f8 bb
       0.14402601 0.09229262 -0.056227457 -0.0075974376
0002c0 97 44 c9 bd 8e d8 59 bd ce 09 f4 bd a0 aa 93 3d
       -0.098275356 -0.05318504 -0.119159326 0.072102785
0002d0 6d 9a fd 3d 7f 8a 1e 3e ab 72 d9 bd 1f 8d 5a bd
       0.1238297 0.1548252 -0.10617574 -0.05335724
0002e0 60 33 8d bb 27 b4 f2 bd ce bb 77 bd 1b a7 00 be
       -0.004309103 -0.118507676 -0.06048184 -0.12563746
0002f0 0d 4b 03 3c ba e4 c5 3d db 81 0f be 17 d3 c9 bd
       0.008013499 0.09662767 -0.1401438 -0.09854715
000300 d9 85 1f 3e e7 fa 9a bd 86 5d 3f bd 06 2a c8 3d
       0.15578403 -0.07567387 -0.04672005 0.0977364
000310 96 f3 93 3c 19 e1 10 bd 3f 12 d4 bd ab 0f a1 3d
       0.018060487 -0.03537092 -0.10355043 0.078643166
000320 f9 90 e1 bc e5 41 e7 bc 04 c6 49 3d 7b 38 99 3d
       -0.027534949 -0.028229663 0.049261108 0.07481476
000330 a3 3f 98 bc c5 e1 9a bd 18 ea 10 3e 2d a3 0a bd
       -0.018585032 -0.07562593 0.141518 -0.033847023
000340 db 46 26 3e fc b1 ef 3c 62 45 f2 bd 2d ce 4b bd
       0.16237967 0.029259674 -0.1182964 -0.04975717
000350 66 d9 f3 bd f7 5a 93 bd 83 39 67 bd 73 b3 ed bd
       -0.119067 -0.071950845 -0.05645133 -0.11606493
000360 fe d3 13 3d 73 4e d0 bc 78 3e af bc 15 70 f1 3c
       0.036090843 -0.025428033 -0.021392092 0.02947239
000370 b4 a3 fc bd 75 c9 09 3e 66 99 87 3d ac 0d ee 3a
       -0.123359114 0.13455756 0.06621055 0.0018162034
000380 6e b0 ca 3d ec 4a a1 3d a0 77 2b 3c 69 c6 87 3d
       0.098969325 0.07875618 0.010465533 0.066296406
000390 c2 87 d0 bc 2c f7 cf bd 72 c4 f0 3d 80 4a 9b ba
       -0.02545536 -0.10154566 0.11756219 -0.0011847764
0003a0 42 c0 86 3d 34 36 35 bd 43 d6 bf bd c0 39 68 bd
       0.06579639 -0.044241145 -0.09367039 -0.0566957
0003b0 eb 31 96 3d 31 1c 30 be c5 06 9d 3c 92 45 5b bd
       0.0733374 -0.17198254 0.019168267 -0.053533144
0003c0 b6 b7 f3 bd 28 30 0e bd 35 20 98 bd 53 30 f3 bd
       -0.119002745 -0.034713894 -0.07428018 -0.118744515
0003d0 fd f2 f6 3d 8b 9c 07 3e fc 5a 9d bd fd ad 8b bd
       0.12058065 0.1324331 -0.076833695 -0.06820295
0003e0 fb e8 ae bd 5e c0 ee bd c4 e7 13 be c8 e1 01 3e
       -0.08540531 -0.11657785 -0.1444388 0.12683785
0003f0 ca 92 90 3d 7a 20 65 3d ff ff 20 be 2c be 9f bc
       0.07059248 0.055939175 -0.15722655 -0.01949986

hidden_layers.1.bias f4 [42]
000000 6b 7e 1c bd cf 6d ea ba 3d d7 3d 3e 4d 86 98 bd
       -0.0382065 -0.0017885509 0.18539138 -0.07447491
000010 c5 cf a9 3d 78 65 3a 3d 99 59 38 bd a8 53 35 bd
       0.08291582 0.045506924 -0.045007322 -0.044269234
000020 9c 5a e4 3d fd f9 e9 3d fa c2 7c bd ab 0b 6a 3b
       0.11150095 0.114246346 -0.06170938 0.003571252
000030 41 a7 04 3e b2 00 66 bd b0 c3 19 be 9a d6 d2 bd
       0.12954427 -0.056153007 -0.15016055 -0.10294838
000040 84 2d bd bd e9 01 87 bd db 06 92 3d bf af 07 be
       -0.09237197 -0.06592161 0.07130214 -0.13250636
000050 83 e0 09 3e 42 91 8b bc 80 d5 bc bd 86 62 08 bd
       0.1346455 -0.017037038 -0.092204094 -0.033297084
000060 0f c8 c1 3d 85 e5 8e bb 04 39 71 bd 3c 41 49 bd
       0.09461986 -0.004360857 -0.058892265 -0.049134478
000070 fe 7d 25 bb 66 44 1c be e2 c8 05 be 8e 22 d2 bd
       -0.00252521 -0.15260467 -0.13064912 -0.10260497
000080 ff b8 0b be 94 51 9f 3d e9 0a 8b 3d d1 3d 8f 3d
       -0.13644789 0.07779232 0.0678919 0.069942124
000090 dc 69 25 3d ea f6 04 3d fd e2 a4 bd 42 05 dc bd
       0.04038416 0.032462038 -0.08051107 -0.1074319
0000a0 a9 02 b4 3d db 45 fd bd
       0.0878957 -0.123668395

hidden_layers.2.weight f4 [42, 42]
000000 82 11 ee 3d 38 54 3e 3d e8 3a 14 3e c2 01 e9 3d
       0.11624433 0.046467036 0.14475596 0.113772884
000010 39 b2 1a 3e 28 9c 27 3d f5 f6 1b 3e 70 1d 9d bd
       0.15107049 0.040920407 0.15230925 -0.076716304
000020 eb 62 2b 3e dc 92 4f 3d 04 2c ba bd 3b 61 0d be
       0.16736953 0.050677165 -0.090904266 -0.13806622
000030 ea d4 05 3d ce e5 18 bd 18 50 c2 bc c8 67 60 3d
       0.032673754 -0.037328534 -0.023719832 0.054786474
000040 d0 8b 24 bc a9 4f 13 3d bc 0e d0 3d 99 87 cb 3d
       -0.0100430995 0.03596464 0.1015906 0.099379726
000050 70 d2 26 3e d8 8d 5a bc 5d 91 ad bc 19 16 03 3e
       0.16291213 -0.013339482 -0.021187479 0.12801398
000060 96 7d d8 bd 22 b4 c7 3d f0 c9 83 bd 58 53 8f 3d
       -0.105708286 0.097511545 -0.06435001 0.069983184
000070 ad ff a2 3c 84 c3 cf bd ce a9 d2 3d 42 cf dc 3d
       0.019897306 -0.101447135 0.10286294 0.10781719
000080 b8 15 15 3d c1 f8 95 bd 68 6c 20 3d 45 0f 11 be
       0.036397666 -0.07322837 0.039165884 -0.14165981
000090 97 52 f5 ba 03 20 01 be d3 2c 28 bd 68 35 85 3d
       -0.001871663 -0.12609868 -0.041058373 0.06504327
0000a0 df b2 0e 3e 80 56 d6 3c 20 9f fb bc 90 23 a8 3c
       0.13935421 0.026164293 -0.030715525 0.02052477
0000b0 70 6c df bc 22 9f ed 3d 0c 95 7d 3d c8 4a ba bd
       -0.027273387 0.11602618 0.06190972 -0.09096295
0000c0 9b 50 0f 3e 24 2f dd bd d8 cc 9b 3c d0 07 25 3d
       0.13995592 -0.10800007 0.019018576 0.040290654
0000d0 28 55 81 3c 80 c9 f3 3c c0 41 21 3c 8d ac b2 bd
       0.015787676 0.029759169 0.009842336 -0.08724318
0000e0 50 4b 00 3d 28 d0 01 3d c0 ce 02 bc dc 1a ba 3d
       0.031321824 0.031692654 -0.007983863 0.09087154
0000f0 4e fd e9 3d 60 02 f0 3b cc c1 ca bd e4 1a 17 be
       0.11425267 0.007324502 -0.09900245 -0.14756352
000100 3e ed 82 3d 64 a6 26 bd 08 c3 bc 3c ca 76 e5 3d
       0.063929066 -0.040686026 0.023042217 0.11204298
000110 2a c6 d8 3d 5c 1a f7 bd 96 bb 4c bd 9b 9b de bd
       0.10584672 -0.120655745 -0.049983583 -0.10869523
000120 3f e0 a6 bd 58 65 57 bd ba 85 e6 3d ed 6c 9a bd
       -0.0814824 -0.052586883 0.11255975 -0.07540307
000130 34 bc b0 bd f4 3a 74 3d c5 84 00 be e8 d9 9c 3d
       -0.08629647 0.059626535 -0.12550648 0.0765875
000140 44 8e a5 3d 9f 8d 02 3e 08 76 89 bc 95 c2 07 3e
       0.08083776 0.12749337 -0.016779914 0.13257821
000150 e3 8d 07 3e ac 67 9d 3d 71 ff cb 3b 9a d3 db 3d
       0.13237719 0.076857895 0.0062255193 0.10733719
000160 73 fb 23 be 80 cb 83 3c 00 3a b8 39 06 20 62 bd
       -0.16013889 0.016088247 0.00035138428 -0.05520632
000170 43 6d ea bd 72 9f 2d 3d 79 b8 0a 3e 31 37 80 bd
       -0.11446621 0.042388387 0.13546933 -0.06260527
000180 d8 45 15 bd f9 9f 84 3d 9f 4f 15 be 0e eb f0 bd
       -0.03644356 0.06475825 -0.14581154 -0.11763583
000190 b8 e5 9d 3d fa fa f8 3d ca 0b 8d bc 0b c3 d7 bd
       0.07709831 0.12157245 -0.017217536 -0.10535248
0001a0 a3 eb 70 bd 34 17 93 bd e0 54 e0 3d a4 ae 5c bd
       -0.05881847 -0.0718216 0.109536886 -0.053877488
0001b0 75 49 74 3d f0 55 3a bc 08 59 de 3c 4b 2a 16 3e
       0.059640367 -0.011373028 0.027142063 0.14664571
0001c0 1f cc ec bc a8 c3 e0 bd 30 c7 71 3d 02 29 1e bd
       -0.028905926 -0.109748185 0.05902785 -0.038613327
0001d0 c1 18 17 3e 6d ad 07 3e 51 8f 02 3e 13 d4 0d 3e
       0.14755537 0.1324975 0.12749983 0.13850431
0001e0 57 b8 f6 3d 1f 14 83 bd 6e 3a 59 bd 52 ab 9b bd
       0.12046879 -0.06400322 -0.05303424 -0.07601036
0001f0 33 5b 2c bd 2d 1a 0d 3e 8b 6e 02 3d 5a d3 eb bd
       -0.04207916 0.13779517 0.031843703 -0.115149215
000200 64 e5 54 3d 4a cd b1 3d 14 17 2f 3e 62 98 80 bd
       0.051976576 0.08681734 0.17098647 -0.06279065
000210 fa 53 21 3e 4e f3 db 3d 1e 56 31 3e 04 8c 31 3e
       0.15754691 0.10739766 0.17318007 0.17338568
000220 ec 90 1d be fa c6 33 3d 8b f0 63 bd fc 1c e8 bc
       -0.15387315 0.04389093 -0.05564932 -0.028334133
000230 94 80 25 bd 52 8a 25 bd b6 a5 6e bd 27 a0 bd bd
       -0.040405825 -0.040415116 -0.058263503 -0.09259062
000240 61 c7 cd bb a3 30 15 3d e4 43 31 bc d8 7e f2 bc
       -0.0062798713 0.036423337 -0.010819409 -0.0296015
000250 1d 15 0d 3e 9f a3 d8 3d 4d 73 cb bd d4 44 01 be
       0.13777585 0.10578083 -0.09934101 -0.12623912
000260 56 e6 9e 3d 50 1b 39 bd db 86 e7 bc 3e d8 01 be
       0.07758777 -0.045192063 -0.028262546 -0.12680146
000270 60 da e1 bd a0 09 a7 3b a8 73 78 3d b3 4c 11 3e
       -0.1102798 0.005097583 0.060657173 0.14189415
000280 5f 4d 17 3e a6 04 49 bd a9 72 42 3d 33 36 d8 bc
       0.14775608 -0.0490767 0.04747263 -0.026393032
000290 f4 70 3d 3d 90 41 6b bd e6 7b de 3d 36 80 09 be
       0.0462503 -0.057435572 0.108634755 -0.13427815
0002a0 68 3d b2 3c 6a ef 14 bd 03 be ea 3d 9a 53 ca 3d
       0.021757796 -0.036361136 0.11462023 0.09879227
0002b0 7f 1c d0 3d 8f ea e0 bd 66 9c 97 3d 6f d6 06 be
       0.10161685 -0.109822385 0.074028775 -0.13167737
0002c0 4e b8 50 bd d9 6b ee bd 70 2a c2 bc 6d 57 d2 bd
       -0.050957017 -0.11641664 -0.023701876 -0.102705814
0002d0 f6 38 15 bd 89 d0 02 be 25 30 09 3e d8 de 1d bd
       -0.036431275 -0.12774862 0.13397272 -0.0385426
0002e0 52 77 f6 3d 1a 07 b6 bd c1 c1 ad bd 20 24 55 3d
       0.12034477 -0.08888073 -0.08484221 0.052036405
0002f0 e4 53 88 bd 50 cb 6b bd 4a 73 04 3d aa a6 79 3d
       -0.06656626 -0.05756694 0.03233651 0.06094996
000300 4c 53 f4 3d e1 59 08 be ae 5b 5d bd 18 32 80 3d
       0.1192995 -0.13315536 -0.05404251 0.062595546
000310 08 7d af bd b8 b6 d3 3c 4a 5c 06 be 00 8e 34 3b
       -0.0856877 0.025843963 -0.13121143 0.002755046
000320 4a 99 d7 3d af 19 b2 3d 2b c6 10 be c0 a4 0a be
       0.105272844 0.08696305 -0.14138095 -0.1353941
000330 57 ee e0 bd 98 1e e3 bc 42 9b db bd fe c4 bf 3d
       -0.1098296 -0.02772455 -0.107229725 0.09363745
000340 da 90 f0 3c 40 80 c2 3b db 67 95 bd a2 b8 ac 3d
       0.029365946 0.0059356987 -0.072951995 0.084336534
000350 69 7c e4 bd f8 73 e1 bc 80 a6 ea bd e9 fb bd 3c
       -0.11156542 -0.027521119 -0.114575386 0.02319141
000360 cb f4 d8 3d 2e 54 f0 bd e7 30 de 3d d5 fb 64 3d
       0.105935656 -0.11734806 0.10849171 0.05590423
000370 18 31 e1 bc 20 c4 f5 bd 40 59 33 3e 6b ff 99 3d
       -0.02748923 -0.120002985 0.17514515 0.0751942
000380 80 cc 0d bc b8 be 34 bd 47 e2 07 be db 8a f8 bd
       -0.008654714 -0.044127196 -0.13269912 -0.121358596
000390 0a 28 b1 bd 8b a7 f0 bd 72 40 61 3d 3e cf db bc
       -0.08650215 -0.11750706 0.0549931 -0.02683222
0003a0 72 14 eb bd 76 82 74 bd 0a c5 82 3a 59 8d 59 3b
       -0.11478509 -0.05969473 0.0009976935 0.0033195822
0003b0 b7 4c ab bd e8 3f b9 bc ca cb 22 3e 25 5a 07 3e
       -0.083642416 -0.02261348 0.15898052 0.13217981
0003c0 40 b0 68 bc 70 99 1b 3c e8 f3 8e 3d 76 bd 62 bd
       -0.0142021775 0.009497032 0.06980115 -0.055356465
0003d0 18 84 7f 3d 17 fe a9 3d f8 e8 99 bd 1d 09 b2 3d
       0.062381834 0.08300417 -0.075151384 0.086931445
0003e0 f7 8b 05 3e 40 f5 b3 bb ba 43 c9 3b 5c 56 62 3d
       0.13041674 -0.0054918826 0.006142107 0.05525814
0003f0 65 1e 30 bd 4e 75 fe bd 6c 34 7e 3d c8 d1 2c bd
       -0.042997736 -0.12424718 0.062061712 -0.04219225

hidden_layers.2.bias f4 [42]
000000 b7 c6 dd bd 92 c1 7a bd 5b 06 ab bd 52 98 46 3e
       -0.108289175 -0.06121976 -0.083508216 0.19394043
000010 16 b2 56 bd 82 be 26 3e 3d 1b ef 3d be 8f 0b 3d
       -0.05241593 0.1628361 0.11675117 0.03407263
000020 0d d3 d5 bd d5 c5 ff 3c 91 6a af bd 59 ec 26 3e
       -0.10440645 0.031222263 -0.08565248 0.16301097
000030 2d 27 1b be cd 87 00 3e c1 c1 44 3e 1a 7a e6 bd
       -0.15151663 0.12551804 0.19214536 -0.11253758
000040 3f dc 9a 3d c0 6b d7 bd be be 39 bd 64 c5 35 bd
       0.0756154 -0.105185986 -0.04534792 -0.0443777
000050 fd ac 92 3c af c3 05 3e 99 56 02 3e 37 61 b3 bd
       0.017904753 0.13062929 0.12728347 -0.08758777
000060 54 77 e4 bd d7 ac 3b 3e 7a bf 19 be de cc 59 3d
       -0.111555725 0.18327652 -0.15014449 0.053173892
000070 97 23 03 be e2 b9 2c bd 32 19 13 be 44 c8 fb bd
       -0.12806545 -0.04216946 -0.1436508 -0.12294057
000080 e0 d8 ff bd 22 46 75 bd 88 53 e3 3d 5c 2b d1 3d
       -0.124925375 -0.059881337 0.11099917 0.10213348
000090 95 68 d2 bd 58 df ad bc 00 d0 7a 3c b6 22 1d be
       -0.10273854 -0.021224663 0.01530838 -0.15345272
0000a0 a0 04 39 3e e5 32 ea bc
       0.1806817 -0.028588722

hidden_layers.3.weight f4 [42, 42]
000000 98 e6 44 bc ed 65 bb bd c7 ed 03 3b 8b cf 3c 3d
       -0.012017868 -0.091503 0.002013074 0.046096366
000010 c6 82 09 be ed 18 3d 3d a4 07 20 3e b2 47 dc 3d
       -0.13428792 0.04616635 0.15627915 0.10755862
000020 da be 9d bd ec bf cb bd 01 7d f2 bc 56 04 ac 3d
       -0.07702418 -0.099487156 -0.029600622 0.083992645
000030 08 c8 97 3d 83 a1 e3 3d 15 30 49 3d 19 a4 f4 bd
       0.074112 0.1111479 0.04911812 -0.11945362
000040 e3 d6 01 3e 58 f2 2c 3d 80 a3 f1 bb 6b 25 09 be
       0.12679629 0.042223305 -0.007374227 -0.1339318
000050 9a 04 86 bc 75 f2 0d bb 34 94 ce 3c f4 c8 99 bc
       -0.016359616 -0.0021659408 0.025217153 -0.01877258
000060 fc c3 15 bd 03 9e 15 3e 8e 45 92 3d 0b ff c1 bd
       -0.03656386 0.14611058 0.07142173 -0.09472474
000070 4c 0b 24 3d 52 28 e9 3d 6a 37 05 be 0a 7c fa 3d
       0.040049836 0.113846436 -0.1300942 0.1223069
000080 5f e8 a7 bd c9 f6 b9 3d d1 49 8a 3d ed 52 af 3d
       -0.08198618 0.09080274 0.067523606 0.08560739
000090 b4 81 84 3d 58 d8 ae 3c 47 55 e2 bd 4a 37 0c be
       0.064700514 0.021343395 -0.110514216 -0.13692966
0000a0 e6 23 a9 39 5c 2d 09 3e 95 2a d1 bd 90 53 6b 3c
       0.00032260938 0.1339621 -0.102132 0.014363185
0000b0 60 2f b0 bd 8c 46 29 3e 44 92 78 bd 82 74 d4 3d
       -0.08602786 0.16530818 -0.060686365 0.103737846
0000c0 78 e6 e1 3d df 6e 0d 3e 24 55 8a 3d fe 24 b1 bd
       0.110302866 0.13811825 0.067545205 -0.08649634
0000d0 b8 ad e3 3d a7 f9 04 bd 26 3e 25 bd 4d 29 41 3e
       0.111171186 -0.03246465 -0.040342472 0.18863411
0000e0 ab d6 e0 3d 26 55 8d bd 19 62 13 3e 30 a3 f0 bc
       0.10978445 -0.069010064 0.1439289 -0.029374689
0000f0 12 30 54 bd 02 cd cd bc 35 6f 57 3d b9 27 83 3d
       -0.051803656 -0.02512217 0.05259629 0.06404061
000100 d9 23 38 3d 26 b1 ca 3c 00 a9 d5 bb 6d 1e 38 3d
       0.044956062 0.024742674 -0.0065203905 0.04495089
000110 eb c9 02 3e b2 43 58 3c e8 1d a7 bd 02 89 c0 bd
       0.12772338 0.013199734 -0.08160001 -0.09401132
000120 00 fe 99 bd 4c 27 60 bd 9c 82 79 bd c7 cd be bd
       -0.0751915 -0.054724976 -0.060915574 -0.09316593
000130 5c ce 05 3e aa 5f 1a 3d 60 e9 c5 bd 00 0d 62 3a
       0.13067001 0.03768889 -0.096636534 0.0008623153
000140 20 af 89 3c a0 a1 0c be 6a 57 da bc ba d5 7b bd
       0.016807139 -0.1373353 -0.02665301 -0.061483122
000150 ef 8d 04 bd 0a 62 f1 bd 0a f4 b0 bd 95 12 15 3d
       -0.03236192 -0.117862776 -0.08640297 0.036394674
000160 4a 5a e0 bd ad d0 98 bd 7b 86 e5 bb 45 30 0e bd
       -0.10954721 -0.07461677 -0.0070045567 -0.034714002
000170 c9 e9 ba bd 1d 7d 1d 3d a6 67 ff bd 7f 58 e3 3d
       -0.09126622 0.038449395 -0.12470941 0.11100864
000180 ed 09 8c bd 56 1b 05 bd 49 fd c4 3d f6 4f 09 bd
       -0.06837831 -0.032496773 0.09618623 -0.033523522
000190 4f a8 ac bd 20 b7 61 3c c2 b5 f1 bd e8 6d 95 bc
       -0.0843054 0.013776571 -0.11802246 -0.018240884
0001a0 8d 02 28 3e 23 88 e5 3c 31 88 ec 3d 47 53 ed b9
       0.16407223 0.028019017 0.11549414 -0.0004526621
0001b0 2a 89 e2 bd 49 d3 ae 3d 1e ba 0e be 16 39 e9 bd
       -0.11061318 0.08536393 -0.13938186 -0.113878414
0001c0 e2 68 e7 3d e8 1a 09 bd 30 18 db 3c 60 06 77 bd
       0.11299302 -0.033472925 0.026744932 -0.060308814
0001d0 0b b2 04 be d3 5d 2e 3d 94 89 d8 bd 86 5a 43 bc
       -0.12958543 0.042569946 -0.10573116 -0.011923438
0001e0 f1 10 ab bd 01 47 17 be e3 07 18 3e 17 1d 05 3e
       -0.08352841 -0.1477318 0.14846759 0.12999378
0001f0 6f 45 a0 bd 99 96 04 3d 7f 21 f1 3d bc 9d c3 3d
       -0.078257434 0.032370184 0.11773967 0.0955157
000200 5f 7c fd 3d 7c 21 2c 3e 81 91 e4 bd e4 0e 32 bd
       0.123772375 0.16809648 -0.11160565 -0.043471232
000210 26 a1 37 3e d4 f9 d6 3c 18 04 08 be 15 23 ab bd
       0.17932567 0.026242174 -0.13282812 -0.08356301
000220 b4 c0 14 3e 7a 40 f2 3d 5f 7f 0b be 24 99 4e bd
       0.14526635 0.11828704 -0.13622807 -0.050439015
000230 b4 36 d3 3d e8 92 0d be ef 26 d5 3d 5e 05 d2 3d
       0.10313168 -0.13825572 0.104078166 0.1025493
000240 58 14 f0 bc 05 db 32 bd b0 b6 b0 bd f5 e7 77 bc
       -0.029306576 -0.043665905 -0.08628595 -0.015130986
000250 3a a2 1d 3d 55 6a 9c bb 38 9f b0 bc 20 5b bf bd
       0.03848479 -0.004773418 -0.021560296 -0.093435526
000260 72 92 33 bd 86 19 f2 3d f7 f5 12 be cd 41 18 3e
       -0.043840833 0.118212745 -0.1435164 0.14868851
000270 80 0c 8b bd 90 f8 37 3d 13 c9 11 3e ed 25 89 bd
       -0.067894936 0.044914782 0.1423686 -0.06696687
000280 58 a1 29 3e 08 66 32 3e ba 53 56 bd 01 0c 99 bd
       0.16565454 0.17421734 -0.05232594 -0.07472993
000290 5e 44 e1 3d c0 98 72 bb 5b bf 7b bd 3c 72 ad 3b
       0.10999368 -0.0037017316 -0.061461788 0.005293159
0002a0 35 72 89 3d 24 7b 9d 3d c1 84 da 3d 67 fe 2a 3e
       0.067112364 0.07689503 0.10669852 0.1669861
0002b0 08 8a f5 bd 06 11 02 bd 40 0f 70 bc ba 62 eb 3d
       -0.11989218 -0.031754516 -0.014652073 0.1149344
0002c0 17 ca 8f bc 62 97 b5 3d b3 19 31 bd b8 33 21 bc
       -0.017552419 0.088667646 -0.0432374 -0.009838991
0002d0 98 89 18 3d c8 94 fa 3d f6 8c 9d 3d d8 9d 2e 3d
       0.037240595 0.12235409 0.07692902 0.042631
0002e0 b2 93 2f 3d 66 63 0f be 36 92 91 3d f4 3f df 3d
       0.042865463 -0.14002761 0.07107966 0.1090087
0002f0 d5 60 1f 3e 8a 0f d6 3b 7b 77 0e 3e 9a 23 05 3e
       0.15564282 0.006532614 0.13912766 0.13001862
000300 05 14 bb bd 88 35 a4 3d 28 70 53 3d 83 da 1e 3e
       -0.09134678 0.08018023 0.051620632 0.15513043
000310 7a c1 bd 3d 7e c7 bb 3d 72 99 cd bd bc 8b b8 bd
       0.09265418 0.091689095 -0.10039033 -0.09011027
000320 b8 e5 47 3d 83 cc f8 3d 08 41 6c 3d 7a 3c bd 3d
       0.04880306 0.121483825 0.057679206 0.092400506
000330 82 b9 71 bd 14 92 1d be df 4c 99 bd 30 8e d6 bd
       -0.059014805 -0.15387756 -0.07485365 -0.10476339
000340 01 51 d0 3d b8 1f 14 be 8d 84 2b bd d7 f9 05 3e
       0.101717 -0.14465225 -0.041874457 0.13083588
000350 67 28 d1 3c fa d6 fb 3d 98 b8 7f 3c fd 62 3f be
       0.02553196 0.12296863 0.015607975 -0.18690105
000360 88 59 be bd e8 0b c8 bd 63 64 dc 3d 4e 88 91 3d
       -0.092944205 -0.09767896 0.10761335 0.07106076
000370 e9 30 04 3e db 23 88 bd a0 0d f1 bb 3f 6a fd 3d
       0.12909283 -0.06647464 -0.0073563606 0.123737805
000380 fe 51 82 3d 98 72 b9 3c 1e aa 3c 3d 00 43 39 3c
       0.06363295 0.02263765 0.046060674 0.011307478
000390 80 3a b9 3a db 88 1a be e5 4e 03 be 07 09 0a bb
       0.0014131814 -0.15091269 -0.12823065 -0.002106251
0003a0 b4 9e a0 3c f2 c8 74 bb c0 c9 5a bc ad 9e e9 3d
       0.019606926 -0.0037351218 -0.013353765 0.11407218
0003b0 7d cd 0d 3e b8 1d ba 3c cc 2c 6a 3d 1c 56 38 3d
       0.13847919 0.02271925 0.057171628 0.045003995
0003c0 69 c1 86 bd e0 0c a1 bd 62 93 c8 3d 63 27 67 3d
       -0.06579859 -0.07863784 0.09793736 0.056434046
0003d0 d2 cf 1b be d4 1e 15 bd c6 85 bf 3d 59 b6 02 3e
       -0.15215996 -0.036406353 0.09351687 0.12764873
0003e0 60 66 f0 3b f1 a8 06 3e a1 29 7d bd a6 6b 93 bd
       0.007336423 0.13150384 -0.06180728 -0.07198267
0003f0 a8 dd 92 bc b2 43 58 bd d4 1a 92 3d 73 5d 11 3e
       -0.01792796 -0.052798934 0.07134023 0.14195804

hidden_layers.3.bias f4 [42]
000000 d0 c6 8f 3d 69 e1 88 3d d7 50 07 3e 09 83 8e bc
       0.07020342 0.066836186 0.13214432 -0.017396467
000010 e7 de e9 bc fb 40 f1 bd e0 3e 51 3c 45 60 13 be
       -0.028548671 -0.11779972 0.012771338 -0.14392193
000020 8a ef 47 bd eb b9 d0 3d 07 9d bf 3d 54 47 ec bd
       -0.048812427 0.10191711 0.093561225 -0.11537042
000030 59 cc 1d be 70 ec 1c bc b8 ea da 3c 15 9e 9c 3d
       -0.15409984 -0.0095778555 0.02672325 0.07647339
000040 6c d9 59 bd fd 21 20 bd 1a 98 e1 bd b1 b2 76 bd
       -0.053185865 -0.039094914 -0.11015339 -0.060229007
000050 c7 b7 26 3d 71 ca 74 bd 63 70 58 bc f5 f0 4a 3d
       0.040702607 -0.059763376 -0.013210389 0.0495462
000060 f8 15 64 bd 66 f3 94 3d ef fd 1a bd 16 19 36 bd
       -0.055685014 0.07272987 -0.037839826 -0.044457518
000070 4d 15 5f 3d 05 bd b8 3d b8 2b 83 bd b2 44 9f 3d
       0.054463673 0.090204276 -0.06404823 0.077767745
000080 74 a8 2a bd ac ab fe 3d f0 d7 8e 3c 7a 57 a0 3d
       -0.041664556 0.124350876 0.017436951 0.07829185
000090 11 49 a4 bd 2c bd cf bd b5 b4 ac bd 82 6b 0e bd
       -0.08021749 -0.101435035 -0.08432905 -0.034770496
0000a0 96 80 82 bd 8f 1c b8 3d
       -0.06372182 0.08989822

output_layer1.weight f4 [40, 42]
000000 64 a5 1a 3d 9c 1a 9e 3a 24 df 8a 3d 64 33 f5 bd
       0.037755385 0.0012062374 0.06780842 -0.119726926
000010 b3 37 03 3d a4 f3 d9 bd 08 92 9d 3d d2 1d e8 bd
       0.03203554 -0.10642174 0.07693869 -0.11333813
000020 40 09 11 3d 86 01 09 be c8 a0 84 bd d2 fa 58 bd
       0.035409212 -0.13379487 -0.06475979 -0.052973576
000030 d6 15 83 bd 6c d7 2d bd 34 76 60 3d 28 57 08 be
       -0.06400649 -0.04244177 0.054800227 -0.13314497
000040 c1 5f a8 bd 2c 5c 07 be f4 38 ed bd 13 50 ea bd
       -0.082213886 -0.13218755 -0.115831286 -0.11441054
000050 4c 34 92 bd a4 04 93 bd 22 0d a8 bc 98 79 0b be
       -0.07138881 -0.071786195 -0.020514075 -0.13620603
000060 c0 5b 9c 3c f9 bd fd 3d ab 32 b5 bd d1 d8 19 3e
       0.019086719 0.1238975 -0.08847555 0.15024115
000070 94 2f 01 be d0 2b 2a be ea b2 6a bd 5e 74 68 bd
       -0.12615806 -0.16618276 -0.057299532 -0.0567516
000080 ac 43 64 3d 68 b5 0e be 16 8d 04 be 2f 75 d1 3d
       0.0557286 -0.13936388 -0.12944445 0.10227429
000090 96 8c 85 bd 40 c9 b3 3c ab 5f 95 3a ca 05 d6 3d
       -0.06520955 0.02194655 0.0011396309 0.10450323
0000a0 db 1d a9 bd dd 21 e8 3d cd 43 8d 3b 8e 8f 1f 3d
       -0.082576476 0.11334584 0.004311061 0.038955264
0000b0 61 e8 0f 3e c7 f8 c8 3b da f7 a7 3d 64 8b 34 3c
       0.1405349 0.006133172 0.08201571 0.011019561
0000c0 ee 98 0c be 50 62 0d 3e 9b d1 19 3e f6 41 2a 3e
       -0.13730213 0.13807034 0.15021364 0.16626725
0000d0 38 cf 18 3e 74 de a5 3d f8 fa 48 3d 00 98 ea b8
       0.14922798 0.0809907 0.049067467 -0.00011186302
0000e0 ea ee d0 bd 1b 0f f6 bc 23 72 0e 3e 28 1e c7 3b
       -0.10201819 -0.0300365 0.13910727 0.006076593
0000f0 5b a1 60 bd 55 75 6a bd 24 cb 31 3e ca 32 6b 3d
       -0.05484138 -0.057240803 0.17362648 0.057421483
000100 0f 97 43 3d 03 0b 92 bd 6e ba eb 3d 95 11 fc bb
       0.047751483 -0.071310066 0.11510168 -0.0076925256
000110 c8 a3 07 3d c8 63 ae bd 76 c4 04 3d 3e e1 36 3e
       0.03311518 -0.085151255 0.032413922 0.1785936
000120 90 e2 f3 bd ef 9d 67 bd 80 96 8b bc 49 8e 09 3c
       -0.11908448 -0.0565471 -0.017039537 0.00839574
000130 70 fa 2e 3d 50 cf 68 bd f0 e9 6c bd 70 52 b3 3c
       0.042719305 -0.056838334 -0.057840288 0.021889895
000140 e5 f0 0a 3c c0 32 66 3c 0c 82 a1 3d 9d b0 d0 bc
       0.008480285 0.014050186 0.078861326 -0.02547484
000150 52 3f 2a bd 23 1f 18 bd b8 e3 29 bc 7e 2e 8a bc
       -0.041564293 -0.03713907 -0.010369234 -0.016867872
000160 b9 c7 89 bc 9c e5 bd bd 00 88 cd bd 45 f2 c5 bd
       -0.016818868 -0.0927231 -0.100357056 -0.0966535
000170 f9 e0 b3 bd ec 6a ad 3d c4 0e b5 bd 03 5b b0 bd
       -0.087831445 0.08467659 -0.08840707 -0.08611109
000180 74 7d 6d 3d 2f de 04 3e b0 41 ab bc 83 60 81 3c
       0.05798097 0.12975381 -0.020905346 0.01579309
000190 24 d6 92 3d fa b4 d5 3d 49 54 d9 3c 6f 88 b0 bd
       0.0716975 0.10434909 0.026529448 -0.08619773
0001a0 bc bb dd bd 55 55 ca 3d 86 8c 5b bd fd 92 90 bd
       -0.10826823 0.09879557 -0.05360081 -0.07059286
0001b0 c6 83 c8 3d 22 41 1e 3e a1 2b d2 3c 30 9e b7 3d
       0.09790759 0.15454534 0.02565557 0.08965719
0001c0 c1 b8 2e 3e d3 6a 8d 3d 36 0a ba 3d 56 7b 22 3e
       0.17062666 0.06905141 0.09083979 0.15867361
0001d0 ab 0d 17 3e f0 05 2d 3e b2 2d d5 3d ae b1 a0 bd
       0.14751308 0.16896796 0.10409106 -0.0784639
0001e0 6d e9 96 3d b8 5e 67 3d 8f 46 18 bd 46 15 c3 bd
       0.07368741 0.056486815 -0.037176665 -0.09525542
0001f0 ca b1 da 3d d9 a1 53 bd 90 28 c5 bb 95 4b 9e bd
       0.10678442 -0.05166802 -0.0060167983 -0.0772926
000200 28 0f 5c 3d a3 2f c7 bd 9d e5 26 bd 81 a6 19 bd
       0.05372539 -0.09725883 -0.04074632 -0.037512306
000210 f9 8d fe bd 1e 19 e5 bd c0 b8 73 3d 63 a1 b7 3d
       -0.12429423 -0.11186431 0.059502363 0.08966329
000220 e1 e9 a8 bc 00 ff 7c ba 95 3d ea bd 3e 86 ce 3d
       -0.020619335 -0.0009651035 -0.11437527 0.100841984
000230 7e 0c db bd 2a b8 69 3d 3c 44 08 3d 99 9d 3b bd
       -0.10695742 0.0570604 0.0332682 -0.045804594
000240 82 a0 dc bd 47 95 35 3d f5 1f 85 3d d0 96 f0 3d
       -0.10772802 0.044331815 0.06500236 0.11747515
000250 ca 7f 9e 3c 9c 25 55 bd a0 3d 37 bd c4 05 f8 3d
       0.019348044 -0.05203782 -0.044736505 0.12110475
000260 09 03 59 3d 89 51 04 be 6f df de bd d4 60 d3 3d
       0.05298141 -0.12921728 -0.1088246 0.10321203
000270 52 2f f4 3d e5 39 dc bd 48 19 3d 3d 55 b5 03 3e
       0.11923088 -0.1075323 0.04616669 0.12862141
000280 3b d4 d9 bd 5f 81 31 bd 0a 29 f1 bc 80 d7 9d ba
       -0.10636183 -0.04333627 -0.029438514 -0.0012042373
000290 1b df c6 bd 94 62 1b bd 1e 63 af 3d c3 ff f7 bd
       -0.09710523 -0.03793581 0.08563827 -0.121093296
0002a0 a9 37 03 be 24 31 2e 3d 5c ab e4 bd c9 f2 66 bc
       -0.12814201 0.042527333 -0.11165497 -0.01409597
0002b0 82 49 c4 bd c6 76 ff 3d d0 2e 44 bd 71 e8 d4 3d
       -0.09584333 0.12473826 -0.047896206 0.10395897
0002c0 70 bc 0c 3c 41 34 69 3d 12 76 51 3d a8 4d 56 3d
       0.008589849 0.0569346 0.05113799 0.052320153
0002d0 56 4f f6 3d f4 00 1a 3d d2 d9 76 bd 98 0a d0 3d
       0.12026851 0.037598565 -0.060266323 0.101582706
0002e0 90 a4 cc bd aa 8f fc 3d 98 41 10 3e 18 bd e0 3d
       -0.09992325 0.12332089 0.14087522 0.10973567
0002f0 3a b4 97 bc 76 b7 93 3d a4 e9 ca 3d 74 dd bc bd
       -0.018518556 0.07212727 0.09907845 -0.09221926
000300 c2 f1 d9 bd b5 1f f2 bd 75 e0 9d bc 40 c6 f0 bd
       -0.10641815 -0.11822454 -0.019272069 -0.11756563
000310 02 40 d7 3c 04 2a 06 3d 78 2a 89 bc 21 38 13 3d
       0.026275638 0.032754913 -0.016743883 0.0359422
000320 1c 58 47 3d 92 28 e1 3d 38 f1 dc bc 83 98 d0 3d
       0.048668012 0.10994066 -0.02697049 0.10185339
000330 46 95 4d bc 18 e5 fd 3c ef c4 31 bd 88 3f bf 3d
       -0.012547797 0.03099303 -0.0434007 0.093382895
000340 62 10 15 be a1 3f 02 3e a2 5d 21 3d 29 bb c2 bd
       -0.14557031 0.12719585 0.039395936 -0.09508354
000350 8d 1b bd bc 05 5d 71 bd 3d 59 7d bd 16 b7 94 bd
       -0.023084426 -0.0589266 -0.061852682 -0.07261483
000360 77 e5 0d 3e d7 c3 10 3e a0 e5 a6 3b 81 a5 39 3e
       0.13857065 0.14137207 0.0050932914 0.18129541
000370 e6 36 14 3e bd ec 02 be 40 98 b4 bc b0 f3 7c bc
       0.14474067 -0.12785621 -0.022045255 -0.015438959
000380 f7 23 19 3e 62 14 ad 3d 32 d3 aa 3d 7c 27 eb 3d
       0.14955126 0.08451153 0.083410636 0.114821404
000390 2b 33 04 3d ef e8 3e 3d ec a2 71 bd 38 c3 6b 3d
       0.03227536 0.04660886 -0.058993265 0.057559222
0003a0 96 db 01 3e 8a 38 d6 3d d0 59 55 3c 9a df db bc
       0.12681422 0.10460003 0.013021901 -0.02684002
0003b0 39 e8 c6 3b fe 41 88 bd ae 09 f2 3d e5 a1 e1 bd
       0.0060701636 -0.06653212 0.118182525 -0.11017207
0003c0 f8 9f 75 3d 81 b6 2f 3e 40 e8 7b bb be 34 26 3c
       0.05996701 0.17159463 -0.0038437992 0.010144411
0003d0 27 98 a9 bd 42 a9 00 3e 0c 82 0b 3e ca f7 cf bd
       -0.08280974 0.12564567 0.13623828 -0.10154684
0003e0 b4 70 ea 3c 80 1b 55 3d 00 7e e7 bd 47 d4 fe bb
       0.028618194 0.05202818 -0.113033295 -0.0077767703
0003f0 a8 f8 6a bd a8 f9 b3 3c 3c eb d2 bd 6f a6 21 be
       -0.057366043 0.021969631 -0.10298774 -0.15786146

output_layer1.bias f4 [40]
000000 ca 3a 35 be 69 14 82 3d 1a 0d e8 3d 71 ee 0f be
       -0.17698207 0.06351549 0.11330624 -0.14055802
000010 76 3e 00 3e e4 3e 46 3e be 21 a8 bd 2d 6c 89 bd
       0.12523827 0.19359928 -0.08209561 -0.06710086
000020 42 dc c9 3d 60 87 9a 3d 63 0c 91 bd 40 4e f2 bd
       0.09856464 0.07545352 -0.07082441 -0.11831331
000030 04 d2 1d be 64 dc 02 bc 84 dc ce 3d dd 9c 60 bd
       -0.15412146 -0.0079871155 0.10100654 -0.054837096
000040 64 4d 8a bc d5 8b 11 be a7 66 20 3e 8c 54 a6 bd
       -0.016882606 -0.14213498 0.15664159 -0.08121595
000050 89 2c 6a bc 7a 43 fa bd 42 53 09 be 8d 1a b7 bd
       -0.014292845 -0.122199014 -0.13410667 -0.08940611
000060 10 9a 79 3d 56 31 25 3d 41 88 c4 3d a3 c9 0a 3d
       0.06093794 0.040330254 0.09596301 0.033883702
000070 c7 66 9e 3c 86 08 28 3e bf fc 66 bd c2 68 f0 bd
       0.019336117 0.16409501 -0.05639338 -0.11738731
000080 57 f9 0a be ff 58 3a b9 09 15 96 bd 5f c0 fa 3b
       -0.13571678 -0.00017771496 -0.07328231 0.007652327
000090 ab 8c df 3d bb 4b ba 3d 28 54 01 3e fe 72 20 be
       0.10915502 0.09096476 0.1262976 -0.15668866
