src/models/dynamics_25.pt (torch, 47860 bytes, 13 tensors)

input_layer.weight f4 [42, 42]
0.120481126 -0.10284005 -0.1481929 0.16529758 -0.04397753 -0.108105846 -0.122632235 -0.08762325
-0.043813672 0.014969058 -0.112908214 -0.03752431 0.06836284 0.075737685 -0.036538612 -0.0451205
-0.03483119 0.009183645 0.100996606 -0.04613273 0.089545 0.018194048 -0.11228645 -0.059588414
0.020359086 -0.12244836 0.08804305 -0.122339204 0.064477175 0.029711053 0.08309381 -0.07156345
0.04434604 -0.02741061 -0.13353786 0.09552026 0.12048264 0.11546637 0.05430121 -0.02033985
-0.03453433 -0.06884804 -0.048743825 -0.075294375 0.006708814 0.035970002 0.13242434 0.1330864
-0.08575877 0.015242881 0.08609124 0.048643537 0.11215609 0.008108347 -0.08195705 0.0038288063
-0.06571246 0.003516158 -0.14831054 -0.01950455 0.065554686 0.08837469 0.1209777 -0.16707203
0.061434496 0.12529306 0.0841231 -0.029351246 -0.11549637 -0.010925089 0.016500501 0.08886541
0.10472606 -0.0727094 0.025395753 0.16567224 0.13522269 0.1311758 0.005835921 -0.09192148
-0.056620974 -0.12415273 -0.11669066 0.084292784 -0.13383655 0.12624845 0.12185046 0.00337149
-0.13170075 -0.077199765 -0.10297542 0.11664203 0.035031345 -0.016283995 0.003847401 -0.045251958
0.09962624 0.05820836 0.0060057887 0.09280294 -0.13807571 0.086987644 -0.0740044 0.012611416
-0.10661602 0.06793193 -0.16019231 0.08904094 -0.13829091 -0.13500571 0.12611927 -0.07006658
0.049414083 0.05092083 -0.09646525 -0.15421602 0.052435696 -0.06449043 -0.16769364 -0.117850415
-0.11564111 -0.16928133 0.076185234 0.04126917 0.040324293 -0.11725559 -0.07208559 0.11536894
0.08484993 0.052986886 -0.049710996 -0.061279304 0.10694815 0.02041477 0.15969108 -0.13391078
0.14627077 -0.044039153 0.12954094 0.039311234 -0.13433689 -0.05337734 -0.15789695 0.09495179
-0.0998175 0.12308661 -0.021930283 -0.12966794 0.031003602 0.008422244 0.098520674 -0.18016605
-0.09483878 0.058556326 0.063015565 -0.18058176 0.14557198 0.097009666 -0.17526218 0.069727644
-0.15479785 -0.060930356 -0.04719175 0.080315895 -0.053833425 -0.022444483 -0.03201747 0.02943994
0.05524755 -0.058514316 -0.09218431 0.09080273 0.11204334 0.07318463 0.043670416 0.09262257
-0.07116158 0.082820125 -0.019564586 -0.153642 0.024475442 0.08892159 -0.08144918 -0.03752567
0.0515032 0.0939747 0.018752407 -0.14205575 -0.0960649 0.061867647 0.019880757 0.11372347
-0.056661606 0.030496702 0.007613005 -0.0016718393 -0.038696427 -0.05072105 -0.07587892 -0.11460163
-0.020900609 0.13647069 0.0517668 -0.05105006 0.14440165 -0.14564815 -0.1295807 -0.038777117
-0.015433636 0.14377846 -0.006733873 0.076174386 0.107888006 0.15134649 -0.1350688 0.053263437
-0.061443932 -0.09853741 0.087861255 -0.038849603 -0.12683508 -0.03721964 -0.102806926 0.004827928
-0.11807175 -0.15295768 -0.073268056 -0.061013356 0.03722833 0.059543684 0.05807692 -0.0378005
0.061766595 0.011467847 0.06695949 0.021947794 0.018680967 -0.021044848 -0.08045002 -0.114974156
-0.049082138 -0.015349481 0.17189865 -0.0338468 0.047992937 0.100764014 -0.08807931 0.13139437
0.057222184 0.07716551 -0.17610565 -0.034606807 -0.11840247 -0.04074201 0.16221046 -0.14199573
00000000: cfbe f63d ce9d d2bd e1bf 17be c543 293e
00000010: c821 34bd 9966 ddbd 9c26 fbbd d273 b3bd
00000020: f775 33bd c840 753c 6c3c e7bd 17b3 19bd
00000030: d101 8c3d 5c1c 9b3d 83a9 15bd 46d0 38bd
00000040: 26ab 0ebd 0077 163c 4fd7 ce3d acf5 3cbd
00000050: 5e63 b73d af0b 953c 70f6 e5bd fb12 74bd
00000060: 19c8 a63c 35c6 fabd ea4f b43d fa8c fabd
00000070: 9c0c 843d 9864 f33c 162d aa3d dc8f 92bd
00000080: 31a4 353d 378c e0bc 26be 08be 20a0 c33d
00000090: 9abf f63d a279 ec3d f26a 5e3d c29f a6bc
000000a0: df73 0dbd 3400 8dbd 9ba7 47bd f033 9abd
000000b0: 9cd5 db3b 4855 133d 3f9a 073e cd47 083e
000000c0: 4ba2 afbd 47bd 793c 9b50 b03d 723e 473d
000000d0: 18b2 e53d dfd8 043c 19d9 a7bd b6ec 7a3b
000000e0: 4194 86bd 586f 663b b8de 17be 02c8 9fbc
000000f0: 8941 863d cafd b43d 28c3 f73d ee14 2bbe
00000100: bda2 7b3d d34c 003e bb48 ac3d 0672 f0bc
00000110: 5c89 ecbd 25ff 32bc 0f2c 873c 11ff b53d
00000120: 9e7a d63d aae8 94bd c10a d03c fca5 293e
00000130: d177 0a3e f352 063e 413b bf3b 5441 bcbd
00000140: 65eb 67bd c943 febd 83fb eebd b2a1 ac3d
00000150: 730c 09be 4647 013e bc8c f93d 37f4 5c3b
00000160: 90dc 06be e91a 9ebd c7e4 d2bd 04e2 ee3d
00000170: 077d 0f3d 0366 85bc ad24 7c3b 1e5a 39bd
00000180: d808 cc3d e46b 6e3d 35cc c43b 780f be3d
00000190: b863 0dbe 9426 b23d 9e8f 97bd 1da0 4e3c
000001a0: 8059 dabd e51f 8b3d 7409 24be 195b b63d
000001b0: 229c 0dbe f03e 0abe 6925 013e 117f 8fbd
000001c0: 6c66 4a3d 5c92 503d 938f c5bd ceea 1dbe
000001d0: d0c6 563d 8f13 84bd e2b7 2bbe 8f5b f1bd
000001e0: 3fd5 ecbd 1658 2dbe 0107 9c3d dc09 293d
000001f0: 162b 253d b323 f0bd 9ca1 93bd 8d46 ec3d
00000200: cdc5 ad3d c708 593d c29d 4bbd 0200 7bbd
00000210: a207 db3d e03c a73c 0f86 233e e81f 09be
00000220: 01c8 153e 6662 34bd 61a6 043e d104 213d
00000230: 9c8f 09be 33a2 5abd bdaf 21be 1676 c23d
00000240: 1e6d ccbd d514 fc3d 23a7 b3bc acc7 04be
00000250: 44fb fd3c 74fd 093c 35c5 c93d 737d 38be
00000260: d63a c2bd c2d8 6f3d 4e0e 813d 6dea 38be
00000270: d210 153e 01ad c63d ee77 33be 5ecd 8e3d
00000280: 5483 1ebe 1c92 79bd 234c 41bd a97c a43d
00000290: 7080 5cbd 7edd b7bc c024 03bd 072c f13c
000002a0: 414b 623d b5ac 6fbd 21cb bcbd c8f6 b93d
000002b0: fb76 e53d d3e1 953d c0df 323d e7b0 bd3d
000002c0: 2abd 91bd 999d a93d e945 a0bc 5454 1dbe
000002d0: b980 c83c 861c b63d d4ce a6bd 84b4 19bd
000002e0: 05f5 523d cf75 c03d a69e 993c 1077 11be
000002f0: adbd c4bd ee68 7d3d f8dc a23c dae7 e83d
00000300: 0016 68bd 38d4 f93c 8476 f93b 9e21 dbba
00000310: 2580 1ebd e0c0 4fbd 6866 9bbd 42b4 eabd
00000320: c137 abbc f9be 0b3e 6d09 543d de19 51bd
00000330: 07de 133e ca24 15be ceb0 04be c1d4 1ebd
00000340: 5cdd 7cbc a93a 133e d2a7 dcbb 5101 9c3d
00000350: 63f4 dc3d 93fa 1a3e 7a4f 0abe c32a 5a3d
00000360: a2ac 7bbd fbcd c9bd 9af0 b33d c320 1fbd
00000370: 0ee1 01be 9f73 18bd 708c d2bd 9833 9e3b
00000380: 9acf f1bd f0a0 1cbe 900d 96bd 24e9 79bd
00000390: bc7c 183d 14e4 733d 11e2 6d3d b2d4 1abd
000003a0: f8fe 7c3d a3e3 3b3c 0f22 893d dccb b33c
000003b0: d408 993c 3f66 acbc fbc2 a4bd 9277 ebbd
000003c0: 5a0a 49bd 647c 7bbc 3306 303e f1a2 0abd
000003d0: 3e94 443d 5d5d ce3d ed62 b4bd 3f8c 063e
000003e0: cf61 6a3d f308 9e3d 0a55 34be debf 0dbd
000003f0: ff7c f2bd 18e1 26bd 801a 263e 5467 11be

input_layer.bias f4 [42]
0.040414453 0.08303632 0.12854885 0.093328826 0.111977234 0.09351843 0.10014549 -0.06875557
-0.057380624 -0.014424768 0.036645703 -0.032038424 -0.029650137 -0.023931352 -0.12575313 0.11868389
0.0006181701 0.03258001 0.033082776 0.052493412 -0.13977282 -0.04114287 -0.12978096 0.10596849
-0.012763494 0.12362568 0.14342828 0.095498376 0.14378947 0.09009778 0.15821066 -0.08809674
0.11566725 0.11956025 -0.120771825 -0.04639195 -0.08471474 0.16810359 -0.016566094 0.00063765
0.03720194 -0.15206473
00000000: a089 253d f20e aa3d 4fa2 033e 2f23 bf3d
00000010: 5254 e53d 9786 bf3d 1419 cd3d b8cf 8cbd
00000020: f207 6bbd dd55 6cbc ce19 163d b93a 03bd
00000030: d8e4 f2bc af0b c4bc 6ec5 00be 8a10 f33d
00000040: b10c 223a 9e72 053d ce81 073d 5503 573d
00000050: 9b20 0fbe 6d85 28bd 4de5 04be 0206 d93d
00000060: f91d 51bc 762f fd3d ddde 123e a794 c33d
00000070: 8c3d 133e 2f85 b83d fa01 223e 106c b4bd
00000080: f3e2 ec3d 01dc f43d 3857 f7bd 7c05 3ebd
00000090: ec7e adbd 5923 2c3e 9eb5 87bc f827 273a
000000a0: 1061 183d dbb6 1bbe

hidden_layers.0.weight f4 [42, 42]
0.07644381 0.11010051 -0.10578729 0.07861798 0.09761013 -0.04719065 -0.004078269 0.14668225
0.105839714 -0.12922823 0.08414927 0.030435465 0.074369006 0.07583278 -0.07496878 0.07975915
0.019132748 -0.109485306 0.07374633 -0.14725849 -0.10924008 -0.04070572 0.106059745 0.07414934
0.07804467 -0.10785107 -0.15717612 -0.07162993 -0.036939137 0.035753414 0.10646433 0.038010176
-0.035908204 -0.14500685 0.04161817 0.104277626 -0.0855829 0.07549874 0.017212406 0.04851049
-0.058231074 -0.0059161335 -0.050004736 -0.10209238 0.07830471 0.03925374 -0.061483055 0.12693356
-0.040643312 -0.027595937 0.14916612 0.017351434 -0.018724993 -0.09343667 -0.06323369 -0.034660667
0.12826954 -0.13988328 -0.03457892 -0.06406197 -0.08042634 -0.075926155 0.14846091 -0.08082243
-0.035759605 -0.13047233 0.054998294 -0.10402767 0.07755947 -0.035359673 -0.04721664 0.01469858
-0.10184495 -0.08567255 0.09123793 0.13335271 -0.05193598 -0.013186485 0.1015064 -0.08896726
0.0038619637 0.105471596 -0.06830957 -0.03569425 0.16658881 0.026599992 0.13719721 0.16085392
0.04112687 0.013377772 0.112089485 -5.153718e-05 -0.114294834 -0.106741935 0.16049863 -0.075297214
-0.12023024 0.051811755 0.0675242 0.031047301 -0.066823274 0.09140373 0.1741646 0.12964602
0.08133431 -0.0020401888 0.12392782 -0.11515814 0.040518124 -0.09334073 -0.053348236 -0.111080095
0.0258203 -0.070265226 -0.011267219 0.079336464 -0.00025095872 0.13227537 -0.10468637 0.082338214
0.07865572 0.025563713 -0.11318199 0.05144995 0.05736475 -0.14201567 -0.08400787 0.15743339
-0.08629843 0.008730467 -0.050300755 -0.07616148 0.11589007 0.023126442 -0.016191278 0.16156018
0.01124634 -0.050442588 0.08072111 -0.026000425 -0.072379 -0.07168813 0.044616036 -0.10872111
-0.056732018 0.041357566 -0.06979987 -0.08436141 0.09362197 -0.04384309 0.038747877 0.092995524
0.17091441 -0.044394292 0.027188921 -0.11129038 0.051514484 0.15761171 -0.09433489 -0.06709353
0.07288383 -0.09960062 -0.03670447 0.09041862 -0.015380428 0.07610258 0.07476118 0.11649947
0.021478362 0.04059862 0.024544049 0.14008516 -0.034495953 -0.033830535 -0.020729933 0.14087148
0.04760675 0.15228252 0.049847674 0.06688925 0.10699734 0.13504991 0.13227385 0.1535972
-0.10268812 0.038852938 0.09988305 -0.109122954 0.047155786 -0.007123314 0.033377405 0.04252419
0.05749948 -0.11763326 -0.1294131 0.13449417 0.07148825 0.064205475 0.001059605 -0.080132596
-0.08942858 -0.020838978 0.05331696 -0.0031283945 0.11844406 -0.0034067542 0.1032601 -0.06531773
-0.09800278 -0.020329595 -0.10183248 -0.115325704 -0.019218372 -0.03218879 -0.035881337 0.044007212
-5.3203665e-05 -0.028496308 -0.009637208 -0.033555496 0.12998022 -0.0025968342 0.013128169 -0.04836479
-0.13145806 0.0028242092 -0.12075805 -0.1279051 0.04596353 -0.008382883 -0.069632836 -0.031607207
0.13919419 0.024438769 0.11667007 -0.037475504 0.13730735 0.14609303 0.08326328 0.13777137
0.017529694 0.048793834 0.093722366 0.111394376 -0.090897314 -0.052302398 0.107776746 0.053326756
0.06563403 0.03754168 0.06437901 0.027421221 -0.046845682 0.08715232 0.046910033 -0.0920211
00000000: 928e 9c3d 607c e13d 02a7 d8bd 7702 a13d
00000010: d2e7 c73d fc4a 41bd 00a3 85bb df33 163e
00000020: 7ec2 d83d 6854 04be 7456 ac3d cc53 f93c
00000030: c74e 983d 374e 9b3d 3b89 99bd c458 a33d
00000040: 48bc 9c3c d539 e0bd 5108 973d eeca 16be
00000050: 43b9 dfbd 0bbb 26bd da35 d93d 9cdb 973d
00000060: e2d5 9f3d 06e1 dcbd c7f2 20be b6b2 92bd
00000070: 7e4d 17bd 2c72 123d f809 da3d 8fb0 1b3d
00000080: 7b14 13bd ad7c 14be d077 2a3d 828f d53d
00000090: 1646 afbd 159f 9a3d 0801 8d3c f0b2 463d
000000a0: b583 6ebd 20dc c1bb c4d1 4cbd cf15 d1bd
000000b0: 385e a03d 88c8 203d a8d5 7bbd dffa 013e
000000c0: 9a79 26bd e010 e2bc 01bf 183e 9824 8e3c
000000d0: 2865 99bc ba5b bfbd aa80 81bd 58f8 0dbd
000000e0: 1759 033e 903d 0fbe a0a2 0dbd ec32 83bd
000000f0: 91b6 a4bd 2c7f 9bbd 2306 183e 3b86 a5bd
00000100: aa78 12bd 8a9a 05be e445 613d 760c d5bd
00000110: 80d7 9e3d 4ed5 10bd 3c66 41bd 50d2 703c
00000120: 1694 d0bd 1775 afbd f4da ba3d 9d8d 083e
00000130: d2ba 54bd 200c 58bc 96e2 cf3d 7834 b6bd
00000140: 0019 7d3b 7e01 d83d e3e5 8bbd 2234 12bd
00000150: 4296 2a3e 3ae8 d93c 6d7d 0c3e e4b6 243e
00000160: a674 283d 712e 5b3c 2c8f e53d a029 58b8
00000170: 6913 eabd 849b dabd c159 243e 6d35 9abd
00000180: 463b f6bd 9038 543d 214a 8a3d e956 fe3c
00000190: a4da 88bd e131 bb3d 3458 323e edc1 043e
000001a0: 9a92 a63d b0b4 05bb decd fd3d 08d8 ebbd
000001b0: 55f6 253d 6d29 bfbd ae83 5abd f67d e3bd
000001c0: 1885 d33c 37e7 8fbd 249a 38bc 287b a23d
000001d0: 1c93 83b9 3273 073e cf65 d6bd f0a0 a83d
000001e0: 4016 a13d fe6a d13c f6cb e7bd 2fbd 523d
000001f0: 4df7 6a3d 8e6c 11be 510c acbd 3836 213e
00000200: 3bbd b0bd 3c0a 0f3c 2a08 4ebd 8dfa 9bbd
00000210: c657 ed3d aa73 bd3c 92a3 84bc 0870 253e
00000220: 9242 383c e39c 4ebd 1c51 a53d d8fe d4bc
00000230: 713b 94bd 3ad1 92bd 4ebf 363d 2ca9 debd
00000240: d55f 68bd 8d66 293d 3cf3 8ebd adc5 acbd
00000250: e0bc bf3d d094 33bd 18b6 1e3d 7074 be3d
00000260: 3004 2f3e cad6 35bd 4dbb de3c 36ec e3bd
00000270: da00 533d f764 213e a732 c1bd 5568 89bd
00000280: 1e44 953d 69fb cbbd 6d57 16bd 662d b93d
00000290: 31fe 7bbc abdb 9b3d 641c 993d 4697 ee3d
000002a0: 64f3 af3c bd4a 263d 9a10 c93c 7c72 0f3e
000002b0: a14b 0dbd e391 0abd d2d1 a9bc 9d40 103e
000002c0: 4cff 423d f3ef 1b3e 132d 4c3d 3bfd 883d
000002d0: 6c21 db3d 864a 0a3e cc72 073e 9648 1d3e
000002e0: 264e d2bd 4224 1f3d 7c8f cc3d db7b dfbd
000002f0: 6d26 413d b06a e9bb bfb6 083d d82d 2e3d
00000300: 9384 6b3d b5e9 f0bd de84 04be d7b8 093e
00000310: 6e68 923d 297e 833d 72e2 8a3a 8f1c a4bd
00000320: 5526 b7bd 81b6 aabc e262 5a3d c005 4dbb
00000330: cd92 f23d da43 5fbb 087a d33d 4dc5 85bd
00000340: aeb5 c8bd 408a a6bc 8c8d d0bd e22f ecbd
00000350: d96f 9dbc 65d8 03bd 4ff8 12bd e840 343d
00000360: 0027 5fb8 1771 e9bc 61e5 1dbc 7d71 09bd
00000370: 8919 053e a62f 2abb 8817 573c 281a 46bd
00000380: f19c 06be 5e16 393b ff4f f7bd 8ef9 02be
00000390: 4144 3c3d 5c58 09bc a99b 8ebd 8f76 01bd
000003a0: ec88 0e3e d033 c83c b8f0 ee3d ea7f 19bd
000003b0: 4c9a 0c3e 6999 153e f085 aa3d f013 0d3e
000003c0: 6f9a 8f3c 0bdc 473d 83f1 bf3d bc22 e43d
000003d0: 5f28 babd 0a3b 56bd 0eba dc3d 286d 5a3d
000003e0: 226b 863d 4ec5 193d 24d9 833d 78a2 e03c
000003f0: 42e1 3fbd ea7c b23d bc24 403d 8f75 bcbd

hidden_layers.0.bias f4 [42]
-0.041561134 -0.050568283 0.16779299 0.12268523 0.07237627 0.10473681 -0.1271771 0.029948225
-0.12950313 0.06463126 -0.00962794 0.07913269 -0.10513477 0.12828311 0.075356945 0.095218964
-0.14675963 -0.02816106 -0.06818888 -0.06349219 0.0010297099 -0.06768704 -0.09323326 -0.07694873
0.0622067 0.083791725 0.076144405 -0.119224295 -0.051541366 0.082604945 -0.080237 0.011154551
0.029457599 -0.112142354 -0.102763824 -0.13153845 -0.1500551 -0.124851465 -0.11269465 0.052257787
0.0009859035 0.058680996
00000000: 023c 2abd b020 4fbd edd1 2b3e 6542 fb3d
00000010: 033a 943d 4180 d63d b73a 02be fb55 f53c
00000020: 789c 04be 655d 843d 82be 1dbc 5210 a23d
00000030: e650 d7bd a65c 033e be54 9a3d 2902 c33d
00000040: 2848 16be 06b2 e6bc 9da6 8bbd 3108 82bd
00000050: 55f7 863a 819f 8abd 14f1 bebd 4c97 9dbd
00000060: 74cc 7e3d ff9a ab3d 99f1 9b3d de2b f4bd
00000070: 0a1d 53bd c82c a93d 4c53 a4bd 94c1 363c
00000080: 1051 f13c e4aa e5bd d775 d2bd 04b2 06be
00000090: 0ba8 19be 20b2 ffbd 74cc e6bd 430c 563d
000000a0: 6f39 813a 7c5b 703d

hidden_layers.1.weight f4 [42, 42]
0.15238589 -0.021824375 0.046540353 0.16774459 0.14707689 -0.091191545 0.14837445 0.1290796
-0.044560216 0.13770522 -0.03409052 -0.12377636 0.16996245 0.13027062 0.1591061 0.06793973
0.13608108 -0.120535396 0.15944913 -0.047518127 -0.09410769 -0.09878425 0.09806005 -0.10461251
0.035612926 -0.084099196 0.08490819 0.13938238 0.004770085 0.11672635 -0.05989018 0.0030879553
-0.107756756 0.10996859 0.05472327 -0.006555021 0.016793998 -0.062362216 -0.09559643 -0.028596241
0.032814223 0.13531801 -0.09603752 0.06552604 -0.124045424 -0.11827537 -0.00020428374 -0.027322747
-0.0053682327 -0.050150163 0.14430435 -0.060688768 0.15807904 0.02233118 -0.08916698 0.16853575
0.049738135 -0.13077022 -0.12793286 0.082807615 0.05174934 -0.10373445 0.17279686 0.08627718
-0.046330836 -0.12284281 0.034459107 -0.0139339715 0.1596983 -0.14906326 0.09952851 0.11501718
-0.093641035 -0.03781187 0.13315669 0.110876635 0.08853559 0.13354914 0.055299774 -0.08577501
-0.13223757 -0.082598224 0.05263729 -0.122055165 -0.07172594 0.03055638 -0.028224763 -0.10054456
0.044330478 -0.07520741 -0.133794 -0.06592515 -0.1057697 -0.124365285 0.104882136 0.022065885
0.08741547 0.16329584 -0.030255135 -0.114438586 -0.056323133 -0.09120183 -0.09483053 -0.012252733
0.14330477 -0.07267794 -0.056620155 0.10657094 0.0006007209 0.15814069 -0.110168464 0.10183052
-0.06415762 -0.07423677 0.10677151 0.00556229 0.16818672 -0.06955067 0.10889506 -0.068991244
-0.1383622 -0.060531847 0.018338755 -0.10793794 -0.06427949 0.099127054 0.020014182 0.034858555
0.10830699 0.076567486 0.00847207 0.099288866 -0.07575573 -0.010887206 -0.028497115 0.10434322
-0.042878143 0.10265817 0.0036017746 0.068733335 -0.12240873 -0.071448825 0.13550262 0.13168965
-0.07921521 0.111366674 0.09908901 0.10625975 -0.057367347 -0.143687 -0.06739018 -0.1069402
0.09385598 -0.0380122 -0.067698374 0.1183206 0.005584821 -0.041535035 -0.12745628 0.06297037
0.08679506 0.0003592968 -0.11151712 -0.05867392 -0.11416857 -0.021456808 -0.13206217 0.10532831
0.060067214 -0.099011905 0.07874806 -0.018396681 0.12444666 0.11354888 -0.0068366677 0.1046397
0.10433612 -0.10563053 0.17073047 0.04003868 0.10760289 0.122996375 0.10028724 0.12293179
-0.043983974 -0.045627866 0.028707363 0.059938908 -0.080265254 -0.005469382 0.050207056 0.00025011034
-0.07360603 -0.043542787 0.09151051 -0.06517003 -0.09922366 0.0033190947 0.013424623 0.15852913
0.068015985 -0.0037652552 0.03614194 -0.11597518 0.09587653 -0.1353175 0.12856339 -0.11473508
-0.11372029 0.093266316 0.11365113 -0.015649274 -0.03340078 -0.0067787003 0.1767912 0.17644593
0.012785062 -0.04371203 -0.12017593 -0.05155987 -0.022188945 0.01578295 0.12235752 0.14156221
-0.062152397 -0.04088832 -0.14596595 0.03749879 0.10785632 0.00899668 -0.040644195 -0.09098623
-0.08562129 0.03578571 -0.026978767 0.16741066 0.028360704 -0.13825831 -0.020349443 -0.10947192
-0.018479625 0.020475587 0.05704687 0.05843602 -0.05347559 0.06561598 -0.018319286 0.01652819
0.027761117 -0.031897545 -0.10802919 -0.060243063 -0.036223046 -0.14789784 -0.051601753 0.06954825
00000000: 0c0b 1c3e 08c9 b2bc 19a1 3e3d 3dc5 2b3e
00000010: 539b 163e a2c2 babd 79ef 173e 712d 043e
00000020: c684 36bd 9902 0d3e 80a2 0bbd 767e fdbd
00000030: a30a 2e3e a965 053e b6ec 223e fc23 8b3d
00000040: d758 0b3e 43db f6bd a246 233e 5ea2 42bd
00000050: 88bb c0bd 664f cabd b5d3 c83d 153f d6bd
00000060: dcde 113d 333c acbd 58e4 ad3d 41ba 0e3e
00000070: 604e 9c3b 390e ef3d 684f 75bd 4b5f 4a3b
00000080: 93af dcbd 3637 e13d 8225 603d 80cb d6bb
00000090: 9193 893c 866f 7fbd 10c8 c3bd aa42 eabc
000000a0: 3568 063d ce90 0a3e 52af c4bd 8432 863d
000000b0: 870b febd 5b3a f2bd 0035 56b9 f4d3 dfbc
000000c0: 00e8 afbb 426a 4dbd 85c4 133e c994 78bd
000000d0: 79df 213e e1ef b63c 2d9d b6bd a394 2c3e
000000e0: 37ba 4b3d a1e8 05be d500 03be 0a97 a93d
000000f0: 1ef7 533d ba72 d4bd a9f1 303e 17b2 b03d
00000100: 67c5 3dbd 0395 fbbd fe24 0d3d 504b 64bc
00000110: f387 233e 0aa4 18be 9ad5 cb3d 218e eb3d
00000120: dfc6 bfbd 9fe0 1abd 3a5a 083e 4a13 e33d
00000130: 2652 b53d 1bc1 083e 0482 623d cfaa afbd
00000140: 4969 07be 4229 a9bd 339a 573d 0ff8 f9bd
00000150: 0de5 92bd 6051 fa3c 9e37 e7bc 4eea cdbd
00000160: e093 353d 5806 9abd 4b01 09be c403 87bd
00000170: c99d d8bd 3ab3 febd 72cc d63d 84c3 b43c
00000180: e206 b33d 0637 273e 9ed9 f7bc c75e eabd
00000190: 16b3 66bd 06c8 babd 8236 c2bd b0bf 48bc
000001a0: 7cbe 123e 2cd8 94bd 89ea 67bd dd41 da3d
000001b0: b279 1d3a a2ef 213e 01a0 e1bd 858c d03d
000001c0: 1265 83bd 7309 98bd 05ab da3d df43 b63b
000001d0: 2439 2c3e 9570 8ebd 6004 df3d 484b 8dbd
000001e0: d2ae 0dbe 3ef0 77bd 283b 963c 910e ddbd
000001f0: f7a4 83bd 2003 cb3d c8f4 a33c d8c7 0e3d
00000200: 0ed0 dd3d 6acf 9c3d 70ce 0a3c f657 cb3d
00000210: d225 9bbd 4060 32bc c872 e9bc e6b1 d53d
00000220: fea0 2fbd 723e d23d c00b 6c3b 10c4 8c3d
00000230: 6eb1 fabd c353 92bd 33c1 0a3e a7d9 063e
00000240: 963b a2bd 3614 e43d 2eef ca3d b69e d93d
00000250: 06fa 6abd af22 13be dd03 8abd 7703 dbbd
00000260: 9037 c03d aeb2 1bbd 72a5 8abd 1252 f23d
00000270: e000 b73b a420 2abd e683 02be 9cf6 803d
00000280: 9cc1 b13d 0060 bc39 1663 e4bd 1054 70bd
00000290: 36d1 e9bd 30c6 afbc 4e3b 07be 5eb6 d73d
000002a0: 0a09 763d c1c6 cabd aa46 a13d a3b4 96bc
000002b0: e4dd fe3d 518c e83d 2006 e0bb 574d d63d
000002c0: 2dae d53d d254 d8bd f8d3 2e3e 99ff 233d
000002d0: e75e dc3d 86e5 fb3d 6663 cd3d aac3 fb3d
000002e0: 8a28 34bd 49e4 3abd b42b eb3c 8082 753d
000002f0: 1c62 a4bd 8038 b3bb eaa5 4d3d 3e21 8339
00000300: c2be 96bd ec59 32bd dd69 bb3d dd77 85bd
00000310: c635 cbbd 2b85 593b f3f2 5b3c 7655 223e
00000320: f74b 8b3d 80c2 76bb 9209 143d 6584 edbd
00000330: ea5a c43d ac90 0abe 1fa6 033e 3afa eabd
00000340: 2fe6 e8bd 6902 bf3d ecc1 e83d e832 80bc
00000350: 42cf 08bd dc1f debb c108 353e 3eae 343e
00000360: 7078 513c 630b 33bd cc1e f6bd 7130 53bd
00000370: 97c5 b5bc 3f4b 813c 9496 fa3d aff5 103e
00000380: 8393 7ebd 837a 27bd 1978 15be 5598 193d
00000390: c6e3 dc3d d066 133c 877a 26bd fd56 babd
000003a0: 375a afbd 0994 123d 9302 ddbc b36d 2b3e
000003b0: b554 e83c 9693 0dbe e0b3 a6bc d032 e0bd
000003c0: 9562 97bc 6bbc a73c fba9 693d 9c5a 6f3d
000003d0: 3809 5bbd ac61 863d 5412 96bc 2066 873c
000003e0: 486b e33c 00a7 02bd 683e ddbd 6ec1 76bd
000003f0: 9e5e 14bd 8872 17be 5c5c 53bd 506f 8e3d

hidden_layers.1.bias f4 [42]
0.11195564 -0.026163869 0.072527446 -0.15007038 0.0636452 0.17376456 -0.023624808 -0.0026045293
0.029402748 -0.13502659 0.12131665 0.06090879 0.17803703 0.12665325 0.13615626 -0.09442019
0.065632194 0.16818614 0.1179264 0.11973042 -0.0271452 -0.113699816 0.039841834 -0.103109054
0.0552149 -0.12173088 -0.07196336 0.08331013 0.05977328 -0.12234442 -0.14769387 0.019722963
-0.11225091 0.03532898 -0.0030211934 0.08123392 0.1311591 -0.05502766 -0.0025286365 -0.01827039
0.13091461 -0.01835855
00000000: 0049 e53d 9c55 d6bc 4589 943d 0dac 19be
00000010: 6a58 823d 56ef 313e d088 c1bc c0b0 2abb
00000020: 08de f03c 6944 0abe dd74 f83d 7f7b 793d
00000030: 574f 363e 64b1 013e 8c6c 0b3e 5f5f c1bd
00000040: 2c6a 863d fd38 2c3e 6583 f13d 3935 f53d
00000050: 9c5f debc 73db e8bd 3131 233d d72a d3bd
00000060: 0529 623d 0a4e f9bd 8761 93bd 809e aa3d
00000070: d4d4 743d b68f fabd 103d 17be 0d92 a13c
00000080: cee3 e5bd 1fb5 103d 37ff 45bb f85d a63d
00000090: 924e 063e af64 61bd 7bb7 25bb c9ab 95bc
000000a0: 7b0e 063e ab64 96bc

hidden_layers.2.weight f4 [42, 42]
-0.024157971 -0.07850983 -0.12849873 -0.026909024 -0.056243822 0.1326866 -0.015039682 -0.14838691
0.02644065 0.01451011 -0.041148372 0.108000204 -0.15320294 -0.14588898 0.07547422 -0.010745198
-0.11663081 0.117039934 -0.018198922 0.14151333 0.12063675 -0.011009142 -0.036016665 -0.112801924
0.08981711 -0.1453731 0.053678498 -0.05501666 -0.09087625 -0.020615205 -0.012859285 -0.09781721
0.079412356 -0.123549975 0.15333326 0.07327998 -0.021725073 0.1340961 0.030302092 -0.12167893
-0.058377184 -0.088226445 0.10533847 0.021333635 0.1520079 -0.11924302 -0.03557553 -0.0013436377
0.09268141 0.026601866 -0.08757545 0.011526093 -0.12777303 0.12133296 -0.14563353 -0.1301316
-0.07120773 -0.09673016 -0.051433094 -0.093957715 -0.09148338 -0.05427654 -0.14095673 0.12819587
0.0072137713 0.11441864 -0.011515185 0.122628465 -0.029545128 -0.14956908 -0.04055368 0.013185799
-0.10139266 0.0062204897 0.07706986 -0.01521641 0.097406164 0.0012666881 0.115747854 -0.09802446
0.13406028 -0.09251855 0.09404251 0.12385823 -0.06728568 -0.09363876 0.090348974 -0.05662506
0.030845433 -0.11322187 0.09173703 0.1203108 0.07094416 0.08990185 -0.13157608 -0.01372005
-0.07932203 0.077766985 0.044130445 -0.13893418 -0.14899887 -0.0839054 -0.04360891 -0.099720955
0.07471712 -0.06711334 -0.021111906 0.06074612 0.08481352 0.1404713 -0.08259285 -0.10428809
0.12712722 -0.014302209 0.15124787 -0.04269035 0.026386112 0.028430417 0.03406635 -0.02422598
-0.0019619018 -0.13205911 0.14567928 0.10933538 -0.13695535 0.06179273 0.076297715 0.074087076
-0.026519189 -0.13879515 0.16330925 -0.1285784 -0.029462665 0.056431934 0.07757305 0.043137923
0.005106524 0.08774627 0.09030648 0.031658612 -0.06162099 -0.10609905 0.05865515 -0.12946844
0.0789633 -0.11912699 -0.013033075 0.0947417 0.06748567 -0.10245471 -0.039830957 0.1300389
-0.11220038 -0.12451512 0.08994722 0.10566558 -0.052648507 0.107983835 0.041467085 0.11239906
-0.10995948 -0.03295458 -0.05906555 -0.12239847 -0.0575745 0.031607527 0.023570342 -0.03683227
-0.004776433 0.103006296 -0.13865177 -0.003821373 0.10975831 -0.059224866 -0.07594112 0.022572547
-0.073353365 -0.123132974 0.02729047 -0.01884375 0.07857518 -0.038126927 0.010920217 0.09051515
0.07793823 0.12790902 -0.14555594 -0.026458051 0.1089702 0.15177168 -0.011060125 -0.08262589
-0.03835062 -0.13035218 -0.080220394 0.12505576 0.074352555 0.053032324 -0.15202136 -0.04440692
0.023086578 0.02978301 0.11623053 0.051268563 -0.05910548 -0.07581938 0.14640053 0.059603244
-0.04602821 0.04178065 -0.1034941 0.1043498 0.05287166 0.14237423 -0.094536155 0.023175925
-0.14433117 -0.07989053 0.15659094 -0.097397596 -0.038258303 -0.13486652 0.075639896 0.116949566
-0.038797185 -0.060605645 -0.05897367 0.0780483 -0.12197632 0.10678424 0.07514419 -0.11329578
0.0041931085 0.10934363 0.14245172 0.00065745413 0.119846225 -0.10763289 -0.06840313 -0.051068135
0.08375144 0.13757879 0.07656737 -0.11223491 -0.07643384 0.097082436 -0.096831016 -0.009000629
0.034743242 0.0669218 0.12258123 0.016116004 -0.040026132 -0.025376726 0.16598599 0.084186435
00000000: f0e6 c5bc c3c9 a0bd 2c95 03be 5070 dcbc
00000010: ec5f 66bd ffde 073e 0069 76bc bdf2 17be
00000020: 109a d83c d0bb 6d3c 328b 28bd 362f dd3d
00000030: 3be1 1cbe ec63 15be 3a92 9a3d a00c 30bc
00000040: 22dc eebd a2b2 ef3d e815 95bc dfe8 103e
00000050: 6610 f73d b05f 34bc 3686 13bd b204 e7bd
00000060: 08f2 b73d b0dc 14be fcdd 5b3d 2659 61bd
00000070: 541d babd 38e1 a8bc c0af 52bc 6454 c8bd
00000080: f2a2 a23d c507 fdbd 6503 1d3e d013 963d
00000090: c8f8 b1bc 7d50 093e 183c f83c ce32 f9bd
000000a0: ea1c 6fbd 11b0 b4bd b2bb d73d e0c3 ae3c
000000b0: f5a7 1b3e af35 f4bd a6b7 11bd 001d b0ba
000000c0: c0cf bd3d 28ec d93c c25a b3bd f0d7 3c3c
000000d0: efd6 02be 6a7d f83d f520 15be 3841 05be
000000e0: 5cd5 91bd 761a c6bd 82ab 52bd e76c c0bd
000000f0: a35b bbbd 1451 5ebd f656 10be c745 033e
00000100: 8061 ec3b 5254 ea3d 30aa 3cbc a224 fb3d
00000110: a008 f2bc a328 19be 9e1b 26bd 4009 583c
00000120: f4a6 cfbd 40d5 cb3b ced6 9d3d 404e 79bc
00000130: e27c c73d 0007 a63a 360d ed3d 0cc1 c8bd
00000140: 1947 093e 5e7a bdbd 5c99 c03d 62a9 fd3d
00000150: 13cd 89bd aec5 bfbd e208 b93d aeef 67bd
00000160: 90af fc3c dee0 e7bd a0e0 bb3d 8265 f63d
00000170: 2c4b 913d 761e b83d e1bb 06be 10ca 60bc
00000180: 9773 a2bd 4c44 9f3d 20c2 343d c344 0ebe
00000190: 2993 18be 98d6 abbd 429f 32bd 803a ccbd
000001a0: 4a05 993d b872 89bd e0f2 acbc ecd0 783d
000001b0: b6b2 ad3d b5d7 0f3e 7126 a9bd fe94 d5bd
000001c0: a32d 023e d053 6abc b9e0 1a3e 14dc 2ebd
000001d0: b027 d83c e8e6 e83c 2889 0b3d 9075 c6bc
000001e0: 4093 00bb 813a 07be f32c 153e 3aeb df3d
000001f0: 063e 0cbe 601a 7d3d fa41 9c3d f7ba 973d
00000200: c53e d9bc 5120 0ebe 8a3a 273e 0eaa 03be
00000210: b05b f1bc 2c25 673d 9fde 9e3d 64b1 303d
00000220: a154 a73b 51b4 b33d 9bf2 b83d 76ac 013d
00000230: 4b66 7cbd 754a d9bd 6240 703d 6093 04be
00000240: 83b7 a13d daf8 f3bd ae88 55bc f007 c23d
00000250: ed35 8a3d c6d3 d1bd c925 23bd eb28 053e
00000260: 50c9 e5bd c901 ffbd 4036 b83d 3267 d83d
00000270: f6a5 57bd a126 dd3d 64d9 293d 7a31 e63d
00000280: 7032 e1bd 62fb 06bd b8ee 71bd 0dac fabd
00000290: 3dd3 6bbd e576 013d 9716 c13c 6fdd 16bd
000002a0: a083 9cbb f7f4 d23d bbfa 0dbe 0070 7abb
000002b0: f7c8 e03d c695 72bd 0587 9bbd 10ea b83c
000002c0: 4a3a 96bd 242d fcbd 4490 df3c 355e 9abc
000002d0: 06ec a03d fb2a 1cbd b6ea 323c 0260 b93d
000002e0: 149e 9f3d 95fa 023e 9e0c 15be 8ebe d8bc
000002f0: c52b df3d 096a 1b3e 8735 35bc c337 a9bd
00000300: 8a15 1dbd 0b7b 05be 974a a4bd 9e0e 003e
00000310: 2746 983d 6c38 593d 7dab 1bbe 08e4 35bd
00000320: 1020 bd3c 80fb f33c 460a ee3d fcfe 513d
00000330: 9618 72bd 3147 9bbd 05ea 153e 8822 743d
00000340: 1488 3cbd 3022 2b3d b7f4 d3bd 59b5 d53d
00000350: f48f 583d 8dca 113e 2c9c c1bd 70db bd3c
00000360: 8dcb 13be a59d a3bd 6059 203e 6478 c7bd
00000370: bdb4 1cbd 731a 0abe 17e9 9a3d 4183 ef3d
00000380: cce9 1ebd a03d 78bd 608e 71bd cad7 9f3d
00000390: b9ce f9bd b2b1 da3d 32e5 993d 9e07 e8bd
000003a0: 5866 893b 8eef df3d ddde 113e 0059 2c3a
000003b0: f071 f53d a26e dcbd f116 8cbd d22c 51bd
000003c0: e085 ab3d 74e1 0c3e 5acf 9c3d 6bdb e5bd
000003d0: 5889 9cbd 28d3 c63d 574f c6bd 6077 13bc
000003e0: ee4e 0e3d 4c0e 893d de0b fb3d b605 843c
000003f0: 71f2 23bd dae2 cfbc 3bf8 293e f069 ac3d

hidden_layers.2.bias f4 [42]
-0.12972435 -0.1271537 -0.002814144 0.1241865 -0.13180542 0.15961328 0.087937325 0.14012118
0.0708487 0.16080749 -0.093130484 -0.07468461 -0.01263157 0.110435955 -0.1469911 -0.1041857
0.15432493 -0.0028763046 -0.10513194 0.11995967 -0.07235308 -0.111673415 0.01929894 -0.14255801
0.043793466 0.035643324 0.09679651 0.118181944 0.11806294 0.063681506 -0.09863387 0.06859633
0.050676584 -0.05592648 -0.1174134 0.14675295 -0.009353399 0.05581196 -0.12074529 -0.057256743
0.17750056 0.17216866
00000000: 76d6 04be 9434 02be 806d 38bb 7e55 fe3d
00000010: 00f8 06be aa71 233e 7c18 b43d ed7b 0f3e
00000020: 2019 913d b8aa 243e 32bb bebd 3ff4 98bd
00000030: a5f4 4ebc 3f2c e23d d684 16be 505f d5bd
00000040: 5b07 1e3e 6280 3cbb 6a4f d7bd 6aad f53d
00000050: da2d 94bd 08b5 e4bd d018 9e3c bafa 11be
00000060: c760 333d bcfe 113d 403d c63d 6009 f23d
00000070: fcca f13d 736b 823d 8e00 cabd 3c7c 8c3d
00000080: 4092 4f3d 2a13 65bd 7076 f0bd 6846 163e
00000090: 003f 19bc 159b 643d 4e49 f7bd 0c86 6abd
000000a0: b5c2 353e fb4c 303e

hidden_layers.3.weight f4 [42, 42]
0.027267843 0.1175261 -0.09618592 0.00038481996 0.059984922 0.11914356 -0.12100554 -0.033513833
-0.022279799 -0.06754744 -0.020915285 0.037728377 0.018973257 0.027086943 0.065127775 -0.043341957
-0.11381982 0.14883278 0.018780902 -0.0037111093 0.030509487 -0.03273391 -0.07217865 -0.076576374
-0.030434376 -0.085944414 -0.11377804 0.053952396 0.041610852 0.023036929 0.08190091 -0.12073664
-0.12058098 0.023431152 0.13845952 0.09676533 -0.011025026 -0.08869337 0.12478228 0.0023884326
0.09860182 -0.13374726 -0.040065862 -0.14932911 0.082940266 0.08725479 0.14680286 0.03497137
0.073498905 0.114917085 0.063558534 0.025074497 -0.1382585 -0.1502821 0.047306523 -0.053815834
-0.14709121 -0.13435987 0.0069800317 -0.08137099 -0.008842424 -0.07522203 -0.052506536 0.07224396
-0.033491172 -0.10194309 -0.019378066 -0.04085367 -0.10328016 -0.14819717 -0.027088076 -0.058958486
0.12125425 0.06937699 -0.077740096 -0.060084186 0.027308226 0.049084544 -0.14211023 0.025615335
-0.011868522 -0.06826643 -0.0069370717 0.0010409802 0.10884507 -0.14178964 -0.13234615 -0.051580455
0.08525548 -0.020347942 0.17815149 -0.0985217 0.03323792 -0.0383082 -0.0923135 -0.07585281
-0.11182301 -0.04685091 0.08218651 0.13870262 -0.10291765 0.12938644 0.10835968 -0.033354223
0.15219761 0.046999756 0.0038772076 -0.017244346 0.01678323 -0.14235923 0.06579459 -0.11055437
0.12460347 -0.025134169 -0.07432467 0.085286245 0.10639259 0.104381874 0.14015453 0.14354497
0.13572548 -0.04362497 0.06669362 0.058923602 0.14266269 0.030707972 -0.021559075 -0.042664602
0.13781096 -0.088683784 0.14221679 -0.09006883 -0.12404951 -0.11411764 -0.15194455 0.01480113
-0.109026775 0.08958383 -0.03835319 -0.106958434 -0.1402213 -0.059595495 0.07006647 -0.112270236
0.14778532 -0.104150176 0.011292994 -0.05558107 -0.14910552 0.01850842 -0.07878924 -0.103918225
-0.04958845 0.037340745 -0.051392958 -0.049096458 -0.00673604 0.11092074 0.057109043 0.11078723
-0.09753074 0.05128169 -0.12126723 0.04161817 -0.12822458 0.044679314 0.027850896 -0.024248108
0.0656694 -0.05730424 -0.10854261 0.13316321 0.03204873 0.025833784 -0.0014647513 -0.004593597
-0.08303119 0.056890093 -0.024808466 0.09668903 -0.08554843 0.12183302 0.06495743 0.12291019
0.09826613 0.16660875 0.031848446 -0.09195092 0.13230957 -0.07317672 0.025027543 -0.07271781
-0.0912043 0.13575934 -0.012023311 -0.09516839 -0.10689776 0.09353715 -0.10040609 -0.079746075
0.111012235 -0.062118717 -0.10307285 0.15039454 -0.00573878 -0.097110525 0.07604754 -0.09592505
0.13247964 0.10953301 -0.062078156 -0.11512582 0.13062991 -0.13735993 0.096497044 -0.04351702
0.0078066257 0.0052400595 0.11372359 -0.00020385603 -0.038930573 -0.038478605 0.11234992 0.12397135
0.15016115 -0.11219042 -0.0901263 -0.14885634 0.035152912 -0.1089767 -0.04047107 0.013831549
0.053574547 0.044695295 -0.119782865 0.099753745 -0.14580901 0.04647515 -0.0002969103 0.10457801
0.029557578 -0.105629414 -0.08714548 0.019522965 -0.10595046 -0.04210054 -0.02458021 0.046232406
-0.07022091 0.08833416 0.050850455 -0.011477017 -0.0780695 0.012351304 0.0733459 0.06433488
00000000: d060 df3c 86b1 f03d 20fd c4bd a9c1 c939
00000010: c0b2 753d 8a01 f43d c1d1 f7bd cd45 09bd
00000020: 2084 b6bc 5056 8abd 8856 abbc 1289 1a3d
00000030: ce6d 9b3c 70e5 dd3c b661 853d 5687 31bd
00000040: 5e1a e9bd 9f67 183e 68da 993c 1536 73bb
00000050: 08ef f93c fe13 06bd 66d2 93bd 13d4 9cbd
00000060: 8351 f9bc a003 b0bd 7604 e9bd 30fd 5c3d
00000070: 2470 2a3d f1b7 bc3c aabb a73d c644 f7bd
00000080: 29f3 f6bd b0f2 bf3c 55c8 0d3e e72c c63d
00000090: 50a2 34bc dfa4 b5bd da8d ff3d 4087 1c3b
000000a0: c0ef c93d 0bf5 08be 1a1c 24bd bbe9 18be
000000b0: 96dc a93d a4b2 b23d 7d53 163e 243e 0f3d
000000c0: 9886 963d a659 eb3d fa2a 823d 0869 cd3c
000000d0: a393 0dbe 8de3 19be 7cc4 413d fe6d 5cbd
000000e0: 149f 16be a295 09be c0b8 e43b d5a5 a6bd
000000f0: d0df 10bc 020e 9abd 1811 57bd a4f4 933d
00000100: 0a2e 09bd 8ac7 d0bd c0be 9ebc 2e56 27bd
00000110: 8c84 d3bd 00c1 17be d0e7 ddbc 747e 71bd
00000120: 2654 f83d 8615 8e3d 3336 9fbd d61a 76bd
00000130: 80b5 df3c e00c 493d 5885 11be 40d7 d13c
00000140: 3074 42bc 45cf 8bbd 6050 e3bb 8071 883a
00000150: 2aea de3d 4e31 11be c085 07be 0746 53bd
00000160: 6d9a ae3d bab0 a6bc 586d 363e bfc5 c9bd
00000170: 7c24 083d 0fe9 1cbd dc0e bdbd b858 9bbd
00000180: 7603 e5bd bde6 3fbd 6751 a83d 0f08 0e3e
00000190: 7dc6 d2bd e17d 043e aeeb dd3d 709e 08bd
000001a0: b1d9 1b3e d182 403d c018 7e3b 0444 8dbc
000001b0: fc7c 893c 9ec6 11be 50bf 863d 546a e2bd
000001c0: 1b30 ff3d 2ce6 cdbc 8837 98bd 8eaa ae3d
000001d0: 5ce4 d93d 2ac6 d53d ab84 0f3e 74fd 123e
000001e0: 9ffb 0a3e 19b0 32bd aa96 883d e059 713d
000001f0: 2b16 123e 498f fb3c a89c b0bc 14c1 2ebd
00000200: 511e 0d3e d89f b5bd 47a1 113e 0276 b8bd
00000210: ab0d febd 82b6 e9bd 5a97 1bbe 7080 723c
00000220: 6e49 dfbd ba77 b73d 3c18 1dbd 060d dbbd
00000230: 2c96 0fbe 681a 74bd 027f 8f3d f0ed e5bd
00000240: 0955 173e b04c d5bd 4006 393c faa8 63bd
00000250: 1eaf 18be f89e 973c 415c a1bd 14d3 d4bd
00000260: 421d 4bbd 9cf2 183d 6c81 52bd 5e19 49bd
00000270: 00ba dcbb 6a2a e33d 2ceb 693d 6ae4 e23d
00000280: 32be c7bd c00c 523d f45a f8bd d077 2a3d
00000290: 4e4d 03be a801 373d 9027 e43c f8a3 c6bc
000002a0: ae7d 863d dab7 6abd 974b debd f05b 083e
000002b0: 8745 033d 5fa1 d33c e6fc bfba e285 96bb
000002c0: 420c aabd 9605 693d 203b cbbc e604 c63d
000002d0: 0434 afbd 9783 f93d 6708 853d 56b8 fb3d
000002e0: c13f c93d 7c9b 2a3e 8473 023d c450 bcbd
000002f0: 297c 073e addd 95bd 9006 cd3c 13ed 94bd
00000300: 52c9 babd 7f04 0b3e 6cfd 44bc a5e7 c2bd
00000310: 36ed dabd 6890 bf3d b5a1 cdbd e951 a3bd
00000320: 625a e33d 3270 7ebd dc17 d3bd 0701 1a3e
00000330: 600c bcbb e2e1 c6bd d0be 9b3d 5a74 c4bd
00000340: bea8 073e d852 e03d aa45 7ebd 16c7 ebbd
00000350: d9c3 053e 15a8 0cbe 3ea0 c53d e73e 32bd
00000360: b9ce ff3b ceb4 ab3b eae7 e83d 30c2 55b9
00000370: aa75 1fbd be9b 1dbd b717 e63d b1e4 fd3d
00000380: d8c3 193e 17c4 e5bd 2394 b8bd cc6d 18be
00000390: 80fc 0f3d 2d2f dfbd fec4 25bd b99d 623c
000003a0: fc70 5b3d 6a12 373d b850 f5bd b14b cc3d
000003b0: f54e 15be ba5c 3e3d a0aa 9bb9 ff2c d63d
000003c0: bc22 f23c 3c54 d8bd 5479 b2bd a0ee 9f3c
000003d0: 8efc d8bd 9e71 2cbd 705c c9bc 315e 3d3d
000003e0: fbcf 8fbd 8ae8 b43d 9148 503d 190a 3cbc
000003f0: e7e2 9fbd 205d 4a3c 6036 963d 01c2 833d

hidden_layers.3.bias f4 [42]
0.014711345 -0.068839826 0.06865292 -0.13471605 0.09061117 0.115853034 0.12970997 -0.05795183
-0.09319102 0.1285897 -0.03620561 -0.09776786 -0.08043764 0.033231437 0.008250345 0.08437063
-0.09242151 0.057538483 0.08954884 0.12576355 -0.12749764 0.13717766 0.085914426 -0.05854326
-0.07881613 -0.032105096 -0.0817645 -0.14568414 -0.04829131 -0.120234534 0.10176591 0.09977974
0.064481325 0.036521044 -0.10660991 0.12870291 0.17816865 -0.08070082 0.022861168 -0.09821072
0.09675737 0.11890058
00000000: da07 713c e5fb 8cbd e799 8c3d 01f3 09be
00000010: 5992 b93d 5b44 ed3d b1d2 043e e65e 6dbd
00000020: efda bebd 05ad 033e 554c 14bd 843a c8bd
00000030: 7dbc a4bd b01d 083d 742c 073c 82ca ac3d
00000040: 7d47 bdbd 79ad 6b3d 6265 b73d 29c8 003e
00000050: be8e 02be 4d78 0c3e e7f3 af3d 0fcb 6fbd
00000060: 5a6a a1bd a280 03bd 2574 a7bd 392e 15be
00000070: 1ccd 45bd 863d f6bd a56a d03d 5259 cc3d
00000080: c90e 843d 1797 153d 4c56 dabd b2ca 033e
00000090: d871 363e 7946 a5bd 5847 bb3c b422 c9bd
000000a0: ba28 c63d 2682 f33d

output_layer1.weight f4 [40, 42]
-0.12464609 0.14639516 -0.107468836 0.09633027 -0.016923249 -0.11410816 -0.0668988 -0.052451998
-0.08153232 0.09676362 0.09515682 0.13223158 -0.0059798956 -0.09032747 -0.013657663 -0.035164464
-0.1319221 -0.074410595 -0.118697286 -0.06941387 -0.03973154 -0.012135444 0.07731755 -0.12453057
-0.06673692 -0.14646734 -0.0058954954 -0.13439971 0.10559484 -0.06660353 -0.029461585 -0.090390205
0.107778884 -0.13229737 0.060576037 -0.013078482 -0.13915151 0.054495707 0.11334113 -0.1256113
-0.09872725 0.020175986 -0.0058406447 0.09653406 -0.09947415 -0.057987593 0.02059886 -0.09285693
-0.066168286 -0.050627276 -0.065862045 -0.104702175 0.11496558 -0.020533308 -0.10487299 0.088738844
-0.0064187255 0.044261713 0.06871267 0.0058948738 0.12467394 -0.110716045 -0.14803262 -0.031325407
0.12095176 0.03164467 -0.012364 -0.09355554 0.0718939 -0.1241614 -0.13024114 0.08721435
-0.026364192 -0.10657621 -0.029236026 0.05722273 0.012539953 -0.067702346 0.14587313 -0.050251238
0.048214883 6.361306e-05 0.045997377 0.059402343 -0.0927791 -0.00799942 -0.06505275 -0.0048448592
-0.06640705 0.008084657 0.054096095 -0.060325906 0.04036822 0.0896508 -0.12890701 0.1467428
-0.072549805 0.040928856 -0.124190666 -0.028793482 -0.13807282 0.067421526 0.022690622 0.11403742
0.13641588 0.065873906 -0.089355335 0.11015435 0.00029072165 0.04187888 -0.14083304 0.12626396
-0.09569673 0.11946739 0.15700051 0.08348601 -0.09221437 0.028785238 -0.09536956 -0.11582943
-0.12517704 0.091356024 0.14809398 -0.04205109 0.02541134 0.006615529 0.08653981 0.09223591
0.0021432345 0.13846697 -0.15278447 -0.161868 -0.15574479 0.01701209 -0.1240503 0.034971077
0.07563705 0.038326487 0.15424056 0.019693628 0.063688934 0.13120203 -0.11002879 0.14405298
-0.1262142 0.030843213 0.097650275 0.1345735 -0.064882345 -0.15068237 -0.09505193 -0.022519425
-0.064741276 0.02655612 -0.071163364 -0.043280147 -0.028526714 0.103470296 0.089082375 0.054097444
-0.06281124 -0.100246035 -0.12890372 -0.124518104 -0.03812277 0.091083616 0.063312925 -0.14006735
0.037367802 0.00668478 -0.038180552 0.08932255 -0.03442735 0.118653186 -0.1475431 0.028642267
-0.03188662 0.017079893 0.11012174 0.013633043 -0.08089738 0.06911497 0.024016501 -0.016295895
0.0019987226 -0.110365435 -0.027602395 0.037597418 -0.09573057 0.037907794 -0.14693503 0.0757045
0.06947178 0.13089357 0.13258024 -0.026683722 -0.0530814 0.09593056 0.00777654 -0.018064257
0.10493162 0.011702308 0.14087595 0.11884788 -0.119197905 0.0030016005 0.11763468 -0.031582326
-0.03511221 0.052362 0.006204909 0.118319765 -0.156427 -0.09514239 0.033296138 0.10665921
0.07213902 0.10822992 0.12441105 -0.13134436 -0.070016466 -0.04709257 -0.0065677315 0.117900416
0.034611817 0.05430538 0.109878376 -0.15867211 -0.021730183 0.019670228 -0.023988679 -0.07675812
-0.043080043 0.14254501 0.09132603 -0.031532533 -0.10235904 0.13419715 0.123965755 0.0075409263
-0.01444889 -0.11630432 0.11583684 -0.14766747 -0.10195961 0.11961879 0.043423515 0.11524014
0.02838147 -0.06268885 -0.034747917 0.069997676 -0.031133905 0.088298336 -0.0631765 -0.0013234913
00000000: 7346 ffbd 9de8 153e 9f18 dcbd ce48 c53d
00000010: a0a2 8abc 8ab1 e9bd 3d02 89bd e8d7 56bd
00000020: 6bfa a6bd 012c c63d 94e1 c23d b767 073e
00000030: 00f3 c3bb 9cfd b8bd 64c4 5fbc 9d08 10bd
00000040: 9616 07be 9564 98bd 9017 f3bd dc28 8ebd
00000050: 8abd 22bd bed3 46bc aa58 9e3d e209 ffbd
00000060: 5ead 88bd 89fb 15be 002f c1bb 14a0 09be
00000070: 1c42 d83d 6e67 88bd 6c59 f1bc 801e b9bd
00000080: 2dbb dc3d f678 07be 941e 783d 2147 56bc
00000090: bc7d 0ebe e436 5f3d 651f e83d 40a0 00be
000000a0: 8331 cabd 1c48 a53c e162 bfbb a6b3 c53d
000000b0: 1ab9 cbbd 6684 6dbd f1be a83c c62b bebd
000000c0: 3d83 87bd 8c5e 4fbd aee2 86bd 186e d6bd
000000d0: 1373 eb3d 7835 a8bc a6c7 d6bd b6bc b53d
000000e0: 2c54 d2bb c54b 353d 3ab9 8c3d c929 c13b
000000f0: 0d55 ff3d 18bf e2bd dd95 17be 124f 00bd
00000100: 8eb5 f73d d79d 013d 6092 4abc 0c9a bfbd
00000110: 1c3d 933d 5548 febd ef5d 05be 709d b23d
00000120: b8f9 d7bc a144 dabd 6480 efbc 6262 6a3d
00000130: 6074 4d3c 87a7 8abd c45f 153e 3ed4 4dbd
00000140: f87c 453d 0068 8538 bf67 3c3d df4f 733d
00000150: f802 bebd 0010 03bc 603a 85bd a0c1 9ebb
00000160: 6b00 88bd 8275 043c de93 5d3d 4c18 77bd
00000170: 2659 253d d79a b73d 3300 04be bf43 163e
00000180: fe94 94bd 04a5 273d ad57 febd 4fe0 ebbc
00000190: f662 0dbe 4c14 8a3d afe1 b93c 738c e93d
000001a0: 9bb0 0b3e e6e8 863d eeff b6bd 9b98 e13d
000001b0: 006c 9839 3089 2b3d 8936 10be 574b 013e
000001c0: a6fc c3bd 52ab f43d bec4 203e b7fa aa3d
000001d0: e3da bcbd 05cf eb3c 1e51 c3bd fb37 edbd
000001e0: 692e 00be de18 bb3d f3a5 173e c43d 2cbd
000001f0: 712b d03c 14c7 d83b c93b b13d 2ee6 bc3d
00000200: 8275 0c3b 49ca 0d3e 8873 1cbe bac0 25be
00000210: 907b 1fbe f05c 8b3c 150e febd d53d 0f3d
00000220: 99e7 9a3d 3cfc 1c3d 3df1 1d3e 8854 a13c
00000230: 586f 823d d359 063e c656 e1bd a082 133e
00000240: 4c3e 01be e8aa fc3c defc c73d a3cd 093e
00000250: 09e1 84bd 7b4c 1abe 96aa c2bd a87a b8bc
00000260: 1397 84bd 388c d93c 19be 91bd 8646 31bd
00000270: dbb0 e9bc 3ce8 d33d d270 b63d 4895 5d3d
00000280: 2ea3 80bd cb4d cdbd 56ff 03be 5903 ffbd
00000290: 9f26 1cbd 0c8a ba3d 35aa 813d d16d 0fbe
000002a0: fb0e 193d 000c db3b 3663 1cbd beee b63d
000002b0: b103 0dbd 7100 f33d 8a15 17be 30a3 ea3c
000002c0: 8b9b 02bd 22eb 8b3c 8287 e13d 205d 5f3c
000002d0: 87ad a5bd 268c 8d3d 41be c43c f87e 85bc
000002e0: 00fd 023b 4607 e2bd 6b1e e2bc c0ff 193d
000002f0: 640e c4bd 3445 1b3d 2376 16be f60a 9b3d
00000300: 3847 8e3d f708 063e 1dc3 073e d297 dabc
00000310: e26b 59bd 3e77 c43d 58d2 fe3b 7efb 93bc
00000320: 64e6 d63d 0abb 3f3c c941 103e 8466 f33d
00000330: 081e f4bd 80b6 443b 73ea f03d 785c 01bd
00000340: d2d1 0fbd 8979 563d 8d52 cb3b a251 f23d
00000350: 662e 20be 03da c2bd 8861 083d 2570 da3d
00000360: 9fbd 933d a6a7 dd3d 38cb fe3d 237f 06be
00000370: cb64 8fbd 24e4 40bd 2036 d7bb c675 f13d
00000380: 1fc5 0d3d 516f 5e3d ea07 e13d f17a 22be
00000390: 7f03 b2bc 7523 a13c e883 c4bc 5c33 9dbd
000003a0: b374 30bd 52f7 113e 2409 bb3d 4228 01bd
000003b0: 9ea1 d1bd fa6a 093e c2e1 fd3d e019 f73b
000003c0: 0abb 6cbc f630 eebd dd3b ed3d 2436 17be
000003d0: 33d0 d0bd b2fa f43d dbdc 313d 0603 ec3d
000003e0: 4280 e83c 0363 80bd d553 0ebd f15a 8f3d
000003f0: 880c ffbc c2d5 b43d ae62 81bd 0079 adba

output_layer1.bias f4 [40]
0.009450273 -0.09212628 0.15944895 -0.062012367 -0.01785792 0.11523809 -0.16293281 -0.03381602
-0.06105419 0.06143303 -0.07819678 0.0040273895 -0.08909611 -0.1622835 -0.02903401 0.089169286
0.11180271 -0.06928896 0.05835747 0.040782012 -0.015329039 -0.0679202 -0.028530587 0.1264601
-0.031671748 -0.056435265 -0.14173943 0.040493168 -0.093481675 -0.017025677 0.09773467 -0.0539155
-0.11737543 0.14309232 -0.077162944 0.16232017 0.17186172 -0.12673609 -0.029163858 0.075363405
00000000: 51d5 1a3c b4ac bcbd 9646 233e ae00 7ebd
00000010: c64a 92bc f301 ec3d dcd7 26be ab82 0abd
00000020: f513 7abd 33a1 7b3d a225 a0bd 31f8 833b
00000030: 0578 b6bd a52d 26be bbd8 edbc 639e b63d
00000040: d2f8 e43d 5fe7 8dbd 3e08 6f3d 0a0b 273d
00000050: a626 7bbc bf19 8bbd fab8 e9bc c27e 013e
00000060: 3cba 01bd aa28 67bd 2424 11be 2adc 253d
00000070: 5273 bfbd 6f79 8bbc 1d29 c83d 80d6 5cbd
00000080: 8862 f0bd cb86 123e 9b07 9ebd 4237 263e
00000090: 85fc 2f3e 1bc7 01be 0be9 eebc 2158 9a3d

output_layer2.weight f4 [1, 42]
-0.14343536 -0.11850505 0.1659152 0.015489519 0.15336713 -0.06668199 -0.030994985 -0.08779936
0.017814867 -0.06890969 0.1395502 0.14553078 -0.14514333 0.02972141 -0.032033846 -0.1262547
0.120475635 -0.023743926 0.054714095 -0.1189422 0.059349656 0.033512186 -0.11098138 0.13876346
0.057734177 -0.09112174 0.0128792375 0.027378727 0.06952693 -0.045219474 0.16250978 0.07885556
-0.043846443 0.015845573 -0.07017463 0.12125809 0.0635456 0.10890578 0.13259092 0.027910948
-0.13540697 0.025905576
00000000: b8e0 12be c7b2 f2bd ade5 293e c0c7 7d3c
00000010: 460c 1d3e 9190 88bd 32e9 fdbc 27d0 b3bd
00000020: 7cf0 913c 8620 8dbd 3fe6 0e3e 0506 153e
00000030: 74a0 14be 507a f33c ec35 03bd e948 01be
00000040: eebb f63d 9f82 c2bc e31b 603d f897 f3bd
00000050: a018 733d 1344 093d 354a e3bd 0218 0e3e
00000060: ac7a 6c3d 099e babd 7003 533c 5a49 e03c
00000070: 2364 8e3d 0e38 39bd f768 263e 067f a13d
00000080: 5498 33bd 93ce 813c b7b7 8fbd 2956 f83d
00000090: 3224 823d fe09 df3d eac5 073e 80a5 e43c
000000a0: 20a8 0abe ee37 d43c
