src/models/dynamics_56.pt (torch, 47860 bytes, 13 tensors)

input_layer.weight f4 [42, 42]
00000000: 89a0 633d c7d2 4bbd 8dd8 123e b9b3 3d3c
00000010: 9559 d5bd 7c51 823d 46bb 68bc d1d5 f3bc
00000020: 5c33 013d b9cd 26bc 7ab6 1cbe 5f5b 643c
00000030: 360d 97bd b77a 813d c3f3 efbd aa1f 9dbd
00000040: 97f4 5abd 7a4a 193d aabb 1a3e 27f2 27be
00000050: d40f d3bd 0edd 17be c53b 863d d6b9 cf3d
00000060: dcb6 c8bd 578a 92bd 0239 97bd af10 023e
00000070: 7509 093e cc67 2cbc 502c eabd d94b 023d
00000080: b647 0c3e 3f8b 31be 52d8 eebd 2425 55bc
00000090: 204d bf3d 0379 783c af23 0d3d 9334 f3bd
000000a0: 322a db3d b7a1 873d 756f 9a3d 67b5 063e
000000b0: e410 883d 6359 1ebd 3141 3d3d ea2e 043e
000000c0: c481 42bc 61ca 74bc f995 ca3d b070 353d
000000d0: 4f48 d93d 1aba 2bbc 3c8d 8ebd 2f09 c3bd
000000e0: 8beb c13d c496 fd3d 34d2 153e 92fa 9cbc
000000f0: 4340 d13d 68b0 183d 50e6 5d3d 0be1 fb3d
00000100: a092 a13d 8606 c1bd 990f 65bc 470d d6bd
00000110: 0552 fd3c 8f77 a63d 0cbd 26bd 45b8 133e
00000120: d74f f23d 1955 64bd 2f0d a2bd 2b6c e1bd
00000130: 817d ddbd 89e8 da3d ac96 d0bc ea03 efbd
00000140: f6ca aabb 032b c03c a5e6 e83d 148e d9bd
00000150: 2e40 95bd 47f8 edbb 712f 08be 837f b83d
00000160: 0901 55bd 78f7 52bb 8485 693d 149c 46bc
00000170: e66e 0a3e 0aac b53d 6c93 12be 8723 58bd
00000180: 52dd eabc c440 9b3d c364 94bc d164 b33d
00000190: e973 cfbd 43b5 f53d d0e5 2f3d 9ce8 27ba
000001a0: 5975 c53d 3499 12bd dc6c 8b3d 9cbf 853c
000001b0: 0fcf 033e 2db3 aabd 828f b13d 6048 92bd
000001c0: c809 3a3c 2c1a 56bc cd8a 223e b9e4 25be
000001d0: e3e6 1d3e 1cc3 83bb 5ab2 453d 52b1 7abc
000001e0: e929 7f3d 41b8 d6bd a5d1 b93d caa3 223e
000001f0: 9538 633b ddcf e7bd c3bf 09bd 9c7b dfbc
00000200: e3fa ae3d 4d8a 003e daf7 82bd 062f 6b3d
00000210: 9121 1f3d 01a5 84bd 9af6 c83c 8826 00be
00000220: b248 b03d 1e18 c7bd 1d76 833c 9e0a aabc
00000230: 0f50 abbd 77e6 733d 6f82 ab3d 20a2 753c
00000240: 1e24 b13d 539b 083e febe 0abe a0e1 193e
00000250: 34d5 c1bc 632f fdbd ebc6 553b 684f 543b
00000260: cca3 063e 649e eabd f009 a2bd 2354 7bbd
00000270: d7fe b4bd 8c4b bbbc ed1b 32bd 7341 613d
00000280: eed7 44bd d96a 10be 9d09 ac3c 1032 643a
00000290: 188f 2e3c aafc dcbc bbb6 833c eb65 00be
000002a0: c693 4abd 08ef aebc 30de 03bc dc4c 09be
000002b0: e1ac 97bd f428 d3bd 00e2 75ba 003c adbd
000002c0: 8fe9 a8bd 04e5 403d a678 0cbd 81b1 03be
000002d0: ae02 c5bd 6006 663c 6007 e1bc e060 ffbd
000002e0: 0ad4 87bd 9010 6f3c 7367 a0bd 76c5 d83d
000002f0: 9e81 ec3d 362d 27bd 8e75 91bd 20bf ffbb
00000300: 36e1 79bd cb86 c4bd 1c70 2a3d cc83 223d
00000310: 6d10 edbd 66db 15be ba5e a83d 209c b13b
00000320: 34fb a13d 02c0 0ebd 922d 9a3d 6630 e83d
00000330: ea0b d63d d80f 763d 523e 9f3d 6ad9 c0bd
00000340: 5dc3 0dbe 8094 17bd e6aa acbc 850f f0bc
00000350: a93c 023d d12c c03d 406a adbd 4e80 d13d
00000360: 6a51 293d fe7a 06be 32fb c03d a003 cdbc
00000370: 4de0 bcbd 5989 363d e60d f1bd 9692 ee3d
00000380: 6f41 e43c 52c6 e7bd 02fc 0fbe 4cf5 16bb
00000390: 932a 6d3d 661a fabd 4376 83bd f6dc 88bd
000003a0: 6909 3abd baa9 083e ca5d f83d 6ea1 fe3d
000003b0: 104f c2bd 2e7e b93c 4fd4 da3d 0d2a 0a3c
000003c0: eb33 74bb e806 063d 77e2 f3bd 1322 9e3d
000003d0: 4c27 28be dc30 f33c ce0f 383c 1e8c afbd
000003e0: ee25 09be fb12 653d 038c 4dbd f183 703d
000003f0: 2c61 b73d eefe c5bd 5211 94bd a796 d7bd
0.05557302 -0.04976156 0.1434042 0.011578494 -0.10417477 0.06363198 -0.014204806 -0.029765042
0.03154312 -0.010180884 -0.15303984 0.0139378 -0.07375567 0.06322234 -0.11716416 -0.07672055
-0.053455915 0.037424542 0.1511065 -0.16400968 -0.10305753 -0.1483042 0.06554369 0.10142867
-0.09800503 -0.071552925 -0.0738392 0.12701677 0.13382514 -0.010522794 -0.11434233 0.031810615
0.1369923 -0.17338274 -0.116623536 -0.013009343 0.09340882 0.01516557 0.03445786 -0.11875262
0.107014075 0.066226415 0.0754079 0.13155137 0.06643847 -0.038659465 0.04620475 0.12908521
-0.011871759 -0.014940829 0.09891886 0.04429692 0.10609495 -0.010481382 -0.06960532 -0.09523236
0.094687544 0.12382272 0.14630967 -0.01916245 0.10217335 0.03727761 0.05417472 0.12298783
0.078892946 -0.09425072 -0.01398077 -0.10451751 0.030922899 0.08128273 -0.040707633 0.14425762
0.118316345 -0.055745218 -0.07912671 -0.110069595 -0.108149536 0.10688884 -0.025462471 -0.116706684
-0.005212183 0.02345801 0.11372117 -0.106228024 -0.07287632 -0.007262263 -0.13299347 0.09008696
-0.05200294 -0.003219096 0.057012096 -0.012122173 0.13518867 0.088707045 -0.1431405 -0.052768257
-0.028669987 0.075807124 -0.018114453 0.087594636 -0.1012953 0.119974636 0.042943776 -0.0006405206
0.09641523 -0.035790637 0.06807873 0.016326718 0.12871955 -0.08334956 0.0866995 -0.07142711
0.011354871 -0.013067763 0.15873261 -0.16200532 0.15420108 -0.0040210616 0.048265792 -0.0153010655
0.062295828 -0.104843624 0.0907319 0.15882793 0.0034671177 -0.11318944 -0.033630144 -0.027280621
0.085439466 0.12552758 -0.0639493 0.057417892 0.03885037 -0.064767845 0.024531651 -0.12514699
0.086076155 -0.09721397 0.016047532 -0.020757016 -0.08364879 0.05954596 0.083744876 0.014992267
0.08649467 0.13340501 -0.1354942 0.15027475 -0.023661233 -0.12362554 0.0032619785 0.0032395963
0.13148421 -0.11455992 -0.07912052 -0.061359536 -0.08837669 -0.022863172 -0.043483663 0.054994058
-0.04805749 -0.14103259 0.021000678 0.00087049697 0.010654233 -0.026975948 0.016078344 -0.12538879
-0.049457334 -0.021354213 -0.008048579 -0.13408226 -0.07406021 -0.103105456 -0.0009379685 -0.0845871
-0.08247673 0.047093406 -0.034294747 -0.12860681 -0.09619652 0.014039606 -0.027469337 -0.12469649
-0.0663224 0.014591351 -0.078322314 0.10584538 0.1154816 -0.0408146 -0.071025 -0.0078047663
-0.061005794 -0.09596022 0.041610822 0.039676473 -0.115753986 -0.14634475 0.08221193 0.005420223
0.07909241 -0.03485108 0.07528223 0.11337356 0.10451491 0.060073704 0.077755585 -0.094164684
-0.13844056 -0.037006855 -0.021077584 -0.029304275 0.03179613 0.09383548 -0.08467531 0.1022955
0.041337408 -0.13132855 0.09422912 -0.025026143 -0.092224695 0.04456458 -0.11770229 0.11649053
0.027863232 -0.113171235 -0.14060977 -0.0023034392 0.05790193 -0.12212066 -0.06419041 -0.0668277
-0.04541913 0.13345996 0.12127264 0.12433134 -0.09487736 0.022643175 0.10685026 0.008432877
-0.003726239 0.03272143 -0.11908429 0.07721343 -0.1642124 0.029686384 0.011234237 -0.08571647
-0.13393375 0.055926304 -0.050182354 0.05871958 0.08954081 -0.096677646 -0.07229866 -0.105267815

input_layer.bias f4 [42]
00000000: ba89 243d 6521 0ebe f01b 21bd 27d9 e3bd
00000010: 829f 73bd 641c 63bd 4ce5 e8bc a1c5 f4bd
00000020: 658e b6bc 542c 853d e843 eb3d 7fe6 83bd
00000030: 72bd 21be 7ae0 023c f5dc 133e 23ac d33d
00000040: e8a6 1f3d 5b40 b33d 3690 c03c e59b 13be
00000050: ff58 c4bd a5d2 c13d 1ac3 adbd e170 f2ba
00000060: 465d 833c da65 693d 6aa4 283e f71c 1a3e
00000070: 85a8 72bc 49c6 93bd 6a3d e5bd 60c3 153c
00000080: a886 143e e6bd 81bd 8360 2cbd 053d 09be
00000090: f02b fbbd fe37 34be 46ff 333e 9663 08be
000000a0: 3596 1dbd 8344 17bd
0.04017041 -0.13879927 -0.039333284 -0.11125403 -0.05947829 -0.055446997 -0.02842965 -0.11951757
-0.022284696 0.065025955 0.114875615 -0.06440448 -0.15794924 0.00798809 0.14439757 0.10335567
0.038977534 0.08752509 0.023506265 -0.14414938 -0.09587287 0.094640054 -0.08484478 -0.0018496775
0.016035687 0.0569819 0.16468969 0.15050112 -0.014810686 -0.07215554 -0.111933544 0.009140819
0.14504492 -0.063350484 -0.04208423 -0.13402183 -0.1226424 -0.17599484 0.17577848 -0.13319239
-0.038473327 -0.036930572

hidden_layers.0.weight f4 [42, 42]
00000000: 1656 da3d c076 003e d6f5 37bd 0724 2abd
00000010: be51 cc3d 8b80 873d 4d45 5d3d 3212 923d
00000020: 44a5 b4bd a076 07bd 1f1d 9fbc fc43 29bd
00000030: dfa0 fb3d 90fd a93c 5766 f3bd 11e5 13bd
00000040: fed8 f9bd d22a 80bd bd02 c9bd add5 96bd
00000050: 4cf4 273d b5e1 ff3d 4002 e8bb 50ba 8a3b
00000060: 3294 8dbd 41e7 b3bd d6c2 1cbb 0d59 cd3d
00000070: 3193 0a3e f85b 8a3d d160 083e 94a5 d43d
00000080: 94b3 1a3d c9a1 07be a545 00bd 57ba 183e
00000090: f8d0 8bbc ce9e ff3c 70d7 7c3d b679 f23d
000000a0: 8ff6 b8bd cade 063e 2f5c 89bd 01f0 4b3d
000000b0: ea6b 863c f92d bd3d e24c c0bd bea3 203e
000000c0: f3ee 023e a886 e8bd 797e b8bc 1da4 5e3c
000000d0: 97eb 4f3d 77db 5f3d 3ad1 f13d f120 c03d
000000e0: 737f 2d3e 4693 0b3d 0ac2 2b3e c79a 823d
000000f0: b3db 113e d993 12be 895e 96bd 56ff 1bbd
00000100: 809d b7ba fc0e eb3c 6fcf 49bd d0b0 01ba
00000110: b2b6 143e 4574 83bd ab47 a43c 2486 98bd
00000120: 3aec 35bd d426 8ebd 90a4 883d 91a2 d2bd
00000130: fc2c 40bd 701d 9abc f009 4d3d f87e 40bd
00000140: 4e84 d4bc fa1e b93d 3d00 133e 60fa a33b
00000150: 2b86 d53d 3025 20bd cf81 de3d ef9f a7bd
00000160: e8ac 8fbd 0a2b 123e 6b5f 0d3d 8095 c4ba
00000170: 0e89 49bd ac17 5c3d e39f 233e 8bca 00be
00000180: 5d4e 0c3d da9c 47bd 9bb2 15be f004 20bb
00000190: 5020 de3c b5ae d8bc ba07 f83d 99cc 6f3c
000001a0: 7034 8cbd 5008 78bd 68f3 ee3c 143b 96bd
000001b0: 77f4 6fbd 208f 08be cdd9 223e 9452 693d
000001c0: 309f 023d 1dc7 6bbd b0e3 d93c 8ca3 4d3d
000001d0: a8dd df3d 27ce 533d e9e9 0a3e b0e2 01be
000001e0: eaed bf3d 60bb 02be a027 243c 6e91 d53d
000001f0: f0c5 cb3d b6e3 36bd 0df1 bb3d 6684 08bd
00000200: 2266 1cbe 8b8f 73bd 9b1c 003e 4a20 a83d
00000210: a81f 9ebd 7847 473d 7566 0d3e 076e 113e
00000220: 215c 44bd 8fdf 2c3e 34ef c23d 17c8 313d
00000230: 0dcd cf3d e269 2c3e 4985 ec3c 1509 c23d
00000240: 8a96 763b 8901 83bd f998 003e 35f7 ccbd
00000250: 2ec5 99bd 9408 713d 9447 ad3b d5e0 2e3e
00000260: e565 113e 1c46 25bd 7e67 18bd 8e82 fd3d
00000270: f4f5 8c3d 857f 2ebe 0f2f e53c b35f 27bc
00000280: f11e 323d b00a 85bd 908f e7bc e0f5 ca3d
00000290: 7643 463d a6eb 9f3d a78c 89bd b11f 64bc
000002a0: 3114 4abd c637 0ebd 4741 5bbc ffec d5bd
000002b0: 7039 b4bc 2828 803d 4c1a f3bd 0eb4 823d
000002c0: efae e3bd 0f16 bf3d c479 783d b067 61bd
000002d0: f365 1f3e 6fc9 2d3c 31dc e3bd 0d58 023e
000002e0: bde1 d73d b6a0 c9bc b524 44bc 6c81 bb3c
000002f0: ffb8 16bd 5e69 b1bc d06b 2b3c 346c d0bd
00000300: 21c7 c03c c483 e1bd faf2 c4bd 4bc7 9e3d
00000310: 7eb8 0b3c 1fac 7c3d 5849 8ebd f815 773c
00000320: f4ff 993d dccf af3d 7f66 76bd 9a2f f53d
00000330: 21c6 b9bd 5226 353a 0232 2c3e 524f bdbd
00000340: bca7 8abc 4411 203e 37db 063d 7590 0dbd
00000350: 03a5 93bd b3d4 083d e795 1a3e e4bf 043e
00000360: 47f5 cb3d 20c9 c93c 4673 cbbd 32cf 08be
00000370: 7b33 0e3e c902 8cbd 9b5b 2dbd fbd7 e63c
00000380: f109 1c3e 091d 1dbd 2b61 d33d 47e3 6ebd
00000390: 56e6 383e 68ee 0abe cd35 97bc ca6c 813d
000003a0: 4815 163d 6233 b4bd 0fe5 50bd de06 333e
000003b0: 9103 893c 1b6b e63c 00ca 0ebd ae51 d43c
000003c0: 30eb 99bc f956 a63d 28aa 863c acf2 863c
000003d0: 120b ce3d d9dd 0e3e c065 4bbb 9700 c53b
000003e0: 682c f83d 401c 2dbc 1d16 ee3d 6c7a dc3b
000003f0: 2b66 9ebd 1b10 c13d 7604 17be 1d6b c73d
0.10660951 0.125453 -0.04491218 -0.041538265 0.099765286 0.066163145 0.05402117 0.07132377
-0.088205844 -0.033072114 -0.019423066 -0.0413246 0.12286543 0.02075079 -0.11884754 -0.036107127
-0.12199591 -0.06258167 -0.098149754 -0.07364974 0.041004464 0.12494222 -0.0070803463 0.004233636
-0.06913032 -0.087843426 -0.0023919842 0.10026751 0.13532712 0.06755823 0.13318183 0.10383144
0.037768915 -0.1324531 -0.03131642 0.14914833 -0.017067418 0.031203654 0.061728895 0.11839621
-0.09031402 0.13170925 -0.06707036 0.049789432 0.01640888 0.09237284 -0.09389664 0.15687463
0.12786464 -0.11353809 -0.022521244 0.013588932 0.050761785 0.054652657 0.11807485 0.09381283
0.1694315 0.034075998 0.16773239 0.06377178 0.14243965 -0.14314212 -0.0734225 -0.038085304
-0.0014008731 0.028693669 -0.04927009 -0.00049473066 0.14522818 -0.06418661 0.020053705 -0.0744746
-0.044414736 -0.069409996 0.06672013 -0.10284913 -0.0469179 -0.018812865 0.050058305 -0.046996087
-0.025941994 0.090391114 0.1435556 0.0050042123 0.10425981 -0.039097965 0.10864603 -0.08184802
-0.07015401 0.1427423 0.034514826 -0.0014998168 -0.04920297 0.053733513 0.1597896 -0.12577264
0.03425442 -0.04873357 -0.14618914 -0.0024417005 0.027115017 -0.026450494 0.12110849 0.014636182
-0.06845939 -0.060554802 0.0291688 -0.07335487 -0.05858275 -0.13335848 0.15903397 0.05696352
0.031890094 -0.057562936 0.026597828 0.0502048 0.109309494 0.051710274 0.13565792 -0.1268413
0.093715504 -0.1276679 0.010019213 0.10428129 0.09949863 -0.044650756 0.09176836 -0.03332939
-0.15273336 -0.059463065 0.12510912 0.08209284 -0.07720882 0.048652142 0.13808616 0.14202128
-0.047939423 0.16882156 0.095182806 0.04340371 0.10146532 0.16837266 0.028872149 0.094743885
0.003762635 -0.06396777 0.12558354 -0.100080885 -0.07508312 0.05884607 0.005288074 0.17077954
0.14199026 -0.040350065 -0.037208073 0.12378417 0.06882849 -0.17040832 0.02797654 -0.010215688
0.04348654 -0.06496179 -0.028266698 0.09910178 0.04840418 0.07808618 -0.067162804 -0.013923571
-0.049335662 -0.03472116 -0.013382263 -0.10445594 -0.022000045 0.06257659 -0.1187025 0.06381999
-0.1111735 0.09330379 0.060663 -0.055030525 0.15566234 0.010607108 -0.111259826 0.12728901
0.10541103 -0.024612766 -0.011971642 0.022888862 -0.03679752 -0.021656688 0.010462716 -0.10176888
0.023532452 -0.110114604 -0.096166566 0.07752856 0.008527873 0.061687585 -0.06947583 0.015080921
0.07519522 0.08584568 -0.06015634 0.1197197 -0.09070993 0.0006910312 0.16815951 -0.09243645
-0.016925685 0.15631586 0.032923903 -0.034561593 -0.07209208 0.03340597 0.15096246 0.12963825
0.09958892 0.024632037 -0.09934096 -0.13360289 0.13886826 -0.06836469 -0.04232369 0.02817916
0.15238167 -0.03835777 0.10321268 -0.058322217 0.18056616 -0.13567507 -0.018458271 0.06319578
0.03664139 -0.08798863 -0.050999697 0.17483088 0.016725333 0.028127244 -0.03486061 0.025917854
-0.018788904 0.081220575 0.016438559 0.016473137 0.10060705 0.13951816 -0.003103599 0.006012033
0.12117845 -0.010565817 0.116253115 0.006728461 -0.07734331 0.094269 -0.14747795 0.09737227

hidden_layers.0.bias f4 [42]
00000000: c530 0a3e c675 093e b337 0dbe da54 223e
00000010: ef7c f83c 5473 ef3d 8f76 333e 606f c13d
00000020: 38c7 0cbe 4dec 5dbd 10b5 fabd dc95 95bd
00000030: 1af2 393e 7951 803c 12d4 fe3d 2c95 473d
00000040: 6e25 12bd 22ce 893d f32d cd3d dab0 1fbe
00000050: 3d86 c0bc 3eff 45bd 8c2b e83c ac5a f1bd
00000060: 37c4 cd3d 2b5f 09be da38 f33d b44f 323e
00000070: 11f2 813d 802c f43d 195c e4bd e5dc 083e
00000080: 15be 8ebd a582 8bbd 8229 b4bc 99c7 6c3c
00000090: ddc9 08be dc81 e2bd b79d ad3d 00a8 5cbd
000000a0: 1dad 853d 9509 d03d
0.13495167 0.13423833 -0.13790779 0.15852681 0.03033301 0.11691919 0.17525695 0.09445071
-0.13747871 -0.054180432 -0.12241566 -0.07303974 0.1815876 0.01566385 0.12442793 0.048726246
-0.035680227 0.0672877 0.1001853 -0.15594807 -0.02350151 -0.04833912 0.028341077 -0.117848724
0.10047191 -0.1341521 0.11876078 0.17413217 0.06344999 0.1192255 -0.11150379 0.13365515
-0.06969849 -0.06812028 -0.021992449 0.014451885 -0.13358255 -0.11059925 0.08477347 -0.053871155
0.06527159 0.101580776

hidden_layers.1.weight f4 [42, 42]
00000000: 535e 8abc 3ba2 8b3d 1f37 bdbd 0de2 f13d
00000010: 980e 49bd e6c3 adbd 69ed cc3d 6d30 1cbe
00000020: cae3 ca3d 4e84 e7bd 1ead bdbd d498 363d
00000030: 7d3b d23d 5a64 52bd ea38 07bd 29c8 e8bd
00000040: 3887 0f3d 3088 6b3d af32 fe3d 108e 583c
00000050: 2a41 45bd 56c0 38bd c0fd 94bc ca2d 68bd
00000060: d0dd 75bc e8a1 11bd 5973 e8bc 93ea 58bd
00000070: 4236 bc3d e1b7 d73d eec9 1bbe 1dc4 67bd
00000080: decb 6abd 275f 2e3d ee1d 223d ca1b a4bc
00000090: 80c8 d23a 475b 0d3e 7d11 eebd 80a0 203b
000000a0: 4851 923b 05db bfbd 468e 06be 3c66 573d
000000b0: 62b2 d43d 0a4c 8ebd 5845 08bd c482 21be
000000c0: af71 173d e012 bfbd b0fd 623c 7c81 41bd
000000d0: dd9b 063e bd8f 033e 2cea 133c 46b8 a7bd
000000e0: 8c55 6b3d 2569 b03d 70bb f63c 2375 273d
000000f0: ac23 b63d 900d 7f3d d787 96bc e0fb 7f3c
00000100: f5f2 fe3d 6c21 0d3d 0518 d9bc 4a78 a13d
00000110: 8413 9f3b 25b0 d93d 2c96 9abd 2b75 a03b
00000120: 207b edbc d173 e73d 86db 8fbb e15c cdb9
00000130: 1baa 2ebe d181 ad3d 8280 9dbd 24c5 66bd
00000140: 6dc5 a3bb 5dca 69bc ed82 d4bd 987e 663d
00000150: 2238 1bbb d10f f83d e548 bd3c 1f57 b03d
00000160: 18e0 aabd df49 c0bc 5f91 ccbd 5d5f dc3d
00000170: fd3e ef3c 2644 c63d 089d ad3c 2871 e03d
00000180: 5738 a9bd 7498 813d 8e76 be3d 224d e2bd
00000190: c0bc a1bd 5698 c4bd 741b 263e 9a10 0dbd
000001a0: 9b7e 4abd 94ef 243d 3797 153d 18d9 f1bd
000001b0: e373 353e 860b c3bd 706c 253e 6ca5 39bd
000001c0: ef21 bd3c 03b7 fc3d 9a0e a23d 5647 313e
000001d0: a33c 333d a234 f03d 2e6d 89bd d8ad b53d
000001e0: 28f3 bfbd 0050 f23a 093f 13bc 8110 243e
000001f0: 4dc9 ba3d 9acc f0bc 0fb7 133e 82ac 0dbe
00000200: 8264 ee3d 00fc deba a174 003e 8000 bc3b
00000210: 3e47 bfbd 0046 113b 2857 fdbd d4f2 2c3d
00000220: 1078 ed3c 3eab edbd 8001 0c3c 559f 82bd
00000230: 2ac1 f13d a03a 70bc 51a9 0b3e 18ee 943c
00000240: b871 a43d 336f 193e 5acc c73d ec95 483d
00000250: a0ea 2e3c 54c7 163d 8e74 de3d 2f7e 093e
00000260: 0a86 f9bd b8c4 9fbd 2854 ef3c 24ae 2c3d
00000270: 163c 66bd 1fea 1a3e aa00 0cbe 56dd cdbd
00000280: 6043 e73b d8a3 cfbc 9fbf 81bd 2a45 ebbd
00000290: 80af 353d 6ad9 dd3d 28cb 1abe 3018 08be
000002a0: 780c d53c 8bdd 013e ef82 ad3d 3d9c 0f3e
000002b0: 16bb 0a3e a1ab be3d b5a6 6abd 942f eabb
000002c0: 5b27 cfbd d208 5abd ce09 f4bd 5394 9b3d
000002d0: 5e0a fe3d 4273 1f3e 5fc4 d8bd 6a87 5cbd
000002e0: 6033 8dbb 6471 f1bd 0d24 68bd 5f44 febd
000002f0: 04bb 1d3c bae4 c53d de87 0fbe 17d3 c9bd
00000300: 01b1 1e3e e7fa 9abd 228d 3ebd 1ad3 c73d
00000310: 8750 933c ddd7 10bd cf96 d1bd 22fd a13d
00000320: a79d dabc bc9a e7bc 62f6 483d 3011 993d
00000330: 093a 8abc c5e1 9abd 353d 103e 57a7 f9bc
00000340: e62a 273e 8b2a 003d 3d0a f2bd 0c54 4bbd
00000350: 66d9 f3bd d61f 93bd 39be 66bd f376 edbd
00000360: 5644 143d 105a cfbc 783e afbc c1cd f13c
00000370: b4a3 fcbd 75c9 093e e8d5 873d df95 f83a
00000380: 44e9 ca3d f678 a13d a077 2b3c cc03 883d
00000390: f30b d0bc 2cf7 cfbd 37d8 f03d 804a 9bba
000003a0: 31cc 863d 3436 35bd 419f bfbd c039 68bd
000003b0: 2a68 963d b9fe 2fbe ce9a 9d3c 58d2 5abd
000003c0: b6b7 f3bd aebd 0dbd 41f7 97bd df1a f3bd
000003d0: bd29 f73d 75a6 073e fc5a 9dbd fdad 8bbd
000003e0: 45ad aebd e284 eebd bec8 13be 19fa 013e
000003f0: 9a6b a03d e65d 813d 0ec5 1abe b935 44bc
-0.01689068 0.068180524 -0.09239029 0.11810694 -0.049086183 -0.0848463 0.1000622 -0.15252848
0.099067286 -0.11304532 -0.09261535 0.044579342 0.10265253 -0.051365234 -0.03301326 -0.113663025
0.035041064 0.057502925 0.12412011 0.013217464 -0.04815785 -0.0451053 -0.018187404 -0.056684293
-0.0150064975 -0.035554796 -0.028375315 -0.052958082 0.09190036 0.10533119 -0.15213749 -0.056583513
-0.05732333 0.042571213 0.039579324 -0.020032782 0.0016081482 0.13804351 -0.116244294 0.0024509728
0.004465256 -0.093679465 -0.1314021 0.052587733 0.10385586 -0.06948097 -0.033269256 -0.1577254
0.03697365 -0.09329772 0.013854429 -0.047242627 0.13145395 0.128478 0.009027999 -0.08189444
0.05745463 0.08613805 0.030118674 0.040883195 0.088935226 0.062268794 -0.01837532 0.0156240165
0.12448684 0.0344557 -0.026500711 0.078842714 0.0048546214 0.106293 -0.07548174 0.00489678
-0.028989375 0.11301387 -0.004390183 -0.00039169847 -0.17057078 0.08472026 -0.076905265 -0.05634035
-0.0049979 -0.014269439 -0.103765346 0.056273073 -0.002368458 0.12112392 0.023106048 0.08610367
-0.08343524 -0.023472724 -0.09988665 0.107603766 0.02920484 0.09680967 0.021193042 0.10959083
-0.08262699 0.06327906 0.09299956 -0.11049868 -0.07897329 -0.09599368 0.1622141 -0.03443966
-0.049437147 0.040267542 0.036521163 -0.118089855 0.17719989 -0.09523682 0.16154647 -0.045323774
0.02308747 0.12339594 0.07912941 0.17312369 0.043759 0.11728789 -0.067102775 0.08871049
-0.0937255 0.0018486977 -0.008987197 0.1602192 0.09120426 -0.029394437 0.144253 -0.13835338
0.11640264 -0.0017012358 0.1254449 0.0057373643 -0.0933976 0.0022166967 -0.12370139 0.042223766
0.028987914 -0.116049275 0.0085452795 -0.063780464 0.11804421 -0.014662415 0.13638808 0.018179938
0.08029503 0.14983825 0.09755774 0.0489711 0.010676056 0.036811188 0.10862075 0.13427041
-0.12183769 -0.07801193 0.029214934 0.04215826 -0.056209646 0.15128373 -0.13672128 -0.10051982
0.0070575923 -0.025346681 -0.06335377 -0.114878014 0.044356823 0.10832484 -0.1511656 -0.13290477
0.026006922 0.12682168 0.08472239 0.14024444 0.1354793 0.09310079 -0.05728789 -0.007146785
-0.10114928 -0.053231068 -0.119159326 0.0759665 0.12404321 0.15571311 -0.1058433 -0.05384008
-0.004309103 -0.11789206 -0.056675006 -0.124153845 0.0096271075 0.09662767 -0.14016673 -0.09854715
0.15497209 -0.07567387 -0.046521313 0.09757061 0.017982734 -0.035362113 -0.102338426 0.079096094
-0.026686503 -0.028272025 0.049063094 0.074739814 -0.016873376 -0.07562593 0.14085849 -0.030475302
0.16324958 0.031290572 -0.11818359 -0.0496407 -0.119067 -0.071838066 -0.056333754 -0.115949534
0.036197983 -0.0253115 -0.021392092 0.029517056 -0.123359114 0.13455756 0.06632596 0.0018965564
0.09907773 0.078843996 0.010465533 0.06641349 -0.025396323 -0.10154566 0.1175999 -0.0011847764
0.06581915 -0.044241145 -0.09356547 -0.0566957 0.073440865 -0.17187013 0.019238856 -0.053423256
-0.119002745 -0.03460472 -0.07420207 -0.1187036 0.12068508 0.13247092 -0.076833695 -0.06820295
-0.08529142 -0.11646439 -0.14432046 0.12693061 0.07833023 0.06316738 -0.15114233 -0.011975699

hidden_layers.1.bias f4 [42]
00000000: 4d69 1cbd 7fe9 d8ba 1264 3c3e 4d86 98bd
00000010: 7d5a a73d 18da 3a3d 9bd9 20bd a853 35bd
00000020: d3a0 e13d 745c e73d fac2 7cbd cd6b 7a3b
00000030: c21c 033e 61b6 64bd b0c3 19be 9ad6 d2bd
00000040: 842d bdbd 8e5b 87bd d3a7 8e3d ac54 06be
00000050: 0adb 083e c1b7 94bc b884 bfbd c633 0ebd
00000060: 0d5f be3d 7709 8dbb 0439 71bd 3c41 49bd
00000070: 9885 69bb 6644 1cbe e2c8 05be 8e22 d2bd
00000080: d9f3 0abe a58b 9c3d 8d0b 883d 9f5a 8f3d
00000090: 21dd 1e3d 4c96 063d 27b1 a6bd 4205 dcbd
000000a0: ab62 b13d db45 fdbd
-0.03818636 -0.001654908 0.18397549 -0.07447491 0.08171556 0.045618147 -0.039270025 -0.044269234
0.11017003 0.11296931 -0.06170938 0.0038211227 0.12803939 -0.055837993 -0.15016055 -0.10294838
-0.09237197 -0.066092595 0.06965604 -0.13118237 0.13364807 -0.018154027 -0.09351486 -0.034717344
0.09295473 -0.004304107 -0.058892265 -0.049134478 -0.0035632607 -0.15260467 -0.13064912 -0.10260497
-0.13569583 0.076438226 0.06642828 0.069997065 0.038785104 0.032858178 -0.08139258 -0.1074319
0.086613975 -0.123668395

hidden_layers.2.weight f4 [42, 42]
00000000: 8211 ee3d 3854 3e3d d96a 143e c201 e93d
00000010: 14d5 1a3e 289c 273d 6973 203e 701d 9dbd
00000020: 34b2 2b3e a96d 4e3d 042c babd 63b7 0dbe
00000030: 8659 063d 0618 1abd 1850 c2bc c867 603d
00000040: d08b 24bc 5fdc 1c3d e097 d03d 9933 ce3d
00000050: b1cf 223e f7e9 4dbc f012 a6bc 8c8d 033e
00000060: 6536 d8bd 22b4 c73d f0c9 83bd 5853 8f3d
00000070: 01b1 d03c 84c3 cfbd cea9 d23d 42cf dc3d
00000080: 55b2 173d 8c42 95bd 9432 203d 450f 11be
00000090: a36b eaba 2272 01be 0497 20bd 6835 853d
000000a0: f377 0f3e 8056 d63c 209f fbbc 9023 a83c
000000b0: 706c dfbc 229f ed3d 0c95 7d3d c84a babd
000000c0: 9b50 0f3e 242f ddbd d8cc 9b3c d007 253d
000000d0: 2855 813c 80c9 f33c c041 213c 8dac b2bd
000000e0: 504b 003d 28d0 013d c0ce 02bc dc1a ba3d
000000f0: 4efd e93d 6002 f03b ccc1 cabd e41a 17be
00000100: 3eed 823d 64a6 26bd 08c3 bc3c ca76 e53d
00000110: 2ac6 d83d 5c1a f7bd 96bb 4cbd 9b9b debd
00000120: 3fe0 a6bd 5865 57bd ba85 e63d ed6c 9abd
00000130: 34bc b0bd f43a 743d c584 00be e8d9 9c3d
00000140: 448e a53d 9f8d 023e 0876 89bc 95c2 073e
00000150: e38d 073e ac67 9d3d b7ff e23b 9ad3 db3d
00000160: 7843 23be 80cb 833c 003a b839 0620 62bd
00000170: 0efd e8bd 537e 303d 79b8 0a3e de6e 7fbd
00000180: 4365 12bd 7029 853d 9f4f 15be 0eeb f0bd
00000190: b8e5 9d3d a76a fa3d 9249 87bc 31f8 d6bd
000001a0: b017 6ebd 2baa 91bd eec4 e13d 9ace 59bd
000001b0: 6f2a 773d f055 3abc 0859 de3c 4b2a 163e
000001c0: 8576 ebbc a8c3 e0bd 30c7 713d 0229 1ebd
000001d0: 6383 173e 7a65 083e 3c47 033e 13d4 0d3e
000001e0: c027 f83d 1f14 83bd 9469 56bd 52ab 9bbd
000001f0: 7a7c 29bd 2d1a 0d3e 6d59 023d a201 ecbd
00000200: 4960 563d 4acd b13d 8a61 2f3e 05c4 80bd
00000210: b9ea 263e 4ef3 db3d bfd5 313e 2461 313e
00000220: ec90 1dbe 5fab 323d 98e6 62bd de7c eabc
00000230: 9480 25bd 528a 25bd b6a5 6ebd 30fb b7bd
00000240: d8b3 bebb 4586 1a3d 0cc1 62bc 0cb7 e9bc
00000250: 7259 0e3e 16d9 d93d e1ea cabd 7f4d 01be
00000260: 56e6 9e3d 501b 39bd f6b2 cabc 3ed8 01be
00000270: 60da e1bd a009 a73b 74f5 7a3d 0ae4 113e
00000280: 3e67 173e 4836 49bd 6175 433d 70d2 dabc
00000290: dc09 463d 9041 6bbd 2eaf e03d 3680 09be
000002a0: 683d b23c 6aef 14bd da07 ec3d 9a53 ca3d
000002b0: 8953 d13d 8fea e0bd 2917 993d 6fd6 06be
000002c0: 0443 4ebd 0d0f edbd 702a c2bc 33f0 d1bd
000002d0: 6ab9 12bd 89d0 02be 2530 093e d8de 1dbd
000002e0: 5277 f63d 4380 b5bd 4e6c acbd baf0 573d
000002f0: 11d8 87bd 2dc7 68bd fc10 073d b1f3 7b3d
00000300: e1aa f53d e159 08be ae5b 5dbd 1832 803d
00000310: d244 aebd b8b6 d33c 4a5c 06be 008e 343b
00000320: 4a99 d73d 227a b33d b428 10be c0a4 0abe
00000330: 55b3 dfbd 981e e3bc 2611 dabd fec4 bf3d
00000340: 66ab f63c 4080 c23b 4d5d 95bd 52ad ac3d
00000350: 2c08 e3bd f873 e1bc 03a4 e9bd 3ee5 bd3c
00000360: 030d e53d 2e54 f0bd dba6 df3d 850c 653d
00000370: 1831 e1bc cb6c f6bd e5d4 333e 367c 993d
00000380: 80cc 0dbc b8be 34bd 47e2 07be 9cdb f1bd
00000390: 1aa1 afbd f8ea eebd 3e9e 4e3d 9d1d d2bc
000003a0: 62f9 e7bd 2e54 72bd 2cf0 d03a 2646 5b3b
000003b0: b74c abbd e83f b9bc 2f04 2c3e 255a 073e
000003c0: 40b0 68bc 7099 1b3c e8f3 8e3d 984d 5fbd
000003d0: 2e36 803d 0c0f aa3d 2335 99bd 6550 b13d
000003e0: 9eee 073e 40f5 b3bb ac9f f83b 5c56 623d
000003f0: 8333 30bd 11aa febd 0794 7e3d c8d1 2cbd
0.11624433 0.046467036 0.14493884 0.113772884 0.15120345 0.040920407 0.15669025 -0.076716304
0.16767198 0.05039755 -0.090904266 -0.13839488 0.03280022 -0.037620567 -0.023719832 0.054786474
-0.0100430995 0.0382961 0.10185218 0.10068435 0.1589954 -0.012567989 -0.020272702 0.12846965
-0.1055725 0.097511545 -0.06435001 0.069983184 0.025475027 -0.101447135 0.10286294 0.10781719
0.037035305 -0.072880834 0.039110735 -0.14165981 -0.0017884861 -0.12641194 -0.03920652 0.06504327
0.14010601 0.026164293 -0.030715525 0.02052477 -0.027273387 0.11602618 0.06190972 -0.09096295
0.13995592 -0.10800007 0.019018576 0.040290654 0.015787676 0.029759169 0.009842336 -0.08724318
0.031321824 0.031692654 -0.007983863 0.09087154 0.11425267 0.007324502 -0.09900245 -0.14756352
0.063929066 -0.040686026 0.023042217 0.11204298 0.10584672 -0.120655745 -0.049983583 -0.10869523
-0.0814824 -0.052586883 0.11255975 -0.07540307 -0.08629647 0.059626535 -0.12550648 0.0765875
0.08083776 0.12749337 -0.016779914 0.13257821 0.13237719 0.076857895 0.0069274562 0.10733719
-0.15943706 0.016088247 0.00035138428 -0.05520632 -0.11376391 0.043089222 0.13546933 -0.06236159
-0.035741102 0.06502044 -0.14581154 -0.11763583 0.07709831 0.122273736 -0.016514573 -0.104965575
-0.05812806 -0.07112535 0.110238895 -0.053175546 0.060343202 -0.011373028 0.027142063 0.14664571
-0.028743038 -0.109748185 0.05902785 -0.038613327 0.14796214 0.1331996 0.12820143 0.13850431
0.12116957 -0.06400322 -0.05234678 -0.07601036 -0.041378476 0.13779517 0.031823564 -0.11523749
0.05233792 0.08681734 0.17127052 -0.06287388 0.16300477 0.10739766 0.17366694 0.17322212
-0.15387315 0.043620463 -0.055395693 -0.028623994 -0.040405825 -0.040415116 -0.058263503 -0.08983457
-0.005819779 0.037725706 -0.013839971 -0.028529666 0.13901308 0.10637109 -0.09908081 -0.12627219
0.07758777 -0.045192063 -0.024743538 -0.12680146 -0.1102798 0.005097583 0.06126924 0.14247146
0.14785478 -0.049124032 0.047719363 -0.026711673 0.048349246 -0.057435572 0.10970913 -0.13427815
0.021757796 -0.036361136 0.11524935 0.09879227 0.10221011 -0.109822385 0.074751206 -0.13167737
-0.05035688 -0.11575136 -0.023701876 -0.102508925 -0.035821356 -0.12774862 0.13397272 -0.0385426
0.12034477 -0.088623546 -0.08419095 0.05271981 -0.06633008 -0.056830574 0.032975182 0.0615117
0.11995483 -0.13315536 -0.05404251 0.062595546 -0.0850922 0.025843963 -0.13121143 0.002755046
0.105272844 0.08763529 -0.14078027 -0.1353941 -0.10922877 -0.02772455 -0.10647802 0.09363745
0.030111026 0.0059356987 -0.07293186 0.08431496 -0.11085543 -0.027521119 -0.11408236 0.0231806
0.111841224 -0.11734806 0.10920497 0.055920143 -0.02748923 -0.12032469 0.17561682 0.074943945
-0.008654714 -0.044127196 -0.13269912 -0.11809465 -0.085756496 -0.116659105 0.05044388 -0.025648886
-0.11326863 -0.05916231 0.0015940717 0.003345856 -0.083642416 -0.02261348 0.16798471 0.13217981
-0.0142021775 0.009497032 0.06980115 -0.05451736 0.06260334 0.08303651 -0.07480838 0.08657912
0.13274619 -0.0054918826 0.0075873937 0.05525814 -0.043017875 -0.12434781 0.06215289 -0.04219225

hidden_layers.2.bias f4 [42]
00000000: 188f e0bd 92c1 7abd c39b a9bd 5473 453e
00000010: 63a9 54bd 4c69 253e d15c ec3d 92ee 0b3d
00000020: b9ef dbbd 7879 003d e094 acbd eebc 253e
00000030: 2d27 1bbe 94cb fe3d 0555 433e 1a7a e6bd
00000040: e672 983d c06b d7bd bebe 39bd ab82 34bd
00000050: 12cd 873c 3979 043e d228 013e eb89 aabd
00000060: 5477 e4bd d35c 3a3e 7abf 19be 9ee5 5a3d
00000070: 9723 03be e2b9 2cbd 3219 13be 44c8 fbbd
00000080: e0d8 ffbd 181d 7cbd b063 e23d ce92 ce3d
00000090: 9568 d2bd 58df adbc 00d0 7a3c b622 1dbe
000000a0: b0ee 363e 49e3 dcbc
-0.10964793 -0.06121976 -0.08281662 0.19282275 -0.051919352 0.16153449 0.11541141 0.034163065
-0.10739083 0.03136584 -0.08426833 0.16185352 -0.15151663 0.12441173 0.19075401 -0.11253758
0.0744379 -0.105185986 -0.04534792 -0.044069927 0.016577277 0.12936868 0.12613228 -0.08327087
-0.111555725 0.18199472 -0.15014449 0.053441636 -0.12806545 -0.04216946 -0.1436508 -0.12294057
-0.124925375 -0.061551183 0.1105417 0.100865945 -0.10273854 -0.021224663 0.01530838 -0.15345272
0.1786449 -0.026963847

hidden_layers.3.weight f4 [42, 42]
00000000: 26d3 2ebc ed65 bbbd 519c be3a 11a0 3b3d
00000010: 7ad8 09be c47e 373d 5b91 1f3e 92e1 db3d
00000020: 6197 97bd 36f7 cbbd ce0b e3bc 027a ab3d
00000030: 08c8 973d 9fb2 e23d 9f97 473d 19a4 f4bd
00000040: f7bb 013e 58f2 2c3d 80a3 f1bb f875 09be
00000050: f535 81bc c705 20bb edbe c93c 624c aabc
00000060: fcc3 15bd 121d 153e 8e45 923d 126c c2bd
00000070: 4c0b 243d 5228 e93d 6a37 05be 0a7c fa3d
00000080: 5fe8 a7bd 56d9 bc3d 6939 893d 7290 ae3d
00000090: b481 843d 58d8 ae3c 4755 e2bd 4a37 0cbe
000000a0: 3382 bbb8 3ebc 0a3e 3481 cdbd 9053 6b3c
000000b0: 017a b1bd f785 293e 392d 7abd 0bc0 d13d
000000c0: 050d e23d 1338 0d3e 7a35 903d 7a5f b1bd
000000d0: 3ff2 e73d f8d1 03bd 263e 25bd d839 413e
000000e0: 7d1b e13d 2655 8dbd 39db 133e 30a3 f0bc
000000f0: 1230 54bd 3b51 d0bc 5a1b 5c3d 8fb4 833d
00000100: b06e 373d 6b50 b93c 00a9 d5bb e625 383d
00000110: ebc9 023e 4185 543c e81d a7bd 0289 c0bd
00000120: 00fe 99bd 4c27 60bd 9c82 79bd 0c10 bbbd
00000130: 9192 053e 7337 1b3d 60e9 c5bd 000d 623a
00000140: 20af 893c a0a1 0cbe c69b d9bc 8ab5 75bd
00000150: 8337 00bd 0a62 f1bd 4002 b2bd e1df 123d
00000160: 8afe e0bd 8b94 9bbd d841 fcbb f0f7 0ebd
00000170: e3c9 b4bd 1e10 1d3d 22cd fbbd 5148 e23d
00000180: ed09 8cbd 8de6 07bd a1b6 c33d f64f 09bd
00000190: 5d70 adbd 20b7 613c c2b5 f1bd adf2 97bc
000001a0: ac46 283e 8c2a e13c fa06 eb3d 79bc 1abb
000001b0: 2a89 e2bd 8860 ad3d 1eba 0ebe cca2 e9bd
000001c0: e268 e73d e81a 09bd 3018 db3c 6006 77bd
000001d0: 0bb2 04be a502 333d 12cd d9bd 84db 4dbc
000001e0: f110 abbd 0147 17be e307 183e 171d 053e
000001f0: af93 a1bd e1d8 0a3d c080 f43d bc9d c33d
00000200: 2e36 fc3d fe38 2c3e 4151 e5bd 1001 38bd
00000210: 0c90 373e 3635 d53c 5617 05be 4260 abbd
00000220: 66cb 163e c282 f23d 5f7f 0bbe 54f2 4ebd
00000230: 7932 d33d e892 0dbe 35c3 d53d 5e05 d23d
00000240: 5814 f0bc 351d 34bd b5bc aebd bbfc 75bc
00000250: 9e5f 1c3d 985e debb 389f b0bc f99e bfbd
00000260: 7292 33bd 5e95 f13d f7f5 12be cd41 183e
00000270: 800c 8bbd 90f8 373d 13c9 113e b3af 85bd
00000280: 004b 293e 7371 323e ba53 56bd 010c 99bd
00000290: 5e44 e13d c098 72bb b2ed 7bbd 4156 de3b
000002a0: 3a69 8b3d 247b 9d3d 4e95 d93d 5c5a 2a3e
000002b0: 9426 f6bd 76c9 07bd 2fde 7cbc 9afe ea3d
000002c0: 4e54 6ebc ca60 b53d 800f 2abd 5e3b 2bbc
000002d0: 9889 183d 7b01 f93d c519 9c3d d89d 2e3d
000002e0: 509a 2d3d 6663 0fbe 3692 913d cd9e de3d
000002f0: df85 1f3e 7093 c13b 18a5 0d3e 5941 033e
00000300: 0514 bbbd 0a98 a23d 2870 533d 76a5 1e3e
00000310: 7ac1 bd3d 7ec7 bb3d 7299 cdbd bc8b b8bd
00000320: b8e5 473d f6ec fa3d 068e 693d fcb5 bb3d
00000330: 82b9 71bd 1492 1dbe df4c 99bd 308e d6bd
00000340: 26d8 ce3d 1e8d 12be 337a 21bd d7f9 053e
00000350: 8755 d33c e929 013e 2f75 813c 36ca 39be
00000360: ce0c b8bd e80b c8bd 1799 db3d 4e88 913d
00000370: c890 053e b268 81bd a00d f1bb 8a40 023e
00000380: eebc 883d 9872 b93c bedf 493d 0043 393c
00000390: 803a b93a 083a 1abe db19 00be f8d9 733a
000003a0: 09c8 c13c a4c5 5eba c0c9 5abc e567 f03d
000003b0: 7dcd 0d3e b81d ba3c cc2c 6a3d 1c56 383d
000003c0: 69c1 86bd e00c a1bd 6293 c83d dd78 703d
000003d0: 0085 18be d338 07bd c685 bf3d 59b6 023e
000003e0: 6066 f03b f1a8 063e fc08 71bd dded 95bd
000003f0: a8dd 92bc b243 58bd d41a 923d 735d 113e
-0.010670459 -0.091503 0.0014542436 0.045806948 -0.13461486 0.044798627 0.15582792 0.107363835
-0.0740192 -0.09959261 -0.02771559 0.083728805 0.074112 0.110692255 0.04872858 -0.11945362
0.12669359 0.042223305 -0.007374227 -0.13423908 -0.015772799 -0.0024417506 0.024627173 -0.020788375
-0.03656386 0.1456187 0.07142173 -0.09493269 0.040049836 0.113846436 -0.1300942 0.1223069
-0.08198618 0.09221141 0.06700403 0.085236445 0.064700514 0.021343395 -0.110514216 -0.13692966
-8.941106e-05 0.13548371 -0.10034409 0.014363185 -0.086658485 0.1655501 -0.061078284 0.102417074
0.110376395 0.13790922 0.0704145 -0.08660789 0.11325502 -0.032182664 -0.040342472 0.18869722
0.10991571 -0.069010064 0.14439096 -0.029374689 -0.051803656 -0.025429359 0.053737022 0.06430923
0.044783294 0.022621354 -0.0065203905 0.044958018 0.12772338 0.012971223 -0.08160001 -0.09401132
-0.0751915 -0.054724976 -0.060915574 -0.0913392 0.13044192 0.037894677 -0.096636534 0.0008623153
0.016807139 -0.1373353 -0.026563536 -0.059987582 -0.03130294 -0.117862776 -0.086918354 0.03585804
-0.109860495 -0.07596692 -0.007698279 -0.03490442 -0.08827569 0.03834545 -0.12294985 0.110489495
-0.06837831 -0.033178855 0.09556318 -0.033523522 -0.08468697 0.013776571 -0.11802246 -0.018548334
0.16433209 0.027486108 0.1147594 -0.0023610874 -0.11061318 0.084656775 -0.13938186 -0.11408004
0.11299302 -0.033472925 0.026744932 -0.060308814 -0.12958543 0.043703694 -0.10634817 -0.012564544
-0.08352841 -0.1477318 0.14846759 0.12999378 -0.078894965 0.033898238 0.119386196 0.0955157
0.123150215 0.16818616 -0.111971386 -0.04492289 0.17926043 0.02602635 -0.12997183 -0.08367969
0.14726028 0.11841346 -0.13622807 -0.05052407 0.10312361 -0.13825572 0.104376234 0.1025493
-0.029306576 -0.043973166 -0.08532087 -0.015013869 0.038177125 -0.006786179 -0.021560296 -0.093564935
-0.043840833 0.11796068 -0.1435164 0.14868851 -0.067894936 0.044914782 0.1423686 -0.065276526
0.16532516 0.1742609 -0.05232594 -0.07472993 0.10999368 -0.0037017316 -0.06150598 0.0067851846
0.0680718 0.07689503 0.10624181 0.16636032 -0.12019077 -0.033151112 -0.015433832 0.11474343
-0.014546467 0.08856352 -0.04151869 -0.010451166 0.037240595 0.121584855 0.07622103 0.042631
0.042383492 -0.14002761 0.07107966 0.108701326 0.15578412 0.0059074685 0.1383251 0.12817897
-0.09134678 0.079391554 0.051620632 0.15492806 0.09265418 0.091689095 -0.10039033 -0.09011027
0.04880306 0.12252228 0.05702021 0.0916557 -0.059014805 -0.15387756 -0.07485365 -0.10476339
0.10099821 -0.14311644 -0.03942318 0.13083588 0.025797619 0.12613644 0.015802948 -0.18143544
-0.08986817 -0.09767896 0.10722559 0.07106076 0.13043511 -0.06318797 -0.0073563606 0.12719932
0.066766605 0.02263765 0.049285643 0.011307478 0.0014131814 -0.150612 -0.12509863 0.0009302194
0.023654955 -0.00084980787 -0.013353765 0.11738566 0.13847919 0.02271925 0.057171628 0.045003995
-0.06579859 -0.07863784 0.09793736 0.058709014 -0.14894485 -0.033013176 0.09351687 0.12764873
0.007336423 0.13150384 -0.05884646 -0.073207594 -0.01792796 -0.052798934 0.07134023 0.14195804

hidden_layers.3.bias f4 [42]
00000000: 16b0 8d3d e913 873d 3c3f 063e b83f 96bc
00000010: 08b2 f2bc e3ea e8bd e03e 513c 8e68 12be
00000020: 8aef 47bd 11a9 ce3d ce76 bd3d 5447 ecbd
00000030: 59cc 1dbe 70ec 1cbc b8ea da3c 7d92 9a3d
00000040: 6cd9 59bd 9301 20bd f177 ecbd c49d 78bd
00000050: c35d 273d 6e3c 73bd 7f5d 69bc 83e9 463d
00000060: f815 64bd 6fa0 923d 37b3 18bd 1619 36bd
00000070: f314 633d 528b b93d b82b 83bd a161 9d3d
00000080: 74a8 2abd 3084 fc3d f0d7 8e3c a6f3 9d3d
00000090: 351e a8bd 2cbd cfbd 763f a3bd 826b 0ebd
000000a0: 9680 82bd 45f8 b53d
0.06918351 0.065955944 0.1311006 -0.01834093 -0.029625908 -0.11372926 0.012771338 -0.14297697
-0.048812427 0.100908406 0.09251176 -0.11537042 -0.15409984 -0.0095778555 0.02672325 0.07547472
-0.053185865 -0.039064 -0.115463145 -0.060697332 0.040860903 -0.059383802 -0.014243483 0.048562538
-0.055685014 0.071595065 -0.037280288 -0.044457518 0.0554399 0.09059776 -0.06404823 0.07684637
-0.041664556 0.123299 0.017436951 0.07712488 -0.082088865 -0.101435035 -0.079710886 -0.034770496
-0.06372182 0.08885244

output_layer1.weight f4 [40, 42]
00000000: ab21 0f3d fc03 cdba 1106 853d 897f fbbd
00000010: 12f3 ed3c b1f4 dbbd 0892 9d3d ae4c eabd
00000020: 4009 113d c3ca 0bbe 2719 8bbd d2fa 58bd
00000030: d615 83bd 6cd7 2dbd 3476 603d 6b4d 0bbe
00000040: c15f a8bd 5f56 07be 8664 eebd 2977 fabd
00000050: e1c8 91bd d83d 92bd b54f c0bc 185c 0ebe
00000060: c05b 9c3c 2105 f83d dcdb b7bd d1d8 193e
00000070: ba33 02be 9270 29be eab2 6abd 2a9e 73bd
00000080: ac43 643d 576c 11be 168d 04be cdb4 cb3d
00000090: c76f 8cbd 40c9 b33c 8611 71bb ca05 d63d
000000a0: db1d a9bd a2ec e13d 1c95 ad3b e267 233d
000000b0: cfcc 103e 7dd8 f23b 0a79 aa3d d970 4d3c
000000c0: ee98 0cbe 0c98 0e3e 9bd1 193e 723a 2b3e
000000d0: ebd2 193e 74de a53d f8fa 483d 0098 eab8
000000e0: eaee d0bd f9f7 ecbc 2372 0e3e ca36 c63b
000000f0: 9c48 5fbd ab2a 61bd 5894 313e f9a6 693d
00000100: d778 483d 42ef 8fbd 6eba eb3d cb8a dbbb
00000110: c45e 0c3d c863 aebd 105b 053d 8247 363e
00000120: 90e2 f3bd 9b7e 63bd 8096 8bbc d2bf 173c
00000130: 70fa 2e3d 4008 65bd e47c 66bd 7052 b33c
00000140: 32f4 2a3c c032 663c 0c82 a13d 7edb c7bc
00000150: c141 20bd 9661 0ebd d0bf 01bc be8c 66bc
00000160: a866 67bc bd14 bcbd 0088 cdbd 6243 c4bd
00000170: f9e0 b3bd 9c34 b23d fc51 afbd 035b b0bd
00000180: 747d 6d3d 2fde 043e b041 abbc f06c 963c
00000190: 24d6 923d 57c2 d53d cfd8 dd3c 7229 a0bd
000001a0: d21e debd 748e c93d 5dab 50bd 2c8a 8bbd
000001b0: c683 c83d 16bb 203e 385c dc3c 309e b73d
000001c0: 4b37 2f3e f2f2 8b3d 360a ba3d 27e5 243e
000001d0: ab0d 173e eb52 2f3e b22d d53d 0bbd 9bbd
000001e0: d076 9d3d b85e 673d c258 04bd 4615 c3bd
000001f0: cab1 da3d d2a1 48bd b4c5 1cbc 276d a5bd
00000200: cf48 4d3d d83b cfbd c484 36bd 9d5e 1dbd
00000210: f98d febd 3151 e7bd c0b8 733d 509d b03d
00000220: 57d5 c9bc 00ff 7cba 953d eabd 3e86 ce3d
00000230: 7e0c dbbd 06a4 5a3d 3c44 083d 58ba 3bbd
00000240: 9755 debd 6566 103d 256e 853d 875d f13d
00000250: d62d 7f3c 7bbd 63bd a03d 37bd ffce f03d
00000260: 7614 523d 8951 04be 75fe e0bd 9ecf d43d
00000270: 522f f43d a042 e3bd 4819 3d3d cc4c 003e
00000280: 3bd4 d9bd f306 40bd a153 0abd 80d7 9dba
00000290: 01af d3bd 9462 1bbd 1e63 af3d b4e5 ffbd
000002a0: d689 05be ae1b 253d 2090 e9bd 9d8b 88bc
000002b0: 8753 c9bd 565d 003e d02e 44bd 2574 d53d
000002c0: 70bc 0c3c b66d 603d f994 453d a84d 563d
000002d0: 564f f63d f400 1a3d d2d9 76bd f12f cb3d
000002e0: 90a4 ccbd 9b81 fc3d 9f46 0f3e e809 dc3d
000002f0: fcca 97bc 577e 943d 64f2 c53d bd7b c1bd
00000300: c2f1 d9bd 27ad f6bd db14 a1bc 40c6 f0bd
00000310: 1f79 d63c f98d 083d 782a 89bc 9893 0a3d
00000320: 1c58 473d c0e9 dc3d 38f1 dcbc 49e1 cb3d
00000330: 3b3a 7fbc 18e5 fd3c 7872 4abd 883f bf3d
00000340: 6210 15be 9339 ff3d e284 303d e03c bbbd
00000350: f3ee 9dbc 5524 61bd e487 6dbd d30b 93bd
00000360: 77e5 0d3e 49e4 113e a0e5 a63b db51 3d3e
00000370: 6c7f 183e bdec 02be 4098 b4bc b0f3 7cbc
00000380: f723 193e 29cc b43d 32d3 aa3d b017 eb3d
00000390: 1b35 073d bd21 663d c084 72bd 8035 6a3d
000003a0: 95c8 053e efc7 dd3d d059 553c ffc8 bdbc
000003b0: 388c f73b fe41 88bd a4ec f43d fe1a e3bd
000003c0: f89f 753d cc5e 333e 40e8 7bbb 3bdc 5f3c
000003d0: 2798 a9bd a378 043e 69dc 0f3e caf7 cfbd
000003e0: 79ff 0d3d 801b 553d 007e e7bd 162e 79bb
000003f0: 4b40 75bd bed7 9f3c 190e d8bd b88b 24be
0.034944218 -0.0015641446 0.06495298 -0.12280185 0.029046569 -0.107400306 0.07693869 -0.11440407
0.035409212 -0.13651566 -0.06791907 -0.052973576 -0.06400649 -0.04244177 0.054800227 -0.13603751
-0.082213886 -0.13216542 -0.11640267 -0.12229759 -0.07118393 -0.07140702 -0.023475507 -0.13902318
0.019086719 0.12110353 -0.08977482 0.15024115 -0.12715045 -0.16546848 -0.057299532 -0.05947701
0.0557286 -0.14201485 -0.12944445 0.099465944 -0.06857257 0.02194655 -0.0036784126 0.10450323
-0.082576476 0.11031462 0.0052973162 0.039893992 0.14140628 0.0074110613 0.083238676 0.012539112
-0.13730213 0.13925189 0.15021364 0.16721514 0.15021865 0.0809907 0.049067467 -0.00011186302
-0.10201819 -0.028926836 0.13910727 0.006049012 -0.054512605 -0.054972332 0.17341745 0.057044003
0.048943367 -0.07028057 0.11510168 -0.006699895 0.034270063 -0.085151255 0.032557547 0.17800716
-0.11908448 -0.055540662 -0.017039537 0.009262042 0.042719305 -0.05591607 -0.05627145 0.021889895
0.010434197 0.014050186 0.078861326 -0.024396654 -0.039125208 -0.034761034 -0.007919267 -0.0140716415
-0.014123596 -0.09183643 -0.100357056 -0.09583165 -0.087831445 0.08701441 -0.08560559 -0.08611109
0.05798097 0.12975381 -0.020905346 0.018362492 0.0716975 0.10437458 0.027080921 -0.07820405
-0.10845722 0.09841624 -0.050944675 -0.068134636 0.09790759 0.15696368 0.026899442 0.08965719
0.17110936 0.068334475 0.09083979 0.1610304 0.14751308 0.17121474 0.10409106 -0.076044165
0.07688677 0.056486815 -0.03231121 -0.09525542 0.10678442 -0.04898245 -0.0095686205 -0.0807746
0.050118264 -0.10118836 -0.04456021 -0.03842031 -0.12429423 -0.11294783 0.059502363 0.08623755
-0.024637861 -0.0009651035 -0.11437527 0.100841984 -0.10695742 0.05337908 0.0332682 -0.045832008
-0.10856169 0.0352539 0.06515149 0.11785417 0.015574893 -0.055600625 -0.044736505 0.11758231
0.051289044 -0.12921728 -0.10986034 0.10391162 0.11923088 -0.11096692 0.04616669 0.12529296
-0.10636183 -0.046881627 -0.03377116 -0.0012042373 -0.10336114 -0.03793581 0.08563827 -0.12494984
-0.13040861 0.0403096 -0.11404443 -0.016668135 -0.09830385 0.12535605 -0.047896206 0.104225434
0.008589849 0.05479213 0.048237775 0.052320153 0.12026851 0.037598565 -0.060266323 0.099212535
-0.09992325 0.12329408 0.13991784 0.10744077 -0.018529408 0.0725066 0.09665373 -0.09447429
-0.10641815 -0.12044745 -0.019663265 -0.11756563 0.026180802 0.03333852 -0.016743883 0.033832163
0.048668012 0.10786772 -0.02697049 0.09955079 -0.015577848 0.03099303 -0.049425572 0.093382895
-0.14557031 0.12462153 0.043095477 -0.0914247 -0.019278979 -0.05496629 -0.057990924 -0.0717999
0.13857065 0.1424724 0.0050932914 0.18488257 0.14892358 -0.12785621 -0.022045255 -0.015438959
0.14955126 0.08828003 0.083410636 0.114791274 0.03300963 0.05618452 -0.05920863 0.057179928
0.13064797 0.1082915 0.013021901 -0.023167131 0.007554557 -0.06653212 0.11959198 -0.11089133
0.05996701 0.17516631 -0.0038437992 0.013663347 -0.08280974 0.12936644 0.14048924 -0.10154684
0.034667466 0.05202818 -0.113033295 -0.0038021854 -0.059875768 0.019512054 -0.10549564 -0.16068923

output_layer1.bias f4 [40]
00000000: 992d 37be c56c 823d afd4 ea3d d647 12be
00000010: 59be fd3d 7707 493e 413d abbd 48c2 8ebd
00000020: a3b3 cc3d 11b5 9d3d af53 96bd a58b f5bd
00000030: d75c 20be ccbc 0ebc 9c8d d13d 003f 68bd
00000040: 163f aabc ee11 13be ffa0 233e ca7e a9bd
00000050: 2d78 82bc 65e7 fbbd 12e5 0abe 65a8 b9bd
00000060: 89bd 7d3d 11c3 243d b93e c33d 8202 023d
00000070: e77f b23c 7ed1 293e 84a2 64bd 4efa f3bd
00000080: e0c5 0bbe 5fed bcba 2787 99bd 596c 093c
00000090: 9d8a e33d 1e63 bb3d 8b0f 033e 9e9c 20be
-0.17888488 0.063684024 0.114663474 -0.14285216 0.123898216 0.19631754 -0.08361293 -0.0697065
0.099952005 0.07700551 -0.0734018 -0.11989526 -0.15660416 -0.008712005 0.10232088 -0.056700706
-0.020782035 -0.14362308 0.15979384 -0.08276136 -0.015926445 -0.122999944 -0.13563946 -0.09065322
0.061948333 0.040225092 0.09533448 0.031740673 0.021789504 0.16583821 -0.05581905 -0.11912976
-0.13649702 -0.0014414004 -0.074964814 0.0083876485 0.11110423 0.091497645 0.12798898 -0.15684745

output_layer2.weight f4 [1, 42]
00000000: 08ec a63d 64b7 643d 0082 f03d 3a55 853d
00000010: 55eb d93d a3b4 c3bc e05e be3c 1cf4 12bd
00000020: 647a 093d d313 8b3d ec58 ba3d 5fca babd
00000030: c8a4 a2bc 1e1e 09be 2b50 9abd b44a bb3d
00000040: 9e09 ba3d 3229 20bd 4195 63bd 9135 17bd
00000050: 0995 873b eb0c 1c3d 5ea2 c63d 0cd2 ce3d
00000060: 38b0 d8bc ad82 2a3d ac75 21bd 78af d4bc
00000070: 7881 15bc b735 a8bc ade2 143e 2ae7 813d
00000080: 00ac 96bd a802 023e 0294 ce3d 841a 833d
00000090: 6c94 943d bc6e 513d 5895 ddbd 1bb6 0c3e
000000a0: 70d0 bcbc 668f 363e
0.08150488 0.055838957 0.117435455 0.06510396 0.10640589 -0.023889845 0.0232386 -0.035877332
0.033563986 0.067908905 0.09098992 -0.091206305 -0.019853964 -0.13390395 -0.07534822 0.09145108
0.090838656 -0.039101787 -0.05556226 -0.03691632 0.0041376394 0.038098257 0.09698938 0.10098657
-0.026451215 0.04162853 -0.03941886 -0.025962576 -0.009125106 -0.020533426 0.14539595 0.06342919
-0.07357025 0.12696326 0.10086824 0.06401542 0.07254872 0.051130995 -0.10819501 0.13741343
-0.02304861 0.1782814
