src/models/prediction_92.pt (torch, 38168 bytes, 13 tensors)

input_layer.weight f4 [40, 40]
00000000: 2418 a13c 9028 06be 3482 eabd 1218 62bd
00000010: dce8 e8bd 29a2 b7bc 4c47 f1bc 4240 fd3d
00000020: bbf9 1cbd f5c7 2a3c a748 33bd ce31 0dbe
00000030: 3e49 e43c 7fc3 e4bd 4297 183e 600c 093e
00000040: 8f5f e1bc 538e 25be 730a 303d d5b9 0fbd
00000050: 6f8b 243d b850 cebd 8388 c33d 5669 e93d
00000060: 1dae 11bd d621 113e d98a babc fe67 213e
00000070: 099d d03d fdff ee3c d021 37be 9afa 32be
00000080: a352 06be a3dd 35be b6d7 87bc f7ac 343e
00000090: 4d36 93bd eebc e03c 86e0 efbd bd54 1dbd
000000a0: 2ea0 823d 40c1 24bc c2ac ce3d ddfc 123e
000000b0: 64bf 363d d056 6f3d e6a5 4ebd c0b5 3a3c
000000c0: 89a2 193e b8d3 15be 0492 6f3d d14a 84bd
000000d0: 3a62 923d 704c 003c 5038 813c 58fa 993d
000000e0: a005 3f3c 7964 b3bd ea21 0fbe 5a8f 0bbe
000000f0: 52a7 74bd 7219 9cbd 8e84 57bd 7d25 043e
00000100: 0897 f8bc 49d7 1d3e c0d7 a93c ef2d c3bd
00000110: ceca dcbd 40d3 453c 660c c63d 8713 81bd
00000120: e830 623d ac7a 8b3d a2b9 9a3d f013 2a3d
00000130: bbcf 113e d000 933d b542 1ebe 48ad b1bd
00000140: a956 dcbd 9c6c a3bd 61ab a23d 0f8f c6bb
00000150: 3079 ef3d ac94 27bd 43be 653d 5901 14be
00000160: 845a 0bbe 8113 5b3d 3f4a 213e 682b b83c
00000170: 7dd4 223e 50a4 f0bd 85e2 0bbe 164e da3c
00000180: f1f6 c13c 5e78 80bd 38ef 65bd 45ab 193e
00000190: 597e dcbd aa81 bbbd 0ebf 86bb 9df1 213e
000001a0: 0b7f a93b dd2f d2bd 3423 743d 57e6 77bd
000001b0: 6e7c b4bd e6db 11be 53d6 be3d 9c24 093e
000001c0: d6e9 10bd 2fa6 80bd 5f5b ba3d 39dc 733c
000001d0: 75c2 d4bd b67a 80bc 4043 4f3d b9fa 223d
000001e0: 7942 19be 62ce ff3d 1294 d2bd 2ee0 d93d
000001f0: 58de c23c e5de e2bd 8d57 f4bd 0c9a 5fbd
00000200: acfb 3b3d d3d9 8bbd b565 123e f7e8 0c3e
00000210: 1165 193e aa6b 52bd 90c1 d3bd 9049 aebd
00000220: 2e19 7bbd 7540 0e3e 204f 213c d295 c03d
00000230: d3cf 003e 8cb9 0bbe f7d8 12be 22cb d93d
00000240: 6a58 fc3d 00e7 edbb f0c7 723d 388c 91bc
00000250: 9851 853c 0edc 65bd 6b6b 123e 8000 6abc
00000260: 8072 4bbb 4aa7 d33d a4a4 10be e4b4 323d
00000270: 80db c43b 21fc 90bd 48ca 573d da9d bc3d
00000280: 9796 b13d 89dd 173c 73ec 163e 7941 23be
00000290: 6b21 efbd a0f1 85bd 23f4 c1bd 52ae d0bd
000002a0: 2ae9 883b 3d04 c43c cfb4 81bc 9159 b73d
000002b0: 91f0 42bc 134d d43c a4e0 f8bc 140b 11be
000002c0: a3b1 223d 9caa 093d 566f 1f3e 904a 943d
000002d0: 8804 193e 1fa2 b13d f8e6 0f3e 23ef 363c
000002e0: 64ae 19be 855b 933d 0dd4 30bd 2d14 f83d
000002f0: bacb 0d3e f4bb 18be 396c 1ebe 8909 0ebe
00000300: 1470 8dbd 4ac2 9b3d 7ff6 10bd 4797 a53d
00000310: 79b8 b4bd 720c 3c3c c426 6c3d 9971 bbbd
00000320: a970 83bd 3711 b3bd 2eba 4f3c a001 b53d
00000330: 6caa 5b3b 85c7 57bd 838e d63d 1c16 a83d
00000340: 3570 343e e6c7 0cbd 2113 a7bd e4f7 ccbd
00000350: 337e bdbd 44cf 81bc 29eb b2bd 3330 3cbe
00000360: 3e4e 113c 33f5 38bd fab6 eebd 5108 54bd
00000370: 081f ca3d 27c3 77bd 56f0 c93d 9829 2abd
00000380: f0d4 043e 3b5e d9bc 5e40 413e aba5 533d
00000390: 1dbd b0bd 9a16 233d 89d3 983d 11f1 e73b
000003a0: 98d7 12bd ca1d 8dbd eb99 e4bc 77f0 423e
000003b0: 4b71 d03d 1b88 8d3d 67ce 3f3e d5e6 04be
000003c0: b4c2 7b3d 8c3e d2bd 7080 9fbd e77f bfbd
000003d0: 4ae9 86bd 8464 063d b28e c63d cbe7 0f3e
000003e0: e089 df3c f8ad 8b3d 8db8 17be 83c8 0cbe
000003f0: aa4a 13be 5ad2 54bd 32c5 e33d a4fe 7e3d
0.019664831 -0.13101411 -0.114506155 -0.055198736 -0.113725394 -0.022416191 -0.029452942 0.12365772
-0.0383241 0.01042365 -0.04377046 -0.1378853 0.027866956 -0.111701004 0.1490145 0.13383627
-0.027511386 -0.16167574 0.042978715 -0.035089333 0.040172037 -0.1007399 0.09547522 0.11397044
-0.035566438 0.14173064 -0.022771286 0.15762326 0.10186202 0.0291748 -0.17883992 -0.1747841
-0.13117461 -0.17760329 -0.016582351 0.17644106 -0.071880914 0.027433839 -0.11712746 -0.03841089
0.06378208 -0.01005584 0.10091545 0.14354272 0.044616118 0.0584324 -0.05045118 0.011395872
0.15003408 -0.14631546 0.05848886 -0.064595826 0.071476415 0.007830724 0.015773922 0.075184524
0.011659056 -0.08759398 -0.13977781 -0.13628903 -0.05972988 -0.07622041 -0.05261665 0.12904926
-0.030345455 0.15414156 0.02073276 -0.095302455 -0.107808694 0.012074292 0.096703336 -0.06302553
0.055222422 0.06810507 0.07554938 0.04152292 0.14239399 0.07177889 -0.15455134 -0.08675629
-0.107587166 -0.079797 0.07942844 -0.0060595344 0.116930366 -0.04091327 0.05608965 -0.14453639
-0.13608748 0.053485397 0.15750979 0.022481635 0.1590137 -0.1175009 -0.13660629 0.026648562
0.023677321 -0.06272958 -0.05613634 0.1500674 -0.107662864 -0.09155591 -0.004112131 0.15814824
0.0051726154 -0.102630354 0.059603885 -0.060522404 -0.088127956 -0.14244041 0.09318223 0.13392872
-0.035379253 -0.06281697 0.09099459 0.014884048 -0.10388652 -0.015683513 0.050601244 0.03978989
-0.14966764 0.12490536 -0.102821484 0.10638462 0.023787662 -0.1107767 -0.119307615 -0.05459027
0.04589431 -0.06828656 0.1429661 0.13760744 0.1497996 -0.051372208 -0.103396535 -0.08510125
-0.06130331 0.13891776 0.009845525 0.09403576 0.12579279 -0.13645 -0.14340578 0.10634448
0.12321551 -0.0072602034 0.059272707 -0.017767057 0.016274258 -0.056118064 0.14298789 -0.014282346
-0.003104359 0.10334642 -0.14125305 0.043629542 0.0060076118 -0.0707934 0.052683145 0.09209795
0.08671301 0.009269127 0.14738636 -0.15942945 -0.11676296 -0.06540227 -0.094703935 -0.10189499
0.004178186 0.023927802 -0.015833287 0.0895263 -0.011898176 0.025915658 -0.030380554 -0.14164382
0.03972019 0.03360997 0.15569815 0.07240784 0.14943135 0.086735 0.14052951 0.011165413
-0.15007931 0.0719519 -0.043170977 0.12113223 0.13847247 -0.14915448 -0.15470971 -0.13870825
-0.06906143 0.07605417 -0.035391327 0.080854945 -0.08824248 0.011477577 0.057654157 -0.091525264
-0.064179726 -0.08743518 0.012678666 0.088382006 0.0033518327 -0.05268051 0.10476401 0.08207342
0.17620929 -0.034370326 -0.081579454 -0.10008219 -0.09252586 -0.015845902 -0.087362595 -0.18377762
0.008868752 -0.045155715 -0.11655994 -0.051765744 0.098692 -0.060488846 0.098602936 -0.041543573
0.12971854 -0.02653419 0.1887221 0.051671665 -0.086298205 0.039816476 0.07462222 0.007078298
-0.035850137 -0.068904474 -0.027905425 0.19037043 0.10177859 0.06910726 0.1873108 -0.1297868
0.06146498 -0.10265836 -0.077881694 -0.09350567 -0.06587465 0.032810703 0.09695186 0.14053266
0.027287424 0.06820291 -0.14816494 -0.13748364 -0.14383951 -0.05195842 0.111215964 0.062254563

input_layer.bias f4 [40]
00000000: 2480 c83d bea6 73bd 9522 7a3d 68e7 15be
00000010: da14 fb3d 7ca7 253e e944 13be 9b11 aebc
00000020: b300 243d 21e1 133e 283e 423d faf3 1a3e
00000030: 7252 143e fbde ba3c 38dc 223e b41e e1bc
00000040: 98fb 0ebe ed57 013e 31b1 243e cbb9 cbbd
00000050: ebb1 053e 3adf e13d 12e6 b13d f649 fc3d
00000060: c010 5d3d d095 36bc 253d 0cbd 9072 ebbc
00000070: c8e3 85bc 39c8 203d e82f c63d fa68 3abd
00000080: 5735 0abe c647 24bc 7181 f7bd 9e1f bd3d
00000090: 145a 89bd 083f 15bd d34f a53d 39a9 1e3e
0.09790066 -0.05948519 0.061068136 -0.14639056 0.122598365 0.16177171 -0.14381756 -0.02124863
0.04003973 0.14441349 0.047422558 0.15132132 0.14484575 0.022811403 0.1590432 -0.02748046
-0.13963163 0.12631197 0.16083218 -0.099475466 0.13056152 0.11028905 0.086864606 0.123187944
0.053971052 -0.0111441165 -0.034238 -0.028741151 -0.016343966 0.039253447 0.09677106 -0.04551027
-0.1349691 -0.010026878 -0.12085236 0.09234546 -0.06706634 -0.036437064 0.08071866 0.15494241

hidden_layers.0.weight f4 [40, 40]
00000000: af26 013e e875 b43c 0e59 fa3d 68bc 36bd
00000010: 30d5 33bd bc3f 0e3d ce23 d83d bc85 b23d
00000020: 705d 3f3c dec6 07bd 6eba ba3d 104f 333c
00000030: 8091 01bc 00f0 623a 2298 dcbd fe41 823d
00000040: 864d 6fbd 557e 03be cc4c 09be 700f 623d
00000050: 94c1 f3bd 8e20 e93d b061 90bd 64ee 243d
00000060: 90a1 02bc 4783 16be 866f 9b3d 9d3c 1b3e
00000070: dae2 823d aa36 a23d 4d11 01be 3c55 b3bd
00000080: 3450 423d a828 013d 7b66 0b3e 5008 98bc
00000090: f883 153d 8a2b d73d e296 e23d ee14 d23d
000000a0: 7322 093e 873e e2bd 6db4 e9bd 8f6e 1cbe
000000b0: 1609 b73c e69d 3bbd 2221 0abe d85b 0fbd
000000c0: 3428 3b3d 5909 e7bc 8691 2ebd e08f 94bd
000000d0: 8d5e 153e 3012 38bd fe47 27be 8cec d6bd
000000e0: 3e3e f73d 8a67 fabd 8f1a cc3d 18f2 c5bd
000000f0: 7af0 6c3b a8b5 133e 25fc b43c 0b79 a6bb
00000100: cf36 f2bd c8dd 91bc 8028 1fbc b8eb f33c
00000110: e6ed 15be a7cc e03d 7a6d 3e3d d374 113e
00000120: fe5e adbd 1c64 e9bd e8d3 47bd a5d3 c7bd
00000130: 8660 fc3d e5d5 95bd 48aa 113d 75fd b63d
00000140: 6a4d 353d a2eb 25bd 7c15 693d 90dd 033c
00000150: 5f6b d03d a08d 58bc 20e5 103c 8022 babb
00000160: 22aa fabd 6788 29be bf9b 1b3e c399 be3d
00000170: 7002 0a3e 0168 0dbe b8d4 f4bd 27bd 103e
00000180: d4ac 1d3c d81d 9d3d 4d3e 533d d841 1fbe
00000190: b642 e73b 109b c23c c6b4 10bb 704b 4a3d
000001a0: 9c81 62bd 9a49 24bd 2a48 cabc 0005 cebb
000001b0: a788 00be 7023 213d 28a2 cf3d 07fb 8cbb
000001c0: 1a1b d43d 924d 4fbd cd30 4a3d cbb9 3fbc
000001d0: 1c58 3bbd 000f 21bd 22af 2dbd 2be5 abbc
000001e0: 54f0 313e 1c23 39bd def5 a13d 9099 313d
000001f0: 14a3 98bc c7ec 283d d001 2d3c f722 febd
00000200: c320 113d 8f57 e73d e6d7 123d 781e a3bd
00000210: 1ed6 c43d 19d7 143c fa95 2abd 3d70 eabd
00000220: 7e10 163e f21e 423e fa55 11bd 36de 603c
00000230: f313 c33d 090a bb3c 4077 0b3e 30f2 243e
00000240: f088 473d 7234 903d c29d f83d 3042 68bc
00000250: 759f 913d bae1 8bbd 955a e63d 06d2 e0bc
00000260: 9efe 71bd f209 903d 8e0a c5bd 257f 343d
00000270: bcfa 1b3d 967f a43d acb7 aa3d 8403 433e
00000280: 5d41 173d 1d98 e1bd 5cc6 19be 90bb 7f3d
00000290: ce29 0f3e 6200 05be 00ed c8bb 7fbc 573d
000002a0: cadd d63d ca8e 27be 27b5 ffbd 69ad 7abd
000002b0: 95f9 27be 24a3 eebd acba a13d 8906 103e
000002c0: 9684 02be 0c56 22bd dd14 b13c 60b9 79bd
000002d0: 101c d03b d16f 0fbe 122d d53d 6413 94bd
000002e0: b55c f93c 0084 20ba 4aad c2bd 7873 b7bc
000002f0: f105 ecbd 6d82 863d 11f0 88bd 6695 a83d
00000300: 54db 173d 59f1 063d 9ab3 78bd fad8 08bd
00000310: 75ff 0fbe a45f a1bd 833d 033e f7dc a73d
00000320: 2280 143c c439 2abd b519 92bc 3844 ae3c
00000330: 779d febd 08d9 4dbd 00de d539 fb5b 393e
00000340: 0730 123c 14a6 96bc 2139 8a3c 1a94 a7bc
00000350: c808 2bba 60d6 ccbd 501e 3d3d bd81 e4bb
00000360: ca27 043e c424 a13c a6c9 0bbd 039e e5bd
00000370: 195f aa3d 1992 503d bf5d 00be eab9 fd3d
00000380: 2330 e83c f8b9 cc3c 920f 22bd c608 5abd
00000390: 2c02 86bd fc6d 0abe 2efc b13b 46e2 fd3d
000003a0: 9bad babd d407 ce3d ab79 173e a2a0 093e
000003b0: 0632 38bd 3cf8 a8bd 252d e7bd e831 303e
000003c0: 9008 7d3d c62a 62bd b2dd 963d 1457 4d3d
000003d0: 523b 08bd 3051 f8bc 9d18 1abe 5aa6 ec3d
000003e0: c05b 2dbc f987 0a3e 006d 8fbc aab4 74bd
000003f0: 505b 70bc 3651 19be 30d5 ea3c 34ea 1d3d
0.12612413 0.022028878 0.12224017 -0.044613272 -0.043904483 0.03472875 0.10553704 0.08716914
0.011679992 -0.03314864 0.0911759 0.010944143 -0.007908225 0.00086569786 -0.107712045 0.06360243
-0.05842354 -0.1284116 -0.13408202 0.055190504 -0.119021565 0.113831624 -0.070498824 0.04026641
-0.00797309 -0.14698516 0.07589631 0.15159841 0.06390925 0.079205826 -0.12604256 -0.087564915
0.04743977 0.031532913 0.13613312 -0.018558651 0.03650281 0.10506351 0.11063935 0.10257898
0.13392048 -0.110470824 -0.114113666 -0.1527655 0.0223432 -0.04580488 -0.13489202 -0.0349997
0.045692638 -0.0282027 -0.04261925 -0.072540045 0.1458685 -0.04493922 -0.16336057 -0.104943365
0.12072419 -0.1222678 0.09966003 -0.09665316 0.0036154077 0.14424765 0.022092888 -0.0050803474
-0.1182686 -0.017805949 -0.009714246 0.029775485 -0.14641532 0.10976534 0.046491124 0.14204721
-0.08465384 -0.113960475 -0.048786074 -0.09757165 0.12323098 -0.07316188 0.035562783 0.08935062
0.04426328 -0.04050792 0.056905255 0.00804843 0.101767294 -0.01321736 0.00884369 -0.0056803823
-0.122394815 -0.1655594 0.15196131 0.093066715 0.13477492 -0.13809206 -0.119546354 0.14134656
0.009623725 0.07671708 0.051573087 -0.15552461 0.007057513 0.02375558 -0.0022080406 0.04938835
-0.055299386 -0.040109254 -0.024692614 -0.006287217 -0.12552129 0.039340436 0.10138351 -0.0043023857
0.10356732 -0.050611086 0.049362946 -0.011702011 -0.045738325 -0.039320946 -0.042403348 -0.0209833
0.17376834 -0.0451995 0.079082236 0.04335934 -0.01863245 0.041241433 0.010559514 -0.12409013
0.035431635 0.11295997 0.035850428 -0.07964796 0.09611152 0.009084486 -0.041646935 -0.11447189
0.14654729 0.18957117 -0.035482384 0.013724854 0.095252894 0.022831934 0.13619709 0.16108012
0.04871458 0.07041253 0.12139465 -0.014175937 0.07110492 -0.06830163 0.11247746 -0.027443897
-0.059080712 0.07033147 -0.09621154 0.044066567 0.038080916 0.080321476 0.08335814 0.1904431
0.03692757 -0.110153414 -0.15017074 0.062434733 0.13980791 -0.12988427 -0.006131768 0.05267
0.10491522 -0.16363063 -0.12485724 -0.061200533 -0.16403802 -0.1165221 0.07896933 0.14064993
-0.1274589 -0.039632842 0.021616394 -0.060967803 0.0063510016 -0.14007498 0.10408987 -0.07230261
0.030439714 -0.0006123185 -0.095057085 -0.022393927 -0.11524571 0.065678455 -0.06686414 0.082316205
0.037074402 0.03294501 -0.060718156 -0.03341005 -0.14062293 -0.0787957 0.12816434 0.081964426
0.009063752 -0.041558996 -0.017834524 0.021272764 -0.12432378 -0.050255805 0.0004079193 0.18101494
0.008922583 -0.01838974 0.016872944 -0.020456363 -0.0006524441 -0.10001826 0.046171486 -0.006973474
0.12905803 0.019670852 -0.034127854 -0.11211779 0.0831892 0.05092058 -0.12535761 0.12388976
0.028343266 0.02499102 -0.03956563 -0.053231023 -0.06543383 -0.13518518 0.0054316735 0.12396674
-0.09115144 0.10060087 0.14792506 0.13440183 -0.04496958 -0.08250472 -0.112879075 0.17206538
0.061775744 -0.055216573 0.07366504 0.050131872 -0.033259697 -0.03031215 -0.15048452 0.115551665
-0.010580957 0.13528432 -0.01750803 -0.059742607 -0.014670208 -0.14972386 0.028666109 0.03855343

hidden_layers.0.bias f4 [40]
00000000: 1786 fbbd 5d85 11bd 1232 a1bd e692 1f3e
00000010: 8f34 fcba a3fa 3d3e 806c 9ebb 965b cfbd
00000020: 415e b7bd f055 443d 4920 c8bc 3bff 0b3e
00000030: ae80 99ba 279c be3c 9532 1fbd 90fb 273a
00000040: 1047 5dbc ad7a 043e e1b9 023d 997d 213e
00000050: b2a6 1dbd f17c 80bc 5ae3 203c d699 4abd
00000060: a4e9 3fbd dd91 2a3d 3151 6ebd a808 82bd
00000070: 4a76 0f3e 6822 13be 1246 0fbe a3df f6bc
00000080: b43d 16be 11b2 a13d d160 c83d 953b d63d
00000090: 4aab c53c ad4c 043e dbbd 1a3e ea9b 283e
-0.12281435 -0.035527576 -0.07870878 0.15583381 -0.0019241738 0.18552642 -0.0048347116 -0.101248905
-0.089535244 0.04793352 -0.024429457 0.13671581 -0.0011711323 0.023267819 -0.0388666 0.000640803
-0.013505712 0.12937422 0.03191555 0.15770568 -0.03848905 -0.015684577 0.00981983 -0.049463116
-0.046853676 0.041643012 -0.0581829 -0.06349307 0.14009967 -0.14368594 -0.13991573 -0.030135935
-0.14671975 0.078952916 0.09784091 0.10460583 0.024129529 0.12919874 0.15111487 0.16465726

hidden_layers.1.weight f4 [40, 40]
00000000: 804a efba c27a ecbd d0a4 cbbd fcdf 3c3d
00000010: 6a87 cbbd cf5c 8e3d 7585 04be 94e7 e0bd
00000020: f8bc 863c d028 73bc cf14 a03d 11cc edbd
00000030: 4986 14bd 17a4 d83d edca f4bc 7a4f 343d
00000040: 7175 0e3e ea03 073e e04b 033e a99a 69bd
00000050: bb3a 1c3b c78b c9bd 91c6 903d 40ef 67bb
00000060: 0a2c de3d e1cb 783d 8276 033e 72ec f2bd
00000070: 8291 053e 4978 883d 2216 d53d 31a0 0b3d
00000080: ab81 ebbd fc3e 10bb 56fd 823c ff87 bcbd
00000090: 36f6 b4bd 1f59 1bbe e8e1 583d c8b3 363d
000000a0: 489d 893c 7ca4 23be b403 cabd a46a 753d
000000b0: 567b dcbd b9e5 9e3d a56c 043e 8409 503d
000000c0: 8532 b8bd c09d e9bc 7610 113e 6e43 babd
000000d0: 8a4d 1fbe fdbf 093c 1bb8 ce3d 3513 24be
000000e0: 2e25 e2bd 8c64 15be 1215 e53d b9d9 d63b
000000f0: b895 b63d 0435 17be 7e23 723c 805b 33bc
00000100: 0eef 02be 8b03 bfbd 9f3f 073d 6cd3 1e3d
00000110: 087c 0a3e a4e2 48bd 2460 663d 788e eb3c
00000120: fbe9 93bd 77b6 17bc ca37 59bd a7ef edbd
00000130: 5e90 823d 9c28 edbd 6472 cebd 624b a6bd
00000140: b804 13bd fc45 c1bd b201 f13d 8068 af3c
00000150: b01b 00bc 79d7 013e da1a f13d 680d d03c
00000160: 86d7 883d e0d1 d9bd f068 14bc feb2 d53d
00000170: 5312 d8bd 485d 9bbc 2e97 e83d 8764 0f3e
00000180: aebd 0abe 34ee bdbd ce56 e73d 0f4e 18be
00000190: b82d 493d 5f18 183e 2014 da3c b44e 6c3d
000001a0: d153 1abe 866b 16be 5ad9 e83d 628d 9f3d
000001b0: 3849 19bd d30a 123e beaf e23d 41d4 9dbd
000001c0: b81e d6bc b02d 023c 822e fabd 07e8 093e
000001d0: a94d 88bd 50ad c4bd 4e63 c73d 6a5f 03be
000001e0: 00d5 f13a be8a f73d 32ba 8f3d 287c ecbd
000001f0: b8c8 b3bd c004 8abd 6101 21be 008f 85bb
00000200: f4fb 1d3d 00f9 453d 28db 9ebc 34b3 1b3d
00000210: b67c 78bd 4019 133c 5ac0 f73d 3c56 663d
00000220: c43c 2d3d 5078 143c c0ad 20bb 7a0b f8bd
00000230: 2224 c03d 34ab 663d b674 1bbd 1c8f eabd
00000240: ac9d 0abe 2784 023e 7891 d0bc 10fb b33c
00000250: a041 563d 443b 46bd b041 75bc 5816 b3bc
00000260: 404e 533c 3fc9 113e 60e8 81bb 0a03 0dbd
00000270: e0c2 b83d 90a5 9fbc 0060 8c3b b698 06be
00000280: 68b7 9f3c 2384 093e 2a93 27be 2386 afbc
00000290: 8d59 b93d b35f 053e a09c f53b d261 32bd
000002a0: ce81 67bd 86e3 c13d d6f1 dd3d 130a 06be
000002b0: 3102 2d3d 58f9 bb3d 5f14 363d ffce 87bd
000002c0: 58d4 443d 5379 17be 817d f8bd cebb 22bd
000002d0: 13fc 313c 45ef 853d b908 da3d 3a60 d8bd
000002e0: c6e2 17bd e89e d13d bb15 de3d 690b 1d3e
000002f0: 69b7 033e a001 8fbd bd1d 0abe 468b c93d
00000300: 314c fe3d 5867 463d 835a b93d 6c57 bbbb
00000310: 556e a6bd a932 9f3d dba1 fd3d 8b26 193d
00000320: 001e 56bc 8077 c53d 28de 6e3d 1fcc edbd
00000330: 8c0a ed3d 55ee 90bd ca71 e2bd 8a47 c5bd
00000340: 707b af3c 1bd5 113e bde2 00be 0a7a 11be
00000350: 4a84 75bd 2215 81bd 0a9a 033e 56c5 d2bd
00000360: 8681 ea3d baae 813c 8c99 de3d e063 05be
00000370: 2c0b 26be a7c2 84bd 05e8 5dbd 204c f2bd
00000380: 078f 013e 1797 1bbd 0ab1 cb3d 2234 e33d
00000390: 8cfe 093e ded0 13be 7fe1 8abd 8205 f0bd
000003a0: d44d 85bd e4c2 083e b491 913d ec8f 453d
000003b0: 4da8 19be b77c 08be 02c6 6c3d ee10 f9bd
000003c0: cf45 04be 2132 c2bd c09d 193d 9073 16bc
000003d0: 5c0d 3e3d a84e a23d d435 7dbd 0044 243a
000003e0: ba40 8d3d 5a11 883d a0a3 a23d 40b5 193c
000003f0: c64c 1cbe 80d0 ef3a 7a3d a73d 1cb5 70bd
-0.0018256456 -0.11546852 -0.09943545 0.046112046 -0.099379376 0.069512956 -0.12941535 -0.1098167
0.01644753 -0.014841273 0.07816469 -0.11611188 -0.036260877 0.10578173 -0.029881919 0.044021107
0.13911988 0.13185087 0.12821913 -0.05703226 0.0023838717 -0.098411135 0.070691235 -0.0035390407
0.108482435 0.06074131 0.12838176 -0.118615046 0.13043788 0.066635676 0.10404612 0.034088317
-0.114993416 -0.0022010198 0.01598994 -0.09205627 -0.088360235 -0.15170716 0.052949816 0.044605047
0.01679863 -0.15980715 -0.098639876 0.059916154 -0.10765712 0.0775866 0.1293207 0.050790325
-0.08994011 -0.028517604 0.14166436 -0.090948924 -0.15556923 0.00840759 0.10093709 -0.16022952
-0.11042248 -0.14589137 0.111856595 0.0065567163 0.08915275 -0.14766318 0.01477897 -0.010947108
-0.12786505 -0.09326848 0.03301966 0.038775846 0.13523877 -0.049044266 0.05624403 0.028754458
-0.072223626 -0.009259812 -0.05303172 -0.11617976 0.06375192 -0.11580011 -0.10080412 -0.08119847
-0.035893172 -0.094371766 0.117679015 0.021412134 -0.007819101 0.12679853 0.117727 0.025397018
0.06681733 -0.106357336 -0.009058222 0.10434531 -0.1055037 -0.018965378 0.1135696 0.14003192
-0.1354892 -0.09273949 0.112958536 -0.14873527 0.049115866 0.14853047 0.026620924 0.057692245
-0.15071036 -0.14689454 0.113695815 0.077906385 -0.037423342 0.14261942 0.110686764 -0.077065
-0.026137695 0.007945463 -0.12215902 0.13467418 -0.066554375 -0.09603369 0.09735738 -0.12829366
0.001845032 0.1208701 0.07017936 -0.115471184 -0.087785184 -0.06739187 -0.15723182 -0.004075885
0.03857036 0.048333168 -0.019391611 0.0380127 -0.06066581 0.008978188 0.12097235 0.056234583
0.04229428 0.009061888 -0.0024517626 -0.12111564 0.09381892 0.056315616 -0.0379531 -0.11453077
-0.1353671 0.12745725 -0.02545999 0.021970302 0.05230868 -0.048396364 -0.014969274 -0.02186124
0.012897074 0.14236926 -0.003964469 -0.034426726 0.090215445 -0.019488126 0.004283905 -0.13144192
0.019496635 0.13429312 -0.16364732 -0.021426266 0.090502836 0.13024788 0.007495478 -0.04355032
-0.056520276 0.09467225 0.10837142 -0.1308978 0.042238418 0.09178418 0.04445302 -0.06631278
0.04805407 -0.14792375 -0.12133313 -0.039729886 0.010863322 0.06539778 0.10646195 -0.10565229
-0.037081502 0.10235387 0.108439885 0.15336384 0.12862934 -0.06982732 -0.13487907 0.098410174
0.12416876 0.0484384 0.09050467 -0.0057172086 -0.08126513 0.077733345 0.12384387 0.037390273
-0.013068676 0.096419334 0.058317333 -0.11611199 0.11574277 -0.07076708 -0.1105686 -0.096327856
0.021421164 0.1424145 -0.12586494 -0.1420671 -0.059940614 -0.06302859 0.1285173 -0.10291545
0.11450486 0.015830386 0.108691305 -0.1302638 -0.16215199 -0.064824395 -0.05417635 -0.11830926
0.12652217 -0.037985887 0.09945877 0.11093928 0.13476008 -0.14435145 -0.06781291 -0.117198005
-0.06508985 0.13355595 0.07107869 0.048232958 -0.15005608 -0.13328825 0.057806022 -0.12161432
-0.12917255 -0.094822176 0.037503958 -0.009182826 0.04639946 0.07925159 -0.061818913 0.00062662363
0.06897111 0.066439345 0.07941365 0.009381592 -0.15263662 0.0018296391 0.081660226 -0.05876647

hidden_layers.1.bias f4 [40]
00000000: f88f 59bd ba9f 593d 7f4a bdbd b062 153c
00000010: ac61 25be 0c9b dc3d 3e3d 05be 9833 e0bd
00000020: 3fc6 12be aadc cb3c cebf 283d 3a91 debd
00000030: 22c0 85bd e70b 083d 6959 e4bd dd08 e5bc
00000040: e13b 963d 8805 a63c a561 d83d 2fa7 653d
00000050: b6bf c7bd 6b72 fdbd 34c1 9e3d 2c47 a9bd
00000060: 1075 3b3e 52f2 c5bd 5017 813d ba5f bbbd
00000070: c2b8 16be 5be8 363d 8edc a43d 34b8 12bd
00000080: 8e76 6bbd 5ac8 343e 684a 503d c051 aabd
00000090: ffaf edbd c6ce d93d 14e1 0dbe 7f85 0cbe
-0.053115815 0.053130843 -0.092427246 0.009117767 -0.1615054 0.1077176 -0.13011643 -0.10947341
-0.14333437 0.024885494 0.041198544 -0.108675435 -0.06530787 0.033214476 -0.11149866 -0.027958328
0.0733564 0.02026631 0.10565499 0.05606764 -0.09753363 -0.12375339 0.07751694 -0.08265528
0.18306375 -0.096653596 0.06303275 -0.09149118 -0.14718917 0.044655185 0.0804988 -0.0358202
-0.05748611 0.17654553 0.05085221 -0.08316374 -0.11605834 0.10635142 -0.13855392 -0.137228

hidden_layers.2.weight f4 [40, 40]
00000000: cf6b e6bd dae7 a93d d351 063e 205a 903c
00000010: 07d1 bd3d 749b 8dbd e665 17be 41dd 703d
00000020: fc1f 1fbe 1cd4 d93d 39ed 063e f329 b13d
00000030: a2e4 d53d c4cd 91bd da03 a73d 3c9e c6bc
00000040: c3eb cb3d f0b5 873c 3231 5c3d 5801 16bd
00000050: e15f 18be e96f e6bd 8eb8 41bd 7336 043e
00000060: 2ac3 28bd 8efe d13d aeaa 003e 47e1 c03d
00000070: 1ab1 acbd a827 12be 48a3 dfbc de8e 0ebe
00000080: 0a81 bc3d 034a 133e b17b e1bd f0cd 683d
00000090: 2e45 ecbd acdb c5bb 4bc3 f5bd d0be cbbc
000000a0: 2f92 1f3e ae32 52bd 8407 85bd 299f 083e
000000b0: 5132 8abd 680f 9b3d a97e 0ebe 9021 e03c
000000c0: 00d6 893b bd31 1abe 6a68 0bbd 3f06 19be
000000d0: 968b f93d d4ec 6a3d 8dd2 003e 1c89 693d
000000e0: b07a 8d3c 4ad1 32bd 4016 513b 23fd 01be
000000f0: a28e a3bd ed2e 143e aed6 75bd 3018 bf3c
00000100: 0edf bdbd fbd8 c1bd 1efd ea3d ea5a fa3d
00000110: 5088 1dbd 3ea9 df3d b8bf a1bc c82f a83c
00000120: 580f edbc 20ee a5bb 12a0 c4bd 4a85 78bd
00000130: 0adf 51bd f4d9 033d b613 05be 8c9c 8dbd
00000140: ae6e aabd 0a49 8e3d aeba c2bd 30df a8bc
00000150: 79e0 2c3d 5d32 86bc 6b79 88bd dd4b d7bd
00000160: 50ca 693c 756b 103e f41d 19be 2096 8a3d
00000170: 45f4 0ebe 2fc1 18be 9a9b 9e3d c116 e7bc
00000180: 1838 0d3e 8ebd dd3d fa3d b6bb 8ac3 043b
00000190: 87f6 5b3d cd57 113d f54f cb3d 00ab e5bc
000001a0: a8e0 a73c 6129 1cbe 3b5d 1b3c d7fe 283c
000001b0: 081b d93c e734 d5bd 58b6 b0bd 9a00 6bbc
000001c0: 0e3e aa3d ca8e d13d a8c5 a73c 0e1b 823d
000001d0: 21be 0d3e 4582 6dbd 2be6 03be cb88 e8bd
000001e0: 401d 21bd 4094 05bc 55d8 20be c87d 7fbd
000001f0: 68df fabd 806d ca3c 549a 04be c023 cf3c
00000200: 76f7 cc3d c0c5 223b c019 8bbb 1280 dd3d
00000210: fc55 a43d 3460 203d 6cfb 02be 8f5a 1a3e
00000220: 7254 6dbd aadf 0fbd e440 babd 6850 853d
00000230: 00c5 8dba 18c1 783d a806 92bd 3b7a afbd
00000240: a8f8 3e3d a245 af3d e91c 053e 108a 4d3d
00000250: cedb cd3d 802c 0e3b aea6 dcbd a163 9cbd
00000260: 341a 05be 2829 2fbd cff8 203e cc80 47bd
00000270: f0be e7bc 0042 8dba 528e 13be f88e acbc
00000280: 4e88 ab3d 1602 f63d 530c 16be f4ee 4e3d
00000290: 4fa8 80bd 103c d9bc 8c3b 20bd 60ec 39bc
000002a0: 4471 04bd 2293 f23d b289 c4bd 8524 04be
000002b0: 7ab5 99bd bc5c 583d cc44 17bd f4c3 283d
000002c0: 3294 d0bd 2e59 b0bd 00d2 793d 884a 92bc
000002d0: 497b 003e feac de3d 71f8 a8bd 689d a8bc
000002e0: bdf5 b1bd e4a2 5abd f9b4 1b3e 0f85 f4bd
000002f0: 3d7b eebd d03f c83c 5004 a33d c049 c53c
00000300: a4aa 4ebd b2b0 0cbe 74a6 dcbd 10a6 69bc
00000310: 58a0 343d 4205 d3bd 90a6 86bc da53 e93d
00000320: f09f 8dbd d155 c6bd 58f4 54bd 5851 8bbd
00000330: 35d0 81bd 1e08 1e3d a396 10be 815c e63d
00000340: 884a c03c 618e 133d 0c8b 56bd 1b94 d7bd
00000350: 882a b4bc d5cf d53d e10b 1b3e 7086 9d3c
00000360: 6b90 2f3e 1106 203e e1e9 993d 12da 86bd
00000370: 6370 4bbd 2e76 003e 418f 69bd 6d60 053e
00000380: cc4b 813d 0504 003e 7dd1 8dbd 3dbe f33c
00000390: d160 1e3e d5a4 823d c3b2 f1bd 65f8 c2bd
000003a0: 3628 e4bd 838b efbd bccf a53d d3ac 0a3e
000003b0: 642e f1bd 0359 a2bd 409a d23b 1610 febd
000003c0: 8778 c0bd c8d8 c7bd c988 013e f06d 513c
000003d0: b6fd a8bd 1669 1bbd 045c 01be d9ad 8fbb
000003e0: 3029 343c b36f a83d 7385 b73d 292c 50bc
000003f0: 3e19 fa3d 4cb1 0c3e e00d b1bb 922d 583b
-0.112510316 0.08296175 0.13117151 0.0176211 0.092683844 -0.06914416 -0.14784965 0.058804754
-0.15539545 0.1063616 0.13176431 0.08650579 0.10443999 -0.07119325 0.081550315 -0.024245374
0.09957077 0.016566247 0.053757854 -0.036622375 -0.14880325 -0.11251814 -0.047295146 0.12911396
-0.041201748 0.102536306 0.12565109 0.09417968 -0.08432217 -0.1427294 -0.027299538 -0.13921687
0.092043 0.14383702 -0.110099204 0.056837022 -0.115366325 -0.00603815 -0.1200014 -0.02487126
0.15583108 -0.051317863 -0.06495574 0.13341965 -0.06747878 0.07571298 -0.13915505 0.027359754
0.004206419 -0.15058036 -0.034035124 -0.14943789 0.12184827 0.057354763 0.12580319 0.057015523
0.017270416 -0.043656625 0.0031904131 -0.1269422 -0.079861894 0.14471026 -0.060019188 0.023326963
-0.0927106 -0.09465214 0.114740595 0.12224372 -0.038460076 0.10920952 -0.019744739 0.020530596
-0.02893798 -0.005063787 -0.096008435 -0.06067399 -0.051238097 0.03219028 -0.129958 -0.069146246
-0.08321892 0.06947525 -0.095082626 -0.020614237 0.04220626 -0.016381437 -0.06663784 -0.10512517
0.014269426 0.14103492 -0.14952832 0.06766915 -0.13960369 -0.14917444 0.077445224 -0.028209092
0.1379093 0.1082717 -0.0055615874 0.0020258152 0.053701904 0.035484124 0.0992736 -0.02803564
0.020492867 -0.1525016 0.009482677 0.010314665 0.026502147 -0.10410481 -0.08628529 -0.014343405
0.08312617 0.10232313 0.020479992 0.063528165 0.1384206 -0.057985563 -0.12880771 -0.11354216
-0.039334536 -0.008153021 -0.15707524 -0.062375814 -0.122496426 0.024710417 -0.12949497 0.025285602
0.10008137 0.0024837106 -0.004245013 0.10815443 0.08024213 0.039154246 -0.12791222 0.15073608
-0.05794186 -0.035125412 -0.09094408 0.06509477 -0.0010816157 0.060731024 -0.07130176 -0.085682355
0.046623856 0.08558203 0.1299931 0.050180495 0.1005169 0.0021694005 -0.10773979 -0.0763619
-0.12998277 -0.04276386 0.15719913 -0.048706815 -0.028289288 -0.0010777116 -0.1440976 -0.021064267
0.083756074 0.120121166 -0.14653139 0.050520852 -0.06282102 -0.026517898 -0.03911929 -0.01134786
-0.03233458 0.118444696 -0.09596576 -0.12904556 -0.07505317 0.052822813 -0.036930844 0.0412025
-0.10184516 -0.0861076 0.060991287 -0.017857805 0.1254703 0.108728394 -0.082505114 -0.02058287
-0.08689449 -0.053378 0.15205754 -0.119394414 -0.116445996 0.02444449 0.07959807 0.024083018
-0.050455704 -0.13739279 -0.10773936 -0.014260784 0.04409823 -0.10303737 -0.016436845 0.113929465
-0.06915271 -0.09684337 -0.051990837 -0.068026245 -0.063385405 0.03858196 -0.14119963 0.112481125
0.02347304 0.036024455 -0.0523787 -0.10526296 -0.021992937 0.104400314 0.1514125 0.019229144
0.17144935 0.15627314 0.07515312 -0.06584562 -0.049667727 0.12545082 -0.057021383 0.13025065
0.06313285 0.12501533 -0.06924722 0.029753799 0.1546662 0.063790955 -0.11801674 -0.09520034
-0.11140482 -0.116965316 0.08096263 0.1354249 -0.117764264 -0.07927134 0.0064270794 -0.12405412
-0.09397989 -0.097581446 0.12649836 0.012782559 -0.082515165 -0.037942015 -0.12632757 -0.004384738
0.010996148 0.0822443 0.08961 -0.012705841 0.12211846 0.13739508 -0.0054032654 0.0032986146

hidden_layers.2.bias f4 [40]
00000000: c7b2 97bd 304a 19be 151b f53d cfae 80bd
00000010: e879 d9bd dec0 413e 5478 a43d e7b1 f73d
00000020: fae2 643d 023f febd efdc ebbd 5866 13be
00000030: 74db 4fbd efc7 c9bd fbe5 b03d eab7 0cbd
00000040: 0fbc a3bd 9f17 1fbe 10b5 1e3d 7e8b f33d
00000050: f83a 123e 0647 623d 0b9b fabd ac74 e23d
00000060: b769 b1bc c4b8 e83d 337f 053e 5f97 ae3d
00000070: 95bf b23d a674 b93c b42b a53d ce7d 263e
00000080: b16d 313c 2a26 353d a60b 87bd 00c8 7ab9
00000090: da41 2c3d 8fba 9dbd 78d9 c23d d2c6 a43d
-0.07407146 -0.14969707 0.11968056 -0.06283342 -0.10618955 0.18921229 0.08030763 0.12094479
0.055880524 -0.124143615 -0.11516749 -0.1439451 -0.050746396 -0.098525874 0.08637615 -0.03435508
-0.07994854 -0.15536354 0.038746893 0.118918404 0.14280307 0.055243514 -0.12236603 0.1105741
-0.021656854 0.11363366 0.13036804 0.085249655 0.087279476 0.02263863 0.08064976 0.16258928
0.010829375 0.04422585 -0.06594019 -0.00023916364 0.04205499 -0.07701599 0.09514135 0.080457345

hidden_layers.3.weight f4 [40, 40]
00000000: 251d 043e 392f ecbd 9ef2 fc3d 227b fb3d
00000010: a19f 213e 7edf 82bd 849a 0abd 6b69 14be
00000020: e946 1ebe 6ed3 0fbe f869 f53c 286d a6bc
00000030: 3398 1a3e 763c b13d 70e4 b33c 5a51 07be
00000040: 1412 643d 3880 f0bd be5d 973d 1577 91bd
00000050: 382e 453d a428 553d c8ee 9a3c c007 61bb
00000060: a39a 81bd a613 83bd 448b 8a3d d5ee 133e
00000070: 526b bbbd 685f f2bc e792 013e ae8c be3d
00000080: d841 aebd 2013 b8bd 1a97 e2bd a8f8 8bbd
00000090: cb19 0dbe 6e35 febd cbc2 12be 44a2 273d
000000a0: d274 c93d df7a 82bd 79c8 213e 5c19 0ebe
000000b0: b879 1dbe bc73 f1bd 209a 8cbc db17 91bd
000000c0: 4046 64bc 0e4b 8b3d c488 5bbd 00c7 dfbc
000000d0: f12f 013e 9014 e2bc 687a 3e3d 02e7 d13d
000000e0: 0060 7039 b8c8 1d3d 9b88 183e eafa 01be
000000f0: 21d0 96bd 2492 263d 7a95 18be 229b 903d
00000100: 706a ef3c 2091 bf3c 8060 d0ba d5e2 a7bd
00000110: b091 c6bc 4f7a 193e 0049 8b3d f8ce d4bd
00000120: 083b 2abd a0e1 d9bc 5394 083e 709f 1b3d
00000130: 96b2 0abd c6a4 11be 6a35 d23d ec82 863d
00000140: 8ec3 c23d d8bb 45bd 2e24 823c 6025 1e3c
00000150: f30a 193e 6949 4dbd ec4b 743c e57f 4cbd
00000160: 83a7 d9bd ee6c e3bd 8282 b43d be3b cb3d
00000170: 63c3 4b3b c8a6 9e3c f8b8 2bbe a477 283d
00000180: 90c7 fdbd acef ad3d 8eb4 dcbd f72e 353d
00000190: 629b 8dbd 3e85 b2bd 02b9 c83d 360f 263d
000001a0: 303f 653d 3bfe 933d d6a4 c9bc 6e7e 153d
000001b0: 4fa5 f2bd 809c e2bd b88c fd3d 1d4e 03be
000001c0: 4f7b c2bd 9f7a 2bbe e8e2 843c 00b8 a03d
000001d0: 3a49 2abe 515f f2bd 7a38 20be bc7d db3d
000001e0: c33c ed3c 2076 09bd bd00 3c3d d8df e5bd
000001f0: 006f deba 8a94 07be 638d a63d 1993 d2bd
00000200: 4df5 223c 00f1 ceba 084b a5bd 2ff1 003e
00000210: 0e69 9c3d 88bd 8cbc fb6e 51bc 88ca ef3c
00000220: 7e8f d2bd 7fa1 013e 4672 da3d 79f4 0e3d
00000230: 8d43 143d 013d 09bd 78dc 8e3d 6ddc 943d
00000240: 1200 e2bd 6ef7 36be 05bd 39bc 43b1 b63d
00000250: 4d18 b2bd 8037 1ebe 5fd8 46be d1e8 cb3d
00000260: 77d6 b83d 0d02 923d 78e0 afbc 6075 143c
00000270: ed8d 89bd 6011 973b ccfa 30bd 3501 e33d
00000280: 688c f6bd 7f62 183e b3f3 683d 6212 f63d
00000290: 40c0 f53b b80f 983d 98e5 f2bd 5616 04bd
000002a0: b858 15be 1fc0 0ebe 209d 6cbc 58cc 3d3d
000002b0: 63d6 94bd 5cd6 733d 4a47 cabd b996 1c3e
000002c0: 8a57 06be 7c6e 3ebd f0f3 aebc 56ce 923d
000002d0: fce9 f3bd 95f8 8b3d 6407 303d 27ba 113d
000002e0: 8bab 353d edb7 a9bd e54b bf3d ca75 b7bd
000002f0: 689f 1ebd f5e3 d63b 2034 e63c 6686 0ebe
00000300: c8e0 473d b121 8f3d 7235 c33d 9e91 6dbd
00000310: 91d0 823d 10ae 65bd b628 f03b b663 0ebe
00000320: bbcf 0c3e a601 ae3d 0055 f5bd aaa0 d33d
00000330: c098 03bc d053 0c3d 1133 adbd 35de 033e
00000340: 887d 433d 09de 1bbe 4325 92bd d266 ff3d
00000350: f4a9 823d 207a a1bc b8e2 86bd 6e44 fa3d
00000360: 4c97 913d e785 1a3e d074 263d e4cf 5abd
00000370: 406e 04bb 28e3 f9bd 516e 163e 9056 d43c
00000380: ec6a cfbd 8462 8b3d 4d6b 0e3e 4cda 283d
00000390: d2d3 d73d 6694 79bd a903 15be b681 e1bd
000003a0: da94 19bd 00ac 6839 b23c f13d 94fc 16bd
000003b0: b2fa 9d3d 8a96 873d 76c5 d13d 9aee c9bd
000003c0: 54bc 07be d01e 303c 405d c0bd 08a2 a0bd
000003d0: a4d6 1e3d f6c8 e53d 529a 0dbe 4a85 cf3d
000003e0: d853 a6bc 7aa3 cc3d 184f 953d c669 18be
000003f0: b884 8dbc 2c16 9f3d ad1f 1a3e b4f6 163d
0.12901743 -0.115324445 0.12350963 0.12279345 0.1578355 -0.06390284 -0.033838764 -0.14493339
-0.15456738 -0.14045498 0.029957756 -0.020315722 0.15097122 0.0865411 0.021959513 -0.13214627
0.055681303 -0.11743206 0.07390927 -0.07102791 0.04813978 0.05204071 0.018912688 -0.0034336895
-0.06328323 -0.06400232 0.06764844 0.14446576 -0.09151329 -0.029586509 0.12653695 0.09304176
-0.085086524 -0.08988023 -0.110639766 -0.06834537 -0.1377937 -0.12412535 -0.1433212 0.040926233
0.09836735 -0.06371092 0.1579913 -0.13876861 -0.15378463 -0.11789653 -0.017163336 -0.07084628
-0.0139327645 0.06801425 -0.053597227 -0.02731657 0.12615944 -0.027597696 0.046503454 0.10249139
0.00022923946 0.0385215 0.14895861 -0.12693372 -0.07363916 0.040666714 -0.14900771 0.07060839
0.029225558 0.02338463 -0.00158979 -0.08197562 -0.024239391 0.14988063 0.06801033 -0.10391039
-0.041560203 -0.026596844 0.13337831 0.03799385 -0.03386172 -0.14223012 0.10264094 0.0656794
0.09509955 -0.048274845 0.015886392 0.009652466 0.14945583 -0.050118838 0.014910679 -0.049926657
-0.106276534 -0.11104761 0.08813955 0.09923504 0.0031091801 0.019366637 -0.16769779 0.041129723
-0.12391579 0.084929794 -0.107766256 0.044234242 -0.069144025 -0.0871682 0.098009124 0.04054185
0.055968463 0.07226225 -0.024614733 0.036497526 -0.11847936 -0.11065006 0.123803556 -0.12822767
-0.094961755 -0.16745995 0.016221479 0.07847595 -0.16629496 -0.118345864 -0.15646544 0.10717341
0.028959638 -0.03355992 0.04589914 -0.112243354 -0.0016970336 -0.13240257 0.08132436 -0.10281963
0.00994618 -0.0015788376 -0.08070952 0.12592004 0.07637225 -0.01718022 -0.012782807 0.02927138
-0.10281275 0.12659262 0.10666327 0.034901116 0.036197234 -0.033505443 0.06975645 0.072686054
-0.1103517 -0.17867824 -0.01133657 0.08920529 -0.08696041 -0.15450859 -0.19418477 0.099565156
0.09025281 0.071292974 -0.02146934 0.0090611875 -0.06716523 0.0046102256 -0.04320793 0.110842146
-0.12038499 0.14881323 0.056873035 0.12015225 0.0074997246 0.07424873 -0.11860198 -0.032247864
-0.14584625 -0.13940476 -0.014441758 0.046337456 -0.072674535 0.0595306 -0.098768786 0.15291871
-0.13119331 -0.046492085 -0.021356553 0.07168262 -0.11909863 0.06834523 0.0429758 0.03557792
0.04435305 -0.08287034 0.093406476 -0.08958013 -0.03872624 0.0065579363 0.028101027 -0.13918456
0.048798352 0.06988848 0.09531678 -0.0580002 0.06387437 -0.056074202 0.007329072 -0.13905224
0.13751118 0.08496408 -0.11979103 0.103333786 -0.008032024 0.034259617 -0.08457006 0.12877734
0.047727138 -0.15221418 -0.07136013 0.12470783 0.06380072 -0.019711554 -0.06586212 0.12220083
0.07108936 0.15090142 0.040638745 -0.053420916 -0.0020207316 -0.1220153 0.1469052 0.025920182
-0.101278156 0.068059 0.1390812 0.04122381 0.105384484 -0.06093254 -0.14552177 -0.110110685
-0.03749547 0.00022189319 0.11779155 -0.03686197 0.07713832 0.0662051 0.10242741 -0.09859963
-0.13255435 0.010749534 -0.09392786 -0.07843405 0.038778916 0.11219971 -0.138284 0.10132845
-0.020303652 0.09992118 0.072904766 -0.148841 -0.0172752 0.07767901 0.15051146 0.03685637

hidden_layers.3.bias f4 [40]
00000000: d4cd 18be 15fb 15be c231 ef3c 3162 993c
00000010: ef0e e13c 60a9 97bb 9491 43bd b9f2 1abe
00000020: 9026 3f3c f186 a4bb da15 173d be37 d33d
00000030: 5978 71bd a960 193c 6dcb 12be 680f fa3d
00000040: 1016 d43c b220 09be 52fb 913d 7e51 ac3d
00000050: 44ba 1abe 7517 7a3d 4a66 983d 90a1 c1bb
00000060: 9f4d cfbd 5da6 b33d 009c d23d ab67 f6bc
00000070: d5cc 19be 6157 d23b 94de 923d d6ff d13c
00000080: 12be 8ebd 35be d7bd fe17 013d 6a79 ac3d
00000090: 1020 3bbc 5f53 3e3e 0b50 a7bd b80c 8a3c
-0.14922267 -0.14646561 0.029198531 0.01872358 0.027472941 -0.0046283454 -0.047746256 -0.15131654
0.011666909 -0.005020969 0.036886074 0.10313366 -0.058952663 0.0093614245 -0.14335413 0.1220997
0.025889426 -0.13391379 0.07128014 0.08413981 -0.15110117 0.061057527 0.07441385 -0.0059091523
-0.10122227 0.08771966 0.10283661 -0.03007873 -0.15019543 0.006419108 0.0717136 0.025634687
-0.06969847 -0.10534326 0.03151702 0.084215954 -0.0114212185 0.18586491 -0.08169564 0.016851768

output_layer1.weight f4 [2, 40]
00000000: a703 143e 0ecf de3d ceec 19bd 6c77 9a3c
00000010: 4c62 d33d 9b13 1e3e 80d0 683c 009d cdbb
00000020: 98b3 013d 4fda 863b 975f 313e 6b77 2b3e
00000030: ab88 fabd 97a5 b1bc 8e0b f73d 1dbe 0cbe
00000040: 8671 c03d 0060 c5b8 8737 ccbd 4f45 a43c
00000050: e1fa c8bd 95e7 c9bc 71d7 3dbd 4bd0 2bbd
00000060: 0808 c4bd c1b2 6d3c 8aa4 133d 1cc8 8a3d
00000070: 2c26 943d 3f94 0ebe 7d94 2c3e f0fd 893d
00000080: 5b04 4e3c a6ee f53d 4b68 133d de71 283e
00000090: 3d37 8d3d fb69 03bd 6465 6f3d 7865 99bd
000000a0: 50ee 91bc 23cf dcbd 586d 923c 742a aabd
000000b0: 6a6d 983d 4efa bb3d a068 783c 10ee 96bd
000000c0: b0cb 95bc 52f2 6a3d 4fcc f83d 54a6 e53d
000000d0: 5ac9 c53d ea27 f13d b2be edbd 4ccb 7cbc
000000e0: 3d3a abbd c0db d23b cb1e b0bd 446b f53c
000000f0: 9d33 203e 1e09 f2bc 93f2 013e 6b3d bfbd
00000100: d85e b7bc 5552 d73d 5620 bd3d 1e85 b9bd
00000110: 0c91 1dbe f663 8abd 029f ff3d 4ad0 04bd
00000120: 1120 65bd 58ab 4a3d 00ec 5ebd daf8 9ebd
00000130: f4a5 ccbd 17d4 c9bd 17e9 1d3e a206 933d
0.14454518 0.10879336 -0.03757935 0.018855773 0.10321483 0.15437166 0.0142098665 -0.0062748194
0.031665415 0.00411538 0.17321621 0.16744773 -0.122330986 -0.021685405 0.12062751 -0.13744397
0.09396653 -9.4115734e-05 -0.099715285 0.02005258 -0.09813476 -0.02464656 -0.04634804 -0.04194669
-0.09571844 0.01450795 0.03604559 0.06776449 0.07233843 -0.13923739 0.16853519 0.06737888
0.012574281 0.12008409 0.035988133 0.16449687 0.068953015 -0.032083493 0.058446303 -0.07490057
-0.017813832 -0.10781696 0.017874405 -0.083088785 0.07442744 0.09178601 0.015161663 -0.073696256
-0.018285602 0.05736 0.12148344 0.11213365 0.096575454 0.11775191 -0.11608638 -0.015429329
-0.083607174 0.0064348876 -0.08599623 0.029958375 0.15644689 -0.029545363 0.12690191 -0.093378864
-0.022384092 0.105137505 0.09234683 -0.09058593 -0.15387362 -0.06757347 0.124815 -0.032425202
-0.055938784 0.049479812 -0.054424286 -0.077623084 -0.099925905 -0.09854906 0.15420948 0.071789995

output_layer1.bias f4 [2]
00000000: aefc bbbd 9b83 863a
-0.09179054 0.001026261

output_layer2.weight f4 [1, 40]
00000000: 3835 5dbd 06eb 1dbe fd0d 25bd fb12 fcbd
00000010: 00cf e7bc c0ca 183c 800e 1ebc 38a8 cebc
00000020: e8ca aa3c 9dc7 db3c 26cd c73d a72c aabd
00000030: b626 13be b8a5 cdbd c047 583d 74f9 a53d
00000040: 3766 203e 8caf 973d ba01 ea3d 1ccb c5bd
00000050: 38d2 b13c 6927 583d 2dcd c8bd e844 87bc
00000060: d086 c6bd b4b1 84bd bb54 e3bd a865 f6bd
00000070: 5955 0f3e 0864 943d 7ae7 aebd fcd8 b23b
00000080: f4b3 a73c bac6 ac3d bea5 30bd 246a 343e
00000090: 7ae2 cdbd e451 2a3e 4261 0bbe a8a1 86bc
-0.05400583 -0.15421686 -0.040296543 -0.12308308 -0.028296947 0.009325683 -0.009647012 -0.025226697
0.020848706 0.026828581 0.09755926 -0.08309298 -0.14370236 -0.10041374 0.0528028 0.0810422
0.15663992 0.0740653 0.114261106 -0.09657881 0.021706685 0.05277196 -0.09804759 -0.01651235
-0.09693682 -0.06479207 -0.111001454 -0.12031108 0.13997401 0.07245642 -0.085402444 0.0054579955
0.02047155 0.084363416 -0.043126814 0.17618614 -0.100529626 0.16632801 -0.1361132 -0.016434506
