src/models/prediction_112.pt (torch, 38186 bytes, 13 tensors)

input_layer.weight f4 [40, 40]
000000 fc 25 a2 3c f0 56 06 be c2 c5 ea bd 0a 7f 61 bd
       0.019793503 -0.13119102 -0.114635006 -0.055052795
000010 0d 22 e9 bd b6 a9 b8 bc 4a 1e f0 bc 2c 8b fd 3d
       -0.11383448 -0.022541862 -0.029311318 0.123800606
000020 50 98 1d bd e4 5a 28 3c 94 c0 32 bd 93 0b 0d be
       -0.038475335 0.010275576 -0.043640688 -0.13773946
000030 9b 5f e5 3c d9 73 e4 bd e0 71 18 3e ee 30 09 3e
       0.02799969 -0.11154909 0.1488719 0.13397571
000040 50 b7 e1 bc 3c 6b 25 be 07 93 2f 3d 68 29 0f bd
       -0.02755323 -0.16154188 0.042864826 -0.034951597
000050 b2 f1 23 3d ef 04 ce bd b6 cd c3 3d 0b a3 e9 3d
       0.04002542 -0.10059535 0.095607206 0.11408051
000060 89 03 11 bd 71 10 11 3e a6 f3 ba bc a1 66 21 3e
       -0.035403762 0.14166428 -0.022821259 0.15761806
000070 3e 51 d0 3d bc df ed 3c 6e f3 36 be 08 dc 32 be
       0.10171746 0.029037349 -0.17866299 -0.17466748
000080 e1 64 06 be 45 b5 35 be 90 c6 86 bc 2b ad 34 3e
       -0.1312442 -0.1774493 -0.016452104 0.17644183
000090 b2 3a 93 bd 20 41 e0 3c 2e 25 f0 bd a7 bc 1c bd
       -0.071889296 0.027374804 -0.117258415 -0.03826585
0000a0 2e a0 82 3d 40 c1 24 bc c2 ac ce 3d dd fc 12 3e
       0.06378208 -0.01005584 0.10091545 0.14354272
0000b0 64 bf 36 3d d0 56 6f 3d e6 a5 4e bd c0 b5 3a 3c
       0.044616118 0.0584324 -0.05045118 0.011395872
0000c0 89 a2 19 3e b8 d3 15 be 04 92 6f 3d d1 4a 84 bd
       0.15003408 -0.14631546 0.05848886 -0.064595826
0000d0 3a 62 92 3d 70 4c 00 3c 50 38 81 3c 58 fa 99 3d
       0.071476415 0.007830724 0.015773922 0.075184524
0000e0 a0 05 3f 3c 79 64 b3 bd ea 21 0f be 5a 8f 0b be
       0.011659056 -0.08759398 -0.13977781 -0.13628903
0000f0 52 a7 74 bd 72 19 9c bd 8e 84 57 bd 7d 25 04 3e
       -0.05972988 -0.07622041 -0.05261665 0.12904926
000100 08 97 f8 bc 49 d7 1d 3e c0 d7 a9 3c ef 2d c3 bd
       -0.030345455 0.15414156 0.02073276 -0.095302455
000110 ce ca dc bd 40 d3 45 3c 66 0c c6 3d 87 13 81 bd
       -0.107808694 0.012074292 0.096703336 -0.06302553
000120 e8 30 62 3d ac 7a 8b 3d a2 b9 9a 3d f0 13 2a 3d
       0.055222422 0.06810507 0.07554938 0.04152292
000130 bb cf 11 3e d0 00 93 3d b5 42 1e be 48 ad b1 bd
       0.14239399 0.07177889 -0.15455134 -0.08675629
000140 09 56 dc bd 3c 6d a3 bd c1 aa a2 3d 2c 85 c6 bb
       -0.107585974 -0.07979819 0.07942725 -0.006058356
000150 90 78 ef 3d eb 95 27 bd 82 bf 65 3d 0a 01 14 be
       0.11692917 -0.040914457 0.05609084 -0.14453521
000160 d3 5a 0b be 46 12 5b 3d 8e 4a 21 3e e2 2d b8 3c
       -0.13608865 0.053484224 0.15751097 0.022482816
000170 cc d4 22 3e 9d a4 f0 bd d4 e2 0b be 90 50 da 3c
       0.15901488 -0.117501475 -0.13660747 0.026649743
000180 69 f9 c1 3c be 77 80 bd 77 f0 65 bd 94 ab 19 3e
       0.023678498 -0.06272839 -0.05613753 0.15006858
000190 f9 7e dc bd 0a 81 bb bd 20 b5 86 bb ec f1 21 3e
       -0.107664056 -0.091554716 -0.0041109473 0.15814942
0001a0 0c 76 a9 3b 7d 30 d2 bd f6 21 74 3d 92 e7 77 bd
       0.005171543 -0.10263155 0.0596027 -0.060523577
0001b0 0f 7d b4 bd 35 dc 11 be f3 d6 be 3d eb 24 09 3e
       -0.088129155 -0.14244159 0.09318342 0.1339299
0001c0 97 e8 10 bd 8f a5 80 bd ff 5b ba 3d 4c d7 73 3c
       -0.035378065 -0.06281578 0.09099578 0.014882874
0001d0 15 c3 d4 bd 2f 7d 80 bc 01 42 4f 3d f8 fb 22 3d
       -0.103887714 -0.015684692 0.050600056 0.039791077
0001e0 79 42 19 be 62 ce ff 3d 12 94 d2 bd 2e e0 d9 3d
       -0.14966764 0.12490536 -0.102821484 0.10638462
0001f0 58 de c2 3c e5 de e2 bd 8d 57 f4 bd 0c 9a 5f bd
       0.023787662 -0.1107767 -0.119307615 -0.05459027
000200 ac fb 3b 3d d3 d9 8b bd b5 65 12 3e f7 e8 0c 3e
       0.04589431 -0.06828656 0.1429661 0.13760744
000210 11 65 19 3e aa 6b 52 bd 90 c1 d3 bd 90 49 ae bd
       0.1497996 -0.051372208 -0.103396535 -0.08510125
000220 2e 19 7b bd 75 40 0e 3e 20 4f 21 3c d2 95 c0 3d
       -0.06130331 0.13891776 0.009845525 0.09403576
000230 d3 cf 00 3e 8c b9 0b be f7 d8 12 be 22 cb d9 3d
       0.12579279 -0.13645 -0.14340578 0.10634448
000240 6a 58 fc 3d 00 e7 ed bb f0 c7 72 3d 38 8c 91 bc
       0.12321551 -0.0072602034 0.059272707 -0.017767057
000250 98 51 85 3c 0e dc 65 bd 6b 6b 12 3e 80 00 6a bc
       0.016274258 -0.056118064 0.14298789 -0.014282346
000260 80 72 4b bb 4a a7 d3 3d a4 a4 10 be e4 b4 32 3d
       -0.003104359 0.10334642 -0.14125305 0.043629542
000270 80 db c4 3b 21 fc 90 bd 48 ca 57 3d da 9d bc 3d
       0.0060076118 -0.0707934 0.052683145 0.09209795
000280 07 ef b1 3d dc 86 14 3c 2f bf 16 3e 3f 10 23 be
       0.08688169 0.009065356 0.14721368 -0.15924166
000290 5f 66 ef bd 26 4a 86 bd e7 94 c1 bd 9d 4e d0 bd
       -0.116894476 -0.065571114 -0.09452229 -0.10171244
0002a0 5d 71 82 3b 67 75 c2 3c 25 45 80 bc 17 bc b7 3d
       0.003980799 0.023737622 -0.01565797 0.08971422
0002b0 45 13 40 bc 6b dc d5 3c 75 5f fa bc 49 dd 10 be
       -0.011723344 0.02610608 -0.030563096 -0.14146914
0002c0 20 7a 22 3d 98 62 0a 3d b0 4d 1f 3e db a9 94 3d
       0.03966725 0.033785433 0.15556979 0.0725896
0002d0 64 f3 18 3e 39 05 b2 3d e1 15 10 3e 82 a5 39 3c
       0.14936596 0.086924024 0.14070846 0.011330964
0002e0 1b 82 19 be 1e 71 93 3d c5 dc 30 bd 1b 42 f8 3d
       -0.14991038 0.0719931 -0.043179292 0.121219836
0002f0 09 9c 0d 3e aa e9 18 be c2 33 1e be 1e ee 0d be
       0.13829054 -0.14932886 -0.15449432 -0.13860366
000300 c2 a4 8d bd bf 27 9c 3d 98 39 10 bd 5b d5 a5 3d
       -0.06916191 0.076247685 -0.035211176 0.08097335
000310 9d d5 b4 bd c5 d4 3b 3c 0c 6e 6b 3d 00 13 bb bd
       -0.08829806 0.011464302 0.057477996 -0.09134483
000320 cc fa 82 bd c3 a1 b3 bd 82 ec 4b 3c b5 84 b5 3d
       -0.06395492 -0.08771088 0.012446525 0.088632025
000330 a1 4b 50 3b 4a b8 58 bd 98 10 d7 3d e7 98 a8 3d
       0.003178336 -0.052910127 0.10501212 0.08232289
000340 b3 2a 34 3e 2f d7 0d bd 6f 98 a6 bd 48 73 cc bd
       0.17594413 -0.034629043 -0.08134543 -0.09982926
000350 f3 01 bd bd a8 58 7f bc 8d 6d b3 bd 9c f1 3b be
       -0.092288874 -0.015585102 -0.087611295 -0.18353885
000360 94 1a 10 3c a8 fc 37 bd ca 0f ef bd 46 03 53 bd
       0.008795399 -0.044918686 -0.116729334 -0.051516794
000370 db f9 c9 3d e7 b6 76 bd 74 6f ca 3d 99 45 29 bd
       0.09862109 -0.060233023 0.09884539 -0.04132614
000380 1f 14 05 3e 07 e4 d8 bc 46 3d 41 3e 16 1e 54 3d
       0.12995957 -0.02647592 0.1887103 0.051786505
000390 55 3f b1 bd 6c 1e 22 3d 04 6d 99 3d 64 70 ec 3b
       -0.08654658 0.039579794 0.07491496 0.0072155464
0003a0 37 48 13 bd b0 93 8c bd ef 95 e2 bc b2 19 43 3e
       -0.03595754 -0.06864107 -0.027659385 0.1905277
0003b0 48 4f d0 3d b3 82 8d 3d 67 8f 3f 3e 18 a7 04 be
       0.10171372 0.069096945 0.18707047 -0.12954366
0003c0 b4 c2 7b 3d 8c 3e d2 bd 70 80 9f bd e7 7f bf bd
       0.06146498 -0.10265836 -0.077881694 -0.09350567
0003d0 4a e9 86 bd 84 64 06 3d b2 8e c6 3d cb e7 0f 3e
       -0.06587465 0.032810703 0.09695186 0.14053266
0003e0 e0 89 df 3c f8 ad 8b 3d 8d b8 17 be 83 c8 0c be
       0.027287424 0.06820291 -0.14816494 -0.13748364
0003f0 aa 4a 13 be 5a d2 54 bd 32 c5 e3 3d a4 fe 7e 3d
       -0.14383951 -0.05195842 0.111215964 0.062254563

input_layer.bias f4 [40]
000000 2a 55 c8 3d be a6 73 bd 56 21 7a 3d 68 e7 15 be
       0.09781869 -0.05948519 0.061066948 -0.14639056
000010 4d d3 fa 3d a8 7d 25 3e e9 44 13 be d2 1e ae bc
       0.12247334 0.16161215 -0.14381756 -0.02125493
000020 40 3f 1d 3d 9a ae 13 3e e2 39 42 3d d1 dd 1a 3e
       0.038390398 0.14422074 0.047418483 0.15123679
000030 72 2a 14 3e d2 f8 b8 3c c9 93 22 3e 60 3e e1 bc
       0.14469317 0.022579584 0.15876688 -0.027495563
000040 c8 0e 0f be 6a 24 01 3e 51 76 24 3e 0a fe cb bd
       -0.13970482 0.12611547 0.16060759 -0.099605635
000050 6b 7d 05 3e e4 db e1 3d da df b1 3d bf 49 fc 3d
       0.13036124 0.11028269 0.086852744 0.123187535
000060 7a 2f 5c 3d d0 95 36 bc ff 5c 0c bd 90 72 eb bc
       0.053756215 -0.0111441165 -0.034268375 -0.028741151
000070 78 f4 85 bc 0e c4 20 3d 36 db c5 3d 27 7f 3a bd
       -0.016351923 0.039249472 0.09660952 -0.04553142
000080 57 35 0a be d9 61 28 bc 32 20 f7 bd 07 be bc 3d
       -0.1349691 -0.010277235 -0.12066688 0.09215932
000090 14 5a 89 bd 08 3f 15 bd 9a 14 a5 3d 06 73 1e 3e
       -0.06706634 -0.036437064 0.0806057 0.15473565

hidden_layers.0.weight f4 [40, 40]
000000 af 26 01 3e e8 75 b4 3c 0e 59 fa 3d 68 bc 36 bd
       0.12612413 0.022028878 0.12224017 -0.044613272
000010 30 d5 33 bd bc 3f 0e 3d ce 23 d8 3d bc 85 b2 3d
       -0.043904483 0.03472875 0.10553704 0.08716914
000020 70 5d 3f 3c de c6 07 bd 6e ba ba 3d 10 4f 33 3c
       0.011679992 -0.03314864 0.0911759 0.010944143
000030 80 91 01 bc 00 f0 62 3a 22 98 dc bd fe 41 82 3d
       -0.007908225 0.00086569786 -0.107712045 0.06360243
000040 86 4d 6f bd 55 7e 03 be cc 4c 09 be 70 0f 62 3d
       -0.05842354 -0.1284116 -0.13408202 0.055190504
000050 94 c1 f3 bd 8e 20 e9 3d b0 61 90 bd 64 ee 24 3d
       -0.119021565 0.113831624 -0.070498824 0.04026641
000060 90 a1 02 bc 47 83 16 be 86 6f 9b 3d 9d 3c 1b 3e
       -0.00797309 -0.14698516 0.07589631 0.15159841
000070 da e2 82 3d aa 36 a2 3d 4d 11 01 be 3c 55 b3 bd
       0.06390925 0.079205826 -0.12604256 -0.087564915
000080 34 50 42 3d a8 28 01 3d 7b 66 0b 3e 50 08 98 bc
       0.04743977 0.031532913 0.13613312 -0.018558651
000090 f8 83 15 3d 8a 2b d7 3d e2 96 e2 3d ee 14 d2 3d
       0.03650281 0.10506351 0.11063935 0.10257898
0000a0 2d 22 09 3e 87 3e e2 bd eb b4 e9 bd 8f 6e 1c be
       0.13391943 -0.110470824 -0.114114605 -0.1527655
0000b0 be 06 b7 3c ff 9e 3b bd 22 21 0a be fb 5c 0f bd
       0.022342082 -0.045805927 -0.13489202 -0.035000782
0000c0 80 27 3b 3d 84 0b e7 bc 86 91 2e bd 70 90 94 bd
       0.045691967 -0.028203733 -0.04261925 -0.07254112
0000d0 4c 5e 15 3e ac 12 38 bd 3f 48 27 be 8c ec d6 bd
       0.14586753 -0.044939682 -0.16336153 -0.104943365
0000e0 3e 3e f7 3d 12 68 fa bd 05 1a cc 3d 18 f2 c5 bd
       0.12072419 -0.12226881 0.099659 -0.09665316
0000f0 06 e0 6c 3b 5e b5 13 3e 13 fa b4 3c 6b 82 a6 bb
       0.003614427 0.14424655 0.0220919 -0.005081465
000100 66 37 f2 bd c8 dd 91 bc 80 28 1f bc b8 eb f3 3c
       -0.11826973 -0.017805949 -0.009714246 0.029775485
000110 e6 ed 15 be 17 cc e0 3d 72 6c 3e 3d d3 74 11 3e
       -0.14641532 0.10976427 0.04649014 0.14204721
000120 fe 5e ad bd 81 63 e9 bd e8 d3 47 bd 2d d4 c7 bd
       -0.08465384 -0.11395932 -0.048786074 -0.09757266
000130 86 60 fc 3d e5 d5 95 bd 3b a9 11 3d ea fc b6 3d
       0.12323098 -0.07316188 0.03556178 0.08934958
000140 e6 3b 35 3d a2 eb 25 bd 7c 15 69 3d 90 dd 03 3c
       0.044246577 -0.04050792 0.056905255 0.00804843
000150 9e 62 d0 3d 6d d3 58 bc 20 e5 10 3c 80 22 ba bb
       0.1017506 -0.013234002 0.00884369 -0.0056803823
000160 22 aa fa bd bf 8c 29 be bf 9b 1b 3e 22 91 be 3d
       -0.122394815 -0.16557597 0.15196131 0.09305026
000170 19 fe 09 3e 5b 6c 0d be 6f dd f4 bd 56 b9 10 3e
       0.13475837 -0.13810866 -0.119562976 0.141332
000180 54 6c 1d 3c 18 15 9d 3d ea 2c 53 3d d8 41 1f be
       0.009608347 0.07670039 0.051556505 -0.15552461
000190 a2 b7 e6 3b 10 9b c2 3c 37 ca 11 bb 70 4b 4a 3d
       0.0070409337 0.02375558 -0.0022245774 0.04938835
0001a0 05 93 62 bd 9a 49 24 bd a2 6c ca bc 00 05 ce bb
       -0.05531599 -0.040109254 -0.024710003 -0.006287217
0001b0 4d 8a 00 be 70 23 21 3d 6d 99 cf 3d 30 68 8d bb
       -0.12552758 0.039340436 0.101366855 -0.0043153986
0001c0 1a 1b d4 3d f3 5e 4f bd 1f 1f 4a 3d 5b ff 3f bc
       0.10356732 -0.05062766 0.049346086 -0.011718596
0001d0 1c 58 3b bd 00 0f 21 bd 72 c0 2d bd dd 07 ac bc
       -0.045738325 -0.039320946 -0.04241986 -0.020999843
0001e0 26 ac 31 3e 1c 23 39 bd 66 f6 a1 3d 90 99 31 3d
       0.17350826 -0.0451995 0.07908325 0.04335934
0001f0 a9 6e 9a bc 7c 30 28 3d d0 01 2d 3c 7d 20 fe bd
       -0.018851595 0.041061863 0.010559514 -0.124085404
000200 b3 a4 03 3d 99 f8 e6 3d 11 dc 12 3d 8c 66 a3 bd
       0.03213949 0.11277885 0.035854403 -0.07978544
000210 a2 76 c4 3d c7 41 11 3c f1 57 2b bd 1a 76 ea bd
       0.0959294 0.00886578 -0.041831914 -0.11448307
000220 d7 05 16 3e ef df 41 3e d6 05 12 bd 30 f6 62 3c
       0.14650665 0.1893308 -0.035650097 0.013852641
000230 af ba c2 3d 9e 13 bb 3c 1c 4d 0b 3e 87 f3 24 3e
       0.09508263 0.022836503 0.13603634 0.16108523
000240 2d 56 46 3d 72 34 90 3d 81 8d f8 3d 30 42 68 bc
       0.048422027 0.07041253 0.12136365 -0.014175937
000250 8a a4 91 3d 98 df 8b bd ab f3 e5 3d 83 fd e0 bc
       0.071114615 -0.068297565 0.112281166 -0.027464634
000260 9e fe 71 bd a5 a2 8f 3d ff c3 c4 bd 47 c8 33 3d
       -0.059080712 0.07013444 -0.09607696 0.04389217
000270 bc fa 1b 3d 96 7f a4 3d c3 5e aa 3d 56 d7 42 3e
       0.038080916 0.080321476 0.083188556 0.19027457
000280 ef 3d 17 3d 1d 98 e1 bd 5c c6 19 be 90 bb 7f 3d
       0.0369243 -0.110153414 -0.15017074 0.062434733
000290 55 29 0f 3e f0 00 05 be 00 ed c8 bb 9b bb 57 3d
       0.1398061 -0.12988639 -0.006131768 0.05266915
0002a0 ca dd d6 3d 6a 8f 27 be 12 b7 ff bd ca af 7a bd
       0.10491522 -0.16363302 -0.1248609 -0.0612028
0002b0 65 fa 27 be 77 a5 ee bd 30 b9 a1 3d 89 06 10 3e
       -0.16404112 -0.11652654 0.0789665 0.14064993
0002c0 96 84 02 be f9 59 22 bd 7e 0f b1 3c 60 b9 79 bd
       -0.1274589 -0.039636586 0.021613833 -0.060967803
0002d0 1c 05 d0 3b 0a 70 0f be 80 2b d5 3d e0 13 94 bd
       0.0063482653 -0.14007583 0.104086876 -0.07230353
0002e0 b3 59 f9 3c 00 84 20 ba 4a ad c2 bd 78 73 b7 bc
       0.03043828 -0.0006123185 -0.095057085 -0.022393927
0002f0 21 08 ec bd fc 81 86 3d 8a f1 88 bd 66 95 a8 3d
       -0.11524988 0.06567761 -0.06686695 0.082316205
000300 54 db 17 3d 69 eb 06 3d 9a b3 78 bd 9e db 08 bd
       0.037074402 0.03293935 -0.060718156 -0.03341257
000310 75 ff 0f be a4 5f a1 bd cd 3c 03 3e c1 db a7 3d
       -0.14062293 -0.0787957 0.12816162 0.081962116
000320 aa 60 0f 3c c4 39 2a bd a4 17 92 bc 38 44 ae 3c
       0.008751074 -0.041558996 -0.017833538 0.021272764
000330 ea 2d ff bd f1 e1 4e bd 00 de d5 39 3b 5d 39 3e
       -0.12459929 -0.050508443 0.0004079193 0.18101971
000340 f8 5b b4 3b 91 a7 98 bc f5 3f 8a 3c 70 46 a9 bc
       0.0055041276 -0.01863459 0.0168762 -0.02066347
000350 18 0d 6a ba dc 5d cd bd c7 1f 3c 3d cd df e4 bb
       -0.0008928343 -0.10027668 0.045928743 -0.006984687
000360 fb 1c 04 3e 0a c9 9e 3c d0 b7 0c bd aa 55 e5 bd
       0.1290168 0.019382972 -0.034354985 -0.1119798
000370 ef e6 a9 3d c2 96 50 3d fd 96 00 be 3d bc fd 3d
       0.08296 0.050925024 -0.12557597 0.12389419
000380 49 8d e5 3c f8 b9 cc 3c e7 2d 22 bd c6 08 5a bd
       0.028021472 0.02499102 -0.039594557 -0.053231023
000390 c5 fd 85 bd f3 6c 0a be 2a a9 a9 3b 02 de fd 3d
       -0.06542543 -0.13518123 0.0051776366 0.1239586
0003a0 9b ad ba bd ca 89 cd 3d e2 83 17 3e 67 63 09 3e
       -0.09115144 0.10036047 0.14796403 0.13416825
0003b0 06 32 38 bd 3c f8 a8 bd 2d a7 e7 bd da f4 2f 3e
       -0.04496958 -0.08250472 -0.11311183 0.17183247
0003c0 90 08 7d 3d c6 2a 62 bd b2 dd 96 3d 14 57 4d 3d
       0.061775744 -0.055216573 0.07366504 0.050131872
0003d0 52 3b 08 bd 30 51 f8 bc 9d 18 1a be 5a a6 ec 3d
       -0.033259697 -0.03031215 -0.15048452 0.115551665
0003e0 c0 5b 2d bc f9 87 0a 3e 00 6d 8f bc aa b4 74 bd
       -0.010580957 0.13528432 -0.01750803 -0.059742607
0003f0 50 5b 70 bc 36 51 19 be 30 d5 ea 3c 34 ea 1d 3d
       -0.014670208 -0.14972386 0.028666109 0.03855343

hidden_layers.0.bias f4 [40]
000000 17 86 fb bd 7b 86 11 bd 45 3a a1 bd 99 82 1f 3e
       -0.12281435 -0.03552864 -0.07872442 0.15577163
000010 f8 73 fc ba 15 db 3d 3e 80 6c 9e bb 96 5b cf bd
       -0.0019260636 0.18540604 -0.0048347116 -0.101248905
000020 41 5e b7 bd f0 55 44 3d 0b 2a c8 bc 19 a4 0b 3e
       -0.089535244 0.04793352 -0.02443411 0.13636817
000030 13 28 9c ba 84 96 be 3c 8b be 1f bd 10 5b 04 3a
       -0.0011913799 0.02326513 -0.039000075 0.000504897
000040 10 47 5d bc e6 79 04 3e aa b8 02 3d f8 5d 21 3e
       -0.013505712 0.12937126 0.03191439 0.15758502
000050 9b cc 1e bd 41 28 81 bc b3 c0 1f 3c d6 99 4a bd
       -0.038769346 -0.015766265 0.009750533 -0.049463116
000060 a4 e9 3f bd 78 59 2a 3d aa a1 6e bd a8 08 82 bd
       -0.046853676 0.04158923 -0.058259644 -0.06349307
000070 32 76 0f 3e 2b 26 13 be 12 46 0f be 59 92 f7 bc
       0.14009932 -0.14370029 -0.13991573 -0.030221151
000080 a4 14 16 be 47 72 a1 3d 74 30 c8 3d 7c b0 d5 3d
       -0.14656311 0.07883125 0.09774867 0.10434052
000090 58 71 c3 3c 1b 13 04 3e a3 b1 1a 3e a3 7b 28 3e
       0.023857757 0.12897913 0.15106826 0.16453414

hidden_layers.1.weight f4 [40, 40]
000000 80 4a ef ba 25 7b ec bd 71 9c cb bd a7 ad 3c 3d
       -0.0018256456 -0.115469255 -0.09941948 0.046064045
000010 6a 87 cb bd 96 44 8e 3d 75 85 04 be 94 e7 e0 bd
       -0.099379376 0.069466755 -0.12941535 -0.1098167
000020 f8 bc 86 3c d0 28 73 bc 6c 14 a0 3d 47 e5 ed bd
       0.01644753 -0.014841273 0.07816395 -0.11615997
000030 ca b6 14 bd b4 a3 d8 3d f2 30 f5 bc 67 1c 34 3d
       -0.036307134 0.10578099 -0.029930566 0.0439724
000040 71 75 0e 3e ba 03 07 3e b0 4b 03 3e f6 cc 69 bd
       0.13911988 0.13185015 0.12821841 -0.05708023
000050 6a bc 18 3b 6e a5 c9 bd 17 ad 90 3d 40 ef 67 bb
       0.0023305663 -0.09846006 0.07064264 -0.0035390407
000060 0a 2c de 3d 6e 99 78 3d b3 69 03 3e 72 ec f2 bd
       0.108482435 0.060693197 0.1283329 -0.118615046
000070 52 91 05 3e cd 70 88 3d 22 16 d5 3d 3f 6d 0b 3d
       0.13043717 0.0666214 0.10404612 0.034039732
000080 2e 9f eb bd 08 f4 12 bb 11 98 82 3c db 9a bc bd
       -0.115049705 -0.0022423286 0.015941652 -0.09209224
000090 9e 0f b5 bd 88 65 1b be bc e3 58 3d 25 82 36 3d
       -0.08840869 -0.1517545 0.05295156 0.04455771
0000a0 48 9d 89 3c e1 a4 23 be b4 03 ca bd ad 68 75 3d
       0.01679863 -0.15980865 -0.098639876 0.05991428
0000b0 c7 7b dc bd bf e4 9e 3d a5 6c 04 3e 84 09 50 3d
       -0.10765796 0.077584736 0.1293207 0.050790325
0000c0 85 32 b8 bd c0 9d e9 bc 04 10 11 3e 73 44 ba bd
       -0.08994011 -0.028517604 0.14166266 -0.09095087
0000d0 0f 4e 1f be 92 b9 09 3c 2d b7 ce 3d bd 13 24 be
       -0.1555712 0.00840606 0.10093532 -0.16023155
0000e0 2e 25 e2 bd f8 64 15 be 94 14 e5 3d c0 c9 d6 3b
       -0.11042248 -0.14589298 0.111855656 0.006554812
0000f0 9f 94 b6 3d 8f 35 17 be 01 1e 72 3c 80 5b 33 bc
       0.08915066 -0.14766525 0.014777661 -0.010947108
000100 0e ef 02 be 9b 04 bf bd 86 3e 07 3d 6c d3 1e 3d
       -0.12786505 -0.0932705 0.03301861 0.038775846
000110 99 7b 0a 3e a4 e2 48 bd 24 60 66 3d 0e 8a eb 3c
       0.13523711 -0.049044266 0.05624403 0.028752353
000120 fb e9 93 bd 65 bd 17 bc 99 39 59 bd a2 f0 ed bd
       -0.072223626 -0.009261464 -0.053033445 -0.11618163
000130 66 8f 82 3d 9e 29 ed bd 57 73 ce bd 60 4c a6 bd
       0.06375007 -0.115802035 -0.10080593 -0.08120036
000140 b8 04 13 bd fc 45 c1 bd b2 01 f1 3d 80 68 af 3c
       -0.035893172 -0.094371766 0.117679015 0.021412134
000150 b0 1b 00 bc 79 d7 01 3e da 1a f1 3d 68 0d d0 3c
       -0.007819101 0.12679853 0.117727 0.025397018
000160 86 d7 88 3d e0 d1 d9 bd f0 68 14 bc fe b2 d5 3d
       0.06681733 -0.106357336 -0.009058222 0.10434531
000170 53 12 d8 bd 48 5d 9b bc 2e 97 e8 3d 87 64 0f 3e
       -0.1055037 -0.018965378 0.1135696 0.14003192
000180 ae bd 0a be 34 ee bd bd ce 56 e7 3d 0f 4e 18 be
       -0.1354892 -0.09273949 0.112958536 -0.14873527
000190 b8 2d 49 3d 5f 18 18 3e 20 14 da 3c b4 4e 6c 3d
       0.049115866 0.14853047 0.026620924 0.057692245
0001a0 d1 53 1a be 86 6b 16 be 5a d9 e8 3d 62 8d 9f 3d
       -0.15071036 -0.14689454 0.113695815 0.077906385
0001b0 38 49 19 bd d3 0a 12 3e be af e2 3d 41 d4 9d bd
       -0.037423342 0.14261942 0.110686764 -0.077065
0001c0 b8 1e d6 bc b0 2d 02 3c 82 2e fa bd 07 e8 09 3e
       -0.026137695 0.007945463 -0.12215902 0.13467418
0001d0 a9 4d 88 bd 50 ad c4 bd 4e 63 c7 3d 6a 5f 03 be
       -0.066554375 -0.09603369 0.09735738 -0.12829366
0001e0 00 d5 f1 3a be 8a f7 3d 32 ba 8f 3d 28 7c ec bd
       0.001845032 0.1208701 0.07017936 -0.115471184
0001f0 b8 c8 b3 bd c0 04 8a bd 61 01 21 be 00 8f 85 bb
       -0.087785184 -0.06739187 -0.15723182 -0.004075885
000200 f4 fb 1d 3d 00 f9 45 3d 28 db 9e bc 34 b3 1b 3d
       0.03857036 0.048333168 -0.019391611 0.0380127
000210 b6 7c 78 bd 40 19 13 3c 5a c0 f7 3d 3c 56 66 3d
       -0.06066581 0.008978188 0.12097235 0.056234583
000220 c4 3c 2d 3d 50 78 14 3c c0 ad 20 bb 7a 0b f8 bd
       0.04229428 0.009061888 -0.0024517626 -0.12111564
000230 22 24 c0 3d 34 ab 66 3d b6 74 1b bd 1c 8f ea bd
       0.09381892 0.056315616 -0.0379531 -0.11453077
000240 ac 9d 0a be 27 84 02 3e 78 91 d0 bc 10 fb b3 3c
       -0.1353671 0.12745725 -0.02545999 0.021970302
000250 a0 41 56 3d 44 3b 46 bd b0 41 75 bc 58 16 b3 bc
       0.05230868 -0.048396364 -0.014969274 -0.02186124
000260 40 4e 53 3c 3f c9 11 3e 60 e8 81 bb 0a 03 0d bd
       0.012897074 0.14236926 -0.003964469 -0.034426726
000270 e0 c2 b8 3d 90 a5 9f bc 00 60 8c 3b b6 98 06 be
       0.090215445 -0.019488126 0.004283905 -0.13144192
000280 68 b7 9f 3c 23 84 09 3e 6e 97 27 be a4 3c ad bc
       0.019496635 0.13429312 -0.1636636 -0.02114708
000290 9a 56 b9 3d 80 9e 05 3e a0 9c f5 3b d2 61 32 bd
       0.09049721 0.13048744 0.007495478 -0.04355032
0002a0 ce 81 67 bd 86 e3 c1 3d d6 f1 dd 3d 33 be 05 be
       -0.056520276 0.09467225 0.10837142 -0.13060836
0002b0 a9 9d 2d 3d 58 f9 bb 3d b8 7a 37 3d cc 1c 87 bd
       0.042386685 0.09178418 0.044794768 -0.065972894
0002c0 58 d4 44 3d 53 79 17 be 81 7d f8 bd 88 9c 21 bd
       0.04805407 -0.14792375 -0.12133313 -0.03945592
0002d0 43 9c 37 3c a0 9d 86 3d e0 b0 da 3d 3a 60 d8 bd
       0.011206689 0.06573033 0.106782675 -0.10565229
0002e0 c6 e2 17 bd 82 4d d2 3d a7 c5 de 3d 69 0b 1d 3e
       -0.037081502 0.1026869 0.10877543 0.15336384
0002f0 b8 b4 03 3e 1d fa 8e bd bd 1d 0a be 3c 2e ca 3d
       0.12861907 -0.06981299 -0.13487907 0.098721
000300 85 aa fd 3d 58 93 48 3d 39 1c ba 3d 25 6b b6 bb
       0.1238604 0.048968643 0.09087414 -0.005566972
000310 d9 d3 a5 bd bb d8 9f 3d 1e 20 fe 3d 73 24 1a 3d
       -0.08097047 0.0780501 0.124084696 0.037632417
000320 00 1e 56 bc c4 76 c5 3d 28 de 6e 3d ef cc ed bd
       -0.013068676 0.09641793 0.058317333 -0.116113536
000330 1b 0a ed 3d 25 ef 90 bd ca 71 e2 bd 8a 47 c5 bd
       0.11574193 -0.07076863 -0.1105686 -0.096327856
000340 70 7b af 3c 1b d5 11 3e 20 e3 00 be 75 7a 11 be
       0.021421164 0.1424145 -0.12586641 -0.1420687
000350 f7 85 75 bd de 15 81 bd a7 99 03 3e 2f c6 d2 bd
       -0.059942212 -0.06302999 0.12851582 -0.10291707
000360 86 81 ea 3d ba ab 81 3c 0f 99 de 3d 48 64 05 be
       0.11450486 0.015828956 0.10869037 -0.13026536
000370 99 0b 26 be 83 c3 84 bd 0d e9 5d bd 20 4c f2 bd
       -0.16215362 -0.064826034 -0.054177333 -0.11830926
000380 07 8f 01 3e c9 98 1b bd 0a b1 cb 3d 22 34 e3 3d
       0.12652217 -0.037987504 0.09945877 0.11093928
000390 2a fe 09 3e de d0 13 be 7f e1 8a bd 5e 06 f0 bd
       0.13475862 -0.14435145 -0.06781291 -0.117199644
0003a0 d4 4d 85 bd 82 c2 08 3e ed 90 91 3d 4c 8e 45 3d
       -0.06508985 0.13355449 0.071077205 0.048231408
0003b0 b4 a8 19 be 20 7d 08 be 6d c4 6c 3d be 11 f9 bd
       -0.15005761 -0.13328981 0.057804514 -0.12161587
0003c0 cf 45 04 be 21 32 c2 bd c0 9d 19 3d 90 73 16 bc
       -0.12917255 -0.094822176 0.037503958 -0.009182826
0003d0 5c 0d 3e 3d a8 4e a2 3d d4 35 7d bd 00 44 24 3a
       0.04639946 0.07925159 -0.061818913 0.00062662363
0003e0 ba 40 8d 3d 5a 11 88 3d a0 a3 a2 3d 40 b5 19 3c
       0.06897111 0.066439345 0.07941365 0.009381592
0003f0 c6 4c 1c be 80 d0 ef 3a 7a 3d a7 3d 1c b5 70 bd
       -0.15263662 0.0018296391 0.081660226 -0.05876647

hidden_layers.1.bias f4 [40]
000000 5b b7 59 bd cf 9d 59 3d 7f 4a bd bd b0 62 15 3c
       -0.053153377 0.053129014 -0.092427246 0.009117767
000010 55 3e 25 be 41 9a dc 3d 3e 3d 05 be 16 44 e0 bd
       -0.16137059 0.10771609 -0.13011643 -0.10950486
000020 3f c6 12 be 13 26 cb 3c 07 bf 28 3d fe 38 de bd
       -0.14333437 0.024798429 0.041197803 -0.10850714
000030 22 c0 85 bd e3 0b 07 3d 69 59 e4 bd 5f 35 e5 bc
       -0.06530787 0.03297032 -0.11149866 -0.02797955
000040 7b 29 96 3d 88 05 a6 3c f8 57 d8 3d 7d 98 65 3d
       0.073321305 0.02026631 0.10563654 0.056053627
000050 1a 32 c8 bd 3d 93 fd bd 1d bf 9e 3d 2c 47 a9 bd
       -0.09775181 -0.12381599 0.07751296 -0.08265528
000060 da 67 3b 3e 52 f2 c5 bd d2 06 81 3d 63 9a bb bd
       0.18301335 -0.096653596 0.06300129 -0.09160306
000070 2b 06 17 be fe 9a 36 3d ca 09 a5 3d 9b bc 12 bd
       -0.14748447 0.044581406 0.08058508 -0.0358244
000080 80 bb 6b bd ce b8 34 3e 68 4a 50 3d af bc ab bd
       -0.05755186 0.17648622 0.05085221 -0.08385598
000090 a6 bb ed bd 68 c5 d9 3d 14 e1 0d be 2c 8a 0c be
       -0.11608057 0.106333554 -0.13855392 -0.13724583

hidden_layers.2.weight f4 [40, 40]
000000 90 53 e6 bd da e7 a9 3d d3 51 06 3e 20 5a 90 3c
       -0.11246407 0.08296175 0.13117151 0.0176211
000010 ba f2 bd 3d 74 9b 8d bd e6 65 17 be f4 0e 71 3d
       0.09274812 -0.06914416 -0.14784965 0.05885215
000020 fc 1f 1f be 98 cd d9 3d 39 ed 06 3e 5e 5d b0 3d
       -0.15539545 0.10634917 0.13176431 0.086115584
000030 a2 e4 d5 3d 56 ba 91 bd da 03 a7 3d 8a 9e c6 bc
       0.10443999 -0.07115619 0.081550315 -0.02424552
000040 2a f0 cb 3d f0 b5 87 3c b5 1f 5c 3d c0 24 16 bd
       0.09957917 0.016566247 0.053741176 -0.03665614
000050 07 4c 19 be 01 51 e6 bd 5c bd 41 bd 73 36 04 3e
       -0.14970408 -0.11245919 -0.047299728 0.12911396
000060 9b e4 28 bd 8e fe d1 3d 95 b0 00 3e 50 d4 c0 3d
       -0.04123364 0.102536306 0.1256736 0.094154954
000070 ff 83 ad bd 44 29 12 be b0 04 e0 bc de 8e 0e be
       -0.08472442 -0.14273554 -0.027345985 -0.13921687
000080 27 9d bc 3d d1 3d 13 3e b1 7b e1 bd 9d 45 67 3d
       0.09209662 0.1437905 -0.110099204 0.056462873
000090 ea 3b ec bd cb e1 c8 bb 4b c3 f5 bd 04 88 cb bc
       -0.11534865 -0.0061304322 -0.1200014 -0.02484513
0000a0 2f 92 1f 3e ae 32 52 bd 84 07 85 bd 29 9f 08 3e
       0.15583108 -0.051317863 -0.06495574 0.13341965
0000b0 51 32 8a bd 68 0f 9b 3d a9 7e 0e be 90 21 e0 3c
       -0.06747878 0.07571298 -0.13915505 0.027359754
0000c0 00 d6 89 3b bd 31 1a be 6a 68 0b bd 3f 06 19 be
       0.004206419 -0.15058036 -0.034035124 -0.14943789
0000d0 96 8b f9 3d d4 ec 6a 3d 8d d2 00 3e 1c 89 69 3d
       0.12184827 0.057354763 0.12580319 0.057015523
0000e0 b0 7a 8d 3c 4a d1 32 bd 40 16 51 3b 23 fd 01 be
       0.017270416 -0.043656625 0.0031904131 -0.1269422
0000f0 a2 8e a3 bd ed 2e 14 3e ae d6 75 bd 30 18 bf 3c
       -0.079861894 0.14471026 -0.060019188 0.023326963
000100 0e df bd bd fb d8 c1 bd 1e fd ea 3d ea 5a fa 3d
       -0.0927106 -0.09465214 0.114740595 0.12224372
000110 50 88 1d bd 3e a9 df 3d b8 bf a1 bc c8 2f a8 3c
       -0.038460076 0.10920952 -0.019744739 0.020530596
000120 58 0f ed bc 20 ee a5 bb 12 a0 c4 bd 4a 85 78 bd
       -0.02893798 -0.005063787 -0.096008435 -0.06067399
000130 0a df 51 bd f4 d9 03 3d b6 13 05 be 8c 9c 8d bd
       -0.051238097 0.03219028 -0.129958 -0.069146246
000140 ee 80 aa bd 5b 48 8e 3d ae ba c2 bd 30 df a8 bc
       -0.08325373 0.069473945 -0.095082626 -0.020614237
000150 09 1d 2d 3d ca 34 86 bc 6b 79 88 bd 65 61 d7 bd
       0.04226402 -0.016382594 -0.06663784 -0.105166234
000160 50 ca 69 3c 43 a4 10 3e 1f 1e 19 be 2c 1b 8c 3d
       0.014269426 0.14125161 -0.14952897 0.0684112
000170 45 f4 0e be 7a a5 18 be 9a 9b 9e 3d 0c 22 e7 bc
       -0.13960369 -0.14906874 0.077445224 -0.028214477
000180 4b 6a 0d 3e 8e bd dd 3d b4 02 b6 bb d6 19 12 3b
       0.13810079 0.1082717 -0.0055545215 0.0022293231
000190 c9 d9 61 3d d0 1c 12 3d 83 b1 cb 3d 00 ab e5 bc
       0.055139337 0.03567201 0.09945967 -0.02803564
0001a0 75 59 a9 3c 61 29 1c be 5a a8 1e 3c b7 41 2d 3c
       0.02067254 -0.1525016 0.009683693 0.01057475
0001b0 fd 8d dd 3c 97 cc d4 bd 4c 78 b0 bd 78 07 6b bc
       0.027045244 -0.10390585 -0.08616695 -0.014345042
0001c0 4b a1 aa 3d 86 fd d1 3d a8 c5 a7 3c b6 b5 83 3d
       0.083315454 0.10253434 0.020479992 0.06431143
0001d0 6d b9 0d 3e de 59 6d bd 2b e6 03 be 9c 8f e8 bd
       0.13840266 -0.057947032 -0.12880771 -0.11355516
0001e0 40 1d 21 bd 40 94 05 bc 55 d8 20 be c8 7d 7f bd
       -0.039334536 -0.008153021 -0.15707524 -0.062375814
0001f0 68 df fa bd 80 6d ca 3c 54 9a 04 be c0 23 cf 3c
       -0.122496426 0.024710417 -0.12949497 0.025285602
000200 76 f7 cc 3d c0 c5 22 3b c0 19 8b bb 12 80 dd 3d
       0.10008137 0.0024837106 -0.004245013 0.10815443
000210 fc 55 a4 3d 34 60 20 3d 6c fb 02 be 8f 5a 1a 3e
       0.08024213 0.039154246 -0.12791222 0.15073608
000220 72 54 6d bd aa df 0f bd e4 40 ba bd 68 50 85 3d
       -0.05794186 -0.035125412 -0.09094408 0.06509477
000230 00 c5 8d ba 18 c1 78 3d a8 06 92 bd 3b 7a af bd
       -0.0010816157 0.060731024 -0.07130176 -0.085682355
000240 a8 f8 3e 3d a2 45 af 3d e9 1c 05 3e 10 8a 4d 3d
       0.046623856 0.08558203 0.1299931 0.050180495
000250 ce db cd 3d 80 2c 0e 3b ae a6 dc bd a1 63 9c bd
       0.1005169 0.0021694005 -0.10773979 -0.0763619
000260 34 1a 05 be 28 29 2f bd cf f8 20 3e cc 80 47 bd
       -0.12998277 -0.04276386 0.15719913 -0.048706815
000270 f0 be e7 bc 00 42 8d ba 52 8e 13 be f8 8e ac bc
       -0.028289288 -0.0010777116 -0.1440976 -0.021064267
000280 4e 88 ab 3d 16 02 f6 3d 53 0c 16 be f4 ee 4e 3d
       0.083756074 0.120121166 -0.14653139 0.050520852
000290 4f a8 80 bd 10 3c d9 bc 8c 3b 20 bd 60 ec 39 bc
       -0.06282102 -0.026517898 -0.03911929 -0.01134786
0002a0 44 71 04 bd 22 93 f2 3d b2 89 c4 bd 85 24 04 be
       -0.03233458 0.118444696 -0.09596576 -0.12904556
0002b0 7a b5 99 bd bc 5c 58 3d cc 44 17 bd f4 c3 28 3d
       -0.07505317 0.052822813 -0.036930844 0.0412025
0002c0 32 94 d0 bd 2e 59 b0 bd 00 d2 79 3d 88 4a 92 bc
       -0.10184516 -0.0861076 0.060991287 -0.017857805
0002d0 49 7b 00 3e fe ac de 3d 71 f8 a8 bd 68 9d a8 bc
       0.1254703 0.108728394 -0.082505114 -0.02058287
0002e0 bd f5 b1 bd e4 a2 5a bd f9 b4 1b 3e 0f 85 f4 bd
       -0.08689449 -0.053378 0.15205754 -0.119394414
0002f0 3d 7b ee bd d0 3f c8 3c 50 04 a3 3d c0 49 c5 3c
       -0.116445996 0.02444449 0.07959807 0.024083018
000300 a4 aa 4e bd b2 b0 0c be 74 a6 dc bd 10 a6 69 bc
       -0.050455704 -0.13739279 -0.10773936 -0.014260784
000310 58 a0 34 3d 42 05 d3 bd 90 a6 86 bc da 53 e9 3d
       0.04409823 -0.10303737 -0.016436845 0.113929465
000320 c8 b6 8d bd 01 55 c6 bd 58 f4 54 bd 58 51 8b bd
       -0.069196284 -0.09684182 -0.051990837 -0.068026245
000330 4c 85 82 bd 80 09 1e 3d a3 96 10 be 9e 43 e6 3d
       -0.063730806 0.03858328 -0.14119963 0.11243366
000340 88 4a c0 3c df db 11 3d 5f 8a 56 bd ba 7a d8 bd
       0.02347304 0.035610076 -0.052378055 -0.10570283
000350 88 2a b4 bc cc 3d d5 3d e1 0b 1b 3e 77 7e 9d 3c
       -0.021992937 0.104121774 0.1514125 0.019225342
000360 51 23 2f 3e 11 06 20 3e ce ee 99 3d 8a 87 87 bd
       0.17103316 0.15627314 0.075162515 -0.06617649
000370 44 db 47 bd 7e c3 ff 3d 42 0d 6b bd 6d 60 05 3e
       -0.048793092 0.12488459 -0.05738569 0.13025065
000380 02 b4 80 3d 05 04 00 3e cb ca 8e bd af f2 ef 3c
       0.06284334 0.12501533 -0.069722734 0.029290525
000390 99 a2 1e 3e 14 d7 81 3d b9 08 f2 bd f4 f6 c2 bd
       0.15491714 0.06339851 -0.1181807 -0.09519759
0003a0 b7 4c e5 bd e9 33 f0 bd bc cf a5 3d 32 1e 0a 3e
       -0.11196273 -0.11728651 0.08096263 0.13488081
0003b0 7f 39 f1 bd 83 55 a2 bd 40 9a d2 3b ee 1b fe bd
       -0.11778545 -0.07926466 0.0064270794 -0.12407671
0003c0 58 8f c0 bd f8 d7 c7 bd c9 88 01 3e f0 6d 51 3c
       -0.09402341 -0.0975799 0.12649836 0.012782559
0003d0 61 68 a9 bd b5 67 1b bd 04 5c 01 be 7b 3c 91 bb
       -0.08271862 -0.0379407 -0.12632757 -0.0044322587
0003e0 30 29 34 3c 7e 09 a8 3d c9 85 b7 3d b2 fe 4e bc
       0.010996148 0.082049355 0.08961064 -0.012633966
0003f0 3e 19 fa 3d c8 8b 0c 3e e0 0d b1 bb 29 69 57 3b
       0.12211846 0.13725197 -0.0054032654 0.0032869077

hidden_layers.2.bias f4 [40]
000000 8c fa 97 bd 30 4a 19 be 88 56 f5 3d cf ae 80 bd
       -0.07420835 -0.14969707 0.11979395 -0.06283342
000010 e8 79 d9 bd 96 ab 41 3e 3e 73 a4 3d 22 b1 f7 3d
       -0.10618955 0.18913111 0.08029793 0.12094332
000020 e2 e1 64 3d 02 3f fe bd c2 40 eb bd 58 66 13 be
       0.05587948 -0.124143615 -0.11486961 -0.1439451
000030 a9 dc 4f bd ef c7 c9 bd 7c e2 b0 3d ea b7 0c bd
       -0.050747547 -0.098525874 0.086369485 -0.03435508
000040 0f bc a3 bd 9f 17 1f be 10 b5 1e 3d 85 af f3 3d
       -0.07994854 -0.15536354 0.038746893 0.11898712
000050 94 46 12 3e 1c ff 61 3d da a7 fa bd ee 57 e2 3d
       0.14284736 0.055174932 -0.122390464 0.110519275
000060 08 f4 b1 bc 96 be e8 3d 64 7e 05 3e da 94 ae 3d
       -0.021722808 0.113644764 0.13036495 0.08524485
000070 64 7b b2 3d b5 6b b9 3c 1a 26 a5 3d 8a 54 26 3e
       0.08714941 0.022634367 0.08063908 0.16243187
000080 9f 4c 31 3c db 30 35 3d a6 0b 87 bd 00 c8 7a b9
       0.010821491 0.044236045 -0.06594019 -0.00023916364
000090 a4 40 2c 3d 8f ba 9d bd b8 de c2 3d af 05 a5 3d
       0.042053834 -0.07701599 0.095151365 0.08057725

hidden_layers.3.weight f4 [40, 40]
000000 25 1d 04 3e 39 2f ec bd 9e f2 fc 3d 22 7b fb 3d
       0.12901743 -0.115324445 0.12350963 0.12279345
000010 a1 9f 21 3e 7e df 82 bd 84 9a 0a bd 6b 69 14 be
       0.1578355 -0.06390284 -0.033838764 -0.14493339
000020 e9 46 1e be 6e d3 0f be f8 69 f5 3c 28 6d a6 bc
       -0.15456738 -0.14045498 0.029957756 -0.020315722
000030 33 98 1a 3e 76 3c b1 3d 70 e4 b3 3c 5a 51 07 be
       0.15097122 0.0865411 0.021959513 -0.13214627
000040 14 12 64 3d 38 80 f0 bd be 5d 97 3d 15 77 91 bd
       0.055681303 -0.11743206 0.07390927 -0.07102791
000050 38 2e 45 3d a4 28 55 3d c8 ee 9a 3c c0 07 61 bb
       0.04813978 0.05204071 0.018912688 -0.0034336895
000060 a3 9a 81 bd a6 13 83 bd 44 8b 8a 3d d5 ee 13 3e
       -0.06328323 -0.06400232 0.06764844 0.14446576
000070 52 6b bb bd 68 5f f2 bc e7 92 01 3e ae 8c be 3d
       -0.09151329 -0.029586509 0.12653695 0.09304176
000080 d8 41 ae bd 20 13 b8 bd 1a 97 e2 bd a8 f8 8b bd
       -0.085086524 -0.08988023 -0.110639766 -0.06834537
000090 cb 19 0d be 6e 35 fe bd cb c2 12 be 44 a2 27 3d
       -0.1377937 -0.12412535 -0.1433212 0.040926233
0000a0 d2 74 c9 3d df 7a 82 bd 79 c8 21 3e 5c 19 0e be
       0.09836735 -0.06371092 0.1579913 -0.13876861
0000b0 b8 79 1d be bc 73 f1 bd 20 9a 8c bc db 17 91 bd
       -0.15378463 -0.11789653 -0.017163336 -0.07084628
0000c0 40 46 64 bc 0e 4b 8b 3d c4 88 5b bd 00 c7 df bc
       -0.0139327645 0.06801425 -0.053597227 -0.02731657
0000d0 f1 2f 01 3e 90 14 e2 bc 68 7a 3e 3d 02 e7 d1 3d
       0.12615944 -0.027597696 0.046503454 0.10249139
0000e0 00 60 70 39 b8 c8 1d 3d 9b 88 18 3e ea fa 01 be
       0.00022923946 0.0385215 0.14895861 -0.12693372
0000f0 21 d0 96 bd 24 92 26 3d 7a 95 18 be 22 9b 90 3d
       -0.07363916 0.040666714 -0.14900771 0.07060839
000100 70 6a ef 3c 20 91 bf 3c 80 60 d0 ba d5 e2 a7 bd
       0.029225558 0.02338463 -0.00158979 -0.08197562
000110 b0 91 c6 bc 4f 7a 19 3e 00 49 8b 3d f8 ce d4 bd
       -0.024239391 0.14988063 0.06801033 -0.10391039
000120 08 3b 2a bd a0 e1 d9 bc 53 94 08 3e 70 9f 1b 3d
       -0.041560203 -0.026596844 0.13337831 0.03799385
000130 96 b2 0a bd c6 a4 11 be 6a 35 d2 3d ec 82 86 3d
       -0.03386172 -0.14223012 0.10264094 0.0656794
000140 8e c3 c2 3d d8 bb 45 bd 6c 20 82 3c 60 25 1e 3c
       0.09509955 -0.048274845 0.0158846 0.009652466
000150 f3 0a 19 3e 54 4b 4d bd 1b 44 74 3c d0 81 4c bd
       0.14945583 -0.050120667 0.014908816 -0.049928486
000160 01 a8 d9 bd ee 6c e3 bd 82 82 b4 3d be 3b cb 3d
       -0.10627747 -0.11104761 0.08813955 0.09923504
000170 91 b3 4b 3b c8 a6 9e 3c 6f b9 2b be a4 77 28 3d
       0.0031082372 0.019366637 -0.16769956 0.041129723
000180 90 c7 fd bd ac ef ad 3d 8e b4 dc bd 17 2d 35 3d
       -0.12391579 0.084929794 -0.107766256 0.044232454
000190 56 9c 8d bd 3a 86 b2 bd 02 b9 c8 3d 73 0d 26 3d
       -0.06914584 -0.08717008 0.098009124 0.04054017
0001a0 30 3f 65 3d 48 fd 93 3d 64 a8 c9 bc 91 7c 15 3d
       0.055968463 0.07226044 -0.024616428 0.03649575
0001b0 45 a6 f2 bd 50 9d e2 bd ba 8b fd 3d 95 4e 03 be
       -0.1184812 -0.11065161 0.12380166 -0.12822945
0001c0 03 7c c2 bd 1d 7b 2b be e8 e2 84 3c 00 b8 a0 3d
       -0.094963096 -0.16746183 0.016221479 0.07847595
0001d0 7b 49 2a be 51 5f f2 bd f5 38 20 be c9 7c db 3d
       -0.16629593 -0.118345864 -0.15646727 0.1071716
0001e0 9f 24 ed 3c 20 76 09 bd a3 f6 3b 3d d8 df e5 bd
       0.028948126 -0.03355992 0.045889508 -0.112243354
0001f0 00 6f de ba 21 97 07 be 37 87 a6 3d 43 99 d2 bd
       -0.0016970336 -0.13241245 0.08131259 -0.102831386
000200 5a f1 22 3c 00 f1 ce ba 81 51 a5 bd 2f f1 00 3e
       0.009945238 -0.0015788376 -0.08072186 0.12592004
000210 90 68 9c 3d 88 bd 8c bc a1 87 51 bc 88 ca ef 3c
       0.07637131 -0.01718022 -0.012788684 0.02927138
000220 7e 8f d2 bd 7f a1 01 3e 46 72 da 3d 0f ec 0e 3d
       -0.10281275 0.12659262 0.10666327 0.03489309
000230 b5 37 14 3d 4c 4a 09 bd 78 dc 8e 3d b1 da 94 3d
       0.03618594 -0.03351812 0.06975645 0.072682746
000240 1f 07 e2 bd af f9 36 be 1b ca 39 bc 61 af b6 3d
       -0.110365145 -0.17868684 -0.01133969 0.089201696
000250 9c 1e b2 bd f8 37 1e be dd db 46 be f4 e3 cb 3d
       -0.086972445 -0.15451038 -0.19419809 0.09955588
000260 29 cf b8 3d cc fa 91 3d 78 e0 af bc 60 75 14 3c
       0.09023888 0.07127914 -0.02146934 0.0090611875
000270 72 8e 89 bd 60 11 97 3b 75 07 31 bd 04 fc e2 3d
       -0.067166224 0.0046102256 -0.043220002 0.110832244
000280 68 8c f6 bd 7f 62 18 3e 56 ef 68 3d 62 12 f6 3d
       -0.12038499 0.14881323 0.056868874 0.12015225
000290 40 c0 f5 3b 52 0d 98 3d 2f e8 f2 bd 57 1b 04 bd
       0.0074997246 0.07424416 -0.11860692 -0.032252636
0002a0 f7 58 15 be 1f c0 0e be 20 9d 6c bc 58 cc 3d 3d
       -0.14584719 -0.13940476 -0.014441758 0.046337456
0002b0 e1 d6 94 bd 5c d6 73 3d 56 49 ca bd b9 96 1c 3e
       -0.072675474 0.0595306 -0.09877269 0.15291871
0002c0 8a 57 06 be 7c 6e 3e bd f0 f3 ae bc 28 cc 92 3d
       -0.13119331 -0.046492085 -0.021356553 0.07167846
0002d0 77 ec f3 bd d9 f5 8b 3d 64 07 30 3d 74 b7 11 3d
       -0.119103365 0.06834001 0.0429758 0.035575345
0002e0 d4 a7 35 3d 36 ba a9 bd 5d 4a bf 3d 88 77 b7 bd
       0.044349506 -0.0828747 0.093403555 -0.08958346
0002f0 6d a4 1e bd 77 d5 d6 3b f1 28 e6 3c 7f 87 0e be
       -0.038731027 0.0065562087 0.028095694 -0.13918875
000300 46 db 47 3d d5 1e 8f 3d 72 35 c3 3d 9e 91 6d bd
       0.0487931 0.069883026 0.09531678 -0.0580002
000310 0c d0 82 3d 10 ae 65 bd 33 ff ef 3b e3 64 0e be
       0.06387338 -0.056074202 0.0073241233 -0.13905673
000320 bb cf 0c 3e a6 01 ae 3d 00 55 f5 bd aa a0 d3 3d
       0.13751118 0.08496408 -0.11979103 0.103333786
000330 c0 98 03 bc d0 53 0c 3d 11 33 ad bd 35 de 03 3e
       -0.008032024 0.034259617 -0.08457006 0.12877734
000340 88 7d 43 3d 09 de 1b be 43 25 92 bd d2 66 ff 3d
       0.047727138 -0.15221418 -0.07136013 0.12470783
000350 f4 a9 82 3d 20 7a a1 bc b8 e2 86 bd 6e 44 fa 3d
       0.06380072 -0.019711554 -0.06586212 0.12220083
000360 4c 97 91 3d e7 85 1a 3e d0 74 26 3d e4 cf 5a bd
       0.07108936 0.15090142 0.040638745 -0.053420916
000370 40 6e 04 bb 28 e3 f9 bd 51 6e 16 3e 90 56 d4 3c
       -0.0020207316 -0.1220153 0.1469052 0.025920182
000380 ec 6a cf bd 84 62 8b 3d 4d 6b 0e 3e 4c da 28 3d
       -0.101278156 0.068059 0.1390812 0.04122381
000390 d2 d3 d7 3d 66 94 79 bd a9 03 15 be b6 81 e1 bd
       0.105384484 -0.06093254 -0.14552177 -0.110110685
0003a0 da 94 19 bd 00 ac 68 39 b2 3c f1 3d 94 fc 16 bd
       -0.03749547 0.00022189319 0.11779155 -0.03686197
0003b0 b2 fa 9d 3d 8a 96 87 3d 76 c5 d1 3d 9a ee c9 bd
       0.07713832 0.0662051 0.10242741 -0.09859963
0003c0 54 bc 07 be d0 1e 30 3c 40 5d c0 bd 08 a2 a0 bd
       -0.13255435 0.010749534 -0.09392786 -0.07843405
0003d0 a4 d6 1e 3d f6 c8 e5 3d 52 9a 0d be 4a 85 cf 3d
       0.038778916 0.11219971 -0.138284 0.10132845
0003e0 d8 53 a6 bc 7a a3 cc 3d 18 4f 95 3d c6 69 18 be
       -0.020303652 0.09992118 0.072904766 -0.148841
0003f0 b8 84 8d bc 2c 16 9f 3d ad 1f 1a 3e b4 f6 16 3d
       -0.0172752 0.07767901 0.15051146 0.03685637

hidden_layers.3.bias f4 [40]
000000 d4 cd 18 be 15 fb 15 be f6 2d ef 3c 1b 4f 99 3c
       -0.14922267 -0.14646561 0.02919672 0.018714478
000010 c2 05 e1 3c 60 a9 97 bb 94 91 43 bd b9 f2 1a be
       0.027468566 -0.0046283454 -0.047746256 -0.15131654
000020 90 26 3f 3c 21 1d ae bb 3b f5 16 3d e1 33 d3 3d
       0.011666909 -0.005313531 0.036854964 0.103126295
000030 7e 61 70 bd 4b 31 19 3c 6d cb 12 be 52 72 fa 3d
       -0.058686726 0.009350131 -0.14335413 0.12228836
000040 10 16 d4 3c b2 20 09 be 1e 0c 92 3d c2 4d ac 3d
       0.025889426 -0.13391379 0.071312174 0.084132686
000050 44 ba 1a be 35 1c 7a 3d 7b 64 98 3d 92 b0 c1 bb
       -0.15110117 0.061062057 0.0744104 -0.0059109414
000060 dc d5 ce bd 1d a3 b3 3d 01 9a d2 3d 9a 72 f6 bc
       -0.10099384 0.08771346 0.1028328 -0.030083943
000070 d5 cc 19 be 36 bd d6 3b fd db 92 3d 9d f1 d1 3c
       -0.15019543 0.0065533174 0.07170866 0.025627906
000080 f6 1f 90 bd 35 be d7 bd 86 12 01 3d c2 4c ac 3d
       -0.07037346 -0.10534326 0.031511806 0.08413078
000090 d6 46 3b bc 86 50 3e 3e 0b 50 a7 bd b8 0c 8a 3c
       -0.011430463 0.18585405 -0.08169564 0.016851768

output_layer1.weight f4 [2, 40]
000000 a7 03 14 3e 0e cf de 3d 36 eb 19 bd f2 80 9a 3c
       0.14454518 0.10879336 -0.03757783 0.018860314
000010 9c 63 d3 3d 9b 13 1e 3e 80 d0 68 3c 00 9d cd bb
       0.10321733 0.15437166 0.0142098665 -0.0062748194
000020 98 b3 01 3d 66 d7 90 3b d2 a3 2f 3e 84 78 2b 3e
       0.031665415 0.0044202087 0.17152336 0.16745192
000030 e2 a0 fa bd e1 9a b1 bc 8e 0b f7 3d 91 60 0e be
       -0.12237717 -0.021680297 0.12062751 -0.13904025
000040 86 71 c0 3d 00 60 c5 b8 b4 b2 cf bd 92 4d a4 3c
       0.09396653 -9.4115734e-05 -0.10141507 0.02005652
000050 e1 fa c8 bd 51 86 d7 bc fc d4 3d bd d1 ce 2b bd
       -0.09813476 -0.026309164 -0.046345696 -0.041945282
000060 09 a0 c6 bd c2 c2 6d 3c 10 a7 13 3d 6a c9 8a 3d
       -0.09698493 0.014511766 0.036047995 0.06776698
000070 2c 26 94 3d b3 4c 10 be 46 95 2c 3e 2e 00 8a 3d
       0.07233843 -0.14091758 0.16853818 0.067383155
000080 fc c2 37 3c a6 ee f5 3d ca 6b 13 3d 59 b9 26 3e
       0.0112159215 0.12008409 0.035991468 0.16281642
000090 70 39 8d 3d a1 33 0a bd 64 65 6f 3d 78 65 99 bd
       0.06895721 -0.033740643 0.058446303 -0.07490057
0000a0 50 ee 91 bc 23 cf dc bd 28 6a 92 3c d6 2c aa bd
       -0.017813832 -0.10781696 0.017872885 -0.08309333
0000b0 1a 6c 98 3d 4e fa bb 3d a0 68 78 3c 10 ee 96 bd
       0.07442494 0.09178601 0.015161663 -0.073696256
0000c0 b0 cb 95 bc ad b2 69 3d d1 43 fc 3d 20 a4 e5 3d
       -0.018285602 0.057055164 0.123176225 0.11212945
0000d0 91 e1 c5 3d 3c 25 f1 3d b2 be ed bd 05 a4 62 bc
       0.09662164 0.1177468 -0.11608638 -0.013833051
0000e0 3d 3a ab bd c0 db d2 3b 9e a3 ac bd 01 63 f5 3c
       -0.083607174 0.0064348876 -0.08429645 0.029954435
0000f0 9d 33 20 3e 61 6a e4 bc f4 f1 01 3e 27 3e bf bd
       0.15644689 -0.027882757 0.12689954 -0.093380265
000100 d0 fe ac bc 56 50 d7 3d 12 1f bd 3d 6c 86 b9 bd
       -0.021117598 0.1051337 0.09234442 -0.09058842
000110 0c 91 1d be 0d f3 86 bd 6d 9d ff 3d cc d4 04 bd
       -0.15387362 -0.06589327 0.124811985 -0.0324295
000120 b7 8f 5f bd 58 ab 4a 3d 7f ef 5e bd c8 87 9b bd
       -0.054580417 0.049479812 -0.05442762 -0.075942576
000130 27 a8 cc bd 42 6f c6 bd 17 e9 1d 3e a2 06 93 3d
       -0.0999301 -0.096891895 0.15420948 0.071789995

output_layer1.bias f4 [2]
000000 61 76 be bd 21 78 12 3b
       -0.09299923 0.0022349434

output_layer2.weight f4 [1, 40]
000000 38 35 5d bd 06 eb 1d be 5e 0c 25 bd f6 0f fc bd
       -0.05400583 -0.15421686 -0.040294997 -0.12307732
000010 41 c9 e7 bc c0 ca 18 3c 80 0e 1e bc 38 a8 ce bc
       -0.028294208 0.009325683 -0.009647012 -0.025226697
000020 e8 ca aa 3c d0 09 dc 3c a7 af c7 3d fd 29 aa bd
       0.020848706 0.026860148 0.097503 -0.0830879
000030 5a 0d 13 be 50 a0 cd bd c0 47 58 3d 93 ef a5 3d
       -0.14360562 -0.10040343 0.0528028 0.08102336
000040 37 66 20 3e 8c af 97 3d 02 e0 e9 3d ab c8 c5 bd
       0.15663992 0.0740653 0.11419679 -0.09657415
000050 38 d2 b1 3c ec c3 57 3d e2 cb c8 bd f4 41 87 bc
       0.021706685 0.05267708 -0.098045126 -0.016510941
000060 c4 6a c5 bd 6e af 84 bd 64 53 e3 bd 10 64 f6 bd
       -0.096395046 -0.06478773 -0.1109989 -0.12030804
000070 59 55 0f 3e f3 2b 94 3d b9 e5 ae bd 8d 21 b3 3b
       0.13997401 0.07234945 -0.0853991 0.005466646
000080 17 e2 a5 3c ba c6 ac 3d db a1 30 bd 2f 5c 34 3e
       0.02024941 0.084363416 -0.043123107 0.1761329
000090 bf df cd bd 8f 49 2a 3e 42 61 0b be a8 a1 86 bc
       -0.10052442 0.16629623 -0.1361132 -0.016434506
