src/models/prediction_18.pt (torch, 38168 bytes, 13 tensors)

input_layer.weight f4 [40, 40]
-0.12936725 -0.03268312 0.14521341 -0.14146 0.108016804 -0.11847377 0.09213199 0.13070755
-0.0011046976 0.15291356 0.11421652 0.118533716 -0.040572368 -0.13033381 -0.15687756 0.1299824
-0.12297355 -0.08849278 -0.059107326 0.0368848 -0.07794887 0.009861961 0.08656913 -0.041830793
-0.046919793 0.09752463 0.07868481 -0.031245276 0.09825294 0.11629848 -0.11688649 0.09175876
-0.15588431 -0.13062184 -0.001383692 0.05975446 -0.022094205 -0.043997973 -0.13815007 -0.13533415
-0.026050553 0.13901158 0.027678117 0.14088757 -0.14153333 -0.11435589 0.06851585 0.13080834
-0.06682032 0.07794729 0.04717371 -0.14328322 0.034327224 -0.06962216 -0.06734748 0.041650325
-0.10225244 0.06316878 -0.039036825 -0.101296775 0.061553717 0.13729693 -0.08286546 0.015214831
0.052975923 0.07615025 0.0014659166 -0.0025547445 -0.10638953 0.12963091 -0.028194293 -0.04124675
0.13415472 0.12516145 0.052857414 -0.001619488 -0.09940049 0.12431671 -0.0647378 -0.056609824
0.10762396 0.011871033 0.14517541 -0.12887163 0.012181444 -0.006421589 -0.12103184 -0.041733757
0.000108584034 -0.13441272 0.032584284 0.14400737 -0.12561288 0.026503293 -0.051360458 0.076994896
0.05709389 -0.13711713 0.045938566 0.119024664 -0.16237922 -0.06506049 0.12925407 0.11096354
0.03234331 0.11928696 0.0051190997 0.1301542 0.13259637 -0.033711504 0.021667989 -0.05152324
0.15462938 0.12893136 0.09397921 -0.0688864 0.11836911 -0.12899056 0.06707525 0.07897116
-0.116040245 -0.051020548 -0.1252951 -0.016817257 -0.1454669 -0.14201376 -0.024023086 -0.08475319
0.02672781 0.03845796 0.062105805 0.15155871 -0.10125516 0.15004407 -0.097459346 -0.067311995
0.066165894 -0.13957776 -0.090105034 0.112120315 -0.080431834 0.04247549 0.08335699 -0.030582473
0.008321896 0.077781156 0.12744094 0.05391547 -0.111881025 -0.07094424 -0.07060234 0.07334341
0.07121009 0.13346128 -0.09766296 0.04987885 0.07010625 -0.091163784 0.09843741 -0.056233212
0.13676254 -0.13356605 -0.08511519 0.0015116156 -0.13111608 0.14194499 0.08189593 -0.128218
0.016922507 -0.086930655 0.027114365 -0.13997124 0.055056676 0.0862747 0.059083477 0.03719857
-0.0061706672 -0.093485646 0.062861286 -0.16702436 -0.0233942 -0.10090737 -0.08867383 -0.0017653113
-0.07750318 0.040058617 -0.1701465 0.12899575 -0.00092013064 -0.058640122 -0.078360766 -0.12181141
0.08351787 0.16540034 0.023857962 -0.024450853 0.16804048 -0.06955422 -0.16590983 0.021338927
0.01280271 -0.07726611 0.043293625 0.018489879 -0.09550205 0.060256414 -0.023641402 -0.05070782
-0.104861364 0.14032398 0.11431727 0.070790686 -0.11319224 -0.08900437 -0.0018217207 -0.15929464
-0.054186653 -0.012805812 -0.16472448 -0.022451458 -0.062102433 0.15490337 0.07969125 -0.09823018
0.09623721 0.016621832 -0.06487292 0.13319731 0.01928969 -0.1390294 0.040521935 0.1441274
0.011116434 0.016583182 0.092803985 -0.076210916 -0.0886487 0.06855803 0.15995057 -0.14962228
-0.05405519 -0.008384453 0.064794786 -0.027742425 -0.04654527 -0.14687985 -0.16088733 0.09299777
-0.0051490897 -0.1302991 -0.062059987 -0.1081717 -0.019815704 -0.15639369 -0.13799404 0.07902269
00000000: d978 04be bcde 05bd d3b2 143e e4da 10be
00000010: ea37 dd3d 60a2 f2bd b2af bc3d 33d8 053e
00000020: 80cb 90ba 5f95 1c3e 5aea e93d cec1 f23d
00000030: 362f 26bd 3a76 05be 83a4 20be 1b1a 053e
00000040: 8ed9 fbbd b43b b5bd 861a 72bd 8414 173d
00000050: a8a3 9fbd 1094 213c 284b b13d c456 2bbd
00000060: f82e 40bd feba c73d 8025 a13d 18f6 ffbc
00000070: d638 c93d e62d ee3d 2f62 efbd 04ec bb3d
00000080: 23a0 1fbe bbc1 05be 005d b5ba 18c1 743d
00000090: e8fe b4bc 3837 34bd 3677 0dbe 0995 0abe
000000a0: f867 d5bc 0d59 0e3e 38bd e23c d544 103e
000000b0: 1dee 10be 6c33 eabd 0a52 8c3d 9ff2 053e
000000c0: 18d9 88bd d4a2 9f3d 3839 413d d6b8 12be
000000d0: b49a 0c3d 1096 8ebd 7aed 89bd 8899 2a3d
000000e0: ba69 d1bd a25e 813d 14e5 1fbd af74 cfbd
000000f0: c01f 7c3d 9197 0c3e 5eb5 a9bd a047 793c
00000100: 48fd 583d aaf4 9b3d 0024 c03a 806d 27bb
00000110: c1e2 d9bd f7bd 043e b8f7 e6bc 5af2 28bd
00000120: db5f 093e 532a 003e 0481 583d 0045 d4ba
00000130: 7c92 cbbd c299 fe3d 4095 84bd b4df 67bd
00000140: f369 dc3d b97e 423c dda8 143e edf6 03be
00000150: ae94 473c 316c d2bb 8bdf f7bd 04f1 2abd
00000160: 9cb7 e338 7da3 09be 1977 053d ab76 133e
00000170: aaa0 00be 6f1d d93c 585f 52bd 80af 9d3d
00000180: 48db 693d 6f68 0cbe 142a 3c3d 34c3 f33d
00000190: bd46 26be 6f3e 85bd 2e5b 043e da40 e33d
000001a0: 6b7a 043d b94c f43d 1fbe a73b 2547 053e
000001b0: 58c7 073e 1315 0abd 1181 b13c 080a 53bd
000001c0: 2a57 1e3e 9506 043e 2c78 c03d 5014 8dbd
000001d0: 816b f23d 1a16 04be c05e 893d a2bb a13d
000001e0: 82a6 edbd ecfa 50bd 5c4d 00be 58c4 89bc
000001f0: 46f5 14be 0e6c 11be 10cc c4bc 1593 adbd
00000200: 48f4 da3c 1886 1d3d a862 7e3d 3532 1b3e
00000210: de5e cfbd 27a5 193e c498 c7bd dfda 89bd
00000220: fc81 873d 79ed 0ebe fd88 b8bd 569f e53d
00000230: 72b9 a4bd c8fa 2d3d 12b7 aa3d 1888 fabc
00000240: 9058 083c ba4b 9f3d e17f 023e 78d6 5c3d
00000250: e121 e5bd 374b 91bd f697 90bd 1235 963d
00000260: 98d6 913d 13aa 083e 8503 c8bd c44d 4c3d
00000270: de93 8f3d 14b4 babd 8e99 c93d cc54 66bd
00000280: 7b0b 0c3e 8ac5 08be df50 aebd 6721 c63a
00000290: 4b43 06be 075a 113e 0eb9 a73d 944b 03be
000002a0: 12a1 8a3c b308 b2bd f21e de3c 9f54 0fbe
000002b0: 1c83 613d cab0 b03d 8401 723d 875d 183d
000002c0: 4f33 cabb 6775 bfbd 6bbd 803d 6f08 2bbe
000002d0: 31a5 bfbc 86a8 cebd a09a b5bd 0562 e7ba
000002e0: fdb9 9ebd 8114 243d e23a 2ebe 7617 043e
000002f0: ec34 71ba a030 70bd 9c7b a0bd 4378 f9bd
00000300: 6b0b ab3d b55e 293e c671 c33c 284d c8bc
00000310: ce12 2c3e 7172 8ebd 44e4 29be f9ce ae3c
00000320: 75c2 513c b23d 9ebd a854 313d 1678 973c
00000330: 9496 c3bd 6ecf 763d 9dab c1bc 01b3 4fbd
00000340: 8ec1 d6bd 17b1 0f3e 2c1f ea3d b5fa 903d
00000350: 55d1 e7bd ec47 b6bd cec6 eeba 221e 23be
00000360: d3f2 5dbd 78cf 51bc 89ad 28be 1fec b7bc
00000370: 1f5f 7ebd fd9e 1e3e 2b35 a33d e82c c9bd
00000380: 0418 c53d 822a 883c 18dc 84bd e064 083e
00000390: 6905 9e3c b95d 0ebe 54fa 253d 2296 133e
000003a0: b421 363c 74d9 873c 0410 be3d 7814 9cbd
000003b0: 738d b5bd 2768 8c3d 15ca 233e 9536 19be
000003c0: fa68 5dbd f25e 09bc 21b3 843d 1544 e3bc
000003d0: 41a6 3ebd ac67 16be a6bf 24be 9d75 be3d
000003e0: b2b9 a8bb 216d 05be 9d32 7ebd 2089 ddbd
000003f0: 8b54 a2bc ab25 20be 4f4e 0dbe a6d6 a13d

input_layer.bias f4 [40]
-0.0989397 -0.02412492 -0.023928557 -0.102475345 0.10646596 0.10348882 -0.12551668 -0.08367791
-0.0098915845 -0.012008637 0.01754801 -0.084313884 0.052818496 -0.08554806 -0.15421325 -0.12631054
0.0365185 -0.014950991 0.079905696 0.15593994 0.117735066 0.08369253 -0.08097698 -0.060828947
-0.040303454 -0.04840213 0.08946652 0.007542327 0.07025489 -0.09714917 0.08341045 0.022009382
-0.031140815 -0.101829536 -0.029924046 -0.040800393 -0.07011281 0.066931054 -0.028147632 -0.030600054
00000000: e6a0 cabd a0a1 c5bc d205 c4bc 98de d1bd
00000010: d30a da3d f2f1 d33d 7287 00be 535f abbd
00000020: 5010 22bc e0bf 44bc d8c0 8f3c c2ac acbd
00000030: 3558 583d d233 afbd 14ea 1dbe 8d57 01be
00000040: 6c94 153d 00f5 74bc 99a5 a33d b8ae 1f3e
00000050: 151f f13d fd66 ab3d 42d7 a5bd c627 79bd
00000060: 3c15 25bd 5041 46bd 393a b73d a025 f73b
00000070: cce1 8f3d 25f6 c6bd 19d3 aa3d 054d b43c
00000080: 061b ffbc 018c d0bd 4623 f5bc 501e 27bd
00000090: 4e97 8fbd 2613 893d dd95 e6bc f7ac fabc

hidden_layers.0.weight f4 [40, 40]
0.047936738 0.12900545 0.12987584 -0.018957406 -0.16363965 -0.067169994 -0.15075848 0.004956156
0.1404268 0.014939666 -0.06122335 0.11237131 -0.15380484 0.13015114 0.03337373 -0.049228527
0.0681359 0.1422808 -0.1399325 -0.13038573 -0.09238953 0.09090925 -0.13707118 -0.07983712
0.12738635 -0.06878967 0.05021015 0.14625175 0.09276924 0.033411205 -0.05821325 0.04129829
-0.12077359 -0.16478781 -0.091471486 0.10760076 0.15210538 -0.124310985 0.14079748 -0.030556858
0.09182456 0.14464115 -0.15351205 -0.0010711998 0.14727934 0.14741294 0.10167597 -0.105060756
0.066738844 0.12149872 0.06465733 0.1182241 -0.14684807 -0.057684273 0.009199038 0.13313405
0.06346919 0.0059223175 0.14011745 -0.06281129 0.123950884 0.10539006 0.10268785 -0.0117057115
0.14293902 -0.045021042 0.09522824 -0.12435217 0.10355537 -0.0951662 -0.14832267 0.13195066
-0.08363646 0.076309726 0.09891279 0.024499357 -0.014587432 -0.03595469 -0.05324623 -0.10770871
0.108064786 0.04633452 0.030803274 0.1328022 0.09744574 -0.07690995 0.13971561 0.07827437
-0.11958488 0.14443807 0.11202575 0.051928133 0.013327096 0.13233198 -0.10565503 -0.10256633
-4.5329332e-05 0.08822015 0.07490106 -0.015046713 -0.031889953 0.14685842 0.008302733 -0.10051703
0.13599612 0.15007786 0.16166836 0.006807193 -0.07499038 0.0022965223 -0.0999828 -0.016777735
0.044288784 -0.07104959 -0.13702816 -0.062700465 0.06495473 0.04289412 -0.047688186 -0.030923773
0.07554227 -0.09549959 -0.07260064 0.13761456 -0.071463026 0.063756466 0.04528433 -0.1553213
-0.07345028 -0.092391 0.10627101 -0.1478985 0.1310444 -0.048632137 -0.021409884 -0.038582854
0.12926368 0.08631578 0.12741785 -0.027430564 0.020733938 0.039027035 0.028385535 0.04396774
0.068711385 -0.046021655 -0.0018625706 0.07727139 -0.036787234 0.081659436 -0.10172671 0.08796792
-0.1294334 -0.018006593 -0.14472194 -0.077663444 -0.12510633 -0.0309598 0.12913771 0.013457313
-0.088336 -0.15321493 0.025307652 0.06580494 -0.0018301095 0.12513244 0.058172077 0.062960476
0.008878484 -0.14989994 0.07285291 0.09518628 -0.11880907 -0.14809015 0.002358362 0.1422139
-0.07215215 0.05766101 0.14324585 0.14633615 -0.10744624 0.05301028 -0.13234638 0.08560276
-0.0755316 0.036682725 -0.09256117 0.14876641 0.123320274 -0.034387387 -0.042769276 0.13968013
-0.10434236 0.07557724 0.04310705 0.11490877 -0.076307416 0.047625262 0.15602069 0.03373855
-0.10722089 -0.10266417 0.10460971 0.007431358 0.17195384 -0.12331595 0.037413277 0.10813813
-0.11808496 0.077229455 0.004116714 -0.05421371 -0.10367997 0.081059605 -0.017170116 -0.07423572
-0.0013340265 0.005510047 -0.106284 -0.067516446 -0.07472523 0.06424653 0.00054879487 -0.005817786
0.09712209 -0.087791234 -0.09098355 0.037803784 0.037929304 -0.14257129 0.14034063 0.06669445
-0.062362403 0.06392769 -0.061185967 0.01280354 0.08959067 0.09240203 0.07414517 -0.037014607
0.1179968 -0.14033476 0.018399373 -0.08900461 -0.070203654 -0.11781143 0.019122273 0.15129389
-0.01967983 -0.12543727 0.12249701 0.029532671 0.06068246 -0.025866225 0.023058847 -0.104129195
00000000: 5059 443d 011a 043e 2cfe 043e 904c 9bbc
00000010: 2791 27be 6c90 89bd 6e60 1abe 4067 a23b
00000020: 0bcc 0f3e 80c5 743c 56c5 7abd ee22 e63d
00000030: 047f 1dbe 5746 053e e4b2 083d daa3 49bd
00000040: d68a 8b3d 0fb2 113e 774a 0fbe d683 05be
00000050: b936 bdbd a12e ba3d 635c 0cbe a581 a3bd
00000060: 9171 023e 99e1 8cbd 29a9 4d3d 05c3 153e
00000070: cdfd bd3d 30da 083d 0471 6ebd 6528 293d
00000080: 2558 f7bd 23be 28be 6755 bbbd ca5d dc3d
00000090: 83c1 1b3e c296 febd 372d 103e 6052 fabc
000000a0: 840e bc3d cf1c 143e 4332 1dbe 8067 8cba
000000b0: 65d0 163e 6bf3 163e 7e3b d03d 182a d7bd
000000c0: 60ae 883d 52d4 f83d 106b 843d 7a1f f23d
000000d0: 575f 16be 5846 6cbd 90b7 163c 4b54 083e
000000e0: 22fc 813d 0010 c23b f37a 0f3e 35a3 80bd
000000f0: f6d9 fd3d bed6 d73d 024e d23d 50c9 3fbc
00000100: 9b5e 123e fc67 38bd 0607 c33d 5aac febd
00000110: d614 d43d 7fe6 c2bd e6e1 17be 131e 073e
00000120: 9849 abbd 4648 9c3d ca92 ca3d e0b2 c83c
00000130: 2000 6fbc 3a45 13bd b818 5abd 6296 dcbd
00000140: 1251 dd3d 44c9 3d3d 2657 fc3c 4dfd 073e
00000150: a291 c73d f782 9dbd 9c11 0f3e 504e a03d
00000160: ebe8 f4bd 93e7 133e c26d e53d 98b2 543d
00000170: e459 5a3c 0982 073e aa61 d8bd 4c0e d2bd
00000180: 0020 3eb8 c4ac b43d ba65 993d 7d86 76bc
00000190: 0a9f 02bd 0e62 163e 3008 083c dfdb cdbd
000001a0: 9142 0b3e 03ae 193e 648c 253e e00e df3b
000001b0: 8e94 99bd 4081 163b c8c3 ccbd 7671 89bc
000001c0: 2868 353d 7382 91bd 1c51 0cbe 1a69 80bd
000001d0: fc06 853d bfb1 2f3d b054 43bd da53 fdbc
000001e0: e8b5 9a3d 4a95 c3bd a5af 94bd d5ea 0c3e
000001f0: 355b 92bd c092 823d 107c 393d 8c0c 1fbe
00000200: 1a6d 96bd 7e37 bdbd 9ea4 d93d b472 17be
00000210: 8130 063e 7e32 47bd c863 afbc 0e09 1ebd
00000220: b35d 043e 54c6 b03d d379 023e 10b6 e0bc
00000230: 38da a93c d0da 1f3d c888 e83c 8417 343d
00000240: 8eb8 8c3d 3481 3cbd 8021 f4ba 7640 9e3d
00000250: 36ae 16bd 103d a73d 1856 d0bd 8628 b43d
00000260: 308a 04be 9082 93bc fd31 14be 030e 9fbd
00000270: e01b 00be 689f fdbc ad3c 043e 107c 5c3c
00000280: 81e9 b4bd 60e4 1cbe fe51 cf3c bec4 863d
00000290: 49e0 efba b822 003e d845 6e3d 6cf1 803d
000002a0: 1077 113c 5f7f 19be e833 953d 06f1 c23d
000002b0: 2b52 f3bd f2a4 17be c08e 1a3b 85a0 113e
000002c0: 82c4 93bd f42d 6c3d 0aaf 123e 25d9 153e
000002d0: c60c dcbd 4f21 593d cf85 07be 8050 af3d
000002e0: 50b0 9abd a040 163d b690 bdbd 3956 183e
000002f0: 578f fc3d cad9 0cbd d62e 2fbd 4f08 0f3e
00000300: 72b1 d5bd 3dc8 9a3d 0591 303d 4a55 eb3d
00000310: 1047 9cbd b512 433d e3c3 1f3e 6f31 0a3d
00000320: a096 dbbd 9841 d2bd 9e3d d63d c082 f33b
00000330: ab14 303e 138d fcbd aa3e 193d 8677 dd3d
00000340: 87d6 f1bd 7a2a 9e3d 80e5 863b 320f 5ebd
00000350: 2a56 d4bd 9402 a63d 58a8 8cbc e608 98bd
00000360: 80da aeba a08d b43b 6dab d9bd 1046 8abd
00000370: 8b09 99bd af93 833d 00dd 0f3a 20a3 bebb
00000380: f2e7 c63d e4cb b3bd 9555 babd 24d8 1a3d
00000390: c25b 1b3d 35fe 11be 74b5 0f3e 1a97 883d
000003a0: b86f 7fbd 85ec 823d 239e 7abd f0c5 513c
000003b0: 507b b73d 473d bd3d 6cd9 973d a19c 17bd
000003c0: 4ea8 f13d eab3 0fbe 48ba 963c 0d48 b6bd
000003d0: efc6 8fbd 1e47 f1bd 50a6 9c3c c9ec 1a3e
000003e0: 9837 a1bc a172 00be b6df fa3d 80ee f13c
000003f0: 2c8e 783d 68e5 d3bc e8e5 bc3c b041 d5bd

hidden_layers.0.bias f4 [40]
0.11681428 -0.0965997 0.070270255 -0.102108456 0.13892052 0.053646594 -0.094054244 -0.050442815
0.14630401 -0.060226686 0.027844127 -0.07427636 -0.13502252 -0.055846475 -0.007646446 -0.11171523
-0.03486214 -0.023005236 -0.057368755 -0.049006626 -0.096120566 -0.09756358 0.08658671 -0.09304702
-0.032600507 0.026838897 -0.09509269 0.0654937 -0.07329595 -0.08664593 0.15668724 0.081465185
-0.07317813 -0.07937901 -0.07370826 0.14233355 0.09290226 -0.11014037 0.002872367 0.12150311
00000000: 533c ef3d 10d6 c5bd dae9 8f3d 3d1e d1bd
00000010: 2e41 0e3e 88bc 5b3d 839f c0bd 209d 4ebd
00000020: b8d0 153e 42b0 76bd 5e19 e43c 341e 98bd
00000030: 5843 0abe 46bf 64bd 0a8f fabb f4ca e4bd
00000040: 9acb 0ebd 7a75 bcbc 80fb 6abd 2cbb 48bd
00000050: dcda c4bd 6acf c7bd 5f54 b13d 708f bebd
00000060: 1c88 05bd 3fdd db3c f5bf c2bd 9021 863d
00000070: 301c 96bd 6c73 b1bd 9f72 203e 38d7 a63d
00000080: 6ade 95bd 7691 a2bd 5bf4 96bd e3bf 113e
00000090: 8a43 be3d 4691 e1bd 523e 3c3b 9fd6 f83d

hidden_layers.1.weight f4 [40, 40]
0.050228965 -0.10065741 0.020210838 0.068114474 0.15618816 0.0654816 0.020442218 -0.1224508
0.17123558 0.007180666 0.1702879 -0.004868701 0.016662478 0.099189356 -0.07553267 0.09613909
-0.0735983 -0.12096639 0.015125655 0.043187216 0.13828884 0.1298667 -0.04455472 -0.066855155
0.13110165 0.09660314 -0.03801728 0.08802831 -0.012160331 0.10567574 0.12115243 0.070271485
0.12357956 0.1363153 0.10044797 0.113357455 -0.059270173 0.09379934 0.029734602 -0.054044914
-0.05382926 0.0951712 0.06455076 -0.14168864 -0.045926154 0.019159138 0.07911569 0.12624373
0.01665476 -0.044597626 0.15101703 0.12111898 -0.069130115 -0.0062597543 -0.05079391 0.0019206256
-0.15114984 0.043663964 -0.05206698 -0.08772245 0.049858898 -0.04680235 0.09170313 -0.009448037
0.10488878 -0.06509402 0.041729495 -0.037038885 0.13613863 -0.069641575 -0.13181171 0.0021335036
-0.07749435 0.03304322 0.13183777 0.05129455 -0.10359569 0.030526698 -0.11490934 0.094324365
-0.015753925 0.14707072 -0.116169885 -0.033410594 -0.11848059 0.07321963 -0.09111498 -0.014186963
0.0032500327 0.04849577 0.06682578 0.13950624 0.096943066 -0.14958894 -0.038322933 -0.0936302
-0.13071811 0.14195006 0.05662857 -0.083732896 -0.040941723 -0.004964128 0.03962046 0.09015559
0.030037746 -0.016474336 -0.07053422 -0.1530122 -0.13411345 -0.14823395 0.01794383 -0.13745205
0.1571977 -0.12426621 0.06957361 0.056995213 0.08017184 -0.119769424 -0.119586706 -0.13461259
-0.14048977 0.14445446 -0.042199243 0.14684026 0.02806262 0.07163093 -0.1007133 0.02246581
0.14137155 0.058965456 0.13988177 0.10991977 -0.051636025 -0.013369873 -0.021923821 -0.060747407
0.10936702 -0.025258971 0.085498236 0.13756664 0.045111477 -0.041994944 0.16605262 -0.09752639
0.04325442 -0.10452548 -0.1265202 0.053341992 -0.13160451 0.06268412 0.021119323 0.13398983
0.12947829 -0.03842882 -0.123455614 -0.07969958 -0.014793407 -0.021970227 0.06926101 0.1386058
-0.1223509 0.0012414157 0.01466772 -0.06895989 -0.037991814 0.08702421 -0.07836303 -0.026377887
0.061223596 0.08151111 0.057726383 -0.09584615 -0.070355125 -0.0005476326 0.012919277 -0.03313665
-0.09237843 0.008747801 -0.11570958 -0.066508174 0.033730105 -0.04759635 0.05665657 0.12950404
0.099078074 0.08716233 -0.10807899 -0.101915196 -0.035065636 0.020982519 -0.019120872 0.15761645
0.07090613 0.12911813 0.10932563 -0.072800964 0.09360333 -0.033450402 -0.008126661 -0.08706729
0.06365523 -0.08931209 0.08270554 -0.0916028 0.11930822 -0.02887109 0.0931312 0.14906959
-0.06904286 0.08151801 0.04517016 -0.13882542 -0.013299003 0.12589492 0.03997317 0.12139173
-0.092787445 0.09363137 0.06572048 -0.09324009 -0.06105788 -0.033050403 -0.055895634 -0.069616675
-0.09608264 0.037244663 0.011528477 0.09102006 0.12322773 -0.11508503 -0.020577371 -0.13633525
-0.10616909 0.11948933 -0.030183315 0.09766875 -0.12771812 0.1237077 -0.091328934 -0.008683473
-0.038669482 -0.12519613 0.13103683 -0.058609612 0.09817441 0.050438672 0.12613077 0.11040838
0.008365437 -0.020749122 -0.13408999 -0.15008813 -0.04565268 -0.066850446 0.050451234 -0.11875477
00000000: e3bc 4d3d 7925 cebd 3391 a53c 9a7f 8b3d
00000010: caef 1f3e 381b 863d 7076 a73c 7cc7 fabd
00000020: 6158 2f3e cb4b eb3b f45f 2e3e a089 9fbb
00000030: c07f 883c ca23 cb3d dfb0 9abd 92e4 c43d
00000040: b5ba 96bd 3abd f7bd 98d1 773c 14e5 303d
00000050: 979b 0d3e c7fb 043e 037f 36bd 5beb 88bd
00000060: 833f 063e ded7 c53d 02b8 1bbd 3048 b43d
00000070: 203c 47bc 866c d83d c41e f83d 7fea 8f3d
00000080: 4817 fd3d 3d96 0b3e aab7 cd3d f427 e83d
00000090: 48c5 72bd de19 c03d fb95 f33c 335e 5dbd
000000a0: 127c 5cbd 1ee9 c23d 3033 843d d416 11be
000000b0: 101d 3cbd a0f3 9c3c 6807 a23d 0946 013e
000000c0: 906f 883c 00ac 36bd 35a4 1a3e 3a0d f83d
000000d0: 1794 8dbd a01e cdbb 460d 50bd 80bd fb3a
000000e0: 06c7 1abe fcd8 323d 3044 55bd d4a7 b3bd
000000f0: d838 4c3d d2b3 3fbd dace bb3d f0cb 1abc
00000100: eecf d63d 0350 85bd 8cec 2a3d 16b6 17bd
00000110: ed67 0b3e 3ea0 8ebd a6f9 06be 40d2 0b3b
00000120: 5cb5 9ebd 5458 073d 7b00 073e 3c1a 523d
00000130: fa29 d4bd 2013 fa3c 9755 ebbd 222d c13d
00000140: 600e 81bc b599 163e 7aea edbd 8cd9 08bd
00000150: f4a5 f2bd 2cf4 953d 7e9a babd 7070 68bc
00000160: 80fe 543b 80a3 463d f4db 883d b9da 0e3e
00000170: 168a c63d d82d 19be 82f8 1cbd 31c1 bfbd
00000180: f8da 05be 5b5b 113e 5cf3 673d 277c abbd
00000190: 82b2 27bd 20aa a2bb 1049 223d 7ea3 b83d
000001a0: b811 f63c 30f5 86bc 3f74 90bd 3baf 1cbe
000001b0: 0955 09be a4ca 17be f0fe 923c 3bc0 0cbe
000001c0: 6ff8 203e 487f febd 9c7c 8e3d d073 693d
000001d0: 2231 a43d ac49 f5bd e0e9 f4bd e2d7 09be
000001e0: 8ddc 0fbe dfeb 133e 1dd9 2cbd 4b5d 163e
000001f0: 94e3 e53c 3db3 923d c642 cebd 380a b83c
00000200: b4c3 103e c385 713d 2b3d 0f3e 9e1d e13d
00000210: 4c80 53bd 500d 5bbc 9699 b3bc 46d2 78bd
00000220: d1fb df3d e7eb cebc b319 af3d 45de 0c3e
00000230: d0c6 383d e402 2cbd b309 2a3e eabb c7bd
00000240: 8c2b 313d 7411 d6bd 838e 01be 227d 5a3d
00000250: 55c3 06be 8860 803d 6e02 ad3c a134 093e
00000260: f595 043e 8a67 1dbd 4cd6 fcbd 8939 a3bd
00000270: 0c60 72bc e8fa b3bc b7d8 8d3d aeee 0d3e
00000280: 1c93 fabd 00b7 a23a e050 703c d83a 8dbd
00000290: 4e9d 1bbd c039 b23d cc7c a0bd 7016 d8bc
000002a0: 98c5 7a3d 4cef a63d 8072 6c3d fc4a c4bd
000002b0: 5916 90bd 008f 0fba 60ab 533c 4cba 07bd
000002c0: e730 bdbd f052 0f3c 25f9 ecbd 7035 88bd
000002d0: 9428 0a3d 64f4 42bd b810 683d b59c 043e
000002e0: 72e9 ca3d 2a82 b23d 8458 ddbd eab8 d0bd
000002f0: fca0 0fbd 88e3 ab3c 60a3 9cbc 3566 213e
00000300: 3c37 913d 8b37 043e 1ee6 df3d ac18 95bd
00000310: 1ab3 bf3d 4a03 09bd b025 05bc 5650 b2bd
00000320: ac5d 823d 42e9 b6bd 8661 a93d 409a bbbd
00000330: de57 f43d 1083 ecbc 92bb be3d b3a5 183e
00000340: 5866 8dbd eaf2 a63d 5804 393d 4028 0ebe
00000350: 10e4 59bc 99ea 003e e8ba 233d 3a9c f83d
00000360: 5807 bebd cec1 bf3d 7698 863d a9f4 bebd
00000370: d417 7abd dc5f 07bd d2f2 64bd 3093 8ebd
00000380: fac6 c4bd dc8d 183d f0e1 3c3c ba68 ba3d
00000390: d25e fc3d b3b1 ebbd e091 a8bc 789b 0bbe
000003a0: 2e6f d9bd d2b6 f43d 0043 f7bc 8e06 c83d
000003b0: 8ac8 02be 765a fd3d aa0a bbbd 2045 0ebc
000003c0: e463 1ebd 6a33 00be 852e 063e a210 70bd
000003d0: aa0f c93d c898 4e3d 6d28 013e ca1d e23d
000003e0: 300f 093c 10fa a9bc e34e 09be b4b0 19be
000003f0: 4efe 3abd e3e8 88bd f4a5 4e3d b335 f3bd

hidden_layers.1.bias f4 [40]
-0.02051976 -0.14635472 -0.04623638 0.059668873 -0.056221336 -0.1579568 -0.13540328 0.07769266
0.11960252 -0.13734566 0.09928056 -0.10266713 -0.14189896 0.14207795 -0.105725944 0.11994095
0.12812757 -0.047455426 -0.09465953 0.17574237 -0.080775864 -0.025054649 0.014469847 0.11125289
0.1327235 0.042727903 -0.1303333 0.0071537346 0.098184474 0.09893915 0.15898097 0.13722457
0.13723883 -0.0046494305 0.08264579 -0.13354735 -0.019884974 0.12943499 -0.01358211 0.06653471
00000000: 0e19 a8bc 03de 15be 5c62 3dbd 5967 743d
00000010: 5848 66bd 6dbf 21be 28a7 0abe 541d 9f3d
00000020: 2af2 f43d 57a4 0cbe 9b53 cb3d 2543 d2bd
00000030: f64d 11be e27c 113e d886 d8bd 9aa3 f53d
00000040: e033 033e 9f60 42bd dbdc c1bd cff5 333e
00000050: d16d a5bd 683f cdbc f012 6d3c 8ed8 e33d
00000060: abe8 073e 7403 2f3d 1876 05be e069 ea3b
00000070: f114 c93d 9ca0 ca3d e8cb 223e 9984 0c3e
00000080: 5688 0c3e 405a 98bb 3242 a93d a3c0 08be
00000090: d0e5 a2bc 9b8a 043e 8087 5ebc 5a43 883d

hidden_layers.2.weight f4 [40, 40]
-0.1545572 -0.025960863 -0.07022609 -0.029665485 0.02453734 0.084921926 -0.008831382 0.053447008
-0.13459755 -0.13120359 0.07510656 0.1444677 0.12880005 0.035685778 -0.08943538 -0.10989231
0.022549614 0.1258621 0.007914692 -0.15314351 -0.013915241 0.157376 0.14992253 0.022160932
-0.09228232 0.06040187 0.085816234 -0.14268987 -0.08422737 0.08162972 0.11026548 0.07414222
0.046667024 -0.09014452 0.10876258 -0.115687 -0.08153261 -0.009750098 -0.045867234 0.13386808
-0.14139292 -0.06697038 0.03616132 0.09703184 0.06939614 0.06065336 -0.14522313 0.13652654
-0.16232233 -0.13097575 -0.02956248 -0.06727882 0.012525231 0.11079414 0.031664565 0.13136466
-0.12340702 -0.06457636 -0.013281748 -0.026011856 0.026888907 -0.0060439855 0.067505136 -0.06601726
-0.053457182 0.024588887 0.10255022 -0.14596272 -0.0065841055 0.12533583 -0.004923284 0.017902624
0.14686918 0.052420154 0.023243263 -0.002276823 -0.14357945 -0.08210945 -0.011299483 0.09463299
-0.11252437 0.033955187 0.12979527 -0.11505179 -0.016601056 0.053516522 0.013238803 -0.084791645
0.0854384 -0.09178939 -0.12804101 -0.08982046 -0.014251575 -0.07874938 -0.15092392 0.04040033
-0.042872112 -0.02292028 -0.06269383 0.036784753 -0.08408208 -0.08282341 0.056779847 0.14478268
0.07137286 -0.032111045 -0.15716058 0.121942446 0.07057238 -0.07811023 0.012594245 0.013240573
-0.08774915 0.07841352 -0.11879165 0.044215754 -0.026410207 0.14672868 -0.014975121 0.098627515
0.103885755 -0.012417391 -0.012256086 -0.0110313445 -0.054569386 0.08320528 0.023383915 -0.15631168
0.086354196 0.002009809 -0.10565111 -0.09701255 0.114817634 -0.11257434 -0.055763938 -0.01241833
-0.02934201 0.002647519 -0.023841485 0.09698041 0.13745977 -0.01998569 0.03779511 -0.1265804
-0.118153244 0.06748161 -0.15150319 -0.14115492 -0.0930105 -0.076456316 -0.06735003 0.016673759
-0.09336612 0.023606628 0.06778206 0.020060986 -0.1093892 -0.08656249 -0.14454189 -0.040276065
-0.1039141 -0.12288761 -0.012214407 0.07138854 -0.08703612 0.017956927 0.05940029 0.014299735
-0.15315843 -0.08275503 -0.09456862 -0.040237233 0.10523538 -0.03137298 0.13551922 0.06667386
0.10425867 -0.08114226 0.15633078 -0.06132772 -0.02201198 -0.07511957 -0.12692137 0.012680203
-0.10233207 0.053529352 -0.06777463 0.030533582 0.1441132 0.11161576 0.014839515 -0.15084426
0.1002713 -0.0038779527 -0.09817149 -0.14330322 0.15392356 0.136505 -0.13057347 0.007472217
-0.010132372 0.043868005 0.15794532 0.119699344 0.12262924 0.084552616 -0.121515155 0.07621285
-0.07561071 0.08848223 0.05262111 0.06217839 0.06938553 -0.11125517 0.101826474 -0.14076486
0.0044002384 0.0658927 -0.041397348 0.034715578 0.019318715 0.021851122 -0.075477 0.028118715
-0.025992066 -0.15684877 -0.13013689 0.12004484 0.15195869 -0.12022351 0.12684537 0.10709171
-0.13417509 0.07478692 0.0077856183 -0.034581624 -0.015378237 -0.1288152 0.13005958 0.07392195
0.12551455 -0.04590431 -0.0054316074 0.026643932 0.048606455 0.12297128 0.103742495 -0.16015804
-0.1632032 -0.014761224 -0.12078577 0.1222706 0.11024265 -0.049417548 0.03338416 -0.08901047
00000000: 3e44 1ebe e0ab d4bc b2d2 8fbd 0805 f3bc
00000010: 8802 c93c 8ceb ad3d 80b1 10bc 40eb 5a3d
00000020: f1d3 09be 3c5a 06be 78d1 993d 57ef 133e
00000030: 29e4 033e 402b 123d e629 b7bd 380f e1bd
00000040: f8b9 b83c ffe1 003e a0ac 013c a7d1 1cbe
00000050: c0fc 63bc 2d27 213e 4b85 193e d88a b53c
00000060: 83fe bcbd f467 773d 6cc0 af3d 4b1d 12be
00000070: 667f acbd 7c2d a73d ded2 e13d e0d7 973d
00000080: ec25 3f3d b19d b8bd eabe de3d 4eed ecbd
00000090: 92fa a6bd e0be 1fbc 48df 3bbd b714 093e
000000a0: 4ec9 10be c427 89bd e41d 143d a1b8 c63d
000000b0: 901f 8e3d a86f 783d 5fb5 14be 9dcd 0b3e
000000c0: d337 26be 821e 06be 042d f2bc 7ac9 89bd
000000d0: a036 4d3c 0ae8 e23d b4b2 013d 7584 063e
000000e0: d2bc fcbd 9c40 84bd b09b 59bc d116 d5bc
000000f0: 2046 dc3c a00c c6bb 2240 8a3d 0f34 87bd
00000100: ebf5 5abd a26e c93c da05 d23d 4077 15be
00000110: 7bbf d7bb 0958 003e 8053 a1bb 86a8 923c
00000120: e064 163e 84b6 563d a868 be3c c036 15bb
00000130: 7e06 13be 0029 a8bd 7721 39bc f1ce c13d
00000140: 2d73 e6bd 9814 0b3d 0de9 043e 46a0 ebbd
00000150: f0fe 87bc 2434 5b3d 90e7 583c 3ea7 adbd
00000160: 54fa ae3d 13fc bbbd 2f1d 03be caf3 b7bd
00000170: 707f 69bc 5b47 a1bd cd8b 1abe d17a 253d
00000180: ab9a 2fbd 50c3 bbbc 9f65 80bd 9cab 163d
00000190: 3a33 acbd 529f a9bd fc91 683d e941 143e
000001a0: ef2b 923d df86 03bd b4ee 20be f6bc f93d
000001b0: 4188 903d 42f8 9fbd 1858 4e3c fdee 583c
000001c0: d4b5 b3bd 4497 a03d 0949 f3bd 941b 353d
000001d0: 385a d8bc 0b40 163e 365a 75bc 39fd c93d
000001e0: 0ec2 d43d 5072 4bbc c0cd 48bc d0bc 34bc
000001f0: 2684 5fbd 8867 aa3d a08f bf3c 2b10 20be
00000200: 78da b03d 00b7 033b 9c5f d8bd 84ae c6bd
00000210: 8225 eb3d 608d e6bd ba68 64bd 4076 4bbc
00000220: a85e f0bc 0082 2d3b 384f c3bc aa9d c63d
00000230: 41c2 0c3e 08b9 a3bc 0ccf 1a3d 4b9e 01be
00000240: 54fa f1bd cc33 8a3d a723 1bbe ea8a 10be
00000250: 4a7c bebd 2195 9cbd d0ee 89bd 6897 883c
00000260: bc36 bfbd b062 c13c 52d1 8a3d f056 a43c
00000270: 7207 e0bd ad47 b1bd ca02 14be 84f8 24bd
00000280: ead0 d4bd 80ac fbbd f01e 48bc 2834 923d
00000290: fe3f b2bd 681a 933c b84d 733d 7049 6a3c
000002a0: 90d5 1cbe 787b a9bd 31ad c1bd cccf 24bd
000002b0: a685 d73d f480 00bd 8dc5 0a3e 4e8c 883d
000002c0: 9285 d53d ea2d a6bd 2d15 203e c632 7bbd
000002d0: 7852 b4bc 4ad8 99bd adf7 01be a0c0 4f3c
000002e0: 7a93 d1bd 9841 5b3d 6dcd 8abd 9021 fa3c
000002f0: 6992 133e ce96 e43d 7021 733c eb76 1abe
00000300: 0a5b cd3d 4025 7ebb 220e c9bd 14be 12be
00000310: 239e 1d3e f7c7 0b3e 0db5 05be 80d9 f43b
00000320: 4002 26bc f0ae 333d 6bbc 213e ee24 f53d
00000330: 0a25 fb3d ec29 ad3d f0dc f8bd 7c15 9c3d
00000340: cad9 9abd 2c36 b53d 3c89 573d c4ae 7e3d
00000350: 001a 8e3d c0d9 e3bd 668a d03d aa24 10be
00000360: e02f 903b c0f2 863d 4490 29bd ec31 0e3d
00000370: 4842 9e3c 2001 b33c af93 9abd 3859 e63c
00000380: 50ed d4bc f79c 20be 9b42 05be 12da f53d
00000390: 0f9b 1b3e be37 f6bd c1e3 013e e652 db3d
000003a0: 3265 09be e229 993d 801e ff3b 76a5 0dbd
000003b0: 00f5 7bbc 22e8 03be 572e 053e 6464 973d
000003c0: e386 003e 2806 3cbd a0fb b1bb 6044 da3c
000003d0: 9017 473d 5ed8 fb3d f276 d43d 7800 24be
000003e0: bd1e 27be 10d9 71bc 885e f7bd 0269 fa3d
000003f0: e6c6 e13d 0e6a 4abd d4bd 083d 1f4b b6bd

hidden_layers.2.bias f4 [40]
-0.089597665 -0.031121874 0.07741777 -0.12516473 -0.018738627 -0.073828764 -0.015291425 0.048070725
0.14812467 0.04386802 0.027510906 0.13012898 0.12110004 0.11061776 0.1477992 0.110126846
-0.07057728 0.13720419 -0.073873565 -0.14770639 -0.021037996 0.008804187 0.086646244 0.114726916
-0.109021306 -0.059106216 0.07585867 0.11549953 -0.03606516 -0.116190426 0.16733824 -0.003686494
0.08331677 -0.08047364 -0.11823006 0.004997896 -0.14317119 -0.0538171 -0.033250663 0.019864062
00000000: fb7e b7bd 4df3 febc 358d 9e3d 2f2b 00be
00000010: c081 99bc 8933 97bd e388 7abc cfe5 443d
00000020: fead 173e f4ae 333d 8d5e e13c 8840 053e
00000030: 4c03 f83d 908b e23d ac58 173e 2f8a e13d
00000040: d28a 90bd 417f 0c3e 064b 97bd 5840 17be
00000050: e057 acbc 703f 103c 9673 b13d f2f5 ea3d
00000060: 9046 dfbd 5c19 72bd ca5b 9b3d 058b ec3d
00000070: 10b9 13bd 3ff5 edbd b75a 2b3e 1b99 71bb
00000080: fca1 aa3d 5dcf a4bd 9a22 f2bd 64c5 a33b
00000090: 789b 12be 526f 5cbd d931 08bd f5b9 a23c

hidden_layers.3.weight f4 [40, 40]
-0.0022301078 -0.061864585 -0.075203806 0.007652357 -0.14558898 -0.08046467 0.042580977 -0.14303218
0.13390826 -9.121001e-05 -0.01877658 -0.1315766 -0.06803244 -0.05537901 -0.017115057 -0.04106939
0.1120687 -0.07802394 -0.075658455 0.109158084 0.001795128 0.09925927 -0.12877013 -0.025753275
-0.034681223 -0.0019780844 -0.119212374 0.01061523 -0.115780115 -0.11575623 0.11266936 0.11916156
-0.10101862 -0.0068326294 0.13518207 -0.078166984 -0.14713268 -0.07954627 0.085604906 -0.12921053
-0.06102188 -0.050971895 0.112777784 0.11305852 -0.1184704 -0.041022472 0.07649507 -0.079491645
-0.11240737 -0.00038912892 0.09214078 -0.07549014 -0.006214097 -0.0145573765 -0.041972518 -0.013916746
-0.12827143 -0.037675217 -0.14391269 0.11207934 0.045066804 -0.016399905 0.056743696 0.005243942
0.10304721 -0.12625296 -0.1465379 0.117105946 0.12610997 0.050824493 -0.065670595 -0.11926162
-0.079771586 -0.062453814 0.15417232 0.08399193 0.038974717 0.0064173937 -0.019428298 0.014255509
-0.07071994 0.075815395 0.13539277 -0.016225815 0.053969502 0.0300093 -0.06726785 0.10639544
0.114920214 0.070475176 0.06205727 0.0754589 -0.1555466 0.15162952 -0.13489574 0.010297924
0.014935836 -0.15695539 0.016392663 -0.020123154 0.13106607 0.11387919 -0.042214707 0.1393408
0.081179485 -0.119244 0.033102617 -0.034193344 0.06965667 -0.12854517 -0.07094545 0.0016434491
-0.12661594 -0.0011493564 0.08887698 0.040934056 0.039125323 -0.10184273 0.060793027 -0.0054520965
-0.03875377 0.13379964 0.02344203 -0.154877 -0.0041024685 -0.05794599 -0.007479324 -0.16140848
-0.02695524 0.08231728 0.114985384 -0.07275948 0.08556903 -0.106005505 -0.10461881 -0.048258398
0.0471901 0.0064110067 -0.14784256 0.072052866 -0.13815543 -0.045775533 0.049976647 0.071764976
0.042761773 -0.1257049 -0.11383152 0.09124726 0.030038178 0.14447226 -0.03524652 0.11324338
-0.15815093 -0.032753706 -0.11692858 -0.0053648567 0.11381863 -0.08458775 -0.15489508 0.043502238
0.05990188 -0.08437221 -0.0941957 0.0007633567 -0.1331277 -0.114035405 0.10759772 0.03716678
0.13965783 -0.122395016 0.03587094 0.1230573 0.1562361 -0.0062795784 -0.043761328 -0.0040351367
0.06407909 0.1720234 0.11467861 -0.13112485 0.1538523 0.04977484 -0.01819461 0.14092587
0.05411528 -0.13507323 0.07610889 0.028782442 -0.027709961 -0.0073340833 0.02081672 0.12121163
0.17447674 0.13004144 0.019718766 -0.062203165 -0.08979043 0.15559374 -0.14359067 0.06610793
-0.15788102 0.01438332 0.0078282915 0.084213376 -0.0362401 0.0047502965 -0.040662102 0.17133544
-0.055657852 0.13694616 -0.042576347 0.05142133 0.12412175 0.16960464 -0.036050484 -0.09415965
-0.00532268 0.13313483 0.024519786 0.044462875 -0.1558331 -0.15310721 0.12715879 0.010502882
0.100938365 0.09268503 -0.01949595 0.17147675 0.14492796 0.12513785 0.09420914 0.061923005
-0.045668777 -0.07302579 -0.12560512 0.0013681733 -0.13812399 -0.1454805 -0.055343736 -0.07730673
-0.13884394 -0.052431688 0.005527422 0.06709401 0.14922641 -0.14201602 0.12399317 -0.058904313
0.010979906 0.082351774 -0.092608795 0.06292184 -0.046340786 -0.0865378 0.029966518 0.057474196
00000000: 0027 12bb b865 7dbd 7404 9abd a0c0 fa3b
00000010: 4715 15be a9ca a4bd 6469 2e3d 0777 12be
00000020: 3f1f 093e 0048 bfb8 58d1 99bc 04bc 06be
00000030: 9854 8bbd 1ad5 62bd e034 8cbc 6038 28bd
00000040: 4684 e53d 04cb 9fbd d2f2 9abd 468e df3d
00000050: 804a eb3a 7248 cb3d 51dc 03be 88f8 d2bc
00000060: e60d 0ebd c0a2 01bb 9e25 f4bd 80eb 2d3c
00000070: 201e edbd 9a11 edbd 32bf e63d fa0a f43d
00000080: dae2 cebd 40e4 dfbb 2b6d 0a3e 0316 a0bd
00000090: f3a9 16be 28e9 a2bd a051 af3d c44f 04be
000000a0: 14f2 79bd e8c7 50bd 0af8 e63d 3a8b e73d
000000b0: 9ca0 f2bd 2e07 28bd 72a9 9c3d 84cc a2bd
000000c0: d635 e6bd 0004 ccb9 4eb4 bc3d 939a 9abd
000000d0: a09f cbbb 1082 6ebc 60eb 2bbd 1003 64bc
000000e0: 9659 03be 5451 1abd d95d 13be da89 e53d
000000f0: f897 383d 1859 86bc 146c 683d 60d5 ab3b
00000100: 6a0a d33d 7548 01be 080e 16be 3ed5 ef3d
00000110: f922 013e 582d 503d 4e7e 86bd 703f f4bd
00000120: 495f a3bd 92cf 7fbd 59df 1d3e f603 ac3d
00000130: f4a3 1f3d 0049 d23b 1828 9fbc f08f 693c
00000140: 9ed5 90bd 1a45 9b3d 67a4 0a3e 00ec 84bc
00000150: 200f 5d3d 10d6 f53c bac3 89bd dae5 d93d
00000160: 4a5b eb3d 4a55 903d c42f 7e3d 328a 9a3d
00000170: 9c47 1fbe c544 1b3e 1c22 0abe a0b8 283c
00000180: 70b5 743c eab8 20be e849 863c 50d9 a4bc
00000190: 2f36 063e 7e39 e93d 54e9 2cbd 5baf 0e3e
000001a0: 6e41 a63d 3336 f4bd 9c96 073d 520e 0cbd
000001b0: 28a8 8e3d 58a1 03be d94b 91bd 0069 d73a
000001c0: 9ca7 01be 00a6 96ba 2205 b63d 78aa 273d
000001d0: e041 203d ec92 d0bd 1c02 793d 80a7 b2bb
000001e0: 46bc 1ebd c602 093e 8009 c03c 1498 1ebe
000001f0: 006e 86bb c658 6dbd 1e15 f5bb 4448 25be
00000200: 3cd1 dcbc f695 a83d 757d eb3d ec02 95bd
00000210: d13e af3d 6a19 d9bd 6342 d6bd 99aa 45bd
00000220: 684a 413d 6c13 d23b 0a64 17be 7490 933d
00000230: 9e78 0dbe 207f 3bbd 50b4 4c3d 84f9 923d
00000240: f826 2f3d c9b8 00be 8020 e9bd d8df ba3d
00000250: a012 f63c 89f0 133e a85e 10bd 25ec e73d
00000260: 51f2 21be c028 06bd 4078 efbd aecb afbb
00000270: be19 e93d 583c adbd d19c 1ebe 672f 323d
00000280: ac5b 753d 56cb acbd ade9 c0bd 001c 483a
00000290: a152 08be 658b e9bd 325c dc3d 323c 183d
000002a0: 7602 0f3e 3daa fabd 68ed 123d 7705 fc3d
000002b0: 5bfc 1f3e ecc4 cdbb 143f 33bd 2e39 84bb
000002c0: e63b 833d e726 303e 9edc ea3d 9845 06be
000002d0: 758b 1d3e b4e0 4b3d dd0c 95bc df4e 103e
000002e0: fca7 5d3d a350 0abe fade 9b3d 28c9 eb3c
000002f0: 0000 e3bc c052 f0bb d387 aa3c ce3d f83d
00000300: 08aa 323e 9529 053e 4089 a13c bfc8 7ebd
00000310: 0ce4 b7bd f753 1f3e 6f09 13be 9863 873d
00000320: 90ab 21be 04a8 6b3c 3c42 003c 1078 ac3d
00000330: 8070 14bd 60a8 9b3b 4e8d 26bd 8f72 2f3e
00000340: 7df9 63bd 9d3b 0c3e 8964 2ebd 2c9f 523d
00000350: 8b33 fe3d d7ac 2d3e aca9 13bd c6d6 c0bd
00000360: e069 aebb 7f54 083e b8dd c83c b41e 363d
00000370: b692 1fbe 23c8 1cbe ea35 023e 4814 2c3c
00000380: c6b8 ce3d a6d1 bd3d f8b5 9fbc 9a97 2f3e
00000390: ff67 143e 2324 003e b9f0 c03d faa2 7d3d
000003a0: 2f0f 3bbd 8c8e 95bd a19e 00be 4754 b33a
000003b0: 6070 0dbe d7f8 14be 1db0 62bd fe52 9ebd
000003c0: 1b2d 0ebe 9cc2 56bd 601f b53b 9668 893d
000003d0: cfce 183e a66c 11be 22f0 fd3d a645 71bd
000003e0: 10e5 333c 0ca8 a83d aea9 bdbd 2add 803d
000003f0: d6cf 3dbd bb3a b1bd 587c f53c 106a 6b3d

hidden_layers.3.bias f4 [40]
-0.06884637 -0.1043164 -0.004371643 0.1294732 -0.048562128 0.12783942 0.012013227 -0.13926996
-0.09777221 0.10129485 0.042845905 -0.12090832 -0.10017739 -0.09724801 0.010044097 0.06993242
-0.101439446 0.16059305 -0.07409724 0.08427477 0.100472935 -0.06168341 0.09506079 -0.09478357
0.0004351586 0.004655137 0.16753264 -0.13893928 -0.021181151 0.16189952 0.15781368 -0.036028776
-0.053156056 -0.06452271 0.10327601 -0.14267215 -0.076798484 0.036341313 -0.09497907 0.097253434
00000000: 53ff 8cbd d6a3 d5bd 0040 8fbb 9f94 043e
00000010: 15e9 46bd 56e8 023e 20d3 443c c99c 0ebe
00000020: cc3c c8bd ad73 cf3d 307f 2f3d c89e f7bd
00000030: ce29 cdbd f729 c7bd ff8f 243c bb38 8f3d
00000040: 7cbf cfbd 8172 243e 4bc0 97bd 4098 ac3d
00000050: c1c4 cd3d bea7 7cbd 3baf c23d e31d c2bd
00000060: 0026 e439 1f8a 983b ad8d 2b3e 1946 0ebe
00000070: 1884 adbc fdc8 253e e999 213e e992 13bd
00000080: 2aba 59bd 7c24 84bd 5f82 d33d a618 12be
00000090: 8648 9dbd a1da 143d 6384 c2bd cf2c c73d

output_layer1.weight f4 [2, 40]
0.13177957 0.14143156 -0.031515703 0.14921148 0.045973502 -0.013390995 -0.14658183 0.14724661
0.037549093 -0.024170108 -0.029839361 -0.051332302 0.024600744 -0.11409966 0.12891613 0.0037963886
-0.118062705 -0.033512272 -0.030192718 0.04797185 0.10817119 -0.13832158 0.1306553 0.12642674
-0.005245313 0.054586776 -0.07512655 0.12689735 -0.13454388 -0.024648663 -0.030692006 -0.118234195
0.024389863 0.024464563 -0.123685144 0.060111124 0.12601918 0.027046748 -0.11590457 0.046089232
0.09455691 -0.07070267 0.10462378 0.1400171 0.10087771 -0.00394624 0.13248242 -0.07620092
-0.13798586 0.027754124 -0.12929897 0.0065838248 -0.116784856 0.10486014 -0.15374647 -0.06629148
0.09608127 0.033701435 0.074092716 -0.16377395 0.01045502 -0.09853616 0.09228037 -0.11030862
0.103962526 -0.06506259 0.07151839 0.05112256 0.032565832 -0.08989892 0.1393332 0.14350198
0.05237156 -0.12737936 0.10527366 0.14643146 0.14356607 0.11203364 0.03158684 0.09740599
00000000: 39f1 063e 6fd3 103e 9c16 01bd e5ca 183e
00000010: b64e 3c3d e765 5bbc 8c19 16be d1c7 163e
00000020: 14cd 193d 6400 c6bc ad71 f4bc d241 52bd
00000030: 8087 c93c 15ad e9bd 9702 043e d5cc 783b
00000040: dcca f1bd 2a44 09bd b856 f7bc 217e 443d
00000050: db88 dd3d 2ca4 0dbe 81ca 053e 0376 013e
00000060: e0e0 abbb 6296 5f3d f3db 99bd 61f1 013e
00000070: dfc5 09be feeb c9bc cd6d fbbc c524 f2bd
00000080: 40cd c73c e869 c83c a34e fdbd 1537 763d
00000090: 2c0b 013e 2491 dd3c 605f edbd 10c8 3c3d
000000a0: 0ea7 c13d 90cc 90bd fe44 d63d a560 0f3e
000000b0: f998 ce3d 764f 81bb 79a9 073e 3a0f 9cbd
000000c0: 2a4c 0dbe 9e5c e33c f366 04be 20bd d73b
000000d0: e62c efbd eac0 d63d b76f 1dbe d4c3 87bd
000000e0: 42c6 c43d 840a 0a3d ecbd 973d 5cb4 27be
000000f0: 884b 2b3c 54cd c9bd 7efd bc3d 7ce9 e1bd
00000100: 4eea d43d 893f 85bd 3c78 923d e465 513d
00000110: c063 053d ed1c b8bd 5dad 0e3e 2ff2 123e
00000120: 9083 563d bc6f 02be b799 d73d 21f2 153e
00000130: fc02 133e e571 e53d 3461 013d cb7c c73d

output_layer1.bias f4 [2]
-0.106989056 -0.05432677
00000000: 141d dbbd bf85 5ebd

output_layer2.weight f4 [1, 40]
0.07826203 0.07462685 -0.055834956 -0.10203693 0.12775244 0.024194734 -0.039729193 -0.037337013
-0.12777166 0.15205337 -0.08687066 0.013309985 -0.077116564 -0.11612615 0.037805248 -0.038932208
-0.1503502 0.11006607 -0.07607082 0.0800104 -0.13991545 0.14055689 -0.07568748 -0.046265393
-0.13795394 0.111998275 0.105120376 0.028189614 -0.0046847314 0.1646537 0.13701169 -0.11920259
-0.13885896 -0.06715525 0.045191217 -0.009135585 0.10034624 -0.096735194 0.14776923 -0.073689036
00000000: d847 a03d f6d5 983d 32b3 64bd bdf8 d0bd
00000010: 89d1 023e 0934 c63c 14bb 22bd b2ee 18bd
00000020: 93d6 02be e1b3 1b3e 3fe9 b1bd 2012 5a3c
00000030: 4aef 9dbd 8cd3 edbd add9 1a3d 6177 1fbd
00000040: 67f5 19be 526a e13d 05cb 9bbd 7edc a33d
00000050: ff45 0fbe 25ee 0f3e 0a02 9bbd c880 3dbd
00000060: cc43 0dbe 5a5f e53d 5a49 d73d e8ed e63c
00000070: 6082 99bb fb9a 283e cb4c 0c3e 7d20 f4bd
00000080: 0b31 0ebe b188 89bd 6d1a 393d 6cad 15bc
00000090: 5482 cd3d 1a1d c6bd d150 173e 47ea 96bd
