src/models/prediction_50.pt (torch, 38168 bytes, 13 tensors)

input_layer.weight f4 [40, 40]
0	0x3ca2c962	0.019871417
1	0xbe05ef8c	-0.13079661
2	0xbdeb325d	-0.114842154
3	0xbd61a582	-0.05508948
4	0xbdea4013	-0.114380024
5	0xbcb8fa31	-0.022580238
6	0xbcf24e34	-0.029578306
7	0x3dfcb4af	0.1233915
8	0xbd1b0dff	-0.037855145
9	0x3c303b83	0.010756376
10	0xbd3466ec	-0.044043466
11	0xbe0cf5f6	-0.13765702
12	0x3ce458a2	0.027874295
13	0xbde569c0	-0.11201811
14	0x3e188cb2	0.14897421
15	0x3e08dcd3	0.13365488
16	0xbcdc2462	-0.026872817
17	0xbe255edd	-0.16149469
18	0x3d2e4a21	0.042551164
19	0xbd0f7ea2	-0.035032876
20	0x3d25591f	0.040368196
21	0xbdce3d81	-0.10070325
22	0x3dc43f6b	0.095824085
23	0x3de9bf70	0.11413467
24	0xbd12611f	-0.035737153
25	0x3e11fe59	0.14257182
26	0xbcca78a9	-0.024715738
27	0x3e20369c	0.15645832
28	0x3dd12ead	0.10213981
29	0x3cef8305	0.02923728
30	0xbe37142a	-0.17878786
31	0xbe329a4a	-0.17441669
32	0xbe04dd65	-0.1297508
33	0xbe364aa2	-0.17801908
34	0xbc870543	-0.016482001
35	0x3e3493ea	0.1763455
36	0xbd961c1d	-0.07329581
37	0x3cd8a028	0.026443556
38	0xbdf026dc	-0.11726162
39	0xbd1b7556	-0.037953697
40	0x3d82a02e	0.06378208
41	0xbc24c140	-0.01005584
42	0x3dceacc2	0.10091545
43	0x3e12fcdd	0.14354272
44	0x3d36bf64	0.044616118
45	0x3d6f56d0	0.0584324
46	0xbd4ea5e6	-0.05045118
47	0x3c3ab5c0	0.011395872
48	0x3e19a289	0.15003408
49	0xbe15d3b8	-0.14631546
50	0x3d6f9204	0.05848886
51	0xbd844ad1	-0.064595826
52	0x3d92623a	0.071476415
53	0x3c004c70	0.007830724
54	0x3c813850	0.015773922
55	0x3d99fa58	0.075184524
56	0x3c3f05a0	0.011659056
57	0xbdb36479	-0.08759398
58	0xbe0f21ea	-0.13977781
59	0xbe0b8f5a	-0.13628903
60	0xbd74a752	-0.05972988
61	0xbd9c1972	-0.07622041
62	0xbd57848e	-0.05261665
63	0x3e04257d	0.12904926
64	0xbcf89708	-0.030345455
65	0x3e1dd749	0.15414156
66	0x3ca9d7c0	0.02073276
67	0xbdc32def	-0.095302455
68	0xbddccace	-0.107808694
69	0x3c45d340	0.012074292
70	0x3dc60c66	0.096703336
71	0xbd811387	-0.06302553
72	0x3d6230e8	0.055222422
73	0x3d8b7aac	0.06810507
74	0x3d9ab9a2	0.07554938
75	0x3d2a13f0	0.04152292
76	0x3e11cfbb	0.14239399
77	0x3d9300d0	0.07177889
78	0xbe1e42b5	-0.15455134
79	0xbdb1ad48	-0.08675629
80	0xbddc8372	-0.10767259
81	0xbda33fd0	-0.07971156
82	0x3da2d81f	0.07951378
83	0xbbc95995	-0.006144712
84	0x3defa603	0.11701586
85	0xbd273b04	-0.040827766
86	0x3d656496	0.05600413
87	0xbe1417c0	-0.14462185
88	0xbe0b4410	-0.13600183
89	0x3d5b6ca8	0.05357042
90	0x3e2133db	0.15742438
91	0x3cb77836	0.022396188
92	0x3e22be16	0.15892825
93	0xbdf08eeb	-0.117460094
94	0xbe0bcc1e	-0.13652083
95	0x3cd99ac7	0.026563061
96	0x3cc1445d	0.023592168
97	0xbd80a52b	-0.06281503
98	0xbd6595a3	-0.056050908
99	0x3e1994dd	0.14998193
100	0xbddc519f	-0.107577555
101	0xbdbbae7e	-0.09164141
102	0xbb898c49	-0.0041976315
103	0x3e21db34	0.15806276
104	0x3bac09bb	0.0052501834
105	0xbdd2030b	-0.10254487
106	0x3d747cba	0.05968926
107	0xbd778d2c	-0.060437366
108	0xbdb44f8a	-0.08804233
109	0xbe11c57f	-0.14235495
110	0x3dbea995	0.09309689
111	0x3e090e37	0.13384329
112	0xbd114360	-0.035464644
113	0xbd80d2d5	-0.06290213
114	0x3dba2e8b	0.090909086
115	0x3c75409d	0.014969018
116	0xbdd495ad	-0.10380111
117	0xbc7f8f77	-0.0155981695
118	0x3d4f9ce7	0.050686743
119	0x3d22a11a	0.03970442
120	0xbe194279	-0.14966764
121	0x3dffce62	0.12490536
122	0xbdd29412	-0.102821484
123	0x3dd9e02e	0.10638462
124	0x3cc2de58	0.023787662
125	0xbde2dee5	-0.1107767
126	0xbdf4578d	-0.119307615
127	0xbd5f9a0c	-0.05459027
128	0x3d3bfbac	0.04589431
129	0xbd8bd9d3	-0.06828656
130	0x3e1265b5	0.1429661
131	0x3e0ce8f7	0.13760744
132	0x3e196511	0.1497996
133	0xbd526baa	-0.051372208
134	0xbdd3c190	-0.103396535
135	0xbdae4990	-0.08510125
136	0xbd7b192e	-0.06130331
137	0x3e0e4075	0.13891776
138	0x3c214f20	0.009845525
139	0x3dc095d2	0.09403576
140	0x3e00cfd3	0.12579279
141	0xbe0bb98c	-0.13645
142	0xbe12d8f7	-0.14340578
143	0x3dd9cb22	0.10634448
144	0x3dfc586a	0.12321551
145	0xbbede700	-0.0072602034
146	0x3d72c7f0	0.059272707
147	0xbc918c38	-0.017767057
148	0x3c855198	0.016274258
149	0xbd65dc0e	-0.056118064
150	0x3e126b6b	0.14298789
151	0xbc6a0080	-0.014282346
152	0xbb4b7280	-0.003104359
153	0x3dd3a74a	0.10334642
154	0xbe10a4a4	-0.14125305
155	0x3d32b4e4	0.043629542
156	0x3bc4db80	0.0060076118
157	0xbd90fc21	-0.0707934
158	0x3d57ca48	0.052683145
159	0x3dbc9dda	0.09209795
160	0x3db0a76d	0.08625684
161	0x3c259bd6	0.010107955
162	0x3e174a11	0.14774348
163	0xbe23e9f5	-0.16007216
164	0xbdef92de	-0.116979346
165	0xbd84e4df	-0.06488966
166	0xbdc38cdf	-0.095483534
167	0xbdd2904e	-0.1028143
168	0x3bafd0bc	0.0053654592
169	0x3ccc35e3	0.024928039
170	0xbc89c318	-0.01681666
171	0x3db658fa	0.0890369
172	0xbc4dd13b	-0.012562091
173	0x3ccc858c	0.024966024
174	0xbcf3b75b	-0.029750517
175	0xbe11dbbb	-0.14243977
176	0x3d255368	0.040362746
177	0x3d07a6b3	0.03311796
178	0x3e1f76d6	0.15572676
179	0x3d93030f	0.07178318
180	0x3e18e836	0.14932331
181	0x3db042fb	0.086065255
182	0x3e0f8735	0.14016421
183	0x3c2d4b14	0.010576982
184	0xbe1a45ae	-0.15065643
185	0x3d93919e	0.07205509
186	0xbd3a83c0	-0.045535803
187	0x3df3e36f	0.11908614
188	0x3e0ebb47	0.13938628
189	0xbe180706	-0.14846429
190	0xbe1f1bb3	-0.1553791
191	0xbe0de341	-0.13856222
192	0xbd89d33a	-0.067297414
193	0x3d9993e1	0.07498909
194	0xbd138279	-0.0360131
195	0x3da2fe12	0.07958616
196	0xbdb6f39f	-0.08933186
197	0x3c25d921	0.010122568
198	0x3d6e6ee2	0.058211215
199	0xbdbbd6a4	-0.09171799
200	0xbd82e442	-0.06391193
201	0xbdb2bf18	-0.087278545
202	0x3c491a38	0.012274317
203	0x3db5686d	0.08857808
204	0x3b2f2557	0.0026725137
205	0xbd58bad1	-0.052912537
206	0x3dd6734e	0.104712114
207	0x3da7b4cf	0.081887834
208	0x3e34d26b	0.17658393
209	0xbd0bc593	-0.03412397
210	0xbda77330	-0.08176267
211	0xbdcc5c22	-0.099785104
212	0xbdbd561f	-0.09244942
213	0xbc83c8a1	-0.016086878
214	0xbdb323ae	-0.0874704
215	0xbe3c4d44	-0.1838885
216	0x3c1c91e0	0.009556264
217	0xbd37f44e	-0.04491072
218	0xbdefaa21	-0.117023714
219	0xbd537acf	-0.05163079
220	0x3dcaaa2c	0.09895739
221	0xbd774f3e	-0.060378306
222	0x3dcaccc8	0.0990234
223	0xbd2931f4	-0.041307405
224	0x3e04b1bc	0.12958425
225	0xbcd1bff0	-0.025604218
226	0x3e3f6013	0.18688993
227	0x3d4f6ee2	0.050642855
228	0xbdb05230	-0.08609426
229	0x3d2315c9	0.039815698
230	0x3d990faf	0.074736945
231	0x3bf473d5	0.0074600973
232	0xbd0d986d	-0.034569193
233	0xbd8dcbfb	-0.06923672
234	0xbce3246f	-0.027727334
235	0x3e42f92b	0.19040363
236	0x3dcd8d0f	0.100366704
237	0x3d8bbcdc	0.068231314
238	0x3e3f9895	0.18710549
239	0xbe0460f8	-0.12927616
240	0x3d7bc2b4	0.06146498
241	0xbdd23e8c	-0.10265836
242	0xbd9f8070	-0.077881694
243	0xbdbf7fe7	-0.09350567
244	0xbd86e94a	-0.06587465
245	0x3d066484	0.032810703
246	0x3dc68eb2	0.09695186
247	0x3e0fe7cb	0.14053266
248	0x3cdf89e0	0.027287424
249	0x3d8badf8	0.06820291
250	0xbe17b88d	-0.14816494
251	0xbe0cc883	-0.13748364
252	0xbe134aaa	-0.14383951
253	0xbd54d25a	-0.05195842
254	0x3de3c532	0.111215964
255	0x3d7efea4	0.062254563

input_layer.bias f4 [40]
0	0x3dc6392c	0.096788734
1	0xbd73a6be	-0.05948519
2	0x3d7a7c24	0.061153546
3	0xbe15e768	-0.14639056
4	0x3df9e0a7	0.12201052
5	0x3e247b3d	0.16062637
6	0xbe1344e9	-0.14381756
7	0xbcaa55ef	-0.02079293
8	0x3d1a4e49	0.037672315
9	0x3e12506b	0.1428849
10	0x3d43731f	0.04771721
11	0x3e1a96f9	0.15096654
12	0x3e12f3ac	0.14350766
13	0x3cb23993	0.02175597
14	0x3e221dda	0.158317
15	0xbcd82dff	-0.02638912
16	0xbe09914b	-0.13434331
17	0x3e000977	0.1250361
18	0x3e2362d0	0.15955663
19	0xbdb9a727	-0.09065085
20	0x3e04e198	0.12976682
21	0x3de2d036	0.11074869
22	0x3db03ee8	0.086057484
23	0x3dfc598c	0.12321767
24	0x3d59c9a6	0.053170823
25	0xbc3695d0	-0.0111441165
26	0xbd033f8d	-0.03204303
27	0xbceb7290	-0.028741151
28	0xbc812d61	-0.015768709
29	0x3d21f5fa	0.039541222
30	0x3dc39b95	0.09551159
31	0xbd3426a2	-0.043982156
32	0xbe0a3557	-0.1349691
33	0xbc2cba3d	-0.01054245
34	0xbdf52641	-0.11970187
35	0x3dbab471	0.09116448
36	0xbd895a14	-0.06706634
37	0xbd153f08	-0.036437064
38	0x3da322f3	0.079656504
39	0x3e1d26b8	0.15346801

hidden_layers.0.weight f4 [40, 40]
0	0x3e0126af	0.12612413
1	0x3cb475e8	0.022028878
2	0x3dfa590e	0.12224017
3	0xbd36bc68	-0.044613272
4	0xbd33d530	-0.043904483
5	0x3d0e3fbc	0.03472875
6	0x3dd823ce	0.10553704
7	0x3db285bc	0.08716914
8	0x3c3f5d70	0.011679992
9	0xbd07c6de	-0.03314864
10	0x3dbaba6e	0.0911759
11	0x3c334f10	0.010944143
12	0xbc019180	-0.007908225
13	0x3a62f000	0.00086569786
14	0xbddc9822	-0.107712045
15	0x3d8241fe	0.06360243
16	0xbd6f4d86	-0.05842354
17	0xbe037e55	-0.1284116
18	0xbe094ccc	-0.13408202
19	0x3d620f70	0.055190504
20	0xbdf3c194	-0.119021565
21	0x3de9208e	0.113831624
22	0xbd9061b0	-0.070498824
23	0x3d24ee64	0.04026641
24	0xbc02a190	-0.00797309
25	0xbe168347	-0.14698516
26	0x3d9b6f86	0.07589631
27	0x3e1b3c9d	0.15159841
28	0x3d82e2da	0.06390925
29	0x3da236aa	0.079205826
30	0xbe01114d	-0.12604256
31	0xbdb3553c	-0.087564915
32	0x3d425034	0.04743977
33	0x3d0128a8	0.031532913
34	0x3e0b667b	0.13613312
35	0xbc980850	-0.018558651
36	0x3d1583f8	0.03650281
37	0x3dd72b8a	0.10506351
38	0x3de296e2	0.11063935
39	0x3dd214ee	0.10257898
40	0x3e0935f8	0.13399494
41	0xbde23e87	-0.110470824
42	0xbde990e8	-0.11404592
43	0xbe1c6e8f	-0.1527655
44	0x3cb7b250	0.022423893
45	0xbd3b4ea2	-0.045729287
46	0xbe0a2122	-0.13489202
47	0xbd0f09c7	-0.034921434
48	0x3d3b5ae1	0.045740966
49	0xbce66c55	-0.028127829
50	0xbd2e9186	-0.04261925
51	0xbd94678d	-0.07246313
52	0x3e157161	0.14594032
53	0xbd37ef19	-0.044905756
54	0xbe2734fd	-0.16328807
55	0xbdd6ec8c	-0.104943365
56	0x3df73e3e	0.12072419
57	0xbdfa4122	-0.12219454
58	0x3dcc4194	0.099734455
59	0xbdc5f218	-0.09665316
60	0x3b7195b9	0.0036862923
61	0x3e13cac6	0.1443282
62	0x3cb591ae	0.022164192
63	0xbba3d320	-0.0049995333
64	0xbdf20c3a	-0.11818738
65	0xbc91ddc8	-0.017805949
66	0xbc1f2880	-0.009714246
67	0x3cf3ebb8	0.029775485
68	0xbe15ede6	-0.14641532
69	0x3de0f4f2	0.109842196
70	0x3d3eb7eb	0.046562117
71	0x3e1174d3	0.14204721
72	0xbdad5efe	-0.08465384
73	0xbde98ffe	-0.114044175
74	0xbd47d3e8	-0.048786074
75	0xbdc7ad0b	-0.09749802
76	0x3dfc6086	0.12323098
77	0xbd95d5e5	-0.07316188
78	0x3d11f63b	0.035635214
79	0x3db724e6	0.08942585
80	0x3d3a3f47	0.045470502
81	0xbd25eba2	-0.04050792
82	0x3d69157c	0.056905255
83	0x3c03dd90	0.00804843
84	0x3dd2e3a7	0.102973275
85	0xbc44d815	-0.012014409
86	0x3c10e520	0.00884369
87	0xbbba2280	-0.0056803823
88	0xbdfaaa22	-0.122394815
89	0xbe284dd1	-0.16435935
90	0x3e1b9bbf	0.15196131
91	0x3dc10a10	0.094257474
92	0x3e0b3c10	0.13597131
93	0xbe0c2ced	-0.13689013
94	0xbdf25f01	-0.11834527
95	0x3e11d136	0.14239964
96	0x3c2fe260	0.010735124
97	0x3d9f95c7	0.0779224
98	0x3d58277b	0.052772027
99	0xbe1f41d8	-0.15552461
100	0x3c0743d3	0.008255917
101	0x3cc29b10	0.02375558
102	0xba84beda	-0.0010127679
103	0x3d4a4b70	0.04938835
104	0xbd5d9734	-0.054099277
105	0xbd24499a	-0.040109254
106	0xbcbffc5e	-0.023435768
107	0xbbce0500	-0.006287217
108	0xbe000fe7	-0.12506066
109	0x3d212370	0.039340436
110	0x3dd218d4	0.10258642
111	0xbb5c5045	-0.003361718
112	0x3dd41b1a	0.10356732
113	0xbd4a64f6	-0.04941269
114	0x3d4f2ea7	0.0505816
115	0xbc2c164d	-0.010503364
116	0xbd3b581c	-0.045738325
117	0xbd210f00	-0.039320946
118	0xbd28cbcd	-0.041209985
119	0xbca219fc	-0.019787781
120	0x3e31cc04	0.17362982
121	0xbd39231c	-0.0451995
122	0x3da1cf69	0.079008885
123	0x3d319990	0.04335934
124	0xbc9aa84b	-0.018879076
125	0x3d25bedb	0.040465217
126	0x3c2d01d0	0.010559514
127	0xbdfed67b	-0.12443253
128	0x3d2c9bcd	0.04214077
129	0x3de611ae	0.11233841
130	0x3d11a85f	0.03556096
131	0xbda496d1	-0.080365784
132	0x3dc3b617	0.09556215
133	0x3c13bfe3	0.009017917
134	0xbd2d5080	-0.0423131
135	0xbde8c875	-0.11366359
136	0x3e191279	0.14948453
137	0x3e41daf5	0.18931182
138	0xbd13bf91	-0.036071364
139	0x3b86a488	0.004108969
140	0x3dc20dd8	0.09475297
141	0x3cb854a4	0.022501297
142	0x3e0ae5c2	0.13564208
143	0x3e249170	0.16071105
144	0x3d4ac5d7	0.04950508
145	0x3d903472	0.07041253
146	0x3dfd34d8	0.12363595
147	0xbc684230	-0.014175937
148	0x3d902f6e	0.070402965
149	0xbd8c7c3a	-0.06859632
150	0x3de536b4	0.111920744
151	0xbcd48bb9	-0.025945531
152	0xbd71fe9e	-0.059080712
153	0x3d8fbaf0	0.070180774
154	0xbdca38c5	-0.09874109
155	0x3d3247f6	0.04352566
156	0x3d1bfabc	0.038080916
157	0x3da47f96	0.080321476
158	0x3da9ac47	0.082848124
159	0x3e426375	0.18983252
160	0x3d183946	0.037163995
161	0xbde1981d	-0.110153414
162	0xbe19c65c	-0.15017074
163	0x3d7fbb90	0.062434733
164	0x3e0f4c72	0.13994005
165	0xbe04d83f	-0.12973116
166	0xbbc8ed00	-0.006131768
167	0x3d57fca4	0.05273117
168	0x3dd6ddca	0.10491522
169	0xbe276216	-0.1634601
170	0xbdff2756	-0.124586746
171	0xbd7a0168	-0.061036497
172	0xbe27bec1	-0.1638136
173	0xbdedfb6d	-0.11620221
174	0x3da22697	0.07917517
175	0x3e100689	0.14064993
176	0xbe028496	-0.1274589
177	0xbd213a40	-0.039362192
178	0x3cb298e9	0.021801429
179	0xbd79b960	-0.060967803
180	0x3bd6972d	0.0065487833
181	0xbe0f5fca	-0.14001384
182	0x3dd59e23	0.10430553
183	0xbd93f049	-0.07223565
184	0x3cfa3614	0.030543365
185	0xba208400	-0.0006123185
186	0xbdc2ad4a	-0.095057085
187	0xbcb77378	-0.022393927
188	0xbdeb6739	-0.114942975
189	0x3d86a27c	0.0657396
190	0xbd8885cb	-0.06666144
191	0x3da89566	0.082316205
192	0x3d17db54	0.037074402
193	0x3d089e8e	0.033354335
194	0xbd78b39a	-0.060718156
195	0xbd0819b8	-0.033227652
196	0xbe0fff75	-0.14062293
197	0xbda15fa4	-0.0787957
198	0x3e037151	0.12836196
199	0x3da8352e	0.08213268
200	0x3c12929f	0.00894609
201	0xbd2a39c4	-0.041558996
202	0xbc92aecd	-0.017905617
203	0x3cae4438	0.021272764
204	0xbdfef4a2	-0.12449004
205	0xbd518fe9	-0.051162634
206	0x39d5de00	0.0004079193
207	0x3e3901eb	0.18067138
208	0x3c673a5f	0.014113038
209	0xbc9ce848	-0.01915373
210	0x3c883385	0.016626129
211	0xbcad77c6	-0.021175276
212	0xbab1eae7	-0.0013574035
213	0xbdcd6ca9	-0.10030491
214	0x3d3971af	0.045274433
215	0xbbc9f33d	-0.0061630295
216	0x3e073536	0.13203892
217	0x3c9db3c1	0.019250752
218	0xbd0edb10	-0.034876883
219	0xbdfa7c55	-0.12230746
220	0x3da933c5	0.082618274
221	0x3d4f4132	0.050599284
222	0xbe011814	-0.12606841
223	0x3dfd1234	0.123569876
224	0x3cef48d8	0.02920954
225	0x3cccb9f8	0.02499102
226	0xbd197f31	-0.037474815
227	0xbd5a08c6	-0.053231023
228	0xbd874202	-0.06604387
229	0xbe0ab898	-0.1354698
230	0x3b99fcb4	0.004699314
231	0x3dff161d	0.1245539
232	0xbdbaad9b	-0.09115144
233	0x3dcd739e	0.10031818
234	0x3e13a816	0.14419588
235	0x3e08f24e	0.13373682
236	0xbd383206	-0.04496958
237	0xbda8f83c	-0.08250472
238	0xbde832bb	-0.11337801
239	0x3e2f7880	0.17135811
240	0x3d7d0890	0.061775744
241	0xbd622ac6	-0.055216573
242	0x3d96ddb2	0.07366504
243	0x3d4d5714	0.050131872
244	0xbd083b52	-0.033259697
245	0xbcf85130	-0.03031215
246	0xbe1a189d	-0.15048452
247	0x3deca65a	0.115551665
248	0xbc2d5bc0	-0.010580957
249	0x3e0a87f9	0.13528432
250	0xbc8f6d00	-0.01750803
251	0xbd74b4aa	-0.059742607
252	0xbc705b50	-0.014670208
253	0xbe195136	-0.14972386
254	0x3cead530	0.028666109
255	0x3d1dea34	0.03855343

hidden_layers.0.bias f4 [40]
0	0xbdfb8617	-0.12281435
1	0xbd11349a	-0.035450555
2	0xbd9ee101	-0.0775776
3	0x3e1e5731	0.15462948
4	0xbaea4d47	-0.0017875814
5	0x3e3c7c2c	0.18406743
6	0xbb9e6c80	-0.0048347116
7	0xbdcf5b96	-0.101248905
8	0xbdb75e41	-0.089535244
9	0x3d4455f0	0.04793352
10	0xbcc55f22	-0.024093214
11	0x3e0a1611	0.1348498
12	0xba135f28	-0.00056217844
13	0x3cc033a4	0.023462124
14	0xbd230bb1	-0.03980607
15	0xba368446	-0.00069624593
16	0xbc5d4710	-0.013505712
17	0x3e04b233	0.12958603
18	0x3d031240	0.031999826
19	0x3e203fd0	0.15649343
20	0xbd17ca10	-0.037057936
21	0xbc893059	-0.016746687
22	0x3c1c5004	0.009540562
23	0xbd4a99d6	-0.049463116
24	0xbd3fe9a4	-0.046853676
25	0x3d24e357	0.04025587
26	0xbd732122	-0.05935777
27	0xbd8208a8	-0.06349307
28	0x3e0f7d15	0.14012559
29	0xbe12128a	-0.14264885
30	0xbe0f4612	-0.13991573
31	0xbd004053	-0.031311344
32	0xbe129a6e	-0.14316723
33	0x3da0035b	0.0781314
34	0x3dc57460	0.096413374
35	0x3dd76692	0.105176106
36	0x3cc06904	0.023487575
37	0x3e034f1a	0.12823144
38	0x3e18e499	0.14930953
39	0x3e26fd36	0.1630753

hidden_layers.1.weight f4 [40, 40]
0	0xbaef4a80	-0.0018256456
1	0xbdec5f0e	-0.11541568
2	0xbdce024c	-0.10059032
3	0x3d4b158c	0.049581096
4	0xbdcb876a	-0.099379376
5	0x3d9533d2	0.072852746
6	0xbe048575	-0.12941535
7	0xbde0e794	-0.1098167
8	0x3c86bcf8	0.01644753
9	0xbc7328d0	-0.014841273
10	0x3da030b4	0.078217894
11	0xbde6adb0	-0.11263597
12	0xbd06d456	-0.032917343
13	0x3dd8bfdd	0.1058347
14	0xbcd7fc96	-0.02636556
15	0x3d42bb51	0.04754192
16	0x3e0e7571	0.13911988
17	0x3e0711d7	0.13190399
18	0x3e035947	0.12827025
19	0xbd5b6692	-0.053564616
20	0x3bcc5e0f	0.0062367986
21	0xbdc24e3c	-0.09487578
22	0x3d97f74f	0.07420217
23	0xbb67ef40	-0.0035390407
24	0x3dde2c0a	0.108482435
25	0x3d8384e8	0.06421834
26	0x3e0713f1	0.13191201
27	0xbdf2ec72	-0.118615046
28	0x3e059f6b	0.13049094
29	0x3d8a962b	0.067669235
30	0x3dd51622	0.10404612
31	0x3d1a032e	0.03760069
32	0xbde32cbc	-0.11092517
33	0x3a4db87d	0.000784762
34	0x3c9f950d	0.019480253
35	0xbdb734d1	-0.08945621
36	0xbdadc98e	-0.08485709
37	0xbe17d827	-0.1482855
38	0x3d585daa	0.0528237
39	0x3d44b7d8	0.04802689
40	0x3c899d48	0.01679863
41	0xbe238809	-0.15969862
42	0xbdca03b4	-0.098639876
43	0x3d75f8fb	0.0600519
44	0xbddc5b4a	-0.107595995
45	0x3d9f2c59	0.077721305
46	0x3e046ca5	0.1293207
47	0x3d500984	0.050790325
48	0xbdb83285	-0.08994011
49	0xbce99dc0	-0.028517604
50	0x3e1130ad	0.14178725
51	0xbdb9fa13	-0.09080901
52	0xbe1f27bd	-0.15542503
53	0x3c0b9034	0.008518267
54	0x3dcefb52	0.10106529
55	0xbe23ecc3	-0.16008286
56	0xbde2252e	-0.11042248
57	0xbe154665	-0.14577635
58	0x3de53890	0.11192429
59	0x3bdb5c06	0.0066943197
60	0x3db6e499	0.0893032
61	0xbe170d98	-0.1475128
62	0x3c73b022	0.014873536
63	0xbc335b80	-0.010947108
64	0xbe02ef0e	-0.12786505
65	0xbdbeb63a	-0.09312101
66	0x3d078ead	0.03309505
67	0x3d1ed36c	0.038775846
68	0x3e0a9b8f	0.13535903
69	0xbd48e2a4	-0.049044266
70	0x3d666024	0.05624403
71	0x3ceccd5e	0.02890652
72	0xbd93e9fb	-0.072223626
73	0xbc15c191	-0.009140388
74	0xbd58b4f4	-0.052906945
75	0xbdeda8ef	-0.11604487
76	0x3d82d694	0.06388584
77	0xbdecdfd4	-0.11566129
78	0xbdce2df1	-0.100673564
79	0xbda603d7	-0.08106201
80	0xbd1304b8	-0.035893172
81	0xbdc145fc	-0.094371766
82	0x3df101b2	0.117679015
83	0x3caf6880	0.021412134
84	0xbc001bb0	-0.007819101
85	0x3e01d779	0.12679853
86	0x3df11ada	0.117727
87	0x3cd00d68	0.025397018
88	0x3d88d786	0.06681733
89	0xbdd9d1e0	-0.106357336
90	0xbc1468f0	-0.009058222
91	0x3dd5b2fe	0.10434531
92	0xbdd81253	-0.1055037
93	0xbc9b5d48	-0.018965378
94	0x3de8972e	0.1135696
95	0x3e0f6487	0.14003192
96	0xbe0abdae	-0.1354892
97	0xbdbdee34	-0.09273949
98	0x3de756ce	0.112958536
99	0xbe184e0f	-0.14873527
100	0x3d492db8	0.049115866
101	0x3e18185f	0.14853047
102	0x3cda1420	0.026620924
103	0x3d6c4eb4	0.057692245
104	0xbe1a53d1	-0.15071036
105	0xbe166b86	-0.14689454
106	0x3de8d95a	0.113695815
107	0x3d9f8d62	0.077906385
108	0xbd194938	-0.037423342
109	0x3e120ad3	0.14261942
110	0x3de2afbe	0.110686764
111	0xbd9dd441	-0.077065
112	0xbcd61eb8	-0.026137695
113	0x3c022db0	0.007945463
114	0xbdfa2e82	-0.12215902
115	0x3e09e807	0.13467418
116	0xbd884da9	-0.066554375
117	0xbdc4ad50	-0.09603369
118	0x3dc7634e	0.09735738
119	0xbe035f6a	-0.12829366
120	0x3af1d500	0.001845032
121	0x3df78abe	0.1208701
122	0x3d8fba32	0.07017936
123	0xbdec7c28	-0.115471184
124	0xbdb3c8b8	-0.087785184
125	0xbd8a04c0	-0.06739187
126	0xbe210161	-0.15723182
127	0xbb858f00	-0.004075885
128	0x3d1dfbf4	0.03857036
129	0x3d45f900	0.048333168
130	0xbc9edb28	-0.019391611
131	0x3d1bb334	0.0380127
132	0xbd787cb6	-0.06066581
133	0x3c131940	0.008978188
134	0x3df7c05a	0.12097235
135	0x3d66563c	0.056234583
136	0x3d2d3cc4	0.04229428
137	0x3c147850	0.009061888
138	0xbb20adc0	-0.0024517626
139	0xbdf80b7a	-0.12111564
140	0x3dc02422	0.09381892
141	0x3d66ab34	0.056315616
142	0xbd1b74b6	-0.0379531
143	0xbdea8f1c	-0.11453077
144	0xbe0a9dac	-0.1353671
145	0x3e028427	0.12745725
146	0xbcd09178	-0.02545999
147	0x3cb3fb10	0.021970302
148	0x3d5641a0	0.05230868
149	0xbd463b44	-0.048396364
150	0xbc7541b0	-0.014969274
151	0xbcb31658	-0.02186124
152	0x3c534e40	0.012897074
153	0x3e11c93f	0.14236926
154	0xbb81e860	-0.003964469
155	0xbd0d030a	-0.034426726
156	0x3db8c2e0	0.090215445
157	0xbc9fa590	-0.019488126
158	0x3b8c6000	0.004283905
159	0xbe0698b6	-0.13144192
160	0x3c9fb768	0.019496635
161	0x3e098423	0.13429312
162	0xbe265fa0	-0.16247416
163	0xbca2a0ce	-0.019852068
164	0x3dba2e62	0.09090878
165	0x3e0709e1	0.13187362
166	0x3bf59ca0	0.007495478
167	0xbd3261d2	-0.04355032
168	0xbd6781ce	-0.056520276
169	0x3dc1e386	0.09467225
170	0x3dddf1d6	0.10837142
171	0xbe0475f5	-0.12935622
172	0x3d30d1e4	0.043168917
173	0x3dbbf958	0.09178418
174	0x3d3b95b4	0.045797065
175	0xbd84b9e6	-0.0648077
176	0x3d44d458	0.04805407
177	0xbe177953	-0.14792375
178	0xbdf87d81	-0.12133313
179	0xbd1bda51	-0.03805
180	0x3c84a07f	0.016189812
181	0x3d894238	0.06702083
182	0x3ddbe11c	0.107362956
183	0xbdd8603a	-0.10565229
184	0xbd17e2c6	-0.037081502
185	0x3dd431de	0.10361074
186	0x3de0bf1a	0.1097395
187	0x3e1d0b69	0.15336384
188	0x3e047943	0.12936883
189	0xbd912093	-0.07086291
190	0xbe0a1dbd	-0.13487907
191	0x3dccc201	0.09997941
192	0x3e043688	0.12911427
193	0x3d50497b	0.050851326
194	0x3dbd38bb	0.09239336
195	0xbb842a78	-0.004033383
196	0xbda3f74a	-0.08006151
197	0x3da24d8f	0.079249494
198	0x3e00502e	0.12530586
199	0x3d1f0046	0.03881862
200	0xbc561e00	-0.013068676
201	0x3dc5ac5c	0.096520156
202	0x3d6ede28	0.058317333
203	0xbded91ab	-0.116000496
204	0x3ded2a99	0.115803905
205	0xbd90b3ea	-0.07065566
206	0xbde271ca	-0.1105686
207	0xbdc5478a	-0.096327856
208	0x3caf7b70	0.021421164
209	0x3e11d51b	0.1424145
210	0xbe00c6d8	-0.12575853
211	0xbe115c46	-0.14195356
212	0xbd750b9b	-0.05982552
213	0xbd80dfd4	-0.06292692
214	0x3e03b630	0.12862468
215	0xbdd2884d	-0.102799036
216	0x3dea8186	0.11450486
217	0x3c8287a3	0.015933817
218	0x3ddebcde	0.10875867
219	0xbe054665	-0.13015135
220	0xbe25ec42	-0.16203406
221	0xbd848518	-0.06470698
222	0xbd5d9d79	-0.054105256
223	0xbdf24c20	-0.11830926
224	0x3e018f07	0.12652217
225	0xbd1b1cf4	-0.03786941
226	0x3dcbb10a	0.09945877
227	0x3de33422	0.11093928
228	0x3e0a19fb	0.13486473
229	0xbe13d0de	-0.14435145
230	0xbd8ae17f	-0.06781291
231	0xbdefc79f	-0.117079966
232	0xbd854dd4	-0.06508985
233	0x3e08de40	0.13366032
234	0x3d91c9a1	0.07118536
235	0x3d4604f9	0.048344586
236	0xbe198b5a	-0.14994565
237	0xbe085f04	-0.13317496
238	0x3d6d38aa	0.057915367
239	0xbdf8d62d	-0.12150226
240	0xbe0445cf	-0.12917255
241	0xbdc23221	-0.094822176
242	0x3d199dc0	0.037503958
243	0xbc167390	-0.009182826
244	0x3d3e0d5c	0.04639946
245	0x3da24ea8	0.07925159
246	0xbd7d35d4	-0.061818913
247	0x3a244400	0.00062662363
248	0x3d8d40ba	0.06897111
249	0x3d88115a	0.066439345
250	0x3da2a3a0	0.07941365
251	0x3c19b540	0.009381592
252	0xbe1c4cc6	-0.15263662
253	0x3aefd080	0.0018296391
254	0x3da73d7a	0.081660226
255	0xbd70b51c	-0.05876647

hidden_layers.1.bias f4 [40]
0	0xbd4e70df	-0.05040061
1	0x3d5a29d6	0.053262554
2	0xbdbd4a7f	-0.092427246
3	0x3c1562b0	0.009117767
4	0xbe234978	-0.15945995
5	0x3ddcd4b6	0.10782759
6	0xbe053d3e	-0.13011643
7	0xbddb8ba9	-0.107199974
8	0xbe12c63f	-0.14333437
9	0x3cc17a33	0.02361784
10	0x3d28f866	0.041252516
11	0xbdd732d8	-0.105077446
12	0xbd85c022	-0.06530787
13	0x3d02be64	0.031919852
14	0xbde45969	-0.11149866
15	0xbcd86d35	-0.026419261
16	0x3d93da3f	0.072193615
17	0x3ca60588	0.02026631
18	0x3ddb1cad	0.10698829
19	0x3d6267b7	0.05527469
20	0xbdc0c993	-0.09413447
21	0xbe00008e	-0.12500212
22	0x3d9c2a24	0.07625225
23	0xbda9472c	-0.08265528
24	0x3e399e63	0.18126826
25	0xbdc5f252	-0.096653596
26	0x3d7c215f	0.061555263
27	0xbdbb7e00	-0.09154892
28	0xbe13c6c2	-0.14431289
29	0x3d30c09a	0.04315243
30	0x3da52793	0.08064189
31	0xbd117a09	-0.035516772
32	0xbd705b33	-0.058680724
33	0x3e33adcc	0.17546767
34	0x3d504a68	0.05085221
35	0xbda5c6db	-0.08094569
36	0xbdea6572	-0.114451304
37	0x3ddba8aa	0.107255295
38	0xbe0de114	-0.13855392
39	0xbe0b3359	-0.13593806

hidden_layers.2.weight f4 [40, 40]
0	0xbded4475	-0.11585323
1	0x3da9e7da	0.08296175
2	0x3e0651d3	0.13117151
3	0x3c905a20	0.0176211
4	0x3dbcb3c7	0.09213977
5	0xbd8d9b74	-0.06914416
6	0xbe1765e6	-0.14784965
7	0x3d62d4a2	0.055378564
8	0xbe1f1ffc	-0.15539545
9	0x3ddc7216	0.10763948
10	0x3e06ed39	0.13176431
11	0x3dbec3f2	0.09314717
12	0x3dd5e4a2	0.10443999
13	0xbd8fedce	-0.070277795
14	0x3da703da	0.081550315
15	0xbcc6740d	-0.02422526
16	0x3dceb8a7	0.100938134
17	0x3c87b5f0	0.016566247
18	0x3d612166	0.05496349
19	0xbd1027a6	-0.03519406
20	0xbe133aac	-0.1437785
21	0xbde529eb	-0.11189636
22	0xbd3c2466	-0.04593315
23	0x3e043673	0.12911396
24	0xbd229c39	-0.039699767
25	0x3dd1fe8e	0.102536306
26	0x3e01c2cc	0.12671965
27	0x3dc36546	0.09540801
28	0xbd9e2a1a	-0.07722874
29	0xbe10bdd0	-0.14134908
30	0xbcd20c73	-0.025640702
31	0xbe0e8ede	-0.13921687
32	0x3dbd59fe	0.0924568
33	0x3e14ecc6	0.14543447
34	0xbde17bb1	-0.110099204
35	0x3d80f6e0	0.06297088
36	0xbdeee309	-0.11664397
37	0xbb8916c8	-0.004183624
38	0xbdf5c34b	-0.1200014
39	0xbcdb369f	-0.026759444
40	0x3e1f922f	0.15583108
41	0xbd5232ae	-0.051317863
42	0xbd850784	-0.06495574
43	0x3e089f29	0.13341965
44	0xbd8a3251	-0.06747878
45	0x3d9b0f68	0.07571298
46	0xbe0e7ea9	-0.13915505
47	0x3ce02190	0.027359754
48	0x3b89d600	0.004206419
49	0xbe1a31bd	-0.15058036
50	0xbd0b686a	-0.034035124
51	0xbe19063f	-0.14943789
52	0x3df98b96	0.12184827
53	0x3d6aecd4	0.057354763
54	0x3e00d28d	0.12580319
55	0x3d69891c	0.057015523
56	0x3c8d7ab0	0.017270416
57	0xbd32d14a	-0.043656625
58	0x3b511640	0.0031904131
59	0xbe01fd23	-0.1269422
60	0xbda38ea2	-0.079861894
61	0x3e142eed	0.14471026
62	0xbd75d6ae	-0.060019188
63	0x3cbf1830	0.023326963
64	0xbdbddf0e	-0.0927106
65	0xbdc1d8fb	-0.09465214
66	0x3deafd1e	0.114740595
67	0x3dfa5aea	0.12224372
68	0xbd1d8850	-0.038460076
69	0x3ddfa93e	0.10920952
70	0xbca1bfb8	-0.019744739
71	0x3ca82fc8	0.020530596
72	0xbced0f58	-0.02893798
73	0xbba5ee20	-0.005063787
74	0xbdc4a012	-0.096008435
75	0xbd78854a	-0.06067399
76	0xbd51df0a	-0.051238097
77	0x3d03d9f4	0.03219028
78	0xbe0513b6	-0.129958
79	0xbd8d9c8c	-0.069146246
80	0xbda54784	-0.08070281
81	0x3d8e7a18	0.06956881
82	0xbdc2baae	-0.095082626
83	0xbca8df30	-0.020614237
84	0x3d35602f	0.04428118
85	0xbc858389	-0.016298072
86	0xbd88796b	-0.06663784
87	0xbdd13718	-0.102155864
88	0x3c69ca50	0.014269426
89	0x3e10d30c	0.14143008
90	0xbe19122b	-0.14948337
91	0x3d8d920b	0.06912621
92	0xbe0ef445	-0.13960369
93	0xbe18ce44	-0.14922434
94	0x3d9e9b9a	0.077445224
95	0xbce45978	-0.027874693
96	0x3e0d88e6	0.13821754
97	0x3dddbd8e	0.1082717
98	0xbbc6f987	-0.0060722264
99	0x3b121a66	0.0022293567
100	0x3d59cc39	0.053173278
101	0x3d180b5c	0.03712021
102	0x3dcbf327	0.09958487
103	0xbce5ab00	-0.02803564
104	0x3ca873c9	0.020563023
105	0xbe1c2961	-0.1525016
106	0x3c26dedf	0.010184973
107	0x3c36579b	0.011129285
108	0x3cd49cc9	0.025953667
109	0xbdd47fae	-0.103759155
110	0xbdb17c70	-0.08666313
111	0xbc691023	-0.014225039
112	0x3dae3117	0.08505457
113	0x3dd1c63c	0.10242888
114	0x3ca7c5a8	0.020479992
115	0x3d83de86	0.06438927
116	0x3e0f11bc	0.13971609
117	0xbd7000ae	-0.0585944
118	0xbe03e62b	-0.12880771
119	0xbde69c59	-0.1126029
120	0xbd211d40	-0.039334536
121	0xbc059440	-0.008153021
122	0xbe20d855	-0.15707524
123	0xbd7f7dc8	-0.062375814
124	0xbdfadf68	-0.122496426
125	0x3cca6d80	0.024710417
126	0xbe049a54	-0.12949497
127	0x3ccf23c0	0.025285602
128	0x3dccf776	0.10008137
129	0x3b22c5c0	0.0024837106
130	0xbb8b19c0	-0.004245013
131	0x3ddd8012	0.10815443
132	0x3da455fc	0.08024213
133	0x3d206034	0.039154246
134	0xbe02fb6c	-0.12791222
135	0x3e1a5a8f	0.15073608
136	0xbd6d5472	-0.05794186
137	0xbd0fdfaa	-0.035125412
138	0xbdba40e4	-0.09094408
139	0x3d855068	0.06509477
140	0xba8dc500	-0.0010816157
141	0x3d78c118	0.060731024
142	0xbd9206a8	-0.07130176
143	0xbdaf7a3b	-0.085682355
144	0x3d3ef8a8	0.046623856
145	0x3daf45a2	0.08558203
146	0x3e051ce9	0.1299931
147	0x3d4d8a10	0.050180495
148	0x3dcddbce	0.1005169
149	0x3b0e2c80	0.0021694005
150	0xbddca6ae	-0.10773979
151	0xbd9c63a1	-0.0763619
152	0xbe051a34	-0.12998277
153	0xbd2f2928	-0.04276386
154	0x3e20f8cf	0.15719913
155	0xbd4780cc	-0.048706815
156	0xbce7bef0	-0.028289288
157	0xba8d4200	-0.0010777116
158	0xbe138e52	-0.1440976
159	0xbcac8ef8	-0.021064267
160	0x3dab884e	0.083756074
161	0x3df60216	0.120121166
162	0xbe160c53	-0.14653139
163	0x3d4eeef4	0.050520852
164	0xbd80a84f	-0.06282102
165	0xbcd93c10	-0.026517898
166	0xbd203b8c	-0.03911929
167	0xbc39ec60	-0.01134786
168	0xbd047144	-0.03233458
169	0x3df29322	0.118444696
170	0xbdc489b2	-0.09596576
171	0xbe042485	-0.12904556
172	0xbd99b57a	-0.07505317
173	0x3d585cbc	0.052822813
174	0xbd1744cc	-0.036930844
175	0x3d28c3f4	0.0412025
176	0xbdd09432	-0.10184516
177	0xbdb0592e	-0.0861076
178	0x3d79d200	0.060991287
179	0xbc924a88	-0.017857805
180	0x3e007b49	0.1254703
181	0x3ddeacfe	0.108728394
182	0xbda8f871	-0.082505114
183	0xbca89d68	-0.02058287
184	0xbdb1f5bd	-0.08689449
185	0xbd5aa2e4	-0.053378
186	0x3e1bb4f9	0.15205754
187	0xbdf4850f	-0.119394414
188	0xbdee7b3d	-0.116445996
189	0x3cc83fd0	0.02444449
190	0x3da30450	0.07959807
191	0x3cc549c0	0.024083018
192	0xbd4eaaa4	-0.050455704
193	0xbe0cb0b2	-0.13739279
194	0xbddca674	-0.10773936
195	0xbc69a610	-0.014260784
196	0x3d34a058	0.04409823
197	0xbdd30542	-0.10303737
198	0xbc86a690	-0.016436845
199	0x3de953da	0.113929465
200	0xbd872d3b	-0.06600424
201	0xbdc690f7	-0.096956186
202	0xbd54f458	-0.051990837
203	0xbd8b5158	-0.068026245
204	0xbd810a2b	-0.063007675
205	0x3d1da4c6	0.03848722
206	0xbe1096a3	-0.14119963
207	0x3ded63a9	0.11591274
208	0x3cc04a88	0.02347304
209	0x3d0e754e	0.03477984
210	0xbd56bbc2	-0.052425154
211	0xbde7346c	-0.112892956
212	0xbcb42a88	-0.021992937
213	0x3dd3e6c8	0.103467524
214	0x3e1b0be1	0.1514125
215	0x3c9fd7a6	0.019512009
216	0x3e2e389d	0.17013784
217	0x3e200611	0.15627314
218	0x3d9885e6	0.07447414
219	0xbd897b22	-0.06712939
220	0xbd632f3f	-0.05546498
221	0x3dffe9b9	0.12495751
222	0xbd6ea021	-0.05825818
223	0x3e05606d	0.13025065
224	0x3d7d7062	0.061874755
225	0x3e000405	0.12501533
226	0xbd8fe8b5	-0.07026807
227	0x3cea08b3	0.028568601
228	0x3e1595c3	0.14607911
229	0x3d7fefc7	0.06248453
230	0xbdf45527	-0.11930304
231	0xbdc360ee	-0.09539972
232	0xbde4a393	-0.11164012
233	0xbdf26622	-0.118358865
234	0x3da5cfbc	0.08096263
235	0x3e03efdc	0.12884468
236	0xbdee0b99	-0.11623306
237	0xbda42bd3	-0.08016171
238	0x3bd29a40	0.0064270794
239	0xbdfab7c1	-0.122420795
240	0xbdba06f7	-0.0908336
241	0xbdc81407	-0.09769445
242	0x3e0188c9	0.12649836
243	0x3c516df0	0.012782559
244	0xbda6dcc0	-0.081475735
245	0xbd1bcc50	-0.038036644
246	0xbe015c04	-0.12632757
247	0xba7902ba	-0.00094990025
248	0x3c342930	0.010996148
249	0x3da6cf68	0.08145028
250	0x3db76d30	0.08956373
251	0xbca547b6	-0.020175796
252	0x3dfa193e	0.12211846
253	0x3e0c290d	0.13687535
254	0xbbb10de0	-0.0054032654
255	0x3b87d8c0	0.0041457117

hidden_layers.2.bias f4 [40]
0	0xbd925e6e	-0.07146917
1	0xbe194a30	-0.14969707
2	0x3df43007	0.11923223
3	0xbd80aecf	-0.06283342
4	0xbdd979e8	-0.10618955
5	0x3e409362	0.18806222
6	0x3da2b201	0.07944108
7	0x3df5b233	0.119968794
8	0x3d653195	0.05595549
9	0xbdfe3f02	-0.124143615
10	0xbdedf2ea	-0.11618598
11	0xbe136658	-0.1439451
12	0xbd4f84a5	-0.05066361
13	0xbdc9c7ef	-0.098525874
14	0x3db1e240	0.08685732
15	0xbd0cb7ea	-0.03435508
16	0xbda3bc0f	-0.07994854
17	0xbe1f179f	-0.15536354
18	0x3d1eb510	0.038746893
19	0x3df3e4bc	0.11908862
20	0x3e10d638	0.14144218
21	0x3d5da785	0.054114837
22	0xbdf6fd89	-0.12060077
23	0x3ddf83fe	0.109138474
24	0xbcbf00eb	-0.023315867
25	0x3de99f89	0.11407382
26	0x3e05b971	0.13059022
27	0x3daf4d62	0.085596815
28	0x3dafa1f5	0.08575813
29	0x3cbbfb16	0.022946876
30	0x3da34ad7	0.07973259
31	0x3e248b91	0.16068865
32	0x3c1b237a	0.0094689075
33	0x3d2f139b	0.042743307
34	0xbd870ba6	-0.06594019
35	0xb97ac800	-0.00023916364
36	0x3d2c99cf	0.04213887
37	0xbd9dba8f	-0.07701599
38	0x3dc1bc96	0.09459798
39	0x3da5de56	0.08099048

hidden_layers.3.weight f4 [40, 40]
0	0x3e041d25	0.12901743
1	0xbdec2f39	-0.115324445
2	0x3dfcf29e	0.12350963
3	0x3dfb7b22	0.12279345
4	0x3e219fa1	0.1578355
5	0xbd82df7e	-0.06390284
6	0xbd0a9a84	-0.033838764
7	0xbe14696b	-0.14493339
8	0xbe1e46e9	-0.15456738
9	0xbe0fd36e	-0.14045498
10	0x3cf569f8	0.029957756
11	0xbca66d28	-0.020315722
12	0x3e1a9833	0.15097122
13	0x3db13c76	0.0865411
14	0x3cb3e470	0.021959513
15	0xbe07515a	-0.13214627
16	0x3d641214	0.055681303
17	0xbdf08038	-0.11743206
18	0x3d975dbe	0.07390927
19	0xbd917715	-0.07102791
20	0x3d452e38	0.04813978
21	0x3d5528a4	0.05204071
22	0x3c9aeec8	0.018912688
23	0xbb6107c0	-0.0034336895
24	0xbd819aa3	-0.06328323
25	0xbd8313a6	-0.06400232
26	0x3d8a8b44	0.06764844
27	0x3e13eed5	0.14446576
28	0xbdbb6b52	-0.09151329
29	0xbcf25f68	-0.029586509
30	0x3e0192e7	0.12653695
31	0x3dbe8cae	0.09304176
32	0xbdae41d8	-0.085086524
33	0xbdb81320	-0.08988023
34	0xbde2971a	-0.110639766
35	0xbd8bf8a8	-0.06834537
36	0xbe0d19cb	-0.1377937
37	0xbdfe356e	-0.12412535
38	0xbe12c2cb	-0.1433212
39	0x3d27a244	0.040926233
40	0x3dc974d2	0.09836735
41	0xbd827adf	-0.06371092
42	0x3e21c879	0.1579913
43	0xbe0e195c	-0.13876861
44	0xbe1d79b8	-0.15378463
45	0xbdf173bc	-0.11789653
46	0xbc8c9a20	-0.017163336
47	0xbd9117db	-0.07084628
48	0xbc644640	-0.0139327645
49	0x3d8b4b0e	0.06801425
50	0xbd5b88c4	-0.053597227
51	0xbcdfc700	-0.02731657
52	0x3e012ff1	0.12615944
53	0xbce21490	-0.027597696
54	0x3d3e7a68	0.046503454
55	0x3dd1e702	0.10249139
56	0x39706000	0.00022923946
57	0x3d1dc8b8	0.0385215
58	0x3e18889b	0.14895861
59	0xbe01faea	-0.12693372
60	0xbd96d021	-0.07363916
61	0x3d269224	0.040666714
62	0xbe18957a	-0.14900771
63	0x3d909b22	0.07060839
64	0x3cef6a70	0.029225558
65	0x3cbf9120	0.02338463
66	0xbad06080	-0.00158979
67	0xbda7e2d5	-0.08197562
68	0xbcc691b0	-0.024239391
69	0x3e197a4f	0.14988063
70	0x3d8b4900	0.06801033
71	0xbdd4cef8	-0.10391039
72	0xbd2a3b08	-0.041560203
73	0xbcd9e1a0	-0.026596844
74	0x3e089453	0.13337831
75	0x3d1b9f70	0.03799385
76	0xbd0ab296	-0.03386172
77	0xbe11a4c6	-0.14223012
78	0x3dd2356a	0.10264094
79	0x3d8682ec	0.0656794
80	0x3dc2c38e	0.09509955
81	0xbd45bbd8	-0.048274845
82	0x3c8333b9	0.016015874
83	0x3c1e2560	0.009652466
84	0x3e190af3	0.14945583
85	0xbd4cbe39	-0.049986098
86	0x3c768138	0.015045457
87	0xbd4bf547	-0.04979446
88	0xbdd983d9	-0.10620851
89	0xbde36cee	-0.11104761
90	0x3db48282	0.08813955
91	0x3dcb3bbe	0.09923504
92	0x3b503b97	0.00317738
93	0x3c9ea6c8	0.019366637
94	0xbe2b976f	-0.16756986
95	0x3d2877a4	0.041129723
96	0xbdfdc790	-0.12391579
97	0x3dadefac	0.084929794
98	0xbddcb48e	-0.107766256
99	0x3d35b676	0.04436346
100	0xbd8d55de	-0.069011435
101	0xbdb23e4e	-0.0870329
102	0x3dc8b902	0.098009124
103	0x3d268f05	0.040663738
104	0x3d653f30	0.055968463
105	0x3d9442dc	0.07239315
106	0xbcc8a35c	-0.024491958
107	0x3d1604ea	0.03662578
108	0xbdf25f50	-0.11834586
109	0xbde261b1	-0.110537894
110	0x3dfdd458	0.12394017
111	0xbe032c19	-0.1280979
112	0xbdc24862	-0.09486462
113	0xbe2b5721	-0.16732456
114	0x3c84e2e8	0.016221479
115	0x3da0b800	0.07847595
116	0xbe2a3642	-0.1662226
117	0xbdf25f51	-0.118345864
118	0xbe201597	-0.15633236
119	0x3ddbc28c	0.10730466
120	0x3cf40de6	0.029791784
121	0xbd097620	-0.03355992
122	0x3d3edb1c	0.046595678
123	0xbde5dfd8	-0.112243354
124	0xbade6f00	-0.0016970336
125	0xbe06d9d4	-0.13169032
126	0x3da84b55	0.082174934
127	0xbdd0d5ec	-0.10197052
128	0x3c241324	0.010014329
129	0xbacef100	-0.0015788376
130	0xbda377b2	-0.079818144
131	0x3e00f12f	0.12592004
132	0x3d9c8ce4	0.0764406
133	0xbc8cbd88	-0.01718022
134	0xbc4a7904	-0.012357954
135	0x3cefca88	0.02927138
136	0xbdd28f7e	-0.10281275
137	0x3e01a17f	0.12659262
138	0x3dda7246	0.10666327
139	0x3d11550f	0.03548151
140	0x3d179be2	0.037013896
141	0xbd057bd2	-0.032588787
142	0x3d8edc78	0.06975645
143	0x3d9559fc	0.07292554
144	0xbde002e8	-0.10938054
145	0xbe365498	-0.17805707
146	0xbc360bd6	-0.01111122
147	0x3db7393f	0.08946466
148	0xbdb0501b	-0.08609029
149	0xbe1e15ef	-0.15438055
150	0xbe45dc5d	-0.19322343
151	0x3dcd483c	0.10023543
152	0x3dbae631	0.09125937
153	0x3d940e62	0.07229306
154	0xbcafe078	-0.02146934
155	0x3c147560	0.0090611875
156	0xbd8967e8	-0.06709272
157	0x3b971160	0.0046102256
158	0xbd2d6747	-0.04233482
159	0x3de477e1	0.111556776
160	0xbdf68c68	-0.12038499
161	0x3e18627f	0.14881323
162	0x3d6a2f93	0.057174277
163	0x3df61262	0.12015225
164	0x3bf5c040	0.0074997246
165	0x3d98bd62	0.07457997
166	0xbdf229bb	-0.11824366
167	0xbd02ac64	-0.031902686
168	0xbe1546f1	-0.14577843
169	0xbe0ec01f	-0.13940476
170	0xbc6c9d20	-0.014441758
171	0x3d3dcc58	0.046337456
172	0xbd94b2b9	-0.07260651
173	0x3d73d65c	0.0595306
174	0xbdc9b364	-0.09848669
175	0x3e1c96b9	0.15291871
176	0xbe06578a	-0.13119331
177	0xbd3e6e7c	-0.046492085
178	0xbcaef3f0	-0.021356553
179	0x3d936bff	0.07198333
180	0xbdf33657	-0.11875599
181	0x3d8cbe19	0.06872196
182	0x3d300764	0.0429758
183	0x3d127cf1	0.035763685
184	0x3d36b803	0.04460908
185	0xbda912b7	-0.08255523
186	0x3dbfbab3	0.09361782
187	0xbdb6f769	-0.089339085
188	0xbd1d3496	-0.038380228
189	0x3bdafb50	0.006682791
190	0x3ce95c78	0.028486475
191	0xbe0e369a	-0.13888016
192	0x3d496f22	0.04917825
193	0x3d8fef9e	0.07028125
194	0x3dc33572	0.09531678
195	0xbd6d919e	-0.0580002
196	0x3d82f658	0.063946426
197	0xbd65ae10	-0.056074202
198	0x3bfbe153	0.007686773
199	0xbe0e0e76	-0.13872704
200	0x3e0ccfbb	0.13751118
201	0x3dae01a6	0.08496408
202	0xbdf55500	-0.11979103
203	0x3dd3a0aa	0.103333786
204	0xbc0398c0	-0.008032024
205	0x3d0c53d0	0.034259617
206	0xbdad3311	-0.08457006
207	0x3e03de35	0.12877734
208	0x3d437d88	0.047727138
209	0xbe1bde09	-0.15221418
210	0xbd922543	-0.07136013
211	0x3dff66d2	0.12470783
212	0x3d82a9f4	0.06380072
213	0xbca17a20	-0.019711554
214	0xbd86e2b8	-0.06586212
215	0x3dfa446e	0.12220083
216	0x3d91974c	0.07108936
217	0x3e1a85e7	0.15090142
218	0x3d2674d0	0.040638745
219	0xbd5acfe4	-0.053420916
220	0xbb046e40	-0.0020207316
221	0xbdf9e328	-0.1220153
222	0x3e166e51	0.1469052
223	0x3cd45690	0.025920182
224	0xbdcf6aec	-0.101278156
225	0x3d8b6284	0.068059
226	0x3e0e6b4d	0.1390812
227	0x3d28da4c	0.04122381
228	0x3dd7d3d2	0.105384484
229	0xbd799466	-0.06093254
230	0xbe1503a9	-0.14552177
231	0xbde181b6	-0.110110685
232	0xbd1994da	-0.03749547
233	0x3968ac00	0.00022189319
234	0x3df13cb2	0.11779155
235	0xbd16fc94	-0.03686197
236	0x3d9dfab2	0.07713832
237	0x3d87968a	0.0662051
238	0x3dd1c576	0.10242741
239	0xbdc9ee9a	-0.09859963
240	0xbe07bc54	-0.13255435
241	0x3c301ed0	0.010749534
242	0xbdc05d40	-0.09392786
243	0xbda0a208	-0.07843405
244	0x3d1ed6a4	0.038778916
245	0x3de5c8f6	0.11219971
246	0xbe0d9a52	-0.138284
247	0x3dcf854a	0.10132845
248	0xbca653d8	-0.020303652
249	0x3dcca37a	0.09992118
250	0x3d954f18	0.072904766
251	0xbe1869c6	-0.148841
252	0xbc8d84b8	-0.0172752
253	0x3d9f162c	0.07767901
254	0x3e1a1fad	0.15051146
255	0x3d16f6b4	0.03685637

hidden_layers.3.bias f4 [40]
0	0xbe18cdd4	-0.14922267
1	0xbe15fb15	-0.14646561
2	0x3cf0442a	0.029329378
3	0x3c9ec530	0.019381136
4	0x3ce3a5dc	0.027789049
5	0xbb97a960	-0.0046283454
6	0xbd439194	-0.047746256
7	0xbe1af2b9	-0.15131654
8	0x3c3f2690	0.011666909
9	0x3bcc6119	0.006237161
10	0x3d117732	0.035514064
11	0x3dd44e7a	0.10366531
12	0xbd69a0fc	-0.057038292
13	0x3c26c01a	0.0101776365
14	0xbe12cb6d	-0.14335413
15	0x3df7c253	0.12097611
16	0x3cd41610	0.025889426
17	0xbe0920b2	-0.13391379
18	0x3d8f674b	0.070021234
19	0x3dad5ff6	0.08465569
20	0xbe1aba44	-0.15110117
21	0x3d7413db	0.05958925
22	0x3d98e94c	0.07466373
23	0xbbbd6503	-0.005779864
24	0xbdc6ebf2	-0.09712972
25	0x3db49137	0.0881676
26	0x3dd32c0b	0.10311135
27	0xbcf3513d	-0.029701823
28	0xbe19ccd5	-0.15019543
29	0x3baa7626	0.0052020727
30	0x3d9399af	0.07207047
31	0x3cd60403	0.02612496
32	0xbd932f52	-0.0718676
33	0xbdd7be35	-0.10534326
34	0x3d02a352	0.031894036
35	0x3da9b4f3	0.082864664
36	0xbc302df0	-0.01075314
37	0x3e3d069b	0.18459551
38	0xbda7500b	-0.08169564
39	0x3c8a0cb8	0.016851768

output_layer1.weight f4 [2, 40]
0	0x3e1403a7	0.14454518
1	0x3ddecf0e	0.10879336
2	0xbd1a602f	-0.037689384
3	0x3c97c760	0.018527687
4	0x3dd30333	0.103033446
5	0x3e1e139b	0.15437166
6	0x3c68d080	0.0142098665
7	0xbbcd9d00	-0.0062748194
8	0x3d01b398	0.031665415
9	0xbc75f4b4	-0.015011955
10	0x3e2e45db	0.17018835
11	0x3e2b27f2	0.16714457
12	0xbdfc00ee	-0.12304865
13	0xbcb4ab49	-0.022054331
14	0x3df70b8e	0.12062751
15	0xbe104932	-0.14090422
16	0x3dc07186	0.09396653
17	0xb8c56000	-9.4115734e-05
18	0xbdd26e53	-0.10274949
19	0x3ca1f0c3	0.019768124
20	0xbdc8fae1	-0.09813476
21	0xbce27b94	-0.027646817
22	0xbd3e896b	-0.04651777
23	0xbd2c3acb	-0.042048257
24	0xbde02756	-0.10945003
25	0x3c692def	0.014232143
26	0x3d12edce	0.03587132
27	0x3d8a6946	0.067583606
28	0x3d94262c	0.07233843
29	0xbe118759	-0.14211787
30	0x3e2c5b3c	0.16831678
31	0x3d895b5d	0.06706879
32	0x3c428374	0.011872161
33	0x3df5eea6	0.12008409
34	0x3d126c04	0.035747543
35	0x3e256478	0.16151607
36	0x3d8c98c0	0.06865072
37	0xbd100023	-0.03515638
38	0x3d6f6564	0.058446303
39	0xbd996578	-0.07490057
40	0xbc91ee50	-0.017813832
41	0xbddccf23	-0.10781696
42	0x3c93541a	0.017984439
43	0xbda97e72	-0.08276071
44	0x3d98cc83	0.074608825
45	0x3dbbfa4e	0.09178601
46	0x3c7868a0	0.015161663
47	0xbd96ee10	-0.073696256
48	0xbc95cbb0	-0.018285602
49	0x3d9ca562	0.07648732
50	0x3dfeffca	0.12451132
51	0x3de64544	0.1124368
52	0x3dc7419d	0.097293116
53	0x3df1e957	0.11812084
54	0xbdedbeb2	-0.11608638
55	0xbc4419e0	-0.01196906
56	0xbdab3a3d	-0.083607174
57	0x3bd2dbc0	0.0064348876
58	0xbda9e7ff	-0.08296203
59	0x3cf7bfd0	0.03024283
60	0x3e20339d	0.15644689
61	0xbcd97522	-0.026545111
62	0x3e021f11	0.12707163
63	0xbdbf082a	-0.09327729
64	0xbc0dc33f	-0.008652507
65	0x3dd7e2f0	0.10541332
66	0x3dbd7bb6	0.092521116
67	0xbdb92648	-0.09040505
68	0xbe1d910c	-0.15387362
69	0xbd847dc1	-0.06469298
70	0x3e0008be	0.12503335
71	0xbd038b1b	-0.032115083
72	0xbd623fd6	-0.05523666
73	0x3d4aab58	0.049479812
74	0xbd5defb9	-0.054183695
75	0xbd98de0f	-0.07464229
76	0xbdcc0777	-0.09962361
77	0xbdc38905	-0.09547619
78	0x3e1de917	0.15420948
79	0x3d9306a2	0.071789995

output_layer1.bias f4 [2]
0	0xbdc16979	-0.094439454
1	0x3b70db02	0.0036751633

output_layer2.weight f4 [1, 40]
0	0xbd5d3538	-0.05400583
1	0xbe1deb06	-0.15421686
2	0xbd2582d7	-0.04040798
3	0xbdfcecce	-0.123498544
4	0xbce96df1	-0.028494807
5	0x3c18cac0	0.009325683
6	0xbc1e0e80	-0.009647012
7	0xbccea838	-0.025226697
8	0x3caacae8	0.020848706
9	0x3c877c4c	0.016538762
10	0x3dc4c2dd	0.0960748
11	0xbdaaed27	-0.083460145
12	0xbe138017	-0.14404331
13	0xbdcf2bca	-0.10115774
14	0x3d5847c0	0.0528028
15	0x3da35a85	0.079762496
16	0x3e206637	0.15663992
17	0x3d97af8c	0.0740653
18	0x3de7140c	0.112831205
19	0xbdc67b57	-0.09691494
20	0x3cb1d238	0.021706685
21	0x3d53589b	0.051598173
22	0xbdc92aea	-0.09822638
23	0xbc881a2a	-0.016614038
24	0xbdd4c270	-0.103886485
25	0xbd8555be	-0.06510495
26	0xbde3b5c5	-0.11118654
27	0xbdf6d972	-0.12053193
28	0x3e0f5559	0.13997401
29	0x3d91c461	0.071175344
30	0xbdaf6687	-0.085644774
31	0x3b9e5b3c	0.0048326533
32	0x3caad56b	0.020853719
33	0x3dacc6ba	0.084363416
34	0xbd31bf11	-0.043395106
35	0x3e330a45	0.17484386
36	0xbdcea7a4	-0.10090569
37	0x3e28e5a8	0.16493857
38	0xbe0b6142	-0.1361132
39	0xbc86a1a8	-0.016434506
