src/models/prediction_90.pt (torch, 38168 bytes, 13 tensors)

input_layer.weight f4 [40, 40]
0.019773157 -0.13111722 -0.11462189 -0.055082567 -0.11379227 -0.022533815 -0.029333875 0.123776995
-0.03845013 0.010298212 -0.043651305 -0.13776687 0.02798361 -0.11157879 0.14889589 0.13394664
-0.027545312 -0.1615614 0.042925756 -0.034963038 0.04027997 -0.10061529 0.095600575 0.11409348
-0.035485793 0.1419122 -0.022718875 0.15778284 0.101746604 0.029065048 -0.17871588 -0.17477871
-0.13123299 -0.17748055 -0.01645091 0.17665699 -0.07195262 0.027511407 -0.11725246 -0.038306072
0.06378208 -0.01005584 0.10091545 0.14354272 0.044616118 0.0584324 -0.05045118 0.011395872
0.15003408 -0.14631546 0.05848886 -0.064595826 0.071476415 0.007830724 0.015773922 0.075184524
0.011659056 -0.08759398 -0.13977781 -0.13628903 -0.05972988 -0.07622041 -0.05261665 0.12904926
-0.030345455 0.15414156 0.02073276 -0.095302455 -0.107808694 0.012074292 0.096703336 -0.06302553
0.055222422 0.06810507 0.07554938 0.04152292 0.14239399 0.07177889 -0.15455134 -0.08675629
-0.107587464 -0.0797967 0.07942874 -0.006059836 0.11693066 -0.040912963 0.056089345 -0.1445367
-0.13608716 0.053485695 0.15750948 0.022481333 0.15901339 -0.11750076 -0.13660598 0.02664826
0.02367702 -0.06272988 -0.056136034 0.15006709 -0.107662566 -0.09155621 -0.0041124336 0.15814793
0.00517289 -0.10263006 0.05960419 -0.060522106 -0.08812766 -0.1424401 0.09318193 0.1339284
-0.03537956 -0.06281727 0.09099429 0.01488435 -0.103886224 -0.015683211 0.05060155 0.039789584
-0.14966764 0.12490536 -0.102821484 0.10638462 0.023787662 -0.1107767 -0.119307615 -0.05459027
0.04589431 -0.06828656 0.1429661 0.13760744 0.1497996 -0.051372208 -0.103396535 -0.08510125
-0.06130331 0.13891776 0.009845525 0.09403576 0.12579279 -0.13645 -0.14340578 0.10634448
0.12321551 -0.0072602034 0.059272707 -0.017767057 0.016274258 -0.056118064 0.14298789 -0.014282346
-0.003104359 0.10334642 -0.14125305 0.043629542 0.0060076118 -0.0707934 0.052683145 0.09209795
0.086803 0.00918579 0.14729057 -0.15933442 -0.11682064 -0.065498635 -0.09460769 -0.101799
0.0040758085 0.023826754 -0.015735928 0.089624055 -0.011802831 0.026013738 -0.03047719 -0.141555
0.03969025 0.033704188 0.15565388 0.07251029 0.14952649 0.08683705 0.14063297 0.011269314
-0.15001681 0.07213399 -0.043122403 0.12126771 0.1383795 -0.1492439 -0.15460865 -0.13870406
-0.06911691 0.07615303 -0.035283938 0.0810452 -0.08831465 0.011560577 0.05755205 -0.09143824
-0.06405424 -0.087554924 0.012544809 0.088515215 0.0032731434 -0.05281715 0.10490208 0.08221165
0.17606361 -0.03451531 -0.08144212 -0.09994471 -0.09239048 -0.01570439 -0.08750045 -0.1836495
0.008824916 -0.04502286 -0.11662155 -0.051619455 0.09881184 -0.060344394 0.09874831 -0.041401345
0.12981291 -0.026324166 0.18878202 0.051855545 -0.0864322 0.03968888 0.07476639 0.0070844805
-0.035914384 -0.06876233 -0.027753007 0.19062127 0.10169838 0.06919284 0.18716569 -0.12966481
0.06146498 -0.10265836 -0.077881694 -0.09350567 -0.06587465 0.032810703 0.09695186 0.14053266
0.027287424 0.06820291 -0.14816494 -0.13748364 -0.14383951 -0.05195842 0.111215964 0.062254563
00000000: 51fb a13c 9843 06be e2be eabd 429e 61bd
00000010: ec0b e9bd d698 b8bc 984d f0bc cb7e fd3d
00000020: e27d 1dbd d5b9 283c b6cb 32bd c212 0dbe
00000030: e23d e53c 6c83 e4bd 2a78 183e 4f29 093e
00000040: b5a6 e1bc 5a70 25be ebd2 2f3d 6735 0fbd
00000050: 9cfc 243d 640f cebd 3cca c33d d8a9 e93d
00000060: 8d59 11bd 6f51 113e ef1c babc d391 213e
00000070: 8660 d03d d319 ee3c 4c01 37be 31f9 32be
00000080: f161 06be 76bd 35be 0fc4 86bc 92e5 343e
00000090: e55b 93bd 9a5f e13c 0f22 f0bd d4e6 1cbd
000000a0: 2ea0 823d 40c1 24bc c2ac ce3d ddfc 123e
000000b0: 64bf 363d d056 6f3d e6a5 4ebd c0b5 3a3c
000000c0: 89a2 193e b8d3 15be 0492 6f3d d14a 84bd
000000d0: 3a62 923d 704c 003c 5038 813c 58fa 993d
000000e0: a005 3f3c 7964 b3bd ea21 0fbe 5a8f 0bbe
000000f0: 52a7 74bd 7219 9cbd 8e84 57bd 7d25 043e
00000100: 0897 f8bc 49d7 1d3e c0d7 a93c ef2d c3bd
00000110: ceca dcbd 40d3 453c 660c c63d 8713 81bd
00000120: e830 623d ac7a 8b3d a2b9 9a3d f013 2a3d
00000130: bbcf 113e d000 933d b542 1ebe 48ad b1bd
00000140: d156 dcbd 746c a3bd 89ab a23d 9791 c6bb
00000150: 5879 ef3d 5a94 27bd f1bd 653d 6e01 14be
00000160: 6f5a 0bbe d113 5b3d 2a4a 213e c62a b83c
00000170: 68d4 223e 3da4 f0bd 70e2 0bbe 744d da3c
00000180: 4ff6 c13c 8678 80bd e6ee 65bd 30ab 193e
00000190: 317e dcbd d281 bbbd 98c1 86bb 88f1 213e
000001a0: 5981 a93b b52f d2bd 8623 743d 07e6 77bd
000001b0: 467c b4bd d1db 11be 2bd6 be3d 8724 093e
000001c0: 28ea 10bd 57a6 80bd 375b ba3d 7ddd 733c
000001d0: 4dc2 d4bd 147a 80bc 9243 4f3d 67fa 223d
000001e0: 7942 19be 62ce ff3d 1294 d2bd 2ee0 d93d
000001f0: 58de c23c e5de e2bd 8d57 f4bd 0c9a 5fbd
00000200: acfb 3b3d d3d9 8bbd b565 123e f7e8 0c3e
00000210: 1165 193e aa6b 52bd 90c1 d3bd 9049 aebd
00000220: 2e19 7bbd 7540 0e3e 204f 213c d295 c03d
00000230: d3cf 003e 8cb9 0bbe f7d8 12be 22cb d93d
00000240: 6a58 fc3d 00e7 edbb f0c7 723d 388c 91bc
00000250: 9851 853c 0edc 65bd 6b6b 123e 8000 6abc
00000260: 8072 4bbb 4aa7 d33d a4a4 10be e4b4 323d
00000270: 80db c43b 21fc 90bd 48ca 573d da9d bc3d
00000280: c5c5 b13d ff7f 163c 57d3 163e 9028 23be
00000290: a93f efbd 2624 86bd adc1 c1bd fe7b d0bd
000002a0: 5c8e 853b 5330 c33c a2e8 80bc d18c b73d
000002b0: a960 41bc c31a d53c 4dab f9bc cbf3 10be
000002c0: 3e92 223d 670d 0a3d bb63 1f3e 4680 943d
000002d0: 791d 193e a0d7 b13d 1702 103e eea2 383c
000002e0: 029e 19be fcba 933d 1ea1 30bd 355b f83d
000002f0: 5bb3 0d3e 65d3 18be bb51 1ebe 7008 0ebe
00000300: 2b8d 8dbd 1ff6 9b3d e485 10bd 07fb a53d
00000310: 50de b4bd 9368 3d3c b3bb 6b3d f943 bbbd
00000320: df2e 83bd ff4f b3bd be88 4d3c 7747 b53d
00000330: 3c82 563b cc56 58bd e7d6 d63d 955e a83d
00000340: 054a 343e ed5f 0dbd 20cb a6bd d0af ccbd
00000350: 3837 bdbd 7ea6 80bc 7033 b3bd 9d0e 3cbe
00000360: 6196 103c e469 38bd 47d7 eebd ec6e 53bd
00000370: dd5d ca3d af2b 77bd 8e3c ca3d 7594 29bd
00000380: aded 043e c7a5 d7bc 1350 413e 7b66 543d
00000390: 5e03 b1bd cf90 223d 1f1f 993d ee24 e83b
000003a0: f61a 13bd 44d3 8cbd 465a e3bc 3932 433e
000003b0: 3e47 d03d fab4 8d3d 5da8 3f3e dac6 04be
000003c0: b4c2 7b3d 8c3e d2bd 7080 9fbd e77f bfbd
000003d0: 4ae9 86bd 8464 063d b28e c63d cbe7 0f3e
000003e0: e089 df3c f8ad 8b3d 8db8 17be 83c8 0cbe
000003f0: aa4a 13be 5ad2 54bd 32c5 e33d a4fe 7e3d

input_layer.bias f4 [40]
0.0978113 -0.05948519 0.06106844 -0.14639056 0.12251849 0.16166869 -0.14381756 -0.021247014
0.039650686 0.14430447 0.0474236 0.15122296 0.14474684 0.022701556 0.1589735 -0.027476594
-0.1396129 0.12618886 0.16071373 -0.099442124 0.13046098 0.110290684 0.08679701 0.12318805
0.05384536 -0.0111441165 -0.03423022 -0.028741151 -0.016341928 0.039254468 0.09667602 -0.045504857
-0.1349691 -0.010105786 -0.120615184 0.092232615 -0.06706634 -0.036437064 0.08061675 0.15482567
00000000: 4a51 c83d bea6 73bd e722 7a3d 68e7 15be
00000010: f9ea fa3d 7a8c 253e e944 13be 380e aebc
00000020: c268 223d 8dc4 133e 403f 423d 31da 1a3e
00000030: 8438 143e 9df8 b93c f3c9 223e 9816 e1bc
00000040: aff6 0ebe a737 013e 2492 243e 50a8 cbbd
00000050: 9097 053e 15e0 e13d a1c2 b13d 044a fc3d
00000060: f48c 5c3d d095 36bc fd34 0cbd 9072 ebbc
00000070: 82df 85bc 4bc9 203d 14fe c53d 4d63 3abd
00000080: 5735 0abe bd92 25bc 1805 f7bd 74e4 bc3d
00000090: 145a 89bd 083f 15bd 651a a53d 9f8a 1e3e

hidden_layers.0.weight f4 [40, 40]
0.12612413 0.022028878 0.12224017 -0.044613272 -0.043904483 0.03472875 0.10553704 0.08716914
0.011679992 -0.03314864 0.0911759 0.010944143 -0.007908225 0.00086569786 -0.107712045 0.06360243
-0.05842354 -0.1284116 -0.13408202 0.055190504 -0.119021565 0.113831624 -0.070498824 0.04026641
-0.00797309 -0.14698516 0.07589631 0.15159841 0.06390925 0.079205826 -0.12604256 -0.087564915
0.04743977 0.031532913 0.13613312 -0.018558651 0.03650281 0.10506351 0.11063935 0.10257898
0.13392073 -0.110470824 -0.11411343 -0.1527655 0.022343487 -0.045804612 -0.13489202 -0.034999423
0.04569281 -0.028202433 -0.04261925 -0.07253978 0.14586875 -0.0449391 -0.16336031 -0.104943365
0.12072419 -0.12226754 0.0996603 -0.09665316 0.0036156587 0.14424793 0.02209314 -0.005080061
-0.11826832 -0.017805949 -0.009714246 0.029775485 -0.14641532 0.10976561 0.046491373 0.14204721
-0.08465384 -0.11396077 -0.048786074 -0.09757139 0.12323098 -0.07316188 0.03556304 0.08935089
0.044267558 -0.04050792 0.056905255 0.00804843 0.10177156 -0.013213098 0.00884369 -0.0056803823
-0.122394815 -0.16555513 0.15196131 0.09307093 0.13477916 -0.1380878 -0.1195421 0.14135028
0.009627663 0.07672135 0.051577333 -0.15552461 0.007061759 0.02375558 -0.0022038058 0.04938835
-0.055295136 -0.040109254 -0.02468816 -0.006287217 -0.12551966 0.039340436 0.10138777 -0.0042990535
0.10356732 -0.050606843 0.049367264 -0.011697765 -0.045738325 -0.039320946 -0.04239912 -0.020979064
0.17368534 -0.0451995 0.079081975 0.04335934 -0.018692015 0.04114761 0.010559514 -0.124091335
0.035258885 0.11285585 0.035849407 -0.07972182 0.09599725 0.0089661665 -0.041764416 -0.11446902
0.1465577 0.1894531 -0.03559047 0.013692132 0.095159404 0.022830762 0.13608582 0.16107881
0.048649564 0.07041253 0.121402584 -0.014175937 0.07110244 -0.06830268 0.1123643 -0.027438588
-0.059080712 0.07022891 -0.09655536 0.04396345 0.038080916 0.080321476 0.083274126 0.19034505
0.036928408 -0.110153414 -0.15017074 0.062434733 0.13980837 -0.12988374 -0.006131768 0.052670218
0.10491522 -0.16363004 -0.1248563 -0.061199952 -0.16403723 -0.11652097 0.07897005 0.14064993
-0.1274589 -0.039631885 0.02161705 -0.060967803 0.0063517024 -0.14007476 0.10409064 -0.07230237
0.03044008 -0.0006123185 -0.095057085 -0.022393927 -0.11524464 0.06567867 -0.06686342 0.082316205
0.037074402 0.03294646 -0.060718156 -0.033409405 -0.14062293 -0.0787957 0.12816504 0.08196502
0.008971408 -0.041558996 -0.017834775 0.021272764 -0.12439363 -0.050371233 0.0004079193 0.18101372
0.008734871 -0.018511146 0.016872104 -0.020551277 -0.0007812748 -0.10014083 0.04603976 -0.006970603
0.1290686 0.019544557 -0.03425177 -0.11215313 0.08308042 0.050919443 -0.12548392 0.12388863
0.028274529 0.02499102 -0.03955822 -0.053231023 -0.06543598 -0.1351862 0.0053047803 0.123968825
-0.09115144 0.100491196 0.14761406 0.13428327 -0.04496958 -0.08250472 -0.11297961 0.171949
0.061775744 -0.055216573 0.07366504 0.050131872 -0.033259697 -0.03031215 -0.15048452 0.115551665
-0.010580957 0.13528432 -0.01750803 -0.059742607 -0.014670208 -0.14972386 0.028666109 0.03855343
00000000: af26 013e e875 b43c 0e59 fa3d 68bc 36bd
00000010: 30d5 33bd bc3f 0e3d ce23 d83d bc85 b23d
00000020: 705d 3f3c dec6 07bd 6eba ba3d 104f 333c
00000030: 8091 01bc 00f0 623a 2298 dcbd fe41 823d
00000040: 864d 6fbd 557e 03be cc4c 09be 700f 623d
00000050: 94c1 f3bd 8e20 e93d b061 90bd 64ee 243d
00000060: 90a1 02bc 4783 16be 866f 9b3d 9d3c 1b3e
00000070: dae2 823d aa36 a23d 4d11 01be 3c55 b3bd
00000080: 3450 423d a828 013d 7b66 0b3e 5008 98bc
00000090: f883 153d 8a2b d73d e296 e23d ee14 d23d
000000a0: 8422 093e 873e e2bd 4db4 e9bd 8f6e 1cbe
000000b0: b009 b73c 9e9d 3bbd 2221 0abe 8e5b 0fbd
000000c0: 6228 3b3d ca08 e7bc 8691 2ebd bc8f 94bd
000000d0: 9e5e 153e 1012 38bd ed47 27be 8cec d6bd
000000e0: 3e3e f73d 6767 fabd b31a cc3d 18f2 c5bd
000000f0: b0f4 6c3b bbb5 133e acfc b43c a476 a6bb
00000100: a936 f2bd c8dd 91bc 8028 1fbc b8eb f33c
00000110: e6ed 15be cbcc e03d bd6d 3e3d d374 113e
00000120: fe5e adbd 4464 e9bd e8d3 47bd 82d3 c7bd
00000130: 8660 fc3d e5d5 95bd 8daa 113d 99fd b63d
00000140: e651 353d a2eb 25bd 7c15 693d 90dd 033c
00000150: 9c6d d03d c07b 58bc 20e5 103c 8022 babb
00000160: 22aa fabd 4987 29be bf9b 1b3e f99b be3d
00000170: 8c03 0a3e e366 0dbe 7dd2 f4bd 21be 103e
00000180: 58bd 1d3c 1520 9d3d c142 533d d841 1fbe
00000190: 5466 e73b 109b c23c ba6d 10bb 704b 4a3d
000001a0: 277d 62bd 9a49 24bd d33e cabc 0005 cebb
000001b0: 3a88 00be 7023 213d 64a4 cf3d 13df 8cbb
000001c0: 1a1b d43d 1f49 4fbd 5435 4a3d fca7 3fbc
000001d0: 1c58 3bbd 000f 21bd b3aa 2dbd 49dc abbc
000001e0: 92da 313e 1c23 39bd bbf5 a13d 9099 313d
000001f0: ff1f 99bc 658a 283d d001 2d3c 9923 febd
00000200: 9f6b 103d f820 e73d d4d6 123d 3245 a3bd
00000210: 359a c43d d4e6 123c 2a11 2bbd bc6e eabd
00000220: 3913 163e feff 413e 50c7 11bd f754 603c
00000230: efe2 c23d 9407 bb3c 155a 0b3e d8f1 243e
00000240: c444 473d 7234 903d eba1 f83d 3042 68bc
00000250: 289e 913d 47e2 8bbd 411f e63d e4c6 e0bc
00000260: 9efe 71bd 2dd4 8f3d d1be c5bd 0513 343d
00000270: bcfa 1b3d 967f a43d a08b aa3d d0e9 423e
00000280: 3e42 173d 1d98 e1bd 5cc6 19be 90bb 7f3d
00000290: ed29 0f3e 3e00 05be 00ed c8bb babc 573d
000002a0: cadd d63d a28e 27be a9b4 ffbd cdac 7abd
000002b0: 60f9 27be 8ca2 eebd 0dbb a13d 8906 103e
000002c0: 9684 02be 0b55 22bd 3d16 b13c 60b9 79bd
000002d0: f121 d03b c26f 0fbe 792d d53d 4413 94bd
000002e0: 7a5d f93c 0084 20ba 4aad c2bd 7873 b7bc
000002f0: 6205 ecbd 8a82 863d b0ef 88bd 6695 a83d
00000300: 54db 173d def2 063d 9ab3 78bd 4dd8 08bd
00000310: 75ff 0fbe a45f a1bd b23d 033e 47dd a73d
00000320: d0fc 123c c439 2abd 3c1a 92bc 3844 ae3c
00000330: 16c2 febd 1152 4ebd 00de d539 a95b 393e
00000340: b41c 0f3c b0a4 97bc 5e37 8a3c 275b a8bc
00000350: 77ce 4cba a316 cdbd 3094 3c3d a869 e4bb
00000360: 8f2a 043e e81b a03c 954b 0cbd 8ab0 e5bd
00000370: 1126 aa3d e890 503d db7e 00be 52b9 fd3d
00000380: fc9f e73c f8b9 cc3c cd07 22bd c608 5abd
00000390: 4d03 86bd 406e 0abe b9d3 ad3b 5ee3 fd3d
000003a0: 9bad babd 54ce cd3d 2428 173e 8e81 093e
000003b0: 0632 38bd 3cf8 a8bd db61 e7bd 6613 303e
000003c0: 9008 7d3d c62a 62bd b2dd 963d 1457 4d3d
000003d0: 523b 08bd 3051 f8bc 9d18 1abe 5aa6 ec3d
000003e0: c05b 2dbc f987 0a3e 006d 8fbc aab4 74bd
000003f0: 505b 70bc 3651 19be 30d5 ea3c 34ea 1d3d

hidden_layers.0.bias f4 [40]
-0.12281435 -0.035527304 -0.078704774 0.15576823 -0.0019236899 0.18543255 -0.0048347116 -0.101248905
-0.089535244 0.04793352 -0.024428265 0.13655128 -0.0011937658 0.023268508 -0.0389625 0.0005689116
-0.013505712 0.12937497 0.031915847 0.15761845 -0.0384142 -0.015735779 0.009781479 -0.049463116
-0.046853676 0.041541755 -0.058260217 -0.06349307 0.14009976 -0.14368227 -0.13991573 -0.030203063
-0.14647199 0.07890995 0.097764924 0.10457894 0.02401691 0.12907906 0.15100111 0.1644936
00000000: 1786 fbbd 1485 11bd f82f a1bd b581 1f3e
00000010: 5224 fcba 08e2 3d3e 806c 9ebb 965b cfbd
00000020: 415e b7bd f055 443d c91d c8bc 19d4 0b3e
00000030: 2278 9cba 999d be3c 2497 1fbd 0323 153a
00000040: 1047 5dbc df7a 043e 31ba 023d bb66 213e
00000050: 3558 1dbd 52e8 80bc 7f42 203c d699 4abd
00000060: a4e9 3fbd b027 2a3d 44a2 6ebd a808 82bd
00000070: 5076 0f3e 7221 13be 1246 0fbe 6a6c f7bc
00000080: c1fc 15be 8a9b a13d fa38 c83d 7c2d d63d
00000090: 1cbf c43c 4d2d 043e 09a0 1a3e 0371 283e

hidden_layers.1.weight f4 [40, 40]
-0.0018256456 -0.11546833 -0.09943954 0.046124335 -0.099379376 0.06952479 -0.12941535 -0.1098167
0.01644753 -0.014841273 0.078164876 -0.116099566 -0.03624903 0.10578191 -0.029869461 0.044033583
0.13911988 0.13185106 0.1282193 -0.057019975 0.0023975216 -0.09839861 0.07070367 -0.0035390407
0.108482435 0.06075363 0.12839428 -0.118615046 0.13043807 0.066639334 0.10404612 0.03410076
-0.11497901 -0.002190442 0.016002307 -0.09204706 -0.08834783 -0.15169504 0.05294937 0.04461717
0.01679863 -0.15980676 -0.098639876 0.059916634 -0.1076569 0.077587076 0.1293207 0.050790325
-0.08994011 -0.028517604 0.14166479 -0.090948425 -0.15556872 0.008407982 0.100937545 -0.160229
-0.11042248 -0.14589097 0.11185683 0.006557204 0.08915329 -0.14766264 0.014779305 -0.010947108
-0.12786505 -0.093267955 0.033019926 0.038775846 0.1352392 -0.049044266 0.05624403 0.028754996
-0.072223626 -0.009259389 -0.05303128 -0.11617928 0.06375239 -0.11579962 -0.10080366 -0.081197985
-0.035893172 -0.094371766 0.117679015 0.021412134 -0.007819101 0.12679853 0.117727 0.025397018
0.06681733 -0.106357336 -0.009058222 0.10434531 -0.1055037 -0.018965378 0.1135696 0.14003192
-0.1354892 -0.09273949 0.112958536 -0.14873527 0.049115866 0.14853047 0.026620924 0.057692245
-0.15071036 -0.14689454 0.113695815 0.077906385 -0.037423342 0.14261942 0.110686764 -0.077065
-0.026137695 0.007945463 -0.12215902 0.13467418 -0.066554375 -0.09603369 0.09735738 -0.12829366
0.001845032 0.1208701 0.07017936 -0.115471184 -0.087785184 -0.06739187 -0.15723182 -0.004075885
0.03857036 0.048333168 -0.019391611 0.0380127 -0.06066581 0.008978188 0.12097235 0.056234583
0.04229428 0.009061888 -0.0024517626 -0.12111564 0.09381892 0.056315616 -0.0379531 -0.11453077
-0.1353671 0.12745725 -0.02545999 0.021970302 0.05230868 -0.048396364 -0.014969274 -0.02186124
0.012897074 0.14236926 -0.003964469 -0.034426726 0.090215445 -0.019488126 0.004283905 -0.13144192
0.019496635 0.13429312 -0.16364317 -0.021290306 0.090504274 0.13037868 0.007495478 -0.04355032
-0.056520276 0.09467225 0.10837142 -0.13075776 0.042305216 0.09178418 0.044601906 -0.06615872
0.04805407 -0.14792375 -0.12133313 -0.039593846 0.011213069 0.06555723 0.106594905 -0.10565229
-0.037081502 0.102481574 0.10859571 0.15336384 0.12863196 -0.069830984 -0.13487907 0.0985577
0.124426045 0.048666228 0.09068073 -0.0056514046 -0.081128486 0.07785899 0.12392518 0.03750696
-0.013068676 0.09641969 0.058317333 -0.11611159 0.11574299 -0.07076669 -0.1105686 -0.096327856
0.021421164 0.1424145 -0.12586457 -0.1420667 -0.059940208 -0.06302823 0.12851767 -0.10291504
0.11450486 0.015830752 0.10869154 -0.1302634 -0.16215158 -0.06482398 -0.0541761 -0.11830926
0.12652217 -0.037985474 0.09945877 0.11093928 0.13476045 -0.14435145 -0.06781291 -0.11719759
-0.06508985 0.13355632 0.07107907 0.048233353 -0.15005569 -0.13328785 0.05780641 -0.12161393
-0.12917255 -0.094822176 0.037503958 -0.009182826 0.04639946 0.07925159 -0.061818913 0.00062662363
0.06897111 0.066439345 0.07941365 0.009381592 -0.15263662 0.0018296391 0.081660226 -0.05876647
00000000: 804a efba a97a ecbd f5a6 cbbd dfec 3c3d
00000010: 6a87 cbbd 0363 8e3d 7585 04be 94e7 e0bd
00000020: f8bc 863c d028 73bc e814 a03d 9cc5 edbd
00000030: dd79 14bd 30a4 d83d cdb0 f4bc 8f5c 343d
00000040: 7175 0e3e f703 073e ec4b 033e c78d 69bd
00000050: bd1f 1d3b 3685 c9bd 16cd 903d 40ef 67bb
00000060: 0a2c de3d ccd8 783d ca79 033e 72ec f2bd
00000070: 8f91 053e 347a 883d 2216 d53d 3dad 0b3d
00000080: 1d7a ebbd 858d 0fbb 4517 833c 2b83 bcbd
00000090: b5ef b4bd f255 1bbe 70e1 583d 7ec0 363d
000000a0: 489d 893c 62a4 23be b403 cabd 256b 753d
000000b0: 397b dcbd f9e5 9e3d a56c 043e 8409 503d
000000c0: 8532 b8bd c09d e9bc 9310 113e 2b43 babd
000000d0: 684d 1fbe a2c1 093c 58b8 ce3d 1213 24be
000000e0: 2e25 e2bd 7164 15be 3215 e53d d0dd d63b
000000f0: 0096 b63d e034 17be e624 723c 805b 33bc
00000100: 0eef 02be 4503 bfbd e73f 073d 6cd3 1e3d
00000110: 257c 0a3e a4e2 48bd 2460 663d 998f eb3c
00000120: fbe9 93bd b1b4 17bc 5437 59bd 67ef edbd
00000130: 9d90 823d 5a28 edbd 2672 cebd 214b a6bd
00000140: b804 13bd fc45 c1bd b201 f13d 8068 af3c
00000150: b01b 00bc 79d7 013e da1a f13d 680d d03c
00000160: 86d7 883d e0d1 d9bd f068 14bc feb2 d53d
00000170: 5312 d8bd 485d 9bbc 2e97 e83d 8764 0f3e
00000180: aebd 0abe 34ee bdbd ce56 e73d 0f4e 18be
00000190: b82d 493d 5f18 183e 2014 da3c b44e 6c3d
000001a0: d153 1abe 866b 16be 5ad9 e83d 628d 9f3d
000001b0: 3849 19bd d30a 123e beaf e23d 41d4 9dbd
000001c0: b81e d6bc b02d 023c 822e fabd 07e8 093e
000001d0: a94d 88bd 50ad c4bd 4e63 c73d 6a5f 03be
000001e0: 00d5 f13a be8a f73d 32ba 8f3d 287c ecbd
000001f0: b8c8 b3bd c004 8abd 6101 21be 008f 85bb
00000200: f4fb 1d3d 00f9 453d 28db 9ebc 34b3 1b3d
00000210: b67c 78bd 4019 133c 5ac0 f73d 3c56 663d
00000220: c43c 2d3d 5078 143c c0ad 20bb 7a0b f8bd
00000230: 2224 c03d 34ab 663d b674 1bbd 1c8f eabd
00000240: ac9d 0abe 2784 023e 7891 d0bc 10fb b33c
00000250: a041 563d 443b 46bd b041 75bc 5816 b3bc
00000260: 404e 533c 3fc9 113e 60e8 81bb 0a03 0dbd
00000270: e0c2 b83d 90a5 9fbc 0060 8c3b b698 06be
00000280: 68b7 9f3c 2384 093e 1392 27be 0269 aebc
00000290: 4e5a b93d fd81 053e a09c f53b d261 32bd
000002a0: ce81 67bd 86e3 c13d d6f1 dd3d 5de5 05be
000002b0: 3c48 2d3d 58f9 bb3d 7db0 363d 397e 87bd
000002c0: 58d4 443d 5379 17be 817d f8bd 282d 22bd
000002d0: 05b7 373c de42 863d 6e4e da3d 3a60 d8bd
000002e0: c6e2 17bd dce1 d13d 6d67 de3d 690b 1d3e
000002f0: 19b8 033e 8c03 8fbd bd1d 0abe 9fd8 c93d
00000300: 15d3 fe3d 3d56 473d d2b6 b93d 6b2f b9bb
00000310: b126 a6bd 8974 9f3d 7ccc fd3d e6a0 193d
00000320: 001e 56bc b077 c53d 28de 6e3d eacb edbd
00000330: a90a ed3d 20ee 90bd ca71 e2bd 8a47 c5bd
00000340: 707b af3c 1bd5 113e a4e2 00be ef79 11be
00000350: dd83 75bd f214 81bd 239a 033e 1fc5 d2bd
00000360: 8681 ea3d 7eaf 813c ac99 de3d c563 05be
00000370: 100b 26be 6fc2 84bd c2e7 5dbd 204c f2bd
00000380: 078f 013e a896 1bbd 0ab1 cb3d 2234 e33d
00000390: a5fe 093e ded0 13be 7fe1 8abd 4a05 f0bd
000003a0: d44d 85bd fdc2 083e e791 913d 5690 453d
000003b0: 33a8 19be 9c7c 08be 6ac6 6c3d b910 f9bd
000003c0: cf45 04be 2132 c2bd c09d 193d 9073 16bc
000003d0: 5c0d 3e3d a84e a23d d435 7dbd 0044 243a
000003e0: ba40 8d3d 5a11 883d a0a3 a23d 40b5 193c
000003f0: c64c 1cbe 80d0 ef3a 7a3d a73d 1cb5 70bd

hidden_layers.1.bias f4 [40]
-0.053106196 0.053131312 -0.092427246 0.009117767 -0.16140325 0.10771799 -0.13011643 -0.10946535
-0.14333437 0.024825733 0.041198734 -0.10842771 -0.06530787 0.03309766 -0.11149866 -0.027952893
0.07329833 0.02026631 0.105659716 0.056042213 -0.09738412 -0.12380961 0.07745298 -0.08265528
0.18296053 -0.096653596 0.06294581 -0.091470756 -0.14696136 0.044575103 0.080504954 -0.03581913
-0.05754527 0.17649701 0.05085221 -0.082992144 -0.11605265 0.106355794 -0.13855392 -0.13722342
00000000: e285 59bd 38a0 593d 7f4a bdbd b062 153c
00000010: e546 25be 409b dc3d 3e3d 05be 5f2f e0bd
00000020: 3fc6 12be 565f cb3c 01c0 283d 590f debd
00000030: 22c0 85bd 6991 073d 6959 e4bd 77fd e4bc
00000040: 6f1d 963d 8805 a63c 1f64 d83d 858c 653d
00000050: 5371 c7bd e58f fdbd ab9f 9e3d 2c47 a9bd
00000060: 015a 3b3e 52f2 c5bd bce9 803d 0555 bbbd
00000070: 0a7d 16be 6294 363d c8df a43d 14b7 12bd
00000080: 97b4 6bbd a2bb 343e 684a 503d c9f7 a9bd
00000090: 03ad edbd 11d1 d93d 14e1 0dbe 4c84 0cbe

hidden_layers.2.weight f4 [40, 40]
-0.112522155 0.08296175 0.13117151 0.0176211 0.09275157 -0.06914416 -0.14784965 0.058792617
-0.15539545 0.10649942 0.13176431 0.08675575 0.10443999 -0.071086004 0.081550315 -0.024245339
0.099708624 0.016566247 0.053762127 -0.036485016 -0.14870426 -0.112387896 -0.047156945 0.12911396
-0.041065756 0.102536306 0.12578163 0.09432041 -0.08420847 -0.14259069 -0.027192483 -0.13921687
0.09216912 0.1439774 -0.110099204 0.05710304 -0.115370855 -0.006003157 -0.1200014 -0.024877949
0.15583108 -0.051317863 -0.06495574 0.13341965 -0.06747878 0.07571298 -0.13915505 0.027359754
0.004206419 -0.15058036 -0.034035124 -0.14943789 0.12184827 0.057354763 0.12580319 0.057015523
0.017270416 -0.043656625 0.0031904131 -0.1269422 -0.079861894 0.14471026 -0.060019188 0.023326963
-0.0927106 -0.09465214 0.114740595 0.12224372 -0.038460076 0.10920952 -0.019744739 0.020530596
-0.02893798 -0.005063787 -0.096008435 -0.06067399 -0.051238097 0.03219028 -0.129958 -0.069146246
-0.08321001 0.06947558 -0.095082626 -0.020614237 0.042185444 -0.016381143 -0.06663784 -0.105114646
0.014269426 0.1409853 -0.14952816 0.06756062 -0.13960369 -0.14920422 0.077445224 -0.028207712
0.13786207 0.1082717 -0.0055633965 0.001982357 0.053613406 0.035426456 0.09923008 -0.02803564
0.020454332 -0.1525016 0.009429851 0.0102569265 0.026438484 -0.10415118 -0.08630921 -0.014342986
0.08306964 0.1022794 0.020479992 0.063395016 0.13842519 -0.05799152 -0.12880771 -0.11353884
-0.039334536 -0.008153021 -0.15707524 -0.062375814 -0.122496426 0.024710417 -0.12949497 0.025285602
0.10008137 0.0024837106 -0.004245013 0.10815443 0.08024213 0.039154246 -0.12791222 0.15073608
-0.05794186 -0.035125412 -0.09094408 0.06509477 -0.0010816157 0.060731024 -0.07130176 -0.085682355
0.046623856 0.08558203 0.1299931 0.050180495 0.1005169 0.0021694005 -0.10773979 -0.0763619
-0.12998277 -0.04276386 0.15719913 -0.048706815 -0.028289288 -0.0010777116 -0.1440976 -0.021064267
0.083756074 0.120121166 -0.14653139 0.050520852 -0.06282102 -0.026517898 -0.03911929 -0.01134786
-0.03233458 0.118444696 -0.09596576 -0.12904556 -0.07505317 0.052822813 -0.036930844 0.0412025
-0.10184516 -0.0861076 0.060991287 -0.017857805 0.1254703 0.108728394 -0.082505114 -0.02058287
-0.08689449 -0.053378 0.15205754 -0.119394414 -0.116445996 0.02444449 0.07959807 0.024083018
-0.050455704 -0.13739279 -0.10773936 -0.014260784 0.04409823 -0.10303737 -0.016436845 0.113929465
-0.06914156 -0.096843764 -0.051990837 -0.068026245 -0.06347118 0.038581625 -0.14119963 0.112493284
0.02347304 0.03588504 -0.052378863 -0.10560738 -0.021992937 0.104318485 0.1514125 0.019230116
0.17131554 0.15627314 0.07515072 -0.065964185 -0.049794577 0.12529291 -0.05714255 0.13025065
0.06302878 0.12501533 -0.06939328 0.02959461 0.15450627 0.06366059 -0.11808363 -0.095201045
-0.11156098 -0.11708449 0.08096263 0.13506863 -0.11775884 -0.079281695 0.0064270794 -0.12404833
-0.09396874 -0.09758185 0.12649836 0.012782559 -0.08259136 -0.03794235 -0.12632757 -0.0043725693
0.010996148 0.08210656 0.08960984 -0.013025212 0.12211846 0.13731834 -0.0054032654 0.0033016126
00000000: 0472 e6bd dae7 a93d d351 063e 205a 903c
00000010: 89f4 bd3d 749b 8dbd e665 17be 87d0 703d
00000020: fc1f 1fbe 5e1c da3d 39ed 063e 00ad b13d
00000030: a2e4 d53d 8a95 91bd da03 a73d 299e c6bc
00000040: 0934 cc3d f0b5 873c ad35 5c3d 5071 15bd
00000050: ee45 18be a02b e6bd a427 41bd 7336 043e
00000060: 9134 28bd 8efe d13d e6cc 003e 0f2b c13d
00000070: 7e75 acbd 4b03 12be c5c2 debc de8e 0ebe
00000080: 2ac3 bc3d d06e 133e b17b e1bd e1e4 693d
00000090: 8e47 ecbd 21b6 c4bb 4bc3 f5bd d7cc cbbc
000000a0: 2f92 1f3e ae32 52bd 8407 85bd 299f 083e
000000b0: 5132 8abd 680f 9b3d a97e 0ebe 9021 e03c
000000c0: 00d6 893b bd31 1abe 6a68 0bbd 3f06 19be
000000d0: 968b f93d d4ec 6a3d 8dd2 003e 1c89 693d
000000e0: b07a 8d3c 4ad1 32bd 4016 513b 23fd 01be
000000f0: a28e a3bd ed2e 143e aed6 75bd 3018 bf3c
00000100: 0edf bdbd fbd8 c1bd 1efd ea3d ea5a fa3d
00000110: 5088 1dbd 3ea9 df3d b8bf a1bc c82f a83c
00000120: 580f edbc 20ee a5bb 12a0 c4bd 4a85 78bd
00000130: 0adf 51bd f4d9 033d b613 05be 8c9c 8dbd
00000140: 026a aabd 3649 8e3d aeba c2bd 30df a8bc
00000150: a5ca 2c3d bf31 86bc 6b79 88bd 5946 d7bd
00000160: 50ca 693c 735e 103e e91d 19be 395d 8a3d
00000170: 45f4 0ebe fec8 18be 9a9b 9e3d dc13 e7bc
00000180: b72b 0d3e 8ebd dd3d 274d b6bb 6eea 013b
00000190: bb99 5b3d 551b 113d 2439 cb3d 00ab e5bc
000001a0: d88f a73c 6129 1cbe a97f 1a3c ab0c 283c
000001b0: 8595 d83c 374d d5bd e2c2 b0bd d8fe 6abc
000001c0: 6a20 aa3d dd77 d13d a8c5 a73c 3fd5 813d
000001d0: 55bf 0d3e 8488 6dbd 2be6 03be 0d87 e8bd
000001e0: 401d 21bd 4094 05bc 55d8 20be c87d 7fbd
000001f0: 68df fabd 806d ca3c 549a 04be c023 cf3c
00000200: 76f7 cc3d c0c5 223b c019 8bbb 1280 dd3d
00000210: fc55 a43d 3460 203d 6cfb 02be 8f5a 1a3e
00000220: 7254 6dbd aadf 0fbd e440 babd 6850 853d
00000230: 00c5 8dba 18c1 783d a806 92bd 3b7a afbd
00000240: a8f8 3e3d a245 af3d e91c 053e 108a 4d3d
00000250: cedb cd3d 802c 0e3b aea6 dcbd a163 9cbd
00000260: 341a 05be 2829 2fbd cff8 203e cc80 47bd
00000270: f0be e7bc 0042 8dba 528e 13be f88e acbc
00000280: 4e88 ab3d 1602 f63d 530c 16be f4ee 4e3d
00000290: 4fa8 80bd 103c d9bc 8c3b 20bd 60ec 39bc
000002a0: 4471 04bd 2293 f23d b289 c4bd 8524 04be
000002b0: 7ab5 99bd bc5c 583d cc44 17bd f4c3 283d
000002c0: 3294 d0bd 2e59 b0bd 00d2 793d 884a 92bc
000002d0: 497b 003e feac de3d 71f8 a8bd 689d a8bc
000002e0: bdf5 b1bd e4a2 5abd f9b4 1b3e 0f85 f4bd
000002f0: 3d7b eebd d03f c83c 5004 a33d c049 c53c
00000300: a4aa 4ebd b2b0 0cbe 74a6 dcbd 10a6 69bc
00000310: 58a0 343d 4205 d3bd 90a6 86bc da53 e93d
00000320: 179a 8dbd 0656 c6bd 58f4 54bd 5851 8bbd
00000330: 2efd 81bd c407 1e3d a396 10be e162 e63d
00000340: 884a c03c 31fc 123d 388b 56bd af48 d8bd
00000350: 882a b4bc eea4 d53d e10b 1b3e 7a88 9d3c
00000360: 576d 2f3e 1106 203e 9fe8 993d 3b18 87bd
00000370: 66f5 4bbd c94c 003e 4e0e 6abd 6d60 053e
00000380: 3c15 813d 0504 003e 101e 8ebd 6570 f23c
00000390: e436 1e3e 7c60 823d d5d5 f1bd c4f8 c2bd
000003a0: 157a e4bd fec9 efbd bccf a53d 6e4f 0a3e
000003b0: 8c2b f1bd 715e a2bd 409a d23b 0d0d febd
000003c0: af72 c0bd fed8 c7bd c988 013e f06d 513c
000003d0: a925 a9bd 7069 1bbd 045c 01be c547 8fbb
000003e0: 3029 343c 7c27 a83d 5d85 b73d b367 55bc
000003f0: 3e19 fa3d 2e9d 0c3e e00d b1bb de5f 583b

hidden_layers.2.bias f4 [40]
-0.07393888 -0.14969707 0.11966112 -0.06283342 -0.10618955 0.1891665 0.08026808 0.1209203
0.05588079 -0.124143615 -0.115210444 -0.1439451 -0.050746106 -0.098525874 0.08637786 -0.03435508
-0.07994854 -0.15536354 0.038746893 0.118902326 0.1427424 0.055193372 -0.122359775 0.11051116
-0.021728734 0.113636665 0.13036883 0.085250884 0.08721172 0.022639723 0.080625735 0.16246384
0.010696632 0.04414296 -0.06594019 -0.00023916364 0.042055286 -0.07701599 0.095129944 0.08045594
00000000: 446d 97bd 304a 19be e410 f53d cfae 80bd
00000010: e879 d9bd ddb4 413e 9763 a43d 10a5 f73d
00000020: 41e3 643d 023f febd 74f3 ebbd 5866 13be
00000030: 26db 4fbd efc7 c9bd e0e6 b03d eab7 0cbd
00000040: 0fbc a3bd 9f17 1fbe 10b5 1e3d 1083 f33d
00000050: 102b 123e 7212 623d c397 fabd ad53 e23d
00000060: 7500 b2bc 57ba e83d 687f 053e 0498 ae3d
00000070: 0f9c b23d f176 b93c 1b1f a53d ec5c 263e
00000080: ed40 2f3c 40cf 343d a60b 87bd 00c8 7ab9
00000090: 2a42 2c3d 8fba 9dbd 7dd3 c23d 15c6 a43d

hidden_layers.3.weight f4 [40, 40]
0.12901743 -0.115324445 0.12350963 0.12279345 0.1578355 -0.06390284 -0.033838764 -0.14493339
-0.15456738 -0.14045498 0.029957756 -0.020315722 0.15097122 0.0865411 0.021959513 -0.13214627
0.055681303 -0.11743206 0.07390927 -0.07102791 0.04813978 0.05204071 0.018912688 -0.0034336895
-0.06328323 -0.06400232 0.06764844 0.14446576 -0.09151329 -0.029586509 0.12653695 0.09304176
-0.085086524 -0.08988023 -0.110639766 -0.06834537 -0.1377937 -0.12412535 -0.1433212 0.040926233
0.09836735 -0.06371092 0.1579913 -0.13876861 -0.15378463 -0.11789653 -0.017163336 -0.07084628
-0.0139327645 0.06801425 -0.053597227 -0.02731657 0.12615944 -0.027597696 0.046503454 0.10249139
0.00022923946 0.0385215 0.14895861 -0.12693372 -0.07363916 0.040666714 -0.14900771 0.07060839
0.029225558 0.02338463 -0.00158979 -0.08197562 -0.024239391 0.14988063 0.06801033 -0.10391039
-0.041560203 -0.026596844 0.13337831 0.03799385 -0.03386172 -0.14223012 0.10264094 0.0656794
0.09509955 -0.048274845 0.01588685 0.009652466 0.14945583 -0.050118368 0.014911157 -0.049926188
-0.106276296 -0.11104761 0.08813955 0.09923504 0.0031094218 0.019366637 -0.16769734 0.041129723
-0.12391579 0.084929794 -0.107766256 0.0442347 -0.069143556 -0.08716772 0.098009124 0.040542282
0.055968463 0.07226272 -0.024614297 0.03649798 -0.118478894 -0.11064967 0.12380404 -0.1282272
-0.09496141 -0.16745947 0.016221479 0.07847595 -0.16629471 -0.118345864 -0.15646496 0.10717388
0.028962586 -0.03355992 0.04590161 -0.112243354 -0.0016970336 -0.13240005 0.08132737 -0.10281662
0.009946421 -0.0015788376 -0.080706365 0.12592004 0.07637249 -0.01718022 -0.012781302 0.02927138
-0.10281275 0.12659262 0.10666327 0.034903172 0.03620013 -0.033502195 0.06975645 0.0726869
-0.11034826 -0.17867604 -0.0113357715 0.08920621 -0.08695733 -0.15450814 -0.19418135 0.099567525
0.09025637 0.07129652 -0.02146934 0.0090611875 -0.06716498 0.0046102256 -0.043204837 0.11084467
-0.12038499 0.14881323 0.0568741 0.12015225 0.0074997246 0.07424991 -0.11860071 -0.03224664
-0.14584601 -0.13940476 -0.014441758 0.046337456 -0.0726743 0.0595306 -0.09876779 0.15291871
-0.13119331 -0.046492085 -0.021356553 0.07168368 -0.11909742 0.06834656 0.0429758 0.03557858
0.04435396 -0.082869224 0.09340723 -0.089579284 -0.038725015 0.0065583787 0.028102392 -0.13918349
0.0487997 0.06988987 0.09531678 -0.0580002 0.063874625 -0.056074202 0.007330339 -0.13905108
0.13751118 0.08496408 -0.11979103 0.103333786 -0.008032024 0.034259617 -0.08457006 0.12877734
0.047727138 -0.15221418 -0.07136013 0.12470783 0.06380072 -0.019711554 -0.06586212 0.12220083
0.07108936 0.15090142 0.040638745 -0.053420916 -0.0020207316 -0.1220153 0.1469052 0.025920182
-0.101278156 0.068059 0.1390812 0.04122381 0.105384484 -0.06093254 -0.14552177 -0.110110685
-0.03749547 0.00022189319 0.11779155 -0.03686197 0.07713832 0.0662051 0.10242741 -0.09859963
-0.13255435 0.010749534 -0.09392786 -0.07843405 0.038778916 0.11219971 -0.138284 0.10132845
-0.020303652 0.09992118 0.072904766 -0.148841 -0.0172752 0.07767901 0.15051146 0.03685637
00000000: 251d 043e 392f ecbd 9ef2 fc3d 227b fb3d
00000010: a19f 213e 7edf 82bd 849a 0abd 6b69 14be
00000020: e946 1ebe 6ed3 0fbe f869 f53c 286d a6bc
00000030: 3398 1a3e 763c b13d 70e4 b33c 5a51 07be
00000040: 1412 643d 3880 f0bd be5d 973d 1577 91bd
00000050: 382e 453d a428 553d c8ee 9a3c c007 61bb
00000060: a39a 81bd a613 83bd 448b 8a3d d5ee 133e
00000070: 526b bbbd 685f f2bc e792 013e ae8c be3d
00000080: d841 aebd 2013 b8bd 1a97 e2bd a8f8 8bbd
00000090: cb19 0dbe 6e35 febd cbc2 12be 44a2 273d
000000a0: d274 c93d df7a 82bd 79c8 213e 5c19 0ebe
000000b0: b879 1dbe bc73 f1bd 209a 8cbc db17 91bd
000000c0: 4046 64bc 0e4b 8b3d c488 5bbd 00c7 dfbc
000000d0: f12f 013e 9014 e2bc 687a 3e3d 02e7 d13d
000000e0: 0060 7039 b8c8 1d3d 9b88 183e eafa 01be
000000f0: 21d0 96bd 2492 263d 7a95 18be 229b 903d
00000100: 706a ef3c 2091 bf3c 8060 d0ba d5e2 a7bd
00000110: b091 c6bc 4f7a 193e 0049 8b3d f8ce d4bd
00000120: 083b 2abd a0e1 d9bc 5394 083e 709f 1b3d
00000130: 96b2 0abd c6a4 11be 6a35 d23d ec82 863d
00000140: 8ec3 c23d d8bb 45bd 2425 823c 6025 1e3c
00000150: f30a 193e eb48 4dbd ed4d 743c 677f 4cbd
00000160: 63a7 d9bd ee6c e3bd 8282 b43d be3b cb3d
00000170: 71c7 4b3b c8a6 9e3c dab8 2bbe a477 283d
00000180: 90c7 fdbd acef ad3d 8eb4 dcbd 722f 353d
00000190: 239b 8dbd fd84 b2bd 02b9 c83d aa0f 263d
000001a0: 303f 653d 7afe 933d eca3 c9bc e87e 153d
000001b0: 10a5 f2bd 4b9c e2bd f98c fd3d fe4d 03be
000001c0: 217b c2bd 7f7a 2bbe e8e2 843c 00b8 a03d
000001d0: 2949 2abe 515f f2bd 5a38 20be fb7d db3d
000001e0: f242 ed3c 2076 09bd 5403 3c3d d8df e5bd
000001f0: 006f deba e193 07be f78e a63d 8591 d2bd
00000200: 50f6 223c 00f1 ceba 6149 a5bd 2ff1 003e
00000210: 2e69 9c3d 88bd 8cbc ab68 51bc 88ca ef3c
00000220: 7e8f d2bd 7fa1 013e 4672 da3d a1f6 0e3d
00000230: 9646 143d 9939 09bd 78dc 8e3d dfdc 943d
00000240: 45fe e1bd daf6 36be acb9 39bc bfb1 b63d
00000250: af16 b2bd 6237 1ebe 7ad7 46be 0fea cb3d
00000260: 55d8 b83d e903 923d 78e0 afbc 6075 143c
00000270: cb8d 89bd 6011 973b 8ef7 30bd 8802 e33d
00000280: 688c f6bd 7f62 183e d1f4 683d 6212 f63d
00000290: 40c0 f53b 5610 983d eee4 f2bd 0e15 04bd
000002a0: a858 15be 1fc0 0ebe 209d 6cbc 58cc 3d3d
000002b0: 43d6 94bd 5cd6 733d c446 cabd b996 1c3e
000002c0: 8a57 06be 7c6e 3ebd f0f3 aebc e5ce 923d
000002d0: 59e9 f3bd 48f9 8b3d 6407 303d d8ba 113d
000002e0: 7fac 353d 57b7 a9bd 4a4c bf3d 5875 b7bd
000002f0: 1f9e 1ebd abe7 d63b fd36 e63c 1e86 0ebe
00000300: 32e2 473d 6c22 8f3d 7235 c33d 9e91 6dbd
00000310: b3d0 823d 10ae 65bd 5733 f03b 6863 0ebe
00000320: bbcf 0c3e a601 ae3d 0055 f5bd aaa0 d33d
00000330: c098 03bc d053 0c3d 1133 adbd 35de 033e
00000340: 887d 433d 09de 1bbe 4325 92bd d266 ff3d
00000350: f4a9 823d 207a a1bc b8e2 86bd 6e44 fa3d
00000360: 4c97 913d e785 1a3e d074 263d e4cf 5abd
00000370: 406e 04bb 28e3 f9bd 516e 163e 9056 d43c
00000380: ec6a cfbd 8462 8b3d 4d6b 0e3e 4cda 283d
00000390: d2d3 d73d 6694 79bd a903 15be b681 e1bd
000003a0: da94 19bd 00ac 6839 b23c f13d 94fc 16bd
000003b0: b2fa 9d3d 8a96 873d 76c5 d13d 9aee c9bd
000003c0: 54bc 07be d01e 303c 405d c0bd 08a2 a0bd
000003d0: a4d6 1e3d f6c8 e53d 529a 0dbe 4a85 cf3d
000003e0: d853 a6bc 7aa3 cc3d 184f 953d c669 18be
000003f0: b884 8dbc 2c16 9f3d ad1f 1a3e b4f6 163d

hidden_layers.3.bias f4 [40]
-0.14922267 -0.14646561 0.029198995 0.018725907 0.027474063 -0.0046283454 -0.047746256 -0.15131654
0.011666909 -0.0049460535 0.036831804 0.10313555 -0.05886385 0.009364316 -0.14335413 0.12208119
0.025889426 -0.13391379 0.07123912 0.08414164 -0.15110117 0.060998067 0.07441473 -0.0059086946
-0.1009137 0.08772124 0.102837585 -0.030077394 -0.15019543 0.0063881474 0.07171486 0.025636423
-0.06990233 -0.10534326 0.031518355 0.084159255 -0.011418852 0.18582009 -0.08169564 0.016851768
00000000: d4cd 18be 15fb 15be bb32 ef3c 1367 993c
00000010: 4911 e13c 60a9 97bb 9491 43bd b9f2 1abe
00000020: 9026 3f3c 8112 a2bb f2dc 163d bb38 d33d
00000030: 381b 71bd ca6c 193c 6dcb 12be b405 fa3d
00000040: 1016 d43c b220 09be d1e5 913d 7452 ac3d
00000050: 44ba 1abe 1cd9 793d c066 983d b99d c1bb
00000060: d8ab cebd 32a7 b33d 839c d23d de64 f6bc
00000070: d5cc 19be aa53 d13b 3edf 923d 7a03 d23c
00000080: f428 8fbd 35be d7bd 6419 013d b05b ac3d
00000090: 2316 3bbc 9f47 3e3e 0b50 a7bd b80c 8a3c

output_layer1.weight f4 [2, 40]
0.14454518 0.10879336 -0.03757974 0.01885461 0.10321419 0.15437166 0.0142098665 -0.0062748194
0.031665415 0.004037323 0.17287646 0.16744666 -0.122389436 -0.02168671 0.12062751 -0.13777192
0.09396653 -9.4115734e-05 -0.100057036 0.020051572 -0.09813476 -0.024984859 -0.046348643 -0.041947052
-0.09615423 0.014506973 0.03604497 0.06776385 0.07233843 -0.13957722 0.16853441 0.06737778
0.012324615 0.12008409 0.03598728 0.1641603 0.06895195 -0.03241648 0.058446303 -0.07490057
-0.017813832 -0.10781696 0.017874794 -0.08308762 0.07442808 0.09178601 0.015161663 -0.073696256
-0.018285602 0.057438057 0.12182318 0.112134725 0.0966339 0.117753215 -0.11608638 -0.015101385
-0.083607174 0.0064348876 -0.08565448 0.029959382 0.15644689 -0.029207064 0.1269025 -0.09337851
-0.021948313 0.10513848 0.09234744 -0.09058529 -0.15387362 -0.067233644 0.12481578 -0.032424103
-0.055689123 0.049479812 -0.054423433 -0.07728651 -0.09992484 -0.09821607 0.15420948 0.071789995
00000000: a703 143e 0ecf de3d 37ed 19bd fc74 9a3c
00000010: f661 d33d 9b13 1e3e 80d0 683c 009d cdbb
00000020: 98b3 013d 854b 843b 8706 313e 2377 2b3e
00000030: 50a7 fabd 54a8 b1bc 8e0b f73d 1514 0dbe
00000040: 8671 c03d 0060 c5b8 b4ea ccbd 3243 a43c
00000050: e1fa c8bd 0cad ccbc 13d8 3dbd acd0 2bbd
00000060: 82ec c4bd a8ae 6d3c e4a3 133d c6c7 8a3d
00000070: 2c26 943d 55ed 0ebe 4994 2c3e 5dfd 893d
00000080: 2fed 493c a6ee f53d 6667 133d a319 283e
00000090: ae36 8d3d 25c7 04bd 6465 6f3d 7865 99bd
000000a0: 50ee 91bc 23cf dcbd 296e 923c d829 aabd
000000b0: c06d 983d 4efa bb3d a068 783c 10ee 96bd
000000c0: b0cb 95bc 2b44 6b3d 6e7e f93d e4a6 e53d
000000d0: ffe7 c53d 9928 f13d b2be edbd cd6b 77bc
000000e0: 3d3a abbd c0db d23b 9e6b afbd 616d f53c
000000f0: 9d33 203e a743 efbc bbf2 013e 3b3d bfbd
00000100: f3cc b3bc d852 d73d a820 bd3d c884 b9bd
00000110: 0c91 1dbe cbb1 89bd 6a9f ff3d 23cf 04bd
00000120: 471a 64bd 58ab 4a3d 1beb 5ebd 6448 9ebd
00000130: 65a5 ccbd 8225 c9bd 17e9 1d3e a206 933d

output_layer1.bias f4 [2]
-0.09203102 0.0012667342
00000000: c27a bcbd 8c08 a63a

output_layer2.weight f4 [1, 40]
-0.05400583 -0.15421686 -0.04029694 -0.12308455 -0.02829765 0.009325683 -0.009647012 -0.025226697
0.020848706 0.026820498 0.09745396 -0.083094284 -0.14372028 -0.10041638 0.0528028 0.08097955
0.15663992 0.0740653 0.11415688 -0.09658 0.021706685 0.052682374 -0.098048225 -0.01651271
-0.09718095 -0.06479318 -0.11100211 -0.12031186 0.13997401 0.07233939 -0.0854033 0.0054557803
0.02036862 0.084363416 -0.043127764 0.1760933 -0.10053096 0.16624847 -0.1361132 -0.016434506
00000000: 3835 5dbd 06eb 1dbe 670e 25bd c113 fcbd
00000010: 79d0 e7bc c0ca 183c 800e 1ebc 38a8 cebc
00000020: e8ca aa3c a9b6 db3c f195 c73d 562d aabd
00000030: 692b 13be 1aa7 cdbd c047 583d 9bd8 a53d
00000040: 3766 203e 8caf 973d 15cb e93d bccb c5bd
00000050: 38d2 b13c 79c9 573d 82cd c8bd aa45 87bc
00000060: ce06 c7bd 49b2 84bd 1355 e3bd 1166 f6bd
00000070: 5955 0f3e ad26 943d ede7 aebd 67c6 b23b
00000080: 18dc a63c bac6 ac3d bda6 30bd cd51 343e
00000090: 2de3 cdbd 0a3d 2a3e 4261 0bbe a8a1 86bc
