src/models/prediction_7.pt (torch, 38150 bytes, 13 tensors)

input_layer.weight f4 [40, 40]
0	0xbe0478d9	-0.12936725
1	0xbd05debc	-0.03268312
2	0x3e14b2d3	0.14521341
3	0xbe10dae4	-0.14146
4	0x3ddd37ea	0.108016804
5	0xbdf2a260	-0.11847377
6	0x3dbcafb2	0.09213199
7	0x3e05d833	0.13070755
8	0xba90cb80	-0.0011046976
9	0x3e1c955f	0.15291356
10	0x3de9ea5a	0.11421652
11	0x3df2c1ce	0.118533716
12	0xbd262f36	-0.040572368
13	0xbe05763a	-0.13033381
14	0xbe20a483	-0.15687756
15	0x3e051a1b	0.1299824
16	0xbdfbd98e	-0.12297355
17	0xbdb53bb4	-0.08849278
18	0xbd721a86	-0.059107326
19	0x3d171484	0.0368848
20	0xbd9fa3a8	-0.07794887
21	0x3c219410	0.009861961
22	0x3db14b28	0.08656913
23	0xbd2b56c4	-0.041830793
24	0xbd402ef8	-0.046919793
25	0x3dc7bafe	0.09752463
26	0x3da12580	0.07868481
27	0xbcfff618	-0.031245276
28	0x3dc938d6	0.09825294
29	0x3dee2de6	0.11629848
30	0xbdef622f	-0.11688649
31	0x3dbbec04	0.09175876
32	0xbe1fa023	-0.15588431
33	0xbe05c1bb	-0.13062184
34	0xbab55d00	-0.001383692
35	0x3d74c118	0.05975446
36	0xbcb4fee8	-0.022094205
37	0xbd343738	-0.043997973
38	0xbe0d7736	-0.13815007
39	0xbe0a9509	-0.13533415
40	0xbcd567f8	-0.026050553
41	0x3e0e590d	0.13901158
42	0x3ce2bd38	0.027678117
43	0x3e1044d5	0.14088757
44	0xbe10ee1d	-0.14153333
45	0xbdea336c	-0.11435589
46	0x3d8c520a	0.06851585
47	0x3e05f29f	0.13080834
48	0xbd88d918	-0.06682032
49	0x3d9fa2d4	0.07794729
50	0x3d413938	0.04717371
51	0xbe12b8d6	-0.14328322
52	0x3d0c9ab4	0.034327224
53	0xbd8e9610	-0.06962216
54	0xbd89ed7a	-0.06734748
55	0x3d2a9988	0.041650325
56	0xbdd169ba	-0.10225244
57	0x3d815ea2	0.06316878
58	0xbd1fe514	-0.039036825
59	0xbdcf74af	-0.101296775
60	0x3d7c1fc0	0.061553717
61	0x3e0c9791	0.13729693
62	0xbda9b55e	-0.08286546
63	0x3c7947a0	0.015214831
64	0x3d58fd48	0.052975923
65	0x3d9bf4aa	0.07615025
66	0x3ac02400	0.0014659166
67	0xbb276d80	-0.0025547445
68	0xbdd9e2c1	-0.10638953
69	0x3e04bdf7	0.12963091
70	0xbce6f7b8	-0.028194293
71	0xbd28f25a	-0.04124675
72	0x3e095fdb	0.13415472
73	0x3e002a53	0.12516145
74	0x3d588104	0.052857414
75	0xbad44500	-0.001619488
76	0xbdcb927c	-0.09940049
77	0x3dfe99c2	0.12431671
78	0xbd849540	-0.0647378
79	0xbd67dfb4	-0.056609824
80	0x3de491b2	0.11160602
81	0x3ca0c1b7	0.01962362
82	0x3e0ca804	0.13735968
83	0xbdf689fc	-0.12038037
84	0x3bc0c91d	0.0058833496
85	0xbc5f48a2	-0.013628157
86	0xbde788f6	-0.1130542
87	0xbd3927be	-0.045203917
88	0x3b76356f	0.003756847
89	0xbe11a91e	-0.1422467
90	0x3d2b48d7	0.041817512
91	0x3e1b15e9	0.15145077
92	0xbe075fd1	-0.13220145
93	0x3d0e5fd8	0.034759372
94	0xbd2f74ba	-0.04283593
95	0x3d8d8129	0.06909401
96	0x3d65356e	0.055959158
97	0xbe0318fa	-0.12802497
98	0x3d1af3c6	0.037830137
99	0x3df4a738	0.11945957
100	0xbe1d00c4	-0.15332323
101	0xbd6ad167	-0.057328608
102	0x3e0cbcfe	0.1374397
103	0x3dd27290	0.10275757
104	0x3d1f553b	0.03889964
105	0x3e024f15	0.1272548
106	0x3c4d3890	0.012525693
107	0x3df59f02	0.11993219
108	0x3e0ff626	0.14058742
109	0xbcd8d1fd	-0.026467318
110	0x3c3a7dda	0.011382544
111	0xbd2ad07e	-0.04170274
112	0x3e258933	0.16165619
113	0x3df6d262	0.12051846
114	0x3dd42f78	0.103606164
115	0xbd9e9cbe	-0.0774474
116	0x3de31d3b	0.1108956
117	0xbdf8e353	-0.12152734
118	0x3d9c57b4	0.076339155
119	0x3d91a366	0.07111244
120	0xbdeda682	-0.116040245
121	0xbd50faec	-0.051020548
122	0xbe004d5c	-0.1252951
123	0xbc89c458	-0.016817257
124	0xbe14f546	-0.1454669
125	0xbe116c0e	-0.14201376
126	0xbcc4cc10	-0.024023086
127	0xbdad9315	-0.08475319
128	0x3cdaf448	0.02672781
129	0x3d1d8618	0.03845796
130	0x3d7e62a8	0.062105805
131	0x3e1b3235	0.15155871
132	0xbdcf5ede	-0.10125516
133	0x3e19a527	0.15004407
134	0xbdc798c4	-0.097459346
135	0xbd89dadf	-0.067311995
136	0x3d8781fc	0.066165894
137	0xbe0eed79	-0.13957776
138	0xbdb888fd	-0.090105034
139	0x3de59f56	0.112120315
140	0xbda4b972	-0.080431834
141	0x3d2dfac8	0.04247549
142	0x3daab712	0.08335699
143	0xbcfa8818	-0.030582473
144	0x3c085890	0.008321896
145	0x3d9f4bba	0.077781156
146	0x3e027fe1	0.12744094
147	0x3d5cd678	0.05391547
148	0xbde521e1	-0.111881025
149	0xbd914b37	-0.07094424
150	0xbd9097f6	-0.07060234
151	0x3d963512	0.07334341
152	0x3d91d698	0.07121009
153	0x3e08aa13	0.13346128
154	0xbdc80385	-0.09766296
155	0x3d4c4dc4	0.04987885
156	0x3d8f93de	0.07010625
157	0xbdbab414	-0.091163784
158	0x3dc9998e	0.09843741
159	0xbd6654cc	-0.056233212
160	0x3e1603ac	0.14649838
161	0xbdfcb3b6	-0.12338965
162	0xbdc3774f	-0.09544241
163	0x3c490e6d	0.012271506
164	0xbe10e561	-0.14150001
165	0x3e06e889	0.13174643
166	0x3dbd6474	0.092476755
167	0xbe0143d2	-0.12623528
168	0x3cce3121	0.02516991
169	0xbdc70f07	-0.09719663
170	0x3d1aae22	0.037763722
171	0xbe05328e	-0.13007566
172	0x3d3c87eb	0.04602806
173	0x3dc6600f	0.096862905
174	0x3d8eeaab	0.06978353
175	0x3cd96ec7	0.02654208
176	0xbc52d2e9	-0.012867668
177	0xbda97026	-0.08273344
178	0x3d56cd35	0.052441794
179	0xbe2477e3	-0.16061358
180	0xbc4ec8da	-0.012621129
181	0xbdb982c3	-0.09058144
182	0xbda036f0	-0.078229785
183	0xbc49f324	-0.012326036
184	0xbd8aafc5	-0.06771807
185	0x3d4eb688	0.050467044
186	0xbe23b763	-0.15987925
187	0x3df358c4	0.11882165
188	0x3c165933	0.00917654
189	0xbd464254	-0.0484031
190	0xbdb679fa	-0.08909984
191	0xbde35690	-0.11100495
192	0x3dc0108a	0.093781546
193	0x3e1e784e	0.1547558
194	0x3d0d00dd	0.03442465
195	0xbd0f8eae	-0.03504818
196	0x3e2193be	0.15779015
197	0xbd724789	-0.059150252
198	0xbe1ed960	-0.1551261
199	0x3c313104	0.010814909
200	0x3c1cf1b8	0.009579115
201	0xbda3b8a2	-0.079942
202	0x3d3cb37a	0.0460696
203	0x3c80c628	0.015719488
204	0xbdbd117b	-0.0923185
205	0x3d814074	0.063111216
206	0xbcd88810	-0.026432067
207	0xbd5a533f	-0.053302046
208	0xbddc6af7	-0.107625894
209	0x3e126b80	0.1429882
210	0x3de4ed3d	0.11178062
211	0x3d8ba890	0.0681926
212	0xbde28f2e	-0.110624656
213	0xbdbbfaa7	-0.091786675
214	0xbb977c2d	-0.004622957
215	0xbe20248c	-0.15638942
216	0xbd529b4c	-0.051417634
217	0xbc7b74f2	-0.015347706
218	0xbe25e15f	-0.16199253
219	0xbccf1dc5	-0.02528275
220	0xbd843003	-0.0645447
221	0x3e1bc336	0.15211186
222	0x3d9d97c4	0.076949626
223	0xbdc38b83	-0.09548094
224	0x3dbf6277	0.093449526
225	0x3c64b25a	0.013958538
226	0xbd8aa88a	-0.067704275
227	0x3e06d38d	0.13166638
228	0x3c899356	0.016793888
229	0xbe114d3b	-0.14189617
230	0x3d2b071a	0.04175482
231	0x3e118c43	0.14213662
232	0x3c058922	0.008150371
233	0x3c9e78f3	0.019344782
234	0x3db7f1da	0.089816764
235	0xbd9680f8	-0.073488176
236	0xbdaffb5e	-0.08592866
237	0x3d868641	0.06568576
238	0x3e214658	0.1574949
239	0xbe165a9d	-0.14683004
240	0xbd3c5694	-0.045981005
241	0xb9d8e000	-0.00041365623
242	0x3d6876c8	0.056753904
243	0xbca0c948	-0.019627228
244	0xbd5fadbc	-0.054609045
245	0xbe1ea49f	-0.15492485
246	0xbe1c7654	-0.15279514
247	0x3db47350	0.088110566
248	0x3af0e780	0.0018379539
249	0xbe0d99f8	-0.13828266
250	0xbd5d13c2	-0.05397392
251	0xbdcd8d7a	-0.1003675
252	0xbcddf550	-0.027094513
253	0xbe17dbbe	-0.14829919
254	0xbe04fef8	-0.12987888
255	0x3d913a28	0.070911705

input_layer.bias f4 [40]
0	0xbdcaa0e6	-0.0989397
1	0xbcc5a1a0	-0.02412492
2	0xbd016e6c	-0.031599447
3	0xbdd1de98	-0.102475345
4	0x3dc4dcb6	0.0961241
5	0x3dd9a407	0.10626989
6	0xbe08c4d0	-0.13356328
7	0xbdab5f53	-0.08367791
8	0xbc221050	-0.0098915845
9	0xbc44bfe0	-0.012008637
10	0x3c8fc0d8	0.01754801
11	0xbdacacc2	-0.084313884
12	0x3d7a9c59	0.06118426
13	0xbdaf33d2	-0.08554806
14	0xbe1dea14	-0.15421325
15	0xbe01578d	-0.12631054
16	0x3d15946c	0.0365185
17	0xbc74f500	-0.014950991
18	0x3d8dd4f0	0.0692538
19	0x3e148832	0.1450508
20	0x3e016893	0.12637548
21	0x3db20e13	0.08694091
22	0xbda5d742	-0.08097698
23	0xbd7927c6	-0.060828947
24	0xbd25153c	-0.040303454
25	0xbd464150	-0.04840213
26	0x3dba251d	0.0908911
27	0x3bf725a0	0.007542327
28	0x3d9ce42a	0.07660706
29	0xbdc6f625	-0.09714917
30	0x3d94e2db	0.07269832
31	0x3c8fa715	0.017535726
32	0xbcc1e6c5	-0.02366961
33	0xbdde1602	-0.108440414
34	0xbce94a05	-0.028477678
35	0xbd271e50	-0.040800393
36	0xbd8f974e	-0.07011281
37	0x3d680e9e	0.056654565
38	0xbd1c73cc	-0.03819637
39	0xbd0757b8	-0.03304264

hidden_layers.0.weight f4 [40, 40]
0	0x3d445950	0.047936738
1	0x3e041a01	0.12900545
2	0x3e09ab5c	0.13444275
3	0xbc9b4c90	-0.018957406
4	0xbe21bf85	-0.15795715
5	0xbd7d52c5	-0.061846513
6	0xbe1a606e	-0.15075848
7	0x3ba26740	0.004956156
8	0x3e0fcc0b	0.1404268
9	0x3c74c580	0.014939666
10	0xbd7ac556	-0.06122335
11	0x3de622ee	0.11237131
12	0xbe17c672	-0.14821795
13	0x3e054657	0.13015114
14	0x3d08b2e4	0.03337373
15	0xbd49a3da	-0.049228527
16	0x3d8b8ad6	0.0681359
17	0x3e11b20f	0.1422808
18	0xbe097dcd	-0.13426895
19	0xbdff4bba	-0.124656156
20	0xbdb1769e	-0.086652026
21	0x3dbf8d0b	0.09353074
22	0xbe0c5c63	-0.13707118
23	0xbda381a5	-0.07983712
24	0x3e027191	0.12738635
25	0xbd8ce199	-0.06878967
26	0x3d58f822	0.052971013
27	0x3e15c305	0.14625175
28	0x3dc93923	0.09825351
29	0x3d08da30	0.033411205
30	0xbd56c47e	-0.052433483
31	0x3d3f5195	0.046708662
32	0xbdeb7c85	-0.114983596
33	0xbe235ab0	-0.15952563
34	0xbdb867a6	-0.09004144
35	0x3ddc5dca	0.10760076
36	0x3e1bc183	0.15210538
37	0xbdf2da2b	-0.118580185
38	0x3e15d09d	0.14630361
39	0xbcfa5260	-0.030556858
40	0x3dbc0e84	0.09182456
41	0x3e141ccf	0.14464115
42	0xbe1d3243	-0.15351205
43	0xba8c6780	-0.0010711998
44	0x3e16d065	0.14727934
45	0x3e16f36b	0.14741294
46	0x3dd03b7e	0.10167597
47	0xbdd72a18	-0.105060756
48	0x3d88ae60	0.066738844
49	0x3df8d452	0.12149872
50	0x3d846b10	0.06465733
51	0x3df21f7a	0.1182241
52	0xbe165f57	-0.14684807
53	0xbd6c4658	-0.057684273
54	0x3c16b790	0.009199038
55	0x3e08544b	0.13313405
56	0x3d81fc22	0.06346919
57	0x3bc21000	0.0059223175
58	0x3e0f7af3	0.14011745
59	0xbd80a335	-0.06281129
60	0x3dfdd9f6	0.123950884
61	0x3dd7d6be	0.10539006
62	0x3dd24e02	0.10268785
63	0xbc3fc950	-0.0117057115
64	0x3e125e9b	0.14293902
65	0xbd3867fc	-0.045021042
66	0x3dc30706	0.09522824
67	0xbdfeac5a	-0.12435217
68	0x3dd414d6	0.10355537
69	0xbdc2e67f	-0.0951662
70	0xbe17e1e6	-0.14832267
71	0x3e071e13	0.13195066
72	0xbdab4998	-0.08363646
73	0x3d9c4846	0.076309726
74	0x3dca92ca	0.09891279
75	0x3cc8b2e0	0.024499357
76	0xbc6f0020	-0.014587432
77	0xbd13453a	-0.03595469
78	0xbd5a18b8	-0.05324623
79	0xbddc9662	-0.10770871
80	0x3ddd5112	0.108064786
81	0x3d3dc944	0.04633452
82	0x3cbd6286	0.023118269
83	0x3e07fd4d	0.1328022
84	0x3db978e2	0.0905626
85	0xbda7cf7e	-0.08193873
86	0x3e0a24bb	0.13490574
87	0x3da04e50	0.07827437
88	0xbdf4e8eb	-0.11958488
89	0x3e13e793	0.14443807
90	0x3de56dc2	0.11202575
91	0x3d54b298	0.051928133
92	0x3bf2a9f1	0.0074055125
93	0x3e078209	0.13233198
94	0xbdd861aa	-0.10565503
95	0xbdd20e4c	-0.10256633
96	0xb83e2000	-4.5329332e-05
97	0x3db4acc4	0.08822015
98	0x3d8b448d	0.068001844
99	0xbcb59c6e	-0.022169318
100	0xbd1e5a14	-0.038660124
101	0x3e143c28	0.14476073
102	0x3c080830	0.008302733
103	0xbdcddbdf	-0.10051703
104	0x3e0b4291	0.13599612
105	0x3e19ae03	0.15007786
106	0x3e235288	0.15949452
107	0x3bdf0ee0	0.006807193
108	0xbda63049	-0.081146784
109	0x3b168140	0.0022965223
110	0xbddbc785	-0.10731415
111	0xbcbfc703	-0.023410326
112	0x3d190d8f	0.037366446
113	0xbda16ef8	-0.07882494
114	0xbe0dc2e9	-0.13843884
115	0xbd80691a	-0.062700465
116	0x3d8506fc	0.06495473
117	0x3d123e91	0.0357042
118	0xbd5fbc63	-0.05462302
119	0xbcf86fa8	-0.03032668
120	0x3d9ab5e8	0.07554227
121	0xbdc3954a	-0.09549959
122	0xbd94afa5	-0.07260064
123	0x3e0cead5	0.13761456
124	0xbd925b35	-0.071463026
125	0x3d8292c0	0.063756466
126	0x3d397c10	0.04528433
127	0xbe1f0c8c	-0.1553213
128	0xbd966d1a	-0.07345028
129	0xbdbd377e	-0.092391
130	0x3dd9a49e	0.10627101
131	0xbe1772b4	-0.1478985
132	0x3e063081	0.1310444
133	0xbd47327e	-0.048632137
134	0xbcaf63c8	-0.021409884
135	0xbd1e090e	-0.038582854
136	0x3e045db3	0.12926368
137	0x3db0c654	0.08631578
138	0x3e0279d3	0.12741785
139	0xbce0b610	-0.027430564
140	0x3ca9da38	0.020733938
141	0x3d1fdad0	0.039027035
142	0x3ce888c8	0.028385535
143	0x3d341784	0.04396774
144	0x3d8cb88e	0.068711385
145	0xbd3c8134	-0.046021655
146	0xbaf42180	-0.0018625706
147	0x3d9e4076	0.07727139
148	0xbd16ae36	-0.036787234
149	0x3da73d10	0.081659436
150	0xbdd05618	-0.10172671
151	0x3db42886	0.08796792
152	0xbe048a30	-0.1294334
153	0xbc938290	-0.018006593
154	0xbe1431fd	-0.14472194
155	0xbd9f0e03	-0.077663444
156	0xbe001be0	-0.12510633
157	0xbcfd9f68	-0.0309598
158	0x3e043cad	0.12913771
159	0x3c5c7c10	0.013457313
160	0xbdb4e981	-0.088336
161	0xbe1ce460	-0.15321493
162	0x3c8cc5f3	0.017184233
163	0x3d86c4be	0.06580494
164	0xbc26b5ce	-0.010175182
165	0x3df84c74	0.12123957
166	0x3d4fa0b0	0.050690353
167	0x3d80f16c	0.062960476
168	0x3c117710	0.008878484
169	0xbe197f5f	-0.14989994
170	0x3d9533e8	0.07285291
171	0x3dc2f106	0.09518628
172	0xbe0010b3	-0.1250637
173	0xbe17a4f2	-0.14809015
174	0x3b1a8ec0	0.002358362
175	0x3e11a085	0.1422139
176	0xbd93c482	-0.07215215
177	0x3d6c2df4	0.05766101
178	0x3e0a229d	0.13489766
179	0x3e0cdf9a	0.13757172
180	0xbded092e	-0.115740165
181	0x3d622cf6	0.05521866
182	0xbe0785cf	-0.13234638
183	0x3daf5080	0.08560276
184	0xbd9ab050	-0.0755316
185	0x3d1640a0	0.036682725
186	0xbdb8db85	-0.09026245
187	0x3e185639	0.14876641
188	0x3dee28b4	0.11628857
189	0xbd0cd9ca	-0.034387387
190	0xbd5529f7	-0.052041974
191	0x3e073366	0.132032
192	0xbde85643	-0.11344578
193	0x3d85fd9e	0.06542514
194	0x3d365bac	0.04452102
195	0x3deb554a	0.11490877
196	0xbd9c4710	-0.076307416
197	0x3d1edec3	0.03878666
198	0x3e177f8a	0.14794746
199	0x3d00d2b0	0.031450927
200	0xbddb96a0	-0.10722089
201	0xbdd24198	-0.10266417
202	0x3dc16207	0.09442525
203	0x3bf382c0	0.007431358
204	0x3e266c12	0.16252163
205	0xbe0550c8	-0.13019097
206	0x3cf835e8	0.030299142
207	0x3ddd7786	0.10813813
208	0xbdf1d687	-0.11808496
209	0x3d9e2a7a	0.077229455
210	0x3b86e580	0.004116714
211	0xbd5e0f32	-0.05421371
212	0xbde44918	-0.11146754
213	0x3da60294	0.081059605
214	0xbc8ca858	-0.017170116
215	0xbd9808e6	-0.07423572
216	0xbaaeda80	-0.0013340265
217	0x3bb48da0	0.005510047
218	0xbded2b3a	-0.115805104
219	0xbd9e53e6	-0.07730846
220	0xbdabab18	-0.08382243
221	0x3d7bc94a	0.06147126
222	0x3a0fdd00	0.00054879487
223	0xbbbea320	-0.005817786
224	0x3dc6e7f2	0.09712209
225	0xbdb3cbe4	-0.087791234
226	0xbdc04f26	-0.09390096
227	0x3d1ad824	0.037803784
228	0x3cf02099	0.029312419
229	0xbe11fe35	-0.14257129
230	0x3e05637a	0.13026229
231	0x3d6a20c9	0.057160173
232	0xbd931e25	-0.07183484
233	0x3d59c414	0.05316551
234	0xbd80348a	-0.06260021
235	0x3c51c5f0	0.01280354
236	0x3db77b50	0.08959067
237	0x3da8fa55	0.08250872
238	0x3d83fa98	0.06444281
239	0xbd216040	-0.03939843
240	0x3df1a84e	0.1179968
241	0xbe0fb3ea	-0.14033476
242	0x3c96ba48	0.018399373
243	0xbdb6480d	-0.08900461
244	0xbd8fc6ef	-0.070203654
245	0xbdf1471e	-0.11781143
246	0x3c9ca650	0.019122273
247	0x3e1aecc9	0.15129389
248	0xbca13798	-0.01967983
249	0xbe0072a1	-0.12543727
250	0x3dfadfb6	0.12249701
251	0x3cf1ee80	0.029532671
252	0x3d788e2c	0.06068246
253	0xbcd3e568	-0.025866225
254	0x3cbce5e8	0.023058847
255	0xbdd541b0	-0.104129195

hidden_layers.0.bias f4 [40]
0	0x3dfacb0d	0.1224576
1	0xbdc5d610	-0.0965997
2	0x3d824ae6	0.06361942
3	0xbdd11e3d	-0.102108456
4	0x3e061e09	0.13097395
5	0x3d367fa4	0.04455532
6	0xbdc09f83	-0.094054244
7	0xbd4e9d20	-0.050442815
8	0x3e0ca07f	0.137331
9	0xbd7b7b96	-0.061397158
10	0x3c8d8250	0.017274052
11	0xbd981e34	-0.07427636
12	0xbe0a4358	-0.13502252
13	0xbd64bf46	-0.055846475
14	0xbbfcb3d1	-0.0077118655
15	0xbde4caf4	-0.11171523
16	0xbd087fe9	-0.03332511
17	0xbc978d59	-0.018500017
18	0xbd6d0994	-0.057870463
19	0xbd48bb2c	-0.049006626
20	0xbdc4dadc	-0.096120566
21	0xbdc7cf6a	-0.09756358
22	0x3d9dd715	0.07707039
23	0xbdbe8f70	-0.09304702
24	0xbd05881c	-0.032600507
25	0x3c8b0d85	0.01697422
26	0xbdc2bff5	-0.09509269
27	0x3d5ff956	0.054681145
28	0xbd961c30	-0.07329595
29	0xbdb1736c	-0.08664593
30	0x3e16fee5	0.14745672
31	0x3da9bb7b	0.08287712
32	0xbd8afda9	-0.06786663
33	0xbda29176	-0.07937901
34	0xbd96f45b	-0.07370826
35	0x3e0714c2	0.13191512
36	0x3da68326	0.08130483
37	0xbde19146	-0.11014037
38	0x3be9b735	0.0071324357
39	0x3de1d2a1	0.110265024

hidden_layers.1.weight f4 [40, 40]
0	0x3d39a296	0.04532107
1	0xbdce2579	-0.10065741
2	0x3c1218ca	0.008917043
3	0x3d8b7f9a	0.068114474
4	0x3e146395	0.14491113
5	0x3d5e85a9	0.054326687
6	0x3ca77670	0.020442218
7	0xbdfac77c	-0.1224508
8	0x3e23d62d	0.1599967
9	0x3bc7fec0	0.0061033666
10	0x3e22c078	0.15893734
11	0xbb9f89a0	-0.004868701
12	0x3c887fc0	0.016662478
13	0x3dcb23ca	0.099189356
14	0xbdb0ccbb	-0.08632799
15	0x3dc4e492	0.09613909
16	0xbd9a1145	-0.07522825
17	0xbdffd4a3	-0.12491729
18	0x3c6f99b0	0.014624044
19	0x3d30e514	0.043187216
20	0x3e0d9b97	0.13828884
21	0x3e04fbc7	0.1298667
22	0xbd64b744	-0.05583884
23	0xbd88eb5b	-0.066855155
24	0x3e063f83	0.13110165
25	0x3daecc19	0.08535022
26	0xbd1bb802	-0.03801728
27	0x3d9d06e4	0.0766733
28	0xbc473c20	-0.012160331
29	0x3dd86c86	0.10567574
30	0x3de12bc3	0.10994675
31	0x3d737d10	0.05944544
32	0x3df5b62a	0.11997636
33	0x3e0b963d	0.1363153
34	0x3dcdb7aa	0.10044797
35	0x3dd15b94	0.10222545
36	0xbd906665	-0.0705078
37	0x3dc019de	0.09379934
38	0x3c9b5e57	0.018965883
39	0xbd84f235	-0.0649151
40	0xbd5c7c12	-0.05382926
41	0x3dc2e91e	0.0951712
42	0x3d843330	0.06455076
43	0xbe1116d4	-0.14168864
44	0xbd3c1d10	-0.045926154
45	0x3c9cf3a0	0.019159138
46	0x3da20768	0.07911569
47	0x3e014609	0.12624373
48	0x3c886f90	0.01665476
49	0xbd36ac00	-0.044597626
50	0x3e1aa435	0.15101703
51	0x3df80d3a	0.12111898
52	0xbd8d9417	-0.069130115
53	0xbbcd1ea0	-0.0062597543
54	0xbd500d46	-0.05079391
55	0x3afbbd80	0.0019206256
56	0xbe1ac706	-0.15114984
57	0x3d32d8fc	0.043663964
58	0xbd554430	-0.05206698
59	0xbdb3a7d4	-0.08772245
60	0x3d4c38d8	0.049858898
61	0xbd3fb3d2	-0.04680235
62	0x3dbbceda	0.09170313
63	0xbc1acbf0	-0.009448037
64	0x3dd6cfee	0.10488878
65	0xbd855003	-0.06509402
66	0x3d2aec8c	0.041729495
67	0xbd17b616	-0.037038885
68	0x3e0b67ed	0.13613863
69	0xbd8ea03e	-0.069641575
70	0xbe06f9a6	-0.13181171
71	0x3b0bd240	0.0021335036
72	0xbd9eb55c	-0.07749435
73	0x3d075854	0.03304322
74	0x3e07007b	0.13183777
75	0x3d521a3c	0.05129455
76	0xbdd429fa	-0.10359569
77	0x3cfa1320	0.030526698
78	0xbdeb5597	-0.11490934
79	0x3dc12d22	0.094324365
80	0xbc810e60	-0.015753925
81	0x3e1699b5	0.14707072
82	0xbdedea7a	-0.116169885
83	0xbd08d98c	-0.033410594
84	0xbdf2a5f4	-0.11848059
85	0x3d95f42c	0.07321963
86	0xbdba9a7e	-0.09111498
87	0xbc687070	-0.014186963
88	0x3b54fe80	0.0032500327
89	0x3d46a380	0.04849577
90	0x3d88dbf4	0.06682578
91	0x3e0edab9	0.13950624
92	0x3dc68a16	0.096943066
93	0xbe192dd8	-0.14958894
94	0xbd1cf882	-0.038322933
95	0xbdbfc131	-0.0936302
96	0xbe05daf8	-0.13071811
97	0x3e115b5b	0.14195006
98	0x3d67f35c	0.05662857
99	0xbdab7c27	-0.083732896
100	0xbd27b282	-0.040941723
101	0xbba2aa20	-0.004964128
102	0x3d224910	0.03962046
103	0x3db8a37e	0.09015559
104	0x3cf611b8	0.030037746
105	0xbc86f530	-0.016474336
106	0xbd90743f	-0.07053422
107	0xbe1caf3b	-0.1530122
108	0xbe095509	-0.13411345
109	0xbe17caa4	-0.14823395
110	0x3c92fef0	0.01794383
111	0xbe0cc03b	-0.13745205
112	0x3e20f86f	0.1571977
113	0xbdfe7f48	-0.12426621
114	0x3d8e7c9c	0.06957361
115	0x3d6973d0	0.056995213
116	0x3da43122	0.08017184
117	0xbdf549ac	-0.119769424
118	0xbdf4e9e0	-0.119586706
119	0xbe09d7e2	-0.13461259
120	0xbe1526bc	-0.14565557
121	0x3e13ebdf	0.14445446
122	0xbd566ec4	-0.052351728
123	0x3e165d4b	0.14684026
124	0x3c9337f4	0.017971016
125	0x3d7bbf2b	0.06146161
126	0xbdce42c6	-0.1007133
127	0x3cb80a38	0.02246581
128	0x3e067515	0.13130601
129	0x3d6d0554	0.05786641
130	0x3e04bbc3	0.1296225
131	0x3de11d9e	0.10991977
132	0xbd53804c	-0.051636025
133	0xbc5b0d50	-0.013369873
134	0xbd031acb	-0.032007974
135	0xbd78d246	-0.060747407
136	0x3ddc8510	0.10767567
137	0xbcf10bb1	-0.02942452
138	0x3dae12c0	0.0849967
139	0x3e0cde45	0.13756664
140	0x3d38c6d0	0.045111477
141	0xbd2c02e4	-0.041994944
142	0x3e1f9690	0.15584779
143	0xbdc7bbea	-0.09752639
144	0x3d312b8c	0.04325442
145	0xbdeaef87	-0.114714675
146	0xbe018e83	-0.1265202
147	0x3d306e93	0.0430742
148	0xbe06c355	-0.13160451
149	0x3d806088	0.06268412
150	0x3c35a482	0.011086585
151	0x3dfed1a4	0.124423295
152	0x3e0069c2	0.12540343
153	0xbd1d678a	-0.03842882
154	0xbdfcd64c	-0.123455614
155	0xbdb7cb58	-0.089743316
156	0xbccc9d12	-0.02497724
157	0xbcb3fae8	-0.021970227
158	0x3d746d4d	0.05967455
159	0x3e03fa64	0.12888485
160	0xbdfa931c	-0.1223509
161	0x3aa2b700	0.0012414157
162	0x3c7050e0	0.01466772
163	0xbd8d3ad8	-0.06895989
164	0xbd1b9d4e	-0.037991814
165	0x3db239c0	0.08702421
166	0xbda07ccc	-0.07836303
167	0xbcd81670	-0.026377887
168	0x3d7ac598	0.061223596
169	0x3da6ef4c	0.08151111
170	0x3d6c7280	0.057726383
171	0xbdc44afc	-0.09584615
172	0xbd901659	-0.070355125
173	0xba0f8f00	-0.0005476326
174	0x3c53ab60	0.012919277
175	0xbd07ba4c	-0.03313665
176	0xbdbd30e7	-0.09237843
177	0x3c0f52f0	0.008747801
178	0xbdecf925	-0.11570958
179	0xbd883570	-0.066508174
180	0x3d0a2894	0.033730105
181	0xbd42f464	-0.04759635
182	0x3d6810b8	0.05665657
183	0x3e049cb5	0.12950404
184	0x3dcae972	0.099078074
185	0x3db2822a	0.08716233
186	0xbddd5884	-0.10807899
187	0xbdd0b8ea	-0.101915196
188	0xbd0fa0fc	-0.035065636
189	0x3cabe388	0.020982519
190	0xbc9ca360	-0.019120872
191	0x3e216635	0.15761645
192	0x3d91373c	0.07090613
193	0x3e04378b	0.12911813
194	0x3ddfe61e	0.10932563
195	0xbd9518ac	-0.072800964
196	0x3dbfb31a	0.09360333
197	0xbd09034a	-0.033450402
198	0xbc0525b0	-0.008126661
199	0xbdb25056	-0.08706729
200	0x3d825dac	0.06365523
201	0xbdb6e942	-0.08931209
202	0x3da96186	0.08270554
203	0xbdbb9a40	-0.0916028
204	0x3df457de	0.11930822
205	0xbcec8310	-0.02887109
206	0x3dbebb92	0.0931312
207	0x3e18a5b3	0.14906959
208	0xbd8d6658	-0.06904286
209	0x3da6f2ea	0.08151801
210	0x3d390458	0.04517016
211	0xbe0e2840	-0.13882542
212	0xbc59e410	-0.013299003
213	0x3e00ea99	0.12589492
214	0x3d23bae8	0.03997317
215	0x3df89c3a	0.12139173
216	0xbdbe0758	-0.092787445
217	0x3dbfc1ce	0.09363137
218	0x3d869876	0.06572048
219	0xbdbef4a9	-0.09324009
220	0xbd7a17d4	-0.06105788
221	0xbd075fdc	-0.033050403
222	0xbd64f2d2	-0.055895634
223	0xbd8e9330	-0.069616675
224	0xbdc4c6fa	-0.09608264
225	0x3d188ddc	0.037244663
226	0x3c3ce1f0	0.011528477
227	0x3dba68ba	0.09102006
228	0x3dfc5ed2	0.12322773
229	0xbdebb1b3	-0.11508503
230	0xbca891e0	-0.020577371
231	0xbe0b9b78	-0.13633525
232	0xbdd96f2e	-0.10616909
233	0x3df4b6d2	0.11948933
234	0xbcf74300	-0.030183315
235	0x3dc8068e	0.09766875
236	0xbe02c88a	-0.12771812
237	0x3dfd5a76	0.1237077
238	0xbdbb0aaa	-0.091328934
239	0xbc0e4520	-0.008683473
240	0xbd1e63e4	-0.038669482
241	0xbe00336a	-0.12519613
242	0x3e062e85	0.13103683
243	0xbd7010a2	-0.058609612
244	0x3dc90faa	0.09817441
245	0x3d4e98c8	0.050438672
246	0x3e01286d	0.12613077
247	0x3de21dca	0.11040838
248	0x3c090f30	0.008365437
249	0xbca9fa10	-0.020749122
250	0xbe094ee3	-0.13408999
251	0xbe19b0b4	-0.15008813
252	0xbd3afe4e	-0.04565268
253	0xbd88e8e3	-0.066850446
254	0x3d4ea5f4	0.050451234
255	0xbdf335b3	-0.11875477

hidden_layers.1.bias f4 [40]
0	0xbd0186b0	-0.03162259
1	0xbe15de03	-0.14635472
2	0xbd3d625c	-0.04623638
3	0x3d4b8cde	0.04969489
4	0xbd664858	-0.056221336
5	0xbe21bf6d	-0.1579568
6	0xbe0aa728	-0.13540328
7	0x3d8d0638	0.06885952
8	0x3ddf7100	0.10910225
9	0xbe0ca457	-0.13734566
10	0x3dd1f948	0.10252625
11	0xbdd24325	-0.10266713
12	0xbe114df6	-0.14189896
13	0x3e0b1773	0.13583164
14	0xbdd886d8	-0.105725944
15	0x3ddfd7ed	0.109298564
16	0x3e011ef7	0.12609468
17	0xbd3c1bd0	-0.04592496
18	0xbdc1dcdb	-0.09465953
19	0x3e28a59f	0.1646943
20	0xbda56dd1	-0.080775864
21	0xbccd3f68	-0.025054649
22	0x3c6d12f0	0.014469847
23	0x3df5ee07	0.12008291
24	0x3df89384	0.121375114
25	0x3d060364	0.032718077
26	0xbe057618	-0.1303333
27	0x3bea69e0	0.0071537346
28	0x3db2bd60	0.08727527
29	0x3db4a693	0.08820834
30	0x3e17779d	0.14791723
31	0x3e17c10b	0.14819734
32	0x3e0266fd	0.127346
33	0xbb985a40	-0.0046494305
34	0x3d978613	0.073986195
35	0xbe08c0a3	-0.13354735
36	0xbca2e5d0	-0.019884974
37	0x3e0e14ea	0.13875166
38	0xbc1163e4	-0.008873913
39	0x3d78d2ab	0.060747784

hidden_layers.2.weight f4 [40, 40]
0	0xbe1e443e	-0.1545572
1	0xbcd4abe0	-0.025960863
2	0xbd8fd2b2	-0.07022609
3	0xbcf30508	-0.029665485
4	0x3cc90288	0.02453734
5	0x3dadeb8c	0.084921926
6	0xbc10b180	-0.008831382
7	0x3d5aeb40	0.053447008
8	0xbe09d3f1	-0.13459755
9	0xbe065a3c	-0.13120359
10	0x3d99d178	0.07510656
11	0x3e13ef57	0.1444677
12	0x3e03e429	0.12880005
13	0x3d122b40	0.035685778
14	0xbdb729e6	-0.08943538
15	0xbde10f38	-0.10989231
16	0x3cb8b9f8	0.022549614
17	0x3e00e1ff	0.1258621
18	0x3c01aca0	0.007914692
19	0xbe1cd1a7	-0.15314351
20	0xbc63fcc0	-0.013915241
21	0x3e21272d	0.157376
22	0x3e19854b	0.14992253
23	0x3cb58ad8	0.022160932
24	0xbdbcfe83	-0.09228232
25	0x3d7767f4	0.06040187
26	0x3dafc06c	0.085816234
27	0xbe121d4b	-0.14268987
28	0xbdac7f66	-0.08422737
29	0x3da72d7c	0.08162972
30	0x3de1d2de	0.11026548
31	0x3d97d7e0	0.07414222
32	0x3d3f25ec	0.046667024
33	0xbdb89db1	-0.09014452
34	0x3ddebeea	0.10876258
35	0xbdeced4e	-0.115687
36	0xbda6fa92	-0.08153261
37	0xbc1fbee0	-0.009750098
38	0xbd3bdf48	-0.045867234
39	0x3e0914b7	0.13386808
40	0xbe08fa62	-0.13376763
41	0xbd8927c4	-0.06697038
42	0x3d141de4	0.03616132
43	0x3dd6356e	0.1045941
44	0x3d8e1f90	0.06939614
45	0x3d786fa8	0.06065336
46	0xbe14b55f	-0.14522313
47	0x3e1396ab	0.14412944
48	0xbe1e8451	-0.15480162
49	0xbe061e82	-0.13097575
50	0xbcb56460	-0.02214259
51	0xbd89c97a	-0.06727882
52	0x3c4d36a0	0.012525231
53	0x3df24e16	0.118313
54	0x3d01b2b4	0.031664565
55	0x3e0e3c73	0.13890247
56	0xbded79ee	-0.11595522
57	0xbd84409c	-0.06457636
58	0xbc599bb0	-0.013281748
59	0xbc978148	-0.018494263
60	0x3cdc4620	0.026888907
61	0xbbc60ca0	-0.0060439855
62	0x3d8a4022	0.067505136
63	0xbd6fdd3e	-0.058560602
64	0xbd3c2242	-0.04593111
65	0x3d03d7b4	0.032188132
66	0x3dd205da	0.10255022
67	0xbe157740	-0.14596272
68	0x3a79d700	0.00095306337
69	0x3e080e9d	0.13286825
70	0x3b2b7600	0.0026162863
71	0x3ccf8380	0.025331259
72	0x3e1e1ae7	0.1543995
73	0x3d56b684	0.052420154
74	0x3cfbe258	0.030747578
75	0xbb1536c0	-0.002276823
76	0xbe13067e	-0.14357945
77	0xbd98f653	-0.074688576
78	0xbb8a0180	-0.0042116046
79	0x3dd14ec6	0.10220103
80	0xbdfc90c9	-0.12332303
81	0x3d0b1498	0.033955187
82	0x3e04e90d	0.12979527
83	0xbe0081cd	-0.12549515
84	0xbc87fef0	-0.016601056
85	0x3d5b3424	0.053516522
86	0x3c58e790	0.013238803
87	0xbdc46348	-0.09589249
88	0x3d9ae087	0.075623564
89	0xbdbbfc13	-0.09178939
90	0xbe0c2a70	-0.13688064
91	0xbdb7f3ca	-0.08982046
92	0xbc697f70	-0.014251575
93	0xbdb5e5f0	-0.08881748
94	0xbe1a8bcd	-0.15092392
95	0x3cf90f20	0.03040272
96	0xbd550c9c	-0.05201398
97	0xbcc98740	-0.024600625
98	0xbd80659f	-0.06269383
99	0x3cdb77e3	0.026790565
100	0xbdac333a	-0.08408208
101	0xbda99f52	-0.08282341
102	0x3d6891fc	0.056779847
103	0x3e0ab5c5	0.13545902
104	0x3d7b63b7	0.061374392
105	0xbd307c82	-0.04308749
106	0xbe20eeb4	-0.15716058
107	0x3df9bcf6	0.121942446
108	0x3d774342	0.060366876
109	0xbdb49835	-0.08818094
110	0x3b26fe2e	0.0025481093
111	0x3b856983	0.004071416
112	0xbdc853c6	-0.097816035
113	0x3da09744	0.07841352
114	0xbe041fdc	-0.12902778
115	0x3d351b94	0.044215754
116	0xbcd85a38	-0.026410207
117	0x3e0cf08c	0.13763636
118	0xbcbca71e	-0.023028906
119	0x3db5bdff	0.088741295
120	0x3dd4c20e	0.103885755
121	0xbc4b7250	-0.012417391
122	0xbc48cdc0	-0.012256086
123	0xbc34bcd0	-0.0110313445
124	0xbd5f8426	-0.054569386
125	0x3daa6788	0.08320528
126	0x3cbf8fa0	0.023383915
127	0xbe20102b	-0.15631168
128	0x3db0da78	0.086354196
129	0x3b03b700	0.002009809
130	0xbdd85f9c	-0.10565111
131	0xbdc6ae84	-0.09701255
132	0x3deb2582	0.114817634
133	0xbde68d60	-0.11257434
134	0xbd6468ba	-0.055763938
135	0xbc4b7640	-0.01241833
136	0xbcf05ea8	-0.02934201
137	0x3b2d8200	0.002647519
138	0xbcc34f38	-0.023841485
139	0x3dc69daa	0.09698041
140	0x3e0cc241	0.13745977
141	0xbca3b908	-0.01998569
142	0x3d1acf0c	0.03779511
143	0xbe019e4b	-0.1265804
144	0xbdf1fa54	-0.118153244
145	0x3d8a33cc	0.06748161
146	0xbe1b23a7	-0.15150319
147	0xbe108aea	-0.14115492
148	0xbdbe7c4a	-0.0930105
149	0xbd9c9521	-0.076456316
150	0xbd89eed0	-0.06735003
151	0x3c889768	0.016673759
152	0xbdbf36bc	-0.09336612
153	0x3cc162b0	0.023606628
154	0x3d8ad152	0.06778206
155	0x3ca456f0	0.020060986
156	0xbde00772	-0.1093892
157	0xbdb147ad	-0.08656249
158	0xbe1402ca	-0.14454189
159	0xbd24f884	-0.040276065
160	0xbdd4d0ea	-0.1039141
161	0xbdfbac80	-0.12288761
162	0xbc481ef0	-0.012214407
163	0x3d923428	0.07138854
164	0xbdb23ffe	-0.08703612
165	0x3c931a68	0.017956927
166	0x3d734db8	0.05940029
167	0x3c6a4970	0.014299735
168	0xbe1cd590	-0.15315843
169	0xbda97b78	-0.08275503
170	0xbdc1ad31	-0.09456862
171	0xbd24cfcc	-0.040237233
172	0x3dd785a6	0.10523538
173	0xbd0080f4	-0.03137298
174	0x3e0ac58d	0.13551922
175	0x3d888c4e	0.06667386
176	0x3dd58592	0.10425867
177	0xbda62dea	-0.08114226
178	0x3e20152d	0.15633078
179	0xbd7b32c6	-0.06132772
180	0xbcb45278	-0.02201198
181	0xbd99d84a	-0.07511957
182	0xbe01f7ad	-0.12692137
183	0x3c4fc0a0	0.012680203
184	0xbdd1937a	-0.10233207
185	0x3d5b4198	0.053529352
186	0xbd8acd6d	-0.06777463
187	0x3cfa2190	0.030533582
188	0x3e139269	0.1441132
189	0x3de496ce	0.11161576
190	0x3c732170	0.014839515
191	0xbe1a76eb	-0.15084426
192	0x3dcd5b0a	0.1002713
193	0xbb7e2540	-0.0038779527
194	0xbdc90e22	-0.09817149
195	0xbe12be14	-0.14330322
196	0x3e1d9e23	0.15392356
197	0x3e0bc7f7	0.136505
198	0xbe05b50d	-0.13057347
199	0x3bf4d980	0.007472217
200	0xbc260240	-0.010132372
201	0x3d33aef0	0.043868005
202	0x3e21bc6b	0.15794532
203	0x3df524ee	0.119699344
204	0x3dfb250a	0.12262924
205	0x3dad29ec	0.084552616
206	0xbdf8dcf0	-0.121515155
207	0x3d9c157c	0.07621285
208	0xbd9ad9ca	-0.07561071
209	0x3db5362c	0.08848223
210	0x3d57893c	0.05262111
211	0x3d7eaec4	0.06217839
212	0x3d8e1a00	0.06938553
213	0xbde3d9c0	-0.11125517
214	0x3dd08a66	0.101826474
215	0xbe1024aa	-0.14076486
216	0x3b902fe0	0.0044002384
217	0x3d86f2c0	0.0658927
218	0xbd299044	-0.041397348
219	0x3d0e31ec	0.034715578
220	0x3c9e4248	0.019318715
221	0x3cb30120	0.021851122
222	0xbd9a93af	-0.075477
223	0x3ce65938	0.028118715
224	0xbcd4ed50	-0.025992066
225	0xbe209cf7	-0.15684877
226	0xbe05429b	-0.13013689
227	0x3df5da12	0.12004484
228	0x3e1b9b0f	0.15195869
229	0xbdf637be	-0.12022351
230	0x3e01e3c1	0.12684537
231	0x3ddb52e6	0.10709171
232	0xbe096532	-0.13417509
233	0x3d9929e2	0.07478692
234	0x3bff1e80	0.0077856183
235	0xbd0da576	-0.034581624
236	0xbc7bf500	-0.015378237
237	0xbe03e822	-0.1288152
238	0x3e052e57	0.13005958
239	0x3d976464	0.07392195
240	0x3e039fd2	0.12853935
241	0xbd3c0628	-0.04590431
242	0xbbb1fba0	-0.0054316074
243	0x3cf30842	0.029667024
244	0x3d471790	0.048606455
245	0x3dfbd85e	0.12297128
246	0x3dd476f2	0.103742495
247	0xbe20f4d5	-0.15718396
248	0xbe2405f5	-0.16017897
249	0xbc71d910	-0.014761224
250	0xbdf133a5	-0.117774285
251	0x3dfa6902	0.1222706
252	0x3de1c6e6	0.11024265
253	0xbd3e060a	-0.046392478
254	0x3d08bdd4	0.03338416
255	0xbdb01938	-0.0859856

hidden_layers.2.bias f4 [40]
0	0xbdb77efb	-0.089597665
1	0xbcc1afc0	-0.023643374
2	0x3d8ae815	0.067825474
3	0xbe002b2f	-0.12516473
4	0xbc9981c0	-0.018738627
5	0xbd973389	-0.073828764
6	0xbc48fd2a	-0.01226739
7	0x3d1aa22a	0.037752308
8	0x3e199106	0.14996728
9	0x3d4691d1	0.048478905
10	0x3c8ac315	0.016938725
11	0x3e00828a	0.12549797
12	0x3e046b77	0.1293162
13	0x3dcb883a	0.099380925
14	0x3e12b987	0.14328586
15	0x3dc9d705	0.09855465
16	0xbd908ad2	-0.07057728
17	0x3e1136d4	0.14181072
18	0xbd974b06	-0.073873565
19	0xbe174058	-0.14770639
20	0xbcac57e0	-0.021037996
21	0x3c103f70	0.008804187
22	0x3da00cd9	0.078149505
23	0x3de5077f	0.111830704
24	0xbddf4690	-0.109021306
25	0xbd72195c	-0.059106216
26	0x3d851f8b	0.06500157
27	0x3df47400	0.11936188
28	0xbd13b910	-0.03606516
29	0xbdedf53f	-0.116190426
30	0x3e2070b7	0.15667997
31	0xbafe5200	-0.00194031
32	0x3d944a0f	0.07240688
33	0xbda4cf5d	-0.08047364
34	0xbdf2229a	-0.11823006
35	0x3c6937ef	0.014234527
36	0xbe129b78	-0.14317119
37	0xbd5c6f52	-0.0538171
38	0xbcebf0eb	-0.028801402
39	0x3c235da0	0.009971052

hidden_layers.3.weight f4 [40, 40]
0	0xbb122700	-0.0022301078
1	0xbd7d65b8	-0.061864585
2	0xbd9a0474	-0.075203806
3	0x3bfac0a0	0.007652357
4	0xbe151547	-0.14558898
5	0xbda4caa9	-0.08046467
6	0x3d2e6964	0.042580977
7	0xbe127707	-0.14303218
8	0x3e091f3f	0.13390826
9	0xb8bf4800	-9.121001e-05
10	0xbc99d158	-0.01877658
11	0xbe06bc04	-0.1315766
12	0xbd8b5498	-0.06803244
13	0xbd62d51a	-0.05537901
14	0xbc8c34e0	-0.017115057
15	0xbd283860	-0.04106939
16	0x3de58446	0.1120687
17	0xbd9fcb04	-0.07802394
18	0xbd9af2d2	-0.075658455
19	0x3ddf8e46	0.109158084
20	0x3aeb4a80	0.001795128
21	0x3dcb4872	0.09925927
22	0xbe03dc51	-0.12877013
23	0xbcd2f888	-0.025753275
24	0xbd0e0de6	-0.034681223
25	0xbb01a2c0	-0.0019780844
26	0xbdf4259e	-0.119212374
27	0x3c2deb80	0.01061523
28	0xbded1e20	-0.115780115
29	0xbded119a	-0.11575623
30	0x3de6bf32	0.11266936
31	0x3df40afa	0.11916156
32	0xbdcee2da	-0.10101862
33	0xbbdfe440	-0.0068326294
34	0x3e0a6d2b	0.13518207
35	0xbda01603	-0.078166984
36	0xbe16a9f3	-0.14713268
37	0xbda2e928	-0.07954627
38	0x3daf51a0	0.085604906
39	0xbe044fc4	-0.12921053
40	0xbd79f214	-0.06102188
41	0xbd50c7e8	-0.050971895
42	0x3de6f80a	0.112777784
43	0x3de78b3a	0.11305852
44	0xbdf2a09c	-0.1184704
45	0xbd28072e	-0.041022472
46	0x3d9ca972	0.07649507
47	0xbda2cc84	-0.079491645
48	0xbde635d6	-0.11240737
49	0xb9cc0400	-0.00038912892
50	0x3dbcb44e	0.09214078
51	0xbd9a9a93	-0.07549014
52	0xbbcb9fa0	-0.006214097
53	0xbc6e8210	-0.0145573765
54	0xbd2beb60	-0.041972518
55	0xbc640310	-0.013916746
56	0xbe035996	-0.12827143
57	0xbd1a5154	-0.037675217
58	0xbe135dd9	-0.14391269
59	0x3de589da	0.11207934
60	0x3d3897f8	0.045066804
61	0xbc865918	-0.016399905
62	0x3d686c14	0.056743696
63	0x3babd560	0.005243942
64	0x3dd30a6a	0.10304721
65	0xbe014875	-0.12625296
66	0xbe160e08	-0.1465379
67	0x3defd53e	0.117105946
68	0x3e0122f9	0.12610997
69	0x3d502d58	0.050824493
70	0xbd867e4e	-0.065670595
71	0xbdf43f70	-0.11926162
72	0xbda35f49	-0.079771586
73	0xbd7fcf92	-0.062453814
74	0x3e1ddf59	0.15417232
75	0x3dac03f6	0.08399193
76	0x3d1fa3f4	0.038974717
77	0x3bd24900	0.0064173937
78	0xbc9f2818	-0.019428298
79	0x3c698ff0	0.014255509
80	0xbd90d59e	-0.07071994
81	0x3d9b451a	0.075815395
82	0x3e0aa467	0.13539277
83	0xbc84ec00	-0.016225815
84	0x3d5d0f20	0.053969502
85	0x3cf5d610	0.0300093
86	0xbd89c3ba	-0.06726785
87	0x3dd9e5da	0.10639544
88	0x3deb5b4a	0.114920214
89	0x3d90554a	0.070475176
90	0x3d7e2fc4	0.06205727
91	0x3d9a8a32	0.0754589
92	0xbe1f479c	-0.1555466
93	0x3e1b44c5	0.15162952
94	0xbe0a221c	-0.13489574
95	0x3c28b8a0	0.010297924
96	0x3c74b570	0.014935836
97	0xbe20b8ea	-0.15695539
98	0x3c8649e8	0.016392663
99	0xbca4d950	-0.020123154
100	0x3e06362f	0.13106607
101	0x3de9397e	0.11387919
102	0xbd2ce954	-0.042214707
103	0x3e0eaf5b	0.1393408
104	0x3da6416e	0.081179485
105	0xbdf43633	-0.119244
106	0x3d07969c	0.033102617
107	0xbd0c0e52	-0.034193344
108	0x3d8ea828	0.06965667
109	0xbe03a158	-0.12854517
110	0xbd914bd9	-0.07094545
111	0x3ad76900	0.0016434491
112	0xbe01a79c	-0.12661594
113	0xba96a600	-0.0011493564
114	0x3db60522	0.08887698
115	0x3d27aa78	0.040934056
116	0x3d2041e0	0.039125323
117	0xbdd092ec	-0.10184273
118	0x3d79021c	0.060793027
119	0xbbb2a780	-0.0054520965
120	0xbd1ebc46	-0.03875377
121	0x3e1010b7	0.14068876
122	0x3d0c63a5	0.034274716
123	0xbe1e9814	-0.154877
124	0xbb866e00	-0.0041024685
125	0xbd6d58c6	-0.05794599
126	0xbb94c225	-0.0045397454
127	0xbe1949f9	-0.14969625
128	0xbc8f07d4	-0.017459787
129	0x3dba4a84	0.09096244
130	0x3e015edc	0.12633842
131	0xbd7e6a3b	-0.062113028
132	0x3dc2f038	0.09518474
133	0xbdc24b36	-0.094870016
134	0xbdc17cf9	-0.09447665
135	0xbd18958a	-0.037251987
136	0x3d414a68	0.0471901
137	0x3c7c6668	0.015405275
138	0xbe17640a	-0.14784256
139	0x3d939074	0.072052866
140	0xbe0d789e	-0.13815543
141	0xbd3b7f20	-0.045775533
142	0x3d7b6e5e	0.06138455
143	0x3da4a2bc	0.080388516
144	0x3d2f26f8	0.042761773
145	0xbe00b8c9	-0.1257049
146	0xbdd17429	-0.10227234
147	0x3dcf0af1	0.10109509
148	0x3cf612a0	0.030038178
149	0x3e13f089	0.14447226
150	0xbcc808af	-0.024418203
151	0x3debb83e	0.11509751
152	0xbe16f4ca	-0.14741817
153	0xbd0628c0	-0.032753706
154	0xbdef7840	-0.11692858
155	0x3b732d2c	0.0037105782
156	0x3de919be	0.11381863
157	0xbdad3c58	-0.08458775
158	0xbe1af5d6	-0.15132841
159	0x3d5f941f	0.05458462
160	0x3d755bac	0.05990188
161	0xbdbaf578	-0.09128851
162	0xbdd7d3b2	-0.105384246
163	0x3a481c00	0.0007633567
164	0xbe0852a1	-0.1331277
165	0xbde98b65	-0.114035405
166	0x3dd6526a	0.10464938
167	0x3ccfb200	0.025353432
168	0x3e04c634	0.12966233
169	0xbe06ad20	-0.1315198
170	0x3cc6e137	0.024277313
171	0x3de56b96	0.11202161
172	0x3e15a564	0.14613873
173	0xbc91202a	-0.017715532
174	0xbd5eaefc	-0.054366097
175	0xbc7bcb77	-0.015368334
176	0x3d833be6	0.06407909
177	0x3e266f6e	0.16253445
178	0x3deadc9e	0.11467861
179	0xbe064598	-0.13112485
180	0x3e1d8b75	0.1538523
181	0x3d4be0b4	0.04977484
182	0xbcf45248	-0.029824391
183	0x3e06dea2	0.13170865
184	0x3d5da7fc	0.05411528
185	0xbe0a50a3	-0.13507323
186	0x3d83d821	0.06437708
187	0x3c97353b	0.018458
188	0xbce30000	-0.027709961
189	0xbbf052c0	-0.0073340833
190	0x3c1dc1f6	0.009628763
191	0x3df46eb6	0.11935179
192	0x3e27488e	0.16336271
193	0x3e052995	0.13004144
194	0x3ca18940	0.019718766
195	0xbd92f75e	-0.07176088
196	0xbdb7e40c	-0.08979043
197	0x3e1f53f7	0.15559374
198	0xbe16bcd7	-0.14720474
199	0x3d601cbb	0.0547149
200	0xbe21ab90	-0.15788102
201	0x3bf23180	0.0073911548
202	0xbb83459d	-0.0040061013
203	0x3dac7810	0.084213376
204	0xbd147080	-0.0362401
205	0x3b9ba860	0.0047502965
206	0xbd32e703	-0.04367734
207	0x3e237f5e	0.15966555
208	0xbd89caaf	-0.06728112
209	0x3e00db8c	0.1258375
210	0xbd5ec6c2	-0.05438877
211	0x3d2229fd	0.039590824
212	0x3de66fd2	0.11251797
213	0x3e218b19	0.15775718
214	0xbd44021e	-0.04785358
215	0xbdd91b81	-0.10600949
216	0xbbae69e0	-0.00532268
217	0x3df968ce	0.12178193
218	0x3cc8ddb8	0.024519786
219	0x3d361eb4	0.044462875
220	0xbe1f92b6	-0.1558331
221	0xbe1cc823	-0.15310721
222	0x3dec4515	0.11536614
223	0xba8d014c	-0.0010757833
224	0x3dceb8c6	0.100938365
225	0x3dbdd1a6	0.09268503
226	0xbd00082c	-0.031257793
227	0x3e239dc8	0.15978158
228	0x3e1467ff	0.14492796
229	0x3e002423	0.12513785
230	0x3da8ae94	0.08236423
231	0x3d75f79c	0.06005059
232	0xbd6ba0cd	-0.0575264
233	0xbd958e8c	-0.07302579
234	0xbe009ea1	-0.12560512
235	0xbc2338fc	-0.009962317
236	0xbe0d7060	-0.13812399
237	0xbe14f8d7	-0.1454805
238	0xbd7357b3	-0.05940981
239	0xbdb695e1	-0.08915306
240	0xbe0e2d1b	-0.13884394
241	0xbd56c29c	-0.052431688
242	0x3bb51f60	0.005527422
243	0x3d896896	0.06709401
244	0x3e18cecf	0.14922641
245	0xbe116ca6	-0.14201602
246	0x3dfdf022	0.12399317
247	0xbd7145a6	-0.058904313
248	0x3c33e510	0.010979906
249	0x3da8a80c	0.082351774
250	0xbdbda9ae	-0.092608795
251	0x3d80dd2a	0.06292184
252	0xbd3dcfd6	-0.046340786
253	0xbdb13abb	-0.0865378
254	0x3cf57c58	0.029966518
255	0x3d6b6a10	0.057474196

hidden_layers.3.bias f4 [40]
0	0xbd8cff53	-0.06884637
1	0xbdd5a3d6	-0.1043164
2	0xbb8f4000	-0.004371643
3	0x3e0f0d73	0.13969974
4	0xbd729af0	-0.05922979
5	0x3dedb3ad	0.11606536
6	0x3c44d320	0.012013227
7	0xbe0e9cc9	-0.13926996
8	0xbdc83ccc	-0.09777221
9	0x3db9b1d8	0.09067124
10	0x3d409e29	0.047025833
11	0xbdf79ec8	-0.12090832
12	0xbdcd29ce	-0.10017739
13	0xbdc729f7	-0.09724801
14	0xba455b9e	-0.00075286056
15	0x3da39b62	0.07988621
16	0xbdcfbf7c	-0.101439446
17	0x3e197b11	0.14988352
18	0xbd97c04b	-0.07409724
19	0x3d96c15d	0.073611
20	0x3dd9eecb	0.10641249
21	0xbd7ca7be	-0.06168341
22	0x3dd76630	0.105175376
23	0xbdc21de3	-0.09478357
24	0x39e42600	0.0004351586
25	0xbbc3e0eb	-0.00597774
26	0x3e208b16	0.15678057
27	0xbe0e4619	-0.13893928
28	0xbcad8418	-0.021181151
29	0x3e1af37e	0.15131947
30	0x3e16aa90	0.14713502
31	0xbd0496c4	-0.032370344
32	0xbd59ba2a	-0.053156056
33	0xbd84247c	-0.06452271
34	0x3dbc3b30	0.091909766
35	0xbe0e5a52	-0.13901642
36	0xbd9e4f90	-0.07730019
37	0x3d213276	0.039354764
38	0xbdc28463	-0.09497907
39	0x3ddbef62	0.10739018

output_layer1.weight f4 [2, 40]
0	0x3e06f139	0.13177957
1	0x3e10d36f	0.14143156
2	0xbd01169c	-0.031515703
3	0x3e109f38	0.14123237
4	0x3d10f06c	0.035385534
5	0xbcbbedff	-0.022940634
6	0xbe16198c	-0.14658183
7	0x3e16c7d1	0.14724661
8	0x3d19cd14	0.037549093
9	0xbd0be731	-0.03415603
10	0xbd09c710	-0.033637106
11	0xbd5241d2	-0.051332302
12	0x3cc98780	0.024600744
13	0xbde9ad15	-0.11409966
14	0x3df33e76	0.11877148
15	0xbba53748	-0.0050419904
16	0xbdf1cadc	-0.118062705
17	0xbd321592	-0.043477602
18	0xbcf756b8	-0.030192718
19	0x3d1c5219	0.038164232
20	0x3dd44d83	0.10366347
21	0xbe0da42c	-0.13832158
22	0x3dfc777b	0.123274766
23	0x3e017603	0.12642674
24	0xbbabe0e0	-0.005245313
25	0x3d376b99	0.044780347
26	0xbdadbaea	-0.08482917
27	0x3e01f161	0.12689735
28	0xbe09c5df	-0.13454388
29	0xbd0cf4f9	-0.03441331
30	0xbd264c4f	-0.040600117
31	0xbdf8c0b9	-0.12146134
32	0x3cc7cd40	0.024389863
33	0x3cc869e8	0.024464563
34	0xbe08dadc	-0.13364738
35	0x3d6d90c8	0.057999402
36	0x3e0087a7	0.12551747
37	0x3cc4e1a6	0.024033379
38	0xbded5f60	-0.11590457
39	0x3d19209f	0.037384626
40	0x3dc1a70e	0.09455691
41	0xbd90cc90	-0.07070267
42	0x3dd644fe	0.10462378
43	0x3e178c52	0.14799622
44	0x3de4481f	0.111465685
45	0x3bb79cbf	0.0056034024
46	0x3e07a979	0.13248242
47	0xbd9c0f3a	-0.07620092
48	0xbe0d4c2a	-0.13798586
49	0x3d1a954e	0.037740044
50	0xbe008364	-0.12550122
51	0x3bd7bd20	0.0065838248
52	0xbdef2ce6	-0.116784856
53	0x3dd6c0ea	0.10486014
54	0xbe130c5c	-0.14360183
55	0xbd6b53f4	-0.05745311
56	0x3dc4c642	0.09608127
57	0x3d32dbec	0.043666765
58	0x3d97bdec	0.074092716
59	0xbe1da95a	-0.15396634
60	0x3c752658	0.014962755
61	0xbdc9cd54	-0.09853616
62	0x3dcc1b05	0.09966091
63	0xbde1e97c	-0.11030862
64	0x3dd4ea4e	0.103962526
65	0xbd625447	-0.055256154
66	0x3da65733	0.08122101
67	0x3d5165e4	0.05112256
68	0x3d0563c0	0.032565832
69	0xbda41d6f	-0.080134265
70	0x3e18d2b8	0.14924133
71	0x3e164029	0.14672913
72	0x3d568390	0.05237156
73	0xbe026fbc	-0.12737936
74	0x3dec00cc	0.115235895
75	0x3e181bb5	0.1485432
76	0x3e138681	0.14406778
77	0x3deb9dc4	0.11504701
78	0x3d016134	0.03158684
79	0x3dd95085	0.10611061

output_layer1.bias f4 [2]
0	0xbdedd923	-0.11613681
1	0xbd390d9d	-0.045179

output_layer2.weight f4 [1, 40]
0	0x3da047d8	0.07826203
1	0x3d98d5f6	0.07462685
2	0xbd64b332	-0.055834956
3	0xbde33e3a	-0.11095853
4	0x3ded70b1	0.1159376
5	0x3c5a0967	0.013307906
6	0xbd22bb14	-0.039729193
7	0xbd18eeb2	-0.037337013
8	0xbe02d693	-0.12777166
9	0x3e10136f	0.14069913
10	0xbdb99d80	-0.09063244
11	0x3c5a1220	0.013309985
12	0xbd9def4a	-0.077116564
13	0xbdedd38c	-0.11612615
14	0x3cd7c1d0	0.026337534
15	0xbd48aca5	-0.04899277
16	0xbe19f567	-0.1503502
17	0x3dca34a3	0.09873321
18	0xbd9bcb05	-0.07607082
19	0x3d8d04ae	0.06885658
20	0xbe139704	-0.14413077
21	0x3e0fee25	0.14055689
22	0xbdab868f	-0.083752744
23	0xbd3d80c8	-0.046265393
24	0xbe0d43cc	-0.13795394
25	0x3dce84a0	0.1008389
26	0x3dc0a423	0.094063066
27	0x3ce6ede8	0.028189614
28	0xbb998260	-0.0046847314
29	0x3e1d343f	0.15351962
30	0x3e00c443	0.12574868
31	0xbdfb78a2	-0.12278868
32	0xbe0e310b	-0.13885896
33	0xbd8988b1	-0.06715525
34	0x3d0ac360	0.03387773
35	0xbc4b0560	-0.012391418
36	0x3dcc7b4a	0.09984453
37	0xbdcc4905	-0.09974865
38	0x3e1750d1	0.14776923
39	0xbdab26b5	-0.08356992
