src/models/prediction_57.pt (torch, 38168 bytes, 13 tensors)

input_layer.weight f4 [40, 40]
0.019431075 -0.13056155 -0.11430439 -0.055572253 -0.113895625 -0.022126697 -0.029904502 0.12310925
-0.037612595 0.010997692 -0.04434289 -0.13816662 0.027487846 -0.11225858 0.1493758 0.13338925
-0.02725651 -0.16194873 0.0429759 -0.035458833 0.03998175 -0.101134375 0.09526972 0.11366226
-0.035896398 0.14165445 -0.024023412 0.15642582 0.10239431 0.029557223 -0.17921735 -0.17466849
-0.13027523 -0.17822506 -0.016962525 0.1757523 -0.07239923 0.026791412 -0.116808675 -0.03850008
0.06378208 -0.01005584 0.10091545 0.14354272 0.044616118 0.0584324 -0.05045118 0.011395872
0.15003408 -0.14631546 0.05848886 -0.064595826 0.071476415 0.007830724 0.015773922 0.075184524
0.011659056 -0.08759398 -0.13977781 -0.13628903 -0.05972988 -0.07622041 -0.05261665 0.12904926
-0.030345455 0.15414156 0.02073276 -0.095302455 -0.107808694 0.012074292 0.096703336 -0.06302553
0.055222422 0.06810507 0.07554938 0.04152292 0.14239399 0.07177889 -0.15455134 -0.08675629
-0.10762967 -0.07975448 0.07947092 -0.0061019263 0.11697292 -0.040870715 0.05604709 -0.14457892
-0.13604484 0.053527713 0.15746729 0.02243911 0.15897118 -0.11748059 -0.13656376 0.026606012
0.02363494 -0.06277211 -0.05609382 0.15002488 -0.1076204 -0.091598466 -0.0041546826 0.1581057
0.0052112206 -0.102587804 0.059646375 -0.060480084 -0.088085346 -0.14239788 0.09313975 0.1338862
-0.03542175 -0.06285935 0.09095203 0.014926337 -0.10384402 -0.015641041 0.050643798 0.039747354
-0.14966764 0.12490536 -0.102821484 0.10638462 0.023787662 -0.1107767 -0.119307615 -0.05459027
0.04589431 -0.06828656 0.1429661 0.13760744 0.1497996 -0.051372208 -0.103396535 -0.08510125
-0.06130331 0.13891776 0.009845525 0.09403576 0.12579279 -0.13645 -0.14340578 0.10634448
0.12321551 -0.0072602034 0.059272707 -0.017767057 0.016274258 -0.056118064 0.14298789 -0.014282346
-0.003104359 0.10334642 -0.14125305 0.043629542 0.0060076118 -0.0707934 0.052683145 0.09209795
0.086244166 0.0099286195 0.14782678 -0.16005193 -0.116755255 -0.06488504 -0.09536377 -0.10264273
0.0051059015 0.024708759 -0.016633408 0.08900176 -0.0124994805 0.025165677 -0.029798811 -0.14228861
0.039990313 0.033106778 0.15586756 0.07182111 0.1491667 0.08611029 0.14008066 0.010589782
-0.15053315 0.07157858 -0.0445913 0.11966328 0.13920328 -0.1485624 -0.15532537 -0.13868512
-0.06801805 0.07523459 -0.036002126 0.079756156 -0.08862577 0.01066301 0.058201738 -0.09184725
-0.064390965 -0.08700485 0.012854931 0.08804751 0.0031760873 -0.05241457 0.10433959 0.08155611
0.1768831 -0.033831302 -0.08211403 -0.10033957 -0.0928806 -0.016374292 -0.08702432 -0.18419795
0.009148245 -0.04540702 -0.11657651 -0.05210581 0.09853923 -0.060857214 0.09842253 -0.041825272
0.12939945 -0.026583849 0.18752626 0.05053095 -0.08579335 0.040176906 0.074264735 0.0072013927
-0.035029396 -0.0694934 -0.028258348 0.18972069 0.10126056 0.0685243 0.18760477 -0.12985909
0.06146498 -0.10265836 -0.077881694 -0.09350567 -0.06587465 0.032810703 0.09695186 0.14053266
0.027287424 0.06820291 -0.14816494 -0.13748364 -0.14383951 -0.05195842 0.111215964 0.062254563
00000000: eb2d 9f3c edb1 05be 6c18 eabd bb9f 63bd
00000010: 1c42 e9bd 0c43 b5bc 49fa f4bc b420 fc3d
00000020: aa0f 1abd aa2f 343c e4a0 35bd 8d7b 0dbe
00000030: 312e e13c d4e7 e5bd f8f5 183e 3197 083e
00000040: 0b49 dfbc e3d5 25be 7f07 303d 483d 11bd
00000050: e7c3 233d 8a1f cfbd c51c c33d c2c7 e83d
00000060: 1a08 13bd dd0d 113e bfcc c4bc 172e 203e
00000070: 1cb4 d13d fd21 f23c c184 37be 4cdc 32be
00000080: df66 05be a180 36be fef4 8abc 69f8 333e
00000090: 0c46 94bd aa79 db3c 6339 efbd 43b2 1dbd
000000a0: 2ea0 823d 40c1 24bc c2ac ce3d ddfc 123e
000000b0: 64bf 363d d056 6f3d e6a5 4ebd c0b5 3a3c
000000c0: 89a2 193e b8d3 15be 0492 6f3d d14a 84bd
000000d0: 3a62 923d 704c 003c 5038 813c 58fa 993d
000000e0: a005 3f3c 7964 b3bd ea21 0fbe 5a8f 0bbe
000000f0: 52a7 74bd 7219 9cbd 8e84 57bd 7d25 043e
00000100: 0897 f8bc 49d7 1d3e c0d7 a93c ef2d c3bd
00000110: ceca dcbd 40d3 453c 660c c63d 8713 81bd
00000120: e830 623d ac7a 8b3d a2b9 9a3d f013 2a3d
00000130: bbcf 113e d000 933d b542 1ebe 48ad b1bd
00000140: f26c dcbd 5156 a3bd a6c1 a23d abf2 c7bb
00000150: 808f ef3d 0d68 27bd a291 653d 7f0c 14be
00000160: 574f 0bbe e03f 5b3d 1b3f 213e 39d2 b73c
00000170: 57c9 223e aa99 f0bd 5fd7 0bbe daf4 d93c
00000180: 109e c13c aa8e 80bd a2c2 65bd 1fa0 193e
00000190: 1668 dcbd fa97 bbbd 0124 88bb 76e6 213e
000001a0: e3c2 aa3b 8e19 d2bd c24f 743d f7b9 77bd
000001b0: 1766 b4bd c0d0 11be 0ec0 be3d 7719 093e
000001c0: 6616 11bd 67bc 80bd 0f45 ba3d 988d 743c
000001d0: 2cac d4bd a421 80bc df6f 4f3d 1fce 223d
000001e0: 7942 19be 62ce ff3d 1294 d2bd 2ee0 d93d
000001f0: 58de c23c e5de e2bd 8d57 f4bd 0c9a 5fbd
00000200: acfb 3b3d d3d9 8bbd b565 123e f7e8 0c3e
00000210: 1165 193e aa6b 52bd 90c1 d3bd 9049 aebd
00000220: 2e19 7bbd 7540 0e3e 204f 213c d295 c03d
00000230: d3cf 003e 8cb9 0bbe f7d8 12be 22cb d93d
00000240: 6a58 fc3d 00e7 edbb f0c7 723d 388c 91bc
00000250: 9851 853c 0edc 65bd 6b6b 123e 8000 6abc
00000260: 8072 4bbb 4aa7 d33d a4a4 10be e4b4 323d
00000270: 80db c43b 21fc 90bd 48ca 573d da9d bc3d
00000280: c8a0 b03d a6ab 223c e75f 173e a7e4 23be
00000290: 611d efbd 73e2 84bd 154e c3bd 5a36 d2bd
000002a0: 684f a73b 066a ca3c c942 88bc 8e46 b63d
000002b0: 9fca 4cbc 4028 ce3c a31c f4bc 1bb4 11be
000002c0: e2cc 233d f99a 073d bf9b 1f3e f216 933d
000002d0: 28bf 183e 975a b03d 4e71 0f3e c480 2d3c
000002e0: 5d25 1abe ca97 923d 5ea5 36bd 0612 f53d
000002f0: 4e8b 0e3e be20 18be 9d0d 1fbe 7903 0ebe
00000300: 0c4d 8bbd 9814 9a3d f776 13bd 3257 a33d
00000310: 6d81 b5bd e8b3 2e3c f264 6e3d 691a bcbd
00000320: 69df 83bd 992f b2bd 7d9d 523c 4152 b43d
00000330: e725 503b a9b0 56bd ffaf d53d e406 a73d
00000340: d820 353e b192 0abd 672b a8bd d57e cdbd
00000350: 2f38 bebd 6123 86bc cf39 b2bd 639e 3cbe
00000360: 85e2 153c b6fc 39bd aabf eebd e76c 55bd
00000370: f0ce c93d 6a45 79bd c091 c93d fa50 2bbd
00000380: 4a81 043e 5fc6 d9bc e206 403e 8bf9 4e3d
00000390: 6db4 afbd 8a90 243d 1c18 983d a9f9 eb3b
000003a0: fc7a 0fbd 8e52 8ebd 0d7e e7bc 2446 423e
000003b0: b261 cf3d 7856 8c3d 771b 403e c8f9 04be
000003c0: b4c2 7b3d 8c3e d2bd 7080 9fbd e77f bfbd
000003d0: 4ae9 86bd 8464 063d b28e c63d cbe7 0f3e
000003e0: e089 df3c f8ad 8b3d 8db8 17be 83c8 0cbe
000003f0: aa4a 13be 5ad2 54bd 32c5 e33d a4fe 7e3d

input_layer.bias f4 [40]
0.09756733 -0.05948519 0.06111064 -0.14639056 0.12247324 0.16142745 -0.14381756 -0.021021836
0.042540587 0.14389478 0.0475692 0.15139264 0.14440322 0.022548828 0.15884443 -0.026937313
-0.13699971 0.12597382 0.16047657 -0.094824605 0.1303785 0.11051782 0.0866418 0.12320273
0.05395418 -0.0111441165 -0.033145595 -0.028741151 -0.01605767 0.03939667 0.096356474 -0.04474975
-0.1349691 -0.010105101 -0.12070287 0.09200803 -0.06706634 -0.036437064 0.08041247 0.15449592
00000000: 61d1 c73d bea6 73bd 274f 7a3d 68e7 15be
00000010: 40d3 fa3d 3d4d 253e e944 13be fc35 acbc
00000020: 0a3f 2e3d 2759 133e ecd7 423d ac06 1b3e
00000030: 70de 133e 52b8 b83c 1da8 223e a4ab dcbc
00000040: a749 0cbe 48ff 003e f853 243e 6733 c2bd
00000050: f181 053e 2b57 e23d 4271 b13d b751 fc3d
00000060: 0fff 5c3d d095 36bc adc3 07bd 9072 ebbc
00000070: 608b 83bc 675e 213d 8b56 c53d 844b 37bd
00000080: 5735 0abe de8f 25bc 1133 f7bd b56e bc3d
00000090: 145a 89bd 083f 15bd 4baf a43d 2e34 1e3e

hidden_layers.0.weight f4 [40, 40]
0.12612413 0.022028878 0.12224017 -0.044613272 -0.043904483 0.03472875 0.10553704 0.08716914
0.011679992 -0.03314864 0.0911759 0.010944143 -0.007908225 0.00086569786 -0.107712045 0.06360243
-0.05842354 -0.1284116 -0.13408202 0.055190504 -0.119021565 0.113831624 -0.070498824 0.04026641
-0.00797309 -0.14698516 0.07589631 0.15159841 0.06390925 0.079205826 -0.12604256 -0.087564915
0.04743977 0.031532913 0.13613312 -0.018558651 0.03650281 0.10506351 0.11063935 0.10257898
0.13395752 -0.110470824 -0.11407996 -0.1527655 0.02238336 -0.045767255 -0.13489202 -0.034960743
0.04571669 -0.028165434 -0.04261925 -0.07250176 0.14590424 -0.044922568 -0.16332452 -0.104943365
0.12072419 -0.12223134 0.099697076 -0.09665316 0.003650686 0.14428775 0.022128377 -0.0050401273
-0.11822818 -0.017805949 -0.009714246 0.029775485 -0.14641532 0.109803595 0.046526454 0.14204721
-0.08465384 -0.114002116 -0.048786074 -0.097535 0.12323098 -0.07316188 0.035598833 0.08938806
0.044864092 -0.04050792 0.056905255 0.00804843 0.10236749 -0.012618668 0.00884369 -0.0056803823
-0.122394815 -0.16496216 0.15196131 0.09365933 0.13537033 -0.1374939 -0.11894859 0.14187066
0.010176851 0.07731695 0.052169777 -0.15552461 0.007653941 0.02375558 -0.0016131706 0.04938835
-0.05470211 -0.040109254 -0.024067102 -0.006287217 -0.12529251 0.039340436 0.10198218 -0.003834236
0.10356732 -0.050014663 0.04996945 -0.011105461 -0.045738325 -0.039320946 -0.041809425 -0.020388309
0.1740147 -0.0451995 0.079045735 0.04335934 -0.018519763 0.041140422 0.010559514 -0.12426053
0.04435382 0.11298272 0.035706505 -0.07976998 0.09619179 0.00945516 -0.041604128 -0.1140696
0.14800912 0.18981509 -0.035431556 0.009118549 0.095313676 0.022667378 0.13627268 0.16089645
0.049363814 0.07041253 0.12251011 -0.014175937 0.07075562 -0.068448305 0.11256161 -0.026698181
-0.059080712 0.07061415 -0.09606985 0.044127304 0.038080916 0.080321476 0.08337995 0.19044274
0.037045233 -0.110153414 -0.15017074 0.062434733 0.13987365 -0.12980807 -0.006131768 0.05270044
0.10491522 -0.16354576 -0.12472322 -0.061118893 -0.16392632 -0.1163629 0.079071775 0.14064993
-0.1274589 -0.039498147 0.021708483 -0.060967803 0.0064494344 -0.14004456 0.104197204 -0.07226928
0.0304913 -0.0006123185 -0.095057085 -0.022393927 -0.1150952 0.06570889 -0.06676327 0.082316205
0.037074402 0.03314872 -0.060718156 -0.033319276 -0.14062293 -0.0787957 0.1282627 0.082048155
0.009424438 -0.041558996 -0.017869906 0.021272764 -0.12407559 -0.05026985 0.0004079193 0.18084393
0.017428156 -0.018295115 0.016751187 -0.020439386 -0.0005154597 -0.09965811 0.046237923 -0.006570129
0.13054158 0.019946374 -0.034018334 -0.11709103 0.083343685 0.050760675 -0.1252242 0.123730555
0.02909001 0.02499102 -0.038525064 -0.053231023 -0.06573721 -0.13532683 0.0055619366 0.12425896
-0.09115144 0.10091928 0.14737901 0.13453421 -0.04496958 -0.08250472 -0.11272393 0.1721566
0.061775744 -0.055216573 0.07366504 0.050131872 -0.033259697 -0.03031215 -0.15048452 0.115551665
-0.010580957 0.13528432 -0.01750803 -0.059742607 -0.014670208 -0.14972386 0.028666109 0.03855343
00000000: af26 013e e875 b43c 0e59 fa3d 68bc 36bd
00000010: 30d5 33bd bc3f 0e3d ce23 d83d bc85 b23d
00000020: 705d 3f3c dec6 07bd 6eba ba3d 104f 333c
00000030: 8091 01bc 00f0 623a 2298 dcbd fe41 823d
00000040: 864d 6fbd 557e 03be cc4c 09be 700f 623d
00000050: 94c1 f3bd 8e20 e93d b061 90bd 64ee 243d
00000060: 90a1 02bc 4783 16be 866f 9b3d 9d3c 1b3e
00000070: dae2 823d aa36 a23d 4d11 01be 3c55 b3bd
00000080: 3450 423d a828 013d 7b66 0b3e 5008 98bc
00000090: f883 153d 8a2b d73d e296 e23d ee14 d23d
000000a0: 292c 093e 873e e2bd c1a2 e9bd 8f6e 1cbe
000000b0: 4f5d b73c 7276 3bbd 2221 0abe ff32 0fbd
000000c0: 6d41 3b3d 32bb e6bc 8691 2ebd ce7b 94bd
000000d0: ec67 153e ba00 38bd 8b3e 27be 8cec d6bd
000000e0: 3e3e f73d 6d54 fabd fb2d cc3d 18f2 c5bd
000000f0: 5940 6f3b 2bc0 133e 9246 b53c a727 a5bb
00000100: 9e21 f2bd c8dd 91bc 8028 1fbc b8eb f33c
00000110: e6ed 15be b5e0 e03d 8692 3e3d d374 113e
00000120: fe5e adbd f179 e9bd e8d3 47bd 6ec0 c7bd
00000130: 8660 fc3d e5d5 95bd 15d0 113d 1611 b73d
00000140: 69c3 373d a2eb 25bd 7c15 693d 90dd 033c
00000150: 0ca6 d13d 88be 4ebc 20e5 103c 8022 babb
00000160: 22aa fabd d7eb 28be bf9b 1b3e 76d0 bf3d
00000170: 859e 0a3e 33cb 0cbe 519b f3bd 8b46 113e
00000180: cfbc 263c 5958 9e3d faaf 553d d841 1fbe
00000190: e9cd fa3b 109b c23c 0671 d3ba 704b 4a3d
000001a0: 520f 60bd 9a49 24bd 5f28 c5bc 0005 cebb
000001b0: ae4c 00be 7023 213d 08dc d03d ce47 7bbb
000001c0: 1a1b d43d 2ddc 4cbd c4ac 4c3d aef3 35bc
000001d0: 1c58 3bbd 000f 21bd 5c40 2bbd 6205 a7bc
000001e0: e930 323e 1c23 39bd bbe2 a13d 9099 313d
000001f0: c2b6 97bc dc82 283d d001 2d3c 4e7c febd
00000200: 5aac 353d 7c63 e73d fc40 123d 715e a3bd
00000210: 3400 c53d d1e9 1a3c 1769 2abd 539d e9bd
00000220: b48f 173e e35e 423e ae20 11bd f765 153c
00000230: d133 c33d f0b0 b93c 118b 0b3e 0ac2 243e
00000240: b631 4a3d 7234 903d 95e6 fa3d 3042 68bc
00000250: 53e8 903d a02e 8cbd b486 e63d 25b6 dabc
00000260: 9efe 71bd 279e 903d 45c0 c4bd d5be 343d
00000270: bcfa 1b3d 967f a43d 1bc3 aa3d 6c03 433e
00000280: bebc 173d 1d98 e1bd 5cc6 19be 90bb 7f3d
00000290: 0a3b 0f3e 68ec 04be 00ed c8bb 6bdc 573d
000002a0: cadd d63d 8a78 27be e36e ffbd ce57 7abd
000002b0: 4ddc 27be ac4f eebd 62f0 a13d 8906 103e
000002c0: 9684 02be cfc8 21bd fdd5 b13c 60b9 79bd
000002d0: c755 d33b d767 0fbe 5865 d53d eb01 94bd
000002e0: e4c8 f93c 0084 20ba 4aad c2bd 7873 b7bc
000002f0: 08b7 ebbd 6292 863d 2ebb 88bd 6695 a83d
00000300: 54db 173d f4c6 073d 9ab3 78bd cb79 08bd
00000310: 75ff 0fbe a45f a1bd 4c57 033e dd08 a83d
00000320: f568 1a3c c439 2abd e963 92bc 3844 ae3c
00000330: 581b febd c2e7 4dbd 00de d539 272f 393e
00000340: 7ec5 8e3c a3df 95bc c939 893c 8070 a7bc
00000350: ea1f 07ba 8d19 ccbd fa63 3d3d 3d4a d7bb
00000360: b1ac 053e 9466 a33c cf56 0bbd 6ccd efbd
00000370: 18b0 aa3d 6dea 4f3d c63a 00be 7266 fd3d
00000380: 2c4e ee3c f8b9 cc3c 75cc 1dbd c608 5abd
00000390: 3ba1 86bd 1e93 0abe e840 b63b 7b7b fe3d
000003a0: 9bad babd c4ae ce3d 86ea 163e 56c3 093e
000003b0: 0632 38bd 3cf8 a8bd cedb e6bd d249 303e
000003c0: 9008 7d3d c62a 62bd b2dd 963d 1457 4d3d
000003d0: 523b 08bd 3051 f8bc 9d18 1abe 5aa6 ec3d
000003e0: c05b 2dbc f987 0a3e 006d 8fbc aab4 74bd
000003f0: 505b 70bc 3651 19be 30d5 ea3c 34ea 1d3d

hidden_layers.0.bias f4 [40]
-0.12281435 -0.035489246 -0.07814581 0.15539496 -0.0018561935 0.18510063 -0.0048347116 -0.101248905
-0.089535244 0.04793352 -0.024262113 0.13613737 -0.00081626605 0.023364523 -0.039077807 0.00013837058
-0.013505712 0.12947965 0.031957492 0.15731214 -0.03777899 -0.016124489 0.009781345 -0.049463116
-0.046853676 0.041152883 -0.058581337 -0.06349307 0.14011255 -0.1431698 -0.13991573 -0.030592846
-0.1454627 0.07857572 0.09732724 0.10488287 0.023997938 0.12897398 0.15064181 0.1642389
00000000: 1786 fbbd 2c5d 11bd e90a a0bd db1f 1f3e
00000010: 854b f3ba 058b 3d3e 806c 9ebb 965b cfbd
00000020: 415e b7bd f055 443d 57c1 c6bc 9867 0b3e
00000030: b0fa 55ba f566 bf3c 0d10 20bd 9217 1139
00000040: 1047 5dbc 5096 043e dce5 023d 6f16 213e
00000050: 24be 1abd 8117 84bc ef41 203c d699 4abd
00000060: a4e9 3fbd ed8f 283d fcf2 6fbd a808 82bd
00000070: aa79 0f3e 1b9b 12be 1246 0fbe d99d fabc
00000080: 2df4 14be 4fec a03d 8153 c73d d5cc d63d
00000090: 5397 c43c c111 043e d941 1a3e 3e2e 283e

hidden_layers.1.weight f4 [40, 40]
-0.0018256456 -0.115442224 -0.10001016 0.04783854 -0.099379376 0.07117512 -0.12941535 -0.1098167
0.01644753 -0.014841273 0.07819117 -0.11438197 -0.03459684 0.105808094 -0.028131878 0.04577337
0.13911988 0.1318773 0.12824456 -0.055306457 0.0043014186 -0.09665164 0.07243857 -0.0035390407
0.108482435 0.062471773 0.13013874 -0.118615046 0.13046429 0.06714997 0.10404612 0.035836373
-0.11296871 -0.00071503874 0.01772702 -0.09076226 -0.08661678 -0.15000424 0.052887045 0.046308056
0.01679863 -0.15975313 -0.098639876 0.059983708 -0.1076267 0.07765363 0.1293207 0.050790325
-0.08994011 -0.028517604 0.14172553 -0.0908793 -0.15549745 0.008462674 0.10100089 -0.16015653
-0.11042248 -0.14583412 0.11189029 0.0066251997 0.08922763 -0.14758833 0.014826034 -0.010947108
-0.12786505 -0.093195066 0.033057183 0.038775846 0.13529862 -0.049044266 0.05624403 0.028830143
-0.072223626 -0.009200377 -0.05296962 -0.11611263 0.06381857 -0.115731016 -0.10073915 -0.08113055
-0.035893172 -0.094371766 0.117679015 0.021412134 -0.007819101 0.12679853 0.117727 0.025397018
0.06681733 -0.106357336 -0.009058222 0.10434531 -0.1055037 -0.018965378 0.1135696 0.14003192
-0.1354892 -0.09273949 0.112958536 -0.14873527 0.049115866 0.14853047 0.026620924 0.057692245
-0.15071036 -0.14689454 0.113695815 0.077906385 -0.037423342 0.14261942 0.110686764 -0.077065
-0.026137695 0.007945463 -0.12215902 0.13467418 -0.066554375 -0.09603369 0.09735738 -0.12829366
0.001845032 0.1208701 0.07017936 -0.115471184 -0.087785184 -0.06739187 -0.15723182 -0.004075885
0.03857036 0.048333168 -0.019391611 0.0380127 -0.06066581 0.008978188 0.12097235 0.056234583
0.04229428 0.009061888 -0.0024517626 -0.12111564 0.09381892 0.056315616 -0.0379531 -0.11453077
-0.1353671 0.12745725 -0.02545999 0.021970302 0.05230868 -0.048396364 -0.014969274 -0.02186124
0.012897074 0.14236926 -0.003964469 -0.034426726 0.090215445 -0.019488126 0.004283905 -0.13144192
0.019496635 0.13429312 -0.16306347 -0.020974591 0.09070488 0.13075578 0.007495478 -0.04355032
-0.056520276 0.09467225 0.10837142 -0.13047652 0.04253509 0.09178418 0.044726457 -0.065954775
0.04805407 -0.14792375 -0.12133313 -0.039229702 0.012181995 0.06578993 0.106569335 -0.10565229
-0.037081502 0.102642745 0.10868041 0.15336384 0.12899736 -0.07034267 -0.13487907 0.09881083
0.12570213 0.049041897 0.0910073 -0.005030203 -0.08101495 0.07816705 0.12436379 0.03782719
-0.013068676 0.096469514 0.058317333 -0.11605649 0.1157732 -0.07071163 -0.1105686 -0.096327856
0.021421164 0.1424145 -0.12581198 -0.1420106 -0.059883337 -0.06297798 0.12857072 -0.102857515
0.11450486 0.015881862 0.10872483 -0.13020784 -0.16209328 -0.06476596 -0.05414097 -0.11830926
0.12652217 -0.03792792 0.09945877 0.11093928 0.13481213 -0.14435145 -0.06781291 -0.117139265
-0.06508985 0.1336079 0.07113178 0.048288517 -0.15000112 -0.13323188 0.057860445 -0.12155855
-0.12917255 -0.094822176 0.037503958 -0.009182826 0.04639946 0.07925159 -0.061818913 0.00062662363
0.06897111 0.066439345 0.07941365 0.009381592 -0.15263662 0.0018296391 0.081660226 -0.05876647
00000000: 804a efba f96c ecbd 20d2 ccbd 58f2 433d
00000010: 6a87 cbbd 43c4 913d 7585 04be 94e7 e0bd
00000020: f8bc 863c d028 73bc b122 a03d 1841 eabd
00000030: 6bb5 0dbd eab1 d83d d374 e6bc db7c 3b3d
00000040: 7175 0e3e d80a 073e 8b52 033e 0689 62bd
00000050: eaf2 8c3b 4cf1 c5bd ac5a 943d 40ef 67bb
00000060: 0a2c de3d 67e2 7f3d 1743 053e 72ec f2bd
00000070: 6e98 053e ec85 893d 2216 d53d 29c9 123d
00000080: 245c e7bd 7071 3bba 4138 913c 90e1 b9bd
00000090: 2364 b1bd b69a 19be 16a0 583d 84ad 3d3d
000000a0: 489d 893c 5396 23be b403 cabd 7ab1 753d
000000b0: 636b dcbd de08 9f3d a56c 043e 8409 503d
000000c0: 8532 b8bd c09d e9bc 7f20 113e ed1e babd
000000d0: b93a 1fbe 07a7 0a3c 8ed9 ce3d 1300 24be
000000e0: 2e25 e2bd 8a55 15be bd26 e53d 3418 d93b
000000f0: fabc b63d 6521 17be e5e8 723c 805b 33bc
00000100: 0eef 02be 0edd bebd f866 073d 6cd3 1e3d
00000110: b98b 0a3e a4e2 48bd 2460 663d 312d ec3c
00000120: fbe9 93bd 2ebd 16bc acf6 58bd 75cc edbd
00000130: 4fb3 823d 6204 edbd 5450 cebd c627 a6bd
00000140: b804 13bd fc45 c1bd b201 f13d 8068 af3c
00000150: b01b 00bc 79d7 013e da1a f13d 680d d03c
00000160: 86d7 883d e0d1 d9bd f068 14bc feb2 d53d
00000170: 5312 d8bd 485d 9bbc 2e97 e83d 8764 0f3e
00000180: aebd 0abe 34ee bdbd ce56 e73d 0f4e 18be
00000190: b82d 493d 5f18 183e 2014 da3c b44e 6c3d
000001a0: d153 1abe 866b 16be 5ad9 e83d 628d 9f3d
000001b0: 3849 19bd d30a 123e beaf e23d 41d4 9dbd
000001c0: b81e d6bc b02d 023c 822e fabd 07e8 093e
000001d0: a94d 88bd 50ad c4bd 4e63 c73d 6a5f 03be
000001e0: 00d5 f13a be8a f73d 32ba 8f3d 287c ecbd
000001f0: b8c8 b3bd c004 8abd 6101 21be 008f 85bb
00000200: f4fb 1d3d 00f9 453d 28db 9ebc 34b3 1b3d
00000210: b67c 78bd 4019 133c 5ac0 f73d 3c56 663d
00000220: c43c 2d3d 5078 143c c0ad 20bb 7a0b f8bd
00000230: 2224 c03d 34ab 663d b674 1bbd 1c8f eabd
00000240: ac9d 0abe 2784 023e 7891 d0bc 10fb b33c
00000250: a041 563d 443b 46bd b041 75bc 5816 b3bc
00000260: 404e 533c 3fc9 113e 60e8 81bb 0a03 0dbd
00000270: e0c2 b83d 90a5 9fbc 0060 8c3b b698 06be
00000280: 68b7 9f3c 2384 093e 1cfa 26be e8d2 abbc
00000290: 7bc3 b93d d8e4 053e a09c f53b d261 32bd
000002a0: ce81 67bd 86e3 c13d d6f1 dd3d a39b 05be
000002b0: 4639 2e3d 58f9 bb3d 1733 373d 4c13 87bd
000002c0: 58d4 443d 5379 17be 817d f8bd 53af 20bd
000002d0: fe96 473c dfbc 863d 0641 da3d 3a60 d8bd
000002e0: c6e2 17bd 5c36 d23d d693 de3d 690b 1d3e
000002f0: e217 043e d10f 90bd bd1d 0abe 555d ca3d
00000300: 0fb8 003e 28e0 483d 0962 ba3d 67d4 a4bb
00000310: 2beb a5bd 0c16 a03d 71b2 fe3d aff0 1a3d
00000320: 001e 56bc cf91 c53d 28de 6e3d 06af edbd
00000330: 801a ed3d 42d1 90bd ca71 e2bd 8a47 c5bd
00000340: 707b af3c 1bd5 113e dbd4 00be 3a6b 11be
00000350: 3b48 75bd 99fa 80bd 0ba8 033e f6a6 d2bd
00000360: 8681 ea3d ae1a 823c 20ab de3d 3455 05be
00000370: c8fb 25be 04a4 84bd ecc2 5dbd 204c f2bd
00000380: 078f 013e 4f5a 1bbd 0ab1 cb3d 2234 e33d
00000390: 310c 0a3e ded0 13be 7fe1 8abd b6e6 efbd
000003a0: d44d 85bd 82d0 083e 8aad 913d 2eca 453d
000003b0: e599 19be f06d 08be 13ff 6c3d b0f3 f8bd
000003c0: cf45 04be 2132 c2bd c09d 193d 9073 16bc
000003d0: 5c0d 3e3d a84e a23d d435 7dbd 0044 243a
000003e0: ba40 8d3d 5a11 883d a0a3 a23d 40b5 193c
000003f0: c64c 1cbe 80d0 ef3a 7a3d a73d 1cb5 70bd

hidden_layers.1.bias f4 [40]
-0.0517645 0.053196397 -0.092427246 0.009117767 -0.16069019 0.107772335 -0.13011643 -0.10834196
-0.14333437 0.02440517 0.041225404 -0.10742058 -0.06530787 0.032771006 -0.11149866 -0.027194794
0.07290434 0.02026631 0.106318556 0.055714365 -0.09628369 -0.12423479 0.077014685 -0.08265528
0.18237823 -0.096653596 0.062482163 -0.091568775 -0.1468546 0.044052124 0.08048652 -0.035669185
-0.05794809 0.17608912 0.05085221 -0.08231691 -0.11525854 0.106800534 -0.13855392 -0.136586
00000000: 0307 54bd 77e4 593d 7f4a bdbd b062 153c
00000010: f88b 24be beb7 dc3d 3e3d 05be 64e2 ddbd
00000020: 3fc6 12be 5aed c73c f8db 283d 52ff dbbd
00000030: 22c0 85bd e43a 063d 6959 e4bd 9ec7 debc
00000040: df4e 953d 8805 a63c 8bbd d93d bf34 643d
00000050: 6230 c5bd cf6e febd e0b9 9d3d 2c47 a9bd
00000060: 5cc1 3a3e 52f2 c5bd 4ced 7f3d 6988 bbbd
00000070: 0d61 16be 0070 343d 1ed6 a43d da19 12bd
00000080: fa5a 6dbd b550 343e 684a 503d c595 a8bd
00000090: ab0c ecbd 3dba da3d 14e1 0dbe 33dd 0bbe

hidden_layers.2.weight f4 [40, 40]
-0.114174046 0.08296175 0.13117151 0.0176211 0.091963276 -0.06914416 -0.14784965 0.057099592
-0.15539545 0.10653238 0.13176431 0.08850087 0.10443999 -0.07109672 0.081550315 -0.02424015
0.09977741 0.016566247 0.054357883 -0.03636357 -0.14668885 -0.11269608 -0.047089018 0.12911396
-0.040895365 0.102536306 0.12573664 0.09429755 -0.08135482 -0.14252487 -0.026805215 -0.13921687
0.09177556 0.1441793 -0.110099204 0.058779538 -0.116002195 -0.0051555857 -0.1200014 -0.025810983
0.15583108 -0.051317863 -0.06495574 0.13341965 -0.06747878 0.07571298 -0.13915505 0.027359754
0.004206419 -0.15058036 -0.034035124 -0.14943789 0.12184827 0.057354763 0.12580319 0.057015523
0.017270416 -0.043656625 0.0031904131 -0.1269422 -0.079861894 0.14471026 -0.060019188 0.023326963
-0.0927106 -0.09465214 0.114740595 0.12224372 -0.038460076 0.10920952 -0.019744739 0.020530596
-0.02893798 -0.005063787 -0.096008435 -0.06067399 -0.051238097 0.03219028 -0.129958 -0.069146246
-0.08196669 0.06952181 -0.095082626 -0.020614237 0.043907702 -0.016339948 -0.06663784 -0.10364739
0.014269426 0.14172138 -0.14950596 0.07061015 -0.13960369 -0.14892715 0.077445224 -0.028015297
0.1385375 0.1082717 -0.0058157253 0.002534641 0.05433427 0.037000526 0.09985937 -0.02803564
0.020878661 -0.1525016 0.010385179 0.011332478 0.027602512 -0.1034634 -0.086266704 -0.014284498
0.08478953 0.1027736 0.020479992 0.065757446 0.13906534 -0.058272664 -0.12880771 -0.11307471
-0.039334536 -0.008153021 -0.15707524 -0.062375814 -0.122496426 0.024710417 -0.12949497 0.025285602
0.10008137 0.0024837106 -0.004245013 0.10815443 0.08024213 0.039154246 -0.12791222 0.15073608
-0.05794186 -0.035125412 -0.09094408 0.06509477 -0.0010816157 0.060731024 -0.07130176 -0.085682355
0.046623856 0.08558203 0.1299931 0.050180495 0.1005169 0.0021694005 -0.10773979 -0.0763619
-0.12998277 -0.04276386 0.15719913 -0.048706815 -0.028289288 -0.0010777116 -0.1440976 -0.021064267
0.083756074 0.120121166 -0.14653139 0.050520852 -0.06282102 -0.026517898 -0.03911929 -0.01134786
-0.03233458 0.118444696 -0.09596576 -0.12904556 -0.07505317 0.052822813 -0.036930844 0.0412025
-0.10184516 -0.0861076 0.060991287 -0.017857805 0.1254703 0.108728394 -0.082505114 -0.02058287
-0.08689449 -0.053378 0.15205754 -0.119394414 -0.116445996 0.02444449 0.07959807 0.024083018
-0.050455704 -0.13739279 -0.10773936 -0.014260784 0.04409823 -0.10303737 -0.016436845 0.113929465
-0.06758577 -0.09689952 -0.051990837 -0.068026245 -0.06269252 0.038534805 -0.14119963 0.11418899
0.02347304 0.035948545 -0.05240181 -0.10728187 -0.021992937 0.10425738 0.1514125 0.019365907
0.17132127 0.15627314 0.074815206 -0.066035 -0.052113786 0.12587324 -0.057167303 0.13025065
0.06289515 0.12501533 -0.0691784 0.029804308 0.15100008 0.06365487 -0.11842355 -0.095299564
-0.11085977 -0.11721415 0.08096263 0.13387686 -0.11700221 -0.07969711 0.0064270794 -0.12324123
-0.09241402 -0.097637676 0.12649836 0.012782559 -0.081658535 -0.037989113 -0.12632757 -0.0026752688
0.010996148 0.08213673 0.08958697 -0.015231528 0.12211846 0.13729367 -0.0054032654 0.0037197594
00000000: 15d4 e9bd dae7 a93d d351 063e 205a 903c
00000010: 3e57 bc3d 749b 8dbd e665 17be 43e1 693d
00000020: fc1f 1fbe a62d da3d 39ed 063e f23f b53d
00000030: a2e4 d53d 289b 91bd da03 a73d 4793 c6bc
00000040: 1958 cc3d f0b5 873c 5fa6 5e3d f7f1 14bd
00000050: 9a35 16be 34cd e6bd 6ae0 40bd 7336 043e
00000060: e681 27bd 8efe d13d 1bc1 003e 131f c13d
00000070: 5b9d a6bd 0af2 11be 9c96 dbbc de8e 0ebe
00000080: d3f4 bb3d bda3 133e b17b e1bd d0c2 703d
00000090: 8f92 edbd 30f0 a8bb 4bc3 f5bd 8e71 d3bc
000000a0: 2f92 1f3e ae32 52bd 8407 85bd 299f 083e
000000b0: 5132 8abd 680f 9b3d a97e 0ebe 9021 e03c
000000c0: 00d6 893b bd31 1abe 6a68 0bbd 3f06 19be
000000d0: 968b f93d d4ec 6a3d 8dd2 003e 1c89 693d
000000e0: b07a 8d3c 4ad1 32bd 4016 513b 23fd 01be
000000f0: a28e a3bd ed2e 143e aed6 75bd 3018 bf3c
00000100: 0edf bdbd fbd8 c1bd 1efd ea3d ea5a fa3d
00000110: 5088 1dbd 3ea9 df3d b8bf a1bc c82f a83c
00000120: 580f edbc 20ee a5bb 12a0 c4bd 4a85 78bd
00000130: 0adf 51bd f4d9 033d b613 05be 8c9c 8dbd
00000140: 27de a7bd 7361 8e3d aeba c2bd 30df a8bc
00000150: 90d8 333d 5bdb 85bc 6b79 88bd 1545 d4bd
00000160: 50ca 693c 691f 113e 1718 19be 0e9c 903d
00000170: 45f4 0ebe 5c80 18be 9a9b 9e3d 5680 e5bc
00000180: c6dc 0d3e 8ebd dd3d d791 bebb 381c 263b
00000190: 9d8d 5e3d dd8d 173d 1283 cc3d 00ab e5bc
000001a0: ba09 ab3c 6129 1cbe 9926 2a3c dcab 393c
000001b0: aa1e e23c 9ee4 d3bd 99ac b0bd 8709 6abc
000001c0: 22a6 ad3d f77a d23d a8c5 a73c d7ab 863d
000001d0: 2567 0e3e 51af 6ebd 2be6 03be b793 e7bd
000001e0: 401d 21bd 4094 05bc 55d8 20be c87d 7fbd
000001f0: 68df fabd 806d ca3c 549a 04be c023 cf3c
00000200: 76f7 cc3d c0c5 223b c019 8bbb 1280 dd3d
00000210: fc55 a43d 3460 203d 6cfb 02be 8f5a 1a3e
00000220: 7254 6dbd aadf 0fbd e440 babd 6850 853d
00000230: 00c5 8dba 18c1 783d a806 92bd 3b7a afbd
00000240: a8f8 3e3d a245 af3d e91c 053e 108a 4d3d
00000250: cedb cd3d 802c 0e3b aea6 dcbd a163 9cbd
00000260: 341a 05be 2829 2fbd cff8 203e cc80 47bd
00000270: f0be e7bc 0042 8dba 528e 13be f88e acbc
00000280: 4e88 ab3d 1602 f63d 530c 16be f4ee 4e3d
00000290: 4fa8 80bd 103c d9bc 8c3b 20bd 60ec 39bc
000002a0: 4471 04bd 2293 f23d b289 c4bd 8524 04be
000002b0: 7ab5 99bd bc5c 583d cc44 17bd f4c3 283d
000002c0: 3294 d0bd 2e59 b0bd 00d2 793d 884a 92bc
000002d0: 497b 003e feac de3d 71f8 a8bd 689d a8bc
000002e0: bdf5 b1bd e4a2 5abd f9b4 1b3e 0f85 f4bd
000002f0: 3d7b eebd d03f c83c 5004 a33d c049 c53c
00000300: a4aa 4ebd b2b0 0cbe 74a6 dcbd 10a6 69bc
00000310: 58a0 343d 4205 d3bd 90a6 86bc da53 e93d
00000320: 686a 8abd 4173 c6bd 58f4 54bd 5851 8bbd
00000330: f064 80bd acd6 1d3d a396 10be ebdb e93d
00000340: 884a c03c c83e 133d 48a3 56bd 99b6 dbbd
00000350: 882a b4bc e584 d53d e10b 1b3e 40a5 9e3c
00000360: d86e 2f3e 1106 203e b738 993d 5c3d 87bd
00000370: 4475 55bd eae4 003e 4328 6abd 6d60 053e
00000380: 2ccf 803d 0504 003e 68ad 8dbd 2a28 f43c
00000390: c49f 1a3e 7c5d 823d 0c88 f2bd 6b2c c3bd
000003a0: 720a e3bd f90d f0bd bccf a53d 0417 093e
000003b0: db9e efbd 3d38 a3bd 409a d23b e665 fcbd
000003c0: 9043 bdbd 43f6 c7bd c988 013e f06d 513c
000003d0: 973c a7bd 799a 1bbd 045c 01be 9053 2fbb
000003e0: 3029 343c 4d37 a83d 6079 b73d a98d 79bc
000003f0: 3e19 fa3d b696 0c3e e00d b1bb 35c7 733b

hidden_layers.2.bias f4 [40]
-0.07311327 -0.14969707 0.11957987 -0.06283342 -0.10618955 0.18878202 0.07993034 0.1205181
0.055917837 -0.124143615 -0.115907356 -0.1439451 -0.05070519 -0.098525874 0.08661563 -0.03435508
-0.07994854 -0.15536354 0.038746893 0.11904295 0.14223106 0.054759298 -0.121487476 0.10998863
-0.022326207 0.11386189 0.13047862 0.085422434 0.086643785 0.02279204 0.08024176 0.16190614
0.010429521 0.043651644 -0.06594019 -0.00023916364 0.042096734 -0.07701599 0.094882265 0.08083212
00000000: 69bc 95bd 304a 19be 4ae6 f43d cfae 80bd
00000010: e879 d9bd 1350 413e 85b2 a33d 32d2 f63d
00000020: 1a0a 653d 023f febd d660 edbd 5866 13be
00000030: 3fb0 4fbd efc7 c9bd 8963 b13d eab7 0cbd
00000040: 0fbc a3bd 9f17 1fbe 10b5 1e3d cacc f33d
00000050: 05a5 113e 494b 603d 6dce f8bd b841 e13d
00000060: 73e5 b6bc 6c30 e93d 309c 053e f5f1 ae3d
00000070: 4c72 b13d 5fb6 ba3c cb55 a43d b9ca 253e
00000080: 95e0 2a3c 11cc 323d a60b 87bd 00c8 7ab9
00000090: a06d 2c3d 8fba 9dbd a251 c23d 4f8b a53d

hidden_layers.3.weight f4 [40, 40]
0.12901743 -0.115324445 0.12350963 0.12279345 0.1578355 -0.06390284 -0.033838764 -0.14493339
-0.15456738 -0.14045498 0.029957756 -0.020315722 0.15097122 0.0865411 0.021959513 -0.13214627
0.055681303 -0.11743206 0.07390927 -0.07102791 0.04813978 0.05204071 0.018912688 -0.0034336895
-0.06328323 -0.06400232 0.06764844 0.14446576 -0.09151329 -0.029586509 0.12653695 0.09304176
-0.085086524 -0.08988023 -0.110639766 -0.06834537 -0.1377937 -0.12412535 -0.1433212 0.040926233
0.09836735 -0.06371092 0.1579913 -0.13876861 -0.15378463 -0.11789653 -0.017163336 -0.07084628
-0.0139327645 0.06801425 -0.053597227 -0.02731657 0.12615944 -0.027597696 0.046503454 0.10249139
0.00022923946 0.0385215 0.14895861 -0.12693372 -0.07363916 0.040666714 -0.14900771 0.07060839
0.029225558 0.02338463 -0.00158979 -0.08197562 -0.024239391 0.14988063 0.06801033 -0.10391039
-0.041560203 -0.026596844 0.13337831 0.03799385 -0.03386172 -0.14223012 0.10264094 0.0656794
0.09509955 -0.048274845 0.015950834 0.009652466 0.14945583 -0.05005278 0.014977756 -0.049860872
-0.106242664 -0.11104761 0.08813955 0.09923504 0.0031431224 0.019366637 -0.16763411 0.041129723
-0.12391579 0.084929794 -0.107766256 0.044298552 -0.06907804 -0.087100856 0.098009124 0.040602505
0.055968463 0.0723274 -0.024553627 0.036561355 -0.1184129 -0.110594235 0.12387155 -0.1281631
-0.09491341 -0.16739255 0.016221479 0.07847595 -0.16625896 -0.118345864 -0.1563992 0.10723874
0.029373784 -0.03355992 0.046245802 -0.112243354 -0.0016970336 -0.13204812 0.08174768 -0.10239703
0.009980097 -0.0015788376 -0.080265895 0.12592004 0.07640626 -0.01718022 -0.012571365 0.02927138
-0.10281275 0.12659262 0.10666327 0.03518997 0.036603678 -0.033049237 0.06975645 0.07280525
-0.10986837 -0.17836908 -0.011224418 0.08933437 -0.08652736 -0.15444486 -0.1937063 0.09989874
0.090753764 0.07179071 -0.02146934 0.0090611875 -0.067129135 0.0046102256 -0.042773396 0.11119781
-0.12038499 0.14881323 0.05702296 0.12015225 0.0074997246 0.07441359 -0.11842365 -0.032076072
-0.1458125 -0.13940476 -0.014441758 0.046337456 -0.072640665 0.0595306 -0.098628394 0.15291871
-0.13119331 -0.046492085 -0.021356553 0.07183229 -0.11892811 0.06853272 0.0429758 0.035670374
0.044480473 -0.08271352 0.09351166 -0.08946018 -0.03855403 0.006620075 0.02829286 -0.1390331
0.048987422 0.07008396 0.09531678 -0.0580002 0.06391024 -0.056074202 0.007507095 -0.13889039
0.13751118 0.08496408 -0.11979103 0.103333786 -0.008032024 0.034259617 -0.08457006 0.12877734
0.047727138 -0.15221418 -0.07136013 0.12470783 0.06380072 -0.019711554 -0.06586212 0.12220083
0.07108936 0.15090142 0.040638745 -0.053420916 -0.0020207316 -0.1220153 0.1469052 0.025920182
-0.101278156 0.068059 0.1390812 0.04122381 0.105384484 -0.06093254 -0.14552177 -0.110110685
-0.03749547 0.00022189319 0.11779155 -0.03686197 0.07713832 0.0662051 0.10242741 -0.09859963
-0.13255435 0.010749534 -0.09392786 -0.07843405 0.038778916 0.11219971 -0.138284 0.10132845
-0.020303652 0.09992118 0.072904766 -0.148841 -0.0172752 0.07767901 0.15051146 0.03685637
00000000: 251d 043e 392f ecbd 9ef2 fc3d 227b fb3d
00000010: a19f 213e 7edf 82bd 849a 0abd 6b69 14be
00000020: e946 1ebe 6ed3 0fbe f869 f53c 286d a6bc
00000030: 3398 1a3e 763c b13d 70e4 b33c 5a51 07be
00000040: 1412 643d 3880 f0bd be5d 973d 1577 91bd
00000050: 382e 453d a428 553d c8ee 9a3c c007 61bb
00000060: a39a 81bd a613 83bd 448b 8a3d d5ee 133e
00000070: 526b bbbd 685f f2bc e792 013e ae8c be3d
00000080: d841 aebd 2013 b8bd 1a97 e2bd a8f8 8bbd
00000090: cb19 0dbe 6e35 febd cbc2 12be 44a2 273d
000000a0: d274 c93d df7a 82bd 79c8 213e 5c19 0ebe
000000b0: b879 1dbe bc73 f1bd 209a 8cbc db17 91bd
000000c0: 4046 64bc 0e4b 8b3d c488 5bbd 00c7 dfbc
000000d0: f12f 013e 9014 e2bc 687a 3e3d 02e7 d13d
000000e0: 0060 7039 b8c8 1d3d 9b88 183e eafa 01be
000000f0: 21d0 96bd 2492 263d 7a95 18be 229b 903d
00000100: 706a ef3c 2091 bf3c 8060 d0ba d5e2 a7bd
00000110: b091 c6bc 4f7a 193e 0049 8b3d f8ce d4bd
00000120: 083b 2abd a0e1 d9bc 5394 083e 709f 1b3d
00000130: 96b2 0abd c6a4 11be 6a35 d23d ec82 863d
00000140: 8ec3 c23d d8bb 45bd 53ab 823c 6025 1e3c
00000150: f30a 193e 2504 4dbd 4365 753c ea3a 4cbd
00000160: c195 d9bd ee6c e3bd 8282 b43d be3b cb3d
00000170: d8fc 4d3b c8a6 9e3c 47a8 2bbe a477 283d
00000180: 90c7 fdbd acef ad3d 8eb4 dcbd 6672 353d
00000190: ca78 8dbd ef61 b2bd 02b9 c83d d04e 263d
000001a0: 303f 653d 6320 943d b024 c9bc 5cc1 153d
000001b0: 7682 f2bd 3b7f e2bd 5eb0 fd3d 303d 03be
000001c0: f661 c2bd f468 2bbe e8e2 843c 00b8 a03d
000001d0: ca3f 2abe 515f f2bd 1d27 20be fc9f db3d
000001e0: 4aa1 f03c 2076 09bd 3d6c 3d3d d8df e5bd
000001f0: 006f deba 9f37 07be 546b a73d 89b5 d1bd
00000200: 9083 233c 00f1 ceba 7262 a4bd 2ff1 003e
00000210: e37a 9c3d 88bd 8cbc 20f8 4dbc 88ca ef3c
00000220: 7e8f d2bd 7fa1 013e 4672 da3d 5c23 103d
00000230: bded 153d a35e 07bd 78dc 8e3d eb1a 953d
00000240: ab02 e1bd 62a6 36be 9fe6 37bc f0f4 b63d
00000250: 4235 b1bd cb26 1ebe f25a 46be b697 cc3d
00000260: 1cdd b93d 0207 933d 78e0 afbc 6075 143c
00000270: 007b 89bd 6011 973b 2833 2fbd adbb e33d
00000280: 688c f6bd 7f62 183e e890 693d 6212 f63d
00000290: 40c0 f53b 2766 983d 1988 f2bd 3362 03bd
000002a0: df4f 15be 1fc0 0ebe 209d 6cbc 58cc 3d3d
000002b0: a1c4 94bd 5cd6 733d affd c9bd b996 1c3e
000002c0: 8a57 06be 7c6e 3ebd f0f3 aebc cf1c 933d
000002d0: 9590 f3bd e25a 8c3d 6407 303d 191b 123d
000002e0: 2831 363d b565 a9bd 0b83 bf3d e636 b7bd
000002f0: d5ea 1dbd 37ed d83b 6ec6 e73c b15e 0ebe
00000300: 09a7 483d 2e88 8f3d 7235 c33d 9e91 6dbd
00000310: 5fe3 823d 10ae 65bd 14fe f53b 4839 0ebe
00000320: bbcf 0c3e a601 ae3d 0055 f5bd aaa0 d33d
00000330: c098 03bc d053 0c3d 1133 adbd 35de 033e
00000340: 887d 433d 09de 1bbe 4325 92bd d266 ff3d
00000350: f4a9 823d 207a a1bc b8e2 86bd 6e44 fa3d
00000360: 4c97 913d e785 1a3e d074 263d e4cf 5abd
00000370: 406e 04bb 28e3 f9bd 516e 163e 9056 d43c
00000380: ec6a cfbd 8462 8b3d 4d6b 0e3e 4cda 283d
00000390: d2d3 d73d 6694 79bd a903 15be b681 e1bd
000003a0: da94 19bd 00ac 6839 b23c f13d 94fc 16bd
000003b0: b2fa 9d3d 8a96 873d 76c5 d13d 9aee c9bd
000003c0: 54bc 07be d01e 303c 405d c0bd 08a2 a0bd
000003d0: a4d6 1e3d f6c8 e53d 529a 0dbe 4a85 cf3d
000003e0: d853 a6bc 7aa3 cc3d 184f 953d c669 18be
000003f0: b884 8dbc 2c16 9f3d ad1f 1a3e b4f6 163d

hidden_layers.3.bias f4 [40]
-0.14922267 -0.14646561 0.029263651 0.019050835 0.027630264 -0.0046283454 -0.047746256 -0.15131654
0.011666909 0.0040300176 0.036292948 0.10339825 -0.058342516 0.009767642 -0.14335413 0.12170763
0.025889426 -0.13391379 0.070757054 0.084396556 -0.15110117 0.060466096 0.0745382 -0.0058448073
-0.09965747 0.08794259 0.10297335 -0.029891146 -0.15019543 0.005977159 0.07189121 0.025878683
-0.07071431 -0.10534326 0.031704657 0.08359499 -0.011088726 0.18531077 -0.08169564 0.016851768
00000000: d4cd 18be 15fb 15be 53ba ef3c 7f10 9c3c
00000010: dd58 e23c 60a9 97bb 9491 43bd b9f2 1abe
00000020: 9026 3f3c 3d0e 843b eaa7 143d 76c2 d33d
00000030: 90f8 6ebd 7608 203c 6dcb 12be da41 f93d
00000040: 1016 d43c b220 09be 13e9 903d 1ad8 ac3d
00000050: 44ba 1abe 4cab 773d 7ca7 983d cc85 bfbb
00000060: 3719 ccbd 3f1b b43d b1e3 d23d 47de f4bc
00000070: d5cc 19be 0bdc c33b b33b 933d 88ff d33c
00000080: aad2 90bd 35be d7bd bedc 013d da33 ab3d
00000090: 7dad 35bc 1bc2 3d3e 0b50 a7bd b80c 8a3c

output_layer1.weight f4 [2, 40]
0.14454518 0.10879336 -0.037634112 0.01869249 0.103124574 0.15437166 0.0142098665 -0.0062748194
0.031665415 -0.006550308 0.17116265 0.16729686 -0.123197146 -0.021869017 0.12062751 -0.13969234
0.09396653 -9.4115734e-05 -0.1017759 0.01991101 -0.09813476 -0.02670374 -0.046432514 -0.041997235
-0.1033092 0.014370686 0.035958856 0.06767447 0.07233843 -0.14123349 0.16842648 0.067224555
0.011804607 0.12008409 0.035868395 0.16247654 0.06880257 -0.034140944 0.058446303 -0.07490057
-0.017813832 -0.10781696 0.017929168 -0.082925506 0.0745177 0.09178601 0.015161663 -0.073696256
-0.018285602 0.06802567 0.12353702 0.112284526 0.09744161 0.11793553 -0.11608638 -0.013180943
-0.083607174 0.0064348876 -0.08393562 0.030099945 0.15644689 -0.027488189 0.12698635 -0.09332831
-0.014793337 0.105274774 0.09243357 -0.090495914 -0.15387362 -0.06557738 0.12492366 -0.032270856
-0.05516911 0.049479812 -0.054304548 -0.07560277 -0.09977546 -0.09649163 0.15420948 0.071789995
00000000: a703 143e 0ecf de3d 3a26 1abd fe20 993c
00000010: fa32 d33d 9b13 1e3e 80d0 683c 009d cdbb
00000020: 98b3 013d f7a3 d6bb 4345 2f3e de4f 2b3e
00000030: c94e fcbd a726 b3bc 8e0b f73d 820b 0fbe
00000040: 8671 c03d 0060 c5b8 e26f d0bd 6a1c a33c
00000050: e1fa c8bd cdc1 dabc 0530 3ebd 4b05 2cbd
00000060: c693 d3bd 0773 6b3c 9849 133d ea98 8a3d
00000070: 2c26 943d 839f 10be fe77 2c3e 07ad 893d
00000080: 1c68 413c a6ee f53d bdea 123d 4060 263e
00000090: 5de8 8c3d 60d7 0bbd 6465 6f3d 7865 99bd
000000a0: 50ee 91bc 23cf dcbd 31e0 923c d9d4 a9bd
000000b0: bc9c 983d 4efa bb3d a068 783c 10ee 96bd
000000c0: b0cb 95bc 0b51 8b3d fa00 fd3d 6ef5 e53d
000000d0: 788f c73d 2f88 f13d b2be edbd e2f4 57bc
000000e0: 3d3a abbd c0db d23b 70e6 abbd 2994 f63c
000000f0: 9d33 203e e92e e1bc b608 023e ea22 bfbd
00000100: c15f 72bc 4d9a d73d d04d bd3d ec55 b9bd
00000110: 0c91 1dbe 6f4d 86bd fad7 ff3d 722e 04bd
00000120: 01f9 61bd 58ab 4a3d 726e 5ebd a0d5 9abd
00000130: 1457 ccbd 679d c5bd 17e9 1d3e a206 933d

output_layer1.bias f4 [2]
-0.09346398 0.0026996946
00000000: 0b6a bfbd 5ced 303b

output_layer2.weight f4 [1, 40]
-0.05400583 -0.15421686 -0.040352 -0.12328986 -0.028395418 0.009325683 -0.009647012 -0.025226697
0.020848706 0.023771623 0.097130254 -0.08327573 -0.1437237 -0.10078402 0.0528028 0.08058088
0.15663992 0.0740653 0.11385716 -0.096746095 0.021706685 0.05247019 -0.098136574 -0.016562957
-0.09904153 -0.064947784 -0.11109357 -0.120420985 0.13997401 0.07218759 -0.08552304 0.0051467707
0.021049634 0.084363416 -0.04326034 0.17578754 -0.1007168 0.1658591 -0.1361132 -0.016434506
00000000: 3835 5dbd 06eb 1dbe 2448 25bd 657f fcbd
00000010: 829d e8bc c0ca 183c 800e 1ebc 38a8 cebc
00000020: e8ca aa3c b5bc c23c 3aec c63d 778c aabd
00000030: 4e2c 13be da67 cebd c047 583d 9707 a53d
00000040: 3766 203e 8caf 973d f12d e93d d122 c6bd
00000050: 38d2 b13c fbea 563d d4fb c8bd 0aaf 87bc
00000060: 49d6 cabd 5803 85bd 0785 e3bd 479f f6bd
00000070: 5955 0f3e 16d7 933d b426 afbd 3ea6 a83b
00000080: 4870 ac3c bac6 ac3d c131 31bd a601 343e
00000090: 9c44 cebd f8d6 293e 4261 0bbe a8a1 86bc
