src/models/prediction_31.pt (torch, 38168 bytes, 13 tensors)

input_layer.weight f4 [40, 40]
000000 cf 94 01 be 08 2e 12 bd 29 c6 11 3e ba fc 0d be
       -0.12654422 -0.03568843 0.14235748 -0.13865939
000010 05 16 d8 3d a8 63 f8 bd b4 69 c2 3d c5 f9 02 3e
       0.10551075 -0.12128383 0.094928175 0.12790592
000020 0d 34 80 bb 78 cd 1f 3e 4c 95 ef 3d fa e5 ec 3d
       -0.003912455 0.15605724 0.11698398 0.11567302
000030 31 85 1a bd 2e 99 02 be 93 c1 1d be 82 39 02 3e
       -0.037724677 -0.12753746 -0.15405874 0.1271725
000040 0e 1f f6 bd 5b 73 af bd 6b a4 7d bd 05 c2 0a 3d
       -0.12017642 -0.08566924 -0.06192438 0.033876438
000050 b0 d0 99 bd 69 d0 4f 3c 3f 0a b7 3d ca c8 36 bd
       -0.07510507 0.012683966 0.08937501 -0.04462508
000060 fd a6 4b bd c2 7b cd 3d 9a eb a6 3d 61 ef 0b bd
       -0.0497198 0.100333706 0.08150406 -0.034163836
000070 8d 82 c3 3d 1f ec f3 3d f7 28 f5 bd 44 b5 c1 3d
       0.09546385 0.11910271 -0.11970704 0.09458402
000080 b0 c1 1c be c4 9e 08 be 25 7c b9 3a d4 46 69 3d
       -0.15308261 -0.13341814 0.0014151378 0.056952313
000090 85 f9 cc bc 5d b5 28 bd 33 99 0a be 77 76 0d be
       -0.025021324 -0.041188587 -0.13535003 -0.13814722
0000a0 f8 67 d5 bc 0d 59 0e 3e 38 bd e2 3c d5 44 10 3e
       -0.026050553 0.13901158 0.027678117 0.14088757
0000b0 1d ee 10 be 6c 33 ea bd 0a 52 8c 3d 9f f2 05 3e
       -0.14153333 -0.11435589 0.06851585 0.13080834
0000c0 18 d9 88 bd d4 a2 9f 3d 38 39 41 3d d6 b8 12 be
       -0.06682032 0.07794729 0.04717371 -0.14328322
0000d0 b4 9a 0c 3d 10 96 8e bd 7a ed 89 bd 88 99 2a 3d
       0.034327224 -0.06962216 -0.06734748 0.041650325
0000e0 ba 69 d1 bd a2 5e 81 3d 14 e5 1f bd af 74 cf bd
       -0.10225244 0.06316878 -0.039036825 -0.101296775
0000f0 c0 1f 7c 3d 91 97 0c 3e 5e b5 a9 bd a0 47 79 3c
       0.061553717 0.13729693 -0.08286546 0.015214831
000100 48 fd 58 3d aa f4 9b 3d 00 24 c0 3a 80 6d 27 bb
       0.052975923 0.07615025 0.0014659166 -0.0025547445
000110 c1 e2 d9 bd f7 bd 04 3e b8 f7 e6 bc 5a f2 28 bd
       -0.10638953 0.12963091 -0.028194293 -0.04124675
000120 db 5f 09 3e 53 2a 00 3e 04 81 58 3d 00 45 d4 ba
       0.13415472 0.12516145 0.052857414 -0.001619488
000130 7c 92 cb bd c2 99 fe 3d 40 95 84 bd b4 df 67 bd
       -0.09940049 0.12431671 -0.0647378 -0.056609824
000140 21 98 c0 3d 84 94 51 ba a8 92 23 3e 25 b5 12 be
       0.09404016 -0.0007994848 0.15973914 -0.14326914
000150 74 8e d7 3c 3b 58 04 3c 81 cf 0a be a3 a2 e7 bc
       0.026313044 0.008077676 -0.13555719 -0.028275793
000160 69 45 20 3c 5f b9 f8 bd 39 f9 92 3c 8e c7 0d 3e
       0.009782174 -0.12144732 0.017941104 0.13845655
000170 5c 9b 09 be 7e 38 44 3c 72 98 86 bd 93 4b bb 3d
       -0.13438171 0.011976359 -0.065720454 0.09145274
000180 3f 61 38 3d b8 42 1b be b2 ff 76 3d 94 1d 06 3e
       0.045014616 -0.1516217 0.060302444 0.1309722
000190 91 21 35 be 86 13 a3 bd 0b fc ea 3d 3e 8e 00 3e
       -0.17688586 -0.07962708 0.11473855 0.12554261
0001a0 15 99 da 3c 73 58 d6 3d c2 0f 1a bc f7 2e 14 3e
       0.026684323 0.10466089 -0.009403171 0.1447104
0001b0 68 08 03 3e c9 f7 44 bd 6b 77 13 3d 33 f7 86 bd
       0.12796175 -0.04808787 0.036002558 -0.06590118
0001c0 b4 94 0f 3e 33 e4 12 3e 08 6d a3 3d 57 70 5e bd
       0.1402157 0.14344864 0.079797804 -0.054306354
0001d0 04 a7 07 3e 12 fa 12 be 6d ac 57 3d 2a 8b bf 3d
       0.13247305 -0.14353207 0.052654672 0.09352715
0001e0 82 a6 ed bd ec fa 50 bd 5c 4d 00 be 58 c4 89 bc
       -0.116040245 -0.051020548 -0.1252951 -0.016817257
0001f0 46 f5 14 be 0e 6c 11 be 10 cc c4 bc 15 93 ad bd
       -0.1454669 -0.14201376 -0.024023086 -0.08475319
000200 48 f4 da 3c 18 86 1d 3d a8 62 7e 3d 35 32 1b 3e
       0.02672781 0.03845796 0.062105805 0.15155871
000210 de 5e cf bd 27 a5 19 3e c4 98 c7 bd df da 89 bd
       -0.10125516 0.15004407 -0.097459346 -0.067311995
000220 fc 81 87 3d 79 ed 0e be fd 88 b8 bd 56 9f e5 3d
       0.066165894 -0.13957776 -0.090105034 0.112120315
000230 72 b9 a4 bd c8 fa 2d 3d 12 b7 aa 3d 18 88 fa bc
       -0.080431834 0.04247549 0.08335699 -0.030582473
000240 90 58 08 3c ba 4b 9f 3d e1 7f 02 3e 78 d6 5c 3d
       0.008321896 0.077781156 0.12744094 0.05391547
000250 e1 21 e5 bd 37 4b 91 bd f6 97 90 bd 12 35 96 3d
       -0.111881025 -0.07094424 -0.07060234 0.07334341
000260 98 d6 91 3d 13 aa 08 3e 85 03 c8 bd c4 4d 4c 3d
       0.07121009 0.13346128 -0.09766296 0.04987885
000270 de 93 8f 3d 14 b4 ba bd 8e 99 c9 3d cc 54 66 bd
       0.07010625 -0.091163784 0.09843741 -0.056233212
000280 fa 1d fb 3d d6 64 13 be 9d 59 93 bd 52 23 54 bc
       0.12261577 -0.14393935 -0.07194827 -0.012947874
000290 fc e9 f1 bd 7e df 1e 3e 17 b3 8a 3d 1f 4e ec bd
       -0.11812207 0.15514943 0.0677244 -0.11538338
0002a0 8e 3f b7 3c 55 c7 9b bd 7a e4 54 3c 88 42 16 be
       0.022369172 -0.07606379 0.012993926 -0.14673817
0002b0 65 f7 4e 3d 29 98 93 3d 63 da 36 3d 17 1f 53 3d
       0.050528903 0.072067566 0.044641864 0.05154332
0002c0 ef 3e 7d bc 77 f6 dc bd 21 b6 9d 3d 11 25 23 be
       -0.015456899 -0.10789197 0.07700754 -0.15932108
0002d0 34 b0 1a bd 48 0b ea bd 05 66 d2 bd 33 30 49 3c
       -0.037765697 -0.11427933 -0.10273365 0.012279558
0002e0 68 bf ac bd 52 d7 d9 3c ad e7 3b be c4 bc 12 3e
       -0.08434945 0.02659193 -0.18350096 0.14329821
0002f0 da 15 ec bb 31 a8 94 bd ad d8 82 bd 1c 95 0b be
       -0.0072047533 -0.072586425 -0.06388984 -0.136311
000300 e5 5d 8e 3d 2e fc 37 3e 96 ea 19 3c af a8 28 bc
       0.06951503 0.17967293 0.009394309 -0.010294124
000310 a3 5c 38 3e fb 9e aa bd 37 b5 38 be 4f 9a 10 3d
       0.18004088 -0.08331104 -0.18037878 0.03530341
000320 98 be 78 3c 0f 5c 9a bd 81 85 28 3d 73 4d b1 3c
       0.01518216 -0.0753709 0.041142944 0.021643376
000330 53 09 c9 bd d6 6f 6e 3d 0f df ac bc 5b f2 50 bd
       -0.098162316 0.058212124 -0.021102456 -0.05101238
000340 f2 a6 d4 bd e3 ae 0d 3e 48 f6 ef 3d 30 27 94 3d
       -0.10383405 0.13836245 0.11716896 0.07234037
000350 14 01 ea bd bb eb b0 bd fa a6 9a 3a 44 00 26 be
       -0.11425987 -0.08638712 0.001179903 -0.16211039
000360 4f d7 60 bd b9 ee 1e bc 74 04 2b be 26 3c b1 bc
       -0.054892834 -0.009700471 -0.16700917 -0.021635126
000370 99 7b 70 bd 9b d6 20 3e 52 10 a8 3d 49 50 ce bd
       -0.058711622 0.15706865 0.08206238 -0.10073907
000380 69 71 c8 3d de 99 99 3c 2b 90 80 bd 94 89 05 3e
       0.09787256 0.018750127 -0.06277498 0.13040763
000390 93 d8 ab 3c 7e 33 0c be 6a a8 16 3d af 34 17 3e
       0.020977294 -0.13691518 0.036781706 0.14766191
0003a0 a7 bc 5a 3c 4a 95 62 3c 11 00 c6 3d 5b 8d a1 bd
       0.013350642 0.013829539 0.096679814 -0.078882895
0003b0 7a 98 b9 bd 49 13 91 3d 11 3d 27 3e bc ae 1b be
       -0.09062286 0.070837565 0.16331889 -0.15203375
0003c0 9f 1e 8c bd 76 73 9f bc 89 d0 a0 3d b9 73 2d bd
       -0.06841778 -0.019464236 0.07852275 -0.04234669
0003d0 eb a4 08 bd c4 21 08 be 9d 84 33 be 37 58 db 3d
       -0.033360403 -0.1329413 -0.17531057 0.10710185
0003e0 4a a3 3f 3b f6 73 f3 bd 30 73 9c bd a8 65 eb bd
       0.0029241615 -0.11887352 -0.07639158 -0.11493999
0003f0 72 00 d8 bc 7e f2 2e be 62 44 1c be a2 92 bf 3d
       -0.0263674 -0.17084691 -0.15260461 0.0935414

input_layer.bias f4 [40]
000000 3b 54 d0 bd a0 a1 c5 bc a3 fc 19 bc 98 de d1 bd
       -0.10172316 -0.02412492 -0.009398612 -0.102475345
000010 3f e6 f4 3d 0d 8b cf 3d 54 0e e5 bd 53 5f ab bd
       0.119579785 0.10133944 -0.111843735 -0.08367791
000020 50 10 22 bc e0 bf 44 bc d8 c0 8f 3c c2 ac ac bd
       -0.0098915845 -0.012008637 0.01754801 -0.084313884
000030 f3 e4 3a 3d d2 33 af bd 14 ea 1d be 8d 57 01 be
       0.0456285 -0.08554806 -0.15421325 -0.12631054
000040 6c 94 15 3d 00 f5 74 bc ba 30 c1 3d 77 9a 2d 3e
       0.0365185 -0.014950991 0.09433122 0.16953455
000050 54 80 d7 3d 4d e6 a8 3d 42 d7 a5 bd bb 5d 61 bd
       0.105225235 0.082470514 -0.08097698 -0.05502103
000060 3c 15 25 bd 50 41 46 bd 43 21 b6 3d a0 25 f7 3b
       -0.040303454 -0.04840213 0.08893063 0.007542327
000070 54 59 82 3d 25 f6 c6 bd 11 d2 c7 3d be eb 10 3d
       0.06364694 -0.09714917 0.09756864 0.03538107
000080 b9 d1 2c bd 60 cf b5 bd 57 98 f9 bc 50 1e 27 bd
       -0.042192195 -0.08877444 -0.03046815 -0.040800393
000090 fb 59 88 bd fd d6 a5 3d 2b cb 61 bc 32 05 8d bc
       -0.066577874 0.080976464 -0.013781349 -0.017214391

hidden_layers.0.weight f4 [40, 40]
000000 50 59 44 3d 01 1a 04 3e cf 3b 03 3e 90 4c 9b bc
       0.047936738 0.12900545 0.12815784 -0.018957406
000010 8b c1 29 be 63 aa 8d bd 6e 60 1a be 40 67 a2 3b
       -0.16577737 -0.06917264 -0.15075848 0.004956156
000020 0b cc 0f 3e 80 c5 74 3c 56 c5 7a bd ee 22 e6 3d
       0.1404268 0.014939666 -0.06122335 0.11237131
000030 f7 a5 1f be 57 46 05 3e e4 b2 08 3d da a3 49 bd
       -0.15590654 0.13015114 0.03337373 -0.049228527
000040 d6 8a 8b 3d 0f b2 11 3e f9 78 11 be dd b8 07 be
       0.0681359 0.1422808 -0.14206304 -0.13254113
000050 56 a2 c1 bd 97 29 b8 3d 63 5c 0c be a5 81 a3 bd
       -0.09454791 0.08992308 -0.13707118 -0.07983712
000060 91 71 02 3e 99 e1 8c bd 1d 68 49 3d 05 c3 15 3e
       0.12738635 -0.06878967 0.049171556 0.14625175
000070 24 c4 b9 3d 30 da 08 3d e9 58 77 bd 36 d2 20 3d
       0.09070614 0.033411205 -0.060387526 0.039262973
000080 1c ce fb bd 11 c5 2a be 37 6e bc bd ca 5d dc 3d
       -0.122951716 -0.16676737 -0.09200709 0.10760076
000090 83 c1 1b 3e 86 80 01 be 3b 0e 0e 3e 60 52 fa bc
       0.15210538 -0.12646684 0.13872616 -0.030556858
0000a0 84 0e bc 3d cf 1c 14 3e 43 32 1d be 80 67 8c ba
       0.09182456 0.14464115 -0.15351205 -0.0010711998
0000b0 65 d0 16 3e 6b f3 16 3e 7e 3b d0 3d 18 2a d7 bd
       0.14727934 0.14741294 0.10167597 -0.105060756
0000c0 60 ae 88 3d 52 d4 f8 3d 10 6b 84 3d 7a 1f f2 3d
       0.066738844 0.12149872 0.06465733 0.1182241
0000d0 57 5f 16 be 58 46 6c bd 90 b7 16 3c 4b 54 08 3e
       -0.14684807 -0.057684273 0.009199038 0.13313405
0000e0 22 fc 81 3d 00 10 c2 3b f3 7a 0f 3e 35 a3 80 bd
       0.06346919 0.0059223175 0.14011745 -0.06281129
0000f0 f6 d9 fd 3d be d6 d7 3d 02 4e d2 3d 50 c9 3f bc
       0.123950884 0.10539006 0.10268785 -0.0117057115
000100 9b 5e 12 3e fc 67 38 bd 06 07 c3 3d 5a ac fe bd
       0.14293902 -0.045021042 0.09522824 -0.12435217
000110 d6 14 d4 3d 7f e6 c2 bd e6 e1 17 be 13 1e 07 3e
       0.10355537 -0.0951662 -0.14832267 0.13195066
000120 98 49 ab bd 46 48 9c 3d ca 92 ca 3d e0 b2 c8 3c
       -0.08363646 0.076309726 0.09891279 0.024499357
000130 20 00 6f bc 3a 45 13 bd b8 18 5a bd 62 96 dc bd
       -0.014587432 -0.03595469 -0.05324623 -0.10770871
000140 82 d5 e1 3d 44 c9 3d 3d 36 6f 31 3d 4d fd 07 3e
       0.110270515 0.04633452 0.04331895 0.1328022
000150 03 1a d9 3d d2 f2 98 bd 72 b9 1b 3e 50 4e a0 3d
       0.106006645 -0.07468189 0.1520746 0.07827437
000160 eb e8 f4 bd 93 e7 13 3e c2 6d e5 3d 98 b2 54 3d
       -0.11958488 0.14443807 0.11202575 0.051928133
000170 14 84 83 3c 09 82 07 3e aa 61 d8 bd 4c 0e d2 bd
       0.01605419 0.13233198 -0.10565503 -0.10256633
000180 00 20 3e b8 c4 ac b4 3d b1 02 ad 3d ca f1 a9 bb
       -4.5329332e-05 0.08822015 0.08447779 -0.005186294
000190 7d 3b d5 bc ec 30 17 3e 30 08 08 3c 8c 7a c4 bd
       -0.026029343 0.14764756 0.008302733 -0.095936865
0001a0 91 42 0b 3e 03 ae 19 3e c4 62 26 3e e0 0e df 3b
       0.13599612 0.15007786 0.16248614 0.006807193
0001b0 a7 25 8b bd 40 81 16 3b da cf b7 bd c1 ce a8 bb
       -0.06794291 0.0022965223 -0.089751914 -0.0051516
0001c0 ab 94 56 3d 18 d1 6f bd 52 c7 0b be 1a 69 80 bd
       0.052387875 -0.058549017 -0.13650253 -0.062700465
0001d0 87 24 8a 3d 54 db 59 3d ad 38 16 bd bc 38 99 bc
       0.06745248 0.053187683 -0.036675144 -0.01870381
0001e0 e8 b5 9a 3d 4a 95 c3 bd a5 af 94 bd d5 ea 0c 3e
       0.07554227 -0.09549959 -0.07260064 0.13761456
0001f0 35 5b 92 bd c0 92 82 3d 10 7c 39 3d 8c 0c 1f be
       -0.071463026 0.063756466 0.04528433 -0.1553213
000200 1a 6d 96 bd 7e 37 bd bd 9e a4 d9 3d b4 72 17 be
       -0.07345028 -0.092391 0.10627101 -0.1478985
000210 81 30 06 3e 7e 32 47 bd c8 63 af bc 0e 09 1e bd
       0.1310444 -0.048632137 -0.021409884 -0.038582854
000220 b3 5d 04 3e 54 c6 b0 3d d3 79 02 3e 10 b6 e0 bc
       0.12926368 0.08631578 0.12741785 -0.027430564
000230 38 da a9 3c d0 da 1f 3d c8 88 e8 3c 84 17 34 3d
       0.020733938 0.039027035 0.028385535 0.04396774
000240 8e b8 8c 3d 34 81 3c bd 80 21 f4 ba 76 40 9e 3d
       0.068711385 -0.046021655 -0.0018625706 0.07727139
000250 36 ae 16 bd 10 3d a7 3d 18 56 d0 bd 86 28 b4 3d
       -0.036787234 0.081659436 -0.10172671 0.08796792
000260 30 8a 04 be 90 82 93 bc fd 31 14 be 03 0e 9f bd
       -0.1294334 -0.018006593 -0.14472194 -0.077663444
000270 e0 1b 00 be 68 9f fd bc ad 3c 04 3e 10 7c 5c 3c
       -0.12510633 -0.0309598 0.12913771 0.013457313
000280 ee 19 b0 bd 60 e4 1c be ba 8a 23 3d be c4 86 3d
       -0.08598696 -0.15321493 0.03992722 0.06580494
000290 73 63 49 3c 33 16 03 3e ba 08 94 3d 6c f1 80 3d
       0.012291777 0.12801437 0.07228227 0.062960476
0002a0 10 77 11 3c 5f 7f 19 be e8 33 95 3d 06 f1 c2 3d
       0.008878484 -0.14989994 0.07285291 0.09518628
0002b0 a7 bd e9 bd f2 a4 17 be c0 8e 1a 3b 85 a0 11 3e
       -0.114131264 -0.14809015 0.002358362 0.1422139
0002c0 82 c4 93 bd f4 2d 6c 3d 30 84 21 3e 8a c3 24 3e
       -0.07215215 0.05766101 0.15773082 0.16090217
0002d0 7d 57 c4 bd 31 ba 55 3d cf 85 07 be d1 88 b9 3d
       -0.095869996 0.05217952 -0.13234638 0.09059299
0002e0 50 b0 9a bd a0 40 16 3d 18 56 bf bd 39 56 18 3e
       -0.0755316 0.036682725 -0.09342593 0.14876641
0002f0 05 f5 0b 3e ca d9 0c bd a8 46 e6 bc 33 f6 1d 3e
       0.13667686 -0.034387387 -0.028109863 0.15425949
000300 17 0f b9 bd f5 f6 b8 3d 16 68 2e 3d 4a 55 eb 3d
       -0.09036081 0.09031478 0.042579733 0.11490877
000310 f1 cb 96 bd 47 1a 7f 3d 63 c7 2e 3e 29 80 3e 3d
       -0.073631175 0.06228092 0.17068247 0.04650894
000320 4e 06 d7 bd 98 41 d2 bd 5a b5 f3 3d c0 82 f3 3b
       -0.104992494 -0.10266417 0.118998244 0.007431358
000330 40 6b 3d 3e 97 0c f6 bd f7 b8 51 3d 86 77 dd 3d
       0.18497944 -0.1201412 0.051201787 0.10813813
000340 87 d6 f1 bd 7a 2a 9e 3d 80 e5 86 3b 32 0f 5e bd
       -0.11808496 0.077229455 0.004116714 -0.05421371
000350 4b 06 cc bd 94 02 a6 3d 58 a8 8c bc e6 08 98 bd
       -0.09962138 0.081059605 -0.017170116 -0.07423572
000360 80 da ae ba a0 8d b4 3b d4 b2 bd bd 66 a8 5b bd
       -0.0013340265 0.005510047 -0.092626244 -0.053627394
000370 c1 f6 84 bd 0d b7 85 3d 00 dd 0f 3a 9e 47 8a ba
       -0.06492377 0.06529055 0.00054879487 -0.0010549908
000380 f2 e7 c6 3d e4 cb b3 bd 2e 16 b8 bd 24 d8 1a 3d
       0.09712209 -0.087791234 -0.089886054 0.037803784
000390 c9 2f 4a 3d 35 fe 11 be 76 2e 1e 3e c3 d0 a5 3d
       0.049361978 -0.14257129 0.15447411 0.08096459
0003a0 0d 91 4b bd f6 86 a0 3d 0e 75 78 bd f0 c5 51 3c
       -0.049698878 0.07838242 -0.060658507 0.01280354
0003b0 63 97 bc 3d fb 19 da 3d 62 08 b5 3d c6 2e c9 bc
       0.09208562 0.10649487 0.088394895 -0.024558436
0003c0 4e a8 f1 3d ea b3 0f be 48 ba 96 3c 0d 48 b6 bd
       0.1179968 -0.14033476 0.018399373 -0.08900461
0003d0 ef c6 8f bd 1e 47 f1 bd 50 a6 9c 3c c9 ec 1a 3e
       -0.070203654 -0.11781143 0.019122273 0.15129389
0003e0 98 37 a1 bc a1 72 00 be b6 df fa 3d 80 ee f1 3c
       -0.01967983 -0.12543727 0.12249701 0.029532671
0003f0 2c 8e 78 3d 68 e5 d3 bc e8 e5 bc 3c b0 41 d5 bd
       0.06068246 -0.025866225 0.023058847 -0.104129195

hidden_layers.0.bias f4 [40]
000000 4a e3 ea 3d 10 d6 c5 bd 8d 0e 9f 3d 3d 1e d1 bd
       0.11469133 -0.0965997 0.07766447 -0.102108456
000010 3d 0c 1c 3e f0 2e 86 3d 83 9f c0 bd 20 9d 4e bd
       0.15239044 0.06551921 -0.094054244 -0.050442815
000020 5f ad 23 3e c6 37 42 bd 4a 77 25 3d ac e9 8e bd
       0.15984105 -0.04741647 0.040396966 -0.06978163
000030 58 43 0a be d5 b9 7d bd 4e 04 92 3a 0d a4 da bd
       -0.13502252 -0.0619448 0.0011140199 -0.106758215
000040 d4 49 20 bd bf 57 ca bc 7d 70 37 bd 2c bb 48 bd
       -0.039132908 -0.024700044 -0.04478501 -0.049006626
000050 dc da c4 bd 6a cf c7 bd 00 86 cb 3d 70 8f be bd
       -0.096120566 -0.09756358 0.09937668 -0.09304702
000060 1c 88 05 bd ed 65 0f 3d f5 bf c2 bd 2d 67 a2 3d
       -0.032600507 0.035009313 -0.09509269 0.079298355
000070 30 1c 96 bd 6c 73 b1 bd 8d a6 2e 3e b9 d3 b8 3d
       -0.07329595 -0.08664593 0.17055722 0.09024758
000080 44 c3 af bd dc 18 a9 bd 5b f4 96 bd b0 eb 1c 3e
       -0.08582166 -0.08256695 -0.07370826 0.15324283
000090 c0 c5 d8 3d 46 91 e1 bd 71 43 10 3c 15 76 0a 3e
       0.10584593 -0.11014037 0.008805142 0.13521607

hidden_layers.1.weight f4 [40, 40]
000000 dd 4c 55 3d 79 25 ce bd d6 96 09 3d 9a 7f 8b 3d
       0.052075256 -0.10065741 0.033591114 0.068114474
000010 cc a1 2d 3e 41 ca a3 3d 70 76 a7 3c 7c c7 fa bd
       0.16956252 0.07997561 0.020442218 -0.1224508
000020 34 85 3c 3e 6d 95 a0 3c a8 35 3d 3e 68 04 22 bb
       0.18410188 0.019602502 0.184775 -0.0024721865
000030 c0 7f 88 3c 5b 2d d6 3d 1f 0a 7b bd 59 74 cd 3d
       0.016662478 0.104578696 -0.06128895 0.10031957
000040 ec 19 7b bd fd b1 f4 bd a1 a4 da 3c 14 e5 30 3d
       -0.061304018 -0.11948011 0.02668983 0.043187216
000050 97 9b 0d 3e c7 fb 04 3e 21 eb fb bc 5b eb 88 bd
       0.13828884 0.1298667 -0.030751767 -0.066855155
000060 83 3f 06 3e 99 bc e1 3d 02 b8 1b bd cc 45 d2 3d
       0.13110165 0.110223 -0.03801728 0.10267219
000070 20 3c 47 bc 86 6c d8 3d 0c ff 08 3e 64 47 a3 3d
       -0.012160331 0.10567574 0.13378543 0.07972601
000080 76 25 0b 3e 53 b6 0e 3e aa b7 cd 3d 69 27 00 3e
       0.13588509 0.13936739 0.10044797 0.12515034
000090 ad a7 3b bd de 19 c0 3d 1f 20 1a 3d 58 2c 39 bd
       -0.045814205 0.09379934 0.03762829 -0.045208305
0000a0 12 7c 5c bd 1e e9 c2 3d 30 33 84 3d d4 16 11 be
       -0.05382926 0.0951712 0.06455076 -0.14168864
0000b0 10 1d 3c bd a0 f3 9c 3c 68 07 a2 3d 09 46 01 3e
       -0.045926154 0.019159138 0.07911569 0.12624373
0000c0 90 6f 88 3c 00 ac 36 bd 35 a4 1a 3e 3a 0d f8 3d
       0.01665476 -0.044597626 0.15101703 0.12111898
0000d0 17 94 8d bd a0 1e cd bb 46 0d 50 bd 80 bd fb 3a
       -0.069130115 -0.0062597543 -0.05079391 0.0019206256
0000e0 06 c7 1a be fc d8 32 3d 30 44 55 bd d4 a7 b3 bd
       -0.15114984 0.043663964 -0.05206698 -0.08772245
0000f0 d8 38 4c 3d d2 b3 3f bd da ce bb 3d f0 cb 1a bc
       0.049858898 -0.04680235 0.09170313 -0.009448037
000100 ee cf d6 3d 03 50 85 bd 8c ec 2a 3d 16 b6 17 bd
       0.10488878 -0.06509402 0.041729495 -0.037038885
000110 ed 67 0b 3e 3e a0 8e bd a6 f9 06 be 40 d2 0b 3b
       0.13613863 -0.069641575 -0.13181171 0.0021335036
000120 5c b5 9e bd 54 58 07 3d 7b 00 07 3e 3c 1a 52 3d
       -0.07749435 0.03304322 0.13183777 0.05129455
000130 fa 29 d4 bd 20 13 fa 3c 97 55 eb bd 22 2d c1 3d
       -0.10359569 0.030526698 -0.11490934 0.094324365
000140 60 0e 81 bc b5 99 16 3e 7a ea ed bd 8c d9 08 bd
       -0.015753925 0.14707072 -0.116169885 -0.033410594
000150 f4 a5 f2 bd 2c f4 95 3d 7e 9a ba bd 70 70 68 bc
       -0.11848059 0.07321963 -0.09111498 -0.014186963
000160 80 fe 54 3b 80 a3 46 3d f4 db 88 3d b9 da 0e 3e
       0.0032500327 0.04849577 0.06682578 0.13950624
000170 16 8a c6 3d d8 2d 19 be 82 f8 1c bd 31 c1 bf bd
       0.096943066 -0.14958894 -0.038322933 -0.0936302
000180 f8 da 05 be 5b 5b 11 3e 5c f3 67 3d 27 7c ab bd
       -0.13071811 0.14195006 0.05662857 -0.083732896
000190 82 b2 27 bd 20 aa a2 bb 10 49 22 3d 7e a3 b8 3d
       -0.040941723 -0.004964128 0.03962046 0.09015559
0001a0 b8 11 f6 3c 30 f5 86 bc 3f 74 90 bd 3b af 1c be
       0.030037746 -0.016474336 -0.07053422 -0.1530122
0001b0 09 55 09 be a4 ca 17 be f0 fe 92 3c 3b c0 0c be
       -0.13411345 -0.14823395 0.01794383 -0.13745205
0001c0 6f f8 20 3e 48 7f fe bd 9c 7c 8e 3d d0 73 69 3d
       0.1571977 -0.12426621 0.06957361 0.056995213
0001d0 22 31 a4 3d ac 49 f5 bd e0 e9 f4 bd e2 d7 09 be
       0.08017184 -0.119769424 -0.119586706 -0.13461259
0001e0 20 df 0d be df eb 13 3e 4b 50 e4 bc 4b 5d 16 3e
       -0.13854647 0.14445446 -0.027870318 0.14684026
0001f0 62 bb 2d 3d 4d 9e b0 3d c6 42 ce bd 38 0a b8 3c
       0.04241503 0.086239435 -0.1007133 0.02246581
000200 27 31 1f 3e ea 4c 92 3d bc 47 1e 3e 07 2b e8 3d
       0.15546094 0.071435764 0.15457052 0.11336332
000210 4c 80 53 bd 70 6e 04 bc 78 8c ef bb a1 36 68 bd
       -0.051636025 -0.008082971 -0.0073104464 -0.056692723
000220 16 6a f9 3d 99 15 c2 bc db c5 c6 3d 45 de 0c 3e
       0.121784374 -0.02369194 0.09705707 0.13756664
000230 d0 c6 38 3d e4 02 2c bd d1 ed 38 3e ea bb c7 bd
       0.045111477 -0.041994944 0.1805947 -0.09752639
000240 8c 2b 31 3d e0 67 b8 bd 83 8e 01 be ec 54 8b 3d
       0.04325442 -0.090041876 -0.1265202 0.06803307
000250 55 c3 06 be 88 60 80 3d 01 c5 0f 3d 82 06 15 3e
       -0.13160451 0.06268412 0.035099987 0.14553264
000260 48 58 11 3e 10 cb 10 bd 4c d6 fc bd a1 87 87 bd
       0.14193833 -0.035349905 -0.123455614 -0.06617666
000270 a6 14 bf b9 e8 fa b3 bc 1a b4 a1 3d 4b 16 19 3e
       -0.00036445743 -0.021970227 0.0789568 0.1494991
000280 1c 93 fa bd 00 b7 a2 3a fc 93 aa 3b d8 3a 8d bd
       -0.1223509 0.0012414157 0.0052056294 -0.06895989
000290 44 71 42 bd 35 c1 9e 3d cc 7c a0 bd 70 16 d8 bc
       -0.0474713 0.07751695 -0.07836303 -0.026377887
0002a0 d1 2a 54 3d 85 60 93 3d a4 66 45 3d 6f 75 cc bd
       0.051798645 0.07196144 0.04819359 -0.09983336
0002b0 59 16 90 bd 0c 40 cd bb 92 47 5f 3b 10 1c 1a bd
       -0.070355125 -0.0062637385 0.003406976 -0.03762442
0002c0 c6 f2 d0 bd f0 52 0f 3c 0a 38 00 be 70 35 88 bd
       -0.10202555 0.008747801 -0.12521377 -0.066508174
0002d0 94 28 0a 3d 64 f4 42 bd 3a 23 41 3d b5 9c 04 3e
       0.033730105 -0.04759635 0.047152735 0.12950404
0002e0 72 e9 ca 3d d2 11 9f 3d 84 58 dd bd dc 40 e4 bd
       0.099078074 0.07767071 -0.10807899 -0.111451834
0002f0 fc a0 0f bd 88 e3 ab 3c 40 c2 e9 bc 12 06 18 3e
       -0.035065636 0.020982519 -0.028535008 0.14846066
000300 d2 91 7a 3d 39 e6 00 3e 1e e6 df 3d 0e 37 a8 bd
       0.06117422 0.12587823 0.10932563 -0.08213626
000310 06 46 ac 3d 4a 03 09 bd 31 53 87 bc e1 7f c3 bd
       0.084117934 -0.033450402 -0.016519161 -0.09545875
000320 ac 5d 82 3d 42 e9 b6 bd 86 61 a9 3d 40 9a bb bd
       0.06365523 -0.08931209 0.08270554 -0.0916028
000330 de 57 f4 3d 10 83 ec bc 92 bb be 3d b3 a5 18 3e
       0.11930822 -0.02887109 0.0931312 0.14906959
000340 58 66 8d bd ea f2 a6 3d 58 04 39 3d 40 28 0e be
       -0.06904286 0.08151801 0.04517016 -0.13882542
000350 10 e4 59 bc 99 ea 00 3e e8 ba 23 3d 3a 9c f8 3d
       -0.013299003 0.12589492 0.03997317 0.12139173
000360 58 07 be bd ce c1 bf 3d 76 98 86 3d a9 f4 be bd
       -0.092787445 0.09363137 0.06572048 -0.09324009
000370 d4 17 7a bd dc 5f 07 bd d2 f2 64 bd 30 93 8e bd
       -0.06105788 -0.033050403 -0.055895634 -0.069616675
000380 fa c6 c4 bd dc 8d 18 3d f0 e1 3c 3c ba 68 ba 3d
       -0.09608264 0.037244663 0.011528477 0.09102006
000390 d2 5e fc 3d b3 b1 eb bd e0 91 a8 bc 78 9b 0b be
       0.12322773 -0.11508503 -0.020577371 -0.13633525
0003a0 2e 6f d9 bd d2 b6 f4 3d 00 43 f7 bc 8e 06 c8 3d
       -0.10616909 0.11948933 -0.030183315 0.09766875
0003b0 8a c8 02 be 76 5a fd 3d aa 0a bb bd 20 45 0e bc
       -0.12771812 0.1237077 -0.091328934 -0.008683473
0003c0 e4 63 1e bd 6a 33 00 be 85 2e 06 3e a2 10 70 bd
       -0.038669482 -0.12519613 0.13103683 -0.058609612
0003d0 aa 0f c9 3d c8 98 4e 3d 6d 28 01 3e ca 1d e2 3d
       0.09817441 0.050438672 0.12613077 0.11040838
0003e0 30 0f 09 3c 10 fa a9 bc e3 4e 09 be b4 b0 19 be
       0.008365437 -0.020749122 -0.13408999 -0.15008813
0003f0 4e fe 3a bd e3 e8 88 bd f4 a5 4e 3d b3 35 f3 bd
       -0.04565268 -0.066850446 0.050451234 -0.11875477

hidden_layers.1.bias f4 [40]
000000 63 eb 14 bc 03 de 15 be 5c 62 3d bd f6 56 95 3d
       -0.009089324 -0.14635472 -0.04623638 0.07291977
000010 d0 26 86 bd 6d bf 21 be 28 a7 0a be ba f4 af 3d
       -0.06550372 -0.1579568 -0.13540328 0.085916
000020 00 aa 05 3e 57 a4 0c be 65 f9 da 3d b1 9d c1 bd
       0.13053131 -0.13734566 0.106920995 -0.094539054
000030 f6 4d 11 be 2d a1 1e 3e 98 e0 d7 bd 44 6b 07 3e
       -0.14189896 0.15491171 -0.10540885 0.13224512
000040 58 09 0e 3e a6 e3 66 bd db dc c1 bd 56 b1 3f 3e
       0.13870752 -0.056369446 -0.09465953 0.18719992
000050 c0 db aa bd 68 3f cd bc f0 12 6d 3c f6 5b e0 3d
       -0.08342695 -0.025054649 0.014469847 0.1095504
000060 96 86 14 3e 36 43 57 3d 18 76 05 be e0 69 ea 3b
       0.14504465 0.05255433 -0.1303333 0.0071537346
000070 4b 4f e0 3d 9c 8f e2 3d 5f a5 2f 3e 9c 99 01 3e
       0.10952624 0.110625476 0.17152928 0.12656254
000080 34 d5 18 3e 40 5a 98 bb 45 9d bf 3d 8e 7b 05 be
       0.1492508 -0.0046494305 0.09356169 -0.13035414
000090 d0 e5 a2 bc 92 30 f9 3d e5 ba 85 bc d0 b8 9d 3d
       -0.019884974 0.12167467 -0.01632447 0.07701266

hidden_layers.2.weight f4 [40, 40]
000000 3e 44 1e be e0 ab d4 bc b2 d2 8f bd 08 05 f3 bc
       -0.1545572 -0.025960863 -0.07022609 -0.029665485
000010 88 02 c9 3c 8c eb ad 3d 80 b1 10 bc 40 eb 5a 3d
       0.02453734 0.084921926 -0.008831382 0.053447008
000020 f1 d3 09 be 3c 5a 06 be 78 d1 99 3d 57 ef 13 3e
       -0.13459755 -0.13120359 0.07510656 0.1444677
000030 29 e4 03 3e 40 2b 12 3d e6 29 b7 bd 38 0f e1 bd
       0.12880005 0.035685778 -0.08943538 -0.10989231
000040 f8 b9 b8 3c ff e1 00 3e a0 ac 01 3c a7 d1 1c be
       0.022549614 0.1258621 0.007914692 -0.15314351
000050 c0 fc 63 bc 2d 27 21 3e 4b 85 19 3e d8 8a b5 3c
       -0.013915241 0.157376 0.14992253 0.022160932
000060 83 fe bc bd f4 67 77 3d 6c c0 af 3d 4b 1d 12 be
       -0.09228232 0.06040187 0.085816234 -0.14268987
000070 66 7f ac bd 7c 2d a7 3d de d2 e1 3d e0 d7 97 3d
       -0.08422737 0.08162972 0.11026548 0.07414222
000080 ec 25 3f 3d b1 9d b8 bd ea be de 3d 4e ed ec bd
       0.046667024 -0.09014452 0.10876258 -0.115687
000090 92 fa a6 bd e0 be 1f bc 48 df 3b bd b7 14 09 3e
       -0.08153261 -0.009750098 -0.045867234 0.13386808
0000a0 13 fc 1b be c4 27 89 bd e4 1d 14 3d eb 01 b2 3d
       -0.15232877 -0.06697038 0.03616132 0.08691772
0000b0 93 52 77 3d a8 6f 78 3d 5f b5 14 be a0 2c 01 3e
       0.060381483 0.06065336 -0.14522313 0.1261468
0000c0 e3 46 2f be 82 1e 06 be b4 73 18 bd 9a 49 9f bd
       -0.17116885 -0.13097575 -0.037219718 -0.0777771
0000d0 a0 36 4d 3c 8d 66 d0 3d a2 d5 09 3d c7 99 f9 3d
       0.012525231 0.1017581 0.033651 0.12187534
0000e0 df 6e 06 be 4e d7 94 bd b0 9b 59 bc 46 69 0e bd
       -0.13128231 -0.072676286 -0.013281748 -0.034768365
0000f0 62 99 ce 3c a0 0c c6 bb 22 40 8a 3d 58 03 97 bd
       0.025219623 -0.0060439855 0.067505136 -0.07373685
000100 4f 75 80 bd a5 a8 6b 3c da 05 d2 3d 40 77 15 be
       -0.06272375 0.01438347 0.10255022 -0.14596272
000110 e1 79 80 bc 45 98 ed 3d a3 65 6a bc 32 df 3e 3c
       -0.015683116 0.11601309 -0.014306459 0.011649894
000120 ac 0e 0d 3e 84 b6 56 3d 8f f0 71 3c 60 ef b7 bb
       0.13775128 0.052420154 0.014766826 -0.0056132525
000130 7e 06 13 be f0 59 b5 bd 92 82 6f bc e9 db ac 3d
       -0.14357945 -0.08855045 -0.014618533 0.08440382
000140 d0 a6 c9 bd 98 14 0b 3d 0d e9 04 3e 60 f3 cf bd
       -0.0984627 0.033955187 0.12979527 -0.10153842
000150 7a b1 e6 bb 24 34 5b 3d 90 e7 58 3c 25 eb 90 bd
       -0.0070402 0.053516522 0.013238803 -0.070761
000160 59 9a c7 3d 13 fc bb bd b3 bf f2 bd 71 11 a1 bd
       0.09746236 -0.09178939 -0.1185297 -0.07864655
000170 70 7f 69 bc ac bb 87 bd 60 f2 1b be 90 8e 59 3d
       -0.014251575 -0.066275924 -0.15229177 0.053114474
000180 bb bf 05 bd 54 00 6c bc 9f 65 80 bd 68 7d 48 3d
       -0.03265355 -0.014404375 -0.06269383 0.04894772
000190 e1 49 a6 bd 52 9f a9 bd fc 91 68 3d 5f d1 1e 3e
       -0.0811956 -0.08282341 0.056779847 0.15509556
0001a0 97 e0 ab 3d 96 43 95 bc b4 ee 20 be f6 bc f9 3d
       0.083924465 -0.018220704 -0.15716058 0.121942446
0001b0 59 79 aa 3d 71 0a 86 bd 9c 14 cf 3c 40 c3 b3 3c
       0.083239265 -0.0654496 0.025278382 0.021943688
0001c0 08 0d 9a bd 44 97 a0 3d a0 31 da bd 20 47 40 3d
       -0.07522017 0.07841352 -0.106539965 0.04694283
0001d0 38 5a d8 bc 3b 2e 1f 3e 53 cf 38 bc 59 0f e5 3d
       -0.026410207 0.1554498 -0.011279899 0.11184568
0001e0 0e c2 d4 3d 50 72 4b bc c0 cd 48 bc d0 bc 34 bc
       0.103885755 -0.012417391 -0.012256086 -0.0110313445
0001f0 26 84 5f bd 88 67 aa 3d a0 8f bf 3c 2b 10 20 be
       -0.054569386 0.08320528 0.023383915 -0.15631168
000200 78 da b0 3d 00 b7 03 3b 9c 5f d8 bd 84 ae c6 bd
       0.086354196 0.002009809 -0.10565111 -0.09701255
000210 82 25 eb 3d 60 8d e6 bd ba 68 64 bd 40 76 4b bc
       0.114817634 -0.11257434 -0.055763938 -0.01241833
000220 a8 5e f0 bc 00 82 2d 3b 38 4f c3 bc aa 9d c6 3d
       -0.02934201 0.002647519 -0.023841485 0.09698041
000230 41 c2 0c 3e 08 b9 a3 bc 0c cf 1a 3d 4b 9e 01 be
       0.13745977 -0.01998569 0.03779511 -0.1265804
000240 54 fa f1 bd cc 33 8a 3d a7 23 1b be ea 8a 10 be
       -0.118153244 0.06748161 -0.15150319 -0.14115492
000250 4a 7c be bd 21 95 9c bd d0 ee 89 bd 68 97 88 3c
       -0.0930105 -0.076456316 -0.06735003 0.016673759
000260 bc 36 bf bd b0 62 c1 3c 52 d1 8a 3d f0 56 a4 3c
       -0.09336612 0.023606628 0.06778206 0.020060986
000270 72 07 e0 bd ad 47 b1 bd ca 02 14 be 84 f8 24 bd
       -0.1093892 -0.08656249 -0.14454189 -0.040276065
000280 ea d0 d4 bd 80 ac fb bd f0 1e 48 bc 28 34 92 3d
       -0.1039141 -0.12288761 -0.012214407 0.07138854
000290 fe 3f b2 bd 68 1a 93 3c b8 4d 73 3d 70 49 6a 3c
       -0.08703612 0.017956927 0.05940029 0.014299735
0002a0 90 d5 1c be 78 7b a9 bd 31 ad c1 bd cc cf 24 bd
       -0.15315843 -0.08275503 -0.09456862 -0.040237233
0002b0 a6 85 d7 3d f4 80 00 bd 8d c5 0a 3e 4e 8c 88 3d
       0.10523538 -0.03137298 0.13551922 0.06667386
0002c0 92 85 d5 3d ea 2d a6 bd 2d 15 20 3e c6 32 7b bd
       0.10425867 -0.08114226 0.15633078 -0.06132772
0002d0 78 52 b4 bc 4a d8 99 bd ad f7 01 be a0 c0 4f 3c
       -0.02201198 -0.07511957 -0.12692137 0.012680203
0002e0 7a 93 d1 bd 98 41 5b 3d 6d cd 8a bd 90 21 fa 3c
       -0.10233207 0.053529352 -0.06777463 0.030533582
0002f0 69 92 13 3e ce 96 e4 3d 70 21 73 3c eb 76 1a be
       0.1441132 0.11161576 0.014839515 -0.15084426
000300 0a 5b cd 3d 40 25 7e bb 22 0e c9 bd 14 be 12 be
       0.1002713 -0.0038779527 -0.09817149 -0.14330322
000310 23 9e 1d 3e f7 c7 0b 3e 0d b5 05 be 80 d9 f4 3b
       0.15392356 0.136505 -0.13057347 0.007472217
000320 40 02 26 bc f0 ae 33 3d 6b bc 21 3e ee 24 f5 3d
       -0.010132372 0.043868005 0.15794532 0.119699344
000330 0a 25 fb 3d ec 29 ad 3d f0 dc f8 bd 7c 15 9c 3d
       0.12262924 0.084552616 -0.121515155 0.07621285
000340 ca d9 9a bd 2c 36 b5 3d 3c 89 57 3d c4 ae 7e 3d
       -0.07561071 0.08848223 0.05262111 0.06217839
000350 00 1a 8e 3d c0 d9 e3 bd 66 8a d0 3d aa 24 10 be
       0.06938553 -0.11125517 0.101826474 -0.14076486
000360 e0 2f 90 3b c0 f2 86 3d 44 90 29 bd ec 31 0e 3d
       0.0044002384 0.0658927 -0.041397348 0.034715578
000370 48 42 9e 3c 20 01 b3 3c af 93 9a bd 38 59 e6 3c
       0.019318715 0.021851122 -0.075477 0.028118715
000380 50 ed d4 bc f7 9c 20 be 9b 42 05 be 12 da f5 3d
       -0.025992066 -0.15684877 -0.13013689 0.12004484
000390 0f 9b 1b 3e be 37 f6 bd c1 e3 01 3e e6 52 db 3d
       0.15195869 -0.12022351 0.12684537 0.10709171
0003a0 32 65 09 be e2 29 99 3d 80 1e ff 3b 76 a5 0d bd
       -0.13417509 0.07478692 0.0077856183 -0.034581624
0003b0 00 f5 7b bc 22 e8 03 be 57 2e 05 3e 64 64 97 3d
       -0.015378237 -0.1288152 0.13005958 0.07392195
0003c0 26 39 f3 3d 28 06 3c bd a0 fb b1 bb 48 6d ac 3c
       0.118761346 -0.04590431 -0.0054316074 0.021048203
0003d0 b4 bc 24 3d 5e d8 fb 3d f2 76 d4 3d c3 da 2a be
       0.040219024 0.12297128 0.103742495 -0.16685013
0003e0 89 24 2b be 10 d9 71 bc 07 e3 fc bd 65 dc e8 3d
       -0.16713156 -0.014761224 -0.123479895 0.11370162
0003f0 e6 c6 e1 3d 81 20 5c bd 70 f2 05 3d 38 b3 bf bd
       0.11024265 -0.053741936 0.03270191 -0.09360355

hidden_layers.2.bias f4 [40]
000000 fb 7e b7 bd 45 b0 1f bd 35 d3 b4 3d 2f 2b 00 be
       -0.089597665 -0.038986463 0.08829347 -0.12516473
000010 c0 81 99 bc 89 33 97 bd dc cd 96 bc 9c 1d 69 3d
       -0.018738627 -0.073828764 -0.018408708 0.056913003
000020 d1 ea 1b 3e 70 ea 4f 3d 29 a0 1e 3d bd bc 0e 3e
       0.15226294 0.050760686 0.03872696 0.13939185
000030 3e d1 f6 3d 52 ff f9 3d 93 69 21 3e 1d 24 fb 3d
       0.120516285 0.122069016 0.1576293 0.122627474
000040 d2 8a 90 bd dd ba 0f 3e 06 4b 97 bd 58 40 17 be
       -0.07057728 0.14036126 -0.073873565 -0.14770639
000050 e0 57 ac bc 70 3f 10 3c 34 39 c3 3d d1 1c 00 3e
       -0.021037996 0.008804187 0.09532395 0.12510993
000060 90 46 df bd 5c 19 72 bd c4 72 ae 3d 8e 6b fa 3d
       -0.109021306 -0.059106216 0.085179836 0.12227546
000070 10 b9 13 bd 3f f5 ed bd df a3 36 3e e0 07 e3 bb
       -0.03606516 -0.116190426 0.1783595 -0.006928429
000080 aa 63 c2 3d 5d cf a4 bd 9a 22 f2 bd c1 70 16 ba
       0.09491666 -0.08047364 -0.11823006 -0.00057388475
000090 78 9b 12 be 52 6f 5c bd e9 0c 0f bd 32 9c f1 3c
       -0.14317119 -0.0538171 -0.03492442 0.029493425

hidden_layers.3.weight f4 [40, 40]
000000 00 27 12 bb b8 65 7d bd 74 04 9a bd a0 c0 fa 3b
       -0.0022301078 -0.061864585 -0.075203806 0.007652357
000010 47 15 15 be a9 ca a4 bd 64 69 2e 3d 07 77 12 be
       -0.14558898 -0.08046467 0.042580977 -0.14303218
000020 3f 1f 09 3e 00 48 bf b8 58 d1 99 bc 04 bc 06 be
       0.13390826 -9.121001e-05 -0.01877658 -0.1315766
000030 98 54 8b bd 1a d5 62 bd e0 34 8c bc 60 38 28 bd
       -0.06803244 -0.05537901 -0.017115057 -0.04106939
000040 46 84 e5 3d 04 cb 9f bd d2 f2 9a bd 46 8e df 3d
       0.1120687 -0.07802394 -0.075658455 0.109158084
000050 80 4a eb 3a 72 48 cb 3d 51 dc 03 be 88 f8 d2 bc
       0.001795128 0.09925927 -0.12877013 -0.025753275
000060 e6 0d 0e bd c0 a2 01 bb 9e 25 f4 bd 80 eb 2d 3c
       -0.034681223 -0.0019780844 -0.119212374 0.01061523
000070 20 1e ed bd 9a 11 ed bd 32 bf e6 3d fa 0a f4 3d
       -0.115780115 -0.11575623 0.11266936 0.11916156
000080 da e2 ce bd 40 e4 df bb 2b 6d 0a 3e 03 16 a0 bd
       -0.10101862 -0.0068326294 0.13518207 -0.078166984
000090 f3 a9 16 be 28 e9 a2 bd a0 51 af 3d c4 4f 04 be
       -0.14713268 -0.07954627 0.085604906 -0.12921053
0000a0 14 f2 79 bd e8 c7 50 bd 0a f8 e6 3d 3a 8b e7 3d
       -0.06102188 -0.050971895 0.112777784 0.11305852
0000b0 9c a0 f2 bd 2e 07 28 bd 72 a9 9c 3d 84 cc a2 bd
       -0.1184704 -0.041022472 0.07649507 -0.079491645
0000c0 d6 35 e6 bd 00 04 cc b9 4e b4 bc 3d 93 9a 9a bd
       -0.11240737 -0.00038912892 0.09214078 -0.07549014
0000d0 a0 9f cb bb 10 82 6e bc 60 eb 2b bd 10 03 64 bc
       -0.006214097 -0.0145573765 -0.041972518 -0.013916746
0000e0 96 59 03 be 54 51 1a bd d9 5d 13 be da 89 e5 3d
       -0.12827143 -0.037675217 -0.14391269 0.11207934
0000f0 f8 97 38 3d 18 59 86 bc 14 6c 68 3d 60 d5 ab 3b
       0.045066804 -0.016399905 0.056743696 0.005243942
000100 6a 0a d3 3d 75 48 01 be 08 0e 16 be 3e d5 ef 3d
       0.10304721 -0.12625296 -0.1465379 0.117105946
000110 f9 22 01 3e 58 2d 50 3d 4e 7e 86 bd 70 3f f4 bd
       0.12610997 0.050824493 -0.065670595 -0.11926162
000120 49 5f a3 bd 92 cf 7f bd 59 df 1d 3e f6 03 ac 3d
       -0.079771586 -0.062453814 0.15417232 0.08399193
000130 f4 a3 1f 3d 00 49 d2 3b 18 28 9f bc f0 8f 69 3c
       0.038974717 0.0064173937 -0.019428298 0.014255509
000140 9e d5 90 bd 50 fd 8c 3d 7e 90 03 3e 00 ec 84 bc
       -0.07071994 0.06884253 0.12848088 -0.016225815
000150 20 0f 5d 3d 10 d6 f5 3c d8 04 99 bd 05 4c cb 3d
       0.053969502 0.0300093 -0.07471627 0.09926609
000160 0b 2f dd 3d 5c 1d 82 3d e5 eb 60 3d 62 05 8c 3d
       0.10799988 0.06353256 0.054912467 0.06836964
000170 7f 3e 26 be fe f9 13 3e 24 53 11 be 6b 63 51 3b
       -0.16234778 0.14450833 -0.14191872 0.0031950127
000180 70 b5 74 3c 97 a0 27 be e8 49 86 3c 50 d9 a4 bc
       0.014935836 -0.16369854 0.016392663 -0.020123154
000190 2f 36 06 3e 7e 39 e9 3d 45 20 4a bd e8 67 07 3e
       0.13106607 0.11387919 -0.04934718 0.13223231
0001a0 6e 41 a6 3d 33 36 f4 bd 40 fe d4 3c 20 0d 29 bd
       0.081179485 -0.119244 0.026000142 -0.041272283
0001b0 28 a8 8e 3d 58 a1 03 be 66 d5 9f bd 00 69 d7 3a
       0.06965667 -0.12854517 -0.078043744 0.0016434491
0001c0 0b ef 08 be 00 a6 96 ba 22 05 b6 3d ad 05 0c 3d
       -0.13372438 -0.0011493564 0.08887698 0.0341851
0001d0 e0 41 20 3d ec 92 d0 bd 1c 02 79 3d d4 cc 4d bc
       0.039125323 -0.10184273 0.060793027 -0.012561042
0001e0 46 bc 1e bd 14 92 05 3e d4 14 7f 3c 14 98 1e be
       -0.03875377 0.13044006 0.015568931 -0.154877
0001f0 00 6e 86 bb c6 58 6d bd c4 a8 0c bc 1a bc 2e be
       -0.0041024685 -0.05794599 -0.008585159 -0.17063943
000200 51 c9 07 bd f8 8e 9e 3d 97 8e d9 3d 7f c5 a4 bd
       -0.033150975 0.07742113 0.106229 -0.08045482
000210 ed ae a2 3d 9d 81 ea bd 78 ff e4 bd de 9e 67 bd
       0.07943521 -0.11450503 -0.11181539 -0.056547992
000220 68 4a 41 3d 46 5e 84 3a 0a 64 17 be 74 90 93 3d
       0.0471901 0.0010098896 -0.14784256 0.072052866
000230 9e 78 0d be 20 7f 3b bd 51 e0 28 3d 13 48 85 3d
       -0.13815543 -0.045775533 0.04122955 0.06507888
000240 f8 26 2f 3d c9 b8 00 be 1c 96 fb bd c4 83 ad 3d
       0.042761773 -0.1257049 -0.122844905 0.08472398
000250 a0 12 f6 3c 89 f0 13 3e 30 2f 31 bd 29 c5 dc 3d
       0.030038178 0.14447226 -0.043257892 0.10779793
000260 b6 1f 2a be c0 28 06 bd 40 78 ef bd 7a 1d 2e bc
       -0.1661366 -0.032753706 -0.11692858 -0.010627145
000270 be 19 e9 3d 58 3c ad bd 8a fc 1f be 93 c1 0f 3d
       0.11381863 -0.08458775 -0.1562368 0.035096716
000280 ac 5b 75 3d 29 67 a1 bd e1 83 aa bd 00 1c 48 3a
       0.05990188 -0.07881004 -0.08325935 0.0007633567
000290 a1 52 08 be 65 8b e9 bd ed 74 ee 3d 93 57 4f 3d
       -0.1331277 -0.114035405 0.116433956 0.050620627
0002a0 4b c3 17 3e 46 7d ed bd cd 28 48 3d b6 77 09 3e
       0.14820592 -0.1159616 0.048867036 0.13424572
0002b0 35 4d 28 3e d6 a8 cd 3b 8a 7f 08 bd a2 b7 05 3c
       0.16435702 0.0062762303 -0.033324756 0.008161457
0002c0 e6 3b 83 3d 52 66 37 3e 9e dc ea 3d 98 45 06 be
       0.06407909 0.17910126 0.11467861 -0.13112485
0002d0 75 8b 1d 3e b4 e0 4b 3d ed f1 af bb 07 7f 1b 3e
       0.1538523 0.04977484 -0.005369416 0.15185176
0002e0 fc a7 5d 3d a3 50 0a be eb c3 b6 3d a6 9a 1b 3d
       0.05411528 -0.13507323 0.08924087 0.03798928
0002f0 00 00 e3 bc c0 52 f0 bb dc 7d 05 3d 65 ba 01 3e
       -0.027709961 -0.0073340833 0.032590732 0.1266876
000300 86 ce 3e 3e 95 29 05 3e 40 89 a1 3c 21 d0 63 bd
       0.1863347 0.13004144 0.019718766 -0.05561841
000310 0c e4 b7 bd f7 53 1f 3e 08 a5 11 be d4 c6 a0 3d
       -0.08979043 0.15559374 -0.1422311 0.078504235
000320 90 ab 21 be f0 f3 af 3c b1 8d ab 3c 10 78 ac 3d
       -0.15788102 0.021478623 0.020941587 0.084213376
000330 80 70 14 bd 60 a8 9b 3b 6e 8f 00 bd fc 3e 3e 3e
       -0.0362401 0.0047502965 -0.031386785 0.18578714
000340 16 df 32 bd 61 85 16 3e 17 b2 e6 bc a8 28 85 3d
       -0.043669783 0.14699318 -0.028161092 0.06501895
000350 37 a7 0a 3e 47 41 3c 3e e4 41 ba bc 0f 00 a4 bd
       0.1354035 0.18384276 -0.022736497 -0.08007824
000360 e0 69 ae bb e8 24 13 3e b8 dd c8 3c b4 1e 36 3d
       -0.00532268 0.14369547 0.024519786 0.044462875
000370 b6 92 1f be 23 c8 1c be 4d d3 10 3e c9 0c cc 3c
       -0.1558331 -0.15310721 0.14143105 0.02490844
000380 c6 b8 ce 3d a6 d1 bd 3d 9c d1 a8 bb 88 5a 3c 3e
       0.100938365 0.09268503 -0.0051519405 0.1839391
000390 ff 67 14 3e 23 24 00 3e 1c 6f dd 3d 10 24 8a 3d
       0.14492796 0.12513785 0.10812208 0.067451596
0003a0 46 9a 01 bd 8c 8e 95 bd a1 9e 00 be 6a 02 34 3c
       -0.031641267 -0.07302579 -0.12560512 0.010986904
0003b0 60 70 0d be d7 f8 14 be 35 6c 5c bd 10 4f 81 bd
       -0.13812399 -0.1454805 -0.05381413 -0.06313908
0003c0 1b 2d 0e be 9c c2 56 bd 60 1f b5 3b 96 68 89 3d
       -0.13884394 -0.052431688 0.005527422 0.06709401
0003d0 cf ce 18 3e a6 6c 11 be 22 f0 fd 3d a6 45 71 bd
       0.14922641 -0.14201602 0.12399317 -0.058904313
0003e0 10 e5 33 3c 0c a8 a8 3d ae a9 bd bd 2a dd 80 3d
       0.010979906 0.082351774 -0.092608795 0.06292184
0003f0 d6 cf 3d bd bb 3a b1 bd 58 7c f5 3c 10 6a 6b 3d
       -0.046340786 -0.0865378 0.029966518 0.057474196

hidden_layers.3.bias f4 [40]
000000 53 ff 8c bd d6 a3 d5 bd b7 bc 39 bc 91 ad fa 3d
       -0.06884637 -0.1043164 -0.011336497 0.122401364
000010 93 58 1e bd 64 f5 0f 3e 20 d3 44 3c c9 9c 0e be
       -0.03865869 0.14058453 0.012013227 -0.13926996
000020 cc 3c c8 bd 29 7d e3 3d ae 28 25 3d c8 9e f7 bd
       -0.09777221 0.11107857 0.040322 -0.12090832
000030 ce 29 cd bd f7 29 c7 bd 5a ad ac 3c a6 fe 7d 3d
       -0.10017739 -0.09724801 0.021078754 0.06201043
000040 55 3d d2 bd b6 a9 2e 3e 4b c0 97 bd 40 78 c1 3d
       -0.102656044 0.17056927 -0.07409724 0.09446764
000050 4c 31 c9 3d be a7 7c bd be f8 b6 3d b3 4d c6 bd
       0.09823856 -0.06168341 0.089341626 -0.09682789
000060 00 26 e4 39 dc 57 6f 3c 86 c8 35 3e 19 46 0e be
       0.0004351586 0.01460835 0.17752275 -0.13893928
000070 a9 b3 b2 bc 39 c3 2f 3e e4 a9 2b 3e 52 01 31 bd
       -0.021814184 0.17164315 0.16764027 -0.04321415
000080 2a ba 59 bd 7c 24 84 bd fc 7c ea 3d e2 23 1d be
       -0.053156056 -0.06452271 0.1144962 -0.1534572
000090 f5 fc 84 bd f0 35 10 3d f4 c1 b4 bd 19 82 b5 3d
       -0.0649356 0.03520769 -0.08826056 0.08862705

output_layer1.weight f4 [2, 40]
000000 39 f1 06 3e 6f d3 10 3e 17 60 d9 bc 6e d0 1c 3e
       0.13177957 0.14143156 -0.026535077 0.15313885
000010 73 25 72 3d 47 eb 33 bb 8c 19 16 be d1 c7 16 3e
       0.059117746 -0.0027453469 -0.14658183 0.14724661
000020 14 cd 19 3d ea 41 4b bc d7 90 e6 bc d2 41 52 bd
       0.037549093 -0.012405852 -0.028145237 -0.051332302
000030 80 87 c9 3c 15 ad e9 bd 2f a9 10 3e e5 1b 40 3c
       0.024600744 -0.11409966 0.14127038 0.011725401
000040 11 84 f4 bd 0e 04 b3 bc b8 56 f7 bc eb 17 73 3d
       -0.11939252 -0.02185252 -0.030192718 0.05934898
000050 ed 01 e1 3d 2c a4 0d be a5 06 09 3e 21 08 01 3e
       0.109866954 -0.13832158 0.13381441 0.12600757
000060 e0 e0 ab bb 50 82 87 3d 2e 89 83 bd 61 f1 01 3e
       -0.005245313 0.06616652 -0.06422649 0.12689735
000070 4c 68 09 be 08 83 5d bc fb ed 9c bc cd 26 e6 bd
       -0.13418692 -0.01352001 -0.019156447 -0.112378694
000080 40 cd c7 3c e8 69 c8 3c 70 10 e5 bd 17 71 94 3d
       0.024389863 0.024464563 -0.11184776 0.07248133
000090 2f 2c 0c 3e 6e da e6 3c ab ef e3 bd 08 14 5b 3d
       0.1368873 0.028180327 -0.111296974 0.0534859
0000a0 0e a7 c1 3d 90 cc 90 bd b7 11 cc 3d 1c 5b 0b 3e
       0.09455691 -0.07070267 0.09964316 0.13608974
0000b0 9c ad b3 3d d1 12 6f bc 79 a9 07 3e 3a 0f 9c bd
       0.08773348 -0.0145918885 0.13248242 -0.07620092
0000c0 2a 4c 0d be 2f fd 82 3c 0d 23 06 be 20 bd d7 3b
       -0.13798586 0.015989868 -0.13099308 0.0065838248
0000d0 e6 2c ef bd ea c0 d6 3d 4f 16 2a be e9 00 98 bd
       -0.116784856 0.10486014 -0.16610073 -0.074220486
0000e0 77 7f c7 3d c2 90 b4 3c ec bd 97 3d cf 5a 33 be
       0.09741109 0.022041682 0.074092716 -0.1751511
0000f0 04 83 0f 3c 54 cd c9 bd 35 85 b6 3d b9 0d e1 bd
       0.008759264 -0.09853616 0.08912126 -0.109889455
000100 4e ea d4 3d a9 f6 9c bd ed 4a 78 3d e4 65 51 3d
       0.103962526 -0.07664234 0.06061833 0.05112256
000110 75 ed 03 3d 8c e7 ce bd 64 dd 02 3e 34 f3 0c 3e
       0.03220888 -0.10102758 0.12779766 0.1376465
000120 90 83 56 3d bc 6f 02 be 84 5b bf 3d 5c 47 09 3e
       0.05237156 -0.12737936 0.09343627 0.13406128
000130 f9 e1 07 3e 93 1f e3 3d 97 03 dd 3c ce 56 b8 3d
       0.13269795 0.11090007 0.02697925 0.09000932

output_layer1.bias f4 [2]
000000 27 7c c8 bd cc e3 81 bd
       -0.09789305 -0.06342277

output_layer2.weight f4 [1, 40]
000000 d8 47 a0 3d f6 d5 98 3d ba 90 48 bd 41 91 c7 bd
       0.07826203 0.07462685 -0.048966147 -0.09744502
000010 f8 de 10 3e 7b 4b 0f 3d 14 bb 22 bd b2 ee 18 bd
       0.14147556 0.034984093 -0.039729193 -0.037337013
000020 93 d6 02 be fa f1 27 3e 77 73 ae bd 20 12 5a 3c
       -0.12777166 0.164009 -0.08518117 0.013309985
000030 4a ef 9d bd 8c d3 ed bd cc a3 4e 3d 30 5d fb bc
       -0.077116564 -0.11612615 0.050449178 -0.030684084
000040 4c b9 18 be 47 a6 f9 3d 05 cb 9b bd 00 7c bb 3d
       -0.14914435 0.12189918 -0.07607082 0.091545105
000050 4f a6 0d be 25 ee 0f 3e 7b 8b 93 bd 5a b5 38 bd
       -0.13832973 0.14055689 -0.07204338 -0.045094825
000060 cc 43 0d be 1b 7b fd 3d f6 e5 ed 3d e8 ed e6 3c
       -0.13795394 0.12376996 0.11616127 0.028189614
000070 07 cc 34 bb 9c 2b 34 3e 64 46 18 3e 63 12 e7 bd
       -0.002758743 0.1759476 0.14870602 -0.11282804
000080 0b 31 0e be b1 88 89 bd 16 6d 6a 3d 7b af 9c 3b
       -0.13885896 -0.06715525 0.05723294 0.004781661
000090 09 26 e6 3d c3 ca c3 bd 58 bd 1c 3e 18 02 87 bd
       0.112377234 -0.09560158 0.15306604 -0.06592196
