src/models/prediction_61.pt (torch, 38168 bytes, 13 tensors)

input_layer.weight f4 [40, 40]
00000000: 7895 9e3c 49b0 05be 82e4 e9bd 5be8 63bd
00000010: d9ff e8bd f4b0 b4bc c72e f5bc 251e fc3d
00000020: 5f24 1abd db0b 343c 16a7 35bd af91 0dbe
00000030: cfcd e03c aae4 e5bd 4c03 193e 4494 083e
00000040: a547 e0bc d1e8 25be 5070 303d f275 11bd
00000050: 058c 233d 283c cfbd e8e7 c23d 72a1 e83d
00000060: d809 13bd 3ede 103e 3a68 c2bc 6750 203e
00000070: 26b4 d13d 7662 f23c f493 37be 26f0 32be
00000080: 48a0 05be 0f7b 36be 6a80 8bbc eced 333e
00000090: 1bc1 93bd d5c6 dc3c d416 efbd ec29 1ebd
000000a0: 2ea0 823d 40c1 24bc c2ac ce3d ddfc 123e
000000b0: 64bf 363d d056 6f3d e6a5 4ebd c0b5 3a3c
000000c0: 89a2 193e b8d3 15be 0492 6f3d d14a 84bd
000000d0: 3a62 923d 704c 003c 5038 813c 58fa 993d
000000e0: a005 3f3c 7964 b3bd ea21 0fbe 5a8f 0bbe
000000f0: 52a7 74bd 7219 9cbd 8e84 57bd 7d25 043e
00000100: 0897 f8bc 49d7 1d3e c0d7 a93c ef2d c3bd
00000110: ceca dcbd 40d3 453c 660c c63d 8713 81bd
00000120: e830 623d ac7a 8b3d a2b9 9a3d f013 2a3d
00000130: bbcf 113e d000 933d b542 1ebe 48ad b1bd
00000140: 7d65 dcbd c65d a3bd 32ba a23d a87b c7bb
00000150: 0888 ef3d fb76 27bd 92a0 653d c408 14be
00000160: 1553 0bbe 0631 5b3d d542 213e 13f0 b73c
00000170: 12cd 223e 3a9d f0bd 1adb 0bbe b912 da3c
00000180: cfbb c13c 3487 80bd 8ed1 65bd daa3 193e
00000190: 8a6f dcbd 8290 bbbd 88ac 87bb 31ea 213e
000001a0: 8056 aa3b 0521 d2bd d940 743d d1c8 77bd
000001b0: 906d b4bd 7bd4 11be 82c7 be3d 321d 093e
000001c0: 7c07 11bd f7b4 80bd 874c ba3d 3c52 743c
000001d0: a1b3 d4bd 743f 80bc f160 4f3d 0cdd 223d
000001e0: 7942 19be 62ce ff3d 1294 d2bd 2ee0 d93d
000001f0: 58de c23c e5de e2bd 8d57 f4bd 0c9a 5fbd
00000200: acfb 3b3d d3d9 8bbd b565 123e f7e8 0c3e
00000210: 1165 193e aa6b 52bd 90c1 d3bd 9049 aebd
00000220: 2e19 7bbd 7540 0e3e 204f 213c d295 c03d
00000230: d3cf 003e 8cb9 0bbe f7d8 12be 22cb d93d
00000240: 6a58 fc3d 00e7 edbb f0c7 723d 388c 91bc
00000250: 9851 853c 0edc 65bd 6b6b 123e 8000 6abc
00000260: 8072 4bbb 4aa7 d33d a4a4 10be e4b4 323d
00000270: 80db c43b 21fc 90bd 48ca 573d da9d bc3d
00000280: 29b8 b03d aeef 203c 7959 173e 6ed3 23be
00000290: d102 efbd 50fd 84bd 221d c3bd 98fa d1bd
000002a0: 705d a23b 795a c93c dd42 87bc 905d b63d
000002b0: 1792 4bbc 7b26 cf3c 95ae f4bc fc99 11be
000002c0: a74e 233d 20cd 073d cba0 1f3e e63a 933d
000002d0: fdbe 183e a480 b03d 4078 0f3e 4d7d 2e3c
000002e0: 3312 1abe d678 923d 2829 35bd 99a8 f53d
000002f0: 1a6d 0e3e 3136 18be a3fa 1ebe f50c 0ebe
00000300: b7dd 8bbd 945d 9a3d 1734 13bd 54ad a33d
00000310: c818 b5bd 6047 323c 3328 6e3d b919 bcbd
00000320: be14 84bd 201d b2bd 80c3 543c 7b1a b43d
00000330: 2959 593b c645 56bd 4891 d53d 9ef1 a63d
00000340: 6026 353e 0375 0abd 2b42 a8bd a4bc cdbd
00000350: 5f61 bebd 9d5e 86bc 1f0e b2bd 93a9 3cbe
00000360: 52b6 133c 1269 3abd 4282 eebd 0acb 55bd
00000370: caa2 c93d 68a3 79bd 0c4b c93d 7ec1 2bbd
00000380: d67b 043e 29a1 dbbc 654b 403e 9548 4f3d
00000390: e3a2 afbd 24d0 243d 6fe8 973d 9c4f e93b
000003a0: f340 10bd 515a 8ebd 0b57 e8bc f82b 423e
000003b0: 7bec cf3d 6b9b 8c3d 9235 403e e61e 05be
000003c0: b4c2 7b3d 8c3e d2bd 7080 9fbd e77f bfbd
000003d0: 4ae9 86bd 8464 063d b28e c63d cbe7 0f3e
000003e0: e089 df3c f8ad 8b3d 8db8 17be 83c8 0cbe
000003f0: aa4a 13be 5ad2 54bd 32c5 e33d a4fe 7e3d
0.019358382 -0.13055529 -0.114205375 -0.055641513 -0.11376924 -0.022057034 -0.029929532 0.12310437
-0.037632342 0.010989155 -0.0443488 -0.13825105 0.027441887 -0.11225255 0.14942664 0.13337809
-0.027377913 -0.16202094 0.04307586 -0.035512872 0.039928455 -0.10118896 0.09516889 0.11358918
-0.03589806 0.14147279 -0.02373134 0.15655671 0.10239439 0.029587965 -0.17927533 -0.17474422
-0.13049424 -0.1782038 -0.017029006 0.17571229 -0.07214566 0.02695028 -0.11674276 -0.0386142
0.06378208 -0.01005584 0.10091545 0.14354272 0.044616118 0.0584324 -0.05045118 0.011395872
0.15003408 -0.14631546 0.05848886 -0.064595826 0.071476415 0.007830724 0.015773922 0.075184524
0.011659056 -0.08759398 -0.13977781 -0.13628903 -0.05972988 -0.07622041 -0.05261665 0.12904926
-0.030345455 0.15414156 0.02073276 -0.095302455 -0.107808694 0.012074292 0.096703336 -0.06302553
0.055222422 0.06810507 0.07554938 0.04152292 0.14239399 0.07177889 -0.15455134 -0.08675629
-0.10761545 -0.0797687 0.0794567 -0.006087739 0.11695868 -0.040884953 0.056061335 -0.14456469
-0.13605912 0.05351355 0.1574815 0.022453343 0.1589854 -0.117487386 -0.136578 0.026620256
0.023649124 -0.06275788 -0.05610805 0.1500391 -0.10763462 -0.09158422 -0.0041404404 0.15811993
0.0051983 -0.10260204 0.059632156 -0.060494248 -0.0880996 -0.14241211 0.09315397 0.13390043
-0.03540753 -0.06284516 0.09096628 0.014912184 -0.10385824 -0.015655257 0.05062956 0.039761588
-0.14966764 0.12490536 -0.102821484 0.10638462 0.023787662 -0.1107767 -0.119307615 -0.05459027
0.04589431 -0.06828656 0.1429661 0.13760744 0.1497996 -0.051372208 -0.103396535 -0.08510125
-0.06130331 0.13891776 0.009845525 0.09403576 0.12579279 -0.13645 -0.14340578 0.10634448
0.12321551 -0.0072602034 0.059272707 -0.017767057 0.016274258 -0.056118064 0.14298789 -0.014282346
-0.003104359 0.10334642 -0.14125305 0.043629542 0.0060076118 -0.0707934 0.052683145 0.09209795
0.08628876 0.009822769 0.14780225 -0.15998623 -0.11670459 -0.06493628 -0.09527041 -0.10252875
0.0049549863 0.024579274 -0.016511375 0.089045644 -0.012424967 0.025286904 -0.029868403 -0.14218897
0.03986993 0.033154607 0.15588681 0.07188968 0.14916606 0.08618286 0.14010715 0.010649991
-0.15046005 0.07151954 -0.044228703 0.11995048 0.13908806 -0.14864422 -0.15525298 -0.1387213
-0.06829398 0.0753738 -0.03593835 0.07992044 -0.08842617 0.010881275 0.058143806 -0.09184594
-0.06449269 -0.086969614 0.012986064 0.08794113 0.0033164716 -0.052312635 0.10428101 0.081515536
0.1769042 -0.033802997 -0.082157455 -0.10045746 -0.09295916 -0.016402537 -0.086941 -0.18424062
0.0090156365 -0.04551036 -0.116459385 -0.052195586 0.09845503 -0.060946852 0.09828767 -0.041932575
0.12937865 -0.026810246 0.1877876 0.05060633 -0.0857599 0.04023756 0.0741738 0.007120086
-0.03521819 -0.0695082 -0.028361818 0.18962085 0.10152527 0.06865581 0.18770435 -0.13000068
0.06146498 -0.10265836 -0.077881694 -0.09350567 -0.06587465 0.032810703 0.09695186 0.14053266
0.027287424 0.06820291 -0.14816494 -0.13748364 -0.14383951 -0.05195842 0.111215964 0.062254563

input_layer.bias f4 [40]
00000000: 233f c83d bea6 73bd 3c40 7a3d 68e7 15be
00000010: a111 fb3d 3889 253e e944 13be 2bd5 acbc
00000020: 13e1 313d 0ba9 133e 75a4 423d 4a20 1b3e
00000030: 4824 143e 9ab0 ba3c 15d4 223e de28 debc
00000040: 9130 0dbe 3446 013e 3f9a 243e 4f58 c5bd
00000050: 0bae 053e 072f e23d 4bc1 b13d 1f4f fc3d
00000060: 83d7 5d3d d095 36bc 0c43 09bd 9072 ebbc
00000070: 5454 84bc 232c 213d 1cdb c53d 6b56 38bd
00000080: 5735 0abe 2969 23bc 5cc2 f7bd cbed bc3d
00000090: 145a 89bd 083f 15bd 311c a53d 7484 1e3e
0.097776674 -0.05948519 0.061096415 -0.14639056 0.12259222 0.16165626 -0.14381756 -0.02109774
0.043427538 0.14419954 0.04752012 0.15149036 0.14466965 0.022789288 0.15901215 -0.027119096
-0.13788058 0.12624437 0.16074465 -0.09635984 0.13054673 0.11044126 0.08679446 0.12319779
0.054160606 -0.0111441165 -0.033511207 -0.028741151 -0.016153492 0.039348733 0.096609324 -0.04500429
-0.1349691 -0.009973803 -0.12097618 0.09225043 -0.06706634 -0.036437064 0.08062018 0.15480214

hidden_layers.0.weight f4 [40, 40]
00000000: af26 013e e875 b43c 0e59 fa3d 68bc 36bd
00000010: 30d5 33bd bc3f 0e3d ce23 d83d bc85 b23d
00000020: 705d 3f3c dec6 07bd 6eba ba3d 104f 333c
00000030: 8091 01bc 00f0 623a 2298 dcbd fe41 823d
00000040: 864d 6fbd 557e 03be cc4c 09be 700f 623d
00000050: 94c1 f3bd 8e20 e93d b061 90bd 64ee 243d
00000060: 90a1 02bc 4783 16be 866f 9b3d 9d3c 1b3e
00000070: dae2 823d aa36 a23d 4d11 01be 3c55 b3bd
00000080: 3450 423d a828 013d 7b66 0b3e 5008 98bc
00000090: f883 153d 8a2b d73d e296 e23d ee14 d23d
000000a0: e928 093e 873e e2bd aba8 e9bd 8f6e 1cbe
000000b0: 1f41 b73c a683 3bbd 2221 0abe ab40 0fbd
000000c0: fc38 3b3d 5ad5 e6bc 8691 2ebd 8582 94bd
000000d0: ca64 153e 9206 38bd b541 27be 8cec d6bd
000000e0: 3e3e f73d d35a fabd 7c27 cc3d 18f2 c5bd
000000f0: 417a 6e3b a7bc 133e a92d b53c 9398 a5bb
00000100: b628 f2bd c8dd 91bc 8028 1fbc b8eb f33c
00000110: e6ed 15be ffd9 e03d 2086 3e3d d374 113e
00000120: fe5e adbd a272 e9bd e8d3 47bd dcc6 c7bd
00000130: 8660 fc3d e5d5 95bd 6ec3 113d 850a b73d
00000140: 8ff0 363d a2eb 25bd 7c15 693d 90dd 033c
00000150: bb3c d13d f606 52bc 20e5 103c 8022 babb
00000160: 22aa fabd 3d20 29be bf9b 1b3e 7968 bf3d
00000170: 486a 0a3e aeff 0cbe 3604 f4bd 9018 113e
00000180: 57b4 233c 15ef 9d3d 92de 543d d841 1fbe
00000190: 6943 f43b 109b c23c 8b89 edba 704b 4a3d
000001a0: efe0 60bd 9a49 24bd 69df c6bc 0005 cebb
000001b0: cc60 00be 7023 213d fa72 d03d 48c6 82bb
000001c0: 1a1b d43d 7dad 4dbd ead7 4b3d 1a39 39bc
000001d0: 1c58 3bbd 000f 21bd cb10 2cbd 00a7 a8bc
000001e0: 6347 323e 1c23 39bd 23e9 a13d 9099 313d
000001f0: 29fa 96bc da42 293d d001 2d3c 665e febd
00000200: 5568 333d beb9 e73d 8b73 123d 8608 a3bd
00000210: a951 c53d 684e 1c3c 5bad 29bd ebe3 e9bd
00000220: 730f 173e 5f7c 423e 6b78 10bd a2c2 2e3c
00000230: 7c7d c33d 6f24 ba3c d7b3 0b3e 27d2 243e
00000240: 4ddd 493d 7234 903d d922 fa3d 3042 68bc
00000250: a125 913d e414 8cbd 29da e63d 8ec1 dcbc
00000260: 9efe 71bd decd 903d 2679 c3bd 8c5c 353d
00000270: bcfa 1b3d 967f a43d bb0a ab3d ae2c 433e
00000280: 7393 173d 1d98 e1bd 5cc6 19be 90bb 7f3d
00000290: 4535 0f3e 18f3 04be 00ed c8bb bbd1 573d
000002a0: cadd d63d fc7f 27be 8486 ffbd 7574 7abd
000002b0: 19e6 27be 9c6b eebd 67de a13d 8906 103e
000002c0: 9684 02be 14f8 21bd 5b95 b13c 60b9 79bd
000002d0: 6b41 d23b 836a 0fbe 8252 d53d c407 94bd
000002e0: afa4 f93c 0084 20ba 4aad c2bd 7873 b7bc
000002f0: 79d1 ebbd 0a8d 863d e2cc 88bd 6695 a83d
00000300: 54db 173d 767f 073d 9ab3 78bd a699 08bd
00000310: 75ff 0fbe a45f a1bd ab4e 033e 2bfa a73d
00000320: 6d6a 1c3c c439 2abd 144b 92bc 3844 ae3c
00000330: d4e0 fdbd 7ada 4cbd 00de d539 273e 393e
00000340: 0c10 8e3c 50e9 93bc 0b90 893c 3fb8 a5bc
00000350: 96c3 94b9 8dc2 cbbd 3a7f 3e3d a8b6 dbbb
00000360: 882a 053e 25eb a43c 475d 0abd 9661 ecbd
00000370: 7418 ab3d 8c22 503d f7fb ffbd 6282 fd3d
00000380: 80c0 ed3c f8b9 cc3c a439 1fbd c608 5abd
00000390: f46b 86bd b086 0abe d716 be3b 3548 fe3d
000003a0: 9bad babd 3200 cf3d 0cd1 173e 01fd 093e
000003b0: 0632 38bd 3cf8 a8bd ad7d e6bd 3784 303e
000003c0: 9008 7d3d c62a 62bd b2dd 963d 1457 4d3d
000003d0: 523b 08bd 3051 f8bc 9d18 1abe 5aa6 ec3d
000003e0: c05b 2dbc f987 0a3e 006d 8fbc aab4 74bd
000003f0: 505b 70bc 3651 19be 30d5 ea3c 34ea 1d3d
0.12612413 0.022028878 0.12224017 -0.044613272 -0.043904483 0.03472875 0.10553704 0.08716914
0.011679992 -0.03314864 0.0911759 0.010944143 -0.007908225 0.00086569786 -0.107712045 0.06360243
-0.05842354 -0.1284116 -0.13408202 0.055190504 -0.119021565 0.113831624 -0.070498824 0.04026641
-0.00797309 -0.14698516 0.07589631 0.15159841 0.06390925 0.079205826 -0.12604256 -0.087564915
0.04743977 0.031532913 0.13613312 -0.018558651 0.03650281 0.10506351 0.11063935 0.10257898
0.13394512 -0.110470824 -0.11409124 -0.1527655 0.02236992 -0.045779847 -0.13489202 -0.03497378
0.04570864 -0.028177906 -0.04261925 -0.07251457 0.14589229 -0.04492814 -0.16333659 -0.104943365
0.12072419 -0.122243546 0.099684685 -0.09665316 0.0036388787 0.14427434 0.022116499 -0.0050535887
-0.11824171 -0.017805949 -0.009714246 0.029775485 -0.14641532 0.109790795 0.04651463 0.14204721
-0.08465384 -0.113988176 -0.048786074 -0.09754726 0.12323098 -0.07316188 0.035586767 0.08937553
0.04466301 -0.04050792 0.056905255 0.00804843 0.102166615 -0.012819042 0.00884369 -0.0056803823
-0.122394815 -0.16516204 0.15196131 0.093460985 0.13517106 -0.13769409 -0.11914866 0.14169526
0.009991727 0.07711617 0.051970072 -0.15552461 0.007454325 0.02375558 -0.0018122656 0.04938835
-0.054902013 -0.040109254 -0.024276452 -0.006287217 -0.12536925 0.039340436 0.1017818 -0.003990922
0.10356732 -0.05021428 0.04976646 -0.011305118 -0.045738325 -0.039320946 -0.042008203 -0.020587444
0.17410044 -0.0451995 0.079057954 0.04335934 -0.018429833 0.04132352 0.010559514 -0.12420349
0.04380067 0.113147244 0.03575472 -0.0796061 0.09634716 0.009540178 -0.04142509 -0.11420425
0.14751987 0.18992756 -0.03527109 0.010666521 0.095454186 0.022722451 0.13642822 0.16095792
0.049283314 0.07041253 0.12213678 -0.014175937 0.07087255 -0.06839922 0.112720795 -0.026947763
-0.059080712 0.07070516 -0.095445916 0.044277713 0.038080916 0.080321476 0.08351656 0.19060013
0.037005853 -0.110153414 -0.15017074 0.062434733 0.13985164 -0.12983358 -0.006131768 0.05269025
0.10491522 -0.16357416 -0.12476829 -0.06114622 -0.16396369 -0.116416186 0.07903748 0.14064993
-0.1274589 -0.039543226 0.021677664 -0.060967803 0.00641649 -0.14005475 0.10416128 -0.07228044
0.030474035 -0.0006123185 -0.095057085 -0.022393927 -0.11514563 0.0656987 -0.06679703 0.082316205
0.037074402 0.03308054 -0.060718156 -0.033349656 -0.14062293 -0.0787957 0.12822978 0.08202013
0.009546858 -0.041558996 -0.017858066 0.021272764 -0.12396398 -0.050013043 0.0004079193 0.18090115
0.017341636 -0.018055588 0.016792318 -0.020229457 -0.00028374483 -0.09949217 0.04650805 -0.006705124
0.13004506 0.020131657 -0.033780362 -0.115420505 0.083542734 0.050814196 -0.1249923 0.12378384
0.029022455 0.02499102 -0.03887333 -0.053231023 -0.06563559 -0.13527942 0.0058010626 0.12416116
-0.09115144 0.10107459 0.14825839 0.1347542 -0.04496958 -0.08250472 -0.112544395 0.17237936
0.061775744 -0.055216573 0.07366504 0.050131872 -0.033259697 -0.03031215 -0.15048452 0.115551665
-0.010580957 0.13528432 -0.01750803 -0.059742607 -0.014670208 -0.14972386 0.028666109 0.03855343

hidden_layers.0.bias f4 [40]
00000000: 1786 fbbd a06a 11bd b26d a0bd 075c 1f3e
00000010: f346 f6ba c6dd 3d3e 806c 9ebb 965b cfbd
00000020: 415e b7bd f055 443d cc36 c7bc 2ed5 0b3e
00000030: 6208 6dba 1623 bf3c 7f3b 1fbd f868 d139
00000040: 1047 5dbc 0f8d 043e 24d7 023d 8456 213e
00000050: 237c 1bbd 0699 82bc 86de 203c d699 4abd
00000060: a4e9 3fbd 9296 293d d9ff 6ebd a808 82bd
00000070: 8878 0f3e 64c8 12be 1246 0fbe e3d0 f8bc
00000080: 37b1 15be 8b31 a13d fae4 c73d 23a6 d63d
00000090: b1d8 c53c b243 043e 73a3 1a3e e483 283e
-0.12281435 -0.035502076 -0.07833423 0.1556245 -0.0018789455 0.18541631 -0.0048347116 -0.101248905
-0.089535244 0.04793352 -0.024318121 0.1365554 -0.00090420817 0.02333216 -0.0388751 0.00039941794
-0.013505712 0.12944435 0.031943455 0.1575566 -0.037960183 -0.015942108 0.009818679 -0.049463116
-0.046853676 0.04140336 -0.058349464 -0.06349307 0.14010823 -0.14334255 -0.13991573 -0.030373042
-0.14618383 0.07870778 0.09760471 0.10480907 0.024151178 0.12916449 0.15101413 0.16456562

hidden_layers.1.weight f4 [40, 40]
00000000: 804a efba 9771 ecbd 446d ccbd 7194 413d
00000010: 6a87 cbbd 99a0 903d 7585 04be 94e7 e0bd
00000020: f8bc 863c d028 73bc 0b1e a03d a670 ebbd
00000030: 66fd 0fbd 4bad d83d 2941 ebbc e915 393d
00000040: 7175 0e3e 8508 073e 5050 033e aee6 64bd
00000050: 9ad6 6f3b 0a26 c7bd 0f28 933d 40ef 67bb
00000060: 0a2c de3d 1b83 7d3d f1a8 043e 72ec f2bd
00000070: 1c96 053e a92b 893d 2216 d53d b063 103d
00000080: 6cbf e8bd 9ae8 9eba 0575 8c3c a1c4 babd
00000090: 1296 b2bd 1d30 1abe 1db6 583d dc57 3b3d
000000a0: 489d 893c 109b 23be b403 cabd c499 753d
000000b0: ba70 dcbd 1afd 9e3d a56c 043e 8409 503d
000000c0: 8532 b8bd c09d e9bc 221b 113e 252b babd
000000d0: 0441 1fbe b459 0a3c 5bce ce3d 7a06 24be
000000e0: 2e25 e2bd 8f5a 15be d420 e53d ee57 d83b
000000f0: d6af b63d f527 17be d3a6 723c 805b 33bc
00000100: 0eef 02be eee9 bebd ce59 073d 6cd3 1e3d
00000110: 7986 0a3e a4e2 48bd 2460 663d 12f8 eb3c
00000120: fbe9 93bd 9d10 17bc 780c 59bd 3dd8 edbd
00000130: 9da7 823d 8210 edbd bb5b cebd b033 a6bd
00000140: b804 13bd fc45 c1bd b201 f13d 8068 af3c
00000150: b01b 00bc 79d7 013e da1a f13d 680d d03c
00000160: 86d7 883d e0d1 d9bd f068 14bc feb2 d53d
00000170: 5312 d8bd 485d 9bbc 2e97 e83d 8764 0f3e
00000180: aebd 0abe 34ee bdbd ce56 e73d 0f4e 18be
00000190: b82d 493d 5f18 183e 2014 da3c b44e 6c3d
000001a0: d153 1abe 866b 16be 5ad9 e83d 628d 9f3d
000001b0: 3849 19bd d30a 123e beaf e23d 41d4 9dbd
000001c0: b81e d6bc b02d 023c 822e fabd 07e8 093e
000001d0: a94d 88bd 50ad c4bd 4e63 c73d 6a5f 03be
000001e0: 00d5 f13a be8a f73d 32ba 8f3d 287c ecbd
000001f0: b8c8 b3bd c004 8abd 6101 21be 008f 85bb
00000200: f4fb 1d3d 00f9 453d 28db 9ebc 34b3 1b3d
00000210: b67c 78bd 4019 133c 5ac0 f73d 3c56 663d
00000220: c43c 2d3d 5078 143c c0ad 20bb 7a0b f8bd
00000230: 2224 c03d 34ab 663d b674 1bbd 1c8f eabd
00000240: ac9d 0abe 2784 023e 7891 d0bc 10fb b33c
00000250: a041 563d 443b 46bd b041 75bc 5816 b3bc
00000260: 404e 533c 3fc9 113e 60e8 81bb 0a03 0dbd
00000270: e0c2 b83d 90a5 9fbc 0060 8c3b b698 06be
00000280: 68b7 9f3c 2384 093e 572d 27be aadf aebc
00000290: 07a0 b93d 9183 053e a09c f53b d261 32bd
000002a0: ce81 67bd 86e3 c13d d6f1 dd3d e7fc 05be
000002b0: 8b5c 2d3d 58f9 bb3d 05c1 353d 36da 87bd
000002c0: 58d4 443d 5379 17be 817d f8bd bd49 22bd
000002d0: 5bcf 323c 06e8 853d 34b6 d93d 3a60 d8bd
000002e0: c6e2 17bd e68d d13d d5dc dd3d 690b 1d3e
000002f0: 98f7 033e 61b5 8fbd bd1d 0abe e292 c93d
00000300: b031 ff3d f470 463d ae71 b93d 5abe afbb
00000310: 1e91 a6bd 3f59 9f3d 5c11 fe3d 6796 193d
00000320: 001e 56bc 0189 c53d 28de 6e3d c2b8 edbd
00000330: 2815 ed3d fdda 90bd ca71 e2bd 8a47 c5bd
00000340: 707b af3c 1bd5 113e 81d9 00be 3070 11be
00000350: 565c 75bd 7903 81bd 5ba3 033e 20b1 d2bd
00000360: 8681 ea3d 8df6 813c 3da5 de3d 1d5a 05be
00000370: ee00 26be 46ae 84bd 57cf 5dbd 204c f2bd
00000380: 078f 013e a76e 1bbd 0ab1 cb3d 2234 e33d
00000390: a007 0a3e ded0 13be 7fe1 8abd 06f1 efbd
000003a0: d44d 85bd f4cb 083e 3aa4 913d afb6 453d
000003b0: b79e 19be e272 08be f9eb 6c3d 79fd f8bd
000003c0: cf45 04be 2132 c2bd c09d 193d 9073 16bc
000003d0: 5c0d 3e3d a84e a23d d435 7dbd 0044 243a
000003e0: ba40 8d3d 5a11 883d a0a3 a23d 40b5 193c
000003f0: c64c 1cbe 80d0 ef3a 7a3d a73d 1cb5 70bd
-0.0018256456 -0.11545103 -0.09981778 0.047260705 -0.099379376 0.070618816 -0.12941535 -0.1098167
0.01644753 -0.014841273 0.0781823 -0.11496095 -0.03515377 0.10579928 -0.028717594 0.04518691
0.13911988 0.13186844 0.12823606 -0.055884056 0.0036596418 -0.09724052 0.07185375 -0.0035390407
0.108482435 0.06189261 0.12955071 -0.118615046 0.13045543 0.06697781 0.10404612 0.03525132
-0.11364636 -0.0012123764 0.017145643 -0.09119535 -0.0872003 -0.15057416 0.05290805 0.045738086
0.01679863 -0.1597712 -0.098639876 0.059961095 -0.107636884 0.07763119 0.1293207 0.050790325
-0.08994011 -0.028517604 0.14170507 -0.090902604 -0.15552145 0.008444238 0.10097953 -0.16018096
-0.11042248 -0.14585327 0.11187902 0.006602279 0.08920257 -0.14761336 0.014810282 -0.010947108
-0.12786505 -0.09321962 0.03304463 0.038775846 0.1352786 -0.049044266 0.05624403 0.028804813
-0.072223626 -0.0092202695 -0.052990407 -0.1161351 0.06379626 -0.11575414 -0.1007609 -0.08115327
-0.035893172 -0.094371766 0.117679015 0.021412134 -0.007819101 0.12679853 0.117727 0.025397018
0.06681733 -0.106357336 -0.009058222 0.10434531 -0.1055037 -0.018965378 0.1135696 0.14003192
-0.1354892 -0.09273949 0.112958536 -0.14873527 0.049115866 0.14853047 0.026620924 0.057692245
-0.15071036 -0.14689454 0.113695815 0.077906385 -0.037423342 0.14261942 0.110686764 -0.077065
-0.026137695 0.007945463 -0.12215902 0.13467418 -0.066554375 -0.09603369 0.09735738 -0.12829366
0.001845032 0.1208701 0.07017936 -0.115471184 -0.087785184 -0.06739187 -0.15723182 -0.004075885
0.03857036 0.048333168 -0.019391611 0.0380127 -0.06066581 0.008978188 0.12097235 0.056234583
0.04229428 0.009061888 -0.0024517626 -0.12111564 0.09381892 0.056315616 -0.0379531 -0.11453077
-0.1353671 0.12745725 -0.02545999 0.021970302 0.05230868 -0.048396364 -0.014969274 -0.02186124
0.012897074 0.14236926 -0.003964469 -0.034426726 0.090215445 -0.019488126 0.004283905 -0.13144192
0.019496635 0.13429312 -0.1632589 -0.021346886 0.09063726 0.1303847 0.007495478 -0.04355032
-0.056520276 0.09467225 0.10837142 -0.13084756 0.042324584 0.09178418 0.04437353 -0.06633417
0.04805407 -0.14792375 -0.12133313 -0.039621104 0.010913695 0.065383956 0.106304556 -0.10565229
-0.037081502 0.10232143 0.10833136 0.15336384 0.12887418 -0.07017017 -0.13487907 0.09842469
0.12460649 0.048447564 0.09054886 -0.005363268 -0.08133148 0.07780694 0.12405655 0.03749695
-0.013068676 0.09645272 0.058317333 -0.116075054 0.11576301 -0.07073019 -0.1105686 -0.096327856
0.021421164 0.1424145 -0.12582971 -0.14202952 -0.05990251 -0.062994905 0.12855284 -0.1028769
0.11450486 0.015864635 0.108713605 -0.13022657 -0.16211292 -0.064785525 -0.054152813 -0.11830926
0.12652217 -0.037947323 0.09945877 0.11093928 0.13479471 -0.14435145 -0.06781291 -0.117158934
-0.06508985 0.13359052 0.07111402 0.048269924 -0.15001951 -0.13325074 0.05784223 -0.12157721
-0.12917255 -0.094822176 0.037503958 -0.009182826 0.04639946 0.07925159 -0.061818913 0.00062662363
0.06897111 0.066439345 0.07941365 0.009381592 -0.15263662 0.0018296391 0.081660226 -0.05876647

hidden_layers.1.bias f4 [40]
00000000: 3fe1 55bd 76cd 593d 7f4a bdbd b062 153c
00000010: c1f7 24be 23ae dc3d 3e3d 05be eea8 debd
00000020: 3fc6 12be 01f9 c93c 8ad2 283d a49b ddbd
00000030: 22c0 85bd 7b7a 073d 6959 e4bd 89df e0bc
00000040: f6be 953d 8805 a63c 1b49 d93d 3ec1 643d
00000050: e78b c6bd 0bf2 fdbd 8e2e 9e3d 2c47 a9bd
00000060: 041a 3b3e 52f2 c5bd 3085 803d 6883 bbbd
00000070: 771e 17be 3e9a 353d aab4 a43d d94e 12bd
00000080: 6a71 6cbd 2e85 343e 684a 503d c725 a9bd
00000090: 0299 ecbd c76a da3d 14e1 0dbe 8615 0cbe
-0.052216765 0.05317446 -0.092427246 0.009117767 -0.16110136 0.107754014 -0.13011643 -0.108720645
-0.14333437 0.024654867 0.04121641 -0.10820702 -0.06530787 0.03307579 -0.11149866 -0.02745034
0.073118135 0.02026631 0.10609647 0.055848353 -0.09694653 -0.12399682 0.07723723 -0.08265528
0.18271643 -0.096653596 0.062754035 -0.09155923 -0.14757715 0.04433655 0.080422714 -0.035719726
-0.057725348 0.17628929 0.05085221 -0.082591586 -0.115526214 0.106648974 -0.13855392 -0.13680086

hidden_layers.2.weight f4 [40, 40]
00000000: 25b0 e8bd dae7 a93d d351 063e 205a 903c
00000010: d860 bc3d 749b 8dbd e665 17be ae37 6c3d
00000020: fc1f 1fbe 979c d93d 39ed 063e 2ca8 b23d
00000030: a2e4 d53d 8c05 92bd da03 a73d f296 c6bc
00000040: acbd cb3d f0b5 873c cbd3 5d3d b22b 16bd
00000050: 9e17 17be 5d28 e7bd 3413 42bd 7336 043e
00000060: 5fc7 28bd 8efe d13d f781 003e 9290 c03d
00000070: ce05 a9bd ea3f 12be fb38 debc de8e 0ebe
00000080: e0ac bb3d 074e 133e b17b e1bd 3314 6c3d
00000090: fc22 edbd 4c1a b3bb 4bc3 f5bd fadd d0bc
000000a0: 2f92 1f3e ae32 52bd 8407 85bd 299f 083e
000000b0: 5132 8abd 680f 9b3d a97e 0ebe 9021 e03c
000000c0: 00d6 893b bd31 1abe 6a68 0bbd 3f06 19be
000000d0: 968b f93d d4ec 6a3d 8dd2 003e 1c89 693d
000000e0: b07a 8d3c 4ad1 32bd 4016 513b 23fd 01be
000000f0: a28e a3bd ed2e 143e aed6 75bd 3018 bf3c
00000100: 0edf bdbd fbd8 c1bd 1efd ea3d ea5a fa3d
00000110: 5088 1dbd 3ea9 df3d b8bf a1bc c82f a83c
00000120: 580f edbc 20ee a5bb 12a0 c4bd 4a85 78bd
00000130: 0adf 51bd f4d9 033d b613 05be 8c9c 8dbd
00000140: e2b9 a8bd 4859 8e3d aeba c2bd 30df a8bc
00000150: 1b79 323d 7af8 85bc 6b79 88bd 6448 d5bd
00000160: 50ca 693c 6d05 113e 0e1a 19be 1dac 8f3d
00000170: 45f4 0ebe e482 18be 9a9b 9e3d 5c08 e6bc
00000180: 95c7 0d3e 8ebd dd3d 56c8 bbbb 0bf0 213b
00000190: b14a 5e3d 0b48 163d 6059 cc3d 00ab e5bc
000001a0: 63bb aa3c 6129 1cbe 0ba9 273c 3fc2 363c
000001b0: 9814 e13c 8512 d4bd 8d93 b0bd 395c 6abc
000001c0: 26e9 ac3d b161 d23d a8c5 a73c 2bd4 853d
000001d0: 942e 0e3e 1c4b 6ebd 2be6 03be bee5 e7bd
000001e0: 401d 21bd 4094 05bc 55d8 20be c87d 7fbd
000001f0: 68df fabd 806d ca3c 549a 04be c023 cf3c
00000200: 76f7 cc3d c0c5 223b c019 8bbb 1280 dd3d
00000210: fc55 a43d 3460 203d 6cfb 02be 8f5a 1a3e
00000220: 7254 6dbd aadf 0fbd e440 babd 6850 853d
00000230: 00c5 8dba 18c1 783d a806 92bd 3b7a afbd
00000240: a8f8 3e3d a245 af3d e91c 053e 108a 4d3d
00000250: cedb cd3d 802c 0e3b aea6 dcbd a163 9cbd
00000260: 341a 05be 2829 2fbd cff8 203e cc80 47bd
00000270: f0be e7bc 0042 8dba 528e 13be f88e acbc
00000280: 4e88 ab3d 1602 f63d 530c 16be f4ee 4e3d
00000290: 4fa8 80bd 103c d9bc 8c3b 20bd 60ec 39bc
000002a0: 4471 04bd 2293 f23d b289 c4bd 8524 04be
000002b0: 7ab5 99bd bc5c 583d cc44 17bd f4c3 283d
000002c0: 3294 d0bd 2e59 b0bd 00d2 793d 884a 92bc
000002d0: 497b 003e feac de3d 71f8 a8bd 689d a8bc
000002e0: bdf5 b1bd e4a2 5abd f9b4 1b3e 0f85 f4bd
000002f0: 3d7b eebd d03f c83c 5004 a33d c049 c53c
00000300: a4aa 4ebd b2b0 0cbe 74a6 dcbd 10a6 69bc
00000310: 58a0 343d 4205 d3bd 90a6 86bc da53 e93d
00000320: 5d7d 8bbd 6769 c6bd 58f4 54bd 5851 8bbd
00000330: 8d38 80bd 38e7 1d3d a396 10be 3cb0 e83d
00000340: 884a c03c 37c7 143d 2b9b 56bd 682d d8bd
00000350: 882a b4bc 6f0a d63d e10b 1b3e 4145 9e3c
00000360: 94d2 2f3e 1106 203e 0474 993d 5d84 86bd
00000370: 3bf1 50bd f62f 013e 45b8 68bd 6d60 053e
00000380: 5b7c 813d 0504 003e b8f6 8cbd 0160 f73c
00000390: 6d36 1c3e 8322 833d e1f0 f1bd 021b c3bd
000003a0: 4f8b e2bd f64b efbd bccf a53d 83ae 0a3e
000003b0: 9324 f0bd c9e6 a2bd 409a d23b 89f4 fcbd
000003c0: 5356 bebd 65ec c7bd c988 013e f06d 513c
000003d0: ce6e a7bd f289 1bbd 045c 01be 6cd2 54bb
000003e0: 3029 343c f09d a83d 6a7d b73d aa8a 61bc
000003f0: 3e19 fa3d a1b6 0c3e e00d b1bb 708a 6a3b
-0.11361722 0.08296175 0.13117151 0.0176211 0.09198159 -0.06914416 -0.14784965 0.057670288
-0.15539545 0.1062557 0.13176431 0.087234825 0.10443999 -0.07129964 0.081550315 -0.024241898
0.099482864 0.016566247 0.05415706 -0.036662765 -0.14755103 -0.112869956 -0.047381595 0.12911396
-0.04120576 0.102536306 0.12549578 0.094025746 -0.0825306 -0.14282194 -0.02712678 -0.13921687
0.09163833 0.14385234 -0.110099204 0.05763645 -0.11578938 -0.0054657813 -0.1200014 -0.025496472
0.15583108 -0.051317863 -0.06495574 0.13341965 -0.06747878 0.07571298 -0.13915505 0.027359754
0.004206419 -0.15058036 -0.034035124 -0.14943789 0.12184827 0.057354763 0.12580319 0.057015523
0.017270416 -0.043656625 0.0031904131 -0.1269422 -0.079861894 0.14471026 -0.060019188 0.023326963
-0.0927106 -0.09465214 0.114740595 0.12224372 -0.038460076 0.10920952 -0.019744739 0.020530596
-0.02893798 -0.005063787 -0.096008435 -0.06067399 -0.051238097 0.03219028 -0.129958 -0.069146246
-0.08238579 0.06950623 -0.095082626 -0.020614237 0.043572526 -0.016353834 -0.06663784 -0.10414198
0.014269426 0.14162226 -0.14951345 0.0701525 -0.13960369 -0.14893681 0.077445224 -0.028080158
0.13845666 0.1082717 -0.005730669 0.0024709727 0.05427045 0.0366898 0.099779844 -0.02803564
0.020841306 -0.1525016 0.010233174 0.01115471 0.02747564 -0.10355095 -0.08621893 -0.014304214
0.08442907 0.102725394 0.020479992 0.065346085 0.13884956 -0.0581771 -0.12880771 -0.11323117
-0.039334536 -0.008153021 -0.15707524 -0.062375814 -0.122496426 0.024710417 -0.12949497 0.025285602
0.10008137 0.0024837106 -0.004245013 0.10815443 0.08024213 0.039154246 -0.12791222 0.15073608
-0.05794186 -0.035125412 -0.09094408 0.06509477 -0.0010816157 0.060731024 -0.07130176 -0.085682355
0.046623856 0.08558203 0.1299931 0.050180495 0.1005169 0.0021694005 -0.10773979 -0.0763619
-0.12998277 -0.04276386 0.15719913 -0.048706815 -0.028289288 -0.0010777116 -0.1440976 -0.021064267
0.083756074 0.120121166 -0.14653139 0.050520852 -0.06282102 -0.026517898 -0.03911929 -0.01134786
-0.03233458 0.118444696 -0.09596576 -0.12904556 -0.07505317 0.052822813 -0.036930844 0.0412025
-0.10184516 -0.0861076 0.060991287 -0.017857805 0.1254703 0.108728394 -0.082505114 -0.02058287
-0.08689449 -0.053378 0.15205754 -0.119394414 -0.116445996 0.02444449 0.07959807 0.024083018
-0.050455704 -0.13739279 -0.10773936 -0.014260784 0.04409823 -0.10303737 -0.016436845 0.113929465
-0.068110205 -0.09688073 -0.051990837 -0.068026245 -0.06260786 0.038550586 -0.14119963 0.11361739
0.02347304 0.0363228 -0.052394073 -0.105555356 -0.021992937 0.10451209 0.1514125 0.019320132
0.17170173 0.15627314 0.07492831 -0.06568215 -0.051011305 0.12615952 -0.056816358 0.13025065
0.06322547 0.12501533 -0.06882995 0.030197145 0.15255137 0.06403067 -0.11813522 -0.09526636
-0.11061727 -0.1168441 0.08096263 0.13543133 -0.11725726 -0.07954175 0.0064270794 -0.12351329
-0.09293809 -0.097618856 0.12649836 0.012782559 -0.08175431 -0.03797335 -0.12632757 -0.0032474054
0.010996148 0.08233249 0.08959468 -0.01376597 0.12211846 0.13741542 -0.0054032654 0.0035788082

hidden_layers.2.bias f4 [40]
00000000: 13b5 96bd 304a 19be 8005 f53d cfae 80bd
00000010: e879 d9bd 378e 413e 5b04 a43d 0e2e f73d
00000020: 03fd 643d 023f febd c44b edbd 5866 13be
00000030: b4be 4fbd efc7 c9bd 8439 b13d eab7 0cbd
00000040: 0fbc a3bd 9f17 1fbe 10b5 1e3d d4b7 f33d
00000050: e2e0 113e 712e 613d 9568 f9bd 88ce e13d
00000060: 8447 b4bc 800b e93d 7c92 053e a4d3 ae3d
00000070: 9c12 b23d b14a ba3c e2ab a43d 3631 263e
00000080: 3c12 2f3c 25d4 333d a60b 87bd 00c8 7ab9
00000090: f95e 2c3d 8fba 9dbd ef7e c23d cf58 a53d
-0.07358756 -0.14969707 0.1196394 -0.06283342 -0.10618955 0.18901907 0.08008643 0.12069331
0.055905353 -0.124143615 -0.11586717 -0.1439451 -0.050718978 -0.098525874 0.08653548 -0.03435508
-0.07994854 -0.15536354 0.038746893 0.11900297 0.14245942 0.05497593 -0.121781506 0.11025721
-0.022006758 0.113791466 0.1304416 0.08536461 0.08694956 0.022740694 0.080405965 0.1622971
0.0106855 0.04390349 -0.06594019 -0.00023916364 0.04208276 -0.07701599 0.09496867 0.080735795

hidden_layers.3.weight f4 [40, 40]
00000000: 251d 043e 392f ecbd 9ef2 fc3d 227b fb3d
00000010: a19f 213e 7edf 82bd 849a 0abd 6b69 14be
00000020: e946 1ebe 6ed3 0fbe f869 f53c 286d a6bc
00000030: 3398 1a3e 763c b13d 70e4 b33c 5a51 07be
00000040: 1412 643d 3880 f0bd be5d 973d 1577 91bd
00000050: 382e 453d a428 553d c8ee 9a3c c007 61bb
00000060: a39a 81bd a613 83bd 448b 8a3d d5ee 133e
00000070: 526b bbbd 685f f2bc e792 013e ae8c be3d
00000080: d841 aebd 2013 b8bd 1a97 e2bd a8f8 8bbd
00000090: cb19 0dbe 6e35 febd cbc2 12be 44a2 273d
000000a0: d274 c93d df7a 82bd 79c8 213e 5c19 0ebe
000000b0: b879 1dbe bc73 f1bd 209a 8cbc db17 91bd
000000c0: 4046 64bc 0e4b 8b3d c488 5bbd 00c7 dfbc
000000d0: f12f 013e 9014 e2bc 687a 3e3d 02e7 d13d
000000e0: 0060 7039 b8c8 1d3d 9b88 183e eafa 01be
000000f0: 21d0 96bd 2492 263d 7a95 18be 229b 903d
00000100: 706a ef3c 2091 bf3c 8060 d0ba d5e2 a7bd
00000110: b091 c6bc 4f7a 193e 0049 8b3d f8ce d4bd
00000120: 083b 2abd a0e1 d9bc 5394 083e 709f 1b3d
00000130: 96b2 0abd c6a4 11be 6a35 d23d ec82 863d
00000140: 8ec3 c23d d8bb 45bd 187e 823c 6025 1e3c
00000150: f30a 193e 541b 4dbd 1a07 753c 0152 4cbd
00000160: b29b d9bd ee6c e3bd 8282 b43d be3b cb3d
00000170: 413e 4d3b c8a6 9e3c dcad 2bbe a477 283d
00000180: 90c7 fdbd acef ad3d 8eb4 dcbd d45b 353d
00000190: 5e84 8dbd bf6d b2bd 02b9 c83d 8539 263d
000001a0: 303f 653d f514 943d 934f c9bc f5aa 153d
000001b0: 1f8e f2bd 0789 e2bd 70a4 fd3d da42 03be
000001c0: 726a c2bd dd6e 2bbe e8e2 843c 00b8 a03d
000001d0: f242 2abe 515f f2bd ed2c 20be 8694 db3d
000001e0: 9b7e ef3c 2076 09bd 95f2 3c3d d8df e5bd
000001f0: 006f deba b956 07be 0c21 a73d b1ff d1bd
00000200: f353 233c 00f1 ceba 4ab0 a4bd 2ff1 003e
00000210: eb74 9c3d 88bd 8cbc f320 4fbc 88ca ef3c
00000220: 7e8f d2bd 7fa1 013e 4672 da3d fcbd 0f3d
00000230: 1a5f 153d befe 07bd 78dc 8e3d 0106 953d
00000240: 7b57 e1bd 82c1 36be 1084 38bc 49de b63d
00000250: 3f81 b1bd 622c 1ebe ec84 46be 2c5d cc3d
00000260: 3585 b93d acaf 923d 78e0 afbc 6075 143c
00000270: 5581 89bd 6011 973b a7cb 2fbd 457d e33d
00000280: 688c f6bd 7f62 183e 4b5c 693d 6212 f63d
00000290: 40c0 f53b 3a49 983d 64a7 f2bd 7e9e 03bd
000002a0: d552 15be 1fc0 0ebe 209d 6cbc 58cc 3d3d
000002b0: 92ca 94bd 5cd6 733d 5116 cabd b996 1c3e
000002c0: 8a57 06be 7c6e 3ebd f0f3 aebc 8d02 933d
000002d0: 82ae f3bd fc39 8c3d 6407 303d a6fa 113d
000002e0: 6f04 363d 3a81 a9bd 9670 bf3d f34b b7bd
000002f0: 4327 1ebd c23e d83b c93f e73c fc6b 0ebe
00000300: ae64 483d e165 8f3d 7235 c33d 9e91 6dbd
00000310: 15dd 823d 10ae 65bd 450a f43b 7b47 0ebe
00000320: bbcf 0c3e a601 ae3d 0055 f5bd aaa0 d33d
00000330: c098 03bc d053 0c3d 1133 adbd 35de 033e
00000340: 887d 433d 09de 1bbe 4325 92bd d266 ff3d
00000350: f4a9 823d 207a a1bc b8e2 86bd 6e44 fa3d
00000360: 4c97 913d e785 1a3e d074 263d e4cf 5abd
00000370: 406e 04bb 28e3 f9bd 516e 163e 9056 d43c
00000380: ec6a cfbd 8462 8b3d 4d6b 0e3e 4cda 283d
00000390: d2d3 d73d 6694 79bd a903 15be b681 e1bd
000003a0: da94 19bd 00ac 6839 b23c f13d 94fc 16bd
000003b0: b2fa 9d3d 8a96 873d 76c5 d13d 9aee c9bd
000003c0: 54bc 07be d01e 303c 405d c0bd 08a2 a0bd
000003d0: a4d6 1e3d f6c8 e53d 529a 0dbe 4a85 cf3d
000003e0: d853 a6bc 7aa3 cc3d 184f 953d c669 18be
000003f0: b884 8dbc 2c16 9f3d ad1f 1a3e b4f6 163d
0.12901743 -0.115324445 0.12350963 0.12279345 0.1578355 -0.06390284 -0.033838764 -0.14493339
-0.15456738 -0.14045498 0.029957756 -0.020315722 0.15097122 0.0865411 0.021959513 -0.13214627
0.055681303 -0.11743206 0.07390927 -0.07102791 0.04813978 0.05204071 0.018912688 -0.0034336895
-0.06328323 -0.06400232 0.06764844 0.14446576 -0.09151329 -0.029586509 0.12653695 0.09304176
-0.085086524 -0.08988023 -0.110639766 -0.06834537 -0.1377937 -0.12412535 -0.1433212 0.040926233
0.09836735 -0.06371092 0.1579913 -0.13876861 -0.15378463 -0.11789653 -0.017163336 -0.07084628
-0.0139327645 0.06801425 -0.053597227 -0.02731657 0.12615944 -0.027597696 0.046503454 0.10249139
0.00022923946 0.0385215 0.14895861 -0.12693372 -0.07363916 0.040666714 -0.14900771 0.07060839
0.029225558 0.02338463 -0.00158979 -0.08197562 -0.024239391 0.14988063 0.06801033 -0.10391039
-0.041560203 -0.026596844 0.13337831 0.03799385 -0.03386172 -0.14223012 0.10264094 0.0656794
0.09509955 -0.048274845 0.015929267 0.009652466 0.14945583 -0.05007489 0.014955306 -0.049882893
-0.106254 -0.11104761 0.08813955 0.09923504 0.0031317624 0.019366637 -0.16765541 0.041129723
-0.12391579 0.084929794 -0.107766256 0.044277027 -0.06910013 -0.08712339 0.098009124 0.0405822
0.055968463 0.0723056 -0.024574077 0.03653999 -0.11843514 -0.11061292 0.123848796 -0.1281847
-0.09492959 -0.1674151 0.016221479 0.07847595 -0.166271 -0.118345864 -0.15642138 0.10721688
0.029235175 -0.03355992 0.04612978 -0.112243354 -0.0016970336 -0.13216676 0.081606 -0.102538474
0.0099687455 -0.0015788376 -0.08041437 0.12592004 0.07639488 -0.01718022 -0.012642133 0.02927138
-0.10281275 0.12659262 0.10666327 0.035093293 0.03646765 -0.033201925 0.06975645 0.07276536
-0.11003014 -0.17847255 -0.011261955 0.08929116 -0.0866723 -0.15446618 -0.19386643 0.099787086
0.0905861 0.07162413 -0.02146934 0.0090611875 -0.06714121 0.0046102256 -0.042918827 0.11107878
-0.12038499 0.14881323 0.056972783 0.12015225 0.0074997246 0.07435842 -0.118483335 -0.03213357
-0.14582379 -0.13940476 -0.014441758 0.046337456 -0.072652 0.0595306 -0.09867538 0.15291871
-0.13119331 -0.046492085 -0.021356553 0.07178221 -0.11898519 0.06846997 0.0429758 0.035639428
0.044437822 -0.08276601 0.09347646 -0.08950033 -0.03861166 0.006599278 0.028228657 -0.1390838
0.04892414 0.07001854 0.09531678 -0.0580002 0.06389824 -0.056074202 0.0074475133 -0.13894455
0.13751118 0.08496408 -0.11979103 0.103333786 -0.008032024 0.034259617 -0.08457006 0.12877734
0.047727138 -0.15221418 -0.07136013 0.12470783 0.06380072 -0.019711554 -0.06586212 0.12220083
0.07108936 0.15090142 0.040638745 -0.053420916 -0.0020207316 -0.1220153 0.1469052 0.025920182
-0.101278156 0.068059 0.1390812 0.04122381 0.105384484 -0.06093254 -0.14552177 -0.110110685
-0.03749547 0.00022189319 0.11779155 -0.03686197 0.07713832 0.0662051 0.10242741 -0.09859963
-0.13255435 0.010749534 -0.09392786 -0.07843405 0.038778916 0.11219971 -0.138284 0.10132845
-0.020303652 0.09992118 0.072904766 -0.148841 -0.0172752 0.07767901 0.15051146 0.03685637

hidden_layers.3.bias f4 [40]
00000000: d4cd 18be 15fb 15be 9d8c ef3c cd2a 9b3c
00000010: 71ea e13c 60a9 97bb 9491 43bd b9f2 1abe
00000020: 9026 3f3c 37bc 0f3b f8ae 153d 0994 d33d
00000030: 49d4 70bd 39ce 1d3c 6dcb 12be d8a2 f93d
00000040: 1016 d43c b220 09be 745e 913d 0dab ac3d
00000050: 44ba 1abe bec3 783d a991 983d 733a c0bb
00000060: e0d4 cdbd 20f4 b33d b3cb d23d f161 f5bc
00000070: d5cc 19be 15b1 ca3b 891c 933d 4554 d33c
00000080: 1dd5 8fbd 35be d7bd e59a 013d 52b7 ab3d
00000090: 3c80 37bc 23fe 3d3e 0b50 a7bd b80c 8a3c
-0.14922267 -0.14646561 0.029241854 0.018941307 0.02757761 -0.0046283454 -0.047746256 -0.15131654
0.011666909 0.0021932253 0.036543816 0.1033097 -0.0587962 0.009631687 -0.14335413 0.12189263
0.025889426 -0.13391379 0.07098094 0.08431063 -0.15110117 0.06073355 0.074496575 -0.0058663427
-0.10050368 0.087867975 0.10292759 -0.029953929 -0.15019543 0.0061856606 0.07183177 0.025797019
-0.0702307 -0.10534326 0.03164186 0.08384575 -0.011200007 0.18553977 -0.08169564 0.016851768

output_layer1.weight f4 [2, 40]
00000000: a703 143e 0ecf de3d 0213 1abd 9a93 993c
00000010: d142 d33d 9b13 1e3e 80d0 683c 009d cdbb
00000020: 98b3 013d a2a3 50bb b614 303e 1a5d 2b3e
00000030: 6ee5 fbbd c7a5 b2bc 8e0b f73d 932f 0ebe
00000040: 8671 c03d 0060 c5b8 a6d1 cebd c87f a33c
00000050: e1fa c8bd e077 d4bc 6012 3ebd 8ef3 2bbd
00000060: 8403 cebd b833 6c3c 0868 133d b5a8 8a3d
00000070: 2c26 943d 78d8 0fbe 8781 2c3e 1dc8 893d
00000080: 3486 463c a6ee f53d c214 133d 2d2b 273e
00000090: c302 8d3d 32a1 08bd 6465 6f3d 7865 99bd
000000a0: 50ee 91bc 23cf dcbd c2b9 923c 80f1 a9bd
000000b0: e58c 983d 4efa bb3d a068 783c 10ee 96bd
000000c0: b0cb 95bc e96b 843d 1462 fb3d f5da e53d
000000d0: 1d26 c73d f767 f13d b2be edbd dab3 65bc
000000e0: 3d3a abbd c0db d23b ac84 adbd cb30 f63c
000000f0: 9d33 203e d678 e7bc 4d01 023e c92b bfbd
00000100: e570 8fbc 3782 d73d 973e bd3d b765 b9bd
00000110: 0c91 1dbe 86db 87bd e8c4 ff3d 9c64 04bd
00000120: 8740 63bd 58ab 4a3d 7798 5ebd 7b6b 9cbd
00000130: 7a71 ccbd 7e38 c7bd 17e9 1d3e a206 933d
0.14454518 0.10879336 -0.037615784 0.01874714 0.103154786 0.15437166 0.0142098665 -0.0062748194
0.031665415 -0.0031835814 0.171954 0.16734734 -0.122996196 -0.021807564 0.12062751 -0.13885336
0.09396653 -9.4115734e-05 -0.10098581 0.019958392 -0.09813476 -0.025936067 -0.046404243 -0.04198032
-0.10059264 0.014416628 0.035987884 0.067704596 0.07233843 -0.1404742 0.16846286 0.06727622
0.012116957 0.12008409 0.035908468 0.16325064 0.068852924 -0.033356853 0.058446303 -0.07490057
-0.017813832 -0.10781696 0.017910842 -0.082980156 0.074487485 0.09178601 0.015161663 -0.073696256
-0.018285602 0.06465895 0.12274566 0.11223403 0.097240664 0.11787408 -0.11608638 -0.014019931
-0.083607174 0.0064348876 -0.08472571 0.030052563 0.15644689 -0.028255861 0.12695809 -0.09334523
-0.017509887 0.105228834 0.09240454 -0.09052604 -0.15387362 -0.06633668 0.12488729 -0.03232251
-0.05548146 0.049479812 -0.05434462 -0.07637688 -0.099825814 -0.09727572 0.15420948 0.071789995

output_layer1.bias f4 [2]
00000000: 9028 bebd e5bd 083b
-0.092850804 0.002086514

output_layer2.weight f4 [1, 40]
00000000: 3835 5dbd 06eb 1dbe ad34 25bd 1d5b fcbd
00000010: 6458 e8bc c0ca 183c 800e 1ebc 38a8 cebc
00000020: e8ca aa3c 9968 d33c b689 c73d 656c aabd
00000030: df18 13be e126 cebd c047 583d 4b87 a53d
00000040: 3766 203e 8caf 973d c7c6 e93d 7605 c6bd
00000050: 38d2 b13c b5ed 573d 37ec c8bd 848b 87bc
00000060: 530a c8bd 05e8 84bd dd74 e3bd fe8b f6bd
00000070: 5955 0f3e 2869 943d 8a11 afbd 0510 ac3b
00000080: 817d ac3c bac6 ac3d e502 31bd 7448 343e
00000090: c523 cebd a71d 2a3e 4261 0bbe a8a1 86bc
-0.05400583 -0.15421686 -0.04033344 -0.12322066 -0.02836246 0.009325683 -0.009647012 -0.025226697
0.020848706 0.025806712 0.09743063 -0.08321456 -0.14364956 -0.10066009 0.0528028 0.08082446
0.15663992 0.0740653 0.11414867 -0.0966901 0.021706685 0.05271693 -0.098106794 -0.016546018
-0.09767594 -0.06489567 -0.11106274 -0.1203842 0.13997401 0.072466195 -0.08548267 0.005250933
0.021055939 0.084363416 -0.04321565 0.17605764 -0.10065416 0.16612874 -0.1361132 -0.016434506
