src/models/prediction_58.pt (torch, 38168 bytes, 13 tensors)

input_layer.weight f4 [40, 40]
0	0x3c9ef455	0.019403616
1	0xbe05afbf	-0.13055323
2	0xbdea05b4	-0.11426869
3	0xbd63bd37	-0.05560037
4	0xbde92d5c	-0.11385605
5	0xbcb509e5	-0.022099445
6	0xbcf518ea	-0.029919107
7	0x3dfc1bdc	0.12310001
8	0xbd1a0c49	-0.037609372
9	0x3c34465b	0.011003102
10	0xbd35ab41	-0.044352774
11	0xbe0d83e8	-0.1381985
12	0x3ce10309	0.027467268
13	0xbde5eae8	-0.112264454
14	0x3e18fbba	0.14939776
15	0x3e089491	0.13337924
16	0xbcdf92cb	-0.027291676
17	0xbe25dd30	-0.16197658
18	0x3d302997	0.043008413
19	0xbd1155c4	-0.035482183
20	0x3d23acd1	0.039959732
21	0xbdcf2bee	-0.10115801
22	0x3dc3099f	0.095233195
23	0x3de8b8c3	0.113633655
24	0xbd130d52	-0.035901375
25	0x3e10fd64	0.14159161
26	0xbcc426bd	-0.023944253
27	0x3e2034e3	0.15645175
28	0x3dd1b804	0.10240176
29	0x3cf242a5	0.029572794
30	0xbe378b28	-0.17924178
31	0xbe32e23f	-0.17469119
32	0xbe057687	-0.13033496
33	0xbe368118	-0.17822683
34	0xbc8b2ea2	-0.01699001
35	0x3e33f1de	0.17572734
36	0xbd941da4	-0.07232216
37	0x3cdbd2d8	0.026833937
38	0xbdef2b81	-0.116782196
39	0xbd1ddb3b	-0.038539153
40	0x3d82a02e	0.06378208
41	0xbc24c140	-0.01005584
42	0x3dceacc2	0.10091545
43	0x3e12fcdd	0.14354272
44	0x3d36bf64	0.044616118
45	0x3d6f56d0	0.0584324
46	0xbd4ea5e6	-0.05045118
47	0x3c3ab5c0	0.011395872
48	0x3e19a289	0.15003408
49	0xbe15d3b8	-0.14631546
50	0x3d6f9204	0.05848886
51	0xbd844ad1	-0.064595826
52	0x3d92623a	0.071476415
53	0x3c004c70	0.007830724
54	0x3c813850	0.015773922
55	0x3d99fa58	0.075184524
56	0x3c3f05a0	0.011659056
57	0xbdb36479	-0.08759398
58	0xbe0f21ea	-0.13977781
59	0xbe0b8f5a	-0.13628903
60	0xbd74a752	-0.05972988
61	0xbd9c1972	-0.07622041
62	0xbd57848e	-0.05261665
63	0x3e04257d	0.12904926
64	0xbcf89708	-0.030345455
65	0x3e1dd749	0.15414156
66	0x3ca9d7c0	0.02073276
67	0xbdc32def	-0.095302455
68	0xbddccace	-0.107808694
69	0x3c45d340	0.012074292
70	0x3dc60c66	0.096703336
71	0xbd811387	-0.06302553
72	0x3d6230e8	0.055222422
73	0x3d8b7aac	0.06810507
74	0x3d9ab9a2	0.07554938
75	0x3d2a13f0	0.04152292
76	0x3e11cfbb	0.14239399
77	0x3d9300d0	0.07177889
78	0xbe1e42b5	-0.15455134
79	0xbdb1ad48	-0.08675629
80	0xbddc6acd	-0.10762558
81	0xbda35876	-0.07975857
82	0x3da2bf82	0.079466835
83	0xbbc7d075	-0.006097848
84	0x3def8d5b	0.11696883
85	0xbd276c58	-0.04087481
86	0x3d6595ed	0.056051183
87	0xbe140b6c	-0.14457482
88	0xbe0b506a	-0.13604894
89	0x3d5b3b9b	0.05352364
90	0x3e21402d	0.15747137
91	0x3cb7dace	0.022443201
92	0x3e22ca6a	0.15897527
93	0xbdf09ab0	-0.11748254
94	0xbe0bd872	-0.13656786
95	0x3cd9fd70	0.026610106
96	0x3cc1a69d	0.023639018
97	0xbd808c85	-0.06276802
98	0xbd65c6ec	-0.05609791
99	0x3e19a132	0.15002897
100	0xbddc6a3a	-0.107624486
101	0xbdbb95d5	-0.091594376
102	0xbb8801a9	-0.0041505885
103	0x3e21e789	0.1581098
104	0x3baaa3bb	0.0052075065
105	0xbdd21bb3	-0.102591895
106	0x3d744b79	0.05964229
107	0xbd77be3c	-0.060484156
108	0xbdb4683d	-0.088089444
109	0xbe11d1d3	-0.14240198
110	0x3dbec232	0.093143836
111	0x3e091a8a	0.1338903
112	0xbd11121c	-0.03541766
113	0xbd80ba44	-0.06285527
114	0x3dba4734	0.09095612
115	0x3c747c88	0.014922269
116	0xbdd4ae51	-0.10384811
117	0xbc802a36	-0.015645128
118	0x3d4f6b94	0.050639704
119	0x3d22d269	0.039751444
120	0xbe194279	-0.14966764
121	0x3dffce62	0.12490536
122	0xbdd29412	-0.102821484
123	0x3dd9e02e	0.10638462
124	0x3cc2de58	0.023787662
125	0xbde2dee5	-0.1107767
126	0xbdf4578d	-0.119307615
127	0xbd5f9a0c	-0.05459027
128	0x3d3bfbac	0.04589431
129	0xbd8bd9d3	-0.06828656
130	0x3e1265b5	0.1429661
131	0x3e0ce8f7	0.13760744
132	0x3e196511	0.1497996
133	0xbd526baa	-0.051372208
134	0xbdd3c190	-0.103396535
135	0xbdae4990	-0.08510125
136	0xbd7b192e	-0.06130331
137	0x3e0e4075	0.13891776
138	0x3c214f20	0.009845525
139	0x3dc095d2	0.09403576
140	0x3e00cfd3	0.12579279
141	0xbe0bb98c	-0.13645
142	0xbe12d8f7	-0.14340578
143	0x3dd9cb22	0.10634448
144	0x3dfc586a	0.12321551
145	0xbbede700	-0.0072602034
146	0x3d72c7f0	0.059272707
147	0xbc918c38	-0.017767057
148	0x3c855198	0.016274258
149	0xbd65dc0e	-0.056118064
150	0x3e126b6b	0.14298789
151	0xbc6a0080	-0.014282346
152	0xbb4b7280	-0.003104359
153	0x3dd3a74a	0.10334642
154	0xbe10a4a4	-0.14125305
155	0x3d32b4e4	0.043629542
156	0x3bc4db80	0.0060076118
157	0xbd90fc21	-0.0707934
158	0x3d57ca48	0.052683145
159	0x3dbc9dda	0.09209795
160	0x3db0a48b	0.08625134
161	0x3c2242e8	0.009903647
162	0x3e175faa	0.14782587
163	0xbe23e182	-0.16003993
164	0xbdef143b	-0.116737805
165	0xbd84e6f8	-0.06489366
166	0xbdc34342	-0.09534313
167	0xbdd22898	-0.10261649
168	0x3ba6221c	0.005069984
169	0x3cca29ab	0.024678072
170	0xbc8807c4	-0.016605265
171	0x3db649c8	0.089007914
172	0xbc4c8adf	-0.012484281
173	0x3cce6418	0.025194213
174	0xbcf4399f	-0.029812632
175	0xbe11ae16	-0.14226565
176	0x3d23a854	0.039955452
177	0x3d07a314	0.033114508
178	0x3e1f9e0f	0.15587638
179	0x3d931de0	0.071834326
180	0x3e18bd86	0.14916047
181	0x3db06205	0.08612446
182	0x3e0f71a1	0.1400819
183	0x3c2dada6	0.010600483
184	0xbe1a20d0	-0.1505158
185	0x3d928919	0.071550556
186	0xbd363d43	-0.044492017
187	0x3df537e5	0.11973552
188	0x3e0e8440	0.13917637
189	0xbe18256b	-0.14858024
190	0xbe1f09db	-0.15531103
191	0xbe0e0666	-0.13869628
192	0xbd8b74d7	-0.06809395
193	0x3d9a2621	0.07526804
194	0xbd136b16	-0.035990797
195	0x3da369af	0.07979142
196	0xbdb5611a	-0.08856411
197	0x3c2fab7a	0.010722036
198	0x3d6e5a20	0.05819142
199	0xbdbc1d02	-0.0918522
200	0xbd83f319	-0.064428516
201	0xbdb225f9	-0.08698649
202	0x3c5361ca	0.012901733
203	0x3db43cdc	0.088006705
204	0x3b530f96	0.0032205335
205	0xbd56884b	-0.052376073
206	0x3dd5a238	0.104313314
207	0x3da6fb8b	0.08153447
208	0x3e352566	0.17690048
209	0xbd0a7fb5	-0.033813197
210	0xbda83763	-0.08213689
211	0xbdcd95a8	-0.1003831
212	0xbdbe48ef	-0.09291255
213	0xbc8648b3	-0.016392088
214	0xbdb22857	-0.086991005
215	0xbe3ca3e1	-0.1842189
216	0x3c1540de	0.009109704
217	0xbd3a2547	-0.045445707
218	0xbdeeab88	-0.11653811
219	0xbd559255	-0.052141506
220	0x3dc9bdf5	0.098506846
221	0xbd796b01	-0.060893063
222	0x3dc9786c	0.09837422
223	0xbd2b7b66	-0.04186573
224	0x3e047e34	0.12938768
225	0xbcda6b9f	-0.026662646
226	0x3e4018eb	0.18759505
227	0x3d4f0046	0.05053737
228	0xbdafaa6a	-0.08577426
229	0x3d24abd0	0.040202916
230	0x3d980544	0.07422879
231	0x3beb2ccc	0.007176971
232	0xbd0faf87	-0.035079505
233	0xbd8e5a0a	-0.06950767
234	0xbce7d2b4	-0.028298713
235	0x3e423a07	0.18967448
236	0x3dcf8c33	0.10134163
237	0x3d8c6820	0.06855798
238	0x3e40257c	0.18764299
239	0xbe050684	-0.12990767
240	0x3d7bc2b4	0.06146498
241	0xbdd23e8c	-0.10265836
242	0xbd9f8070	-0.077881694
243	0xbdbf7fe7	-0.09350567
244	0xbd86e94a	-0.06587465
245	0x3d066484	0.032810703
246	0x3dc68eb2	0.09695186
247	0x3e0fe7cb	0.14053266
248	0x3cdf89e0	0.027287424
249	0x3d8badf8	0.06820291
250	0xbe17b88d	-0.14816494
251	0xbe0cc883	-0.13748364
252	0xbe134aaa	-0.14383951
253	0xbd54d25a	-0.05195842
254	0x3de3c532	0.111215964
255	0x3d7efea4	0.062254563

input_layer.bias f4 [40]
0	0x3dc7f368	0.09763223
1	0xbd73a6be	-0.05948519
2	0x3d7a4add	0.06110655
3	0xbe15e768	-0.14639056
4	0x3dfae771	0.12251175
5	0x3e256002	0.16149905
6	0xbe1344e9	-0.14381756
7	0xbcac63be	-0.021043655
8	0x3d2facbd	0.042889345
9	0x3e1371cf	0.14398883
10	0x3d42c921	0.047555093
11	0x3e1b0f98	0.15142667
12	0x3e13f409	0.14448561
13	0x3cb95861	0.02262515
14	0x3e22b5e3	0.15889697
15	0xbcdd193a	-0.026989568
16	0xbe0c8c08	-0.13725293
17	0x3e0115a4	0.12605911
18	0x3e246a07	0.16056071
19	0xbdc31b96	-0.09526746
20	0x3e059010	0.13043237
21	0x3de24ba1	0.11049581
22	0x3db18a48	0.08668953
23	0x3dfc50f8	0.12320131
24	0x3d5d45f7	0.0540218
25	0xbc3695d0	-0.0111441165
26	0xbd0831e1	-0.033250693
27	0xbceb7290	-0.028741151
28	0xbc83c524	-0.016085215
29	0x3d214ff4	0.03938289
30	0x3dc57f8c	0.09643468
31	0xbd37983d	-0.04482292
32	0xbe0a3557	-0.1349691
33	0xbc24ddda	-0.010062659
34	0xbdf763ef	-0.12079608
35	0x3dbc96a2	0.092084184
36	0xbd895a14	-0.06706634
37	0xbd153f08	-0.036437064
38	0x3da4d18e	0.08047782
39	0x3e1e4d22	0.15459111

hidden_layers.0.weight f4 [40, 40]
0	0x3e0126af	0.12612413
1	0x3cb475e8	0.022028878
2	0x3dfa590e	0.12224017
3	0xbd36bc68	-0.044613272
4	0xbd33d530	-0.043904483
5	0x3d0e3fbc	0.03472875
6	0x3dd823ce	0.10553704
7	0x3db285bc	0.08716914
8	0x3c3f5d70	0.011679992
9	0xbd07c6de	-0.03314864
10	0x3dbaba6e	0.0911759
11	0x3c334f10	0.010944143
12	0xbc019180	-0.007908225
13	0x3a62f000	0.00086569786
14	0xbddc9822	-0.107712045
15	0x3d8241fe	0.06360243
16	0xbd6f4d86	-0.05842354
17	0xbe037e55	-0.1284116
18	0xbe094ccc	-0.13408202
19	0x3d620f70	0.055190504
20	0xbdf3c194	-0.119021565
21	0x3de9208e	0.113831624
22	0xbd9061b0	-0.070498824
23	0x3d24ee64	0.04026641
24	0xbc02a190	-0.00797309
25	0xbe168347	-0.14698516
26	0x3d9b6f86	0.07589631
27	0x3e1b3c9d	0.15159841
28	0x3d82e2da	0.06390925
29	0x3da236aa	0.079205826
30	0xbe01114d	-0.12604256
31	0xbdb3553c	-0.087564915
32	0x3d425034	0.04743977
33	0x3d0128a8	0.031532913
34	0x3e0b667b	0.13613312
35	0xbc980850	-0.018558651
36	0x3d1583f8	0.03650281
37	0x3dd72b8a	0.10506351
38	0x3de296e2	0.11063935
39	0x3dd214ee	0.10257898
40	0x3e092b3a	0.13395396
41	0xbde23e87	-0.110470824
42	0xbde9a474	-0.1140832
43	0xbe1c6e8f	-0.1527655
44	0x3cb75535	0.022379497
45	0xbd3b7a3e	-0.045770876
46	0xbe0a2122	-0.13489202
47	0xbd0f36ed	-0.03496449
48	0x3d3b3f00	0.04571438
49	0xbce6c2b7	-0.02816902
50	0xbd2e9186	-0.04261925
51	0xbd947dbc	-0.072505444
52	0x3e156705	0.1459008
53	0xbd380268	-0.04492417
54	0xbe273f74	-0.16332799
55	0xbdd6ec8c	-0.104943365
56	0x3df73e3e	0.12072419
57	0xbdfa5644	-0.12223485
58	0x3dcc2c1d	0.099693514
59	0xbdc5f218	-0.09665316
60	0x3b6f0768	0.003647292
61	0x3e13bf28	0.14428389
62	0x3cb53f69	0.022124963
63	0xbba5481d	-0.005043997
64	0xbdf223a8	-0.11823207
65	0xbc91ddc8	-0.017805949
66	0xbc1f2880	-0.009714246
67	0x3cf3ebb8	0.029775485
68	0xbe15ede6	-0.14641532
69	0x3de0dec7	0.109799914
70	0x3d3e8ef6	0.046523057
71	0x3e1174d3	0.14204721
72	0xbdad5efe	-0.08465384
73	0xbde977d7	-0.11399811
74	0xbd47d3e8	-0.048786074
75	0xbdc7c247	-0.09753852
76	0x3dfc6086	0.12323098
77	0xbd95d5e5	-0.07316188
78	0x3d11cc72	0.035595365
79	0x3db70f33	0.08938446
80	0x3d3786cd	0.04480629
81	0xbd25eba2	-0.04050792
82	0x3d69157c	0.056905255
83	0x3c03dd90	0.00804843
84	0x3dd187c6	0.10230975
85	0xbc4fb01e	-0.012676267
86	0x3c10e520	0.00884369
87	0xbbba2280	-0.0056803823
88	0xbdfaaa22	-0.122394815
89	0xbe28fae7	-0.16501962
90	0x3e1b9bbf	0.15196131
91	0x3dbfb292	0.093602315
92	0x3e0a8f81	0.13531305
93	0xbe0cda49	-0.13755144
94	0xbdf3b978	-0.1190061
95	0x3e113953	0.14182024
96	0x3c25dd9c	0.010123637
97	0x3d9e3a17	0.077259235
98	0x3d5573c8	0.05211237
99	0xbe1f41d8	-0.15552461
100	0x3bf8ec92	0.0075965608
101	0x3cc29b10	0.02375558
102	0xbadaf15c	-0.0016704011
103	0x3d4a4b70	0.04938835
104	0xbd604b93	-0.054759573
105	0xbd24499a	-0.040109254
106	0xbcc5a693	-0.02412728
107	0xbbce0500	-0.006287217
108	0xbe005277	-0.12531458
109	0x3d212370	0.039340436
110	0x3dd0bdd5	0.101924576
111	0xbb7e3b74	-0.003879276
112	0x3dd41b1a	0.10356732
113	0xbd4d1858	-0.050072044
114	0x3d4c6f95	0.0499111
115	0xbc36e466	-0.011162853
116	0xbd3b581c	-0.045738325
117	0xbd210f00	-0.039320946
118	0xbd2b7c46	-0.041866563
119	0xbca77d6e	-0.020445552
120	0x3e323900	0.17404556
121	0xbd39231c	-0.0451995
122	0x3da1e493	0.07904925
123	0x3d319990	0.04335934
124	0xbc977711	-0.018489392
125	0x3d28c06f	0.041199144
126	0x3c2d01d0	0.010559514
127	0xbdfe73b5	-0.12424413
128	0x3d357074	0.044296697
129	0x3de78003	0.11303713
130	0x3d124f85	0.035720367
131	0xbda34324	-0.079717904
132	0x3dc51ba1	0.096244104
133	0x3c1b7432	0.009488152
134	0xbd2a2aa3	-0.041544568
135	0xbde9b19e	-0.11410831
136	0x3e176ad6	0.14786848
137	0x3e42696f	0.18985532
138	0xbd10e889	-0.035378013
139	0x3c1ce161	0.009575219
140	0x3dc34c6c	0.09536061
141	0x3cb9d223	0.022683209
142	0x3e0b98c8	0.136325
143	0x3e24c6ac	0.16091412
144	0x3d4a1e80	0.049345493
145	0x3d903472	0.07041253
146	0x3dfaae51	0.122402795
147	0xbc684230	-0.014175937
148	0x3d90f9f2	0.07078923
149	0xbd8c273a	-0.068434194
150	0x3de6a2c0	0.11261511
151	0xbcdb4c9a	-0.026769925
152	0xbd71fe9e	-0.059080712
153	0x3d90afd0	0.070647836
154	0xbdc450ce	-0.09585725
155	0x3d34f395	0.04417761
156	0x3d1bfabc	0.038080916
157	0x3da47f96	0.080321476
158	0x3daadab6	0.08342497
159	0x3e4310fd	0.1904945
160	0x3d17b0df	0.03703391
161	0xbde1981d	-0.110153414
162	0xbe19c65c	-0.15017074
163	0x3d7fbb90	0.062434733
164	0x3e0f3961	0.13986732
165	0xbe04ee54	-0.1298154
166	0xbbc8ed00	-0.006131768
167	0x3d57d959	0.052697513
168	0x3dd6ddca	0.10491522
169	0xbe277aae	-0.16355392
170	0xbdff75af	-0.12473618
171	0xbd7a600a	-0.061126746
172	0xbe27df1e	-0.16393706
173	0xbdee57b4	-0.11637822
174	0x3da1eb37	0.07906192
175	0x3e100689	0.14064993
176	0xbe028496	-0.1274589
177	0xbd21d666	-0.039511107
178	0x3cb1c369	0.021699624
179	0xbd79b960	-0.060967803
180	0x3bd30656	0.0064399643
181	0xbe0f689c	-0.14004749
182	0x3dd55fee	0.10418688
183	0xbd940399	-0.07227249
184	0x3cf9be7c	0.030486338
185	0xba208400	-0.0006123185
186	0xbdc2ad4a	-0.095057085
187	0xbcb77378	-0.022393927
188	0xbdebbea2	-0.1151097
189	0x3d8690d9	0.06570596
190	0xbd88c045	-0.066772975
191	0x3da89566	0.082316205
192	0x3d17db54	0.037074402
193	0x3d07b267	0.033129122
194	0xbd78b39a	-0.060718156
195	0xbd0882f3	-0.033328008
196	0xbe0fff75	-0.14062293
197	0xbda15fa4	-0.0787957
198	0x3e0354d1	0.12825324
199	0x3da804a4	0.0820401
200	0x3c1b1ebc	0.009467777
201	0xbd2a39c4	-0.041558996
202	0xbc925cc6	-0.017866503
203	0x3cae4438	0.021272764
204	0xbdfe073c	-0.124037236
205	0xbd4d9108	-0.05018714
206	0x39d5de00	0.0004079193
207	0x3e393377	0.18086039
208	0x3c8f9c38	0.017530546
209	0xbc953a99	-0.018216418
210	0x3c8952a1	0.016763033
211	0xbca6e1f3	-0.020371413
212	0xb9e5f93f	-0.00043863987
213	0xbdcbfb13	-0.09959998
214	0x3d3dc0a9	0.046326313
215	0xbbd88fc2	-0.006608934
216	0x3e058747	0.13039885
217	0x3ca3eb15	0.020009557
218	0xbd0b047f	-0.033939835
219	0xbdeecc12	-0.11660017
220	0x3daad2d7	0.08340996
221	0x3d4ffa8f	0.05077606
222	0xbe00269c	-0.12514728
223	0x3dfd6e7a	0.12374587
224	0x3cee31f7	0.02907656
225	0x3cccb9f8	0.02499102
226	0xbd1e356e	-0.038625173
227	0xbd5a08c6	-0.053231023
228	0xbd8691ea	-0.065708
229	0xbe0a8f8b	-0.1353132
230	0x3bb8d785	0.0056409263
231	0x3dfe6cbe	0.12423085
232	0xbdbaad9b	-0.09115144
233	0x3dcecb28	0.10097343
234	0x3e173500	0.14766312
235	0x3e09d671	0.13460709
236	0xbd383206	-0.04496958
237	0xbda8f83c	-0.08250472
238	0xbde6bc72	-0.11266412
239	0x3e305d04	0.17222983
240	0x3d7d0890	0.061775744
241	0xbd622ac6	-0.055216573
242	0x3d96ddb2	0.07366504
243	0x3d4d5714	0.050131872
244	0xbd083b52	-0.033259697
245	0xbcf85130	-0.03031215
246	0xbe1a189d	-0.15048452
247	0x3deca65a	0.115551665
248	0xbc2d5bc0	-0.010580957
249	0x3e0a87f9	0.13528432
250	0xbc8f6d00	-0.01750803
251	0xbd74b4aa	-0.059742607
252	0xbc705b50	-0.014670208
253	0xbe195136	-0.14972386
254	0x3cead530	0.028666109
255	0x3d1dea34	0.03855343

hidden_layers.0.bias f4 [40]
0	0xbdfb8617	-0.12281435
1	0xbd11610a	-0.035492934
2	0xbda0274e	-0.07819997
3	0x3e1f3220	0.15546465
4	0xbaf426f8	-0.0018627336
5	0x3e3da479	0.18519773
6	0xbb9e6c80	-0.0048347116
7	0xbdcf5b96	-0.101248905
8	0xbdb75e41	-0.089535244
9	0x3d4455f0	0.04793352
10	0xbcc6e31a	-0.024278212
11	0x3e0b8a01	0.13626863
12	0xba5c3564	-0.000840029
13	0x3cbf5372	0.02335522
14	0xbd1fccd3	-0.039013695
15	0x396447eb	0.00021770566
16	0xbc5d4710	-0.013505712
17	0x3e0493a7	0.1294695
18	0x3d02e1a1	0.031953458
19	0x3e212a2d	0.15738745
20	0xbd1af702	-0.03783322
21	0xbc83a4f6	-0.01606987
22	0x3c207529	0.009793558
23	0xbd4a99d6	-0.049463116
24	0xbd3fe9a4	-0.046853676
25	0x3d28e0c0	0.041229963
26	0xbd6fa84d	-0.058510114
27	0xbd8208a8	-0.06349307
28	0x3e0f7957	0.14011131
29	0xbe12a81f	-0.14321946
30	0xbe0f4612	-0.13991573
31	0xbcfa1198	-0.030525967
32	0xbe152f2a	-0.14568773
33	0x3da100f6	0.078615114
34	0x3dc77fc2	0.09741165
35	0x3dd6c273	0.10486307
36	0x3cc500bf	0.024048207
37	0x3e0421bd	0.12903495
38	0x3e1a5fdc	0.1507563
39	0x3e28497f	0.16434287

hidden_layers.1.weight f4 [40, 40]
0	0xbaef4a80	-0.0018256456
1	0xbdec6e4d	-0.11544476
2	0xbdccb522	-0.09995486
3	0x3d43442d	0.04767244
4	0xbdcb876a	-0.099379376
5	0x3d91706c	0.07101521
6	0xbe048575	-0.12941535
7	0xbde0e794	-0.1098167
8	0x3c86bcf8	0.01644753
9	0xbc7328d0	-0.014841273
10	0x3da0215b	0.07818862
11	0xbdea985a	-0.1145484
12	0xbd0e5d49	-0.034756932
13	0x3dd8b096	0.10580556
14	0xbce7d5ea	-0.028300244
15	0x3d3acc16	0.045604788
16	0x3e0e7571	0.13911988
17	0x3e070a2d	0.13187476
18	0x3e0351e7	0.12824212
19	0xbd63371f	-0.05547249
20	0x3b86e760	0.0041169375
21	0xbdc64a0c	-0.09682092
22	0x3d940289	0.07227046
23	0xbb67ef40	-0.0035390407
24	0x3dde2c0a	0.108482435
25	0x3d7f33d5	0.06230529
26	0x3e0516c8	0.12996972
27	0xbdf2ec72	-0.118615046
28	0x3e0597c3	0.13046174
29	0x3d896bfa	0.06710048
30	0x3dd51622	0.10404612
31	0x3d1218d1	0.035668198
32	0xbde7c244	-0.1131635
33	0xba60eb69	-0.0008580001
34	0x3c8fd9c8	0.0175599
35	0xbdba22d5	-0.09088675
36	0xbdb1bc14	-0.08678451
37	0xbe19c5a8	-0.15016806
38	0x3d58a66b	0.052893084
39	0x3d3d01b8	0.046144217
40	0x3c899d48	0.01679863
41	0xbe2397b0	-0.15975833
42	0xbdca03b4	-0.098639876
43	0x3d75aaa9	0.059977207
44	0xbddc6cec	-0.10762963
45	0x3d9f057c	0.07764718
46	0x3e046ca5	0.1293207
47	0x3d500984	0.050790325
48	0xbdb83285	-0.08994011
49	0xbce99dc0	-0.028517604
50	0x3e111ef4	0.14171964
51	0xbdba2270	-0.090886
52	0xbe1f3c88	-0.15550435
53	0x3c0a90cd	0.008457375
54	0x3dced656	0.10099475
55	0xbe2401ea	-0.16016355
56	0xbde2252e	-0.11042248
57	0xbe1556fc	-0.14583963
58	0x3de5250a	0.11188705
59	0x3bd8e0ef	0.006618611
60	0x3db6b933	0.08922043
61	0xbe172348	-0.14759552
62	0x3c72d5e7	0.014821506
63	0xbc335b80	-0.010947108
64	0xbe02ef0e	-0.12786505
65	0xbdbee0c2	-0.09320213
66	0x3d07632f	0.033053573
67	0x3d1ed36c	0.038775846
68	0x3e0a8a37	0.13529287
69	0xbd48e2a4	-0.049044266
70	0x3d666024	0.05624403
71	0x3cec1dec	0.028822862
72	0xbd93e9fb	-0.072223626
73	0xbc16d52a	-0.009206096
74	0xbd58fcf0	-0.052975595
75	0xbdedcfd8	-0.11611909
76	0x3d82aff2	0.06381215
77	0xbded07de	-0.11573766
78	0xbdce539b	-0.1007454
79	0xbda62b33	-0.08113708
80	0xbd1304b8	-0.035893172
81	0xbdc145fc	-0.094371766
82	0x3df101b2	0.117679015
83	0x3caf6880	0.021412134
84	0xbc001bb0	-0.007819101
85	0x3e01d779	0.12679853
86	0x3df11ada	0.117727
87	0x3cd00d68	0.025397018
88	0x3d88d786	0.06681733
89	0xbdd9d1e0	-0.106357336
90	0xbc1468f0	-0.009058222
91	0x3dd5b2fe	0.10434531
92	0xbdd81253	-0.1055037
93	0xbc9b5d48	-0.018965378
94	0x3de8972e	0.1135696
95	0x3e0f6487	0.14003192
96	0xbe0abdae	-0.1354892
97	0xbdbdee34	-0.09273949
98	0x3de756ce	0.112958536
99	0xbe184e0f	-0.14873527
100	0x3d492db8	0.049115866
101	0x3e18185f	0.14853047
102	0x3cda1420	0.026620924
103	0x3d6c4eb4	0.057692245
104	0xbe1a53d1	-0.15071036
105	0xbe166b86	-0.14689454
106	0x3de8d95a	0.113695815
107	0x3d9f8d62	0.077906385
108	0xbd194938	-0.037423342
109	0x3e120ad3	0.14261942
110	0x3de2afbe	0.110686764
111	0xbd9dd441	-0.077065
112	0xbcd61eb8	-0.026137695
113	0x3c022db0	0.007945463
114	0xbdfa2e82	-0.12215902
115	0x3e09e807	0.13467418
116	0xbd884da9	-0.066554375
117	0xbdc4ad50	-0.09603369
118	0x3dc7634e	0.09735738
119	0xbe035f6a	-0.12829366
120	0x3af1d500	0.001845032
121	0x3df78abe	0.1208701
122	0x3d8fba32	0.07017936
123	0xbdec7c28	-0.115471184
124	0xbdb3c8b8	-0.087785184
125	0xbd8a04c0	-0.06739187
126	0xbe210161	-0.15723182
127	0xbb858f00	-0.004075885
128	0x3d1dfbf4	0.03857036
129	0x3d45f900	0.048333168
130	0xbc9edb28	-0.019391611
131	0x3d1bb334	0.0380127
132	0xbd787cb6	-0.06066581
133	0x3c131940	0.008978188
134	0x3df7c05a	0.12097235
135	0x3d66563c	0.056234583
136	0x3d2d3cc4	0.04229428
137	0x3c147850	0.009061888
138	0xbb20adc0	-0.0024517626
139	0xbdf80b7a	-0.12111564
140	0x3dc02422	0.09381892
141	0x3d66ab34	0.056315616
142	0xbd1b74b6	-0.0379531
143	0xbdea8f1c	-0.11453077
144	0xbe0a9dac	-0.1353671
145	0x3e028427	0.12745725
146	0xbcd09178	-0.02545999
147	0x3cb3fb10	0.021970302
148	0x3d5641a0	0.05230868
149	0xbd463b44	-0.048396364
150	0xbc7541b0	-0.014969274
151	0xbcb31658	-0.02186124
152	0x3c534e40	0.012897074
153	0x3e11c93f	0.14236926
154	0xbb81e860	-0.003964469
155	0xbd0d030a	-0.034426726
156	0x3db8c2e0	0.090215445
157	0xbc9fa590	-0.019488126
158	0x3b8c6000	0.004283905
159	0xbe0698b6	-0.13144192
160	0x3c9fb768	0.019496635
161	0x3e098423	0.13429312
162	0xbe2708d6	-0.16311964
163	0xbcacc9a6	-0.021092247
164	0x3db9b94a	0.09068544
165	0x3e05c65d	0.13063951
166	0x3bf59ca0	0.007495478
167	0xbd3261d2	-0.04355032
168	0xbd6781ce	-0.056520276
169	0x3dc1e386	0.09467225
170	0x3dddf1d6	0.10837142
171	0xbe05ba7e	-0.13059422
172	0x3d2df45c	0.042469367
173	0x3dbbf958	0.09178418
174	0x3d36bb74	0.044612363
175	0xbd875312	-0.06607641
176	0x3d44d458	0.04805407
177	0xbe177953	-0.14792375
178	0xbdf87d81	-0.12133313
179	0xbd2130a1	-0.039353017
180	0x3c40d922	0.0117705185
181	0x3d8678a6	0.065659806
182	0x3dda1376	0.10648243
183	0xbdd8603a	-0.10565229
184	0xbd17e2c6	-0.037081502
185	0x3dd2008e	0.10254012
186	0x3dde585d	0.10856698
187	0x3e1d0b69	0.15336384
188	0x3e040e9a	0.12896195
189	0xbd8ff5d2	-0.070293084
190	0xbe0a1dbd	-0.13487907
191	0x3dca1cb5	0.09868757
192	0x3e005bd1	0.12535025
193	0x3d48198a	0.04885248
194	0x3dba15ae	0.09086166
195	0xbba81e95	-0.005130599
196	0xbda620cf	-0.081117265
197	0x3d9fdaa4	0.07805374
198	0x3dfe8162	0.124270216
199	0x3d1a83f3	0.037723493
200	0xbc561e00	-0.013068676
201	0x3dc58f47	0.096464686
202	0x3d6ede28	0.058317333
203	0xbdedb1d2	-0.11606182
204	0x3ded18f7	0.11577027
205	0xbd90d40e	-0.07071696
206	0xbde271ca	-0.1105686
207	0xbdc5478a	-0.096327856
208	0x3caf7b70	0.021421164
209	0x3e11d51b	0.1424145
210	0xbe00d631	-0.12581708
211	0xbe116ca7	-0.14201604
212	0xbd754e02	-0.059888847
213	0xbd80fd26	-0.06298284
214	0x3e03a6b2	0.12856558
215	0xbdd2a9e2	-0.10286309
216	0x3dea8186	0.11450486
217	0x3c82104b	0.01587691
218	0x3ddea96f	0.10872161
219	0xbe05569d	-0.13021322
220	0xbe25fd43	-0.16209893
221	0xbd84a6f7	-0.064771585
222	0xbd5dc67e	-0.054144375
223	0xbdf24c20	-0.11830926
224	0x3e018f07	0.12652217
225	0xbd1b6028	-0.0379335
226	0x3dcbb10a	0.09945877
227	0x3de33422	0.11093928
228	0x3e0a0ae1	0.13480712
229	0xbe13d0de	-0.14435145
230	0xbd8ae17f	-0.06781291
231	0xbdefe9ad	-0.11714492
232	0xbd854dd4	-0.06508985
233	0x3e08cf33	0.1336029
234	0x3d91aadd	0.07112668
235	0x3d45c493	0.04828317
236	0xbe199b48	-0.15000641
237	0xbe086f5c	-0.1332373
238	0x3d6cf996	0.05785521
239	0xbdf8f680	-0.12156391
240	0xbe0445cf	-0.12917255
241	0xbdc23221	-0.094822176
242	0x3d199dc0	0.037503958
243	0xbc167390	-0.009182826
244	0x3d3e0d5c	0.04639946
245	0x3da24ea8	0.07925159
246	0xbd7d35d4	-0.061818913
247	0x3a244400	0.00062662363
248	0x3d8d40ba	0.06897111
249	0x3d88115a	0.066439345
250	0x3da2a3a0	0.07941365
251	0x3c19b540	0.009381592
252	0xbe1c4cc6	-0.15263662
253	0x3aefd080	0.0018296391
254	0x3da73d7a	0.081660226
255	0xbd70b51c	-0.05876647

hidden_layers.1.bias f4 [40]
0	0xbd548f55	-0.051894505
1	0x3d59ddda	0.05319009
2	0xbdbd4a7f	-0.092427246
3	0x3c1562b0	0.009117767
4	0xbe24acb8	-0.16081512
5	0x3ddcb4fb	0.10776707
6	0xbe053d3e	-0.13011643
7	0xbdde1b76	-0.108450815
8	0xbe12c63f	-0.14333437
9	0x3cc88beb	0.02448078
10	0x3d28d942	0.04122282
11	0xbddc8027	-0.107666306
12	0xbd85c022	-0.06530787
13	0x3d069fa1	0.032867078
14	0xbde45969	-0.11149866
15	0xbcdf61ab	-0.027268251
16	0x3d9570b0	0.07296884
17	0x3ca60588	0.02026631
18	0x3dd99c13	0.10625472
19	0x3d645e33	0.055753898
20	0xbdc59bd3	-0.09648862
21	0xbdfe4928	-0.12416297
22	0x3d9ddd0b	0.07708176
23	0xbda9472c	-0.08265528
24	0x3e3adc62	0.18248132
25	0xbdc5f252	-0.096653596
26	0x3d80221b	0.06256505
27	0xbdbb87a0	-0.09156728
28	0xbe169c9e	-0.14708182
29	0x3d34ca75	0.04413839
30	0x3da4cbbd	0.080466725
31	0xbd122916	-0.035683714
32	0xbd6d1429	-0.057880554
33	0x3e34607b	0.1761493
34	0x3d504a68	0.05085221
35	0xbda8c280	-0.08240223
36	0xbdec3502	-0.11533548
37	0x3ddaa341	0.106756695
38	0xbe0de114	-0.13855392
39	0xbe0bed64	-0.13664776

hidden_layers.2.weight f4 [40, 40]
0	0xbde9802a	-0.114013985
1	0x3da9e7da	0.08296175
2	0x3e0651d3	0.13117151
3	0x3c905a20	0.0176211
4	0x3dbc569a	0.091962054
5	0xbd8d9b74	-0.06914416
6	0xbe1765e6	-0.14784965
7	0x3d6a8d47	0.05726364
8	0xbe1f1ffc	-0.15539545
9	0x3dd9ff35	0.1064438
10	0x3e06ed39	0.13176431
11	0x3db47544	0.08811429
12	0x3dd5e4a2	0.10443999
13	0xbd91bd6d	-0.07116208
14	0x3da703da	0.081550315
15	0xbcc69455	-0.024240652
16	0x3dcc26ec	0.09968361
17	0x3c87b5f0	0.016566247
18	0x3d5e69d7	0.054300155
19	0xbd155579	-0.036458466
20	0xbe16788c	-0.14694422
21	0xbde6ec29	-0.11275513
22	0xbd41422a	-0.04718224
23	0x3e043673	0.12911396
24	0xbd27e898	-0.040993303
25	0x3dd1fe8e	0.102536306
26	0x3e00acb5	0.12565883
27	0x3dc0f122	0.094209924
28	0xbda753d0	-0.08170283
29	0xbe120adc	-0.14261955
30	0xbcdc6624	-0.026904173
31	0xbe0e8ede	-0.13921687
32	0x3dbbdb8c	0.091727346
33	0x3e1388be	0.14407632
34	0xbde17bb1	-0.110099204
35	0x3d6f52ca	0.058428563
36	0xbded727c	-0.11594102
37	0xbbabe8e6	-0.0052462695
38	0xbdf5c34b	-0.1200014
39	0xbcd2b3f5	-0.025720576
40	0x3e1f922f	0.15583108
41	0xbd5232ae	-0.051317863
42	0xbd850784	-0.06495574
43	0x3e089f29	0.13341965
44	0xbd8a3251	-0.06747878
45	0x3d9b0f68	0.07571298
46	0xbe0e7ea9	-0.13915505
47	0x3ce02190	0.027359754
48	0x3b89d600	0.004206419
49	0xbe1a31bd	-0.15058036
50	0xbd0b686a	-0.034035124
51	0xbe19063f	-0.14943789
52	0x3df98b96	0.12184827
53	0x3d6aecd4	0.057354763
54	0x3e00d28d	0.12580319
55	0x3d69891c	0.057015523
56	0x3c8d7ab0	0.017270416
57	0xbd32d14a	-0.043656625
58	0x3b511640	0.0031904131
59	0xbe01fd23	-0.1269422
60	0xbda38ea2	-0.079861894
61	0x3e142eed	0.14471026
62	0xbd75d6ae	-0.060019188
63	0x3cbf1830	0.023326963
64	0xbdbddf0e	-0.0927106
65	0xbdc1d8fb	-0.09465214
66	0x3deafd1e	0.114740595
67	0x3dfa5aea	0.12224372
68	0xbd1d8850	-0.038460076
69	0x3ddfa93e	0.10920952
70	0xbca1bfb8	-0.019744739
71	0x3ca82fc8	0.020530596
72	0xbced0f58	-0.02893798
73	0xbba5ee20	-0.005063787
74	0xbdc4a012	-0.096008435
75	0xbd78854a	-0.06067399
76	0xbd51df0a	-0.051238097
77	0x3d03d9f4	0.03219028
78	0xbe0513b6	-0.129958
79	0xbd8d9c8c	-0.069146246
80	0xbda81d51	-0.08208717
81	0x3d8e5f1a	0.06951733
82	0xbdc2baae	-0.095082626
83	0xbca8df30	-0.020614237
84	0x3d337031	0.043808166
85	0xbc85e3ba	-0.01634394
86	0xbd88796b	-0.06663784
87	0xbdd48f9f	-0.10378956
88	0x3c69ca50	0.014269426
89	0x3e1117f9	0.14169301
90	0xbe1918a8	-0.14950812
91	0x3d90508c	0.07046613
92	0xbe0ef445	-0.13960369
93	0xbe188104	-0.14892966
94	0x3d9e9b9a	0.077445224
95	0xbce5a770	-0.028033942
96	0x3e0dd6c3	0.13851456
97	0x3dddbd8e	0.1082717
98	0xbbbdc4be	-0.0057912758
99	0x3b24ebb0	0.0025164895
100	0x3d5e704f	0.054306325
101	0x3d17300b	0.03691105
102	0x3dcc7731	0.099836715
103	0xbce5ab00	-0.02803564
104	0x3caaf3bf	0.02086818
105	0xbe1c2961	-0.1525016
106	0x3c297080	0.0103417635
107	0x3c38d462	0.011281105
108	0x3ce19c35	0.027540306
109	0xbdd3f1c0	-0.103488445
110	0xbdb0a553	-0.08625283
111	0xbc6a214c	-0.014290165
112	0x3dad6fa5	0.0846856
113	0x3dd273d2	0.10275997
114	0x3ca7c5a8	0.020479992
115	0x3d8669cb	0.06563147
116	0x3e0e56e2	0.1390033
117	0xbd6e9253	-0.058245014
118	0xbe03e62b	-0.12880771
119	0xbde7ab4b	-0.113119684
120	0xbd211d40	-0.039334536
121	0xbc059440	-0.008153021
122	0xbe20d855	-0.15707524
123	0xbd7f7dc8	-0.062375814
124	0xbdfadf68	-0.122496426
125	0x3cca6d80	0.024710417
126	0xbe049a54	-0.12949497
127	0x3ccf23c0	0.025285602
128	0x3dccf776	0.10008137
129	0x3b22c5c0	0.0024837106
130	0xbb8b19c0	-0.004245013
131	0x3ddd8012	0.10815443
132	0x3da455fc	0.08024213
133	0x3d206034	0.039154246
134	0xbe02fb6c	-0.12791222
135	0x3e1a5a8f	0.15073608
136	0xbd6d5472	-0.05794186
137	0xbd0fdfaa	-0.035125412
138	0xbdba40e4	-0.09094408
139	0x3d855068	0.06509477
140	0xba8dc500	-0.0010816157
141	0x3d78c118	0.060731024
142	0xbd9206a8	-0.07130176
143	0xbdaf7a3b	-0.085682355
144	0x3d3ef8a8	0.046623856
145	0x3daf45a2	0.08558203
146	0x3e051ce9	0.1299931
147	0x3d4d8a10	0.050180495
148	0x3dcddbce	0.1005169
149	0x3b0e2c80	0.0021694005
150	0xbddca6ae	-0.10773979
151	0xbd9c63a1	-0.0763619
152	0xbe051a34	-0.12998277
153	0xbd2f2928	-0.04276386
154	0x3e20f8cf	0.15719913
155	0xbd4780cc	-0.048706815
156	0xbce7bef0	-0.028289288
157	0xba8d4200	-0.0010777116
158	0xbe138e52	-0.1440976
159	0xbcac8ef8	-0.021064267
160	0x3dab884e	0.083756074
161	0x3df60216	0.120121166
162	0xbe160c53	-0.14653139
163	0x3d4eeef4	0.050520852
164	0xbd80a84f	-0.06282102
165	0xbcd93c10	-0.026517898
166	0xbd203b8c	-0.03911929
167	0xbc39ec60	-0.01134786
168	0xbd047144	-0.03233458
169	0x3df29322	0.118444696
170	0xbdc489b2	-0.09596576
171	0xbe042485	-0.12904556
172	0xbd99b57a	-0.07505317
173	0x3d585cbc	0.052822813
174	0xbd1744cc	-0.036930844
175	0x3d28c3f4	0.0412025
176	0xbdd09432	-0.10184516
177	0xbdb0592e	-0.0861076
178	0x3d79d200	0.060991287
179	0xbc924a88	-0.017857805
180	0x3e007b49	0.1254703
181	0x3ddeacfe	0.108728394
182	0xbda8f871	-0.082505114
183	0xbca89d68	-0.02058287
184	0xbdb1f5bd	-0.08689449
185	0xbd5aa2e4	-0.053378
186	0x3e1bb4f9	0.15205754
187	0xbdf4850f	-0.119394414
188	0xbdee7b3d	-0.116445996
189	0x3cc83fd0	0.02444449
190	0x3da30450	0.07959807
191	0x3cc549c0	0.024083018
192	0xbd4eaaa4	-0.050455704
193	0xbe0cb0b2	-0.13739279
194	0xbddca674	-0.10773936
195	0xbc69a610	-0.014260784
196	0x3d34a058	0.04409823
197	0xbdd30542	-0.10303737
198	0xbc86a690	-0.016436845
199	0x3de953da	0.113929465
200	0xbd8ab971	-0.067736514
201	0xbdc6706c	-0.096894115
202	0xbd54f458	-0.051990837
203	0xbd8b5158	-0.068026245
204	0xbd805175	-0.06265537
205	0x3d1ddb6e	0.038539343
206	0xbe1096a3	-0.14119963
207	0x3de985c6	0.114024684
208	0x3cc04a88	0.02347304
209	0x3d13bd7d	0.036069382
210	0xbd56a0f3	-0.052399587
211	0xbdda95d3	-0.10673108
212	0xbcb42a88	-0.021992937
213	0x3dd5af47	0.10433822
214	0x3e1b0be1	0.1514125
215	0x3c9e89a8	0.019352749
216	0x3e2f8ed7	0.17144333
217	0x3e200611	0.15627314
218	0x3d9949c3	0.07484772
219	0xbd87026b	-0.06592258
220	0xbd5413d2	-0.051776715
221	0x3e00febc	0.12597173
222	0xbd69b288	-0.057055026
223	0x3e05606d	0.13025065
224	0x3d8105e6	0.06299953
225	0x3e000405	0.12501533
226	0xbd8d7191	-0.06906427
227	0x3cf5365c	0.029933147
228	0x3e1b1d4f	0.15147899
229	0x3d829cb4	0.06377545
230	0xbdf25994	-0.11833492
231	0xbdc3276a	-0.09529002
232	0xbde2dd76	-0.110773966
233	0xbdefd07e	-0.117096886
234	0x3da5cfbc	0.08096263
235	0x3e0999b1	0.13437535
236	0xbdefc54b	-0.117075525
237	0xbda3208d	-0.07965193
238	0x3bd29a40	0.0064270794
239	0xbdfc8ee6	-0.12331943
240	0xbdbd928b	-0.092564665
241	0xbdc7f36d	-0.09763227
242	0x3e0188c9	0.12649836
243	0x3c516df0	0.012782559
244	0xbda74658	-0.08167714
245	0xbd1b95b9	-0.037984584
246	0xbe015c04	-0.12632757
247	0xbb3a1ac9	-0.0028397313
248	0x3c342930	0.010996148
249	0x3da859ef	0.082202785
250	0x3db77a89	0.089589186
251	0xbc7203f8	-0.014771454
252	0x3dfa193e	0.12211846
253	0x3e0ca147	0.13733397
254	0xbbb10de0	-0.0054032654
255	0x3b711f72	0.0036792425

hidden_layers.2.bias f4 [40]
0	0xbd9607cf	-0.07325708
1	0xbe194a30	-0.14969707
2	0x3df4ef6c	0.119597286
3	0xbd80aecf	-0.06283342
4	0xbdd979e8	-0.10618955
5	0x3e4162d9	0.18885364
6	0x3da3cb33	0.079977416
7	0x3df6ed58	0.120569885
8	0x3d650657	0.05591425
9	0xbdfe3f02	-0.124143615
10	0xbded5beb	-0.115897976
11	0xbe136658	-0.1439451
12	0xbd4fb467	-0.050709154
13	0xbdc9c7ef	-0.098525874
14	0x3db15775	0.08659259
15	0xbd0cb7ea	-0.03435508
16	0xbda3bc0f	-0.07994854
17	0xbe1f179f	-0.15536354
18	0x3d1eb510	0.038746893
19	0x3df3c702	0.11903192
20	0x3e11b6e9	0.14229931
21	0x3d608fc8	0.05482462
22	0xbdf8fabd	-0.121571995
23	0x3de16c1d	0.11006949
24	0xbcb61b4a	-0.02222981
25	0x3de925e1	0.11384178
26	0x3e059966	0.13046798
27	0x3daee93e	0.08540581
28	0x3db1a2cd	0.0867363
29	0x3cba976b	0.02277728
30	0x3da46f3b	0.08029028
31	0x3e25ea3f	0.16202639
32	0x3c2c31e5	0.010509943
33	0x3d331b87	0.043727424
34	0xbd870ba6	-0.06594019
35	0xb97ac800	-0.00023916364
36	0x3d2c696a	0.04209272
37	0xbd9dba8f	-0.07701599
38	0x3dc25ec7	0.094907336
39	0x3da57cf3	0.08080473

hidden_layers.3.weight f4 [40, 40]
0	0x3e041d25	0.12901743
1	0xbdec2f39	-0.115324445
2	0x3dfcf29e	0.12350963
3	0x3dfb7b22	0.12279345
4	0x3e219fa1	0.1578355
5	0xbd82df7e	-0.06390284
6	0xbd0a9a84	-0.033838764
7	0xbe14696b	-0.14493339
8	0xbe1e46e9	-0.15456738
9	0xbe0fd36e	-0.14045498
10	0x3cf569f8	0.029957756
11	0xbca66d28	-0.020315722
12	0x3e1a9833	0.15097122
13	0x3db13c76	0.0865411
14	0x3cb3e470	0.021959513
15	0xbe07515a	-0.13214627
16	0x3d641214	0.055681303
17	0xbdf08038	-0.11743206
18	0x3d975dbe	0.07390927
19	0xbd917715	-0.07102791
20	0x3d452e38	0.04813978
21	0x3d5528a4	0.05204071
22	0x3c9aeec8	0.018912688
23	0xbb6107c0	-0.0034336895
24	0xbd819aa3	-0.06328323
25	0xbd8313a6	-0.06400232
26	0x3d8a8b44	0.06764844
27	0x3e13eed5	0.14446576
28	0xbdbb6b52	-0.09151329
29	0xbcf25f68	-0.029586509
30	0x3e0192e7	0.12653695
31	0x3dbe8cae	0.09304176
32	0xbdae41d8	-0.085086524
33	0xbdb81320	-0.08988023
34	0xbde2971a	-0.110639766
35	0xbd8bf8a8	-0.06834537
36	0xbe0d19cb	-0.1377937
37	0xbdfe356e	-0.12412535
38	0xbe12c2cb	-0.1433212
39	0x3d27a244	0.040926233
40	0x3dc974d2	0.09836735
41	0xbd827adf	-0.06371092
42	0x3e21c879	0.1579913
43	0xbe0e195c	-0.13876861
44	0xbe1d79b8	-0.15378463
45	0xbdf173bc	-0.11789653
46	0xbc8c9a20	-0.017163336
47	0xbd9117db	-0.07084628
48	0xbc644640	-0.0139327645
49	0x3d8b4b0e	0.06801425
50	0xbd5b88c4	-0.053597227
51	0xbcdfc700	-0.02731657
52	0x3e012ff1	0.12615944
53	0xbce21490	-0.027597696
54	0x3d3e7a68	0.046503454
55	0x3dd1e702	0.10249139
56	0x39706000	0.00022923946
57	0x3d1dc8b8	0.0385215
58	0x3e18889b	0.14895861
59	0xbe01faea	-0.12693372
60	0xbd96d021	-0.07363916
61	0x3d269224	0.040666714
62	0xbe18957a	-0.14900771
63	0x3d909b22	0.07060839
64	0x3cef6a70	0.029225558
65	0x3cbf9120	0.02338463
66	0xbad06080	-0.00158979
67	0xbda7e2d5	-0.08197562
68	0xbcc691b0	-0.024239391
69	0x3e197a4f	0.14988063
70	0x3d8b4900	0.06801033
71	0xbdd4cef8	-0.10391039
72	0xbd2a3b08	-0.041560203
73	0xbcd9e1a0	-0.026596844
74	0x3e089453	0.13337831
75	0x3d1b9f70	0.03799385
76	0xbd0ab296	-0.03386172
77	0xbe11a4c6	-0.14223012
78	0x3dd2356a	0.10264094
79	0x3d8682ec	0.0656794
80	0x3dc2c38e	0.09509955
81	0xbd45bbd8	-0.048274845
82	0x3c829e53	0.015944635
83	0x3c1e2560	0.009652466
84	0x3e190af3	0.14945583
85	0xbd4d0acf	-0.050059136
86	0x3c754a32	0.014971303
87	0xbd4c418d	-0.0498672
88	0xbdd99776	-0.10624592
89	0xbde36cee	-0.11104761
90	0x3db48282	0.08813955
91	0x3dcb3bbe	0.09923504
92	0x3b4dc60f	0.003139857
93	0x3c9ea6c8	0.019366637
94	0xbe2ba9e2	-0.16764024
95	0x3d2877a4	0.041129723
96	0xbdfdc790	-0.12391579
97	0x3dadefac	0.084929794
98	0xbddcb48e	-0.107766256
99	0x3d356be9	0.044292364
100	0xbd8d7c1e	-0.06908439
101	0xbdb26554	-0.08710733
102	0x3dc8b902	0.098009124
103	0x3d2648b1	0.040596668
104	0x3d653f30	0.055968463
105	0x3d941d1a	0.07232113
106	0xbcc93104	-0.024559505
107	0x3d15baeb	0.036555212
108	0xbdf285d0	-0.11841929
109	0xbde2820c	-0.11059961
110	0x3dfdacf0	0.12386501
111	0xbe033ed1	-0.12816931
112	0xbdc26466	-0.09491806
113	0xbe2b6aa7	-0.16739903
114	0x3c84e2e8	0.016221479
115	0x3da0b800	0.07847595
116	0xbe2a40b2	-0.16626242
117	0xbdf25f51	-0.118345864
118	0xbe2028c9	-0.15640558
119	0x3ddb9cb1	0.10723246
120	0x3cf04dbb	0.02933394
121	0xbd097620	-0.03355992
122	0x3d3d4945	0.046212453
123	0xbde5dfd8	-0.112243354
124	0xbade6f00	-0.0016970336
125	0xbe074090	-0.13208222
126	0x3da755fa	0.081706956
127	0xbdd1cada	-0.10243769
128	0x3c2375e0	0.009976834
129	0xbacef100	-0.0015788376
130	0xbda478d2	-0.08030857
131	0x3e00f12f	0.12592004
132	0x3d9c792c	0.07640299
133	0xbc8cbd88	-0.01718022
134	0xbc4e4d73	-0.0125917075
135	0x3cefca88	0.02927138
136	0xbdd28f7e	-0.10281275
137	0x3e01a17f	0.12659262
138	0x3dda7246	0.10666327
139	0x3d100638	0.03516218
140	0x3d15c4bd	0.036564577
141	0xbd078ca9	-0.03309313
142	0x3d8edc78	0.06975645
143	0x3d9514e8	0.07279378
144	0xbde11b0c	-0.10991487
145	0xbe36ae2e	-0.17839882
146	0xbc3813e1	-0.011235208
147	0x3db6ee6d	0.08932195
148	0xbdb14b1a	-0.086569026
149	0xbe1e2866	-0.15445098
150	0xbe466703	-0.19375233
151	0x3dcc86e2	0.09986664
152	0x3db9c3d7	0.090705566
153	0x3d92ede7	0.071742825
154	0xbcafe078	-0.02146934
155	0x3c147560	0.0090611875
156	0xbd897cd2	-0.06713261
157	0x3b971160	0.0046102256
158	0xbd2f5efe	-0.0428152
159	0x3de3a9bd	0.111163594
160	0xbdf68c68	-0.12038499
161	0x3e18627f	0.14881323
162	0x3d6981c8	0.057008535
163	0x3df61262	0.12015225
164	0x3bf5c040	0.0074997246
165	0x3d985dd6	0.07439773
166	0xbdf29118	-0.11844081
167	0xbd037388	-0.0320926
168	0xbe1550b9	-0.14581574
169	0xbe0ec01f	-0.13940476
170	0xbc6c9d20	-0.014441758
171	0x3d3dcc58	0.046337456
172	0xbd94c656	-0.07264392
173	0x3d73d65c	0.0595306
174	0xbdca04c4	-0.0986419
175	0x3e1c96b9	0.15291871
176	0xbe06578a	-0.13119331
177	0xbd3e6e7c	-0.046492085
178	0xbcaef3f0	-0.021356553
179	0x3d931543	0.0718179
180	0xbdf3992f	-0.11894452
181	0x3d8c516d	0.06851468
182	0x3d300764	0.0429758
183	0x3d1211c5	0.035661478
184	0x3d36244d	0.044468213
185	0xbda96d9e	-0.08272861
186	0x3dbf7dbd	0.093501545
187	0xbdb73cf3	-0.08947172
188	0xbd1dfc34	-0.038570598
189	0x3bd8bb11	0.006614097
190	0x3ce79fba	0.028274406
191	0xbe0e6283	-0.13904767
192	0x3d4893f6	0.04896923
193	0x3d8f7e52	0.070065156
194	0x3dc33572	0.09531678
195	0xbd6d919e	-0.0580002
196	0x3d82e190	0.06390679
197	0xbd65ae10	-0.056074202
198	0x3bf56e68	0.007489968
199	0xbe0e3d5d	-0.13890596
200	0x3e0ccfbb	0.13751118
201	0x3dae01a6	0.08496408
202	0xbdf55500	-0.11979103
203	0x3dd3a0aa	0.103333786
204	0xbc0398c0	-0.008032024
205	0x3d0c53d0	0.034259617
206	0xbdad3311	-0.08457006
207	0x3e03de35	0.12877734
208	0x3d437d88	0.047727138
209	0xbe1bde09	-0.15221418
210	0xbd922543	-0.07136013
211	0x3dff66d2	0.12470783
212	0x3d82a9f4	0.06380072
213	0xbca17a20	-0.019711554
214	0xbd86e2b8	-0.06586212
215	0x3dfa446e	0.12220083
216	0x3d91974c	0.07108936
217	0x3e1a85e7	0.15090142
218	0x3d2674d0	0.040638745
219	0xbd5acfe4	-0.053420916
220	0xbb046e40	-0.0020207316
221	0xbdf9e328	-0.1220153
222	0x3e166e51	0.1469052
223	0x3cd45690	0.025920182
224	0xbdcf6aec	-0.101278156
225	0x3d8b6284	0.068059
226	0x3e0e6b4d	0.1390812
227	0x3d28da4c	0.04122381
228	0x3dd7d3d2	0.105384484
229	0xbd799466	-0.06093254
230	0xbe1503a9	-0.14552177
231	0xbde181b6	-0.110110685
232	0xbd1994da	-0.03749547
233	0x3968ac00	0.00022189319
234	0x3df13cb2	0.11779155
235	0xbd16fc94	-0.03686197
236	0x3d9dfab2	0.07713832
237	0x3d87968a	0.0662051
238	0x3dd1c576	0.10242741
239	0xbdc9ee9a	-0.09859963
240	0xbe07bc54	-0.13255435
241	0x3c301ed0	0.010749534
242	0xbdc05d40	-0.09392786
243	0xbda0a208	-0.07843405
244	0x3d1ed6a4	0.038778916
245	0x3de5c8f6	0.11219971
246	0xbe0d9a52	-0.138284
247	0x3dcf854a	0.10132845
248	0xbca653d8	-0.020303652
249	0x3dcca37a	0.09992118
250	0x3d954f18	0.072904766
251	0xbe1869c6	-0.148841
252	0xbc8d84b8	-0.0172752
253	0x3d9f162c	0.07767901
254	0x3e1a1fad	0.15051146
255	0x3d16f6b4	0.03685637

hidden_layers.3.bias f4 [40]
0	0xbe18cdd4	-0.14922267
1	0xbe15fb15	-0.14646561
2	0x3cefad2f	0.029257385
3	0x3c9bce78	0.01901935
4	0x3ce2391f	0.027615128
5	0xbb97a960	-0.0046283454
6	0xbd439194	-0.047746256
7	0xbe1af2b9	-0.15131654
8	0x3c3f2690	0.011666909
9	0x3b63cae3	0.003475838
10	0x3d14f6a4	0.036368027
11	0x3dd3b51e	0.1033728
12	0xbd6f8a63	-0.058481585
13	0x3c1f648b	0.009728561
14	0xbe12cb6d	-0.14335413
15	0x3df95e51	0.121761926
16	0x3cd41610	0.025889426
17	0xbe0920b2	-0.13391379
18	0x3d910c00	0.07082367
19	0x3daccb27	0.08437186
20	0xbe1aba44	-0.15110117
21	0x3d77ff65	0.060546298
22	0x3d98a136	0.074526235
23	0xbbbfb9ba	-0.0058509978
24	0xbdcca439	-0.099922605
25	0x3db41000	0.08792114
26	0x3dd2dccb	0.10296019
27	0xbcf50420	-0.029909194
28	0xbe19ccd5	-0.15019543
29	0x3bc5e20c	0.00603891
30	0x3d9332be	0.07187413
31	0x3cd3ce4d	0.025855208
32	0xbd908355	-0.070562996
33	0xbdd7be35	-0.10534326
34	0x3d01c9d0	0.031686604
35	0x3dab5b3d	0.08367012
36	0xbc3633a8	-0.011120714
37	0x3e3dd3ff	0.18537901
38	0xbda7500b	-0.08169564
39	0x3c8a0cb8	0.016851768

output_layer1.weight f4 [2, 40]
0	0x3e1403a7	0.14454518
1	0x3ddecf0e	0.10879336
2	0xbd1a20b4	-0.037628844
3	0x3c9941f0	0.0187082
4	0x3dd33788	0.10313326
5	0x3e1e139b	0.15437166
6	0x3c68d080	0.0142098665
7	0xbbcd9d00	-0.0062748194
8	0x3d01b398	0.031665415
9	0xbbb42451	-0.0054974933
10	0x3e2f88f3	0.17142086
11	0x3e2b53ac	0.16731137
12	0xbdfc24a8	-0.12311679
13	0xbcb3019c	-0.021851353
14	0x3df70b8e	0.12062751
15	0xbe0ec50a	-0.13942352
16	0x3dc07186	0.09396653
17	0xb8c56000	-9.4115734e-05
18	0xbdcfe902	-0.101518646
19	0x3ca338fa	0.01992463
20	0xbdc8fae1	-0.09813476
21	0xbcd8b6c6	-0.02645434
22	0xbd3e2780	-0.04642439
23	0xbd2c0032	-0.041992374
24	0xbdd1bcb6	-0.10241072
25	0x3c6baa6b	0.0143838925
26	0x3d135258	0.0359672
27	0x3d8a9d74	0.06768313
28	0x3d94262c	0.07233843
29	0xbe105e6b	-0.14098518
30	0x3e2c7abc	0.16843694
31	0x3d89b4d0	0.0672394
32	0x3c433aed	0.0119159045
33	0x3df5eea6	0.12008409
34	0x3d12f6d1	0.035879914
35	0x3e26a242	0.16272834
36	0x3d8ceff4	0.06881705
37	0xbd0acd55	-0.033887226
38	0x3d6f6564	0.058446303
39	0xbd996578	-0.07490057
40	0xbc91ee50	-0.017813832
41	0xbddccf23	-0.10781696
42	0x3c92d525	0.0179239
43	0xbda9dd15	-0.08294121
44	0x3d98982e	0.07450901
45	0x3dbbfa4e	0.09178601
46	0x3c7868a0	0.015161663
47	0xbd96ee10	-0.073696256
48	0xbc95cbb0	-0.018285602
49	0x3d892911	0.06697286
50	0x3dfc799a	0.12327881
51	0x3de5edd2	0.11227001
52	0x3dc76557	0.09736126
53	0x3df17eec	0.117917866
54	0xbdedbeb2	-0.11608638
55	0xbc5c5c68	-0.013449766
56	0xbdab3a3d	-0.083607174
57	0x3bd2dbc0	0.0064348876
58	0xbdac6d50	-0.08419287
59	0x3cf67799	0.030086325
60	0x3e20339d	0.15644689
61	0xbce339f0	-0.027737588
62	0x3e020695	0.12697823
63	0xbdbf2577	-0.09333318
64	0xbc808c1e	-0.015691813
65	0x3dd79361	0.10526157
66	0x3dbd4970	0.09242523
67	0xbdb95a76	-0.09050457
68	0xbe1d910c	-0.15387362
69	0xbd86cf9f	-0.06582569
70	0x3dffd27f	0.12491321
71	0xbd043e04	-0.032285705
72	0xbd626db5	-0.055280406
73	0x3d4aab58	0.049479812
74	0xbd5e7a86	-0.054316066
75	0xbd9b59a4	-0.07585457
76	0xbdcc5eab	-0.09978994
77	0xbdc6226d	-0.09674535
78	0x3e1de917	0.15420948
79	0x3d9306a2	0.071789995

output_layer1.bias f4 [2]
0	0xbdbf05c4	-0.093272716
1	0x3b246472	0.0025084284

output_layer2.weight f4 [1, 40]
0	0xbd5d3538	-0.05400583
1	0xbe1deb06	-0.15421686
2	0xbd25428c	-0.040346667
3	0xbdfc74f7	-0.12326997
4	0xbce889a4	-0.028385945
5	0x3c18cac0	0.009325683
6	0xbc1e0e80	-0.009647012
7	0xbccea838	-0.025226697
8	0x3caacae8	0.020848706
9	0x3cc7c7cb	0.02438726
10	0x3dc71d1f	0.09722351
11	0xbdaa833f	-0.083258145
12	0xbe132604	-0.1436997
13	0xbdce552d	-0.1007484
14	0x3d5847c0	0.0528028
15	0x3da52e59	0.08065481
16	0x3e206637	0.15663992
17	0x3d97af8c	0.0740653
18	0x3de95d73	0.11394777
19	0xbdc61a61	-0.09673
20	0x3cb1d238	0.021706685
21	0x3d573b96	0.05254706
22	0xbdc8f757	-0.09812801
23	0xbc87a4d4	-0.016558088
24	0xbdc9fae8	-0.0986231
25	0xbd84fb7d	-0.0649328
26	0xbde38062	-0.111084715
27	0xbdf699bc	-0.12041041
28	0x3e0f5559	0.13997401
29	0x3d94053f	0.07227563
30	0xbdaf209f	-0.08551144
31	0x3ba9a169	0.0051767123
32	0x3cac84ca	0.021059413
33	0x3dacc6ba	0.084363416
34	0xbd312449	-0.043247495
35	0x3e341793	0.17587118
36	0xbdce3b2b	-0.10069879
37	0x3e29ec99	0.16594161
38	0xbe0b6142	-0.1361132
39	0xbc86a1a8	-0.016434506
