src/models/prediction_71.pt (torch, 38168 bytes, 13 tensors)

input_layer.weight f4 [40, 40]
000000 d0 3c a2 3c fb 3b 06 be c4 d6 ea bd a3 92 61 bd
       0.019804388 -0.13108818 -0.114667445 -0.055071484
000010 4e 35 e9 bd 70 d3 b8 bc 80 64 f0 bc bb 6e fd 3d
       -0.1138712 -0.022561759 -0.029344797 0.12374636
000020 b7 40 1d bd 63 2c 29 3c 8d ee 32 bd 06 0b 0d be
       -0.038391795 0.010325524 -0.04368453 -0.13773736
000030 b0 47 e5 3c 9c 94 e4 bd 68 75 18 3e 42 25 09 3e
       0.027988285 -0.111611575 0.14888537 0.13393119
000040 7e 5d e1 bc 5e 69 25 be db b4 2f 3d 51 1e 0f bd
       -0.0275104 -0.16153476 0.042897087 -0.03494102
000050 82 7c 25 3d ec 0a ce bd 48 e8 c3 3d 8c bb e9 3d
       0.040401943 -0.10060677 0.095657885 0.11412725
000060 5c 79 11 bd 48 81 11 3e 03 de bb bc 4f 7b 21 3e
       -0.035516128 0.14209473 -0.022933012 0.15769695
000070 cc 71 d0 3d bc 24 ee 3c cf ff 36 be 00 f7 32 be
       0.10177955 0.02907025 -0.1787102 -0.17477036
000080 51 37 06 be 30 c9 35 be 3c 99 86 bc ef fa 34 3e
       -0.13107039 -0.17752528 -0.01643049 0.17673849
000090 70 be 93 bd 42 dd e0 3c a4 30 f0 bd 31 ab 1c bd
       -0.072140574 0.027449254 -0.117280275 -0.0382492
0000a0 2e a0 82 3d 40 c1 24 bc c2 ac ce 3d dd fc 12 3e
       0.06378208 -0.01005584 0.10091545 0.14354272
0000b0 64 bf 36 3d d0 56 6f 3d e6 a5 4e bd c0 b5 3a 3c
       0.044616118 0.0584324 -0.05045118 0.011395872
0000c0 89 a2 19 3e b8 d3 15 be 04 92 6f 3d d1 4a 84 bd
       0.15003408 -0.14631546 0.05848886 -0.064595826
0000d0 3a 62 92 3d 70 4c 00 3c 50 38 81 3c 58 fa 99 3d
       0.071476415 0.007830724 0.015773922 0.075184524
0000e0 a0 05 3f 3c 79 64 b3 bd ea 21 0f be 5a 8f 0b be
       0.011659056 -0.08759398 -0.13977781 -0.13628903
0000f0 52 a7 74 bd 72 19 9c bd 8e 84 57 bd 7d 25 04 3e
       -0.05972988 -0.07622041 -0.05261665 0.12904926
000100 08 97 f8 bc 49 d7 1d 3e c0 d7 a9 3c ef 2d c3 bd
       -0.030345455 0.15414156 0.02073276 -0.095302455
000110 ce ca dc bd 40 d3 45 3c 66 0c c6 3d 87 13 81 bd
       -0.107808694 0.012074292 0.096703336 -0.06302553
000120 e8 30 62 3d ac 7a 8b 3d a2 b9 9a 3d f0 13 2a 3d
       0.055222422 0.06810507 0.07554938 0.04152292
000130 bb cf 11 3e d0 00 93 3d b5 42 1e be 48 ad b1 bd
       0.14239399 0.07177889 -0.15455134 -0.08675629
000140 bf 5b dc bd 85 67 a3 bd 76 b0 a2 3d 2a e0 c6 bb
       -0.10759687 -0.07978729 0.079438135 -0.006069203
000150 47 7e ef 3d 7d 8a 27 bd 14 b4 65 3d e5 03 14 be
       0.11694007 -0.040903557 0.05607994 -0.1445461
000160 f7 57 0b be a0 1d 5b 3d b4 47 21 3e 12 17 b8 3c
       -0.13607775 0.05349505 0.15750009 0.022471938
000170 f1 d1 22 3e e1 a1 f0 bd f9 df 0b be be 39 da 3c
       0.15900399 -0.11749626 -0.13659658 0.026638862
000180 ab e2 c1 3c 75 7d 80 bd 0e e5 65 bd b9 a8 19 3e
       0.023667654 -0.06273929 -0.056126647 0.15005769
000190 45 79 dc bd c1 86 bb bd 76 10 87 bb 10 ef 21 3e
       -0.10765318 -0.09156562 -0.0041218353 0.15813851
0001a0 e8 c8 a9 3b c6 2a d2 bd 5d 2d 74 3d 38 dc 77 bd
       0.0051814206 -0.10262065 0.059613574 -0.06051275
0001b0 56 77 b4 bd 5a d9 11 be 3e d1 be 3d 11 22 09 3e
       -0.08811824 -0.1424307 0.093172535 0.13391902
0001c0 ff f3 10 bd 40 ab 80 bd 48 56 ba 3d ae 04 74 3c
       -0.035388943 -0.06282663 0.09098488 0.014893694
0001d0 5f bd d4 bd 66 66 80 bc 6f 4d 4f 3d 8c f0 22 3d
       -0.10387682 -0.015673827 0.050610956 0.039780185
0001e0 79 42 19 be 62 ce ff 3d 12 94 d2 bd 2e e0 d9 3d
       -0.14966764 0.12490536 -0.102821484 0.10638462
0001f0 58 de c2 3c e5 de e2 bd 8d 57 f4 bd 0c 9a 5f bd
       0.023787662 -0.1107767 -0.119307615 -0.05459027
000200 ac fb 3b 3d d3 d9 8b bd b5 65 12 3e f7 e8 0c 3e
       0.04589431 -0.06828656 0.1429661 0.13760744
000210 11 65 19 3e aa 6b 52 bd 90 c1 d3 bd 90 49 ae bd
       0.1497996 -0.051372208 -0.103396535 -0.08510125
000220 2e 19 7b bd 75 40 0e 3e 20 4f 21 3c d2 95 c0 3d
       -0.06130331 0.13891776 0.009845525 0.09403576
000230 d3 cf 00 3e 8c b9 0b be f7 d8 12 be 22 cb d9 3d
       0.12579279 -0.13645 -0.14340578 0.10634448
000240 6a 58 fc 3d 00 e7 ed bb f0 c7 72 3d 38 8c 91 bc
       0.12321551 -0.0072602034 0.059272707 -0.017767057
000250 98 51 85 3c 0e dc 65 bd 6b 6b 12 3e 80 00 6a bc
       0.016274258 -0.056118064 0.14298789 -0.014282346
000260 80 72 4b bb 4a a7 d3 3d a4 a4 10 be e4 b4 32 3d
       -0.003104359 0.10334642 -0.14125305 0.043629542
000270 80 db c4 3b 21 fc 90 bd 48 ca 57 3d da 9d bc 3d
       0.0060076118 -0.0707934 0.052683145 0.09209795
000280 29 af b1 3d ce 12 18 3c ae db 16 3e fc 3a 23 be
       0.08675987 0.009281827 0.14732239 -0.1594047
000290 38 4f ef bd bf 0a 86 bd 7f ed c1 bd a1 b1 d0 bd
       -0.11685032 -0.065450184 -0.09469127 -0.1019013
0002a0 33 01 8a 3b b2 07 c4 3c 78 d1 81 bc d6 72 b7 3d
       0.0042115687 0.02392945 -0.015846953 0.0895745
0002b0 c0 86 42 bc 40 42 d4 3c 34 24 f9 bc dc 09 11 be
       -0.011872947 0.025910497 -0.03041277 -0.14163917
0002c0 42 c0 22 3d 6b da 09 3d 44 68 1f 3e f7 62 94 3d
       0.039734133 0.033655565 0.15567118 0.072454385
0002d0 75 30 19 3e f1 b2 b1 3d ba fb 0f 3e 6f cc 37 3c
       0.14959891 0.086767085 0.1406087 0.011218174
0002e0 14 b1 19 be c2 ed 93 3d 6d b6 31 bd e7 f6 f7 3d
       -0.15008956 0.07223083 -0.043386865 0.1210764
0002f0 51 ce 0d 3e c1 bf 18 be da 64 1e be 9a 0a 0e be
       0.13848235 -0.14916898 -0.1546816 -0.13871232
000300 b7 22 8d bd df b8 9b 3d 86 c5 10 bd cc db a5 3d
       -0.06891387 0.07603621 -0.035344623 0.080985636
000310 ee 2d b5 bd 10 ae 3b 3c 04 f1 6b 3d e0 4b bb bd
       -0.08846651 0.011455074 0.057602897 -0.091453314
000320 4e 31 83 bd fb 2d b3 bd c6 6c 4d 3c ab 38 b5 3d
       -0.064058885 -0.087490045 0.012538141 0.08848699
000330 6f b0 52 3b af 4a 58 bd 1a bc d6 3d 3d 39 a8 3d
       0.003214862 -0.0528056 0.10485096 0.08214042
000340 f4 64 34 3e f7 17 0d bd b7 f1 a6 bd 9f b5 cc bd
       0.17616636 -0.034446683 -0.08151572 -0.09995579
000350 aa 49 bd bd 7c 41 81 bc d9 23 b3 bd 53 1c 3c be
       -0.09242566 -0.015778296 -0.08747072 -0.1837018
000360 4d 51 11 3c c2 76 38 bd 80 dc ee bd f1 83 53 bd
       0.008869481 -0.04503513 -0.11663151 -0.0516395
000370 bd 89 ca 3d b7 4f 77 bd ce 44 ca 3d f0 9c 29 bd
       0.09889553 -0.060378756 0.09876405 -0.041409433
000380 92 de 04 3e 75 9f d6 bc c1 13 41 3e df d2 53 3d
       0.12975529 -0.026199082 0.18855192 0.051714774
000390 77 dd b0 bd 45 bd 22 3d 33 0b 99 3d ef 52 e8 3b
       -0.08635991 0.039731283 0.07472839 0.0070899646
0003a0 6e 6b 12 bd 4b 00 8d bd d0 8d e3 bc 75 35 43 3e
       -0.035746984 -0.068848215 -0.027777582 0.19063361
0003b0 aa f2 cf 3d 93 8c 8d 3d f8 ab 3f 3e 44 c1 04 be
       0.10153706 0.06911578 0.18717945 -0.1296435
0003c0 b4 c2 7b 3d 8c 3e d2 bd 70 80 9f bd e7 7f bf bd
       0.06146498 -0.10265836 -0.077881694 -0.09350567
0003d0 4a e9 86 bd 84 64 06 3d b2 8e c6 3d cb e7 0f 3e
       -0.06587465 0.032810703 0.09695186 0.14053266
0003e0 e0 89 df 3c f8 ad 8b 3d 8d b8 17 be 83 c8 0c be
       0.027287424 0.06820291 -0.14816494 -0.13748364
0003f0 aa 4a 13 be 5a d2 54 bd 32 c5 e3 3d a4 fe 7e 3d
       -0.14383951 -0.05195842 0.111215964 0.062254563

input_layer.bias f4 [40]
000000 b5 05 c8 3d be a6 73 bd be 2c 7a 3d 68 e7 15 be
       0.097667135 -0.05948519 0.061077826 -0.14639056
000010 eb be fa 3d 2a 6e 25 3e e9 44 13 be 21 a5 ad bc
       0.12243446 0.16155306 -0.14381756 -0.021196904
000020 04 43 25 3d 04 a5 13 3e 3a 61 42 3d 50 d2 1a 3e
       0.040347114 0.14418417 0.047456004 0.1511929
000030 01 1b 14 3e 2f c6 b9 3c 30 c9 22 3e e9 1a e0 bc
       0.14463426 0.02267751 0.1589706 -0.027356582
000040 3c 5e 0e be 86 1f 01 3e 52 7a 24 3e d2 89 c9 bd
       -0.13903135 0.12609681 0.16062286 -0.0984074
000050 57 81 05 3e 97 fa e1 3d b4 8c b1 3d b9 4b fc 3d
       0.1303762 0.11034124 0.08669415 0.123191305
000060 26 91 5c 3d d0 95 36 bc e5 37 0b bd 90 72 eb bc
       0.05384936 -0.0111441165 -0.033988852 -0.028741151
000070 da 5a 85 bc 79 ea 20 3d 22 c8 c5 3d 1a b3 39 bd
       -0.016278673 0.03928611 0.09657313 -0.04533682
000080 57 35 0a be 3d a8 25 bc 35 bc f6 bd 40 ac bc 3d
       -0.1349691 -0.010110912 -0.120476164 0.092125416
000090 14 5a 89 bd 08 3f 15 bd 65 d8 a4 3d eb 72 1e 3e
       -0.06706634 -0.036437064 0.080490865 0.15473525

hidden_layers.0.weight f4 [40, 40]
000000 af 26 01 3e e8 75 b4 3c 0e 59 fa 3d 68 bc 36 bd
       0.12612413 0.022028878 0.12224017 -0.044613272
000010 30 d5 33 bd bc 3f 0e 3d ce 23 d8 3d bc 85 b2 3d
       -0.043904483 0.03472875 0.10553704 0.08716914
000020 70 5d 3f 3c de c6 07 bd 6e ba ba 3d 10 4f 33 3c
       0.011679992 -0.03314864 0.0911759 0.010944143
000030 80 91 01 bc 00 f0 62 3a 22 98 dc bd fe 41 82 3d
       -0.007908225 0.00086569786 -0.107712045 0.06360243
000040 86 4d 6f bd 55 7e 03 be cc 4c 09 be 70 0f 62 3d
       -0.05842354 -0.1284116 -0.13408202 0.055190504
000050 94 c1 f3 bd 8e 20 e9 3d b0 61 90 bd 64 ee 24 3d
       -0.119021565 0.113831624 -0.070498824 0.04026641
000060 90 a1 02 bc 47 83 16 be 86 6f 9b 3d 9d 3c 1b 3e
       -0.00797309 -0.14698516 0.07589631 0.15159841
000070 da e2 82 3d aa 36 a2 3d 4d 11 01 be 3c 55 b3 bd
       0.06390925 0.079205826 -0.12604256 -0.087564915
000080 34 50 42 3d a8 28 01 3d 7b 66 0b 3e 50 08 98 bc
       0.04743977 0.031532913 0.13613312 -0.018558651
000090 f8 83 15 3d 8a 2b d7 3d e2 96 e2 3d ee 14 d2 3d
       0.03650281 0.10506351 0.11063935 0.10257898
0000a0 aa 24 09 3e 87 3e e2 bd 64 b0 e9 bd 8f 6e 1c be
       0.13392892 -0.110470824 -0.11410597 -0.1527655
0000b0 4c 1c b7 3c e6 94 3b bd 22 21 0a be 86 52 0f bd
       0.02235236 -0.045796297 -0.13489202 -0.03499081
0000c0 f5 2d 3b 3d 84 f7 e6 bc 86 91 2e bd 4b 8b 94 bd
       0.045698125 -0.028194197 -0.04261925 -0.072531305
0000d0 b1 60 15 3e 34 0e 38 bd d8 45 27 be 8c ec d6 bd
       0.14587666 -0.04493542 -0.16335237 -0.104943365
0000e0 3e 3e f7 3d 2e 63 fa bd fe 1e cc 3d 18 f2 c5 bd
       0.12072419 -0.12225948 0.09966849 -0.09665316
0000f0 76 77 6d 3b 0e b8 13 3e 1e 0d b5 3c 18 2c a6 bb
       0.0036234534 0.1442568 0.022100981 -0.0050711744
000100 fa 31 f2 bd c8 dd 91 bc 80 28 1f bc b8 eb f3 3c
       -0.118259385 -0.017805949 -0.009714246 0.029775485
000110 e6 ed 15 be 3a d1 e0 3d ee 75 3e 3d d3 74 11 3e
       -0.14641532 0.10977407 0.046499185 0.14204721
000120 fe 5e ad bd 16 69 e9 bd e8 d3 47 bd 43 cf c7 bd
       -0.08465384 -0.11396997 -0.048786074 -0.09756329
000130 86 60 fc 3d e5 d5 95 bd e7 b2 11 3d f0 01 b7 3d
       0.12323098 -0.07316188 0.035571005 0.089359164
000140 19 dd 35 3d a2 eb 25 bd 7c 15 69 3d 90 dd 03 3c
       0.04440031 -0.04050792 0.056905255 0.00804843
000150 24 b3 d0 3d e9 50 56 bc 20 e5 10 3c 80 22 ba bb
       0.10190418 -0.013080814 0.00884369 -0.0056803823
000160 22 aa fa bd b1 64 29 be bf 9b 1b 3e 9f e0 be 3d
       -0.122394815 -0.16542317 0.15196131 0.09320187
000170 09 26 0a 3e 3d 44 0d be 3e 8d f4 bd 7d dc 10 3e
       0.13491072 -0.13795562 -0.11941002 0.1414661
000180 f5 bd 1f 3c 93 65 9d 3d ff cc 53 3d d8 41 1f be
       0.009749879 0.07685389 0.05170917 -0.15552461
000190 d2 b7 eb 3b 10 9b c2 3c 87 d0 07 bb 70 4b 4a 3d
       0.007193544 0.02375558 -0.0020723657 0.04938835
0001a0 c6 f2 61 bd 9a 49 24 bd fa 1c c9 bc 00 05 ce bb
       -0.055163167 -0.040109254 -0.02454995 -0.006287217
0001b0 06 7b 00 be 70 23 21 3d bb e9 cf 3d 5f 7b 89 bb
       -0.1254693 0.039340436 0.101520024 -0.004195615
0001c0 1a 1b d4 3d f0 be 4e bd d9 c1 4a 3d 20 7f 3d bc
       0.10356732 -0.05047506 0.049501274 -0.0115659535
0001d0 1c 58 3b bd 00 0f 21 bd 18 21 2d bd 94 c8 aa bc
       -0.045738325 -0.039320946 -0.04226789 -0.020847596
0001e0 c5 ef 31 3e 1c 23 39 bd 81 f1 a1 3d 90 99 31 3d
       0.17376621 -0.0451995 0.07907391 0.04335934
0001f0 ea b3 98 bc 81 73 28 3d d0 01 2d 3c 56 37 fe bd
       -0.018640477 0.041125778 0.010559514 -0.12412898
000200 e8 20 1c 3d b7 21 e7 3d 89 b5 12 3d 65 52 a3 bd
       0.03811732 0.112857275 0.035817657 -0.079747
000210 88 9f c4 3d 38 30 14 3c b7 10 2b bd 23 40 ea bd
       0.09600741 0.009044699 -0.041763987 -0.11438014
000220 e4 67 16 3e ba 0e 42 3e 73 c3 11 bd cf b0 4f 3c
       0.14688069 0.1895093 -0.035586786 0.012676432
000230 fb e9 c2 3d 52 bb ba 3c 01 5c 0b 3e 35 e7 24 3e
       0.095172845 0.0227944 0.13609315 0.16103823
000240 98 ff 47 3d 72 34 90 3d 24 23 f9 3d 30 42 68 bc
       0.048827738 0.07041253 0.12164906 -0.014175937
000250 b5 75 91 3d 46 f3 8b bd 00 27 e6 3d 57 6d df bc
       0.07102529 -0.0683351 0.112379074 -0.027273817
000260 9e fe 71 bd 1b f5 8f 3d 21 0e c6 bd 14 1d 34 3d
       -0.059080712 0.07029172 -0.096706636 0.043973044
000270 bc fa 1b 3d 96 7f a4 3d 6a 90 aa 3d ef e8 42 3e
       0.038080916 0.080321476 0.08328326 0.1903417
000280 81 5d 17 3d 1d 98 e1 bd 5c c6 19 be 90 bb 7f 3d
       0.036954407 -0.110153414 -0.15017074 0.062434733
000290 bc 2d 0f 3e d5 fb 04 be 00 ed c8 bb c6 c3 57 3d
       0.1398229 -0.12986691 -0.006131768 0.05267694
0002a0 ca dd d6 3d b7 89 27 be 40 a5 ff bd e3 99 7a bd
       0.10491522 -0.16361128 -0.12482691 -0.061181914
0002b0 e6 f2 27 be 1b 90 ee bd ec c6 a1 3d 89 06 10 3e
       -0.16401252 -0.1164858 0.078992695 0.14064993
0002c0 96 84 02 be d6 35 22 bd e9 40 b1 3c 60 b9 79 bd
       -0.1274589 -0.039602123 0.021637397 -0.060967803
0002d0 62 d8 d0 3b ff 6d 0f be e8 39 d5 3d 68 0f 94 bd
       0.006373451 -0.14006804 0.10411435 -0.07229501
0002e0 62 75 f9 3c 00 84 20 ba 4a ad c2 bd 78 73 b7 bc
       0.03045148 -0.0006123185 -0.095057085 -0.022393927
0002f0 fa f3 eb bd 11 86 86 3d 00 e4 88 bd 66 95 a8 3d
       -0.11521144 0.0656854 -0.066841125 0.082316205
000300 54 db 17 3d 11 22 07 3d 9a b3 78 bd 42 c3 08 bd
       0.037074402 0.032991473 -0.060718156 -0.033389337
000310 75 ff 0f be a4 5f a1 bd 65 43 03 3e f9 e6 a7 3d
       -0.14062293 -0.0787957 0.12818678 0.081983514
000320 b7 20 16 3c c4 39 2a bd a3 2a 92 bc 38 44 ae 3c
       0.009163073 -0.041558996 -0.017842596 0.021272764
000330 62 73 fe bd eb ec 4d bd 00 de d5 39 c2 51 39 3e
       -0.12424351 -0.05027477 0.0004079193 0.18097594
000340 d9 39 44 3c 2f a6 96 bc c6 ff 89 3c 35 a2 a7 bc
       0.011976683 -0.01838979 0.016845595 -0.020463089
000350 7f 8a 2a ba db b5 cc bd 68 10 3d 3d 0d 7e e1 bb
       -0.0006505623 -0.09995624 0.046158224 -0.0068814815
000360 7d 80 04 3e 50 81 a1 3c 74 cb 0b bd 9b ef e7 bd
       0.1293964 0.019714981 -0.034129575 -0.11324998
000370 75 69 aa 3d dd 6b 50 3d af 5d 00 be e1 a6 fd 3d
       0.083208956 0.050884116 -0.12535737 0.12385345
000380 3d c1 e9 3c f8 b9 cc 3c b7 16 21 bd c6 08 5a bd
       0.028534526 0.02499102 -0.039328303 -0.053231023
000390 68 26 86 bd 74 76 0a be d5 35 b2 3b 38 05 fe 3d
       -0.06550294 -0.13521749 0.005438546 0.12403339
0003a0 9b ad ba bd 4b 26 ce 3d 52 28 17 3e bd a2 09 3e
       -0.09115144 0.100658976 0.14761475 0.13440986
0003b0 06 32 38 bd 3c f8 a8 bd be 1f e7 bd 8d 31 30 3e
       -0.04496958 -0.08250472 -0.11285351 0.17206402
0003c0 90 08 7d 3d c6 2a 62 bd b2 dd 96 3d 14 57 4d 3d
       0.061775744 -0.055216573 0.07366504 0.050131872
0003d0 52 3b 08 bd 30 51 f8 bc 9d 18 1a be 5a a6 ec 3d
       -0.033259697 -0.03031215 -0.15048452 0.115551665
0003e0 c0 5b 2d bc f9 87 0a 3e 00 6d 8f bc aa b4 74 bd
       -0.010580957 0.13528432 -0.01750803 -0.059742607
0003f0 50 5b 70 bc 36 51 19 be 30 d5 ea 3c 34 ea 1d 3d
       -0.014670208 -0.14972386 0.028666109 0.03855343

hidden_layers.0.bias f4 [40]
000000 17 86 fb bd 33 7c 11 bd c0 ee a0 bd ed 64 1f 3e
       -0.12281435 -0.035518836 -0.07858038 0.15565844
000010 4d 2c fa ba bb d8 3d 3e 80 6c 9e bb 96 5b cf bd
       -0.0019086689 0.18539707 -0.0048347116 -0.101248905
000020 41 5e b7 bd f0 55 44 3d 3e d0 c7 bc 2d c9 0b 3e
       -0.089535244 0.04793352 -0.02439129 0.13650961
000030 ba 04 93 ba 69 ca be 3c 62 d4 1f bd e6 24 f8 39
       -0.0011216619 0.023289876 -0.039020903 0.00047329738
000040 10 47 5d bc fa 80 04 3e e8 c3 02 3d e6 4d 21 3e
       -0.013505712 0.12939826 0.031925112 0.15752372
000050 f1 a8 1b bd 65 20 82 bc 5b cb 1e 3c d6 99 4a bd
       -0.038002912 -0.015884588 0.009692038 -0.049463116
000060 a4 e9 3f bd 11 55 29 3d 99 08 6f bd a8 08 82 bd
       -0.046853676 0.04134089 -0.05835781 -0.06349307
000070 0f 77 0f 3e 8c 03 13 be 12 46 0f be fa 68 f8 bc
       0.14010261 -0.14356822 -0.13991573 -0.030323494
000080 ae be 15 be 82 4d a1 3d 2a 00 c8 3d 05 60 d6 3d
       -0.1462352 0.078761116 0.09765656 0.10467533
000090 78 3f c4 3c 09 0a 04 3e 16 87 1a 3e dc 48 28 3e
       0.023956046 0.12894453 0.15090594 0.16434044

hidden_layers.1.weight f4 [40, 40]
000000 80 4a ef ba 9e 77 ec bd 84 e9 cb bd e1 7c 3e 3d
       -0.0018256456 -0.11546253 -0.09956649 0.046505813
000010 6a 87 cb bd 90 23 8f 3d 75 85 04 be 94 e7 e0 bd
       -0.099379376 0.06989205 -0.12941535 -0.1098167
000020 f8 bc 86 3c d0 28 73 bc fa 17 a0 3d 36 fd ec bd
       0.01644753 -0.014841273 0.07817073 -0.11571734
000030 53 f8 12 bd 40 a7 d8 3d e0 85 f1 bc 89 f2 35 3d
       -0.03588135 0.105787754 -0.029482782 0.044420753
000040 71 75 0e 3e 7f 05 07 3e 67 4d 03 3e eb fd 67 bd
       0.13911988 0.1318569 0.12822495 -0.05663864
000050 27 e4 38 3b 62 b9 c8 bd 81 97 91 3d 40 ef 67 bb
       0.0028212161 -0.09800984 0.07108975 -0.0035390407
000060 0a 2c de 3d ba 69 7a 3d 8f df 03 3e 72 ec f2 bd
       0.108482435 0.061135985 0.1287825 -0.118615046
000070 16 93 05 3e c3 b5 88 3d 22 16 d5 3d 3e 42 0d 3d
       0.1304439 0.06675293 0.10404612 0.034487
000080 8f 8f ea bd df 11 f4 ba 32 3c 86 3c 45 ed bb bd
       -0.11453163 -0.0018621049 0.016386125 -0.09176115
000090 bd 25 b4 bd 4d f3 1a be e4 d2 58 3d 12 4b 38 3d
       -0.087962605 -0.15131874 0.052935496 0.044993468
0000a0 48 9d 89 3c 41 a1 23 be b4 03 ca bd cb 7a 75 3d
       0.01679863 -0.15979482 -0.098639876 0.059931558
0000b0 b2 77 dc bd bb ed 9e 3d a5 6c 04 3e 84 09 50 3d
       -0.107650176 0.07760187 0.1293207 0.050790325
0000c0 85 32 b8 bd c0 9d e9 bc 20 14 11 3e 1b 3b ba bd
       -0.08994011 -0.028517604 0.14167833 -0.09093305
0000d0 3f 49 1f be af f4 09 3c ba bf ce 3d d8 0e 24 be
       -0.15555285 0.0084201535 0.10095163 -0.16021287
0000e0 2e 25 e2 bd 20 61 15 be 1b 19 e5 3d be 5c d7 3b
       -0.11042248 -0.14587831 0.11186429 0.006572335
0000f0 ab 9e b6 3d 89 30 17 be 85 50 72 3c 80 5b 33 bc
       0.08916982 -0.14764608 0.014789705 -0.010947108
000100 0e ef 02 be c2 fa be bd 99 48 07 3d 6c d3 1e 3d
       -0.12786505 -0.09325172 0.03302822 0.038775846
000110 9c 7f 0a 3e a4 e2 48 bd 24 60 66 3d ac b2 eb 3c
       0.13525242 -0.049044266 0.05624403 0.02877172
000120 fb e9 93 bd 9d 7d 17 bc f1 28 59 bd a1 e7 ed bd
       -0.072223626 -0.009246257 -0.05301756 -0.11616445
000130 55 98 82 3d 59 20 ed bd 9f 6a ce bd 41 43 a6 bd
       0.06376711 -0.115784355 -0.1007893 -0.081182964
000140 b8 04 13 bd fc 45 c1 bd b2 01 f1 3d 80 68 af 3c
       -0.035893172 -0.094371766 0.117679015 0.021412134
000150 b0 1b 00 bc 79 d7 01 3e da 1a f1 3d 68 0d d0 3c
       -0.007819101 0.12679853 0.117727 0.025397018
000160 86 d7 88 3d e0 d1 d9 bd f0 68 14 bc fe b2 d5 3d
       0.06681733 -0.106357336 -0.009058222 0.10434531
000170 53 12 d8 bd 48 5d 9b bc 2e 97 e8 3d 87 64 0f 3e
       -0.1055037 -0.018965378 0.1135696 0.14003192
000180 ae bd 0a be 34 ee bd bd ce 56 e7 3d 0f 4e 18 be
       -0.1354892 -0.09273949 0.112958536 -0.14873527
000190 b8 2d 49 3d 5f 18 18 3e 20 14 da 3c b4 4e 6c 3d
       0.049115866 0.14853047 0.026620924 0.057692245
0001a0 d1 53 1a be 86 6b 16 be 5a d9 e8 3d 62 8d 9f 3d
       -0.15071036 -0.14689454 0.113695815 0.077906385
0001b0 38 49 19 bd d3 0a 12 3e be af e2 3d 41 d4 9d bd
       -0.037423342 0.14261942 0.110686764 -0.077065
0001c0 b8 1e d6 bc b0 2d 02 3c 82 2e fa bd 07 e8 09 3e
       -0.026137695 0.007945463 -0.12215902 0.13467418
0001d0 a9 4d 88 bd 50 ad c4 bd 4e 63 c7 3d 6a 5f 03 be
       -0.066554375 -0.09603369 0.09735738 -0.12829366
0001e0 00 d5 f1 3a be 8a f7 3d 32 ba 8f 3d 28 7c ec bd
       0.001845032 0.1208701 0.07017936 -0.115471184
0001f0 b8 c8 b3 bd c0 04 8a bd 61 01 21 be 00 8f 85 bb
       -0.087785184 -0.06739187 -0.15723182 -0.004075885
000200 f4 fb 1d 3d 00 f9 45 3d 28 db 9e bc 34 b3 1b 3d
       0.03857036 0.048333168 -0.019391611 0.0380127
000210 b6 7c 78 bd 40 19 13 3c 5a c0 f7 3d 3c 56 66 3d
       -0.06066581 0.008978188 0.12097235 0.056234583
000220 c4 3c 2d 3d 50 78 14 3c c0 ad 20 bb 7a 0b f8 bd
       0.04229428 0.009061888 -0.0024517626 -0.12111564
000230 22 24 c0 3d 34 ab 66 3d b6 74 1b bd 1c 8f ea bd
       0.09381892 0.056315616 -0.0379531 -0.11453077
000240 ac 9d 0a be 27 84 02 3e 78 91 d0 bc 10 fb b3 3c
       -0.1353671 0.12745725 -0.02545999 0.021970302
000250 a0 41 56 3d 44 3b 46 bd b0 41 75 bc 58 16 b3 bc
       0.05230868 -0.048396364 -0.014969274 -0.02186124
000260 40 4e 53 3c 3f c9 11 3e 60 e8 81 bb 0a 03 0d bd
       0.012897074 0.14236926 -0.003964469 -0.034426726
000270 e0 c2 b8 3d 90 a5 9f bc 00 60 8c 3b b6 98 06 be
       0.090215445 -0.019488126 0.004283905 -0.13144192
000280 68 b7 9f 3c 23 84 09 3e 43 70 27 be 46 86 ae bc
       0.019496635 0.13429312 -0.16351418 -0.021304261
000290 b6 71 b9 3d 36 85 05 3e a0 9c f5 3b d2 61 32 bd
       0.09054892 0.13039097 0.007495478 -0.04355032
0002a0 ce 81 67 bd 86 e3 c1 3d d6 f1 dd 3d 88 eb 05 be
       -0.056520276 0.09467225 0.10837142 -0.1307813
0002b0 63 4f 2d 3d 58 f9 bb 3d 80 61 36 3d da 9a 87 bd
       0.042312037 0.09178418 0.044526577 -0.066213325
0002c0 58 d4 44 3d 53 79 17 be 81 7d f8 bd 9d 30 22 bd
       0.04805407 -0.14792375 -0.12133313 -0.039597142
0002d0 f1 53 38 3c 22 27 86 3d 5f 1b da 3d 3a 60 d8 bd
       0.011250482 0.06550433 0.10649752 -0.10565229
0002e0 c6 e2 17 bd 4f c2 d1 3d d6 3b de 3d 69 0b 1d 3e
       -0.037081502 0.102421395 0.108512565 0.15336384
0002f0 6a cd 03 3e 3d 3f 8f bd bd 1d 0a be cb c3 c9 3d
       0.12871328 -0.069944836 -0.13487907 0.09851798
000300 bb 2c ff 3d f8 05 47 3d a3 a2 b9 3d 5b f2 b5 bb
       0.124597035 0.048589677 0.090642236 -0.0055525727
000310 8f 47 a6 bd fc 68 9f 3d 37 dc fd 3d 91 a1 19 3d
       -0.081191175 0.07783696 0.12395518 0.037507597
000320 00 1e 56 bc 80 7d c5 3d 28 de 6e 3d 7a c5 ed bd
       -0.013068676 0.09643078 0.058317333 -0.11609931
000330 30 0e ed 3d b2 e7 90 bd ca 71 e2 bd 8a 47 c5 bd
       0.11574972 -0.070754424 -0.1105686 -0.096327856
000340 70 7b af 3c 1b d5 11 3e 92 df 00 be ab 76 11 be
       0.021421164 0.1424145 -0.12585285 -0.14205424
000350 99 76 75 bd 14 0f 81 bd 3b 9d 03 3e 68 be d2 bd
       -0.059927557 -0.06301704 0.12852947 -0.10290223
000360 86 81 ea 3d 59 c7 81 3c 8e 9d de 3d 87 60 05 be
       0.11450486 0.015842127 0.10869895 -0.13025104
000370 a9 07 26 be aa bb 84 bd 91 df 5d bd 20 4c f2 bd
       -0.1621386 -0.064811066 -0.054168288 -0.11830926
000380 07 8f 01 3e 3a 89 1b bd 0a b1 cb 3d 22 34 e3 3d
       0.12652217 -0.037972666 0.09945877 0.11093928
000390 a8 01 0a 3e de d0 13 be 7f e1 8a bd 7c fe ef bd
       0.13477194 -0.14435145 -0.06781291 -0.11718461
0003a0 d4 4d 85 bd 00 c6 08 3e 0d 98 91 3d 36 9d 45 3d
       -0.06508985 0.13356781 0.071090795 0.04824563
0003b0 04 a5 19 be 58 79 08 be 07 d3 6c 3d 42 0a f9 bd
       -0.15004355 -0.13327539 0.05781844 -0.1216016
0003c0 cf 45 04 be 21 32 c2 bd c0 9d 19 3d 90 73 16 bc
       -0.12917255 -0.094822176 0.037503958 -0.009182826
0003d0 5c 0d 3e 3d a8 4e a2 3d d4 35 7d bd 00 44 24 3a
       0.04639946 0.07925159 -0.061818913 0.00062662363
0003e0 ba 40 8d 3d 5a 11 88 3d a0 a3 a2 3d 40 b5 19 3c
       0.06897111 0.066439345 0.07941365 0.009381592
0003f0 c6 4c 1c be 80 d0 ef 3a 7a 3d a7 3d 1c b5 70 bd
       -0.15263662 0.0018296391 0.081660226 -0.05876647

hidden_layers.1.bias f4 [40]
000000 cd 4c 58 bd 69 af 59 3d 7f 4a bd bd b0 62 15 3c
       -0.052807618 0.0531458 -0.092427246 0.009117767
000010 01 29 25 be 97 a1 dc 3d 3e 3d 05 be 4d ac df bd
       -0.16128923 0.10773008 -0.13011643 -0.10921536
000020 3f c6 12 be 35 c9 ca 3c 3a c6 28 3d 59 dd dd bd
       -0.14333437 0.024754146 0.04120467 -0.10833234
000030 22 c0 85 bd b1 99 07 3d 69 59 e4 bd aa 9b e3 bc
       -0.06530787 0.033105556 -0.11149866 -0.027784187
000040 2e dd 95 3d 88 05 a6 3c fe b0 d8 3d 27 1f 65 3d
       0.07317577 0.02026631 0.105806336 0.055937912
000050 cf 08 c7 bd ed c1 fd bd 38 47 9e 3d 2c 47 a9 bd
       -0.09718477 -0.12390504 0.07728428 -0.08265528
000060 cf 29 3b 3e 52 f2 c5 bd 1b 91 80 3d b9 4a bb bd
       0.18277667 -0.096653596 0.06277677 -0.091451116
000070 80 92 16 be 3f f9 35 3d 69 a5 a4 3d 16 94 12 bd
       -0.14704323 0.044427153 0.08039362 -0.035785757
000080 84 2c 6c bd 64 9f 34 3e 68 4a 50 3d 3b 59 a8 bd
       -0.05765964 0.17638928 0.05085221 -0.08220144
000090 5a 50 ed bd 9c 03 da 3d 14 e1 0d be 1b 5f 0c be
       -0.115875915 0.1064522 -0.13855392 -0.13708155

hidden_layers.2.weight f4 [40, 40]
000000 c0 32 e7 bd da e7 a9 3d d3 51 06 3e 20 5a 90 3c
       -0.11288977 0.08296175 0.13117151 0.0176211
000010 cb 9a bd 3d 74 9b 8d bd e6 65 17 be 76 45 6f 3d
       0.0925804 -0.06914416 -0.14784965 0.058415852
000020 fc 1f 1f be af 61 da 3d 39 ed 06 3e b0 d7 b2 3d
       -0.15539545 0.10663163 0.13176431 0.087325454
000030 a2 e4 d5 3d e7 62 91 bd da 03 a7 3d bd 9b c6 bc
       0.10443999 -0.07098942 0.081550315 -0.024244184
000040 39 79 cc 3d f0 b5 87 3c b1 c0 5c 3d 93 ce 14 bd
       0.09984059 0.016566247 0.053894702 -0.036329817
000050 03 91 17 be f6 19 e6 bd f7 99 40 bd 73 36 04 3e
       -0.14801411 -0.112354204 -0.047021832 0.12911396
000060 b5 89 27 bd 8e fe d1 3d dd e6 00 3e e7 6c c1 3d
       -0.040902812 0.102536306 0.12588067 0.094445996
000070 27 ca aa bd 91 df 11 be ff 54 dd bc de 8e 0e be
       -0.08339339 -0.1424544 -0.027018068 -0.13921687
000080 74 c9 bc 3d 4a 9d 13 3e b1 7b e1 bd 7f fe 6c 3d
       0.09218112 0.1441547 -0.110099204 0.057859894
000090 37 91 ec bd b7 eb bc bb 4b c3 f5 bd 4a 80 cd bc
       -0.11551135 -0.005765404 -0.1200014 -0.025085587
0000a0 2f 92 1f 3e ae 32 52 bd 84 07 85 bd 29 9f 08 3e
       0.15583108 -0.051317863 -0.06495574 0.13341965
0000b0 51 32 8a bd 68 0f 9b 3d a9 7e 0e be 90 21 e0 3c
       -0.06747878 0.07571298 -0.13915505 0.027359754
0000c0 00 d6 89 3b bd 31 1a be 6a 68 0b bd 3f 06 19 be
       0.004206419 -0.15058036 -0.034035124 -0.14943789
0000d0 96 8b f9 3d d4 ec 6a 3d 8d d2 00 3e 1c 89 69 3d
       0.12184827 0.057354763 0.12580319 0.057015523
0000e0 b0 7a 8d 3c 4a d1 32 bd 40 16 51 3b 23 fd 01 be
       0.017270416 -0.043656625 0.0031904131 -0.1269422
0000f0 a2 8e a3 bd ed 2e 14 3e ae d6 75 bd 30 18 bf 3c
       -0.079861894 0.14471026 -0.060019188 0.023326963
000100 0e df bd bd fb d8 c1 bd 1e fd ea 3d ea 5a fa 3d
       -0.0927106 -0.09465214 0.114740595 0.12224372
000110 50 88 1d bd 3e a9 df 3d b8 bf a1 bc c8 2f a8 3c
       -0.038460076 0.10920952 -0.019744739 0.020530596
000120 58 0f ed bc 20 ee a5 bb 12 a0 c4 bd 4a 85 78 bd
       -0.02893798 -0.005063787 -0.096008435 -0.06067399
000130 0a df 51 bd f4 d9 03 3d b6 13 05 be 8c 9c 8d bd
       -0.051238097 0.03219028 -0.129958 -0.069146246
000140 f3 d8 a9 bd 9b 4e 8e 3d ae ba c2 bd 30 df a8 bc
       -0.08293333 0.069485866 -0.095082626 -0.020614237
000150 32 ff 2d 3d 86 1e 86 bc 6b 79 88 bd 28 9b d6 bd
       0.0424797 -0.016371977 -0.06663784 -0.104788125
000160 50 ca 69 3c e1 4a 10 3e 9f 1c 19 be a4 64 8a 3d
       0.014269426 0.14091064 -0.14952324 0.06757477
000170 45 f4 0e be 62 dd 18 be 9a 9b 9e 3d 11 ba e6 bc
       -0.13960369 -0.14928201 0.077445224 -0.028164895
000180 8f 19 0d 3e 8e bd dd 3d 34 24 b8 bb ef e0 f8 3a
       0.13779281 0.1082717 -0.00561955 0.0018987934
000190 05 f3 59 3d e5 57 11 3d cb 17 cb 3d 00 ab e5 bc
       0.053210277 0.035484213 0.099166475 -0.02803564
0001a0 ae de a6 3c 61 29 1c be 82 db 19 3c 34 31 27 3c
       0.020369854 -0.1525016 0.009390714 0.010204602
0001b0 c6 82 d7 3c 4e 70 d5 bd e2 f0 b0 bd 41 c8 6a bc
       0.026307475 -0.10421811 -0.08639695 -0.014329971
0001c0 cf 4f aa 3d 58 45 d1 3d a8 c5 a7 3c 9e e1 80 3d
       0.083160035 0.102183044 0.020479992 0.06293033
0001d0 ae e4 0d 3e 9a df 6d bd 2b e6 03 be e7 50 e8 bd
       0.13856766 -0.05807457 -0.12880771 -0.11343556
0001e0 40 1d 21 bd 40 94 05 bc 55 d8 20 be c8 7d 7f bd
       -0.039334536 -0.008153021 -0.15707524 -0.062375814
0001f0 68 df fa bd 80 6d ca 3c 54 9a 04 be c0 23 cf 3c
       -0.122496426 0.024710417 -0.12949497 0.025285602
000200 76 f7 cc 3d c0 c5 22 3b c0 19 8b bb 12 80 dd 3d
       0.10008137 0.0024837106 -0.004245013 0.10815443
000210 fc 55 a4 3d 34 60 20 3d 6c fb 02 be 8f 5a 1a 3e
       0.08024213 0.039154246 -0.12791222 0.15073608
000220 72 54 6d bd aa df 0f bd e4 40 ba bd 68 50 85 3d
       -0.05794186 -0.035125412 -0.09094408 0.06509477
000230 00 c5 8d ba 18 c1 78 3d a8 06 92 bd 3b 7a af bd
       -0.0010816157 0.060731024 -0.07130176 -0.085682355
000240 a8 f8 3e 3d a2 45 af 3d e9 1c 05 3e 10 8a 4d 3d
       0.046623856 0.08558203 0.1299931 0.050180495
000250 ce db cd 3d 80 2c 0e 3b ae a6 dc bd a1 63 9c bd
       0.1005169 0.0021694005 -0.10773979 -0.0763619
000260 34 1a 05 be 28 29 2f bd cf f8 20 3e cc 80 47 bd
       -0.12998277 -0.04276386 0.15719913 -0.048706815
000270 f0 be e7 bc 00 42 8d ba 52 8e 13 be f8 8e ac bc
       -0.028289288 -0.0010777116 -0.1440976 -0.021064267
000280 4e 88 ab 3d 16 02 f6 3d 53 0c 16 be f4 ee 4e 3d
       0.083756074 0.120121166 -0.14653139 0.050520852
000290 4f a8 80 bd 10 3c d9 bc 8c 3b 20 bd 60 ec 39 bc
       -0.06282102 -0.026517898 -0.03911929 -0.01134786
0002a0 44 71 04 bd 22 93 f2 3d b2 89 c4 bd 85 24 04 be
       -0.03233458 0.118444696 -0.09596576 -0.12904556
0002b0 7a b5 99 bd bc 5c 58 3d cc 44 17 bd f4 c3 28 3d
       -0.07505317 0.052822813 -0.036930844 0.0412025
0002c0 32 94 d0 bd 2e 59 b0 bd 00 d2 79 3d 88 4a 92 bc
       -0.10184516 -0.0861076 0.060991287 -0.017857805
0002d0 49 7b 00 3e fe ac de 3d 71 f8 a8 bd 68 9d a8 bc
       0.1254703 0.108728394 -0.082505114 -0.02058287
0002e0 bd f5 b1 bd e4 a2 5a bd f9 b4 1b 3e 0f 85 f4 bd
       -0.08689449 -0.053378 0.15205754 -0.119394414
0002f0 3d 7b ee bd d0 3f c8 3c 50 04 a3 3d c0 49 c5 3c
       -0.116445996 0.02444449 0.07959807 0.024083018
000300 a4 aa 4e bd b2 b0 0c be 74 a6 dc bd 10 a6 69 bc
       -0.050455704 -0.13739279 -0.10773936 -0.014260784
000310 58 a0 34 3d 42 05 d3 bd 90 a6 86 bc da 53 e9 3d
       0.04409823 -0.10303737 -0.016436845 0.113929465
000320 92 e4 8c bd 87 5c c6 bd 58 f4 54 bd 58 51 8b bd
       -0.06879534 -0.09685617 -0.051990837 -0.068026245
000330 5a 30 81 bd d7 fc 1d 3d a3 96 10 be b9 28 e7 3d
       -0.063080505 0.038571205 -0.14119963 0.11287064
000340 88 4a c0 3c 02 0c 14 3d 93 90 56 bd 00 c4 d7 bd
       0.02347304 0.036144264 -0.05238397 -0.10535431
000350 88 2a b4 bc 9f ea d5 3d e1 0b 1b 3e d9 c7 9d 3c
       -0.021992937 0.10445141 0.1514125 0.019260334
000360 71 ac 2f 3e 11 06 20 3e 7a c1 99 3d 5f b6 86 bd
       0.17155625 0.15627314 0.07507606 -0.06577753
000370 38 36 4e bd 41 be 00 3e 38 34 69 bd 6d 60 05 3e
       -0.050344676 0.12572576 -0.056934565 0.13025065
000380 35 62 81 3d 05 04 00 3e ed 79 8d bd e0 20 f5 3c
       0.0631756 0.12501533 -0.06908021 0.029922903
000390 b2 7f 1d 3e 15 d9 82 3d 62 c4 f1 bd 42 04 c3 bd
       0.15380743 0.06389061 -0.11805035 -0.095222965
0003a0 35 8a e3 bd fb 6f ef bd bc cf a5 3d 03 9d 0a 3e
       -0.11110345 -0.116912805 0.08096263 0.13536458
0003b0 45 d3 f0 bd fc 8a a2 bd 40 9a d2 3b e1 ae fd bd
       -0.117590465 -0.079366654 0.0064270794 -0.12386871
0003c0 49 bd bf bd 81 df c7 bd c9 88 01 3e f0 6d 51 3c
       -0.09362275 -0.09759427 0.12649836 0.012782559
0003d0 51 a9 a8 bd 5c 74 1b bd 04 5c 01 be 3f e7 82 bb
       -0.082354195 -0.037952766 -0.12632757 -0.003994852
0003e0 30 29 34 3c 27 0e a8 3d b3 82 b7 3d 23 d7 5e bc
       0.010996148 0.08205824 0.08960476 -0.013601097
0003f0 3e 19 fa 3d c0 93 0c 3e e0 0d b1 bb 11 79 5e 3b
       0.12211846 0.13728237 -0.0054032654 0.0033946673

hidden_layers.2.bias f4 [40]
000000 ac c1 96 bd 30 4a 19 be 4c da f4 3d cf ae 80 bd
       -0.07361159 -0.14969707 0.11955699 -0.06283342
000010 e8 79 d9 bd 57 af 41 3e f9 2f a4 3d 42 76 f7 3d
       -0.10618955 0.18914543 0.080169626 0.12083103
000020 e8 eb 64 3d 02 3f fe bd b0 33 ed bd 58 66 13 be
       0.05588904 -0.124143615 -0.11582124 -0.1439451
000030 99 d1 4f bd ef c7 c9 bd 9f 02 b1 3d ea b7 0c bd
       -0.050736997 -0.098525874 0.08643078 -0.03435508
000040 0f bc a3 bd 9f 17 1f be 10 b5 1e 3d 80 71 f3 3d
       -0.07994854 -0.15536354 0.038746893 0.11886883
000050 ca f4 11 3e 90 b6 61 3d fb 31 fa bd 03 12 e2 3d
       0.14253536 0.055105746 -0.12216564 0.11038592
000060 d3 f6 b2 bc 39 d6 e8 3d d0 85 05 3e 09 ac ae 3d
       -0.02184621 0.11368985 0.13039327 0.08528907
000070 92 75 b2 3d 07 be b9 3c 3e f1 a4 3d 83 3f 26 3e
       0.08713831 0.02267362 0.08053826 0.16235165
000080 75 c6 2b 3c 6b d6 33 3d a6 0b 87 bd 00 c8 7a b9
       0.010484328 0.043905657 -0.06594019 -0.00023916364
000090 d5 4b 2c 3d 8f ba 9d bd 2a a7 c2 3d 69 e2 a4 3d
       0.042064507 -0.07701599 0.0950454 0.08050997

hidden_layers.3.weight f4 [40, 40]
000000 25 1d 04 3e 39 2f ec bd 9e f2 fc 3d 22 7b fb 3d
       0.12901743 -0.115324445 0.12350963 0.12279345
000010 a1 9f 21 3e 7e df 82 bd 84 9a 0a bd 6b 69 14 be
       0.1578355 -0.06390284 -0.033838764 -0.14493339
000020 e9 46 1e be 6e d3 0f be f8 69 f5 3c 28 6d a6 bc
       -0.15456738 -0.14045498 0.029957756 -0.020315722
000030 33 98 1a 3e 76 3c b1 3d 70 e4 b3 3c 5a 51 07 be
       0.15097122 0.0865411 0.021959513 -0.13214627
000040 14 12 64 3d 38 80 f0 bd be 5d 97 3d 15 77 91 bd
       0.055681303 -0.11743206 0.07390927 -0.07102791
000050 38 2e 45 3d a4 28 55 3d c8 ee 9a 3c c0 07 61 bb
       0.04813978 0.05204071 0.018912688 -0.0034336895
000060 a3 9a 81 bd a6 13 83 bd 44 8b 8a 3d d5 ee 13 3e
       -0.06328323 -0.06400232 0.06764844 0.14446576
000070 52 6b bb bd 68 5f f2 bc e7 92 01 3e ae 8c be 3d
       -0.09151329 -0.029586509 0.12653695 0.09304176
000080 d8 41 ae bd 20 13 b8 bd 1a 97 e2 bd a8 f8 8b bd
       -0.085086524 -0.08988023 -0.110639766 -0.06834537
000090 cb 19 0d be 6e 35 fe bd cb c2 12 be 44 a2 27 3d
       -0.1377937 -0.12412535 -0.1433212 0.040926233
0000a0 d2 74 c9 3d df 7a 82 bd 79 c8 21 3e 5c 19 0e be
       0.09836735 -0.06371092 0.1579913 -0.13876861
0000b0 b8 79 1d be bc 73 f1 bd 20 9a 8c bc db 17 91 bd
       -0.15378463 -0.11789653 -0.017163336 -0.07084628
0000c0 40 46 64 bc 0e 4b 8b 3d c4 88 5b bd 00 c7 df bc
       -0.0139327645 0.06801425 -0.053597227 -0.02731657
0000d0 f1 2f 01 3e 90 14 e2 bc 68 7a 3e 3d 02 e7 d1 3d
       0.12615944 -0.027597696 0.046503454 0.10249139
0000e0 00 60 70 39 b8 c8 1d 3d 9b 88 18 3e ea fa 01 be
       0.00022923946 0.0385215 0.14895861 -0.12693372
0000f0 21 d0 96 bd 24 92 26 3d 7a 95 18 be 22 9b 90 3d
       -0.07363916 0.040666714 -0.14900771 0.07060839
000100 70 6a ef 3c 20 91 bf 3c 80 60 d0 ba d5 e2 a7 bd
       0.029225558 0.02338463 -0.00158979 -0.08197562
000110 b0 91 c6 bc 4f 7a 19 3e 00 49 8b 3d f8 ce d4 bd
       -0.024239391 0.14988063 0.06801033 -0.10391039
000120 08 3b 2a bd a0 e1 d9 bc 53 94 08 3e 70 9f 1b 3d
       -0.041560203 -0.026596844 0.13337831 0.03799385
000130 96 b2 0a bd c6 a4 11 be 6a 35 d2 3d ec 82 86 3d
       -0.03386172 -0.14223012 0.10264094 0.0656794
000140 8e c3 c2 3d d8 bb 45 bd 01 43 82 3c 60 25 1e 3c
       0.09509955 -0.048274845 0.01590109 0.009652466
000150 f3 0a 19 3e 9d 39 4d bd 18 8c 74 3c 29 70 4c bd
       0.14945583 -0.050103772 0.014925979 -0.04991165
000160 75 a3 d9 bd ee 6c e3 bd 82 82 b4 3d be 3b cb 3d
       -0.1062688 -0.11104761 0.08813955 0.09923504
000170 45 45 4c 3b c8 a6 9e 3c 29 b5 2b be a4 77 28 3d
       0.0031169218 0.019366637 -0.16768326 0.041129723
000180 90 c7 fd bd ac ef ad 3d 8e b4 dc bd 57 3e 35 3d
       -0.12391579 0.084929794 -0.107766256 0.044248905
000190 7f 93 8d bd 2f 7d b2 bd 02 b9 c8 3d b6 1d 26 3d
       -0.06912898 -0.08715283 0.098009124 0.04055568
0001a0 30 3f 65 3d 06 06 94 3d 99 87 c9 bc b1 8d 15 3d
       0.055968463 0.072277114 -0.02460079 0.03651208
0001b0 5a 9d f2 bd d3 95 e2 bd db 94 fd 3d 41 4a 03 be
       -0.11846419 -0.11063733 0.123819076 -0.12821294
0001c0 88 75 c2 bd 96 76 2b be e8 e2 84 3c 00 b8 a0 3d
       -0.094950736 -0.16744456 0.016221479 0.07847595
0001d0 14 47 2a be 51 5f f2 bd 83 34 20 be 8d 85 db 3d
       -0.16628677 -0.118345864 -0.15645032 0.10718832
0001e0 db 02 ee 3c 20 76 09 bd a7 53 3c 3d d8 df e5 bd
       0.029054096 -0.03355992 0.045978215 -0.112243354
0001f0 00 6f de ba 5a 7f 07 be 01 c0 a6 3d 90 60 d2 bd
       -0.0016970336 -0.13232175 0.081420906 -0.10272324
000200 bf 15 23 3c 00 f1 ce ba fd 15 a5 bd 2f f1 00 3e
       0.009953915 -0.0015788376 -0.080608346 0.12592004
000210 1f 6d 9c 3d 88 bd 8c bc b8 a4 50 bc 88 ca ef 3c
       0.07638001 -0.01718022 -0.0127345845 0.02927138
000220 7e 8f d2 bd 7f a1 01 3e 46 72 da 3d 8f 39 0f 3d
       -0.10281275 0.12659262 0.10666327 0.034967
000230 c2 a4 14 3d e6 cf 08 bd 78 dc 8e 3d ad ea 94 3d
       0.036289938 -0.033401392 0.06975645 0.07271323
000240 48 c6 e1 bd f0 e4 36 be bd 51 39 bc b2 c0 b6 3d
       -0.11024147 -0.1786077 -0.011310992 0.089234725
000250 84 e4 b1 bd b0 33 1e be c3 bb 46 be b4 10 cc 3d
       -0.08686164 -0.15449405 -0.19407563 0.09964123
000260 5f 12 b9 3d 93 3d 92 3d 78 e0 af bc 60 75 14 3c
       0.09036707 0.071406506 -0.02146934 0.0090611875
000270 9c 89 89 bd 60 11 97 3b e0 92 30 bd bc 2b e3 3d
       -0.067157 0.0046102256 -0.04310882 0.11092326
000280 68 8c f6 bd 7f 62 18 3e 8e 17 69 3d 62 12 f6 3d
       -0.12038499 0.14881323 0.05690723 0.12015225
000290 40 c0 f5 3b 6e 23 98 3d 46 d0 f2 bd 42 ed 03 bd
       0.0074997246 0.07428633 -0.11856131 -0.03220869
0002a0 b4 56 15 be 1f c0 0e be 20 9d 6c bc 58 cc 3d 3d
       -0.14583856 -0.13940476 -0.014441758 0.046337456
0002b0 55 d2 94 bd 5c d6 73 3d 80 36 ca bd b9 96 1c 3e
       -0.0726668 0.0595306 -0.09873676 0.15291871
0002c0 8a 57 06 be 7c 6e 3e bd f0 f3 ae bc 3d e0 92 3d
       -0.13119331 -0.046492085 -0.021356553 0.07171676
0002d0 99 d5 f3 bd 00 0f 8c 3d 64 07 30 3d 43 d0 11 3d
       -0.11905975 0.068387985 0.0429758 0.035599004
0002e0 03 ca 35 3d 2d a5 a9 bd 7a 58 bf 3d 74 67 b7 bd
       0.044382107 -0.08283458 0.093430474 -0.08955279
0002f0 36 76 1e bd d9 5a d7 3b e2 8f e6 3c 59 7d 0e be
       -0.038686953 0.006572109 0.02814478 -0.13915004
000300 00 0e 48 3d 11 39 8f 3d 72 35 c3 3d 9e 91 6d bd
       0.048841476 0.069933064 0.09531678 -0.0580002
000310 dc d4 82 3d 10 ae 65 bd 4f 7d f1 3b 08 5a 0e be
       0.06388256 -0.056074202 0.0073696743 -0.13901532
000320 bb cf 0c 3e a6 01 ae 3d 00 55 f5 bd aa a0 d3 3d
       0.13751118 0.08496408 -0.11979103 0.103333786
000330 c0 98 03 bc d0 53 0c 3d 11 33 ad bd 35 de 03 3e
       -0.008032024 0.034259617 -0.08457006 0.12877734
000340 88 7d 43 3d 09 de 1b be 43 25 92 bd d2 66 ff 3d
       0.047727138 -0.15221418 -0.07136013 0.12470783
000350 f4 a9 82 3d 20 7a a1 bc b8 e2 86 bd 6e 44 fa 3d
       0.06380072 -0.019711554 -0.06586212 0.12220083
000360 4c 97 91 3d e7 85 1a 3e d0 74 26 3d e4 cf 5a bd
       0.07108936 0.15090142 0.040638745 -0.053420916
000370 40 6e 04 bb 28 e3 f9 bd 51 6e 16 3e 90 56 d4 3c
       -0.0020207316 -0.1220153 0.1469052 0.025920182
000380 ec 6a cf bd 84 62 8b 3d 4d 6b 0e 3e 4c da 28 3d
       -0.101278156 0.068059 0.1390812 0.04122381
000390 d2 d3 d7 3d 66 94 79 bd a9 03 15 be b6 81 e1 bd
       0.105384484 -0.06093254 -0.14552177 -0.110110685
0003a0 da 94 19 bd 00 ac 68 39 b2 3c f1 3d 94 fc 16 bd
       -0.03749547 0.00022189319 0.11779155 -0.03686197
0003b0 b2 fa 9d 3d 8a 96 87 3d 76 c5 d1 3d 9a ee c9 bd
       0.07713832 0.0662051 0.10242741 -0.09859963
0003c0 54 bc 07 be d0 1e 30 3c 40 5d c0 bd 08 a2 a0 bd
       -0.13255435 0.010749534 -0.09392786 -0.07843405
0003d0 a4 d6 1e 3d f6 c8 e5 3d 52 9a 0d be 4a 85 cf 3d
       0.038778916 0.11219971 -0.138284 0.10132845
0003e0 d8 53 a6 bc 7a a3 cc 3d 18 4f 95 3d c6 69 18 be
       -0.020303652 0.09992118 0.072904766 -0.148841
0003f0 b8 84 8d bc 2c 16 9f 3d ad 1f 1a 3e b4 f6 16 3d
       -0.0172752 0.07767901 0.15051146 0.03685637

hidden_layers.3.bias f4 [40]
000000 d4 cd 18 be 15 fb 15 be e7 50 ef 3c b8 fe 99 3c
       -0.14922267 -0.14646561 0.029213382 0.018798217
000010 2e 5a e1 3c 60 a9 97 bb 94 91 43 bd b9 f2 1a be
       0.027508821 -0.0046283454 -0.047746256 -0.15131654
000020 90 26 3f 3c 7a bf 2b bb 6f 4c 16 3d 62 57 d3 3d
       0.011666909 -0.0026206658 0.036693987 0.10319401
000030 d4 bb 71 bd 42 e5 1a 3c 6d cb 12 be c8 c4 f9 3d
       -0.059017017 0.009454073 -0.14335413 0.12195736
000040 10 16 d4 3c b2 20 09 be 7b a1 91 3d 32 70 ac 3d
       0.025889426 -0.13391379 0.07110878 0.08419837
000050 44 ba 1a be 44 41 79 3d 27 75 98 3d 75 26 c1 bb
       -0.15110117 0.060853258 0.0744422 -0.005894477
000060 71 e2 cd bd 05 c1 b3 3d 5b ac d2 3d f2 0d f6 bc
       -0.10052956 0.0877705 0.102867804 -0.030035947
000070 d5 cc 19 be 92 22 cd 3b d2 f3 92 3d 89 74 d2 3c
       -0.15019543 0.0062602246 0.07175411 0.025690334
000080 f7 74 8f bd 35 be d7 bd df 44 01 3d db 14 ac 3d
       -0.07004731 -0.10534326 0.03155982 0.08402415
000090 01 e2 39 bc 60 25 3e 3e 0b 50 a7 bd b8 0c 8a 3c
       -0.011345387 0.18568945 -0.08169564 0.016851768

output_layer1.weight f4 [2, 40]
000000 a7 03 14 3e 0e cf de 3d e7 f9 19 bd 52 29 9a 3c
       0.14454518 0.10879336 -0.03759184 0.018818531
000010 83 57 d3 3d 9b 13 1e 3e 80 d0 68 3c 00 9d cd bb
       0.10319426 0.15437166 0.0142098665 -0.0062748194
000020 98 b3 01 3d 0b 9b d3 3a ef dc 30 3e 65 6e 2b 3e
       0.031665415 0.0016144229 0.1727178 0.16741331
000030 98 37 fb bd 6b fd b1 bc 8e 0b f7 3d f5 50 0d be
       -0.12266463 -0.021727284 0.12062751 -0.13800414
000040 86 71 c0 3d 00 60 c5 b8 08 41 cd bd 98 01 a4 3c
       0.09396653 -9.4115734e-05 -0.10022169 0.020020291
000050 e1 fa c8 bd aa 41 ce bc a5 eb 3d bd 61 dc 2b bd
       -0.09813476 -0.025177795 -0.046367306 -0.041958217
000060 e7 bc c7 bd 73 2f 6d 3c cc 8f 13 3d 58 bd 8a 3d
       -0.09752827 0.014476645 0.036025807 0.06774396
000070 2c 26 94 3d f0 17 0f be fc 8d 2c 3e 7e eb 89 3d
       0.07233843 -0.13973975 0.16851038 0.0673437
000080 5d 82 4a 3c a6 ee f5 3d a7 4b 13 3d 7d ef 27 3e
       0.012360183 0.12008409 0.03596082 0.16399951
000090 41 25 8d 3d da 7d 05 bd 64 65 6f 3d 78 65 99 bd
       0.06891871 -0.032590725 0.058446303 -0.07490057
0000a0 50 ee 91 bc 23 cf dc bd 8a 87 92 3c ee 16 aa bd
       -0.017813832 -0.10781696 0.017886896 -0.08305155
0000b0 33 78 98 3d 4e fa bb 3d a0 68 78 3c 10 ee 96 bd
       0.07444801 0.09178601 0.015161663 -0.073696256
0000c0 b0 cb 95 bc c2 30 75 3d a2 d1 f9 3d 5f b8 e5 3d
       -0.018285602 0.059860952 0.121981874 0.112168066
0000d0 47 78 c6 3d df 3d f1 3d b2 be ed bd bc 9d 73 bc
       0.0969091 0.11779379 -0.11608638 -0.01486915
0000e0 3d 3a ab bd c0 db d2 3b 4a 15 af bd fb ae f5 3c
       -0.083607174 0.0064348876 -0.085489824 0.029990664
0000f0 9d 33 20 3e 0b af ed bc 9f f7 01 3e 60 37 bf bd
       0.15644689 -0.029014131 0.12692116 -0.09336734
000100 5a 8b a8 bc bf 62 d7 3d b5 2a bd 3d 5a 7a b9 bd
       -0.02057426 0.10516881 0.09236661 -0.0905654
000110 0c 91 1d be 95 5c 89 bd 00 ac ff 3d 5f ab 04 bd
       -0.15387362 -0.06707112 0.12483978 -0.032389995
000120 93 3f 64 bd 58 ab 4a 3d 5c cf 5e bd 18 f4 9d bd
       -0.05572469 0.049479812 -0.054396972 -0.07712573
000130 f8 93 cc bd 2a ca c8 bd 17 e9 1d 3e a2 06 93 3d
       -0.0998916 -0.09804185 0.15420948 0.071789995

output_layer1.bias f4 [2]
000000 f4 db bc bd ae 54 be 3a
       -0.0922164 0.0014521086

output_layer2.weight f4 [1, 40]
000000 38 35 5d bd 06 eb 1d be 40 1b 25 bd b6 2b fc bd
       -0.05400583 -0.15421686 -0.04030919 -0.12313025
000010 19 fe e7 bc c0 ca 18 3c 80 0e 1e bc 38 a8 ce bc
       -0.028319405 0.009325683 -0.009647012 -0.025226697
000020 e8 ca aa 3c 77 a8 d9 3c 60 5c c7 3d 82 42 aa bd
       0.020848706 0.026569588 0.09734416 -0.083134666
000030 9b 21 13 be fe d1 cd bd c0 47 58 3d d0 9f a5 3d
       -0.14368288 -0.100498185 0.0528028 0.080871224
000040 37 66 20 3e 8c af 97 3d 82 96 e9 3d 1c df c5 bd
       0.15663992 0.0740653 0.1140566 -0.09661695
000050 38 d2 b1 3c aa 8b 57 3d d1 d7 c8 bd 1d 5d 87 bc
       0.021706685 0.05262343 -0.09806789 -0.016523892
000060 10 c1 c7 bd 53 c4 84 bd bf 5f e3 bd cb 72 f6 bd
       -0.097536206 -0.064827584 -0.111022465 -0.12033614
000070 59 55 0f 3e 0f 06 94 3d e6 f5 ae bd 89 85 b0 3b
       0.13997401 0.07227718 -0.08542995 0.0053870124
000080 a1 f8 a7 3c ba c6 ac 3d ac c5 30 bd d2 37 34 3e
       0.020504298 0.084363416 -0.043157265 0.17599419
000090 de f8 cd bd f6 1e 2a 3e 42 61 0b be a8 a1 86 bc
       -0.10057233 0.16613373 -0.1361132 -0.016434506
