src/models/prediction_97.pt (torch, 38168 bytes, 13 tensors)

input_layer.weight f4 [40, 40]
00000000: 66f2 9e3c c1e6 05be c1ee e9bd 6e3e 63bd
00000010: 3295 e8bd e04a b5bc 27a9 f3bc 7da7 fc3d
00000020: 3ab6 1bbd cacc 2f3c d078 34bd f77c 0dbe
00000030: 83f5 e13c 1760 e5bd d1e2 183e b6c5 083e
00000040: b8b7 e0bc 21d7 25be 828f 303d b7fb 10bd
00000050: d971 233d abef cebd c4e8 c23d 6ccb e83d
00000060: 237c 12bd d9ae 103e 06a6 bbbc 0201 213e
00000070: a330 d13d 8d30 f13c ea70 37be b8fd 32be
00000080: ac2c 06be 192c 36be db76 8abc 1c24 343e
00000090: c0dc 92bd f027 df3c 3141 efbd b25e 1ebd
000000a0: 2ea0 823d 40c1 24bc c2ac ce3d ddfc 123e
000000b0: 64bf 363d d056 6f3d e6a5 4ebd c0b5 3a3c
000000c0: 89a2 193e b8d3 15be 0492 6f3d d14a 84bd
000000d0: 3a62 923d 704c 003c 5038 813c 58fa 993d
000000e0: a005 3f3c 7964 b3bd ea21 0fbe 5a8f 0bbe
000000f0: 52a7 74bd 7219 9cbd 8e84 57bd 7d25 043e
00000100: 0897 f8bc 49d7 1d3e c0d7 a93c ef2d c3bd
00000110: ceca dcbd 40d3 453c 660c c63d 8713 81bd
00000120: e830 623d ac7a 8b3d a2b9 9a3d f013 2a3d
00000130: bbcf 113e d000 933d b542 1ebe 48ad b1bd
00000140: 6156 dcbd e46c a3bd 19ab a23d 8e8a c6bb
00000150: e878 ef3d 3d95 27bd d4be 653d 3501 14be
00000160: a85a 0bbe f212 5b3d 634a 213e 892c b83c
00000170: a1d4 223e 73a4 f0bd a9e2 0bbe 374f da3c
00000180: 12f8 c13c 1678 80bd c9ef 65bd 69ab 193e
00000190: a17e dcbd 6281 bbbd 89ba 86bb c1f1 213e
000001a0: f17a a93b 2530 d2bd a322 743d e6e6 77bd
000001b0: b77c b4bd 0adc 11be 9bd6 be3d c024 093e
000001c0: 45e9 10bd e7a5 80bd a75b ba3d fad9 733c
000001d0: bdc2 d4bd d77b 80bc af42 4f3d 4afb 223d
000001e0: 7942 19be 62ce ff3d 1294 d2bd 2ee0 d93d
000001f0: 58de c23c e5de e2bd 8d57 f4bd 0c9a 5fbd
00000200: acfb 3b3d d3d9 8bbd b565 123e f7e8 0c3e
00000210: 1165 193e aa6b 52bd 90c1 d3bd 9049 aebd
00000220: 2e19 7bbd 7540 0e3e 204f 213c d295 c03d
00000230: d3cf 003e 8cb9 0bbe f7d8 12be 22cb d93d
00000240: 6a58 fc3d 00e7 edbb f0c7 723d 388c 91bc
00000250: 9851 853c 0edc 65bd 6b6b 123e 8000 6abc
00000260: 8072 4bbb 4aa7 d33d a4a4 10be e4b4 323d
00000270: 80db c43b 21fc 90bd 48ca 573d da9d bc3d
00000280: 6c2c b13d 47f2 1a3c 1a25 173e 5779 23be
00000290: 5fde eebd 817f 85bd a466 c2bd 9520 d1bd
000002a0: 0289 903b 53e5 c53c ed82 83bc 4de6 b63d
000002b0: 6c79 46bc 0a7a d23c df16 f7bc ee3f 11be
000002c0: caf6 223d c0cb 083d 0e89 1f3e 37d1 933d
000002d0: afca 183e 3129 b13d b5a9 0f3e 800f 333c
000002e0: 6ed3 19be da83 923d 654f 31bd 9370 f73d
000002f0: f902 0e3e e786 18be f5a7 1ebe 840b 0ebe
00000300: 462c 8dbd cc4c 9b3d 34f5 11bd adb5 a43d
00000310: a664 b4bd 74df 383c d118 6d3d 03d8 bbbd
00000320: 4a00 84bd 1288 b2bd ed86 543c d969 b43d
00000330: 51c9 663b b88d 56bd 5fef d53d d376 a73d
00000340: 2cc4 343e 8d79 0bbd ccb0 a7bd 1e95 cdbd
00000350: cd19 bebd b55b 84bc e64c b2bd 107a 3cbe
00000360: ead5 123c d325 3abd a671 eebd 7958 55bd
00000370: a690 c93d e70e 79bd 3949 c93d b572 2bbd
00000380: c79e 043e 1726 ddbc e51b 413e f1f7 513d
00000390: f522 b0bd e93b 243d 7c2e 983d 1f97 e73b
000003a0: 3c40 12bd 4cc1 8dbd 9456 e7bc 5360 423e
000003b0: 3ccc d03d 6b22 8d3d cd21 403e 832c 05be
000003c0: b4c2 7b3d 8c3e d2bd 7080 9fbd e77f bfbd
000003d0: 4ae9 86bd 8464 063d b28e c63d cbe7 0f3e
000003e0: e089 df3c f8ad 8b3d 8db8 17be 83c8 0cbe
000003f0: aa4a 13be 5ad2 54bd 32c5 e33d a4fe 7e3d
0.019402694 -0.13076307 -0.11422492 -0.05547946 -0.11356582 -0.02213043 -0.029743744 0.12336633
-0.03801558 0.010729978 -0.04406053 -0.13817202 0.02758289 -0.11199968 0.14930274 0.1335667
-0.027431354 -0.16195346 0.04310561 -0.035396304 0.039903495 -0.10104307 0.09517053 0.11366925
-0.035762917 0.14129199 -0.022906315 0.1572304 0.10214355 0.029442096 -0.17914167 -0.17479599
-0.13102978 -0.1779026 -0.016902378 0.175919 -0.07171011 0.027240723 -0.11682356 -0.038664527
0.06378208 -0.01005584 0.10091545 0.14354272 0.044616118 0.0584324 -0.05045118 0.011395872
0.15003408 -0.14631546 0.05848886 -0.064595826 0.071476415 0.007830724 0.015773922 0.075184524
0.011659056 -0.08759398 -0.13977781 -0.13628903 -0.05972988 -0.07622041 -0.05261665 0.12904926
-0.030345455 0.15414156 0.02073276 -0.095302455 -0.107808694 0.012074292 0.096703336 -0.06302553
0.055222422 0.06810507 0.07554938 0.04152292 0.14239399 0.07177889 -0.15455134 -0.08675629
-0.10758663 -0.079797536 0.079427905 -0.0060589975 0.11692983 -0.04091381 0.05609019 -0.14453585
-0.13608801 0.053484865 0.15751033 0.022482174 0.15901424 -0.11750116 -0.13660683 0.0266491
0.02367786 -0.062729046 -0.05613688 0.15006794 -0.1076634 -0.09155537 -0.004111592 0.15814878
0.0051721265 -0.10263089 0.059603345 -0.060522936 -0.0881285 -0.14244094 0.093182765 0.13392925
-0.035378713 -0.06281643 0.090995125 0.014883513 -0.10388706 -0.015684051 0.050600704 0.03979043
-0.14966764 0.12490536 -0.102821484 0.10638462 0.023787662 -0.1107767 -0.119307615 -0.05459027
0.04589431 -0.06828656 0.1429661 0.13760744 0.1497996 -0.051372208 -0.103396535 -0.08510125
-0.06130331 0.13891776 0.009845525 0.09403576 0.12579279 -0.13645 -0.14340578 0.10634448
0.12321551 -0.0072602034 0.059272707 -0.017767057 0.016274258 -0.056118064 0.14298789 -0.014282346
-0.003104359 0.10334642 -0.14125305 0.043629542 0.0060076118 -0.0707934 0.052683145 0.09209795
0.08651051 0.0094571775 0.14760247 -0.15964256 -0.11663508 -0.0651846 -0.094922334 -0.10211293
0.004410864 0.024157202 -0.016053641 0.08930645 -0.01211391 0.025692958 -0.030162273 -0.14184543
0.039786138 0.033397436 0.15579626 0.07217639 0.14921068 0.08650435 0.14029582 0.010928988
-0.1502206 0.07154055 -0.043288607 0.12082019 0.13868321 -0.14895211 -0.15493758 -0.1387158
-0.0689321 0.07583007 -0.035634235 0.080424644 -0.0880826 0.011283744 0.057884995 -0.0917206
-0.06445368 -0.087173596 0.012971622 0.08809251 0.0035215209 -0.052381247 0.10446047 0.08176961
0.17652959 -0.034051467 -0.08188018 -0.100382075 -0.09282265 -0.01615701 -0.087060735 -0.18405938
0.008962134 -0.04544623 -0.116427705 -0.052086327 0.098420426 -0.060805228 0.09828419 -0.04185744
0.12951194 -0.026995702 0.18858297 0.051261846 -0.086004175 0.040096197 0.07430741 0.0070675756
-0.03570579 -0.06921634 -0.028239526 0.18982057 0.101952046 0.0689133 0.18762894 -0.13005261
0.06146498 -0.10265836 -0.077881694 -0.09350567 -0.06587465 0.032810703 0.09695186 0.14053266
0.027287424 0.06820291 -0.14816494 -0.13748364 -0.14383951 -0.05195842 0.111215964 0.062254563

input_layer.bias f4 [40]
00000000: c1f0 c83d bea6 73bd 0422 7a3d 68e7 15be
00000010: 5572 fb3d 2fe2 253e e944 13be a017 aebc
00000020: 0517 273d 481b 143e 363c 423d a131 1b3e
00000030: 3189 143e 63ae bc3c 69fa 223e 202d e1bc
00000040: 5504 0fbe c49d 013e 96f1 243e e0d8 cbbd
00000050: 00e9 053e b5dd e13d 8544 b23d dc49 fc3d
00000060: 1b3d 5e3d d095 36bc a54b 0cbd 9072 ebbc
00000070: 61eb 85bc 53c6 203d 7196 c63d 1373 3abd
00000080: 5735 0abe 16ff 21bc 1b82 f8bd 4d9c bd3d
00000090: 145a 89bd 083f 15bd 73ca a53d cce8 1e3e
0.09811545 -0.05948519 0.061067596 -0.14639056 0.122776665 0.16199563 -0.14381756 -0.0212515
0.040793438 0.14463532 0.047420703 0.1515565 0.1450546 0.023032373 0.15915836 -0.027487338
-0.13966496 0.12657839 0.16107783 -0.09953475 0.13077164 0.110286154 0.08704475 0.12318775
0.054257493 -0.0111441165 -0.034251828 -0.028741151 -0.016347589 0.039251637 0.09696663 -0.0455199
-0.1349691 -0.009887477 -0.12134191 0.09258328 -0.06706634 -0.036437064 0.08095255 0.15518492

hidden_layers.0.weight f4 [40, 40]
00000000: af26 013e e875 b43c 0e59 fa3d 68bc 36bd
00000010: 30d5 33bd bc3f 0e3d ce23 d83d bc85 b23d
00000020: 705d 3f3c dec6 07bd 6eba ba3d 104f 333c
00000030: 8091 01bc 00f0 623a 2298 dcbd fe41 823d
00000040: 864d 6fbd 557e 03be cc4c 09be 700f 623d
00000050: 94c1 f3bd 8e20 e93d b061 90bd 64ee 243d
00000060: 90a1 02bc 4783 16be 866f 9b3d 9d3c 1b3e
00000070: dae2 823d aa36 a23d 4d11 01be 3c55 b3bd
00000080: 3450 423d a828 013d 7b66 0b3e 5008 98bc
00000090: f883 153d 8a2b d73d e296 e23d ee14 d23d
000000a0: 5322 093e 873e e2bd a6b4 e9bd 8f6e 1cbe
000000b0: 0508 b73c 669e 3bbd 2221 0abe 5c5c 0fbd
000000c0: e227 3b3d 550a e7bc 8691 2ebd 2290 94bd
000000d0: 6f5e 153e 6812 38bd 1c48 27be 8cec d6bd
000000e0: 3e3e f73d c867 fabd 511a cc3d 18f2 c5bd
000000f0: fbe8 6c3b 86b5 133e 34fb b43c 507d a6bb
00000100: 1437 f2bd c8dd 91bc 8028 1fbc b8eb f33c
00000110: e6ed 15be 65cc e03d 026d 3e3d d374 113e
00000120: fe5e adbd d663 e9bd e8d3 47bd e3d3 c7bd
00000130: 8660 fc3d e5d5 95bd cda9 113d 36fd b63d
00000140: 7045 353d a2eb 25bd 7c15 693d 90dd 033c
00000150: 6367 d03d 69ad 58bc 20e5 103c 8022 babb
00000160: 22aa fabd 628a 29be bf9b 1b3e d695 be3d
00000170: 7600 0a3e fd69 0dbe b0d8 f4bd 6abb 103e
00000180: 768f 1d3c dd19 9d3d 6136 533d d841 1fbe
00000190: 6103 e73b 109b c23c 1c33 11bb 704b 4a3d
000001a0: 8a89 62bd 9a49 24bd c558 cabc 0005 cebb
000001b0: 6889 00be 7023 213d 2f9e cf3d bc2c 8dbb
000001c0: 1a1b d43d 7c55 4fbd c128 4a3d 78d9 3fbc
000001d0: 1c58 3bbd 000f 21bd 05b7 2dbd f8f4 abbc
000001e0: 3d21 323e 1c23 39bd 1cf6 a13d 9099 313d
000001f0: 9f8a 97bc 84ca 293d d001 2d3c d621 febd
00000200: d6b2 123d d3d2 e73d cdd9 123d 4bc7 a2bd
00000210: b65d c53d 7a3e 193c 197f 29bd e872 eabd
00000220: a40b 163e f664 423e 6b55 10bd 46d2 613c
00000230: e282 c33d 660e bb3c 55b9 0b3e ccf2 243e
00000240: fb21 483d 7234 903d 5b96 f83d 3042 68bc
00000250: c5a1 913d c1e0 8bbd b8e0 e63d d2e5 e0bc
00000260: 9efe 71bd 0184 903d 1971 c3bd a073 353d
00000270: bcfa 1b3d 967f a43d 291b ab3d a13d 433e
00000280: cd3f 173d 1d98 e1bd 5cc6 19be 90bb 7f3d
00000290: 9629 0f3e a300 05be 00ed c8bb 17bc 573d
000002a0: cadd d63d 128f 27be 06b6 ffbd 7fae 7abd
000002b0: f4f9 27be 32a4 eebd ffb9 a13d 8906 103e
000002c0: 9684 02be d657 22bd 6c12 b13c 60b9 79bd
000002d0: 9c11 d03b eb6f 0fbe 5b2c d53d 9c13 94bd
000002e0: 565b f93c 0084 20ba 4aad c2bd 7873 b7bc
000002f0: f006 ecbd 3b82 863d bdf0 88bd 6695 a83d
00000300: 54db 173d a6ee 063d 9ab3 78bd 2eda 08bd
00000310: 75ff 0fbe a45f a1bd 2f3d 033e 6adc a73d
00000320: b9b7 173c c439 2abd c418 92bc 3844 ae3c
00000330: a84f febd b5d5 4cbd 00de d539 8d5c 393e
00000340: c34a 183c 5a84 94bc 403c 8a3c e6e9 a5bc
00000350: a0ed c4b9 fc4b ccbd 1547 3e3d 91ac e4bb
00000360: dd22 043e b05c a33c 65b2 0abd 117d e5bd
00000370: a9d9 aa3d 3894 503d 8716 00be f8ba fd3d
00000380: 4161 e93c f8b9 cc3c 621d 22bd c608 5abd
00000390: 2b00 86bd 836d 0abe 35e7 ba3b 56e0 fd3d
000003a0: 9bad babd 8683 ce3d d529 183e 55e3 093e
000003b0: 0632 38bd 3cf8 a8bd fdbb e6bd 6973 303e
000003c0: 9008 7d3d c62a 62bd b2dd 963d 1457 4d3d
000003d0: 523b 08bd 3051 f8bc 9d18 1abe 5aa6 ec3d
000003e0: c05b 2dbc f987 0a3e 006d 8fbc aab4 74bd
000003f0: 505b 70bc 3651 19be 30d5 ea3c 34ea 1d3d
0.12612413 0.022028878 0.12224017 -0.044613272 -0.043904483 0.03472875 0.10553704 0.08716914
0.011679992 -0.03314864 0.0911759 0.010944143 -0.007908225 0.00086569786 -0.107712045 0.06360243
-0.05842354 -0.1284116 -0.13408202 0.055190504 -0.119021565 0.113831624 -0.070498824 0.04026641
-0.00797309 -0.14698516 0.07589631 0.15159841 0.06390925 0.079205826 -0.12604256 -0.087564915
0.04743977 0.031532913 0.13613312 -0.018558651 0.03650281 0.10506351 0.11063935 0.10257898
0.13392 -0.110470824 -0.11411409 -0.1527655 0.022342691 -0.045805357 -0.13489202 -0.03500019
0.045692332 -0.028203169 -0.04261925 -0.07254054 0.14586805 -0.04493943 -0.16336101 -0.104943365
0.12072419 -0.12226826 0.09965957 -0.09665316 0.003614961 0.14424714 0.02209244 -0.0050808564
-0.118269116 -0.017805949 -0.009714246 0.029775485 -0.14641532 0.10976485 0.046490677 0.14204721
-0.08465384 -0.11395995 -0.048786074 -0.09757211 0.12323098 -0.07316188 0.035562325 0.08935015
0.044255674 -0.04050792 0.056905255 0.00804843 0.101759695 -0.013224938 0.00884369 -0.0056803823
-0.122394815 -0.16556695 0.15196131 0.09305923 0.13476738 -0.13809963 -0.11955392 0.14133993
0.009616723 0.07670949 0.05156553 -0.15552461 0.0070499633 0.02375558 -0.0022155708 0.04938835
-0.05530695 -0.040109254 -0.024700532 -0.006287217 -0.12552416 0.039340436 0.10137593 -0.0043083113
0.10356732 -0.050618634 0.049355272 -0.011709563 -0.045738325 -0.039320946 -0.04241087 -0.020990834
0.17395492 -0.0451995 0.0790827 0.04335934 -0.018498717 0.0414529 0.010559514 -0.124087974
0.035815082 0.113195084 0.035852242 -0.07948168 0.096370146 0.0093532745 -0.041380975 -0.11447698
0.14652878 0.18983826 -0.03523771 0.013783043 0.09546448 0.022834014 0.13644917 0.16108245
0.04886053 0.07041253 0.12138053 -0.014175937 0.07110933 -0.06829978 0.112733305 -0.027453337
-0.059080712 0.07056428 -0.09543056 0.04429972 0.038080916 0.080321476 0.0835479 0.19066478
0.03692608 -0.110153414 -0.15017074 0.062434733 0.13980708 -0.12988524 -0.006131768 0.05266961
0.10491522 -0.1636317 -0.1248589 -0.06120157 -0.16403943 -0.116524115 0.07896804 0.14064993
-0.1274589 -0.039634548 0.02161523 -0.060967803 0.0063497555 -0.14007537 0.10408851 -0.07230303
0.03043906 -0.0006123185 -0.095057085 -0.022393927 -0.11524761 0.06567808 -0.06686542 0.082316205
0.037074402 0.032942437 -0.060718156 -0.033411197 -0.14062293 -0.0787957 0.12816308 0.081963375
0.0092601115 -0.041558996 -0.017834075 0.021272764 -0.12417537 -0.050008494 0.0004079193 0.18101712
0.009295168 -0.018129516 0.016874433 -0.020253133 -0.00037561078 -0.0997543 0.046454508 -0.0069785793
0.12903924 0.019941658 -0.033861537 -0.11205495 0.08342297 0.050922602 -0.12508593 0.12389177
0.028488757 0.02499102 -0.039578803 -0.053231023 -0.06543001 -0.13518338 0.0057038316 0.12396304
-0.09115144 0.1008368 0.14859708 0.13465627 -0.04496958 -0.08250472 -0.11266325 0.17231525
0.061775744 -0.055216573 0.07366504 0.050131872 -0.033259697 -0.03031215 -0.15048452 0.115551665
-0.010580957 0.13528432 -0.01750803 -0.059742607 -0.014670208 -0.14972386 0.028666109 0.03855343

hidden_layers.0.bias f4 [40]
00000000: 1786 fbbd df85 11bd cd35 a1bd 8bb9 1f3e
00000010: 7051 fcba 7b2f 3e3e 806c 9ebb 965b cfbd
00000020: 415e b7bd f055 443d ba24 c8bc 734a 0c3e
00000030: 06ab 92ba 9599 be3c 194c 1ebd a18e 4c3a
00000040: 1047 5dbc 527a 043e 53b9 023d 6ead 213e
00000050: 678d 1ebd 342e 7fbc cad5 223c d699 4abd
00000060: a4e9 3fbd 4085 2b3d bf9d 6dbd a808 82bd
00000070: 3f76 0f3e 1f24 13be 1246 0fbe 38b9 f5bc
00000080: 74c2 16be d8da a13d 71bb c83d ea35 d63d
00000090: 2542 c73c b993 043e d608 1b3e d5fc 283e
-0.12281435 -0.03552806 -0.0787159 0.15598123 -0.0019250344 0.185728 -0.0048347116 -0.101248905
-0.089535244 0.04793352 -0.024431575 0.13700275 -0.0011189885 0.023266593 -0.03864679 0.0007803236
-0.013505712 0.12937286 0.03191502 0.15788814 -0.03870907 -0.0155749805 0.009938667 -0.049463116
-0.046853676 0.041875124 -0.058011767 -0.06349307 0.14009951 -0.14369248 -0.13991573 -0.029995546
-0.14722615 0.07903069 0.098013766 0.10459502 0.024323532 0.12946977 0.1514009 0.16502698

hidden_layers.1.weight f4 [40, 40]
00000000: 804a efba ef7a ecbd 00a1 cbbd 11c9 3c3d
00000010: 6a87 cbbd c751 8e3d 7585 04be 94e7 e0bd
00000020: f8bc 863c d028 73bc a214 a03d 8dd7 edbd
00000030: 5f9c 14bd eaa3 d83d 62f9 f4bc 3838 343d
00000040: 7175 0e3e d403 073e ca4b 033e 91b1 69bd
00000050: 7fa3 1a3b 7597 c9bd f8ba 903d 40ef 67bb
00000060: 0a2c de3d e9b4 783d ad70 033e 72ec f2bd
00000070: 6c91 053e e074 883d 2216 d53d fe88 0b3d
00000080: 1b8f ebbd 927a 11bb 3acf 823c 9590 bcbd
00000090: c801 b5bd c65e 1bbe bee2 583d 2e9d 363d
000000a0: 489d 893c a9a4 23be b403 cabd bf69 753d
000000b0: 887b dcbd 47e5 9e3d a56c 043e 8409 503d
000000c0: 8532 b8bd c09d e9bc 4310 113e e443 babd
000000d0: c74d 1fbe 11bd 093c afb7 ce3d 7313 24be
000000e0: 2e25 e2bd be64 15be d914 e53d 73d2 d63b
000000f0: 3895 b63d 4335 17be fd20 723c 805b 33bc
00000100: 0eef 02be 0704 bfbd 1f3f 073d 6cd3 1e3d
00000110: d67b 0a3e a4e2 48bd 2460 663d 768c eb3c
00000120: fbe9 93bd 9fb9 17bc 9d38 59bd 19f0 edbd
00000130: ee8f 823d 1129 edbd d372 cebd d64b a6bd
00000140: b804 13bd fc45 c1bd b201 f13d 8068 af3c
00000150: b01b 00bc 79d7 013e da1a f13d 680d d03c
00000160: 86d7 883d e0d1 d9bd f068 14bc feb2 d53d
00000170: 5312 d8bd 485d 9bbc 2e97 e83d 8764 0f3e
00000180: aebd 0abe 34ee bdbd ce56 e73d 0f4e 18be
00000190: b82d 493d 5f18 183e 2014 da3c b44e 6c3d
000001a0: d153 1abe 866b 16be 5ad9 e83d 628d 9f3d
000001b0: 3849 19bd d30a 123e beaf e23d 41d4 9dbd
000001c0: b81e d6bc b02d 023c 822e fabd 07e8 093e
000001d0: a94d 88bd 50ad c4bd 4e63 c73d 6a5f 03be
000001e0: 00d5 f13a be8a f73d 32ba 8f3d 287c ecbd
000001f0: b8c8 b3bd c004 8abd 6101 21be 008f 85bb
00000200: f4fb 1d3d 00f9 453d 28db 9ebc 34b3 1b3d
00000210: b67c 78bd 4019 133c 5ac0 f73d 3c56 663d
00000220: c43c 2d3d 5078 143c c0ad 20bb 7a0b f8bd
00000230: 2224 c03d 34ab 663d b674 1bbd 1c8f eabd
00000240: ac9d 0abe 2784 023e 7891 d0bc 10fb b33c
00000250: a041 563d 443b 46bd b041 75bc 5816 b3bc
00000260: 404e 533c 3fc9 113e 60e8 81bb 0a03 0dbd
00000270: e0c2 b83d 90a5 9fbc 0060 8c3b b698 06be
00000280: 68b7 9f3c 2384 093e 1a95 27be 1b5c b1bc
00000290: 3558 b93d f726 053e a09c f53b d261 32bd
000002a0: ce81 67bd 86e3 c13d d6f1 dd3d 9846 06be
000002b0: e58e 2c3d 58f9 bb3d 6814 353d b253 88bd
000002c0: 58d4 443d 5379 17be 817d f8bd 10a7 23bd
000002d0: 9a2e 283c 7965 853d 9496 d93d 3a60 d8bd
000002e0: c6e2 17bd 5632 d13d 388f dd3d 690b 1d3e
000002f0: 30b6 033e 34fe 8ebd bd1d 0abe d50b c93d
00000300: e956 fd3d e6e1 443d b0c2 b83d 59dd bebb
00000310: 0ce4 a6bd 6ec7 9e3d bb5d fd3d 055d 183d
00000320: 001e 56bc 2a77 c53d 28de 6e3d 7ecc edbd
00000330: 5a0a ed3d b4ee 90bd ca71 e2bd 8a47 c5bd
00000340: 707b af3c 1bd5 113e eae2 00be 3c7a 11be
00000350: 0e85 75bd 7815 81bd dd99 033e b9c5 d2bd
00000360: 8681 ea3d 5bad 813c 5499 de3d 0f64 05be
00000370: 5e0b 26be 0bc3 84bd 7de8 5dbd 204c f2bd
00000380: 078f 013e dc97 1bbd 0ab1 cb3d 2234 e33d
00000390: 5ffe 093e ded0 13be 7fe1 8abd e605 f0bd
000003a0: d44d 85bd b7c2 083e 5991 913d 2f8f 453d
000003b0: 7ba8 19be e77c 08be 49c5 6c3d 4d11 f9bd
000003c0: cf45 04be 2132 c2bd c09d 193d 9073 16bc
000003d0: 5c0d 3e3d a84e a23d d435 7dbd 0044 243a
000003e0: ba40 8d3d 5a11 883d a0a3 a23d 40b5 193c
000003f0: c64c 1cbe 80d0 ef3a 7a3d a73d 1cb5 70bd
-0.0018256456 -0.11546885 -0.09942818 0.04609019 -0.099379376 0.069491915 -0.12941535 -0.1098167
0.01644753 -0.014841273 0.078164354 -0.11613379 -0.03628194 0.10578139 -0.029904071 0.043998927
0.13911988 0.13185054 0.1282188 -0.057054106 0.0023595986 -0.09843341 0.070669115 -0.0035390407
0.108482435 0.060719404 0.12835951 -0.118615046 0.13043755 0.06662917 0.10404612 0.034066193
-0.115019046 -0.0022198302 0.015967954 -0.09207264 -0.0883823 -0.15172872 0.052950613 0.044583492
0.01679863 -0.15980782 -0.098639876 0.0599153 -0.10765749 0.07758575 0.1293207 0.050790325
-0.08994011 -0.028517604 0.1416636 -0.0909498 -0.15557013 0.008406893 0.100936286 -0.16023044
-0.11042248 -0.14589211 0.11185617 0.006555849 0.0891518 -0.14766411 0.014778373 -0.010947108
-0.12786505 -0.0932694 0.03301918 0.038775846 0.13523802 -0.049044266 0.05624403 0.0287535
-0.072223626 -0.009260564 -0.053032506 -0.116180606 0.06375109 -0.115800984 -0.10080495 -0.08119933
-0.035893172 -0.094371766 0.117679015 0.021412134 -0.007819101 0.12679853 0.117727 0.025397018
0.06681733 -0.106357336 -0.009058222 0.10434531 -0.1055037 -0.018965378 0.1135696 0.14003192
-0.1354892 -0.09273949 0.112958536 -0.14873527 0.049115866 0.14853047 0.026620924 0.057692245
-0.15071036 -0.14689454 0.113695815 0.077906385 -0.037423342 0.14261942 0.110686764 -0.077065
-0.026137695 0.007945463 -0.12215902 0.13467418 -0.066554375 -0.09603369 0.09735738 -0.12829366
0.001845032 0.1208701 0.07017936 -0.115471184 -0.087785184 -0.06739187 -0.15723182 -0.004075885
0.03857036 0.048333168 -0.019391611 0.0380127 -0.06066581 0.008978188 0.12097235 0.056234583
0.04229428 0.009061888 -0.0024517626 -0.12111564 0.09381892 0.056315616 -0.0379531 -0.11453077
-0.1353671 0.12745725 -0.02545999 0.021970302 0.05230868 -0.048396364 -0.014969274 -0.02186124
0.012897074 0.14236926 -0.003964469 -0.034426726 0.090215445 -0.019488126 0.004283905 -0.13144192
0.019496635 0.13429312 -0.16365471 -0.021650365 0.09050027 0.13003145 0.007495478 -0.04355032
-0.056520276 0.09467225 0.10837142 -0.13112867 0.042128462 0.09178418 0.044208914 -0.066565886
0.04805407 -0.14792375 -0.12133313 -0.039954245 0.010265017 0.06513495 0.106244236 -0.10565229
-0.037081502 0.10214679 0.108183324 0.15336384 0.12862468 -0.06982079 -0.13487907 0.0981671
0.123700924 0.048066996 0.09021509 -0.0058247265 -0.08148965 0.07752882 0.12371393 0.037198085
-0.013068676 0.09641869 0.058317333 -0.116112694 0.1157424 -0.07076779 -0.1105686 -0.096327856
0.021421164 0.1424145 -0.12586561 -0.14206785 -0.059941344 -0.06302923 0.12851663 -0.10291619
0.11450486 0.015829733 0.10869089 -0.1302645 -0.16215274 -0.06482514 -0.054176796 -0.11830926
0.12652217 -0.03798662 0.09945877 0.11093928 0.13475941 -0.14435145 -0.06781291 -0.11719875
-0.06508985 0.13355528 0.07107801 0.048232254 -0.15005676 -0.13328896 0.057805333 -0.12161503
-0.12917255 -0.094822176 0.037503958 -0.009182826 0.04639946 0.07925159 -0.061818913 0.00062662363
0.06897111 0.066439345 0.07941365 0.009381592 -0.15263662 0.0018296391 0.081660226 -0.05876647

hidden_layers.1.bias f4 [40]
00000000: e8a1 59bd db9e 593d 7f4a bdbd b062 153c
00000010: 748e 25be b09a dc3d 3e3d 05be 1b3b e0bd
00000020: 3fc6 12be 03d4 cc3c 73bf 283d 3479 dfbd
00000030: 22c0 85bd 3ed3 083d 6959 e4bd 221d e5bc
00000040: 977d 963d 8805 a63c 3d5d d83d 04e5 653d
00000050: e3c2 c8bd 9633 fdbd 4511 9f3d 2c47 a9bd
00000060: deaf 3b3e 52f2 c5bd f082 813d 3284 bbbd
00000070: 5259 17be 138b 373d e3e8 a43d 35ba 12bd
00000080: 4ee5 6abd 8edf 343e 684a 503d 9778 abbd
00000090: 4db5 edbd afc6 d93d 14e1 0dbe a087 0cbe
-0.05313292 0.053130012 -0.092427246 0.009117767 -0.16167623 0.10771692 -0.13011643 -0.109487735
-0.14333437 0.025003439 0.041198205 -0.109117895 -0.06530787 0.03340458 -0.11149866 -0.027967993
0.07348173 0.02026631 0.10564659 0.05612661 -0.09802797 -0.12363355 0.07766966 -0.08265528
0.18328807 -0.096653596 0.063238025 -0.09156074 -0.14780167 0.044810366 0.08052232 -0.035822112
-0.05734759 0.17663404 0.05085221 -0.0837261 -0.11606846 0.10633599 -0.13855392 -0.13723612

hidden_layers.2.weight f4 [40, 40]
00000000: c460 e6bd dae7 a93d d351 063e 205a 903c
00000010: 7878 bd3d 749b 8dbd e665 17be e2f3 703d
00000020: fc1f 1fbe 4c24 d93d 39ed 063e 59ed af3d
00000030: a2e4 d53d a656 92bd da03 a73d 609e c6bc
00000040: 0c3c cb3d f0b5 873c 3b29 5c3d 9c5f 17bd
00000050: ff9e 18be b216 e7bd f518 43bd 7336 043e
00000060: ac1d 2abd 8efe d13d 6457 003e 7a2d c03d
00000070: 503a adbd 2080 12be 02c3 e1bc de8e 0ebe
00000080: 3adf bb3d 9af0 123e b17b e1bd 7d2c 663d
00000090: f640 ecbd 5b8a c8bb 4bc3 f5bd dda5 cbbc
000000a0: 2f92 1f3e ae32 52bd 8407 85bd 299f 083e
000000b0: 5132 8abd 680f 9b3d a97e 0ebe 9021 e03c
000000c0: 00d6 893b bd31 1abe 6a68 0bbd 3f06 19be
000000d0: 968b f93d d4ec 6a3d 8dd2 003e 1c89 693d
000000e0: b07a 8d3c 4ad1 32bd 4016 513b 23fd 01be
000000f0: a28e a3bd ed2e 143e aed6 75bd 3018 bf3c
00000100: 0edf bdbd fbd8 c1bd 1efd ea3d ea5a fa3d
00000110: 5088 1dbd 3ea9 df3d b8bf a1bc c82f a83c
00000120: 580f edbc 20ee a5bb 12a0 c4bd 4a85 78bd
00000130: 0adf 51bd f4d9 033d b613 05be 8c9c 8dbd
00000140: fd76 aabd bb48 8e3d aeba c2bd 30df a8bc
00000150: 4ba3 2d3d 7833 86bc 6b79 88bd ab55 d7bd
00000160: 50ca 693c 31b8 103e 071e 19be a9e5 8b3d
00000170: 45f4 0ebe f593 18be 9a9b 9e3d e61b e7bc
00000180: 8381 0d3e 8ebd dd3d fe22 b6bb d14e 153b
00000190: fd42 5d3d 7ad7 123d 03d7 cb3d 00ab e5bc
000001a0: 57b3 a93c 6129 1cbe 4798 203c 5ea0 2e3c
000001b0: d950 db3c 15a5 d4bd a070 b0bd bb03 6bbc
000001c0: 5dfc aa3d ba12 d23d a8c5 a73c a087 833d
000001d0: febb 0d3e c86a 6dbd 2be6 03be e58b e8bd
000001e0: 401d 21bd 4094 05bc 55d8 20be c87d 7fbd
000001f0: 68df fabd 806d ca3c 549a 04be c023 cf3c
00000200: 76f7 cc3d c0c5 223b c019 8bbb 1280 dd3d
00000210: fc55 a43d 3460 203d 6cfb 02be 8f5a 1a3e
00000220: 7254 6dbd aadf 0fbd e440 babd 6850 853d
00000230: 00c5 8dba 18c1 783d a806 92bd 3b7a afbd
00000240: a8f8 3e3d a245 af3d e91c 053e 108a 4d3d
00000250: cedb cd3d 802c 0e3b aea6 dcbd a163 9cbd
00000260: 341a 05be 2829 2fbd cff8 203e cc80 47bd
00000270: f0be e7bc 0042 8dba 528e 13be f88e acbc
00000280: 4e88 ab3d 1602 f63d 530c 16be f4ee 4e3d
00000290: 4fa8 80bd 103c d9bc 8c3b 20bd 60ec 39bc
000002a0: 4471 04bd 2293 f23d b289 c4bd 8524 04be
000002b0: 7ab5 99bd bc5c 583d cc44 17bd f4c3 283d
000002c0: 3294 d0bd 2e59 b0bd 00d2 793d 884a 92bc
000002d0: 497b 003e feac de3d 71f8 a8bd 689d a8bc
000002e0: bdf5 b1bd e4a2 5abd f9b4 1b3e 0f85 f4bd
000002f0: 3d7b eebd d03f c83c 5004 a33d c049 c53c
00000300: a4aa 4ebd b2b0 0cbe 74a6 dcbd 10a6 69bc
00000310: 58a0 343d 4205 d3bd 90a6 86bc da53 e93d
00000320: 57aa 8dbd 7255 c6bd 58f4 54bd 5851 8bbd
00000330: 4d84 81bd bf08 1e3d a396 10be 2b51 e63d
00000340: 884a c03c c487 143d bd8a 56bd cd54 d6bd
00000350: 882a b4bc 5d18 d63d e10b 1b3e ce82 9d3c
00000360: 03cc 2f3e 1106 203e 20ec 993d a86f 86bd
00000370: 2356 4abd f1bb 003e eeb6 68bd 6d60 053e
00000380: 22a9 813d 0504 003e b04f 8dbd 94f9 f53c
00000390: 25b3 1e3e 4119 833d 9676 f1bd bdf7 c2bd
000003a0: f69d e3bd 6b20 efbd bccf a53d cc52 0b3e
000003b0: 7233 f1bd 524f a2bd 409a d23b 7a15 febd
000003c0: eb82 c0bd 69d8 c7bd c988 013e f06d 513c
000003d0: 90a1 a8bd 7568 1bbd 045c 01be 5e63 90bb
000003e0: 3029 343c c513 a93d 9a85 b73d fb50 44bc
000003f0: 3e19 fa3d eade 0c3e e00d b1bb 22d4 573b
-0.11248925 0.08296175 0.13117151 0.0176211 0.09251493 -0.06914416 -0.14784965 0.058826335
-0.15539545 0.10602626 0.13176431 0.08590192 0.10443999 -0.07145433 0.081550315 -0.024245441
0.099235624 0.016566247 0.053750258 -0.036956415 -0.14904402 -0.11283626 -0.047631223 0.12911396
-0.041532204 0.102536306 0.12533337 0.09383674 -0.08458388 -0.14306688 -0.027558807 -0.13921687
0.091734365 0.14349595 -0.110099204 0.05619477 -0.11535828 -0.006120009 -0.1200014 -0.024859363
0.15583108 -0.051317863 -0.06495574 0.13341965 -0.06747878 0.07571298 -0.13915505 0.027359754
0.004206419 -0.15058036 -0.034035124 -0.14943789 0.12184827 0.057354763 0.12580319 0.057015523
0.017270416 -0.043656625 0.0031904131 -0.1269422 -0.079861894 0.14471026 -0.060019188 0.023326963
-0.0927106 -0.09465214 0.114740595 0.12224372 -0.038460076 0.10920952 -0.019744739 0.020530596
-0.02893798 -0.005063787 -0.096008435 -0.06067399 -0.051238097 0.03219028 -0.129958 -0.069146246
-0.083234765 0.06947466 -0.095082626 -0.020614237 0.042392056 -0.016381964 -0.06663784 -0.10514387
0.014269426 0.14132763 -0.14952861 0.068309136 -0.13960369 -0.14900191 0.077445224 -0.028211545
0.13818936 0.1082717 -0.0055583706 0.0022782574 0.054018963 0.035850026 0.099531196 -0.02803564
0.020715399 -0.1525016 0.009801931 0.010658352 0.02677195 -0.103830494 -0.086152315 -0.014344151
0.08348916 0.10257478 0.020479992 0.06422353 0.13841245 -0.057963163 -0.12880771 -0.11354808
-0.039334536 -0.008153021 -0.15707524 -0.062375814 -0.122496426 0.024710417 -0.12949497 0.025285602
0.10008137 0.0024837106 -0.004245013 0.10815443 0.08024213 0.039154246 -0.12791222 0.15073608
-0.05794186 -0.035125412 -0.09094408 0.06509477 -0.0010816157 0.060731024 -0.07130176 -0.085682355
0.046623856 0.08558203 0.1299931 0.050180495 0.1005169 0.0021694005 -0.10773979 -0.0763619
-0.12998277 -0.04276386 0.15719913 -0.048706815 -0.028289288 -0.0010777116 -0.1440976 -0.021064267
0.083756074 0.120121166 -0.14653139 0.050520852 -0.06282102 -0.026517898 -0.03911929 -0.01134786
-0.03233458 0.118444696 -0.09596576 -0.12904556 -0.07505317 0.052822813 -0.036930844 0.0412025
-0.10184516 -0.0861076 0.060991287 -0.017857805 0.1254703 0.108728394 -0.082505114 -0.02058287
-0.08689449 -0.053378 0.15205754 -0.119394414 -0.116445996 0.02444449 0.07959807 0.024083018
-0.050455704 -0.13739279 -0.10773936 -0.014260784 0.04409823 -0.10303737 -0.016436845 0.113929465
-0.06917255 -0.09684266 -0.051990837 -0.068026245 -0.063240625 0.03858256 -0.14119963 0.1124595
0.02347304 0.03626229 -0.052378405 -0.10465393 -0.021992937 0.10453866 0.1514125 0.019227412
0.17167668 0.15627314 0.075157404 -0.065642655 -0.049398553 0.12571694 -0.05681508 0.13025065
0.06331088 0.12501533 -0.06899965 0.030026235 0.15498026 0.06401301 -0.117901966 -0.095199086
-0.11114113 -0.11676105 0.08096263 0.13605803 -0.117773905 -0.079252854 0.0064270794 -0.1240644
-0.093999706 -0.09758074 0.12649836 0.012782559 -0.082339406 -0.037941415 -0.12632757 -0.0044063767
0.010996148 0.08255724 0.08961029 -0.011982198 0.12211846 0.1375691 -0.0054032654 0.0032932837

hidden_layers.2.bias f4 [40]
00000000: 6f5a 98bd 304a 19be fe4f f53d cfae 80bd
00000010: e879 d9bd bdd5 413e 26a7 a43d b7cd f73d
00000020: 7ae2 643d 023f febd d073 ebbd 5866 13be
00000030: 01dc 4fbd efc7 c9bd 64e4 b03d eab7 0cbd
00000040: 0fbc a3bd 9f17 1fbe 10b5 1e3d 60af f33d
00000050: 2463 123e 44a0 623d e0a0 fabd 1cb8 e23d
00000060: fd42 b0bc a2b6 e83d d47e 053e 3996 ae3d
00000070: 5cf5 b23d 9470 b93c a944 a53d b3b8 263e
00000080: 726d 363c 14f0 353d a60b 87bd 00c8 7ab9
00000090: 4d41 2c3d 8fba 9dbd 69e8 c23d 0dee a43d
-0.07439124 -0.14969707 0.11978148 -0.06283342 -0.10618955 0.18929191 0.080396935 0.12099784
0.055880047 -0.124143615 -0.11496699 -0.1439451 -0.05074692 -0.098525874 0.08637312 -0.03435508
-0.07994854 -0.15536354 0.038746893 0.118986845 0.14295632 0.055328622 -0.12237716 0.11070272
-0.021516318 0.113629594 0.13036662 0.085247464 0.08738205 0.02263669 0.080697365 0.16281395
0.011134492 0.04441841 -0.06594019 -0.00023916364 0.042054463 -0.07701599 0.09516985 0.08053217

hidden_layers.3.weight f4 [40, 40]
00000000: 251d 043e 392f ecbd 9ef2 fc3d 227b fb3d
00000010: a19f 213e 7edf 82bd 849a 0abd 6b69 14be
00000020: e946 1ebe 6ed3 0fbe f869 f53c 286d a6bc
00000030: 3398 1a3e 763c b13d 70e4 b33c 5a51 07be
00000040: 1412 643d 3880 f0bd be5d 973d 1577 91bd
00000050: 382e 453d a428 553d c8ee 9a3c c007 61bb
00000060: a39a 81bd a613 83bd 448b 8a3d d5ee 133e
00000070: 526b bbbd 685f f2bc e792 013e ae8c be3d
00000080: d841 aebd 2013 b8bd 1a97 e2bd a8f8 8bbd
00000090: cb19 0dbe 6e35 febd cbc2 12be 44a2 273d
000000a0: d274 c93d df7a 82bd 79c8 213e 5c19 0ebe
000000b0: b879 1dbe bc73 f1bd 209a 8cbc db17 91bd
000000c0: 4046 64bc 0e4b 8b3d c488 5bbd 00c7 dfbc
000000d0: f12f 013e 9014 e2bc 687a 3e3d 02e7 d13d
000000e0: 0060 7039 b8c8 1d3d 9b88 183e eafa 01be
000000f0: 21d0 96bd 2492 263d 7a95 18be 229b 903d
00000100: 706a ef3c 2091 bf3c 8060 d0ba d5e2 a7bd
00000110: b091 c6bc 4f7a 193e 0049 8b3d f8ce d4bd
00000120: 083b 2abd a0e1 d9bc 5394 083e 709f 1b3d
00000130: 96b2 0abd c6a4 11be 6a35 d23d ec82 863d
00000140: 8ec3 c23d d8bb 45bd 7822 823c 6025 1e3c
00000150: f30a 193e 484a 4dbd 5c48 743c c480 4cbd
00000160: bca7 d9bd ee6c e3bd 8282 b43d be3b cb3d
00000170: 2ebc 4b3b c8a6 9e3c 2fb9 2bbe a477 283d
00000180: 90c7 fdbd acef ad3d 8eb4 dcbd 1d2e 353d
00000190: d29b 8dbd b185 b2bd 02b9 c83d 680e 263d
000001a0: 303f 653d ccfd 933d 74a6 c9bc 967d 153d
000001b0: bfa5 f2bd df9c e2bd 448c fd3d 544e 03be
000001c0: a17b c2bd d87a 2bbe e8e2 843c 00b8 a03d
000001d0: 5849 2abe 515f f2bd b238 20be 4d7d db3d
000001e0: c531 ed3c 2076 09bd 23fc 3b3d d8df e5bd
000001f0: 006f deba b895 07be 948a a63d e795 d2bd
00000200: 80f3 223c 00f1 ceba f94d a5bd 2ff1 003e
00000210: d568 9c3d 88bd 8cbc 357a 51bc 88ca ef3c
00000220: 7e8f d2bd 7fa1 013e 4672 da3d a4f0 0e3d
00000230: 293e 143d 0f43 09bd 78dc 8e3d a3db 943d
00000240: 4803 e2bd 74f8 36be fac2 39bc 68b0 b63d
00000250: 2d1b b2bd b737 1ebe f5d9 46be 9ae6 cb3d
00000260: 23d3 b83d c0fe 913d 78e0 afbc 6075 143c
00000270: 2a8e 89bd 6011 973b 9000 31bd d9fe e23d
00000280: 688c f6bd 7f62 183e b6f1 683d 6212 f63d
00000290: 40c0 f53b a10e 983d c6e6 f2bd 9f18 04bd
000002a0: d558 15be 1fc0 0ebe 209d 6cbc 58cc 3d3d
000002b0: 9cd6 94bd 5cd6 733d 3948 cabd b996 1c3e
000002c0: 8a57 06be 7c6e 3ebd f0f3 aebc 58cd 923d
000002d0: 1deb f3bd 56f7 8b3d 6407 303d edb8 113d
000002e0: d9a9 353d f7b8 a9bd 334b bf3d 9676 b7bd
000002f0: b1a1 1ebd 5cdd d63b 092f e63c e686 0ebe
00000300: 46de 473d 6420 8f3d 7235 c33d 9e91 6dbd
00000310: 54d0 823d 10ae 65bd cf15 f03b 3f64 0ebe
00000320: bbcf 0c3e a601 ae3d 0055 f5bd aaa0 d33d
00000330: c098 03bc d053 0c3d 1133 adbd 35de 033e
00000340: 887d 433d 09de 1bbe 4325 92bd d266 ff3d
00000350: f4a9 823d 207a a1bc b8e2 86bd 6e44 fa3d
00000360: 4c97 913d e785 1a3e d074 263d e4cf 5abd
00000370: 406e 04bb 28e3 f9bd 516e 163e 9056 d43c
00000380: ec6a cfbd 8462 8b3d 4d6b 0e3e 4cda 283d
00000390: d2d3 d73d 6694 79bd a903 15be b681 e1bd
000003a0: da94 19bd 00ac 6839 b23c f13d 94fc 16bd
000003b0: b2fa 9d3d 8a96 873d 76c5 d13d 9aee c9bd
000003c0: 54bc 07be d01e 303c 405d c0bd 08a2 a0bd
000003d0: a4d6 1e3d f6c8 e53d 529a 0dbe 4a85 cf3d
000003e0: d853 a6bc 7aa3 cc3d 184f 953d c669 18be
000003f0: b884 8dbc 2c16 9f3d ad1f 1a3e b4f6 163d
0.12901743 -0.115324445 0.12350963 0.12279345 0.1578355 -0.06390284 -0.033838764 -0.14493339
-0.15456738 -0.14045498 0.029957756 -0.020315722 0.15097122 0.0865411 0.021959513 -0.13214627
0.055681303 -0.11743206 0.07390927 -0.07102791 0.04813978 0.05204071 0.018912688 -0.0034336895
-0.06328323 -0.06400232 0.06764844 0.14446576 -0.09151329 -0.029586509 0.12653695 0.09304176
-0.085086524 -0.08988023 -0.110639766 -0.06834537 -0.1377937 -0.12412535 -0.1433212 0.040926233
0.09836735 -0.06371092 0.1579913 -0.13876861 -0.15378463 -0.11789653 -0.017163336 -0.07084628
-0.0139327645 0.06801425 -0.053597227 -0.02731657 0.12615944 -0.027597696 0.046503454 0.10249139
0.00022923946 0.0385215 0.14895861 -0.12693372 -0.07363916 0.040666714 -0.14900771 0.07060839
0.029225558 0.02338463 -0.00158979 -0.08197562 -0.024239391 0.14988063 0.06801033 -0.10391039
-0.041560203 -0.026596844 0.13337831 0.03799385 -0.03386172 -0.14223012 0.10264094 0.0656794
0.09509955 -0.048274845 0.015885577 0.009652466 0.14945583 -0.05011967 0.01490983 -0.049927488
-0.10627696 -0.11104761 0.08813955 0.09923504 0.0031087506 0.019366637 -0.1676986 0.041129723
-0.12391579 0.084929794 -0.107766256 0.04423343 -0.06914486 -0.08716906 0.098009124 0.040541083
0.055968463 0.07226142 -0.024615504 0.03649672 -0.1184802 -0.11065077 0.12380269 -0.12822849
-0.094962366 -0.1674608 0.016221479 0.07847595 -0.16629541 -0.118345864 -0.15646628 0.107172586
0.028954396 -0.03355992 0.045894753 -0.112243354 -0.0016970336 -0.13240707 0.081319004 -0.10282498
0.00994575 -0.0015788376 -0.08071513 0.12592004 0.076371826 -0.01718022 -0.012785484 0.02927138
-0.10281275 0.12659262 0.10666327 0.03489746 0.036192093 -0.033511218 0.06975645 0.07268455
-0.11035782 -0.17868215 -0.01133799 0.089203656 -0.086965896 -0.15450941 -0.19419082 0.09956093
0.09024646 0.07128668 -0.02146934 0.0090611875 -0.06716569 0.0046102256 -0.043213427 0.110837646
-0.12038499 0.14881323 0.05687114 0.12015225 0.0074997246 0.07424665 -0.11860423 -0.032250043
-0.14584668 -0.13940476 -0.014441758 0.046337456 -0.07267496 0.0595306 -0.09877057 0.15291871
-0.13119331 -0.046492085 -0.021356553 0.071680725 -0.11910079 0.06834285 0.0429758 0.03557675
0.044351432 -0.08287232 0.09340515 -0.08958165 -0.03872842 0.00655715 0.0280986 -0.13918647
0.04879596 0.069886 0.09531678 -0.0580002 0.06387392 -0.056074202 0.0073268185 -0.13905428
0.13751118 0.08496408 -0.11979103 0.103333786 -0.008032024 0.034259617 -0.08457006 0.12877734
0.047727138 -0.15221418 -0.07136013 0.12470783 0.06380072 -0.019711554 -0.06586212 0.12220083
0.07108936 0.15090142 0.040638745 -0.053420916 -0.0020207316 -0.1220153 0.1469052 0.025920182
-0.101278156 0.068059 0.1390812 0.04122381 0.105384484 -0.06093254 -0.14552177 -0.110110685
-0.03749547 0.00022189319 0.11779155 -0.03686197 0.07713832 0.0662051 0.10242741 -0.09859963
-0.13255435 0.010749534 -0.09392786 -0.07843405 0.038778916 0.11219971 -0.138284 0.10132845
-0.020303652 0.09992118 0.072904766 -0.148841 -0.0172752 0.07767901 0.15051146 0.03685637

hidden_layers.3.bias f4 [40]
00000000: d4cd 18be 15fb 15be 0730 ef3c 8059 993c
00000010: c10a e13c 60a9 97bb 9491 43bd b9f2 1abe
00000020: 9026 3f3c 79e4 a8bb ad83 173d fc35 d33d
00000030: 1af7 71bd 194b 193c 6dcb 12be 7851 fa3d
00000040: 1016 d43c b220 09be a031 923d cb4f ac3d
00000050: 44ba 1abe 53a7 7a3d 7765 983d 65a8 c1bb
00000060: da6e d0bd e2a4 b33d 179b d23d a56c f6bc
00000070: d5cc 19be e4a9 d63b 66dd 923d 5cf9 d13c
00000080: 6662 8ebd 35be d7bd 8115 013d 0aa5 ac3d
00000090: b831 3bbc 306b 3e3e 0b50 a7bd b80c 8a3c
-0.14922267 -0.14646561 0.029197706 0.018719435 0.027470948 -0.0046283454 -0.047746256 -0.15131654
0.011666909 -0.005154189 0.03699081 0.10313031 -0.059073545 0.009356284 -0.14335413 0.1222257
0.025889426 -0.13391379 0.071383715 0.08413657 -0.15110117 0.06119473 0.07441228 -0.005909967
-0.10177393 0.08771683 0.10283487 -0.030081103 -0.15019543 0.0065510143 0.07171135 0.0256316
-0.06952362 -0.10534326 0.03151465 0.08429916 -0.011425428 0.18595576 -0.08169564 0.016851768

output_layer1.weight f4 [2, 40]
00000000: a703 143e 0ecf de3d 14ec 19bd c27b 9a3c
00000010: e562 d33d 9b13 1e3e 80d0 683c 009d cdbb
00000020: 98b3 013d b366 8b3b f54f 313e eb77 2b3e
00000030: ff60 fabd b7a0 b1bc 8e0b f73d 94ca 0cbe
00000040: 8671 c03d 0060 c5b8 2b57 ccbd 1249 a43c
00000050: e1fa c8bd c262 cabc 52d6 3dbd 9ecf 2bbd
00000060: 2baf c3bd 0aba 6d3c b0a5 133d b4c8 8a3d
00000070: 2c26 943d e6a3 0ebe d994 2c3e f6fe 893d
00000080: 83d6 4c3c a6ee f53d e269 133d 1a62 283e
00000090: 3d38 8d3d eaa5 03bd 6465 6f3d 7865 99bd
000000a0: 50ee 91bc 23cf dcbd e46b 923c 8a2b aabd
000000b0: d16c 983d 4efa bb3d a068 783c 10ee 96bd
000000c0: b0cb 95bc c460 6a3d 92eb f83d 53a5 e53d
000000d0: aea1 c53d b226 f13d b2be edbd e303 7cbc
000000e0: 3d3a abbd c0db d23b 27ff afbd 8167 f53c
000000f0: 9d33 203e f18d f1bc 4bf2 013e c13d bfbd
00000100: 4cc2 b8bc 6c51 d73d c31f bd3d b685 b9bd
00000110: 0c91 1dbe a744 8abd 499e ff3d 57d2 04bd
00000120: 9bd4 64bd 58ab 4a3d 97ed 5ebd 4ed9 9ebd
00000130: f4a6 ccbd 1fb6 c9bd 17e9 1d3e a206 933d
0.14454518 0.10879336 -0.037578657 0.01885784 0.10321597 0.15437166 0.0142098665 -0.0062748194
0.031665415 0.004254186 0.17315657 0.16744964 -0.12225532 -0.02168308 0.12062751 -0.13749152
0.09396653 -9.4115734e-05 -0.099775635 0.020054374 -0.09813476 -0.024705295 -0.04634697 -0.041946046
-0.09554895 0.014509687 0.036046684 0.06776562 0.07233843 -0.1392971 0.16853656 0.06738083
0.012502315 0.12008409 0.03598965 0.16443673 0.06895492 -0.03214065 0.058446303 -0.07490057
-0.017813832 -0.10781696 0.017873712 -0.08309086 0.0744263 0.09178601 0.015161663 -0.073696256
-0.018285602 0.05722119 0.121543065 0.11213174 0.096499786 0.11774959 -0.11608638 -0.015381786
-0.083607174 0.0064348876 -0.08593588 0.029956581 0.15644689 -0.029486628 0.12690084 -0.093379505
-0.022553585 0.10513577 0.09234574 -0.090587065 -0.15387362 -0.06751376 0.124813624 -0.03242716
-0.05586682 0.049479812 -0.054425802 -0.07756291 -0.09992781 -0.0984919 0.15420948 0.071789995

output_layer1.bias f4 [2]
00000000: d00e bcbd 3c0c 8b3a
-0.09182513 0.0010608505

output_layer2.weight f4 [1, 40]
00000000: 3835 5dbd 06eb 1dbe 400d 25bd 9b11 fcbd
00000010: 62cc e7bc c0ca 183c 800e 1ebc 38a8 cebc
00000020: e8ca aa3c c2e5 db3c 9052 c83d 712b aabd
00000030: fb1d 13be 42a3 cdbd c047 583d 6648 a63d
00000040: 3766 203e 8caf 973d c685 ea3d 00ca c5bd
00000050: 38d2 b13c 2f0a 593d 95cc c8bd 9043 87bc
00000060: ab51 c5bd acb0 84bd 1f54 e3bd ee64 f6bd
00000070: 5955 0f3e 86f8 943d ace6 aebd 08fa b23b
00000080: 3ac5 a93c bac6 ac3d f8a3 30bd f1a4 343e
00000090: 3be1 cdbd 2384 2a3e 4261 0bbe a8a1 86bc
-0.05400583 -0.15421686 -0.04029584 -0.123080455 -0.0282957 0.009325683 -0.009647012 -0.025226697
0.020848706 0.026842955 0.097813725 -0.08309067 -0.14366905 -0.100409046 0.0528028 0.08119278
0.15663992 0.0740653 0.114512965 -0.09657669 0.021706685 0.052988227 -0.09804646 -0.016511708
-0.096347176 -0.0647901 -0.11100029 -0.120309696 0.13997401 0.072739646 -0.08540091 0.005461935
0.020723928 0.084363416 -0.043125123 0.17641045 -0.10052725 0.16651969 -0.1361132 -0.016434506
