src/models/representation_95.pt (torch, 43730 bytes, 12 tensors)

input_layer.weight f4 [40, 40]
0.093909085 0.12520538 0.06663743 0.05670027 -0.13148476 -0.030390551 0.102464594 -0.03336056
0.074430205 0.019262658 -0.07186646 -0.03374466 -0.11110261 0.012968207 -0.013127222 0.12425416
-0.11266627 -0.0874349 -0.024891702 -0.060626175 0.12218347 -0.14011143 -0.13782443 0.15500897
0.08158353 0.12851201 0.10920556 -0.0048101405 -0.06482703 -0.13440417 0.09779227 0.025880776
0.15595703 -0.021559672 0.037242156 -0.09520447 -0.08561684 -0.10892658 0.046888877 0.013479867
0.060604036 -0.07626902 0.07506162 0.015017676 -0.011000089 0.06695523 0.146835 -0.088284425
-0.016012764 -0.03204885 0.021110758 -0.11180115 0.029373381 -0.04774438 0.112064786 0.046942897
0.13516036 -0.12088722 0.12789011 0.07775686 -0.0833667 -0.07709208 0.15694004 0.024292313
-0.07932335 0.1655529 -0.01348268 0.17501824 0.039836075 0.032983784 -0.08311936 0.07308228
0.1548419 0.11922564 0.1585007 -0.048505176 -0.08260575 -0.005205156 0.039367627 0.16130027
-0.068365164 0.08249181 -0.0849342 0.040188577 0.16015358 -0.120687306 -0.0017027663 0.049181156
0.049799882 0.15421985 -0.036326107 0.08606291 0.10057869 -0.042420503 0.06881968 -0.10289928
-0.07669424 -0.019265445 0.13700975 0.0144837415 -0.061217844 0.040106285 0.10149103 0.1261727
0.13150446 -0.046548467 0.08745687 -0.053560924 -0.06826007 0.13670082 -0.12540786 0.14300351
-0.12822336 0.08221429 0.14137702 -0.14838652 0.060013965 0.050134752 -0.11572853 -0.016419617
-0.07962599 -0.047681086 -0.13682236 -0.11862947 -0.17566723 0.067867935 0.10976737 -0.122447744
-0.16611256 -0.027799794 -0.13759747 0.027178416 0.12353887 0.03857464 0.08800848 -0.096592516
0.094233826 0.11172888 0.12321886 0.10161751 0.09418904 -0.06236084 -0.022787733 0.03346626
-0.12373484 -0.091354355 0.12856697 0.1126484 0.100104906 0.0116079785 -0.0868327 -0.043371733
0.043556582 -0.13519059 -0.05068491 -0.09884714 -0.097992346 -0.17199971 -0.12405878 0.07452321
-0.15206754 0.059731316 -0.007521726 -0.108692914 0.106916614 0.09322835 0.04599342 -0.14568739
-0.007368206 -0.05635253 -0.079205394 -0.0065714605 0.042389292 -0.12460214 0.113500796 -0.0170507
0.053890206 -0.16216932 -0.10310285 -0.1662679 0.082650386 0.0068546482 -0.12474061 -0.03381325
-0.086570725 -0.12358935 0.099303775 0.10265535 0.013078109 0.017430142 -0.17464001 0.07889636
0.09071971 0.010752119 -0.1702572 -0.058245003 -0.0629947 -0.099142715 -0.16393949 0.03493454
-0.12766764 0.013131875 0.14055282 -0.08213099 0.14748691 -0.03520256 -0.039073214 -0.13274723
-0.053577073 -0.057459734 -0.075412296 0.10884047 0.16393062 0.087306336 0.07994927 -0.037864704
0.060255084 0.0059987507 0.049972873 -0.07107557 0.14454532 0.16108161 -0.009638296 0.113007575
-0.09937457 -0.0033527615 -0.08047091 -0.021679902 -0.0680094 0.017333908 -0.11705296 -0.04359221
0.06864188 0.023023028 0.040156137 0.05545457 0.14822562 0.036553554 -0.015858121 0.1529003
-0.081261955 0.017874941 0.103622094 -0.0077824695 -0.061897095 0.058821168 0.076545395 0.123183474
-0.06263317 0.0107888505 -0.016117172 0.09326493 0.09002302 -0.083326876 -0.06451463 0.14596534
00000000: 6853 c03d d735 003e 3479 883d 8b3e 683d
00000010: f1a3 06be 9bf5 f8bc f5d8 d13d 15a5 08bd
00000020: dd6e 983d b9cc 9d3c b92e 93bd d737 0abd
00000030: c489 e3bd 9a78 543c 8f13 57bc f778 fe3d
00000040: 93bd e6bd 1211 b3bd afe9 cbbc 2753 78bd
00000050: 543b fa3d 5f79 0fbe d921 0dbe acba 1e3e
00000060: 4415 a73d a798 033e 2aa7 df3d 629e 9dbb
00000070: 09c4 84bd 3fa1 09be 5047 c83d ec03 d43c
00000080: 33b3 1f3e e99d b0bc 3b8b 183d 90fa c2bd
00000090: e257 afbd e614 dfbd 8d0e 403d a9da 5c3c
000000a0: f03b 783d ef32 9cbd e8b9 993d b30c 763c
000000b0: b839 34bc d31f 893d ea5b 163e 77ce b4bd
000000c0: 332d 83bc a845 03bd 78f0 ac3c 00f8 e4bd
000000d0: 72a0 f03c 9c8f 43bd 3982 e53d 3247 403d
000000e0: 7a67 0a3e b893 f7bd a0f5 023e fd3e 9f3d
000000f0: 29bc aabd 74e2 9dbd e4b4 203e ac00 c73c
00000100: 4874 a2bd b386 293e 75e6 5cbc fb37 333e
00000110: 272b 233d 011a 073d 7c3a aabd 2aac 953d
00000120: e08e 1e3e 932c f43d 024e 223e 5dad 46bd
00000130: 342d a9bd 0390 aabb f33f 213d e62b 253e
00000140: 0903 8cbd 77f1 a83d fbf1 adbd c79c 243d
00000150: 4dff 233e e82a f7bd 5b2f dfba 2e72 493d
00000160: f6fa 4b3d cfeb 1d3e afca 14bd c041 b03d
00000170: 33fc cd3d 1fc1 2dbd 55f1 8c3d dcbc d2bd
00000180: df11 9dbd 91d2 9dbc 494c 0c3e 374d 6d3c
00000190: 90bf 7abd 7d46 243d 87da cf3d 6b33 013e
000001a0: 1ba9 063e 9ba9 3ebd 961c b33d b362 5bbd
000001b0: f0cb 8bbd 4dfb 0b3e eb6a 00be 836f 123e
000001c0: fc4c 03be f75f a83d 23c5 103e a3f2 17be
000001d0: 34d1 753d 195a 4d3d 1403 edbd 6f82 86bc
000001e0: f312 a3bd 3e4d 43bd 291b 0cbe 02f4 f2bd
000001f0: 1ce2 33be 58fe 8a3d b7cd e03d e2c5 fabd
00000200: 6919 2abe 65bc e3bc 5ae6 0cbe 45a5 de3c
00000210: f201 fd3d 7100 1e3d ca3d b43d 4cd2 c5bd
00000220: aafd c03d 1cd2 e43d 2b5a fc3d d71c d03d
00000230: 2fe6 c03d 156e 7fbd 57ad babc eb13 093d
00000240: b168 fdbd fe17 bbbd 0fa7 033e 34b4 e63d
00000250: cd03 cd3d 642f 3e3c 58d5 b1bd 8fa6 31bd
00000260: 6368 323d 676f 0abe fb9a 4fbd 5f70 cabd
00000270: 36b0 c8bd b120 30be 8812 febd a09f 983d
00000280: 98b7 1bbe d3a8 743d d078 f6bb 649a debd
00000290: 19f7 da3d 81ee be3d 9963 3c3d 132f 15be
000002a0: fe70 f1bb e9d1 66bd 7036 a2bd 6855 d7bb
000002b0: 65a0 2d3d 682f ffbd 1b73 e83d e9ad 8bbc
000002c0: fabb 5c3d b70f 26be 9627 d3bd 2242 2abe
000002d0: 9b44 a93d f59c e03b 0178 ffbd c37f 0abd
000002e0: fe4b b1bd 6a1c fdbd c75f cb3d f83c d23d
000002f0: 9145 563c a8c9 8e3c d5d4 32be 6a94 a13d
00000300: 41cb b93d a829 303c e757 2ebe 5092 6ebd
00000310: 5e03 81bd 560b cbbd c1df 27be 8517 0f3d
00000320: 4ebb 02be 1327 573c 14ed 0f3e 4b34 a8bd
00000330: cf06 173e 8f30 10bd 3c0b 20bd e4ee 07be
00000340: a273 5bbd e65a 6bbd c371 9abd c1e7 de3d
00000350: 6edd 273e aacd b23d 71bc a33d 0518 1bbd
00000360: 09ce 763d 2b91 c43b 5bb0 4c3d 1290 91bd
00000370: b003 143e 94f2 243e f2e9 1dbc 8470 e73d
00000380: e584 cbbd 01ba 5bbb efcd a4bd 0d9a b1bc
00000390: 8348 8bbd d7ff 8d3c 76b9 efbd bf8d 32bd
000003a0: 1d94 8c3d ca9a bc3c c37a 243d 5524 633d
000003b0: 75c8 173e 2eb9 153d e4e8 81bc e591 1c3e
000003c0: ab6c a6bd 786e 923c d237 d43d 1604 ffbb
000003d0: cf87 7dbd 77ee 703d d5c3 9c3d 9e47 fc3d
000003e0: d245 80bd b8c3 303c 2908 84bc af01 bf3d
000003f0: fd5d b83d 48a7 aabd 3f20 84bd f077 153e

input_layer.bias f4 [40]
0.022168033 -0.020659894 -0.04168399 -0.122005366 -0.04137822 0.09032239 0.12514244 -0.023996025
0.1014156 0.1460362 -0.16477077 -0.08976064 -0.03573819 0.15222901 0.078164764 -0.11084709
0.15845981 0.01782813 -0.0067116376 -0.012564027 -0.054849252 -0.14081319 -0.14807875 -0.073896214
0.014439192 0.022973567 0.1335385 -0.03384965 0.09371691 -0.07410601 -0.06869072 -0.12233499
0.09534885 -0.04154958 0.060701765 -0.074331895 0.039478537 0.009442528 -0.10382408 0.097210996
00000000: bc99 b53c f03e a9bc d5bc 2abd f3dd f9bd
00000010: 357c 29bd f2fa b83d 5725 003e 5093 c4bc
00000020: fbb2 cf3d 838a 153e abb9 28be 6dd4 b7bd
00000030: 3562 12bd ece1 1b3e d914 a03d cd03 e3bd
00000040: 4a43 223e 4c0c 923c 4ced dbbb 59d9 4dbc
00000050: 9ca9 60bd 5531 10be f5a1 17be e656 97bd
00000060: 5c92 6c3c 1033 bc3c 51be 083e eea5 0abd
00000070: a7ee bf3d e4c4 97bd b8ad 8cbd c48a fabd
00000080: 4246 c33d e42f 2abd 6aa2 783d 523b 98bd
00000090: 3fb4 213d d5b4 1a3c b8a1 d4bd 8f16 c73d

hidden_layers.0.weight f4 [40, 40]
0.084767684 0.12289809 -0.10929322 -0.116445094 0.13417514 -0.027072802 0.050038606 -0.11691867
0.05653754 -0.10670306 0.11909096 0.12960319 -0.07788039 -0.0014736652 0.047168046 0.052166983
0.124027595 -0.067495205 0.090881586 0.12098433 -0.05896438 0.10859285 -0.12609075 0.14948629
0.15506212 0.06782174 -0.08412084 -0.15523958 0.046923503 -0.10298605 -0.07781436 -0.13301487
-0.11175072 -0.07071843 0.12640096 -0.018213123 0.019580826 0.014249161 -0.061179094 0.09722032
-0.034269303 0.0749547 0.05990739 -0.09542863 -0.04737418 -0.019813374 0.055343345 0.027343482
0.039675266 -0.057787977 -0.032925144 -0.030577779 -0.018781304 -0.12870806 -0.077519044 -0.12358415
-0.07903034 -0.089006275 -0.027625605 -0.060293622 0.033664376 0.030629948 0.038502708 -0.1450476
-0.040704794 -0.031619832 -0.04640159 0.007525459 -0.07550207 0.07089034 0.040793195 0.15619548
0.10875557 -0.01750645 -0.10695088 0.049138114 -0.15277235 0.11005838 0.060823634 -0.028869018
-0.091236465 0.1116073 0.053891197 -0.08729579 0.024952158 -0.05176761 -0.12619221 -0.15303533
0.030540138 0.04171388 -0.04990627 0.030729786 0.092257425 0.102045015 -0.106543526 -0.1000722
-0.10389983 0.064340755 -0.04696253 -0.046256624 -0.019933745 -0.04680919 0.0786494 -0.034341194
-0.12405493 -0.08130491 0.056955323 0.010949105 0.01331906 -0.10094531 -0.014552221 -0.076147296
0.10278128 0.10667537 -0.030476347 -0.102598995 -0.12403348 -0.12166362 0.08530755 0.13583411
0.12989385 -0.056646034 -0.1401394 -0.09359143 -0.04491093 -0.13419719 -0.1243468 -0.07132104
-0.06481157 -0.14434813 -0.09413582 0.14405073 0.13132842 -0.010515809 0.10491659 0.08347845
-0.12729606 -0.15070224 0.03970097 -0.019937336 -0.11323899 -0.072839625 -0.02086091 0.14842452
0.04497695 0.017884001 -0.11185458 0.09101069 -0.08197872 0.056520045 -0.0029601008 -0.011905864
0.10535209 0.10943602 -0.10871971 0.020139724 0.120291546 0.069503754 0.036296383 0.031182274
0.14213203 -0.042736135 -0.072658785 -0.117298804 -0.12194403 -0.04067579 0.07779454 -0.055830546
-0.010048583 -0.084714964 -0.11394741 0.11267646 -0.1374 0.13002925 0.13261874 0.08299342
-0.13344957 -0.0049693733 0.008399025 0.050210863 0.05785966 -0.14262827 -0.010367647 0.11137833
0.071668446 -0.006859839 -0.044667155 0.101132855 0.11606915 -0.12514421 0.016986743 -0.11761422
0.12767817 -0.039269395 0.072591856 0.15135927 -0.12884934 -0.11766358 0.056907162 0.08555484
0.052575424 -0.01795341 -0.09343461 0.017441422 0.058298662 0.027066395 -0.072894946 0.11018933
0.06439234 0.094297215 0.08702715 -0.023882046 -0.038339667 0.13104849 0.030894533 0.097279534
0.06904973 -0.09875268 0.11254503 0.09087144 0.09793042 0.13638203 -0.12365694 -0.121451646
-0.059082657 -0.039407633 -0.07663827 -0.10214272 0.09632631 -0.08962557 0.059932336 -0.10459933
-0.004039943 -0.013697535 0.00038184226 0.033100814 0.025677696 -0.042412743 -0.042188786 -0.10274756
-0.124535084 -0.1343814 0.053509757 -0.14726068 0.099376395 0.030703083 0.11932035 0.07267907
-0.12266512 -0.035794683 0.08779998 0.023840427 -0.06958966 0.11026071 0.008659959 0.09596701
00000000: ae9a ad3d feb1 fb3d 20d5 dfbd c47a eebd
00000010: 3565 093e c8c7 ddbc 48f5 4c3d 0e73 efbd
00000020: e893 673d 2287 dabd f6e5 f33d b3b6 043e
00000030: c17f 9fbd 0028 c1ba 4833 413d 0cad 553d
00000040: 2e02 fe3d ed3a 8abd 2020 ba3d a2c6 f73d
00000050: a284 71bd ee65 de3d ef1d 01be ef12 193e
00000060: 9bc8 1e3e 20e6 8a3d 8c47 acbd 20f7 1ebe
00000070: dc32 403d 5aea d2bd 235d 9fbd 0d35 08be
00000080: 90dd e4bd d3d4 90bd 416f 013e b033 95bc
00000090: f867 a03c 5075 693c ee96 7abd 721b c73d
000000a0: f85d 0cbd da81 993d 7461 753d 1670 c3bd
000000b0: 6e0b 42bd a84f a2bc b4af 623d 70ff df3c
000000c0: 8882 223d 16b3 6cbd 84dc 06bd 407e fabc
000000d0: 40db 99bc 0ccc 03be 4ec2 9ebd b019 fdbd
000000e0: a9da a1bd ec48 b6bd 184f e2bc 72f6 76bd
000000f0: a8e3 093d a8eb fa3c 04b5 1d3d 5c87 14be
00000100: 12ba 26bd cc83 01bd 980f 3ebd 2098 f63b
00000110: d4a0 9abd f42e 913d c416 273d b5f1 1f3e
00000120: 3ebb de3d b069 8fbc 1009 dbbd 0c45 493d
00000130: 5b70 1cbe 4a66 e13d 3422 793d b87e ecbc
00000140: 2fda babd 5e92 e43d 04bd 5c3d 23c8 b2bd
00000150: 7868 cc3c 460a 54bd 8838 01be 4bb5 1cbe
00000160: 502f fa3c 2cdc 2a3d 846a 4cbd 08bd fb3c
00000170: 76f1 bc3d fafc d03d 7e33 dabd a7f2 ccbd
00000180: 6fc9 d4bd 16c5 833d c85b 40bd 9677 3dbd
00000190: 184c a3bc feba 3fbd f012 a13d 5aa9 0cbd
000001a0: 8310 febd 3083 a6bd fc49 693d e063 333c
000001b0: 3038 5a3c 6abc cebd 706c 6ebc 1df3 9bbd
000001c0: fe7e d23d 9e78 da3d 88a9 f9bc 6c1f d2bd
000001d0: 4405 febd c72a f9bd bab5 ae3d 1918 0b3e
000001e0: e502 053e ac05 68bd b480 0fbe ddac bfbd
000001f0: 86f4 37bd fd6a 09be 89a9 febd c410 92bd
00000200: eebb 84bd ffcf 13be 48ca c0bd 0982 133e
00000210: f57a 063e 804a 2cbc 82de d63d c0f6 aa3d
00000220: e659 02be b051 1abe 7c9d 223d a053 a3bc
00000230: d8e9 e7bd f12c 95bd 80e4 aabc 99fc 173e
00000240: c039 383d 7881 923c 0414 e5bd d063 ba3d
00000250: 76e4 a7bd 9081 673d 40fe 41bb d010 43bc
00000260: d6c2 d73d fe1f e03d 70a8 debd 10fc a43c
00000270: 6a5b f63d fc57 8e3d 84ab 143d f871 ff3c
00000280: 0f8b 113e 160c 2fbd 21ce 94bd 5b3a f0bd
00000290: cbbd f9bd a89b 26bd be52 9f3d 92ae 64bd
000002a0: d0a2 24bc 0a7f adbd 425d e9bd eac2 e63d
000002b0: 96b2 0cbe 6326 053e 35cd 073e 74f8 a93d
000002c0: 01a7 08be 20d6 a2bb 109c 093c e8a9 4d3d
000002d0: 40fe 6c3d 250d 12be 10dd 29bc 521a e43d
000002e0: e8c6 923d 80c8 e0bb e8f4 36bd be1e cf3d
000002f0: aab5 ed3d ce25 00be c827 8b3c b9df f0bd
00000300: 11be 023e f2d8 20bd 0aab 943d edfd 1a3e
00000310: 15f1 03be 9af9 f0bd 7c17 693d 6037 af3d
00000320: 5459 573d 0813 93bc a55a bfbd 50e1 8e3c
00000330: 94ca 6e3d 58ba dd3c f249 95bd f2aa e13d
00000340: 22e0 833d e61e c13d 4a3b b23d 48a4 c3bc
00000350: 0e0a 1dbd 9331 063e 8816 fd3c 7e3a c73d
00000360: f269 8d3d d83e cabd 027e e63d ce1a ba3d
00000370: be8f c83d bba7 0b3e da3f fdbd a4bb f8bd
00000380: a800 72bd e669 21bd 86f4 9cbd 3430 d1bd
00000390: ba46 c53d 9c8d b7bd 9c7b 753d 2c38 d6bd
000003a0: 8061 84bb a06b 60bc 0032 c839 b894 073d
000003b0: 085a d23c fcb8 2dbd 26ce 2cbd 506d d2bd
000003c0: 400c ffbd 479b 09be 0c2d 5b3d 81cb 16be
000003d0: da85 cb3d 0885 fb3c 3a5e f43d c4d8 943d
000003e0: da37 fbbd 729d 12bd 7ad0 b33d 004d c33c
000003f0: 0685 8ebd 5ed0 e13d 80e2 0d3c 5a8a c43d

hidden_layers.0.bias f4 [40]
0.042290226 -0.115604684 -0.12670287 0.15188871 0.015670195 -0.1317225 0.0858213 0.015956342
-0.05936309 -0.15013142 0.104523286 -0.008833036 0.12582488 0.0037656575 -0.027125463 -0.114779495
-0.15061292 0.14965509 0.009358019 -0.10995428 0.04020843 0.08312121 0.15591936 0.033246353
-0.0055024475 0.13457938 -0.0280032 -0.12775384 0.10240202 -0.13333745 -0.12891792 -0.08148898
-0.14331067 0.075658545 -0.024960637 -0.012234524 0.13706161 0.022275046 0.1259297 0.042213514
00000000: 8438 2d3d 26c2 ecbd 66be 01be b788 1b3e
00000010: c85e 803c 43e2 06be 14c3 af3d e0b6 823c
00000020: b626 73bd 0dbc 19be 4e10 d63d 70b8 10bc
00000030: 3dd8 003e 40c9 763b 3836 debc 8311 ebbd
00000040: 463a 1abe 2f3f 193e 6052 193c b62f e1bd
00000050: 98b1 243d 743b aa3d 53a9 1f3e 542d 083d
00000060: e04d b4bb 2dcf 093e f866 e5bc e7d1 02be
00000070: 26b8 d13d 9d89 08be 0f03 04be b2e3 a6bd
00000080: 08c0 12be def2 9a3d 407a ccbc 5073 48bc
00000090: e159 0c3e 287a b63c b7f3 003e 14e8 2c3d

hidden_layers.1.weight f4 [40, 40]
-0.13260163 0.1176423 0.056676283 -0.10434669 -0.13743769 -0.056461357 -0.027487054 0.072485566
-0.08400185 -0.055816486 -0.037789702 0.08824313 -0.09613775 -0.11525429 0.07097617 -0.1544334
-0.11376093 0.13917144 -0.0362548 0.13564177 -0.010877609 0.015971377 -0.07036381 -0.004620537
0.08387399 0.111009225 -0.15656723 -0.11653815 -0.046107 0.14199118 -0.103369504 -0.06873246
-0.14424631 -0.13381211 -0.1489587 -0.05870962 -0.026840165 -0.01474072 -0.1377205 -0.035540774
-0.017222896 -0.13882631 0.006508574 -0.10240711 -0.080497615 -0.09937054 -0.10454082 0.15166692
0.13296457 0.02028893 0.123207495 -0.08009592 -0.010535851 -0.029203564 0.13090508 -0.11608571
-0.10660301 -0.13937156 0.02766873 0.077319235 0.07864244 -0.03872878 0.11388858 0.084228516
0.03848797 0.014953747 -0.015191197 0.09356411 -0.048252493 -0.12605163 0.05712019 -0.06269587
-0.01932913 0.013082519 -0.024614632 0.023330301 0.02998206 -0.14121243 -0.120379195 0.06874423
-0.081471525 -0.053892493 -0.09556223 0.1350118 0.13169445 -0.11375835 0.02900663 0.020840779
-0.09359049 -0.14853767 -0.12127568 0.0004581213 0.023818478 -0.015540749 0.048781097 -0.07148195
-0.040316045 -0.023636758 0.15318339 0.01830557 -0.071733356 -0.03947477 0.06834565 0.020029858
-0.0153063685 0.07999341 -0.009770945 0.02711372 0.15432365 0.09635408 0.0088582635 0.06826018
0.05105281 -0.02693379 -0.015056506 0.0141432285 0.04290618 -0.06874025 -0.06156323 -0.1278034
-0.07289931 0.004327625 -0.13099359 -0.09166193 0.12969764 0.083508596 -0.051564142 0.036107138
-0.017298818 0.14382856 0.074024856 0.04401286 0.14093487 -0.108956866 -0.15424116 -0.015481621
-0.008516669 -0.11374312 -0.015485331 -0.056931347 -0.14523502 -0.06943122 -0.106256515 -0.067445725
-0.02747342 -0.043574803 -0.06673722 -0.05032105 -0.009654954 0.015473813 0.12544446 0.08066422
-0.066531606 0.040362656 0.11044137 -0.03542891 -0.09011261 -0.13772082 0.058432624 -0.0527694
0.1425709 -0.021716654 0.09281053 0.12241398 -0.07783225 0.010047346 -0.033847637 -0.0315461
-0.010924667 0.09951039 -0.0041282624 -0.14768144 0.025673434 -0.06446626 0.14813109 0.013332859
-0.15674458 -0.098637626 0.148082 -0.13825442 -0.056206375 -0.11992651 0.09396191 0.029520273
-0.06601915 0.028382555 -0.06411764 0.15599032 0.15584578 -0.039953336 0.05528365 0.019299686
0.10619466 0.08277312 -0.03810355 -0.11992636 0.14331613 -0.0882286 0.13763641 -0.09548229
-0.09339416 0.008384615 0.0036330074 0.050810948 -0.14363185 0.0006557107 0.11945523 -0.13703239
0.10921301 0.06563665 0.04701133 -0.10415604 -0.09248502 0.09958719 0.056380212 -0.0035614371
0.019811496 0.047582522 0.03947425 0.085975945 -0.074687466 0.11753099 -0.09708194 0.016675055
0.100655034 0.13452335 0.09106369 -0.019206658 -0.11122435 -0.06754743 -0.0020715445 0.081072986
-0.06373535 -0.11772763 0.09766455 -0.023036659 0.113154545 -0.0158007 -0.06378242 -0.028831333
-0.11569874 0.12766187 0.03885974 -0.11261282 -0.14726067 -0.029193744 0.0016212314 -0.0005938411
0.0042060763 -0.09746864 0.00028562546 -0.09951833 -0.115175635 -0.018290013 -0.1269095 0.114710346
00000000: b9c8 07be 72ee f03d 6425 683d b8b3 d5bd
00000010: 77bc 0cbe 0644 67bd 882c e1bc 5073 943d
00000020: 2909 acbd d49f 64bd 60c9 1abd d0b8 b43d
00000030: dee3 c4bd 710a ecbd f45b 913d ca23 1ebe
00000040: 7efb e8bd f582 0e3e ea7f 14bd ade5 0a3e
00000050: 0038 32bc 68d6 823c e71a 90bd e067 97bb
00000060: 20c6 ab3d ce58 e33d 2953 20be 8eab eebd
00000070: b2da 3cbd 2366 113e 64b3 d3bd 9bc3 8cbd
00000080: 4eb5 13be 0b06 09be a188 18be 8079 70bd
00000090: e8df dbbc 1083 71bc 9a06 0dbe 3493 11bd
000000a0: 0817 8dbc 7c28 0ebe e045 d53b d2ba d1bd
000000b0: efdb a4bd c882 cbbd 7f19 d6bd 934e 1b3e
000000c0: dd27 083e f834 a63c 3654 fc3d 5409 a4bd
000000d0: 909e 2cbc 503c efbc fb0b 063e 58be edbd
000000e0: ae52 dabd 6bb7 0ebe 88a9 e23c 8c59 9e3d
000000f0: 4a0f a13d 12a2 1ebd 6a3e e93d 0080 ac3d
00000100: 90a5 1d3d 9000 753c 80e4 78bc 8a9e bf3d
00000110: 68a4 45bd ae13 01be dcf6 693d b166 80bd
00000120: 2058 9ebc 1058 563c a0a4 c9bc 301f bf3c
00000130: f09c f53c fe99 10be 5e89 f6bd c6c9 8c3d
00000140: 8bda a6bd 60be 5cbd 21b6 c3bd 8940 0a3e
00000150: e9da 063e 23fa e8bd 509f ed3c 48ba aa3c
00000160: 5fac bfbd 421a 18be 625f f8bd 0030 f039
00000170: f81e c33c a09e 7ebc b0ce 473d 2165 92bd
00000180: 7022 25bd e0a1 c1bc 1bdc 1c3e 90f5 953c
00000190: f0e8 92bd 4cb0 21bd cef8 8b3d a815 a43c
000001a0: 90c7 7abc 96d3 a33d 5016 20bc 981d de3c
000001b0: 0507 1e3e 4a55 c53d 4022 113c fecb 8b3d
000001c0: c01c 513d 40a4 dcbc 90af 76bc 00b9 673c
000001d0: 64be 2f3d b0c7 8cbd ba29 7cbd e5de 02be
000001e0: 3c4c 95bd c0ce 8d3b 2f23 06be 40b9 bbbd
000001f0: 75cf 043e 8e06 ab3d ec34 53bd 14e5 133d
00000200: 40b6 8dbc cb47 133e 589a 973d d446 343d
00000210: 3b51 103e c724 dfbd 65f1 1dbe a0a6 7dbc
00000220: 8089 0bbc 27f2 e8bd 30b6 7dbc d830 69bd
00000230: 7db8 14be f531 8ebd 049d d9bd fc20 8abd
00000240: f00f e1bc 7e7b 32bd 86ad 88bd 721d 4ebd
00000250: d02f 1ebc e085 7d3c 8374 003e 4833 a53d
00000260: b941 88bd 5053 253d 162f e23d e81d 11bd
00000270: f68c b8bd b006 0dbe 0c57 6f3d ba24 58bd
00000280: 1bfe 113e 20e7 b1bc 7213 be3d 2eb4 fa3d
00000290: 8466 9fbd a09d 243c d2a3 0abd 7c36 01bd
000002a0: 60fd 32bc 1acc cb3d 6046 87bb ce39 17be
000002b0: 1851 d23c e306 84bd adaf 173e 1072 5a3c
000002c0: a781 20be 8602 cabd cfa2 173e 9192 0dbe
000002d0: a838 66bd 089c f5bd 1a6f c03d 80d4 f13c
000002e0: 0c35 87bd 8882 e83c 1c50 83bd edbb 1f3e
000002f0: 0996 1f3e 1ca6 23bd 1c71 623d 601a 9e3c
00000300: 967c d93d f484 a93d 7812 1cbd f49b f5bd
00000310: 77c1 123e 32b1 b4bd 8ff0 0c3e 388c c3bd
00000320: 7045 bfbd a05f 093c c017 6e3b 241f 503d
00000330: 3a14 13be 00e4 2b3a f2a4 f43d 3852 0cbe
00000340: 12ab df3d 826c 863d f48e 403d c34f d5bd
00000350: c968 bdbd 5ef4 cb3d f0ee 663d 0067 69bb
00000360: b84b a23c e4e5 423d c0af 213d 2814 b03d
00000370: bef5 98bd 16b4 f03d e5d2 c6bd 209a 883c
00000380: 3a24 ce3d 7dc0 093e 9a7f ba3d 4857 9dbc
00000390: 98c9 e3bd 4f56 8abd c0c2 07bb 9809 a63d
000003a0: ae87 82bd 2f1b f1bd 5a04 c83d 60b7 bcbc
000003b0: 92bd e73d 7870 81bc 5ba0 82bd b02f ecbc
000003c0: 76f3 ecbd cbb9 023e 642b 1f3d 8da1 e6bd
000003d0: 80cb 16be b827 efbc 807f d43a 00ac 1bba
000003e0: 20d3 893b a39d c7bd 00c0 9539 44d0 cbbd
000003f0: 34e1 ebbd f0d4 95bc 90f4 01be 42ed ea3d

hidden_layers.1.bias f4 [40]
0.1164075 0.074511915 0.019583583 -0.027792111 0.018899232 -0.13003014 0.06837171 -0.0004647076
-0.0085514635 0.05074045 0.1381252 0.0623412 -0.10432225 -0.11362909 -0.10686776 -0.048213735
-0.06888344 -0.07004723 0.11890991 0.10446815 0.06062168 -0.05564855 -0.123734504 -0.15439288
0.0229332 -0.011995241 -0.08107574 -0.0873606 0.09004538 0.10296075 0.038449824 -0.10792846
0.13949083 0.05533929 0.1556686 -0.13772106 0.018957332 0.03807652 0.057183295 -0.0102586
00000000: 0e67 ee3d b499 983d c06d a03c 48ac e3bc
00000010: 90d2 9a3c 9f26 05be 7806 8c3d 00a4 f3b9
00000020: 701b 0cbc 38d5 4f3d b170 0d3e 7c59 7f3d
00000030: e7a6 d5bd 5eb6 e8bd 7cdd dabd c47b 45bd
00000040: c312 8dbd ec74 8fbd 0a87 f33d 66f3 d53d
00000050: 704e 783d bcef 63bd 8468 fdbd 2b19 1ebe
00000060: 68de bb3c b087 44bc 0a0b a6bd 1dea b2bd
00000070: b669 b83d 16dd d23d 907d 1d3d 9909 ddbd
00000080: afd6 0e3e 74ab 623d 9767 1f3e c006 0dbe
00000090: 684c 9b3c 20f6 1b3d 0839 6a3d b013 28bc

hidden_layers.2.weight f4 [40, 40]
0.07412414 -0.05517835 0.1559091 -0.05406481 0.046816543 -0.1249195 0.008567259 -0.057531565
-0.13292412 0.1132213 -0.111754194 -0.0069187135 -0.048946097 -0.09558909 -0.14523183 -0.0021966398
0.056061044 0.10587345 0.0039955378 0.1180516 -0.12678374 -0.041340068 0.050371677 -0.13046603
-0.12822926 -0.010655671 -0.12508309 -0.011200264 -0.14984287 0.14236476 0.14564271 -0.14119671
-0.024142116 0.10261066 0.14510901 0.10553552 -0.1288743 -0.12555468 -0.04590881 0.012559101
-0.11419959 0.026778623 -0.11829286 0.013862193 -0.04283999 -0.086227566 -0.13996324 0.08778973
0.018167317 -0.06363155 0.005463794 0.06389259 -0.047326587 -0.09254194 0.08691658 -0.10192973
-0.051797353 -0.019374251 0.14539899 -0.007729113 0.0103315115 -0.06074571 0.13026388 -0.1419553
-0.13252348 -0.07692173 0.15019129 -0.04174467 0.011380076 0.15717794 0.105286196 -0.053869985
-0.1212648 0.027717382 0.047470838 -0.08013687 0.05917667 0.1038232 0.040734053 -0.07745558
0.13609387 -0.09454725 -0.13904254 0.00578849 -0.054571085 -0.049561247 0.0717864 0.063024074
-0.04725059 0.033974096 0.087484956 -0.008098111 -0.12799528 0.15591313 0.093012914 -0.15657292
0.13553013 0.012110889 0.13213997 0.025420323 -0.053731754 -0.15072702 0.035972282 0.0041755736
0.07175647 0.034849256 0.007159829 0.15504085 0.03921193 0.113542244 0.044985235 0.10822813
-0.048846126 0.11870439 -0.13009717 0.11849581 0.03302765 -0.02359815 0.08405015 -0.1200256
0.013877332 -0.08220536 -0.14276506 0.14228322 0.10272716 -0.10790308 0.1208937 -0.10539076
0.0023146272 0.083378166 -0.059248827 0.14398484 -0.03229706 -0.12707482 0.14502029 0.14090012
-0.020802602 0.020309553 0.15367354 0.029268697 0.06510283 0.05245261 0.0046084225 0.07587446
-0.15490896 0.074969664 -0.14776 -0.0242576 -0.14296487 0.026568413 -0.060511723 0.010399595
0.14141308 -0.01555939 0.008210301 0.027041927 -0.06229914 -0.097321466 0.007347107 0.056024313
-0.047178946 0.09639628 -0.067069486 -0.048191495 -0.034296066 -0.040407136 -0.09659157 0.0027989447
0.019906059 0.14362489 0.12364523 0.092611596 0.0199119 -0.10554786 -0.07807332 0.01166819
-0.07428279 -0.012018561 0.08742061 -0.12368016 0.034746572 -0.028231755 -0.08421416 -0.034817025
-0.086388744 -0.11616986 -0.088954136 -0.065754436 -0.0027446896 0.033246532 -0.023830026 0.0071360767
0.04797323 0.038772985 0.035974994 0.1238039 0.1148081 0.05563517 0.03456673 -0.05393198
-0.044408858 0.15042354 -0.09031577 0.10615231 -0.06214948 0.017055571 0.013796374 -0.006651059
-0.1006815 -0.05856788 -0.15017709 -0.11148773 -0.14260167 0.14717661 0.016341344 -0.07308622
-0.15442578 -0.093814634 0.14459015 -0.1208753 0.016388014 0.14129253 0.024713367 0.12583055
0.073076114 -0.096831344 -0.066737466 -0.12543607 -0.15044111 -0.15390396 0.1195748 0.101321235
-0.14720793 -0.14517625 -0.13569841 0.13753329 -0.1119842 0.004293248 -0.07790646 0.097360596
0.0054369867 -0.091050334 -0.1299392 -0.05744318 -0.09053737 0.10857047 -0.028818026 -0.13744074
-0.06570756 0.10262339 -0.11318673 -0.01742208 0.055345327 -0.08636535 -0.10558663 -0.14186284
00000000: 66ce 973d b202 62bd a3a6 1f3e 1073 5dbd
00000010: b4c2 3f3d cbd5 ffbd b05d 0c3c 38a6 6bbd
00000020: 431d 08be 92e0 e73d 62df e4bd 60b6 e2bb
00000030: b47b 48bd 36c4 c3bd a7b7 14be 80f5 0fbb
00000040: 44a0 653d 2ed4 d83d 00ed 823b 0ac5 f13d
00000050: 99d3 01be 3454 29bd 8852 4e3d e398 05be
00000060: 884e 03be 2095 2ebc c815 00be 5081 37bc
00000070: 6970 19be 11c8 113e 5d23 153e df95 10be
00000080: b0c5 c5bc 8a25 d23d 7597 143e 0223 d83d
00000090: a0f7 03be 6891 00be e00a 3cbd b0c4 4d3c
000000a0: 7ae1 e9bd d85e db3c 8743 f2bd 401e 633c
000000b0: fc78 2fbd 1498 b0bd 8652 0fbe 1acb b33d
000000c0: a0d3 943c 4251 82bd a009 b33b 1eda 823d
000000d0: 86d9 41bd a186 bdbd 5201 b23d 89c0 d0bd
000000e0: 7629 54bd c0b6 9ebc 79e3 143e 8044 fdbb
000000f0: 8045 293c 7ed0 78bd e563 053e bb5c 11be
00000100: 3cb4 07be 2489 9dbd bfcb 193e 76fc 2abd
00000110: 8073 3a3c 41f3 203e 4aa0 d73d c6a6 5cbd
00000120: ae59 f8bd 900f e33c c870 423d cd1e a4bd
00000130: 3c63 723d 42a1 d43d c0d8 263d 08a1 9ebd
00000140: 315c 0b3e fda1 c1bd 2b61 0ebe 60ad bd3b
00000150: ee85 5fbd bc00 4bbd c004 933d c412 813d
00000160: d689 41bd 6c28 0b3d 502b b33d f0ad 04bc
00000170: 3211 03be b1a7 1f3e 8e7d be3d a754 20be
00000180: 69c8 0a3e c06c 463c b34f 073e 483e d03c
00000190: d415 5cbd 2f58 1abe ac57 133d 40d3 883b
000001a0: 0ef5 923d 18be 0e3d 009d ea3b 07c3 1e3e
000001b0: b09c 203d d688 e83d 7042 383d b6a6 dd3d
000001c0: e012 48bd 4a1b f33d 3138 05be eead f23d
000001d0: 0048 073d e850 c1bc 7c22 ac3d fbcf f5bd
000001e0: c05d 633c 495b a8bd 0131 12be b1b2 113e
000001f0: 9e62 d23d 4afc dcbd 1e97 f73d 1cd7 d7bd
00000200: 00b1 173b 2cc2 aa3d e6ae 72bd c370 133e
00000210: ec49 04bd e71f 02be 3380 143e 1f48 103e
00000220: 386a aabc 3860 a63c 995c 1d3e e8c4 ef3c
00000230: a254 853d 8cd8 563d 4002 973b 1264 9b3d
00000240: 74a0 1ebe b289 993d 664e 17be e0b7 c6bc
00000250: 6265 12be 00a6 d93c 24db 77bd 1063 2a3c
00000260: 97ce 103e d0ec 7ebc 8084 063c 0887 dd3c
00000270: 622d 7fbd 7a50 c7bd 00c0 f03b c079 653d
00000280: b63e 41bd 6a6b c53d ba5b 89bd 7264 45bd
00000290: 087a 0cbd f481 25bd cdd1 c5bd 806e 373b
000002a0: 0812 a33c 6712 133e b639 fd3d 26ab bd3d
000002b0: 481e a33c 7a29 d8bd e8e4 9fbd f02b 3f3c
000002c0: 9321 98bd 80e9 44bc 9409 b33d 064c fdbd
000002d0: 6c52 0e3d 4846 e7bc 7978 acbd 4c9c 0ebd
000002e0: 95ec b0bd 77ea edbd 962d b6bd 43aa 86bd
000002f0: 40e0 33bb 842d 083d 3037 c3bc c0d5 e93b
00000300: 947f 443d 6cd0 1e3d 845a 133d e68c fd3d
00000310: 8220 eb3d b4e1 633d d895 0d3d c8e7 5cbd
00000320: 10e6 35bd a108 1a3e 79f7 b8bd 6266 d93d
00000330: 7490 7ebd 20b8 8b3c 300a 623c 20f1 d9bb
00000340: 1a32 cebd e0e4 6fbd 06c8 19be ae53 e4bd
00000350: 2c06 12be 77b5 163e 48de 853c 3aae 95bd
00000360: cb21 1ebe e321 c0bd 710f 143e 788d f7bd
00000370: 2840 863c fdae 103e b073 ca3c b9d9 003e
00000380: eea8 953d 834f c6bd a7ad 88bd 5072 00be
00000390: 3c0d 1abe 0099 1dbe a2e3 f43d 8281 cf3d
000003a0: adbd 16be 15a9 14be 86f4 0abe 87d5 0c3e
000003b0: f957 e5bd 60ae 8c3b 6c8d 9fbd fe64 c73d
000003c0: c028 b23b 9978 babd c80e 05be 8a49 6bbd
000003d0: a86b b9bd 325a de3d c813 ecbc 44bd 0cbe
000003e0: af91 86bd 362c d23d 72ce e7bd c0b8 8ebc
000003f0: c8b1 623d 51e0 b0bd ce3d d8bd 7e44 11be

hidden_layers.2.bias f4 [40]
0.108661726 -0.09428712 -0.104206115 0.009469122 -0.06589604 -0.07113793 0.103127256 -0.107925445
-0.09936629 -0.07481004 -0.13208185 0.054128304 -0.095181525 -0.14902079 -0.058131233 -0.00950481
-0.011343598 -0.08275188 0.028810665 0.036148757 0.07210919 -0.027485639 -0.0057860464 0.14249508
0.13387908 0.071942165 -0.0480211 0.062489763 0.08509213 -0.049784414 -0.14753483 0.08981788
-0.081494205 0.1537636 0.03045842 0.018072143 -0.07122889 0.11423166 0.025209263 -0.09985597
00000000: 0a8a de3d 9b19 c1bd 046a d5bd 6024 1b3c
00000010: 81f4 86bd c3b0 91bd 6234 d33d 0408 ddbd
00000020: 8e80 cbbd 0236 99bd 7740 07be a4b5 5d3d
00000030: 88ee c2bd e898 18be 041b 6ebd 10ba 1bbc
00000040: 80da 39bc d179 a9bd 5804 ec3c b810 143d
00000050: fcad 933d 9029 e1bc e098 bdbb 3bea 113e
00000060: 9917 093e 6a56 933d c6b1 44bd 44f5 7f3d
00000070: c844 ae3d beea 4bbd 5f13 17be 70f2 b73d
00000080: 6fe6 a6bd 3574 1d3e f083 f93c 080c 943c
00000090: 74e0 91bd 4af2 e93d a883 ce3c 4981 ccbd

hidden_layers.3.weight f4 [40, 40]
-0.09478451 0.14146693 -0.1055253 0.021374986 -0.018189475 -0.011193097 -0.13524166 0.08455224
-0.12142918 0.05046849 -0.13654432 -0.116058126 0.072735384 -0.05458328 0.030464083 0.051029816
-0.10372518 0.0115728825 -0.11147004 0.11560176 0.023540512 0.10235883 -0.040369853 0.04778488
0.11032756 -0.05348538 -0.15746842 -0.032015815 0.08971624 -0.14808342 0.052906573 0.13359384
0.021432579 0.10417645 0.04948072 -0.14306952 -0.13769326 -0.117348 -0.03370215 -0.012574121
-0.03178543 -0.0294808 -0.064599864 0.066454455 -0.12303254 0.030764773 0.14983039 -0.01456818
0.02175185 -0.14364716 -0.091692075 -0.07838706 -0.07703548 -0.10283607 -0.10753809 0.15362324
-0.06877173 0.063924775 0.023709297 -0.023721114 -0.11724356 0.02346474 -0.062181845 -0.14069195
0.12312259 0.011254415 -0.051511474 -0.09596969 -0.042581275 -0.072808914 0.1308207 -0.010222763
0.123435065 0.13906337 0.1294515 0.13364707 0.084123865 -0.03267494 0.01326324 -0.12275
-0.019437775 0.12198423 0.10682379 -0.0321759 0.041097805 0.024612129 0.11231263 -0.016775936
-0.07464591 0.028848559 -0.09414153 0.069363326 0.10867946 0.08993058 0.12152885 -0.06959319
-0.015821755 -0.028585494 0.11886616 0.030541763 -0.05251196 0.06505969 -0.09000482 -0.09531333
-0.023397297 0.09150308 0.004468262 0.07688318 0.072040096 0.12138806 -0.013986453 -0.15526655
-0.07220714 -0.09657845 0.012049839 -0.06617225 0.017011687 -0.15793669 -0.041986845 0.027988091
-0.073425114 0.1522233 -0.0069868714 0.10311441 -0.01712887 0.13079308 -0.0803816 0.10664512
0.09290387 0.005310625 -0.008130252 0.09316827 0.113685384 -0.071206726 0.0023539066 -0.09643784
0.027228057 0.035911843 0.011082217 -0.04185123 -0.062389538 -0.060006298 -0.048517354 0.057408914
-0.1526172 -0.06653209 -0.15330806 0.05514665 -0.08225239 -0.095212415 -0.016788796 -0.10987521
0.052686334 -0.07904933 -0.069814116 0.076035365 0.11233769 0.04367636 -0.059810065 -0.083435066
-0.1371401 0.033378616 0.036508277 -0.050275706 -0.025620654 -0.06260309 -0.028203458 -0.02506721
-0.054613173 -0.14954108 -0.11904311 -0.0502289 -0.11610791 0.07440384 0.15233774 0.13776736
0.008829385 -0.14259681 0.08409475 0.010279641 -0.08073443 0.11496095 0.15682979 -0.14448254
0.013381287 0.060823813 -0.09955034 0.11605938 -0.069242395 -0.09755281 -0.08965078 0.04243985
0.13005103 -0.11179123 -0.08861797 0.084884584 0.103232846 -0.060887888 0.015766501 -0.15112692
0.05990134 -0.041920833 0.13722573 -0.12129255 0.07633908 0.07687533 0.06220305 0.04174389
-0.15584472 0.029894814 -0.10504851 0.02076836 0.050584838 -0.057151087 -0.11408098 -0.13567618
-0.0104864985 -0.017785355 0.12947063 0.11890422 0.021503702 -0.030720025 0.11878587 0.13452576
-0.020592391 -0.11238234 0.09472485 0.06115079 0.08162433 -0.024870843 0.072579384 0.043247193
0.039549217 0.050428107 -0.04092951 0.008317128 0.110430434 -0.087228075 0.059481055 0.0696201
0.08985229 0.04672432 -0.13459884 0.09360401 0.022592112 -0.09726824 -0.024888217 0.03167814
-0.004677251 0.1207266 -0.028230175 -0.04454764 0.07592736 -0.14828558 0.12148158 0.12108399
00000000: 621e c2bd b5dc 103e a61d d8bd 981a af3c
00000010: 1802 95bc 4063 37bc ca7c 0abe ba29 ad3d
00000020: ddaf f8bd 0cb8 4e3d 46d2 0bbe e2af edbd
00000030: 4af6 943d b892 5fbd d08f f93c a404 513d
00000040: de6d d4bd 309c 3d3c 684a e4bd 9ec0 ec3d
00000050: 08d8 c03c 82a1 d13d dc5a 25bd 14ba 433d
00000060: 6af3 e13d 7c13 5bbd 673f 21be 0423 03bd
00000070: 26bd b73d 2ea3 17be 90b4 583d d3cc 083e
00000080: 6093 af3c 765a d53d 4cac 4a3d d180 12be
00000090: 76ff 0cbe 2654 f0bd 440b 0abd b003 4ebc
000000a0: 7031 02bd b881 f1bc ef4c 84bd 4619 883d
000000b0: 7cf8 fbbd 6806 fc3c 236d 193e 60af 6ebc
000000c0: f030 b23c 3e18 13be 0ec9 bbbd 6589 a0bd
000000d0: c7c4 9dbd b89b d2bd ee3c dcbd 694f 1d3e
000000e0: 31d8 8cbd feea 823d 003a c23c c852 c2bc
000000f0: 641d f0bd 2039 c03c 64b2 7ebd 8d11 10be
00000100: b227 fc3d 7064 383c b2fd 52bd c28b c4bd
00000110: b469 2ebd d71c 95bd ddf5 053e 607d 27bc
00000120: 86cb fc3d a166 0e3e ef8e 043e c7da 083e
00000130: 2249 ac3d 28d6 05bd 104e 593c 5a64 fbbd
00000140: f83b 9fbc ded2 f93d 6ec6 da3d e0ca 03bd
00000150: 2c56 283d 609f c93c 2a04 e63d b06d 89bc
00000160: f4df 98bd d053 ec3c 46cd c0bd 5c0e 8e3d
00000170: 5693 de3d 862d b83d 1ee4 f83d e086 8ebd
00000180: a09c 81bc 202c eabc 1a70 f33d b832 fa3c
00000190: c816 57bd 043e 853d 7254 b8bd a333 c3bd
000001a0: b0ab bfbc f865 bb3d 806a 923b ee74 9d3d
000001b0: c289 933d 4e9a f83d 7027 65bc 32fe 1ebe
000001c0: 56e1 93bd ecca c5bd b06c 453c 5185 87bd
000001d0: 185c 8b3c 28ba 21be 66fa 2bbd 4847 e53c
000001e0: e85f 96bd 6de0 1b3e 20f2 e4bb a62d d33d
000001f0: d851 8cbc 9fee 053e 1c9f a4bd c268 da3d
00000200: 6244 be3d c004 ae3b c034 05bc 02cf be3d
00000210: e2d3 e83d d5d4 91bd 0044 1a3b 3481 c5bd
00000220: 600d df3c 4c18 133d 3092 353c 326c 2bbd
00000230: 2c8c 7fbd 2ac9 75bd 22ba 46bd 9c25 6b3d
00000240: af47 1cbe fa41 88bd cafc 1cbe 74e1 613d
00000250: f173 a8bd bafe c2bd a888 89bc 4106 e1bd
00000260: a0cd 573d 9de4 a1bd b4fa 8ebd 6eb8 9b3d
00000270: 4e11 e63d fce5 323d 66fb 74bd 01e0 aabd
00000280: 746e 0cbe 04b8 083d b489 153d e6ed 4dbd
00000290: 68e2 d1bc 0d36 80bd f00a e7bc c059 cdbc
000002a0: 10b2 5fbd 4c21 19be e0cc f3bd d2bc 4dbd
000002b0: fcc9 edbd 0a61 983d 6dfe 1b3e e312 0d3e
000002c0: 20a9 103c e604 12be de39 ac3d f06b 283c
000002d0: 1858 a5bd a670 eb3d fd97 203e 3bf3 13be
000002e0: 303d 5b3c 6422 793d 0ce1 cbbd 8ab0 ed3d
000002f0: f5ce 8dbd c5c9 c7bd d49a b7bd 68d5 2d3d
00000300: 192c 053e cdf2 e4bd 577d b5bd f8d7 ad3d
00000310: be6b d33d 9465 79bd c028 813c 04c1 1abe
00000320: 1c5b 753d 2eb5 2bbd e784 0c3e 3a68 f8bd
00000330: aa57 9c3d d070 9d3d a0c8 7e3d a4fb 2a3d
00000340: c295 1fbe f8e5 f43c ac23 d7bd 6822 aa3c
00000350: 0c32 4f3d 4217 6abd 4aa3 e9bd b2ee 0abe
00000360: 90cf 2bbc 98b2 91bc f393 043e 0e84 f33d
00000370: 8828 b03c 90a8 fbbc 0246 f33d 1fc1 093e
00000380: 60b1 a8bc b628 e6bd 1aff c13d 4079 7a3d
00000390: a82a a73d f0bd cbbc 80a4 943d f823 313d
000003a0: 5cfe 213d b48d 4e3d b4a5 27bd 9044 083c
000003b0: 5a29 e23d a2a4 b2bd 68a2 733d fc94 8e3d
000003c0: 7a04 b83d 0062 3f3d 47d4 09be 76b3 bf3d
000003d0: 1813 b93c 9234 c7bd 60e2 cbbc f0c0 013d
000003e0: a043 99bb 823f f73d f842 e7bc 9677 36bd
000003f0: ce7f 9b3d 2dd8 17be 56cb f83d e2fa f73d

hidden_layers.3.bias f4 [40]
-0.0932204 0.021021932 0.048532993 0.086086735 0.073468715 0.038922682 -0.14315298 0.016308784
0.04701574 -0.0347301 0.09217189 -0.049999908 0.12345491 0.13452055 -0.10523623 -0.0206974
0.08547625 0.09912588 -0.0015056431 -0.11756195 -0.12627167 -0.033198327 -0.06877276 0.0070058405
0.06378931 0.048174962 -0.10827379 -0.031172648 -0.028781712 0.08614564 0.111711845 -0.06622833
0.025591701 0.097861335 0.049714297 0.13535853 -0.13120405 -0.018808275 -0.11973755 -0.11498939
00000000: 56ea bebd 3036 ac3c 88ca 463d 3e4e b03d
00000010: c476 963d 646d 1f3d b296 12be 009a 853c
00000020: 9493 403d 2641 0ebd 9ec4 bc3d b4cc 4cbd
00000030: eed5 fc3d c1bf 093e 1886 d7bd 988d a9bc
00000040: 2c0e af3d 8202 cb3d 0059 c5ba 52c4 f0bd
00000050: 5c4d 01be f8fa 07bd bcd8 8cbd 4091 e53b
00000060: f8a3 823d 1c53 453d a6be ddbd c85d ffbc
00000070: a0c7 ebbc 206d b03d 2ec9 e43d b8a2 87bd
00000080: b0a5 d13c 866b c83d 38a1 4b3d 6d9b 0a3e
00000090: 5b5a 06be d013 9abc f638 f5bd 8f7f ebbd

output_layer.weight f4 [40, 40]
0.044592712 -0.020078469 -0.1530793 -0.085473344 0.0532138 0.10362892 -0.111582376 0.12321313
0.087388195 -0.13234057 -0.023542017 0.063688934 0.01573851 -0.09505343 -0.13491881 -0.05856584
-0.15083393 0.049645025 -0.07077193 -0.11798579 -0.08715508 -0.11987331 0.07380971 -0.15298499
-0.154397 0.01570512 -0.08490022 -0.101755716 0.02029465 0.09620176 0.14708863 0.1440644
0.018185982 0.15356582 0.08442252 0.102702186 -0.017937176 -0.054269366 0.14739461 0.033361934
0.022623662 0.05652257 -0.025429014 0.080669105 0.14650145 -0.14045927 0.13351454 0.015478462
0.04151915 -0.061329164 -0.03250757 0.0079947775 0.16353066 -0.0025653015 0.036057737 -0.14605893
0.05649037 -0.053263675 0.12130746 -0.09028029 0.0039052158 -0.04655322 -0.15927255 -0.02838129
0.0263188 0.13103719 0.14270012 0.076741196 0.14029555 -0.10989651 0.10514806 -0.022172414
0.032921724 0.13220905 0.11181719 0.04543237 -0.14451501 0.030214606 -0.15217826 -0.06092403
-0.15077959 0.023812884 0.08546444 -0.10534243 -0.067593016 -0.014597398 -0.09832867 -0.15236929
-0.1326217 0.009020615 -0.035131663 0.13774273 -0.073179804 -0.13621393 0.1454008 0.07726066
0.061881345 0.11726423 0.12662199 -0.13043487 0.060221735 -0.11018175 -0.02011475 0.107232854
-0.08531001 0.15295945 -0.012937407 -0.019006113 -0.07786035 0.032639116 -0.07842171 -0.020187376
0.13470219 0.007138432 -0.13697085 -0.15270284 -0.047734343 -0.018279556 0.06330343 -0.07795191
0.13255665 0.015863026 0.15435416 -0.10411637 -0.00057100155 -0.042675484 -0.022298913 -0.10963169
0.11403322 -0.177596 0.11538606 0.04740668 -0.12328682 0.14172806 -0.047879167 0.11188888
-0.027350154 -0.119565904 0.15628952 -0.05598477 0.041628517 0.013796757 0.061555434 0.10344869
-0.15449917 0.014620644 -0.11378614 0.08872678 0.034871537 -0.013625085 0.029321335 -0.123796135
-0.13440749 -0.059181422 -0.15959825 -0.1458587 -0.09578569 0.035379767 0.029193668 -0.031795233
-0.13241543 -0.12039239 0.013032739 -0.0460329 -0.13959152 0.029911833 0.07588641 -0.119797856
-0.054364484 -0.19485919 -0.03458596 -0.17394823 -0.0061091157 -0.0015324248 0.003400019 0.022648519
-0.120794274 -0.087660745 0.14435652 0.014371953 -0.13804436 0.06579602 0.092078455 0.10279604
-0.0976418 -0.13655266 0.02211715 -0.103904225 -0.04255327 -0.07630694 0.023117956 -0.13535123
-0.17414632 0.08221621 -0.0645951 -0.16736706 -0.0354209 -0.08741586 0.13566685 0.058061276
0.04005457 0.02500503 -0.13797425 0.10043399 -0.1229044 -0.07317088 -0.051296312 -0.11204126
0.1433659 0.11000081 -0.104364745 0.13506469 -0.021837251 -0.11409618 0.16986407 -0.12726071
-0.017877312 0.021359237 0.15123251 0.11284772 0.03411153 0.10398507 -0.08988788 0.13896966
0.05386225 -0.10327522 -0.037024878 -0.0137459235 0.017911745 0.07438092 0.036946807 -0.1319546
0.06295576 0.00035993248 -0.04212785 -0.040760607 -0.053828686 0.09572659 -0.14303891 -0.06298196
-0.009038105 0.07775543 -0.12467465 -0.0036206967 0.13088009 0.06707854 -0.092032336 -0.002388671
0.08440243 -0.0053416486 0.11023841 0.03820745 0.088000655 0.105777204 -0.08652498 -0.14009099
00000000: d9a6 363d 9a7b a4bc d2c0 1cbe a60c afbd
00000010: b7f6 593d 663b d43d 4d85 e4bd 2a57 fc3d
00000020: 95f8 b23d 4984 07be 30db c0bc 586f 823d
00000030: 0cee 803c 5fab c2bd 2828 0abe bce2 6fbd
00000040: 3674 1abe 9558 4b3d e0f0 90bd 89a2 f1bd
00000050: 5d7e b2bd 2380 f5bd 8c29 973d 19a8 1cbe
00000060: 3f1a 1ebe 06a8 803c 2be0 adbd 4d65 d0bd
00000070: f740 a63c 6e05 c53d 679e 163e 9e85 133e
00000080: c5fa 943c 5c40 1d3e b7e5 ac3d 8655 d23d
00000090: fcf0 92bc 8e49 5ebd 9dee 163e 86a6 083d
000000a0: 4255 b93c 3684 673d 8250 d0bc d835 a53d
000000b0: 7a04 163e 8ed4 0fbe 09b8 083e 6099 7d3c
000000c0: fc0f 2a3d 4a34 7bbd a826 05bd 87fc 023c
000000d0: 9574 273e 9e1e 28bb 47b1 133d 7990 15be
000000e0: 7262 673d 032b 5abd 0c70 f83d dfe4 b8bd
000000f0: a6ee 7f3b 97ae 3ebd 5818 23be e17f e8bc
00000100: 869a d73c 9d2e 063e fb1f 123e 7d2a 9d3d
00000110: a3a9 0f3e 6c11 e1bd de57 d73d eca2 b5bc
00000120: eed8 063d cf61 073e 6900 e53d 4b17 3a3d
00000130: befb 13be 9f84 f73c 9ed4 1bbe 7a8b 79bd
00000140: f765 1abe 3d13 c33c fb07 af3d c6bd d7bd
00000150: 356e 8abd ed29 6fbc 8b60 c9bd b206 1cbe
00000160: fccd 07be 34cb 133c 38e6 0fbd 6e0c 0d3e
00000170: 4bdf 95bd aa7b 0bbe f3e3 143e d63a 9e3d
00000180: 4b77 7d3d 3b28 f03d 32a9 013e b890 05be
00000190: 11ab 763d f8a6 e1bd b0c7 a4bc e69c db3d
000001a0: 04b7 aebd 67a1 1c3e 6bf7 53bc b5b2 9bbc
000001b0: 3f75 9fbd 98b0 053d 909b a0bd ff5f a5bc
000001c0: 5fef 093e 82e9 e93b 1642 0cbe 225e 1cbe
000001d0: 1685 43bd 02bf 95bc 3ba5 813d 40a5 9fbd
000001e0: eebc 073e 2df3 813c 040f 1e3e f73a d5bd
000001f0: 44af 15ba 7dcc 2ebd 36ac b6bc 9486 e0bd
00000200: 408a e93d badb 35be 874f ec3d 822d 423d
00000210: cd7d fcbd 2921 113e f21c 44bd ff25 e53d
00000220: 6e0d e0bc f8de f4bd 5c0a 203e 4950 65bd
00000230: aa82 2a3d cb0b 623c 8d21 7c3d e8dc d33d
00000240: 0835 1ebe 6d8b 6f3c b508 e9bd 63b6 b53d
00000250: 75d5 0e3d c03b 5fbc 4c33 f03c d488 fdbd
00000260: 1ea2 09be 3868 72bd b96d 23be fc5b 15be
00000270: 4a2b c4bd 60ea 103d 8f27 ef3c b83b 02bd
00000280: e997 07be 4990 f6bd 4587 553c ff8c 3cbd
00000290: 14f1 0ebe a909 f53c 566a 9b3d 9458 f5bd
000002a0: 4bad 5ebd 2b89 47be 02aa 0dbd 7c1f 32be
000002b0: fa2e c8bb a5db c8ba dad2 5e3b 6389 b93c
000002c0: fd62 f7bd 7a87 b3bd 32d2 133e 5778 6b3c
000002d0: 805b 0dbe 10c0 863d a193 bc3d bb86 d23d
000002e0: 6df8 c7bd 76d4 0bbe 062f b53c bdcb d4bd
000002f0: 564c 2ebd d046 9cbd de61 bd3c 8399 0abe
00000300: 6a53 32be f960 a83d 704a 84bd 4562 2bbe
00000310: 8115 11bd 1607 b3bd 40ec 0a3e a9d1 6d3d
00000320: 4310 243d 59d7 cc3c 1f49 0dbe 56b0 cd3d
00000330: 4db5 fbbd 9dda 95bd 151c 52bd e375 e5bd
00000340: 83ce 123e 1b48 e13d 2fbd d5bd 664e 0a3e
00000350: 09e4 b2bc 42ab e9bd d9f0 2d3e a250 02be
00000360: 7173 92bc 91f9 ae3c b2dc 1a3e b51c e73d
00000370: 88b8 0b3d 20f6 d43d 2317 b8bd 104e 0e3e
00000380: aa9e 5c3d f581 d3bd 66a7 17bd 9536 61bc
00000390: a7bb 923c 0655 983d 8955 173d 1b1f 07be
000003a0: f3ee 803d 52b5 bc39 418e 2cbd 98f4 26bd
000003b0: 787b 5cbd 4d0c c43d cb78 12be b0fc 80bd
000003c0: 8f14 14bc 3d3e 9f3d 6c55 ffbd 3649 6dbb
000003d0: 6e05 063e 7960 893d 737b bcbd 408b 1cbb
000003e0: 2edb ac3d ff08 afbb adc4 e13d 6a7f 1c3d
000003f0: b039 b43d b8a1 d83d 0234 b1bd 0374 0fbe

output_layer.bias f4 [40]
0.07905711 -0.099589035 0.043780055 0.0937043 -0.17000519 -0.029265607 -0.12258531 0.0744439
-0.06053138 -0.0037558891 0.12225073 -0.05118234 0.12084585 0.03104126 -0.06590393 0.021045957
0.06765415 -0.038674284 -0.11967186 0.10068417 -0.16211419 -0.025510075 0.093203515 -0.17299347
-0.023740582 -0.118963964 0.06631936 -0.030365337 -0.08361394 0.027325371 -0.17436488 0.11607667
0.12728843 -0.14654158 -0.10608694 -0.09123936 0.11211366 0.009182283 0.12410733 0.002413019
00000000: b2e8 a13d 56f5 cbbd b752 333d 0ae8 bf3d
00000010: d715 2ebe 6dbe efbc 020e fbbd 0b76 983d
00000020: c1ef 77bd 5d25 76bb 975e fa3d 93a4 51bd
00000030: 077e f73d 3e4a fe3c a4f8 86bd 9268 ac3c
00000040: 428e 8a3d ed68 1ebd 8516 f5bd 8133 ce3d
00000050: 4301 26be 81fa d0bc 7ce1 be3d 3325 31be
00000060: 9c7b c2bc 61a3 f3bd 72d2 873d bac0 f8bc
00000070: c93d abbd 75d9 df3c b58c 32be 9bb9 ed3d
00000080: e657 023e ff0e 16be 1c44 d9bd b4db babd
00000090: d99b e53d 4971 163c fc2b fe3d be23 1e3b
