src/models/representation_90.pt (torch, 43730 bytes, 12 tensors)

input_layer.weight f4 [40, 40]
000000 73 8a c0 3d 68 4e 00 3e 09 c9 88 3d 7f 5c 68 3d
       0.09401407 0.1252991 0.066789694 0.056728836
000010 c5 6e 06 be c4 46 f8 bc 6b 28 d2 3d 7f 72 08 bd
       -0.13128193 -0.030307181 0.10261615 -0.033312317
000020 2a 69 98 3d 14 c4 9d 3c 7d f5 92 bd e6 2c 0a bd
       0.074419335 0.019258536 -0.071757294 -0.033734225
000030 5c 67 e3 bd 0e c9 53 3c 2a 41 56 bc 2a 89 fe 3d
       -0.111036986 0.012926353 -0.01307706 0.12428506
000040 d1 b0 e6 bd e2 19 b3 bd c9 e9 cb bc 33 d8 77 bd
       -0.11264194 -0.08745171 -0.02489175 -0.060508918
000050 c5 68 fa 3d 3d 60 0f be b4 23 0d be a9 bd 1e 3e
       0.122270145 -0.14001556 -0.13783151 0.15502037
000060 bd 09 a7 3d 5a c7 03 3e d0 71 df 3d 30 d9 9d bb
       0.08156154 0.12869015 0.1091038 -0.0048171505
000070 af e4 84 bd 7c ce 09 be 08 ff c7 3d 27 60 d2 3c
       -0.064889304 -0.13457674 0.0976544 0.025680615
000080 76 98 1f 3e cf 94 b1 bc b4 36 18 3d 75 0d c3 bd
       0.15585503 -0.021677403 0.037161544 -0.09524051
000090 b8 5a af bd 69 f0 de bd 21 e0 3f 3d a0 e5 59 3c
       -0.08562225 -0.10885698 0.046844605 0.013299376
0000a0 a8 49 79 3d 53 d5 9b bd 6c 5a 9a 3d 7f 83 77 3c
       0.06086126 -0.07609048 0.07536778 0.015107035
0000b0 b2 9f 2e bc 0a 83 89 3d be 9f 16 3e a8 5b b4 bd
       -0.0106581915 0.06714447 0.14709374 -0.088065445
0000c0 39 d4 82 bc 34 c0 02 bd b0 7a ae 3c 56 e0 e4 bd
       -0.015970336 -0.03192158 0.021298736 -0.11175601
0000d0 a5 b3 f1 3c b8 06 43 bd dd d6 e5 3d 25 96 40 3d
       0.029504607 -0.04761383 0.112226225 0.04701819
0000e0 ed 71 0a 3e 89 5b f7 bd 4c 1e 03 3e 46 a5 9f 3d
       0.13520022 -0.12078006 0.12804526 0.07795195
0000f0 9a 61 aa bd 81 62 9d bd ac c8 20 3e 98 9c c7 3c
       -0.08319397 -0.07684804 0.1570155 0.024366662
000100 4b 47 a2 bd e0 ca 29 3e 17 2f 5d bc dc 36 33 3e
       -0.07923754 0.16581297 -0.013499997 0.17501396
000110 bc 50 23 3d a8 e2 06 3d 3b 6b aa bd 4d 85 95 3d
       0.039871916 0.032931 -0.08321234 0.07300816
000120 ba 91 1e 3e cd 50 f4 3d ec 48 22 3e f1 8e 46 bd
       0.15485278 0.11929474 0.1584813 -0.048476163
000130 29 fd a8 bd 6d 0f a4 bb 5b 35 21 3d 3f 26 25 3e
       -0.082514115 -0.0050067217 0.039357524 0.16127871
000140 78 9e 8b bd e8 40 a9 3d 52 81 ad bd 8e e2 24 3d
       -0.06817335 0.08264333 -0.084719315 0.040255122
000150 0e 42 24 3e 0a e2 f6 bd 57 75 c6 ba ae 26 4a 3d
       0.16040823 -0.12054832 -0.0015141171 0.049353294
000160 6d ff 4b 3d 2f 0a 1e 3e 0f 46 14 bd a5 57 b0 3d
       0.04980414 0.15433572 -0.036199626 0.08610467
000170 f3 26 ce 3d 37 60 2d bd 45 3b 8d 3d 92 a7 d2 bd
       0.10066023 -0.042328086 0.068960704 -0.10285868
000180 a9 0c 9d bd af 45 9d bc 71 69 0c 3e 46 d3 6f 3c
       -0.0766843 -0.019198267 0.13712098 0.014637774
000190 6d 24 7a bd 78 0f 25 3d 83 fc cf 3d fe 40 01 3e
       -0.061069895 0.040297955 0.10155585 0.12622449
0001a0 5b b9 06 3e 96 d8 3d bd a6 0e b3 3d 78 74 5b bd
       0.13156645 -0.04634913 0.08743028 -0.05357787
0001b0 ee bf 8b bd b3 ee 0b 3e 2c 7d 00 be ad 64 12 3e
       -0.06823717 0.13665275 -0.1254775 0.14296217
0001c0 1c 47 03 be 8f 80 a8 3d d7 bf 10 3e 3b ec 17 be
       -0.12820095 0.082276456 0.14135681 -0.14836209
0001d0 10 2b 76 3d 21 08 4e 3d 80 ed ec bd e5 80 86 bc
       0.06009966 0.05030072 -0.11568737 -0.016418884
0001e0 30 ff a2 bd 71 b0 43 bd 44 f2 0b be 9e 5d f2 bd
       -0.079588294 -0.04777569 -0.13666636 -0.11834262
0001f0 a1 f0 33 be 6b c6 8a 3d 07 18 e1 3d 29 de fa bd
       -0.17572261 0.067761265 0.10990911 -0.12249405
000200 96 5e 2a be 9f 95 e2 bc a6 82 0c be fa a8 e0 3c
       -0.16637644 -0.027659236 -0.13721713 0.027424324
000210 e5 29 fd 3d 40 3e 1e 3d ba 50 b4 3d d3 80 c5 bd
       0.123615064 0.038633585 0.0880446 -0.09643712
000220 04 93 c0 3d 6a 43 e4 3d bc 2f fc 3d 1d 50 cf 3d
       0.09403041 0.11145671 0.12313792 0.10122702
000230 e0 73 c0 3d 9c a8 7f bd 8a 3f be bc d8 c8 07 3d
       0.093971014 -0.062416658 -0.023223657 0.033150524
000240 fc ce fd bd 01 f2 ba bd 83 55 03 3e 36 1f e6 3d
       -0.12392995 -0.0912819 0.12825589 0.11236422
000250 f1 fc cb 3d d6 b7 33 3c 46 5f b2 bd d1 18 32 bd
       0.09960354 0.010969123 -0.08709578 -0.043480698
000260 c4 93 31 3d ae af 0a be d3 6c 51 bd f6 4a cb bd
       0.04335381 -0.13543579 -0.051129173 -0.09926407
000270 de 01 c9 bd 58 17 30 be 6e 93 fe bd 15 ce 97 3d
       -0.09814809 -0.17196405 -0.12430464 0.07412354
000280 78 b7 1b be 60 a9 74 3d 77 74 f6 bb 2d 9a de bd
       -0.15206707 0.05973184 -0.007521208 -0.108692504
000290 5b f7 da 3d c9 ee be 3d fb 63 3c 3d f6 2e 15 be
       0.106917106 0.093228884 0.045993786 -0.14568695
0002a0 d5 6c f1 bb 7f d1 66 bd 32 36 a2 bd 82 51 d7 bb
       -0.00736771 -0.056352135 -0.07920493 -0.006570996
0002b0 f6 a0 2d 3d 20 2f ff bd 52 73 e8 3d dc ac 8b bc
       0.042389832 -0.1246016 0.113501206 -0.0170502
0002c0 83 bc 5c 3d 96 0f 26 be 58 27 d3 bd 05 42 2a be
       0.053890716 -0.16216883 -0.103102386 -0.16626747
0002d0 de 44 a9 3d 8c a0 e0 3b c3 77 ff bd 53 7f 0a bd
       0.082650885 0.006855076 -0.124740146 -0.033812832
0002e0 ec 37 b1 bd d3 12 fd bd 79 72 cb 3d fc 50 d2 3d
       -0.086532444 -0.12357106 0.09933943 0.10269353
0002f0 e2 e4 56 3c 59 19 8f 3c c0 ca 32 be 66 a8 a1 3d
       0.013116093 0.017468141 -0.17460155 0.078934476
000300 64 df b9 3d ab ca 30 3c fb 4d 2e be 19 6a 6e bd
       0.090758115 0.010790507 -0.17021935 -0.05820665
000310 72 ef 80 bd 38 f7 ca bd e4 d5 27 be b9 3f 0f 3d
       -0.062956706 -0.099104345 -0.16390187 0.03497288
000320 fe 76 02 be 4e ef 59 3c 37 40 10 3e 18 10 a8 bd
       -0.12740704 0.013301684 0.14086996 -0.08206195
000330 f0 64 17 3e 9e 6d 0f bd 33 f6 1e bd 01 b7 07 be
       0.14784598 -0.03501665 -0.038809013 -0.13253404
000340 01 64 5b bd be db 6a bd 77 13 9a bd fb f4 de 3d
       -0.053562168 -0.05733847 -0.07523244 0.1088657
000350 46 fc 27 3e 00 0a b3 3d 58 0f a4 3d 39 d9 1a bd
       0.16404828 0.08742142 0.08010739 -0.037804816
000360 13 d9 76 3d 35 70 c7 3b ec 4e 4d 3d 4b 30 91 bd
       0.06026561 0.006086374 0.050124094 -0.07089289
000370 bf 2e 14 3e 85 33 25 3e 7e 11 1d bc 1c 89 e7 3d
       0.14470957 0.16132934 -0.00958669 0.113054484
000380 5d 62 cb bd 36 43 4a bb 40 e9 a4 bd 3d f1 b1 bc
       -0.09930871 -0.0030862815 -0.080523014 -0.021721477
000390 15 45 8b bd 7d 33 8d 3c 78 04 f0 bd 09 11 33 bd
       -0.06800286 0.017236466 -0.11719602 -0.043717418
0003a0 8a 89 8c 3d 0d f5 bc 3c c8 41 24 3d 8c 2b 63 3d
       0.06862171 0.023066068 0.040101796 0.05546145
0003b0 1b da 17 3e 06 83 16 3d bb 3b 82 bc 25 80 1c 3e
       0.14829294 0.036746047 -0.015897622 0.15283258
0003c0 c4 55 a6 bd 65 fb 92 3c 95 5a d4 3d 32 68 fe bb
       -0.08121827 0.01794214 0.1036884 -0.007763886
0003d0 a9 30 7d bd 8a 11 71 3d 83 e3 9c 3d 2d 6c fc 3d
       -0.061813984 0.058854617 0.07660582 0.123253204
0003e0 82 42 80 bd c6 00 31 3c 0f 8f 83 bc 06 06 bf 3d
       -0.06262685 0.010803407 -0.016059427 0.09327321
0003f0 29 6a b8 3d 98 92 aa bd d9 16 84 bd be 7a 15 3e
       0.090046234 -0.08328742 -0.0644967 0.14597604

input_layer.bias f4 [40]
000000 c8 19 b5 3c 34 11 a9 bc 19 94 2a bd 8b 74 fa bd
       0.02210702 -0.020638086 -0.041645143 -0.1222926
000010 4b 54 29 bd 59 f3 b8 3d 93 27 00 3e 50 93 c4 bc
       -0.041340154 0.0903079 0.12515096 -0.023996025
000020 e7 49 d0 3d 61 e8 11 3e c3 98 28 be 88 a4 bc bd
       0.10170346 0.14248802 -0.16464524 -0.09211069
000030 09 44 12 bd c0 ec 1b 3e b5 06 a0 3d fa fb e2 bd
       -0.035709415 0.15227032 0.07813779 -0.11083217
000040 5e 45 22 3e 8d 1a 92 3c f1 e6 da bb fb 3a 4e bc
       0.15846774 0.017834926 -0.0066803624 -0.012587304
000050 50 92 60 bd ad 30 10 be 7d a0 17 be b5 6d 97 bd
       -0.054827034 -0.14081068 -0.14807315 -0.07393972
000060 8f f5 6e 3c 03 a3 bc 3c a6 cf 08 3e 7e 64 0a bd
       0.014584913 0.023026949 0.13360462 -0.033787243
000070 b5 13 c0 3d e4 c4 97 bd be 7e 8c bd e0 5e fa bd
       0.09378759 -0.07410601 -0.06860112 -0.12225127
000080 54 30 c3 3d f1 0e 2a bd f0 8a 75 3d 30 1b 98 bd
       0.09530702 -0.041518155 0.059946954 -0.074270606
000090 dc 1b 22 3d 98 97 1a 3c 2d a0 d4 bd 6d 1d c7 3d
       0.03957735 0.009435557 -0.103821136 0.097224094

hidden_layers.0.weight f4 [40, 40]
000000 ae 9a ad 3d fe b1 fb 3d 20 d5 df bd c4 7a ee bd
       0.084767684 0.12289809 -0.10929322 -0.116445094
000010 35 65 09 3e c8 c7 dd bc 48 f5 4c 3d 0e 73 ef bd
       0.13417514 -0.027072802 0.050038606 -0.11691867
000020 e8 93 67 3d 22 87 da bd f6 e5 f3 3d b3 b6 04 3e
       0.05653754 -0.10670306 0.11909096 0.12960319
000030 c1 7f 9f bd 00 28 c1 ba 48 33 41 3d 0c ad 55 3d
       -0.07788039 -0.0014736652 0.047168046 0.052166983
000040 2e 02 fe 3d ed 3a 8a bd 20 20 ba 3d a2 c6 f7 3d
       0.124027595 -0.067495205 0.090881586 0.12098433
000050 a2 84 71 bd ee 65 de 3d ef 1d 01 be ef 12 19 3e
       -0.05896438 0.10859285 -0.12609075 0.14948629
000060 9b c8 1e 3e 20 e6 8a 3d 8c 47 ac bd 20 f7 1e be
       0.15506212 0.06782174 -0.08412084 -0.15523958
000070 dc 32 40 3d 5a ea d2 bd 23 5d 9f bd 0d 35 08 be
       0.046923503 -0.10298605 -0.07781436 -0.13301487
000080 90 dd e4 bd d3 d4 90 bd 41 6f 01 3e b0 33 95 bc
       -0.11175072 -0.07071843 0.12640096 -0.018213123
000090 f8 67 a0 3c 50 75 69 3c ee 96 7a bd 72 1b c7 3d
       0.019580826 0.014249161 -0.061179094 0.09722032
0000a0 f8 5d 0c bd da 81 99 3d 74 61 75 3d 16 70 c3 bd
       -0.034269303 0.0749547 0.05990739 -0.09542863
0000b0 6e 0b 42 bd a8 4f a2 bc b4 af 62 3d 70 ff df 3c
       -0.04737418 -0.019813374 0.055343345 0.027343482
0000c0 88 82 22 3d 16 b3 6c bd 84 dc 06 bd 40 7e fa bc
       0.039675266 -0.057787977 -0.032925144 -0.030577779
0000d0 40 db 99 bc 0c cc 03 be 4e c2 9e bd b0 19 fd bd
       -0.018781304 -0.12870806 -0.077519044 -0.12358415
0000e0 a9 da a1 bd ec 48 b6 bd 18 4f e2 bc 72 f6 76 bd
       -0.07903034 -0.089006275 -0.027625605 -0.060293622
0000f0 a8 e3 09 3d a8 eb fa 3c 04 b5 1d 3d 5c 87 14 be
       0.033664376 0.030629948 0.038502708 -0.1450476
000100 12 ba 26 bd cc 83 01 bd 98 0f 3e bd 20 98 f6 3b
       -0.040704794 -0.031619832 -0.04640159 0.007525459
000110 d4 a0 9a bd f4 2e 91 3d c4 16 27 3d b5 f1 1f 3e
       -0.07550207 0.07089034 0.040793195 0.15619548
000120 3e bb de 3d b0 69 8f bc 10 09 db bd 0c 45 49 3d
       0.10875557 -0.01750645 -0.10695088 0.049138114
000130 5b 70 1c be 4a 66 e1 3d 34 22 79 3d b8 7e ec bc
       -0.15277235 0.11005838 0.060823634 -0.028869018
000140 2f da ba bd 5e 92 e4 3d 04 bd 5c 3d 23 c8 b2 bd
       -0.091236465 0.1116073 0.053891197 -0.08729579
000150 78 68 cc 3c 46 0a 54 bd 88 38 01 be 4b b5 1c be
       0.024952158 -0.05176761 -0.12619221 -0.15303533
000160 50 2f fa 3c 2c dc 2a 3d 84 6a 4c bd 08 bd fb 3c
       0.030540138 0.04171388 -0.04990627 0.030729786
000170 76 f1 bc 3d fa fc d0 3d 7e 33 da bd a7 f2 cc bd
       0.092257425 0.102045015 -0.106543526 -0.1000722
000180 6f c9 d4 bd 16 c5 83 3d c8 5b 40 bd 96 77 3d bd
       -0.10389983 0.064340755 -0.04696253 -0.046256624
000190 18 4c a3 bc fe ba 3f bd f0 12 a1 3d 5a a9 0c bd
       -0.019933745 -0.04680919 0.0786494 -0.034341194
0001a0 83 10 fe bd 30 83 a6 bd fc 49 69 3d e0 63 33 3c
       -0.12405493 -0.08130491 0.056955323 0.010949105
0001b0 30 38 5a 3c 6a bc ce bd 70 6c 6e bc 1d f3 9b bd
       0.01331906 -0.10094531 -0.014552221 -0.076147296
0001c0 fe 7e d2 3d 9e 78 da 3d 88 a9 f9 bc 6c 1f d2 bd
       0.10278128 0.10667537 -0.030476347 -0.102598995
0001d0 44 05 fe bd c7 2a f9 bd ba b5 ae 3d 19 18 0b 3e
       -0.12403348 -0.12166362 0.08530755 0.13583411
0001e0 e5 02 05 3e ac 05 68 bd b4 80 0f be dd ac bf bd
       0.12989385 -0.056646034 -0.1401394 -0.09359143
0001f0 86 f4 37 bd fd 6a 09 be 89 a9 fe bd c4 10 92 bd
       -0.04491093 -0.13419719 -0.1243468 -0.07132104
000200 ee bb 84 bd ff cf 13 be 48 ca c0 bd 09 82 13 3e
       -0.06481157 -0.14434813 -0.09413582 0.14405073
000210 f5 7a 06 3e 80 4a 2c bc 82 de d6 3d c0 f6 aa 3d
       0.13132842 -0.010515809 0.10491659 0.08347845
000220 e6 59 02 be b0 51 1a be 7c 9d 22 3d a0 53 a3 bc
       -0.12729606 -0.15070224 0.03970097 -0.019937336
000230 d8 e9 e7 bd f1 2c 95 bd 80 e4 aa bc 99 fc 17 3e
       -0.11323899 -0.072839625 -0.02086091 0.14842452
000240 c0 39 38 3d 78 81 92 3c 04 14 e5 bd d0 63 ba 3d
       0.04497695 0.017884001 -0.11185458 0.09101069
000250 76 e4 a7 bd 90 81 67 3d 40 fe 41 bb d0 10 43 bc
       -0.08197872 0.056520045 -0.0029601008 -0.011905864
000260 d6 c2 d7 3d fe 1f e0 3d 70 a8 de bd 10 fc a4 3c
       0.10535209 0.10943602 -0.10871971 0.020139724
000270 6a 5b f6 3d fc 57 8e 3d 84 ab 14 3d f8 71 ff 3c
       0.120291546 0.069503754 0.036296383 0.031182274
000280 0f 8b 11 3e 16 0c 2f bd 21 ce 94 bd 5b 3a f0 bd
       0.14213203 -0.042736135 -0.072658785 -0.117298804
000290 cb bd f9 bd a8 9b 26 bd be 52 9f 3d 92 ae 64 bd
       -0.12194403 -0.04067579 0.07779454 -0.055830546
0002a0 d0 a2 24 bc 0a 7f ad bd 42 5d e9 bd ea c2 e6 3d
       -0.010048583 -0.084714964 -0.11394741 0.11267646
0002b0 96 b2 0c be 63 26 05 3e 35 cd 07 3e 74 f8 a9 3d
       -0.1374 0.13002925 0.13261874 0.08299342
0002c0 01 a7 08 be 20 d6 a2 bb 10 9c 09 3c e8 a9 4d 3d
       -0.13344957 -0.0049693733 0.008399025 0.050210863
0002d0 40 fe 6c 3d 25 0d 12 be 10 dd 29 bc 52 1a e4 3d
       0.05785966 -0.14262827 -0.010367647 0.11137833
0002e0 e8 c6 92 3d 80 c8 e0 bb e8 f4 36 bd be 1e cf 3d
       0.071668446 -0.006859839 -0.044667155 0.101132855
0002f0 aa b5 ed 3d ce 25 00 be c8 27 8b 3c b9 df f0 bd
       0.11606915 -0.12514421 0.016986743 -0.11761422
000300 11 be 02 3e f2 d8 20 bd 0a ab 94 3d ed fd 1a 3e
       0.12767817 -0.039269395 0.072591856 0.15135927
000310 15 f1 03 be 9a f9 f0 bd 7c 17 69 3d 60 37 af 3d
       -0.12884934 -0.11766358 0.056907162 0.08555484
000320 54 59 57 3d 08 13 93 bc a5 5a bf bd 50 e1 8e 3c
       0.052575424 -0.01795341 -0.09343461 0.017441422
000330 94 ca 6e 3d 58 ba dd 3c f2 49 95 bd f2 aa e1 3d
       0.058298662 0.027066395 -0.072894946 0.11018933
000340 22 e0 83 3d e6 1e c1 3d 4a 3b b2 3d 48 a4 c3 bc
       0.06439234 0.094297215 0.08702715 -0.023882046
000350 0e 0a 1d bd 93 31 06 3e 88 16 fd 3c 7e 3a c7 3d
       -0.038339667 0.13104849 0.030894533 0.097279534
000360 f2 69 8d 3d d8 3e ca bd 02 7e e6 3d ce 1a ba 3d
       0.06904973 -0.09875268 0.11254503 0.09087144
000370 be 8f c8 3d bb a7 0b 3e da 3f fd bd a4 bb f8 bd
       0.09793042 0.13638203 -0.12365694 -0.121451646
000380 a8 00 72 bd e6 69 21 bd 86 f4 9c bd 34 30 d1 bd
       -0.059082657 -0.039407633 -0.07663827 -0.10214272
000390 ba 46 c5 3d 9c 8d b7 bd 9c 7b 75 3d 2c 38 d6 bd
       0.09632631 -0.08962557 0.059932336 -0.10459933
0003a0 80 61 84 bb a0 6b 60 bc 00 32 c8 39 b8 94 07 3d
       -0.004039943 -0.013697535 0.00038184226 0.033100814
0003b0 08 5a d2 3c fc b8 2d bd 26 ce 2c bd 50 6d d2 bd
       0.025677696 -0.042412743 -0.042188786 -0.10274756
0003c0 40 0c ff bd 47 9b 09 be 0c 2d 5b 3d 81 cb 16 be
       -0.124535084 -0.1343814 0.053509757 -0.14726068
0003d0 da 85 cb 3d 08 85 fb 3c 3a 5e f4 3d c4 d8 94 3d
       0.099376395 0.030703083 0.11932035 0.07267907
0003e0 da 37 fb bd 72 9d 12 bd 7a d0 b3 3d 00 4d c3 3c
       -0.12266512 -0.035794683 0.08779998 0.023840427
0003f0 06 85 8e bd 5e d0 e1 3d 80 e2 0d 3c 5a 8a c4 3d
       -0.06958966 0.11026071 0.008659959 0.09596701

hidden_layers.0.bias f4 [40]
000000 84 38 2d 3d 26 c2 ec bd 66 be 01 be b7 88 1b 3e
       0.042290226 -0.115604684 -0.12670287 0.15188871
000010 c8 5e 80 3c 43 e2 06 be 14 c3 af 3d e0 b6 82 3c
       0.015670195 -0.1317225 0.0858213 0.015956342
000020 b6 26 73 bd 0d bc 19 be 4e 10 d6 3d 70 b8 10 bc
       -0.05936309 -0.15013142 0.104523286 -0.008833036
000030 3d d8 00 3e 40 c9 76 3b 38 36 de bc 83 11 eb bd
       0.12582488 0.0037656575 -0.027125463 -0.114779495
000040 46 3a 1a be 2f 3f 19 3e 60 52 19 3c b6 2f e1 bd
       -0.15061292 0.14965509 0.009358019 -0.10995428
000050 98 b1 24 3d 74 3b aa 3d 53 a9 1f 3e 54 2d 08 3d
       0.04020843 0.08312121 0.15591936 0.033246353
000060 e0 4d b4 bb 2d cf 09 3e f8 66 e5 bc e7 d1 02 be
       -0.0055024475 0.13457938 -0.0280032 -0.12775384
000070 26 b8 d1 3d 9d 89 08 be 0f 03 04 be b2 e3 a6 bd
       0.10240202 -0.13333745 -0.12891792 -0.08148898
000080 08 c0 12 be de f2 9a 3d 40 7a cc bc 50 73 48 bc
       -0.14331067 0.075658545 -0.024960637 -0.012234524
000090 e1 59 0c 3e 28 7a b6 3c b7 f3 00 3e 14 e8 2c 3d
       0.13706161 0.022275046 0.1259297 0.042213514

hidden_layers.1.weight f4 [40, 40]
000000 b9 c8 07 be 72 ee f0 3d 64 25 68 3d b8 b3 d5 bd
       -0.13260163 0.1176423 0.056676283 -0.10434669
000010 77 bc 0c be 06 44 67 bd 88 2c e1 bc 50 73 94 3d
       -0.13743769 -0.056461357 -0.027487054 0.072485566
000020 29 09 ac bd d4 9f 64 bd 60 c9 1a bd d0 b8 b4 3d
       -0.08400185 -0.055816486 -0.037789702 0.08824313
000030 de e3 c4 bd 71 0a ec bd f4 5b 91 3d ca 23 1e be
       -0.09613775 -0.11525429 0.07097617 -0.1544334
000040 7e fb e8 bd f5 82 0e 3e ea 7f 14 bd ad e5 0a 3e
       -0.11376093 0.13917144 -0.0362548 0.13564177
000050 00 38 32 bc 68 d6 82 3c e7 1a 90 bd e0 67 97 bb
       -0.010877609 0.015971377 -0.07036381 -0.004620537
000060 20 c6 ab 3d ce 58 e3 3d 29 53 20 be 8e ab ee bd
       0.08387399 0.111009225 -0.15656723 -0.11653815
000070 b2 da 3c bd 23 66 11 3e 64 b3 d3 bd 9b c3 8c bd
       -0.046107 0.14199118 -0.103369504 -0.06873246
000080 4e b5 13 be 0b 06 09 be a1 88 18 be 80 79 70 bd
       -0.14424631 -0.13381211 -0.1489587 -0.05870962
000090 e8 df db bc 10 83 71 bc 9a 06 0d be 34 93 11 bd
       -0.026840165 -0.01474072 -0.1377205 -0.035540774
0000a0 08 17 8d bc 7c 28 0e be e0 45 d5 3b d2 ba d1 bd
       -0.017222896 -0.13882631 0.006508574 -0.10240711
0000b0 ef db a4 bd c8 82 cb bd 7f 19 d6 bd 93 4e 1b 3e
       -0.080497615 -0.09937054 -0.10454082 0.15166692
0000c0 dd 27 08 3e f8 34 a6 3c 36 54 fc 3d 54 09 a4 bd
       0.13296457 0.02028893 0.123207495 -0.08009592
0000d0 90 9e 2c bc 50 3c ef bc fb 0b 06 3e 58 be ed bd
       -0.010535851 -0.029203564 0.13090508 -0.11608571
0000e0 ae 52 da bd 6b b7 0e be 88 a9 e2 3c 8c 59 9e 3d
       -0.10660301 -0.13937156 0.02766873 0.077319235
0000f0 4a 0f a1 3d 12 a2 1e bd 6a 3e e9 3d 00 80 ac 3d
       0.07864244 -0.03872878 0.11388858 0.084228516
000100 90 a5 1d 3d 90 00 75 3c 80 e4 78 bc 8a 9e bf 3d
       0.03848797 0.014953747 -0.015191197 0.09356411
000110 68 a4 45 bd ae 13 01 be dc f6 69 3d b1 66 80 bd
       -0.048252493 -0.12605163 0.05712019 -0.06269587
000120 20 58 9e bc 10 58 56 3c a0 a4 c9 bc 30 1f bf 3c
       -0.01932913 0.013082519 -0.024614632 0.023330301
000130 f0 9c f5 3c fe 99 10 be 5e 89 f6 bd c6 c9 8c 3d
       0.02998206 -0.14121243 -0.120379195 0.06874423
000140 8b da a6 bd 60 be 5c bd 21 b6 c3 bd 89 40 0a 3e
       -0.081471525 -0.053892493 -0.09556223 0.1350118
000150 e9 da 06 3e 23 fa e8 bd 50 9f ed 3c 48 ba aa 3c
       0.13169445 -0.11375835 0.02900663 0.020840779
000160 5f ac bf bd 42 1a 18 be 62 5f f8 bd 00 30 f0 39
       -0.09359049 -0.14853767 -0.12127568 0.0004581213
000170 f8 1e c3 3c a0 9e 7e bc b0 ce 47 3d 21 65 92 bd
       0.023818478 -0.015540749 0.048781097 -0.07148195
000180 70 22 25 bd e0 a1 c1 bc 1b dc 1c 3e 90 f5 95 3c
       -0.040316045 -0.023636758 0.15318339 0.01830557
000190 f0 e8 92 bd 4c b0 21 bd ce f8 8b 3d a8 15 a4 3c
       -0.071733356 -0.03947477 0.06834565 0.020029858
0001a0 90 c7 7a bc 96 d3 a3 3d 50 16 20 bc 98 1d de 3c
       -0.0153063685 0.07999341 -0.009770945 0.02711372
0001b0 05 07 1e 3e 4a 55 c5 3d 40 22 11 3c fe cb 8b 3d
       0.15432365 0.09635408 0.0088582635 0.06826018
0001c0 c0 1c 51 3d 40 a4 dc bc 90 af 76 bc 00 b9 67 3c
       0.05105281 -0.02693379 -0.015056506 0.0141432285
0001d0 64 be 2f 3d b0 c7 8c bd ba 29 7c bd e5 de 02 be
       0.04290618 -0.06874025 -0.06156323 -0.1278034
0001e0 3c 4c 95 bd c0 ce 8d 3b 2f 23 06 be 40 b9 bb bd
       -0.07289931 0.004327625 -0.13099359 -0.09166193
0001f0 75 cf 04 3e 8e 06 ab 3d ec 34 53 bd 14 e5 13 3d
       0.12969764 0.083508596 -0.051564142 0.036107138
000200 40 b6 8d bc cb 47 13 3e 58 9a 97 3d d4 46 34 3d
       -0.017298818 0.14382856 0.074024856 0.04401286
000210 3b 51 10 3e c7 24 df bd 65 f1 1d be a0 a6 7d bc
       0.14093487 -0.108956866 -0.15424116 -0.015481621
000220 80 89 0b bc 27 f2 e8 bd 30 b6 7d bc d8 30 69 bd
       -0.008516669 -0.11374312 -0.015485331 -0.056931347
000230 7d b8 14 be f5 31 8e bd 04 9d d9 bd fc 20 8a bd
       -0.14523502 -0.06943122 -0.106256515 -0.067445725
000240 f0 0f e1 bc 7e 7b 32 bd 86 ad 88 bd 72 1d 4e bd
       -0.02747342 -0.043574803 -0.06673722 -0.05032105
000250 d0 2f 1e bc e0 85 7d 3c 83 74 00 3e 48 33 a5 3d
       -0.009654954 0.015473813 0.12544446 0.08066422
000260 b9 41 88 bd 50 53 25 3d 16 2f e2 3d e8 1d 11 bd
       -0.066531606 0.040362656 0.11044137 -0.03542891
000270 f6 8c b8 bd b0 06 0d be 0c 57 6f 3d ba 24 58 bd
       -0.09011261 -0.13772082 0.058432624 -0.0527694
000280 1b fe 11 3e 20 e7 b1 bc 72 13 be 3d 2e b4 fa 3d
       0.1425709 -0.021716654 0.09281053 0.12241398
000290 84 66 9f bd a0 9d 24 3c d2 a3 0a bd 7c 36 01 bd
       -0.07783225 0.010047346 -0.033847637 -0.0315461
0002a0 60 fd 32 bc 1a cc cb 3d 60 46 87 bb ce 39 17 be
       -0.010924667 0.09951039 -0.0041282624 -0.14768144
0002b0 18 51 d2 3c e3 06 84 bd ad af 17 3e 10 72 5a 3c
       0.025673434 -0.06446626 0.14813109 0.013332859
0002c0 a7 81 20 be 86 02 ca bd cf a2 17 3e 91 92 0d be
       -0.15674458 -0.098637626 0.148082 -0.13825442
0002d0 a8 38 66 bd 08 9c f5 bd 1a 6f c0 3d 80 d4 f1 3c
       -0.056206375 -0.11992651 0.09396191 0.029520273
0002e0 0c 35 87 bd 88 82 e8 3c 1c 50 83 bd ed bb 1f 3e
       -0.06601915 0.028382555 -0.06411764 0.15599032
0002f0 09 96 1f 3e 1c a6 23 bd 1c 71 62 3d 60 1a 9e 3c
       0.15584578 -0.039953336 0.05528365 0.019299686
000300 96 7c d9 3d f4 84 a9 3d 78 12 1c bd f4 9b f5 bd
       0.10619466 0.08277312 -0.03810355 -0.11992636
000310 77 c1 12 3e 32 b1 b4 bd 8f f0 0c 3e 38 8c c3 bd
       0.14331613 -0.0882286 0.13763641 -0.09548229
000320 70 45 bf bd a0 5f 09 3c c0 17 6e 3b 24 1f 50 3d
       -0.09339416 0.008384615 0.0036330074 0.050810948
000330 3a 14 13 be 00 e4 2b 3a f2 a4 f4 3d 38 52 0c be
       -0.14363185 0.0006557107 0.11945523 -0.13703239
000340 12 ab df 3d 82 6c 86 3d f4 8e 40 3d c3 4f d5 bd
       0.10921301 0.06563665 0.04701133 -0.10415604
000350 c9 68 bd bd 5e f4 cb 3d f0 ee 66 3d 00 67 69 bb
       -0.09248502 0.09958719 0.056380212 -0.0035614371
000360 b8 4b a2 3c e4 e5 42 3d c0 af 21 3d 28 14 b0 3d
       0.019811496 0.047582522 0.03947425 0.085975945
000370 be f5 98 bd 16 b4 f0 3d e5 d2 c6 bd 20 9a 88 3c
       -0.074687466 0.11753099 -0.09708194 0.016675055
000380 3a 24 ce 3d 7d c0 09 3e 9a 7f ba 3d 48 57 9d bc
       0.100655034 0.13452335 0.09106369 -0.019206658
000390 98 c9 e3 bd 4f 56 8a bd c0 c2 07 bb 98 09 a6 3d
       -0.11122435 -0.06754743 -0.0020715445 0.081072986
0003a0 ae 87 82 bd 2f 1b f1 bd 5a 04 c8 3d 60 b7 bc bc
       -0.06373535 -0.11772763 0.09766455 -0.023036659
0003b0 92 bd e7 3d 78 70 81 bc 5b a0 82 bd b0 2f ec bc
       0.113154545 -0.0158007 -0.06378242 -0.028831333
0003c0 76 f3 ec bd cb b9 02 3e 64 2b 1f 3d 8d a1 e6 bd
       -0.11569874 0.12766187 0.03885974 -0.11261282
0003d0 80 cb 16 be b8 27 ef bc 80 7f d4 3a 00 ac 1b ba
       -0.14726067 -0.029193744 0.0016212314 -0.0005938411
0003e0 20 d3 89 3b a3 9d c7 bd 00 c0 95 39 44 d0 cb bd
       0.0042060763 -0.09746864 0.00028562546 -0.09951833
0003f0 34 e1 eb bd f0 d4 95 bc 90 f4 01 be 42 ed ea 3d
       -0.115175635 -0.018290013 -0.1269095 0.114710346

hidden_layers.1.bias f4 [40]
000000 0e 67 ee 3d b4 99 98 3d c0 6d a0 3c 48 ac e3 bc
       0.1164075 0.074511915 0.019583583 -0.027792111
000010 90 d2 9a 3c 9f 26 05 be 78 06 8c 3d 00 a4 f3 b9
       0.018899232 -0.13003014 0.06837171 -0.0004647076
000020 70 1b 0c bc 38 d5 4f 3d b1 70 0d 3e 7c 59 7f 3d
       -0.0085514635 0.05074045 0.1381252 0.0623412
000030 e7 a6 d5 bd 5e b6 e8 bd 7c dd da bd c4 7b 45 bd
       -0.10432225 -0.11362909 -0.10686776 -0.048213735
000040 c3 12 8d bd ec 74 8f bd 0a 87 f3 3d 66 f3 d5 3d
       -0.06888344 -0.07004723 0.11890991 0.10446815
000050 70 4e 78 3d bc ef 63 bd 84 68 fd bd 2b 19 1e be
       0.06062168 -0.05564855 -0.123734504 -0.15439288
000060 68 de bb 3c b0 87 44 bc 0a 0b a6 bd 1d ea b2 bd
       0.0229332 -0.011995241 -0.08107574 -0.0873606
000070 b6 69 b8 3d 16 dd d2 3d 90 7d 1d 3d 99 09 dd bd
       0.09004538 0.10296075 0.038449824 -0.10792846
000080 af d6 0e 3e 74 ab 62 3d 97 67 1f 3e c0 06 0d be
       0.13949083 0.05533929 0.1556686 -0.13772106
000090 68 4c 9b 3c 20 f6 1b 3d 08 39 6a 3d b0 13 28 bc
       0.018957332 0.03807652 0.057183295 -0.0102586

hidden_layers.2.weight f4 [40, 40]
000000 66 ce 97 3d b2 02 62 bd a3 a6 1f 3e 10 73 5d bd
       0.07412414 -0.05517835 0.1559091 -0.05406481
000010 b4 c2 3f 3d cb d5 ff bd b0 5d 0c 3c 38 a6 6b bd
       0.046816543 -0.1249195 0.008567259 -0.057531565
000020 43 1d 08 be 92 e0 e7 3d 62 df e4 bd 60 b6 e2 bb
       -0.13292412 0.1132213 -0.111754194 -0.0069187135
000030 b4 7b 48 bd 36 c4 c3 bd a7 b7 14 be 80 f5 0f bb
       -0.048946097 -0.09558909 -0.14523183 -0.0021966398
000040 44 a0 65 3d 2e d4 d8 3d 00 ed 82 3b 0a c5 f1 3d
       0.056061044 0.10587345 0.0039955378 0.1180516
000050 99 d3 01 be 34 54 29 bd 88 52 4e 3d e3 98 05 be
       -0.12678374 -0.041340068 0.050371677 -0.13046603
000060 88 4e 03 be 20 95 2e bc c8 15 00 be 50 81 37 bc
       -0.12822926 -0.010655671 -0.12508309 -0.011200264
000070 69 70 19 be 11 c8 11 3e 5d 23 15 3e df 95 10 be
       -0.14984287 0.14236476 0.14564271 -0.14119671
000080 b0 c5 c5 bc 8a 25 d2 3d 75 97 14 3e 02 23 d8 3d
       -0.024142116 0.10261066 0.14510901 0.10553552
000090 a0 f7 03 be 68 91 00 be e0 0a 3c bd b0 c4 4d 3c
       -0.1288743 -0.12555468 -0.04590881 0.012559101
0000a0 7a e1 e9 bd d8 5e db 3c 87 43 f2 bd 40 1e 63 3c
       -0.11419959 0.026778623 -0.11829286 0.013862193
0000b0 fc 78 2f bd 14 98 b0 bd 86 52 0f be 1a cb b3 3d
       -0.04283999 -0.086227566 -0.13996324 0.08778973
0000c0 a0 d3 94 3c 42 51 82 bd a0 09 b3 3b 1e da 82 3d
       0.018167317 -0.06363155 0.005463794 0.06389259
0000d0 86 d9 41 bd a1 86 bd bd 52 01 b2 3d 89 c0 d0 bd
       -0.047326587 -0.09254194 0.08691658 -0.10192973
0000e0 76 29 54 bd c0 b6 9e bc 79 e3 14 3e 80 44 fd bb
       -0.051797353 -0.019374251 0.14539899 -0.007729113
0000f0 80 45 29 3c 7e d0 78 bd e5 63 05 3e bb 5c 11 be
       0.0103315115 -0.06074571 0.13026388 -0.1419553
000100 3c b4 07 be 24 89 9d bd bf cb 19 3e 76 fc 2a bd
       -0.13252348 -0.07692173 0.15019129 -0.04174467
000110 80 73 3a 3c 41 f3 20 3e 4a a0 d7 3d c6 a6 5c bd
       0.011380076 0.15717794 0.105286196 -0.053869985
000120 ae 59 f8 bd 90 0f e3 3c c8 70 42 3d cd 1e a4 bd
       -0.1212648 0.027717382 0.047470838 -0.08013687
000130 3c 63 72 3d 42 a1 d4 3d c0 d8 26 3d 08 a1 9e bd
       0.05917667 0.1038232 0.040734053 -0.07745558
000140 31 5c 0b 3e fd a1 c1 bd 2b 61 0e be 60 ad bd 3b
       0.13609387 -0.09454725 -0.13904254 0.00578849
000150 ee 85 5f bd bc 00 4b bd c0 04 93 3d c4 12 81 3d
       -0.054571085 -0.049561247 0.0717864 0.063024074
000160 d6 89 41 bd 6c 28 0b 3d 50 2b b3 3d f0 ad 04 bc
       -0.04725059 0.033974096 0.087484956 -0.008098111
000170 32 11 03 be b1 a7 1f 3e 8e 7d be 3d a7 54 20 be
       -0.12799528 0.15591313 0.093012914 -0.15657292
000180 69 c8 0a 3e c0 6c 46 3c b3 4f 07 3e 48 3e d0 3c
       0.13553013 0.012110889 0.13213997 0.025420323
000190 d4 15 5c bd 2f 58 1a be ac 57 13 3d 40 d3 88 3b
       -0.053731754 -0.15072702 0.035972282 0.0041755736
0001a0 0e f5 92 3d 18 be 0e 3d 00 9d ea 3b 07 c3 1e 3e
       0.07175647 0.034849256 0.007159829 0.15504085
0001b0 b0 9c 20 3d d6 88 e8 3d 70 42 38 3d b6 a6 dd 3d
       0.03921193 0.113542244 0.044985235 0.10822813
0001c0 e0 12 48 bd 4a 1b f3 3d 31 38 05 be ee ad f2 3d
       -0.048846126 0.11870439 -0.13009717 0.11849581
0001d0 00 48 07 3d e8 50 c1 bc 7c 22 ac 3d fb cf f5 bd
       0.03302765 -0.02359815 0.08405015 -0.1200256
0001e0 c0 5d 63 3c 49 5b a8 bd 01 31 12 be b1 b2 11 3e
       0.013877332 -0.08220536 -0.14276506 0.14228322
0001f0 9e 62 d2 3d 4a fc dc bd 1e 97 f7 3d 1c d7 d7 bd
       0.10272716 -0.10790308 0.1208937 -0.10539076
000200 00 b1 17 3b 2c c2 aa 3d e6 ae 72 bd c3 70 13 3e
       0.0023146272 0.083378166 -0.059248827 0.14398484
000210 ec 49 04 bd e7 1f 02 be 33 80 14 3e 1f 48 10 3e
       -0.03229706 -0.12707482 0.14502029 0.14090012
000220 38 6a aa bc 38 60 a6 3c 99 5c 1d 3e e8 c4 ef 3c
       -0.020802602 0.020309553 0.15367354 0.029268697
000230 a2 54 85 3d 8c d8 56 3d 40 02 97 3b 12 64 9b 3d
       0.06510283 0.05245261 0.0046084225 0.07587446
000240 74 a0 1e be b2 89 99 3d 66 4e 17 be e0 b7 c6 bc
       -0.15490896 0.074969664 -0.14776 -0.0242576
000250 62 65 12 be 00 a6 d9 3c 24 db 77 bd 10 63 2a 3c
       -0.14296487 0.026568413 -0.060511723 0.010399595
000260 97 ce 10 3e d0 ec 7e bc 80 84 06 3c 08 87 dd 3c
       0.14141308 -0.01555939 0.008210301 0.027041927
000270 62 2d 7f bd 7a 50 c7 bd 00 c0 f0 3b c0 79 65 3d
       -0.06229914 -0.097321466 0.007347107 0.056024313
000280 b6 3e 41 bd 6a 6b c5 3d ba 5b 89 bd 72 64 45 bd
       -0.047178946 0.09639628 -0.067069486 -0.048191495
000290 08 7a 0c bd f4 81 25 bd cd d1 c5 bd 80 6e 37 3b
       -0.034296066 -0.040407136 -0.09659157 0.0027989447
0002a0 08 12 a3 3c 67 12 13 3e b6 39 fd 3d 26 ab bd 3d
       0.019906059 0.14362489 0.12364523 0.092611596
0002b0 48 1e a3 3c 7a 29 d8 bd e8 e4 9f bd f0 2b 3f 3c
       0.0199119 -0.10554786 -0.07807332 0.01166819
0002c0 93 21 98 bd 80 e9 44 bc 94 09 b3 3d 06 4c fd bd
       -0.07428279 -0.012018561 0.08742061 -0.12368016
0002d0 6c 52 0e 3d 48 46 e7 bc 79 78 ac bd 4c 9c 0e bd
       0.034746572 -0.028231755 -0.08421416 -0.034817025
0002e0 95 ec b0 bd 77 ea ed bd 96 2d b6 bd 43 aa 86 bd
       -0.086388744 -0.11616986 -0.088954136 -0.065754436
0002f0 40 e0 33 bb 84 2d 08 3d 30 37 c3 bc c0 d5 e9 3b
       -0.0027446896 0.033246532 -0.023830026 0.0071360767
000300 94 7f 44 3d 6c d0 1e 3d 84 5a 13 3d e6 8c fd 3d
       0.04797323 0.038772985 0.035974994 0.1238039
000310 82 20 eb 3d b4 e1 63 3d d8 95 0d 3d c8 e7 5c bd
       0.1148081 0.05563517 0.03456673 -0.05393198
000320 10 e6 35 bd a1 08 1a 3e 79 f7 b8 bd 62 66 d9 3d
       -0.044408858 0.15042354 -0.09031577 0.10615231
000330 74 90 7e bd 20 b8 8b 3c 30 0a 62 3c 20 f1 d9 bb
       -0.06214948 0.017055571 0.013796374 -0.006651059
000340 1a 32 ce bd e0 e4 6f bd 06 c8 19 be ae 53 e4 bd
       -0.1006815 -0.05856788 -0.15017709 -0.11148773
000350 2c 06 12 be 77 b5 16 3e 48 de 85 3c 3a ae 95 bd
       -0.14260167 0.14717661 0.016341344 -0.07308622
000360 cb 21 1e be e3 21 c0 bd 71 0f 14 3e 78 8d f7 bd
       -0.15442578 -0.093814634 0.14459015 -0.1208753
000370 28 40 86 3c fd ae 10 3e b0 73 ca 3c b9 d9 00 3e
       0.016388014 0.14129253 0.024713367 0.12583055
000380 ee a8 95 3d 83 4f c6 bd a7 ad 88 bd 50 72 00 be
       0.073076114 -0.096831344 -0.066737466 -0.12543607
000390 3c 0d 1a be 00 99 1d be a2 e3 f4 3d 82 81 cf 3d
       -0.15044111 -0.15390396 0.1195748 0.101321235
0003a0 ad bd 16 be 15 a9 14 be 86 f4 0a be 87 d5 0c 3e
       -0.14720793 -0.14517625 -0.13569841 0.13753329
0003b0 f9 57 e5 bd 60 ae 8c 3b 6c 8d 9f bd fe 64 c7 3d
       -0.1119842 0.004293248 -0.07790646 0.097360596
0003c0 c0 28 b2 3b 99 78 ba bd c8 0e 05 be 8a 49 6b bd
       0.0054369867 -0.091050334 -0.1299392 -0.05744318
0003d0 a8 6b b9 bd 32 5a de 3d c8 13 ec bc 44 bd 0c be
       -0.09053737 0.10857047 -0.028818026 -0.13744074
0003e0 af 91 86 bd 36 2c d2 3d 72 ce e7 bd c0 b8 8e bc
       -0.06570756 0.10262339 -0.11318673 -0.01742208
0003f0 c8 b1 62 3d 51 e0 b0 bd ce 3d d8 bd 7e 44 11 be
       0.055345327 -0.08636535 -0.10558663 -0.14186284

hidden_layers.2.bias f4 [40]
000000 0a 8a de 3d 9b 19 c1 bd 04 6a d5 bd 60 24 1b 3c
       0.108661726 -0.09428712 -0.104206115 0.009469122
000010 81 f4 86 bd c3 b0 91 bd 62 34 d3 3d 04 08 dd bd
       -0.06589604 -0.07113793 0.103127256 -0.107925445
000020 8e 80 cb bd 02 36 99 bd 77 40 07 be a4 b5 5d 3d
       -0.09936629 -0.07481004 -0.13208185 0.054128304
000030 88 ee c2 bd e8 98 18 be 04 1b 6e bd 10 ba 1b bc
       -0.095181525 -0.14902079 -0.058131233 -0.00950481
000040 80 da 39 bc d1 79 a9 bd 58 04 ec 3c b8 10 14 3d
       -0.011343598 -0.08275188 0.028810665 0.036148757
000050 fc ad 93 3d 90 29 e1 bc e0 98 bd bb 3b ea 11 3e
       0.07210919 -0.027485639 -0.0057860464 0.14249508
000060 99 17 09 3e 6a 56 93 3d c6 b1 44 bd 44 f5 7f 3d
       0.13387908 0.071942165 -0.0480211 0.062489763
000070 c8 44 ae 3d be ea 4b bd 5f 13 17 be 70 f2 b7 3d
       0.08509213 -0.049784414 -0.14753483 0.08981788
000080 6f e6 a6 bd 35 74 1d 3e f0 83 f9 3c 08 0c 94 3c
       -0.081494205 0.1537636 0.03045842 0.018072143
000090 74 e0 91 bd 4a f2 e9 3d a8 83 ce 3c 49 81 cc bd
       -0.07122889 0.11423166 0.025209263 -0.09985597

hidden_layers.3.weight f4 [40, 40]
000000 62 1e c2 bd b5 dc 10 3e a6 1d d8 bd 98 1a af 3c
       -0.09478451 0.14146693 -0.1055253 0.021374986
000010 18 02 95 bc 40 63 37 bc ca 7c 0a be ba 29 ad 3d
       -0.018189475 -0.011193097 -0.13524166 0.08455224
000020 dd af f8 bd 0c b8 4e 3d 46 d2 0b be e2 af ed bd
       -0.12142918 0.05046849 -0.13654432 -0.116058126
000030 4a f6 94 3d b8 92 5f bd d0 8f f9 3c a4 04 51 3d
       0.072735384 -0.05458328 0.030464083 0.051029816
000040 de 6d d4 bd 30 9c 3d 3c 68 4a e4 bd 9e c0 ec 3d
       -0.10372518 0.0115728825 -0.11147004 0.11560176
000050 08 d8 c0 3c 82 a1 d1 3d dc 5a 25 bd 14 ba 43 3d
       0.023540512 0.10235883 -0.040369853 0.04778488
000060 6a f3 e1 3d 7c 13 5b bd 67 3f 21 be 04 23 03 bd
       0.11032756 -0.05348538 -0.15746842 -0.032015815
000070 26 bd b7 3d 2e a3 17 be 90 b4 58 3d d3 cc 08 3e
       0.08971624 -0.14808342 0.052906573 0.13359384
000080 60 93 af 3c 76 5a d5 3d 4c ac 4a 3d d1 80 12 be
       0.021432579 0.10417645 0.04948072 -0.14306952
000090 76 ff 0c be 26 54 f0 bd 44 0b 0a bd b0 03 4e bc
       -0.13769326 -0.117348 -0.03370215 -0.012574121
0000a0 70 31 02 bd b8 81 f1 bc ef 4c 84 bd 46 19 88 3d
       -0.03178543 -0.0294808 -0.064599864 0.066454455
0000b0 7c f8 fb bd 68 06 fc 3c 23 6d 19 3e 60 af 6e bc
       -0.12303254 0.030764773 0.14983039 -0.01456818
0000c0 f0 30 b2 3c 3e 18 13 be 0e c9 bb bd 65 89 a0 bd
       0.02175185 -0.14364716 -0.091692075 -0.07838706
0000d0 c7 c4 9d bd b8 9b d2 bd ee 3c dc bd 69 4f 1d 3e
       -0.07703548 -0.10283607 -0.10753809 0.15362324
0000e0 31 d8 8c bd fe ea 82 3d 00 3a c2 3c c8 52 c2 bc
       -0.06877173 0.063924775 0.023709297 -0.023721114
0000f0 64 1d f0 bd 20 39 c0 3c 64 b2 7e bd 8d 11 10 be
       -0.11724356 0.02346474 -0.062181845 -0.14069195
000100 b2 27 fc 3d 70 64 38 3c b2 fd 52 bd c2 8b c4 bd
       0.12312259 0.011254415 -0.051511474 -0.09596969
000110 b4 69 2e bd d7 1c 95 bd dd f5 05 3e 60 7d 27 bc
       -0.042581275 -0.072808914 0.1308207 -0.010222763
000120 86 cb fc 3d a1 66 0e 3e ef 8e 04 3e c7 da 08 3e
       0.123435065 0.13906337 0.1294515 0.13364707
000130 22 49 ac 3d 28 d6 05 bd 10 4e 59 3c 5a 64 fb bd
       0.084123865 -0.03267494 0.01326324 -0.12275
000140 f8 3b 9f bc de d2 f9 3d 6e c6 da 3d e0 ca 03 bd
       -0.019437775 0.12198423 0.10682379 -0.0321759
000150 2c 56 28 3d 60 9f c9 3c 2a 04 e6 3d b0 6d 89 bc
       0.041097805 0.024612129 0.11231263 -0.016775936
000160 f4 df 98 bd d0 53 ec 3c 46 cd c0 bd 5c 0e 8e 3d
       -0.07464591 0.028848559 -0.09414153 0.069363326
000170 56 93 de 3d 86 2d b8 3d 1e e4 f8 3d e0 86 8e bd
       0.10867946 0.08993058 0.12152885 -0.06959319
000180 a0 9c 81 bc 20 2c ea bc 1a 70 f3 3d b8 32 fa 3c
       -0.015821755 -0.028585494 0.11886616 0.030541763
000190 c8 16 57 bd 04 3e 85 3d 72 54 b8 bd a3 33 c3 bd
       -0.05251196 0.06505969 -0.09000482 -0.09531333
0001a0 b0 ab bf bc f8 65 bb 3d 80 6a 92 3b ee 74 9d 3d
       -0.023397297 0.09150308 0.004468262 0.07688318
0001b0 c2 89 93 3d 4e 9a f8 3d 70 27 65 bc 32 fe 1e be
       0.072040096 0.12138806 -0.013986453 -0.15526655
0001c0 56 e1 93 bd ec ca c5 bd b0 6c 45 3c 51 85 87 bd
       -0.07220714 -0.09657845 0.012049839 -0.06617225
0001d0 18 5c 8b 3c 28 ba 21 be 66 fa 2b bd 48 47 e5 3c
       0.017011687 -0.15793669 -0.041986845 0.027988091
0001e0 e8 5f 96 bd 6d e0 1b 3e 20 f2 e4 bb a6 2d d3 3d
       -0.073425114 0.1522233 -0.0069868714 0.10311441
0001f0 d8 51 8c bc 9f ee 05 3e 1c 9f a4 bd c2 68 da 3d
       -0.01712887 0.13079308 -0.0803816 0.10664512
000200 62 44 be 3d c0 04 ae 3b c0 34 05 bc 02 cf be 3d
       0.09290387 0.005310625 -0.008130252 0.09316827
000210 e2 d3 e8 3d d5 d4 91 bd 00 44 1a 3b 34 81 c5 bd
       0.113685384 -0.071206726 0.0023539066 -0.09643784
000220 60 0d df 3c 4c 18 13 3d 30 92 35 3c 32 6c 2b bd
       0.027228057 0.035911843 0.011082217 -0.04185123
000230 2c 8c 7f bd 2a c9 75 bd 22 ba 46 bd 9c 25 6b 3d
       -0.062389538 -0.060006298 -0.048517354 0.057408914
000240 af 47 1c be fa 41 88 bd ca fc 1c be 74 e1 61 3d
       -0.1526172 -0.06653209 -0.15330806 0.05514665
000250 f1 73 a8 bd ba fe c2 bd a8 88 89 bc 41 06 e1 bd
       -0.08225239 -0.095212415 -0.016788796 -0.10987521
000260 a0 cd 57 3d 9d e4 a1 bd b4 fa 8e bd 6e b8 9b 3d
       0.052686334 -0.07904933 -0.069814116 0.076035365
000270 4e 11 e6 3d fc e5 32 3d 66 fb 74 bd 01 e0 aa bd
       0.11233769 0.04367636 -0.059810065 -0.083435066
000280 74 6e 0c be 04 b8 08 3d b4 89 15 3d e6 ed 4d bd
       -0.1371401 0.033378616 0.036508277 -0.050275706
000290 68 e2 d1 bc 0d 36 80 bd f0 0a e7 bc c0 59 cd bc
       -0.025620654 -0.06260309 -0.028203458 -0.02506721
0002a0 10 b2 5f bd 4c 21 19 be e0 cc f3 bd d2 bc 4d bd
       -0.054613173 -0.14954108 -0.11904311 -0.0502289
0002b0 fc c9 ed bd 0a 61 98 3d 6d fe 1b 3e e3 12 0d 3e
       -0.11610791 0.07440384 0.15233774 0.13776736
0002c0 20 a9 10 3c e6 04 12 be de 39 ac 3d f0 6b 28 3c
       0.008829385 -0.14259681 0.08409475 0.010279641
0002d0 18 58 a5 bd a6 70 eb 3d fd 97 20 3e 3b f3 13 be
       -0.08073443 0.11496095 0.15682979 -0.14448254
0002e0 30 3d 5b 3c 64 22 79 3d 0c e1 cb bd 8a b0 ed 3d
       0.013381287 0.060823813 -0.09955034 0.11605938
0002f0 f5 ce 8d bd c5 c9 c7 bd d4 9a b7 bd 68 d5 2d 3d
       -0.069242395 -0.09755281 -0.08965078 0.04243985
000300 19 2c 05 3e cd f2 e4 bd 57 7d b5 bd f8 d7 ad 3d
       0.13005103 -0.11179123 -0.08861797 0.084884584
000310 be 6b d3 3d 94 65 79 bd c0 28 81 3c 04 c1 1a be
       0.103232846 -0.060887888 0.015766501 -0.15112692
000320 1c 5b 75 3d 2e b5 2b bd e7 84 0c 3e 3a 68 f8 bd
       0.05990134 -0.041920833 0.13722573 -0.12129255
000330 aa 57 9c 3d d0 70 9d 3d a0 c8 7e 3d a4 fb 2a 3d
       0.07633908 0.07687533 0.06220305 0.04174389
000340 c2 95 1f be f8 e5 f4 3c ac 23 d7 bd 68 22 aa 3c
       -0.15584472 0.029894814 -0.10504851 0.02076836
000350 0c 32 4f 3d 42 17 6a bd 4a a3 e9 bd b2 ee 0a be
       0.050584838 -0.057151087 -0.11408098 -0.13567618
000360 90 cf 2b bc 98 b2 91 bc f3 93 04 3e 0e 84 f3 3d
       -0.0104864985 -0.017785355 0.12947063 0.11890422
000370 88 28 b0 3c 90 a8 fb bc 02 46 f3 3d 1f c1 09 3e
       0.021503702 -0.030720025 0.11878587 0.13452576
000380 60 b1 a8 bc b6 28 e6 bd 1a ff c1 3d 40 79 7a 3d
       -0.020592391 -0.11238234 0.09472485 0.06115079
000390 a8 2a a7 3d f0 bd cb bc 80 a4 94 3d f8 23 31 3d
       0.08162433 -0.024870843 0.072579384 0.043247193
0003a0 5c fe 21 3d b4 8d 4e 3d b4 a5 27 bd 90 44 08 3c
       0.039549217 0.050428107 -0.04092951 0.008317128
0003b0 5a 29 e2 3d a2 a4 b2 bd 68 a2 73 3d fc 94 8e 3d
       0.110430434 -0.087228075 0.059481055 0.0696201
0003c0 7a 04 b8 3d 00 62 3f 3d 47 d4 09 be 76 b3 bf 3d
       0.08985229 0.04672432 -0.13459884 0.09360401
0003d0 18 13 b9 3c 92 34 c7 bd 60 e2 cb bc f0 c0 01 3d
       0.022592112 -0.09726824 -0.024888217 0.03167814
0003e0 a0 43 99 bb 82 3f f7 3d f8 42 e7 bc 96 77 36 bd
       -0.004677251 0.1207266 -0.028230175 -0.04454764
0003f0 ce 7f 9b 3d 2d d8 17 be 56 cb f8 3d e2 fa f7 3d
       0.07592736 -0.14828558 0.12148158 0.12108399

hidden_layers.3.bias f4 [40]
000000 56 ea be bd 30 36 ac 3c 88 ca 46 3d 3e 4e b0 3d
       -0.0932204 0.021021932 0.048532993 0.086086735
000010 c4 76 96 3d 64 6d 1f 3d b2 96 12 be 00 9a 85 3c
       0.073468715 0.038922682 -0.14315298 0.016308784
000020 94 93 40 3d 26 41 0e bd 9e c4 bc 3d b4 cc 4c bd
       0.04701574 -0.0347301 0.09217189 -0.049999908
000030 ee d5 fc 3d c1 bf 09 3e 18 86 d7 bd 98 8d a9 bc
       0.12345491 0.13452055 -0.10523623 -0.0206974
000040 2c 0e af 3d 82 02 cb 3d 00 59 c5 ba 52 c4 f0 bd
       0.08547625 0.09912588 -0.0015056431 -0.11756195
000050 5c 4d 01 be f8 fa 07 bd bc d8 8c bd 40 91 e5 3b
       -0.12627167 -0.033198327 -0.06877276 0.0070058405
000060 f8 a3 82 3d 1c 53 45 3d a6 be dd bd c8 5d ff bc
       0.06378931 0.048174962 -0.10827379 -0.031172648
000070 a0 c7 eb bc 20 6d b0 3d 2e c9 e4 3d b8 a2 87 bd
       -0.028781712 0.08614564 0.111711845 -0.06622833
000080 b0 a5 d1 3c 86 6b c8 3d 38 a1 4b 3d 6d 9b 0a 3e
       0.025591701 0.097861335 0.049714297 0.13535853
000090 5b 5a 06 be d0 13 9a bc f6 38 f5 bd 8f 7f eb bd
       -0.13120405 -0.018808275 -0.11973755 -0.11498939

output_layer.weight f4 [40, 40]
000000 8a a3 36 3d ab a0 a4 bc c1 cf 1c be 1b 26 ae bd
       0.044589557 -0.020096144 -0.15313627 -0.08503362
000010 9e 1d 5a 3d 91 16 d4 3d 39 96 e4 bd 2a 57 fc 3d
       0.0532509 0.10355867 -0.11161465 0.12321313
000020 04 15 b3 3d 12 cc 05 be 22 24 c0 bc bb 16 85 3d
       0.08744243 -0.13066128 -0.02345473 0.06498476
000030 70 aa 81 3c 5c dc c2 bd 7b 2e 0a be 68 1d 70 bd
       0.015828341 -0.095146865 -0.13494293 -0.058621794
000040 d1 77 1a be f0 24 4b 3d 19 f2 90 bd f3 6c f1 bd
       -0.15084769 0.049595773 -0.070774265 -0.117883585
000050 b0 93 b2 bd d2 7e f5 bd 1a 06 97 3d ce a0 1c be
       -0.087195754 -0.1198708 0.07374211 -0.15295717
000060 42 26 1e be 90 87 7f 3c ef ca ad bd 4d 92 d0 bd
       -0.15444282 0.015596285 -0.08485972 -0.10184155
000070 fa 86 a5 3c 6e 05 c5 3d 50 ad 16 3e 04 6f 13 3e
       0.020205963 0.09620176 0.14714551 0.14397818
000080 55 66 95 3c 63 43 1d 3e 70 6b ae 3d ce 2f d2 3d
       0.018237272 0.15357737 0.08516586 0.10263024
000090 10 d0 92 bc b4 9d 5e bd 6a eb 16 3e 92 72 08 3d
       -0.017921478 -0.054349616 0.14738241 0.033312388
0000a0 81 71 b9 3c ca 9b 67 3d fd fe cf bc 7b b6 a5 3d
       0.02263713 0.056545056 -0.025390143 0.08091446
0000b0 6e 00 16 3e 08 d1 0f be 55 be 08 3e 60 99 7d 3c
       0.14648601 -0.14044583 0.13353856 0.015478462
0000c0 b1 de 29 3d 62 67 7a bd ba 6a 05 bd ed 10 0b 3c
       0.04147214 -0.06113375 -0.032572486 0.008487922
0000d0 d7 62 27 3e 2e 9e 28 bb d6 b9 13 3d ba 8a 15 be
       0.16346298 -0.0025729048 0.0360659 -0.14603701
0000e0 d4 77 67 3d 57 29 5a bd 16 87 f8 3d b1 af b8 bd
       0.05651076 -0.05326208 0.121351406 -0.090178855
0000f0 17 58 80 3b 32 b1 3e bd ef 16 23 be 2a 28 e8 bc
       0.003916751 -0.046555705 -0.15926717 -0.028339464
000100 35 94 d7 3c 1f 29 06 3e ee 30 12 3e 79 2e 9d 3d
       0.026315788 0.13101624 0.14276478 0.076748796
000110 e9 a8 0f 3e 6c 11 e1 bd 45 54 d7 3d 96 dc b5 bc
       0.14029278 -0.10989651 0.1051412 -0.02219991
000120 3f 0a 07 3d 6f 73 07 3e 61 46 e4 3d 67 fb 39 3d
       0.032968756 0.13227628 0.11146236 0.04540577
000130 22 f2 13 be b5 66 f7 3c 2d cf 1b be 61 88 79 bd
       -0.14447835 0.030200342 -0.1521575 -0.060921077
000140 68 66 1a be 03 45 c3 3c ba 2b af 3d 96 f1 d8 bd
       -0.15078127 0.023836618 0.08553262 -0.10592954
000150 4f 82 8a bd 2a 77 6d bc 85 51 c9 bd b2 06 1c be
       -0.06763136 -0.014493743 -0.09830002 -0.15236929
000160 2f ee 07 be 52 0e e8 3b 1a 58 10 bd 31 38 0b 3e
       -0.13274454 0.0070817852 -0.03524027 0.13595654
000170 79 2b 96 bd 05 56 0b be d2 eb 14 3e 00 59 9e 3d
       -0.073325105 -0.13607033 0.14543083 0.07731819
000180 2a 83 7d 3d 9d 5a f0 3d 56 a2 01 3e 05 b7 05 be
       0.061892666 0.11736033 0.12659582 -0.13058098
000190 8c 00 77 3d 4a a8 e1 bd 47 ea a3 bc de 7e db 3d
       0.060303256 -0.11018427 -0.020009173 0.10717557
0001a0 1b a6 ae bd dc ca 1c 3e 37 58 55 bc ac 9c 9a bc
       -0.08527776 0.1531176 -0.01302152 -0.018873535
0001b0 8f 34 9f bd 98 b0 05 3d c5 c8 a0 bd 30 48 a4 bc
       -0.07773697 0.032639116 -0.07850794 -0.020053953
0001c0 de d3 09 3e 1d 29 e9 3b fa 3f 0d be 18 40 1c be
       0.13459727 0.007115497 -0.13793936 -0.15258825
0001d0 6d a8 43 bd 51 d4 94 bc a1 a5 81 3d d2 82 9f bd
       -0.047768045 -0.018167647 0.06330419 -0.07788624
0001e0 79 d4 07 3e ed 9e 81 3c e7 e5 1d 3e f2 8d d4 bd
       0.13264646 0.015822852 0.15419732 -0.103786364
0001f0 dd bd 0c ba 01 a2 2f bd 20 15 b7 bc 94 86 e0 bd
       -0.0005368868 -0.04287911 -0.02234894 -0.10963169
000200 cd a8 e9 3d 7a ef 33 be c1 8a ec 3d 8c f5 48 3d
       0.11409149 -0.17571822 0.11549903 0.049062297
000210 26 10 fc bd 7a d2 10 3e 85 21 44 bd 06 e4 e4 3d
       -0.123077676 0.1414279 -0.04788353 0.111763045
000220 0f ff df bc d6 52 f5 bd 97 21 20 3e b2 f2 63 bd
       -0.027343301 -0.1197869 0.15637814 -0.055651374
000230 9d e7 29 3d 4b 16 62 3c ab 37 7b 3d ab 3d d4 3d
       0.04148065 0.01379926 0.061332386 0.10363325
000240 3b 37 1e be 19 fc 69 3c e0 a9 e8 bd 8d 1a b5 3d
       -0.15450756 0.014281296 -0.11360526 0.08842955
000250 6c 9d 0d 3d c0 3b 5f bc 82 bc f0 3c 76 11 fe bd
       0.034573957 -0.013625085 0.029386763 -0.12405674
000260 f8 5b 09 be f1 5e 72 bd cd 62 22 be bd 84 15 be
       -0.1341399 -0.059172574 -0.15858002 -0.14601417
000270 93 08 c4 bd 66 ea 0f 3d a5 53 ef 3c c1 af 02 bd
       -0.09571948 0.03513565 0.02921469 -0.031905893
000280 fa 9b 07 be 8c af f6 bd 06 36 54 3c 2f c3 3b bd
       -0.13243094 -0.12045202 0.012952333 -0.04584044
000290 52 e7 0e be a1 1c f4 3c d4 52 9b 3d 94 58 f5 bd
       -0.13955429 0.029798808 0.075841576 -0.119797856
0002a0 4d 8d 5e bd c9 db 45 be 3c 32 0d bd 31 7b 30 be
       -0.054333974 -0.19322123 -0.034471735 -0.17234494
0002b0 08 dc c5 bb bf cf db ba 02 47 5b 3b 6d 24 b9 3c
       -0.0060381927 -0.0016770287 0.0033459072 0.022600377
0002c0 d1 7e f7 bd 9d bd b3 bd e7 d3 13 3e 7f b7 6c 3c
       -0.12084735 -0.087764 0.14436303 0.014448046
0002d0 0b 71 0d be 63 c1 86 3d 89 65 bc 3d d1 96 d2 3d
       -0.13812654 0.06579854 0.09199054 0.10282672
0002e0 a7 10 c8 bd dc fc 0b be 25 57 b5 3c 59 0e d5 bd
       -0.09768801 -0.13670677 0.02213628 -0.10403127
0002f0 7a cc 2e bd d0 46 9c bd e3 ac bd 3c b4 bb 0a be
       -0.042675473 -0.07630694 0.023153728 -0.13548166
000300 df 48 32 be 96 57 a8 3d 2e dc 82 bd fc 72 2b be
       -0.1741061 0.08219831 -0.06389652 -0.16743082
000310 de 07 11 bd 34 46 b3 bd 50 eb 0a 3e 92 71 6d 3d
       -0.035407893 -0.087536246 0.13566327 0.057969637
000320 22 09 24 3d 15 2e cd 3c 03 32 0d be f0 8d cc 3d
       0.040047772 0.025046388 -0.13788609 0.0998801
000330 10 c8 fb bd ee 96 95 bd 40 ed 51 bd e3 75 e5 bd
       -0.12294018 -0.07304178 -0.05125165 -0.11204126
000340 a5 ba 12 3e d4 24 dd 3d ca f8 d5 bd 73 7c 08 3e
       0.14329012 0.1079804 -0.104478434 0.13328724
000350 b8 23 b4 bc 69 4e e9 bd 74 fb 2d 3e bd 3d 02 be
       -0.021989688 -0.11391909 0.16990453 -0.12718864
000360 3c 38 92 bc 80 e4 af 3c 41 d7 1a 3e 0a bd e6 3d
       -0.01784908 0.021471262 0.15121175 0.11266525
000370 90 14 0c 3d cf f4 d4 3d 30 d8 b7 bd dc 3a 0e 3e
       0.034199297 0.10398256 -0.08976781 0.1388964
000380 93 d7 5c 3d 15 19 d3 bd da f5 17 bd 9e 9b 5e bc
       0.053916525 -0.103075184 -0.037099697 -0.013586907
000390 e1 fc 93 3c 06 55 98 3d aa 13 17 3d f7 f4 06 be
       0.018064918 0.07438092 0.036883987 -0.13179384
0003a0 0c b6 80 3d 8f de b2 39 fb 16 30 bd d8 73 26 bd
       0.06284723 0.00034116625 -0.042990666 -0.04063782
0003b0 6c a3 5c bd 29 59 c4 3d 82 79 12 be 12 cb 80 bd
       -0.05386679 0.095873185 -0.14304164 -0.062887326
0003c0 ce c9 13 bc 8c 32 9f 3d d4 7d ff bd 07 dc 4e bb
       -0.009020282 0.07773313 -0.12475172 -0.0031564252
0003d0 ef 0e 06 3e 10 2b 89 3d 06 8d bc bd 40 8b 1c bb
       0.13091634 0.06697667 -0.092065856 -0.002388671
0003e0 6a 09 ad 3d 97 3e 5d bb 67 ff e1 3d b5 de 23 3d
       0.08449061 -0.003375923 0.11035042 0.04000731
0003f0 a2 90 b4 3d 5f 51 d8 3d af 3c b1 bd 49 85 0f be
       0.08816649 0.10562395 -0.086541526 -0.14015688

output_layer.bias f4 [40]
000000 15 05 a2 3d 2e e0 cb bd 16 e2 32 3d b9 61 c0 3d
       0.079111256 -0.09954868 0.043672644 0.09393639
000010 5d 10 2e be 76 7c f0 bc c2 c7 fa bd 20 18 99 3d
       -0.1699843 -0.029356223 -0.12245132 0.074753046
000020 22 1d 78 bd 67 f3 7a bb cc 7d fa 3d 38 05 51 bd
       -0.06057466 -0.0038292052 0.12231025 -0.051030368
000030 72 26 f8 3d cc 2f 00 3d b2 1e 87 bd 4b 0d ae 3c
       0.12116708 0.031295583 -0.065976515 0.021246573
000040 2f c6 8a 3d 8a f7 1c bd 76 41 f5 bd ba 54 ce 3d
       0.06776082 -0.03832201 -0.11975376 0.10074754
000050 6d f6 25 be 5c 8b d0 bc 17 17 bf 3d ad 17 31 be
       -0.16207285 -0.025457077 0.09330576 -0.17294188
000060 ef 5f c2 bc 1d 63 f3 bd 7f c0 87 3d 91 6d f8 bc
       -0.023727385 -0.11884139 0.066285126 -0.030325683
000070 ee 73 ab bd f5 eb de 3c 68 89 32 be b2 e2 ed 3d
       -0.08371721 0.027212122 -0.17435229 0.11615504
000080 1c 52 02 3e 4c 04 16 be b9 2c d9 bd 8f c4 ba bd
       0.12726635 -0.14650077 -0.10604233 -0.09119522
000090 31 82 e5 3d 49 f1 14 3c 64 f0 fd 3d 48 8b 1f 3b
       0.11206473 0.00909073 0.123993665 0.0024344493
