src/models/representation_11.pt (torch, 43730 bytes, 12 tensors)

input_layer.weight f4 [40, 40]
000000 39 73 4c 3c a8 ad b3 bc 81 b6 1a 3d 18 34 b4 bd
       0.012478643 -0.021933392 0.037771706 -0.087989986
000010 be 45 ad bd 7d 37 e6 3d 7f 72 d1 3b 49 05 be bd
       -0.08460568 0.11241052 0.006391823 -0.09278352
000020 91 1b da 3d b5 14 e8 3b fd f3 e4 bd 79 f1 48 3a
       0.10649789 0.0070825466 -0.111793496 0.0007665377
000030 e3 ea c9 3d 61 b1 15 3e 6c 50 40 3d 78 e2 ab bd
       0.09859254 0.14618446 0.046951696 -0.08392805
000040 ac 31 eb bc b0 79 0f be 03 82 a0 3d 6a d1 c7 3d
       -0.028710209 -0.14011264 0.07837298 0.097567394
000050 0d ce eb 3d 09 67 e6 bd 6a ef 15 3e 17 37 54 bd
       0.115139104 -0.11250121 0.1464211 -0.05181035
000060 11 5d 2d bb c7 69 08 be 5a c3 46 bd e1 00 a1 3d
       -0.0026453177 -0.13321601 -0.048526146 0.07861496
000070 5c 97 11 3e 5a 2f 01 be eb eb aa 3d d3 63 b6 bd
       0.14217895 -0.1261572 0.08345779 -0.08905759
000080 7a 04 8d bd d7 8a 0b 3e 3a 2b 9f bd 37 59 02 3c
       -0.068856195 0.13627182 -0.07771917 0.007955841
000090 71 f2 da 3d fa 2f b1 3d 38 b9 1c bd 20 4d 17 be
       0.10690773 0.08651729 -0.038262576 -0.14775515
0000a0 bf 2b a0 3c 9d 5f d6 3d 0e f0 e0 3d bf 0e 78 bb
       0.01955211 0.104674555 0.10983287 -0.0037850586
0000b0 29 fa f7 3d 65 29 98 bc 9f 51 fd 3d ac 61 16 3e
       0.12108261 -0.018574426 0.123690836 0.14685696
0000c0 47 d2 d9 bc b0 db d0 3d f0 c1 cc bd ef 36 a7 3d
       -0.026589526 0.10198152 -0.09997928 0.081647746
0000d0 9b 87 db 3d 02 d1 13 ba f6 ec 18 bc 7a 67 d3 bb
       0.10719224 -0.00056387496 -0.00933384 -0.0064515444
0000e0 15 4c 77 bb e8 8d 04 be 74 a3 df 3d 35 b6 c9 3c
       -0.0037734557 -0.12944758 0.10919848 0.024623016
0000f0 b3 25 03 bd cc d7 0c bd da 54 0f 3e 27 f3 02 3e
       -0.032018375 -0.034385487 0.13997212 0.12788068
000100 69 61 13 bd 6d 1e 9e bd 84 f7 ee 3d c3 c0 05 3e
       -0.03598157 -0.07720647 0.116683036 0.13061814
000110 d1 6b 95 3c 0d 06 6c 3d 48 4d f4 3c 05 6f b7 3d
       0.018239887 0.057622958 0.029822007 0.08956722
000120 70 a2 c4 bd 9c 41 5c bc a5 e0 6e 3d d8 c5 3e 3c
       -0.09601295 -0.013443377 0.058319706 0.011643849
000130 79 f2 0b be 66 7d 46 3c df 58 cd 3d a0 01 54 bd
       -0.13666715 0.012114858 0.100267164 -0.051759362
000140 48 5e 9a 38 9d fc 3e bd e8 c7 81 3d e5 d1 65 3d
       7.3608535e-05 -0.04662763 0.06336957 0.056108374
000150 4c 93 19 be 5c 66 e9 bd 4d 76 bb 3d 5b b8 aa 3d
       -0.14997596 -0.113964766 0.091534235 0.08335944
000160 cc b6 a2 3d f5 26 1b 3e c4 7f c5 3d 73 b5 c2 bd
       0.07945022 0.1515158 0.0964351 -0.09507265
000170 21 df 8f 3d d8 f3 c7 3d a6 2b 11 be ca 5f ca 3d
       0.0702498 0.097633064 -0.14176807 0.098815516
000180 06 ac ec 3d 73 eb 55 3d 1d 64 fb 3d d7 4e bb 3d
       0.11556248 0.052226495 0.122749545 0.09145897
000190 26 1d a5 bd 1b f6 fe bd bf ea 07 3d b8 6b 01 bd
       -0.080622 -0.12449285 0.033182856 -0.03159687
0001a0 59 43 0f bd 78 b3 01 be 22 fc de bd d8 5a bc bd
       -0.034976337 -0.12666118 -0.10887934 -0.091970146
0001b0 17 5a e9 bd a8 fb 05 3d b5 7a ec bd b9 e2 8c 3c
       -0.113941364 0.0327107 -0.11546842 0.017197954
0001c0 bf 17 8d 3d 6f 57 fd bc 7e fa a8 bd 87 d2 08 3e
       0.06889295 -0.03092548 -0.082509026 0.1336156
0001d0 b1 bd 93 bb bb 22 93 3c 1e d6 ec bc c8 90 b8 3c
       -0.004508697 0.017960897 -0.028910693 0.022529975
0001e0 b3 c1 ff 3d 96 12 3f 3d 19 00 8f bd b1 04 86 bd
       0.12488117 0.046648584 -0.069824405 -0.065438636
0001f0 06 fc c2 3b ce a2 0a 3e d3 5e 4a bd 7d 1e 12 3e
       0.0059504537 0.13538668 -0.049406838 0.14269443
000200 4e 90 ee 3d 25 a9 03 be fb 0a fb bc 54 22 9d bd
       0.11648618 -0.12857492 -0.030644884 -0.07672563
000210 56 e6 10 bc 11 34 88 3d 0c 2c 11 bd 4e 47 19 bd
       -0.008843979 0.06650556 -0.035442397 -0.037421517
000220 5e 9c 06 be 73 23 9e bd 48 62 1f 3d 7d 9c e3 3d
       -0.13145587 -0.07721605 0.038912088 0.11113832
000230 4a fc 1d 3e a7 9b d0 bb 1c b1 e5 3c 2a d7 11 3e
       0.15428272 -0.0063662115 0.028038554 0.14242235
000240 bb ce f6 bd 7c 35 b2 3d 0a 2b 93 bd 1a 8b 10 3d
       -0.120511495 0.087016076 -0.071859434 0.035288908
000250 6a af fe 3d aa 90 10 3e 47 fb 14 be 6e 15 11 3b
       0.12435801 0.14117685 -0.1454898 0.0022138017
000260 e7 02 18 be 38 b4 87 bb 18 8c 6a 3c dc 8c ee 3b
       -0.14844857 -0.004141357 0.0143156275 0.0072799753
000270 d3 0b f6 bd 58 8e 9b 3d f4 ab 33 bd 88 a6 01 be
       -0.12013974 0.07595509 -0.04386516 -0.12661183
000280 04 2e 97 3d ea dc 32 3d 0d 6a 6b 3d 9c c9 b3 bd
       0.07381824 0.04366771 0.057474185 -0.08778688
000290 00 fb 89 3d 13 c8 4f 3d f7 49 0e be ea 13 af 3d
       0.067373276 0.050727915 -0.13895403 0.0854872
0002a0 e1 f2 26 3c a2 1c 02 be 84 04 09 3d 63 aa db bd
       0.010189743 -0.12706235 0.033451572 -0.10725858
0002b0 6f d3 ef bd b0 30 ae 3d d9 f8 ce 3c e9 05 14 3d
       -0.1171025 0.0850538 0.025265144 0.03613845
0002c0 c1 cb 3d 3c 24 58 ec bd 87 8c c6 bc b1 42 8d bd
       0.011584223 -0.11540249 -0.02423693 -0.06897486
0002d0 00 59 0c bd 6b 45 99 bd 66 d1 17 3e 6f 61 c0 bd
       -0.034264565 -0.074839436 0.14825973 -0.09393584
0002e0 5c 80 dc bd eb c2 99 3c 61 b7 d3 bc 8f 9b 0d 3e
       -0.1076667 0.018769702 -0.025844278 0.13828872
0002f0 99 aa 1e 3d c4 76 20 be 84 a2 88 3d 1c 3b 81 3d
       0.038736913 -0.15670305 0.066716224 0.06310102
000300 db c8 6e bd 74 b9 97 3d 71 af f6 3d 42 c8 23 be
       -0.05829702 0.07408419 0.120451815 -0.15994361
000310 4c fe a5 3d 0d c8 c1 3d 36 31 fb 3b ff 45 0e 3d
       0.08105144 0.09461985 0.0076657785 0.034734722
000320 fc 35 af 3c 9e 29 3c 3d b1 a2 30 3d 8d 3e c7 3d
       0.021388046 0.045938127 0.043123905 0.097287275
000330 32 e9 0c bd ef f4 c2 3d 5f 55 eb bd e6 bf df bd
       -0.03440208 0.095193736 -0.114908926 -0.109252736
000340 58 46 14 3e 88 d2 f7 bd 0e 73 71 bb eb bf 9e 3d
       0.14479959 -0.121007025 -0.003684226 0.07751449
000350 64 50 85 bd f7 b9 d2 3d bc 60 94 ba 8c d0 f6 3c
       -0.06509474 0.10289376 -0.0011320333 0.03012874
000360 3e 2b 8b 3c c1 bb 13 bc 0e 5b d5 3d 20 f3 fb bb
       0.016988393 -0.009016932 0.10417758 -0.007688895
000370 34 8c 1e be e3 e6 1f 3c 6f c2 cc bc 95 28 c1 3d
       -0.15483171 0.0097596375 -0.024995057 0.094315685
000380 0f 80 24 bd c7 02 82 3d e2 79 cc 3d d2 48 ff bd
       -0.04016119 0.06348186 0.09984185 -0.12465061
000390 97 fc ad 3d 67 42 f2 3d 13 50 a8 bd 7b b3 92 3d
       0.08495443 0.118290715 -0.08218398 0.071631394
0003a0 ed 0d d1 bd ce 28 bc bd aa 26 09 be 7a e7 fc bb
       -0.10207734 -0.091874704 -0.13393655 -0.007718024
0003b0 0a d0 00 3b 2e 3f 10 be 56 ef 05 3e 4c a2 b2 3d
       0.001965525 -0.14086601 0.1307958 0.08722362
0003c0 62 b1 51 bd be 29 e1 3d 9c 7a 91 3d 5b 2e 8c 3d
       -0.051194556 0.1099429 0.07103464 0.06844779
0003d0 d6 ed 11 bd e8 11 ea bc 3b 16 20 be 7d 3d 10 be
       -0.03562721 -0.028572991 -0.1563348 -0.14085956
0003e0 e5 19 d7 3b a6 d7 f6 3d d5 93 a9 bd 88 9f 3b 3d
       0.006564366 0.120528504 -0.0828015 0.045806438
0003f0 c9 5e 0d 3c 0e 82 9f bc 1f 5c 7f 3d a7 1d 3b bd
       0.008628556 -0.019471195 0.062343713 -0.045682576

input_layer.bias f4 [40]
000000 8a e6 af bc ce 97 91 3d a5 7d 1d bd 39 f8 0a 3e
       -0.021472234 0.071090326 -0.038449902 0.13571252
000010 67 c2 1b 3e e7 47 18 3e e4 5a f5 bd c9 07 05 3e
       0.15210877 0.14871179 -0.11980227 0.12991251
000020 a1 8c ed bd 88 69 f9 bc f4 a5 09 3d 9a 9d 82 3d
       -0.115990885 -0.030445829 0.03360553 0.06377716
000030 49 9c 05 3e 90 98 c6 3c f9 bb 04 3e 97 ce 12 3d
       0.130479 0.02424267 0.12962331 0.03584155
000040 6e d7 8f bd 8c b7 b7 3d 74 96 61 bc ff a9 14 3e
       -0.07023512 0.08970556 -0.013768781 0.14517973
000050 e1 6a 57 bd be e7 0a be dd a0 2b 3d f7 71 f1 3d
       -0.052592162 -0.13564965 0.041901458 0.11789315
000060 dc 56 0f 3e 82 14 04 3e 88 88 ed bc 26 2c a3 bd
       0.13997978 0.12898448 -0.028995767 -0.07967405
000070 e9 61 18 3e 27 41 69 bd 9d 3a 72 bd 6d f3 87 bc
       0.148811 -0.0569469 -0.05913793 -0.016595567
000080 f6 a9 c7 3d 70 c4 0f 3e 4e cb ad bc 8d 44 80 3d
       0.09749214 0.14039779 -0.021215107 0.06263075
000090 61 03 59 bd 5e 0b 65 3d f0 bc 20 bc fe f2 a5 3d
       -0.052981738 0.055919044 -0.009810671 0.08102988

hidden_layers.0.weight f4 [40, 40]
000000 2d a8 13 3e 55 7d 17 3e 46 4f 87 3d 14 87 73 3d
       0.14419623 0.14793904 0.06606917 0.059454992
000010 5e e2 cc 3d ca 09 f3 3d 13 4f 15 be bb 96 8c bd
       0.100041136 0.118671015 -0.14580946 -0.06864687
000020 50 b8 a6 3c 17 b6 f5 bd 00 6d 9c ba 48 46 16 3d
       0.020351559 -0.119976215 -0.001193434 0.03668812
000030 f0 ac c2 3c 02 b5 af 3d ca a8 e9 3d 6a c5 ae 3d
       0.023764104 0.085794464 0.11409147 0.085337475
000040 bf d4 1c be 83 62 e9 bd b0 d1 aa bc 00 ff c4 3c
       -0.15315531 -0.11395743 -0.02085194 0.024047375
000050 58 5a 08 be f4 48 74 3d 2f 1b 0f 3e 86 dd ee 3d
       -0.13315713 0.059639886 0.13975213 0.11663346
000060 3e d5 ef 3d 08 dc 2d bd 46 cd e1 3d 78 c2 a7 3c
       0.117105946 -0.042446166 0.11025481 0.020478472
000070 82 ae ec 3d f4 bd 10 3d 00 05 bc ba fa 37 02 be
       0.11556722 0.035337403 -0.0014344752 -0.12716666
000080 b4 47 a4 3d 9d 14 eb bd 68 98 96 3c 4d 6f 13 3e
       0.08021489 -0.11478541 0.01838322 0.14397927
000090 58 5f b3 bd 52 1a d5 3d 7d 58 06 3e d8 e8 ae bd
       -0.0875842 0.10405411 0.13119693 -0.08540505
0000a0 8e e7 c7 bd 34 59 6c 3d 8a 11 63 bd 42 12 f2 bd
       -0.097609624 0.05770226 -0.05543665 -0.11819889
0000b0 9e 6b cd 3d e0 59 81 3c 47 43 12 3e f2 c3 ea bd
       0.10030292 0.015789926 0.14283477 -0.11463155
0000c0 0f 91 b4 bd 46 c0 e2 3d 14 2e 56 bd 6a a6 e6 3d
       -0.0881673 0.110718295 -0.052290037 0.1126221
0000d0 8b e2 0d 3e 20 87 f5 bc a0 15 58 bc 00 9e c2 bb
       0.1385595 -0.02997166 -0.01318875 -0.005939245
0000e0 00 9c cb 39 ac e6 3f 3d dd 91 c5 bd 51 21 15 3e
       0.00038835406 0.046850845 -0.09646962 0.1456349
0000f0 14 55 17 3d f8 b3 d2 3c 70 8d b3 3d b9 15 0f be
       0.03694637 0.025720581 0.087672114 -0.1397313
000100 be f0 b8 bd 20 93 91 bc 16 2d b5 3d cc fc 03 bd
       -0.09030293 -0.01777035 0.0884649 -0.032223508
000110 64 d4 06 be 48 a8 05 3d 4e dd 89 3d 1e 72 d9 bd
       -0.13166958 0.03263119 0.06731664 -0.10617469
000120 c0 6a 80 bb af 11 88 bd 0f 33 20 3e 1e 9c f3 3d
       -0.0039189756 -0.06643998 0.15644477 0.11895011
000130 40 14 26 3d ea a1 f0 3d 75 e3 01 3e fa 32 c8 3d
       0.040546656 0.11749633 0.12684424 0.09775348
000140 b0 f2 b5 3d 96 62 81 3d b2 fe a6 3d de 6f 02 be
       0.088841796 0.06317632 0.08154048 -0.12737986
000150 e8 81 f2 bc 68 45 90 bd c0 08 50 3d 20 dc cb bc
       -0.02960296 -0.07044488 0.050789595 -0.024885237
000160 55 c5 f9 bd d4 a8 45 bd ce c4 b6 3d 78 a3 27 3d
       -0.12195841 -0.04825671 0.08924256 0.04092738
000170 66 d5 e7 bd 8d 60 b8 bd 99 db e1 bd ce af 0a be
       -0.113199994 -0.090027906 -0.11028213 -0.13543627
000180 e0 a4 2a bc e8 d7 f2 bd 20 fa 4a 3c 58 80 d7 bd
       -0.010415286 -0.11857587 0.012388736 -0.105225265
000190 6e 23 8d 3d ec 66 9f bd ba 23 cb bd eb 9d 17 3e
       0.06891523 -0.07783303 -0.09918924 0.14806335
0001a0 29 81 0c be 7c a9 25 bd 4f 2c 9d bd 26 a0 ec bd
       -0.13721146 -0.040444836 -0.07674467 -0.115539834
0001b0 7b a9 c3 bd 41 d6 de bd ee 76 0a be 74 6c 6d 3d
       -0.0955381 -0.108807094 -0.1352193 0.057964757
0001c0 2f 55 db bd d0 85 5e bc e0 7c e2 bc 78 08 cb bd
       -0.10709607 -0.013581708 -0.027647436 -0.09913725
0001d0 c8 2b c1 bc c0 21 c2 3b ba fd e1 3d 3f 34 13 be
       -0.023580447 0.0059244335 0.110347226 -0.14375399
0001e0 3b 0d 10 be 62 42 c5 3d 70 58 64 3d d4 06 9e 3d
       -0.14067547 0.09631802 0.055748403 0.07716146
0001f0 74 c1 59 3d f0 e2 11 bd 49 76 01 3e f2 a6 c7 3d
       0.053163007 -0.035616815 0.12642778 0.09748639
000200 d2 2d a4 bd ec 82 08 bd 80 34 a4 3b 0a b0 94 bd
       -0.08016552 -0.03332798 0.0050111413 -0.07260139
000210 4c 13 28 3d 90 aa 17 be 9a 38 e0 3d 4e 3c 65 bd
       0.041034028 -0.14811158 0.10948296 -0.055965714
000220 88 10 5c 3d 64 13 2a 3d 06 31 d7 bd 60 5d 6d 3d
       0.053726703 0.0415224 -0.10507397 0.057950377
000230 55 dd 0c 3e ea 19 90 3d 54 b8 1f bd c2 7d 10 be
       0.13756306 0.07036193 -0.03899415 -0.14110473
000240 88 12 5f 3d 5c c9 ad 3d 22 58 6f bd 9f 4f a6 bd
       0.054461032 0.08485672 -0.05843366 -0.08120655
000250 34 76 77 bd 72 0d 32 bd 10 83 2b 3d 84 f0 26 3d
       -0.06041546 -0.043469854 0.041873038 0.040756717
000260 bb b5 8c bd b2 e1 28 bd 9f 0f 0a 3e 80 47 1e 3b
       -0.068706 -0.041230865 0.13482521 0.0024151504
000270 f4 f4 51 3d 1e a1 e9 bd de 1f fa 3d 60 cc b1 bb
       0.051258996 -0.11407684 0.122131094 -0.0054259747
000280 27 e1 1a be 2a 0d 1e be ec dc 21 bd aa 7a df bd
       -0.15124951 -0.15434709 -0.03951733 -0.10912068
000290 4e 62 97 3d 0f 9e c5 bd 1d a6 ef bd ea bf df 3d
       0.07391797 -0.09649288 -0.117016055 0.109252766
0002a0 b5 c4 9d bd 44 3a 6a 3d c4 f6 6a 3d 62 9a bb 3d
       -0.077035345 0.057184473 0.05736424 0.091603056
0002b0 b8 5d 1a 3d 5a 3e d6 3d 28 a4 a1 3c 19 3a 05 be
       0.037687033 0.10461111 0.019731596 -0.13010444
0002c0 ce a2 29 bd e5 37 89 bd c8 aa 04 bd f0 43 f1 3c
       -0.04141503 -0.06700114 -0.032389432 0.02945134
0002d0 1c 57 2f bd 80 39 1f bd 19 69 17 be 8c 9c 08 be
       -0.042807683 -0.038873196 -0.14786185 -0.13340968
0002e0 20 1e 9f 3c 13 81 13 3e a6 72 dc bd be 40 e9 3d
       0.019423544 0.14404707 -0.10764055 0.11389302
0002f0 fb 77 03 3e 30 e0 1b bd 2e 71 d0 3d 48 38 f1 3c
       0.12838738 -0.0380556 0.10177837 0.029445782
000300 ec 66 96 3d e0 fb 37 bd ef db 0b be b6 3f 49 bd
       0.073438495 -0.04491794 -0.13658117 -0.049133025
000310 f0 0e 19 bc f6 d8 b6 3d 22 32 a9 3d 92 3d d3 3d
       -0.00934194 0.08928101 0.08261515 0.10314478
000320 58 55 74 3d b0 23 d1 bc 42 c3 f8 3d 00 ac ba 39
       0.059651703 -0.025529712 0.121466175 0.00035604835
000330 20 dc 09 bc bb ff 9e bd 71 66 0a 3e 77 4a 86 bd
       -0.008414298 -0.077636205 0.13515641 -0.06557172
000340 96 4e 7c bd 28 20 41 3d ec eb f4 bd 40 e4 47 3b
       -0.061598383 0.047149807 -0.11959061 0.0030501038
000350 90 a6 8c bd 41 41 10 3e 80 ea 4b 3d e3 c8 18 3e
       -0.06867707 0.14087392 0.049784184 0.14920382
000360 85 de 1d 3e aa 8c 13 be 22 70 bb 3d f0 0c 18 3d
       0.15416916 -0.14409128 0.09152247 0.037121713
000370 07 2c 05 3e c0 8e 15 3b 90 3c 1b 3c 48 da a3 bc
       0.13005076 0.0022820681 0.009474888 -0.020001546
000380 1f c5 0d be d0 c5 56 bd a4 47 cf bd e8 ae 86 3d
       -0.13844727 -0.052434742 -0.10121086 0.065763295
000390 e2 c8 e9 3d 34 ef 9f bd 55 bf 11 be bb 1f e6 bd
       0.114152685 -0.07809296 -0.14233144 -0.11236521
0003a0 7c a8 1c 3d 6c ca 38 3d e6 08 78 bd 86 ff e4 3d
       0.038246617 0.04511492 -0.06055536 0.1118155
0003b0 90 d4 fb 3c 40 91 7a 3b ca 13 8d 3d 49 37 1d be
       0.030741006 0.0038233548 0.0688854 -0.15353121
0003c0 9e b8 e8 3d ce 34 0f be 1d 49 02 3e 88 d0 bf bc
       0.11363338 -0.13984987 0.12723203 -0.023414865
0003d0 3a 42 bd 3d 00 8b 5d 3c c8 f1 94 3c b8 b1 6e 3d
       0.09241147 0.01352191 0.018181697 0.058274955
0003e0 f6 5e c6 3d 56 40 06 be d6 1c d8 bd 82 6a 3a bd
       0.09686081 -0.1311048 -0.10552375 -0.04551173
0003f0 3c 00 ba 3d 20 2e a4 bb 00 20 c6 b9 a0 82 86 3d
       0.09082076 -0.0050103813 -0.00037789345 0.065678835

hidden_layers.0.bias f4 [40]
000000 50 87 3c bd 7c 92 0a 3d a2 12 1a bd f3 88 0c 3e
       -0.04602748 0.033831105 -0.037615426 0.13724117
000010 34 ad 8f 3d 90 38 c4 bd 34 1e 3e bd 90 ef 00 bd
       0.07015458 -0.09581101 -0.046415523 -0.031478465
000020 89 50 c7 bd 84 d7 9b 3d 80 14 d3 3a 04 13 a4 3d
       -0.09732158 0.07609466 0.0016104132 0.080114394
000030 86 e4 4c bd 40 2e 78 bc 1a ce e1 bd 03 9c 03 3e
       -0.050022624 -0.015147746 -0.11025639 0.12852482
000040 6c 9b c4 bd 33 0b bb bd 98 15 07 3d f6 7a bc 3d
       -0.09599957 -0.091329955 0.032979578 0.092031404
000050 74 5e 5b 3d 80 23 0b 3b b6 84 b8 3d d0 10 4a 3d
       0.053556874 0.0021230876 0.090096876 0.04933244
000060 86 4d bd 3d 69 64 21 3e 64 73 1c bd ce 24 b3 bd
       0.09243302 0.1576096 -0.038195983 -0.08747254
000070 df 15 bb bd f4 1a 9f 3d aa 60 f6 bd 0d 0c f7 bd
       -0.09135031 0.07768813 -0.12030156 -0.120628454
000080 7e 95 ca bd 4f 1f 81 bd 94 b9 f5 bd 04 26 1d 3d
       -0.098917946 -0.063048 -0.11998287 0.038366333
000090 8a 6d e3 3d 4a e1 77 bd 62 5b 9d 3d 70 11 98 bd
       0.11104877 -0.060517587 0.076834455 -0.07425201

hidden_layers.1.weight f4 [40, 40]
000000 b8 36 b8 bd fc 7a ff bd a8 8a 49 3d 5c f4 7a bd
       -0.08994812 -0.12474629 0.0492045 -0.061268196
000010 b0 81 56 bc 56 74 25 bd 3c 80 69 3d 8b ee b9 bd
       -0.013092443 -0.04039415 0.05700706 -0.090787016
000020 74 77 98 3d 20 cb 76 3d 4f 46 05 3e d8 c3 ac 3c
       0.07444659 0.06025231 0.13015102 0.02108948
000030 3a b2 1e be 38 5d 15 3d e5 ec 0c 3e 82 04 d2 3d
       -0.15497676 0.036465853 0.13762243 0.10254766
000040 3f 3c 13 3e d0 c7 bf 3c 28 6b 1f be 14 a5 92 3d
       0.14378451 0.023410708 -0.1556822 0.071603924
000050 90 2a 2f bd b0 11 6a 3c aa ec 0b be f0 31 6e bc
       -0.0427652 0.014286444 -0.13664499 -0.014538273
000060 8e 4a 11 bd a0 91 f6 bc aa 6e 52 bd 12 c0 a1 bd
       -0.03547149 -0.030098736 -0.05137507 -0.07897963
000070 63 1c 20 be 28 61 85 3c 72 1f bc 3d ec f6 23 3d
       -0.15635829 0.01628168 0.09185685 0.040030405
000080 80 eb 00 bb 95 47 1e 3e 0c 35 1b bd e1 26 dd bd
       -0.001967162 0.15456994 -0.037892386 -0.10798431
000090 90 ba dd bc fc 4a 99 3d 42 2a 62 bd 28 83 93 bc
       -0.027066499 0.07485005 -0.05521608 -0.018006876
0000a0 ca 53 de bd 18 b4 df 3c a0 22 71 bd 56 0a 10 be
       -0.10855825 0.027307555 -0.05887091 -0.14066443
0000b0 da 57 fe bd 22 40 02 be 12 b3 b8 3d f0 c8 d0 3c
       -0.124191 -0.12719777 0.0901853 0.02548644
0000c0 1a f5 d6 3d 18 8f c6 bc 02 a4 da 3d e0 8b d8 bb
       0.10495968 -0.024238154 0.10675813 -0.0066084713
0000d0 8c 76 5f 3d 7b fa a7 bd 22 7a 0c be 80 ec f5 bb
       0.054556414 -0.08202072 -0.13718465 -0.0075049996
0000e0 78 7c 7d bd 70 5e 80 bc 40 c4 27 3b 49 55 01 3e
       -0.06188628 -0.015670031 0.0025599152 0.1263019
0000f0 5c 0c 2f bd c0 11 0f bc c8 39 a9 3d 73 07 05 3e
       -0.042736396 -0.008732259 0.08262974 0.12991123
000100 f8 fe ef bc 40 8d 1f 3c 20 62 aa bc d4 c8 ca bd
       -0.029296383 0.0097382665 -0.020798743 -0.09901586
000110 52 62 b3 bd 21 c1 03 3e d6 bc fd 3d c8 43 de bd
       -0.087589875 0.12866642 0.12389533 -0.10852772
000120 5e 46 e4 3d ef 19 c0 bd f8 60 fa bc cc 24 8f 3d
       0.11146234 -0.093799464 -0.030563816 0.0698944
000130 f2 6f 1c be 5b b8 0d 3e 86 37 d0 3d 46 4a dd 3d
       -0.15277079 0.13839857 0.1016684 0.10805182
000140 2d b3 02 3e cd ea 12 3e c0 bf a2 bb 40 58 71 bb
       0.12763663 0.14347382 -0.004966706 -0.0036826283
000150 26 84 a3 3d 21 10 03 3e dd 09 03 3e 13 87 17 3e
       0.0798419 0.12799121 0.12796731 0.1479762
000160 76 f0 be bd 3a f3 c4 3d 90 62 56 3c e4 d8 bc bd
       -0.09323208 0.09616704 0.013085023 -0.09221056
000170 b4 59 da bd 30 4f 37 3d 10 80 a7 3c 46 14 ed 3d
       -0.10661641 0.044753253 0.020446807 0.115761325
000180 0b 95 05 3e 0a d7 95 3d a2 13 ff 3d 3a bd cb 3d
       0.13045137 0.07316406 0.124549165 0.099482015
000190 84 b7 5b 3d 44 06 b9 3d 80 e4 0e be 52 e6 9c 3d
       0.05364181 0.09034398 -0.13954353 0.076611176
0001a0 be a1 67 bd 18 95 8c 3d a4 d6 2e bd 97 a5 13 3e
       -0.056550734 0.06864375 -0.042685166 0.14418636
0001b0 60 3a c0 bd 7c 50 05 3d 10 3e 0d 3c e0 23 b5 3c
       -0.09386134 0.03254746 0.008620754 0.022111833
0001c0 e2 8d db 3d 00 de 8c 3d 19 7b 1c 3e d9 de dc bd
       0.107204214 0.06878281 0.15281333 -0.10784692
0001d0 72 87 0e be 71 5e 1a 3e 8c 10 22 3d dc 4f 3a 3d
       -0.13918856 0.15075089 0.03956656 0.045486316
0001e0 88 e3 a4 3d 10 53 4f 3c 88 d9 21 be 5a b4 e7 bd
       0.08051211 0.012654081 -0.15805638 -0.11313696
0001f0 f9 51 91 bd c0 c7 cf 3c 3d 13 20 3e 11 f9 20 3e
       -0.07095713 0.025363803 0.15632339 0.15720011
000200 a0 bc f2 3b 5a c6 ba 3d 34 87 6a bd 2f bb 17 3e
       0.0074077398 0.09119864 -0.057257846 0.14817499
000210 25 7c 10 be 1a a5 f8 bd 2c 20 53 3d fc df b7 3d
       -0.14109857 -0.121408656 0.051544353 0.089782685
000220 a0 07 9b bc 96 5f 3f bd dc d1 49 3d 0f 34 0f be
       -0.018924534 -0.046722017 0.049272403 -0.13984703
000230 50 1b 6a 3d c0 27 3e 3d 97 51 d0 bd 80 36 88 bc
       0.057154953 0.046424627 -0.10171812 -0.01662755
000240 d8 6e f6 bd 30 a9 eb bc 9d 1e 9a bd 2c 64 32 bd
       -0.120328605 -0.028767198 -0.0752537 -0.043552563
000250 a8 cb 85 3d 49 8e 17 be 60 03 b3 bb 53 ff 06 3e
       0.06532985 -0.14800371 -0.005463049 0.13183336
000260 97 f6 1b be 57 64 9d bd ba 93 1b be 20 6b 6c bc
       -0.15230785 -0.07685154 -0.15193072 -0.014429837
000270 9e 5c 21 be 42 cf ee bd 2d ab 10 3e 98 81 a4 bd
       -0.15757987 -0.11660625 0.14127798 -0.080325305
000280 69 f4 0e 3e a6 1d 21 be 4c 45 4f 3d 18 42 a9 3d
       0.13960423 -0.15733966 0.050603196 0.082645595
000290 9c 6b 03 be 1a f1 af bd a0 c0 15 bc f0 5e a0 3c
       -0.12834018 -0.08590908 -0.009140164 0.01957652
0002a0 70 f2 b6 3d 04 79 99 bd 00 d1 58 bc 94 32 05 bd
       0.0893296 -0.07493785 -0.013233423 -0.03251894
0002b0 a1 e9 ca bd 7b 1d 03 be 51 10 1d 3e fe 8f d8 bd
       -0.099078424 -0.12804215 0.15338255 -0.10574339
0002c0 b4 04 18 3d 2e 17 cb 3d e0 c6 a0 3d 44 8f 21 be
       0.03711386 0.099165305 0.078504324 -0.15777308
0002d0 49 fb 0e 3e e6 1a ac bd 20 74 85 3b 00 5b d2 bb
       0.13963045 -0.08403568 0.004072681 -0.0064195395
0002e0 ea 35 a5 3d d8 81 51 3d 75 78 12 3e 20 b0 a8 3d
       0.08066924 0.05114922 0.14303763 0.08236718
0002f0 5a 53 fc 3d 66 ad 99 3d be 22 c3 3d 34 3a 34 bd
       0.123205855 0.07503776 0.09528111 -0.04400082
000300 20 e0 ca 3b 1a 7d 02 be 28 4d e0 3c a0 80 01 3c
       0.0061912686 -0.12743035 0.027380541 0.007904202
000310 cc 73 f8 bd 82 8a 0d be 20 ce 21 3c 9e 32 e5 bd
       -0.121314615 -0.13822368 0.009875804 -0.11191295
000320 cc 3a b7 3d 9c 14 6a bd f8 c3 84 bc 0a ed fe bd
       0.089467615 -0.05714856 -0.016206726 -0.12447555
000330 fb d4 a6 bd 90 18 e6 bc 68 9d 04 be 42 69 8b bd
       -0.081460916 -0.028087884 -0.1295067 -0.06807186
000340 72 c0 a3 3d 00 1c b8 3d 80 89 07 be 4e 5f 07 be
       0.079956904 0.089897156 -0.13236046 -0.1321995
000350 38 55 d3 bc a9 8c 19 3e 72 4b e0 3d 19 14 8a bd
       -0.025797471 0.14995064 0.1095189 -0.067421146
000360 bf 81 f7 bd 6a 41 fe 3d 9c 21 39 3d 28 3c f7 bd
       -0.12085294 0.124148205 0.045198068 -0.12072021
000370 e4 00 1f 3d e4 5d 9e bd 0a 0f e2 3d 74 bf 06 be
       0.03881921 -0.07732752 0.11038025 -0.13158971
000380 85 b3 18 be ca e5 c8 3d f0 6f c9 bc d2 6a 9f 3d
       -0.14912231 0.09809454 -0.024589509 0.07784046
000390 ef f7 c3 bd 80 af 71 3d 9f 79 21 3e 72 e4 c0 3d
       -0.09568774 0.05900526 0.15769051 0.094185725
0003a0 24 a0 97 3d 9c d3 49 3d f8 d0 6f bd b4 f7 37 bd
       0.07403591 0.049274072 -0.058548898 -0.044913962
0003b0 3e 5e 9c 3d 8f 82 0a be 57 f3 96 bd 49 9f b2 bd
       0.07635163 -0.13526367 -0.07370632 -0.087217875
0003c0 3e e3 a5 3d a8 73 ad bd 68 80 af 3c b0 08 f2 bd
       0.08099984 -0.08469325 0.021423534 -0.11818063
0003d0 c0 44 06 bd 1a 22 9f bd 4e 6b ab 3d a0 f6 d7 3b
       -0.03278041 -0.07770176 0.08370076 0.0065906793
0003e0 3c 1a ee bd 04 50 43 3d b8 db a6 bc 0c ed 44 bd
       -0.116260976 0.04768373 -0.020368442 -0.048077628
0003f0 20 1a 71 3d ae f5 b0 3d a3 ec 19 be 6f 5d 06 be
       0.058862805 0.0864061 -0.15031676 -0.1312158

hidden_layers.1.bias f4 [40]
000000 59 77 12 3e 9c 93 4d bd 8b 83 20 be 6a de a4 bd
       0.1430334 -0.0501896 -0.1567518 -0.080502346
000010 60 5a 6e 3c 21 db 01 3e ec 98 59 bd e8 d6 91 bd
       0.014547914 0.12681247 -0.053124353 -0.07121068
000020 50 87 8d 3d 18 5f ba 3d 40 a6 13 bd f6 df a4 3d
       0.069105744 0.09100169 -0.03604722 0.0805053
000030 ba 03 cc 3d 60 ee 3a 3c 72 e3 b2 3d 6c 46 8b 3d
       0.09961648 0.011409372 0.08734788 0.06800541
000040 19 be b5 bd 3e ed d6 3d 30 3b f4 bd bd 9a ff bd
       -0.08874149 0.10494469 -0.119253516 -0.12480686
000050 02 f8 15 be b0 6f f5 3c 1e 63 cd 3d 08 1c 6e 3d
       -0.14645389 0.029960483 0.10028671 0.0581322
000060 ad 48 04 3e 5c 12 61 3d 7c b7 04 3d b8 65 9b bd
       0.12918349 0.05494915 0.032401547 -0.07587761
000070 94 fc 7d 3d 54 71 17 be be 8f c9 bd 08 92 b8 3d
       0.062008455 -0.14789325 -0.0984187 0.09012228
000080 74 35 9c bd 74 9c 40 3d 70 a7 bf bd e2 34 c5 bd
       -0.07627383 0.047024205 -0.09358108 -0.09629227
000090 20 d2 12 be 7d a9 d6 bd b0 e5 3b 3d 66 fc 8c bd
       -0.14337969 -0.10481546 0.045873344 -0.06884079

hidden_layers.2.weight f4 [40, 40]
000000 fd 66 8a bd 06 32 ff 3d a6 f0 d2 3d c8 3d 21 bd
       -0.06757925 0.12460713 0.10299806 -0.03936556
000010 8f ad 94 bd f3 e7 11 3e c4 f6 84 3d 14 35 89 bd
       -0.07259666 0.14248638 0.06492379 -0.06699577
000020 40 59 f1 3c 00 6a 1c 3b f0 a1 5b 3c 15 17 01 3e
       0.029461503 0.0023866892 0.013405308 0.12606461
000030 2c 23 4c 3d a8 de 67 3d ea bb 1a be 16 6b 9e bd
       0.04983823 0.056608826 -0.15110746 -0.07735269
000040 c0 fb 0a 3d d8 d4 21 bd a0 c4 16 3d da 6c d0 3d
       0.033931494 -0.039509624 0.03680861 0.10177012
000050 a4 59 cc bd 32 70 ef 3d 80 86 b6 3d c0 08 0f be
       -0.09978035 0.116913214 0.089123726 -0.13968182
000060 24 bb 64 3d 18 35 f3 3c 29 d0 08 3e 3e ae 07 bd
       0.055842534 0.029688403 0.13360657 -0.033125155
000070 e0 4c 8e 3c 26 75 e0 3d 21 c3 16 be 47 8b 04 be
       0.017370641 0.10959844 -0.14722873 -0.12943755
000080 08 1a 51 bd b0 3e b8 3d 94 44 fe bd c0 b1 ad bc
       -0.051050216 0.08996332 -0.12415424 -0.021202922
000090 e0 dd 6b 3c 20 fd 58 bc bc 22 eb bd 4f c0 a8 bd
       0.014396161 -0.013243943 -0.114812344 -0.08239805
0000a0 e6 21 b0 3d c0 c1 52 3d 96 b0 c1 3d a4 cd b7 3d
       0.086002156 0.051454306 0.09457509 0.0897477
0000b0 a8 19 d4 3c 3c 3d b5 bd 58 03 28 bd a6 9b 09 be
       0.02589114 -0.0884957 -0.041018814 -0.13438281
0000c0 b6 24 97 3d 7d 1a c2 bd 79 2a 04 3e 48 04 17 3d
       0.07380049 -0.094777085 0.12906827 0.036869317
0000d0 9f 0d a8 bd 3e b6 2a bd 9c 86 92 bd 4c 0f e4 bd
       -0.08205723 -0.041677706 -0.07154581 -0.1113573
0000e0 9f 03 07 be fe 62 b9 3d e0 57 1a be 28 2a b4 bd
       -0.13184975 0.090520844 -0.15072584 -0.08797103
0000f0 80 34 f8 3a 34 86 9e 3d ea 23 a0 bd 10 6b 45 3c
       0.0018936545 0.07740441 -0.0781935 0.0120494515
000100 b0 3d d8 bd 1c 28 3b 3d d0 6d 13 be ea d0 a2 bd
       -0.10558641 0.04569255 -0.14397359 -0.079500034
000110 7e fa e4 3d 70 b0 1e bc d4 a7 15 be a0 93 0f bc
       0.1118059 -0.009685621 -0.14614803 -0.008763224
000120 98 2f fc bc 14 b2 93 bd b6 40 8d 3d 16 9f fd bd
       -0.030784413 -0.072117 0.06897108 -0.12383859
000130 86 b2 8b 3d 18 3d 5c 3d d2 f7 fb bd 76 02 4c bd
       0.0682116 0.0537692 -0.12303127 -0.049807034
000140 50 83 11 bd ac 7c 14 3d 10 97 0e 3d 70 0c d4 bc
       -0.03552562 0.03625171 0.034812033 -0.025884837
000150 f3 4b 18 3e db 30 a2 bd 70 d1 74 bc b4 71 17 be
       0.14872722 -0.07919475 -0.014942512 -0.14789468
000160 98 b0 20 3d 9d 4a 07 be f8 51 f4 3c 30 90 51 3c
       0.039230913 -0.13212056 0.029824242 0.012790725
000170 d7 a0 0a 3e 08 d0 14 3d 7b f7 11 3e c1 9b 19 3e
       0.13537918 0.036331207 0.14254563 0.15000822
000180 6a eb 5f bd 59 04 81 bd 14 24 20 3d 16 cd ca 3d
       -0.054667868 -0.062996574 0.039096907 0.09902398
000190 5b 2a 21 be 4f 80 16 3e 5c 98 a9 3d 9f a6 99 bd
       -0.15738814 0.14697383 0.08281013 -0.075024836
0001a0 5e 44 f6 3d af 1d 20 3e 70 4b 85 bc aa 54 d3 3d
       0.12024759 0.15636323 -0.016271323 0.10318883
0001b0 64 76 24 3d 4e a9 5b bd 3a 4d f8 3d e0 cb f7 bc
       0.04015197 -0.05362826 0.12124105 -0.030248582
0001c0 8a b8 28 bd b2 f1 6b bd 09 67 1b be ef dc 13 3e
       -0.041191615 -0.057603545 -0.15176024 0.14439748
0001d0 56 fd 16 be 24 e5 19 be cb 0e de bd 30 b3 62 bd
       -0.14745077 -0.15028816 -0.10842665 -0.055346668
0001e0 98 b7 f4 3c 84 99 09 be 2e 5f 90 3d ec 83 06 3d
       0.0298727 -0.13437468 0.07049404 0.032840654
0001f0 6a b1 c6 bd c0 85 0e bd e4 56 14 3d f8 a6 ee bc
       -0.09701808 -0.034795523 0.036215678 -0.029132351
000200 76 68 b2 bd 62 7b f5 3d 66 15 0b be d0 d1 ce bc
       -0.087113306 0.11986424 -0.13582382 -0.02524653
000210 2c 82 7b 3d c2 8b 59 bd ed 49 18 be 8b 81 fe bd
       0.06140344 -0.0531118 -0.1487195 -0.12427052
000220 ce 17 ed 3d 74 cc 8e bd 07 ec 07 3e f4 f5 a7 bd
       0.11576806 -0.0697259 0.13273631 -0.08201209
000230 c0 a4 2b bb 65 76 aa bd 6a 94 25 bd 01 f1 1b 3e
       -0.0026190728 -0.08323363 -0.04042474 0.15228654
000240 22 a1 83 bd 8a 6d f0 3d 17 40 a5 bd cb ef 1a be
       -0.06427218 0.11739643 -0.08068865 -0.15130536
000250 18 c1 b7 3c 40 92 ba 3d 3e 0a d3 3d e0 2e 5c 3c
       0.022430941 0.09109926 0.10304688 0.01343891
000260 12 72 a9 bd 2e 89 e6 3d 10 19 11 bd e4 f1 9b 3d
       -0.0827371 0.11256634 -0.035424292 0.07614496
000270 18 5e aa 3c 12 d3 6f bd 67 b6 8f bd fd 52 1e be
       0.02079682 -0.0585509 -0.07017212 -0.15461345
000280 78 3c ff 3c c6 95 6b bd e6 1e 15 bd d8 86 cd bc
       0.031156763 -0.057515882 -0.03640642 -0.025088713
000290 16 7f c8 3d e0 dc 81 3b 5c 41 0e 3d 53 07 16 3e
       0.09789865 0.003963098 0.0347303 0.14651231
0002a0 90 d8 8a 3c 80 7b e5 3b 58 aa 13 bd 48 78 06 3d
       0.016948968 0.0070032477 -0.036051124 0.032829553
0002b0 fa f6 f2 3d 0a cc ae 3d 18 7d 90 3d ae 02 8c bd
       0.11863513 0.08535011 0.0705511 -0.068364486
0002c0 76 8a e8 3d c0 35 a8 3d b4 b9 8f 3d c6 a0 a8 3d
       0.11354534 0.08213377 0.07017842 0.0823379
0002d0 98 7a 86 3d 0b 35 0f 3e c8 11 04 bd de 7c b9 3d
       0.06566352 0.13985078 -0.03224352 0.0905702
0002e0 a0 ee ac bb c8 a6 b3 bc 06 30 9d bd d8 aa 1f 3d
       -0.0052774698 -0.021930113 -0.07675175 0.03898129
0002f0 74 7d bb 3d b7 46 0f 3e c6 44 c9 3d 86 e9 76 bd
       0.09154788 0.1399182 0.098275706 -0.0602813
000300 f0 90 ff bd 3b 3c 07 3e 80 98 d9 bd 78 cf a1 bc
       -0.124788165 0.1320657 -0.1062479 -0.01975225
000310 58 38 e8 bc 02 3e f8 3d 41 a4 96 bd 4b 4f f3 bd
       -0.02834718 0.12121202 -0.07355548 -0.11880358
000320 18 45 51 3d 45 c7 1b 3e bd e2 83 bd 0f ef 14 3e
       0.051091284 0.15212734 -0.06439731 0.14544319
000330 e0 88 30 bc 6e ea 95 3d 9c ff d4 bd b6 ac cc 3d
       -0.010774821 0.073201045 -0.10400316 0.099938795
000340 da cf f5 bd 78 14 fe bc 00 50 3f b8 e0 91 52 3c
       -0.12002535 -0.03101562 -4.5612454e-05 0.012852162
000350 e0 79 41 3c 90 a2 a7 bc e8 90 39 3d 37 ab a7 bd
       0.011808842 -0.020463258 0.04530421 -0.081869535
000360 ac 83 1a 3d e1 46 15 3e e0 e3 9e bc ca a7 08 be
       0.03772323 0.1457782 -0.019395769 -0.13345256
000370 3a 1b e0 3d 72 3a 0e bd b8 9a c7 3c b4 2a ce bd
       0.10942693 -0.034723707 0.024365768 -0.10066739
000380 cd 33 1f be ae eb 8a 3d 4a 2a d9 3d 56 ed a7 3d
       -0.15547104 0.067832336 0.10603769 0.08199565
000390 5a 59 21 bd 97 f0 1c 3e 91 83 aa bd ce e1 12 be
       -0.039391853 0.15326153 -0.083258756 -0.1434395
0003a0 f0 72 11 3c 10 2d e6 3c c6 24 b5 3d 58 32 dd bc
       0.008877501 0.02809766 0.088449046 -0.027001545
0003b0 06 5a c0 3d 4f 9c 0a be f8 6c 92 bc aa e7 95 3d
       0.093921706 -0.1353619 -0.017874226 0.07319577
0003c0 f7 a6 d4 bd 46 8e c5 3d 08 6c a8 bc 96 12 ef 3d
       -0.103834085 0.09646277 -0.020559326 0.11673467
0003d0 c0 c3 d1 bb 0d f5 1b 3e 36 00 1a bd db 98 1d be
       -0.006401509 0.15230198 -0.037597857 -0.15390341
0003e0 c2 f2 c9 3d ca 2a ed 3d d8 92 cb bc 00 c8 9c b8
       0.098607555 0.11580427 -0.024850294 -7.4759126e-05
0003f0 a0 e0 fc bd f7 81 b0 bd 94 a7 0c 3d 60 7a 9d bd
       -0.12347531 -0.08618539 0.034339502 -0.07689357

hidden_layers.2.bias f4 [40]
000000 a0 ce 8d 3d 98 63 21 bd 10 c3 b2 3c fc 31 52 3d
       0.06924176 -0.03940162 0.021821529 0.0513172
000010 3a d2 ed bd 88 9d 18 be 61 2c 12 3e ae 62 cb 3d
       -0.11612363 -0.14903843 0.14274742 0.09930931
000020 9a 29 0d be 5b 03 09 3e c6 42 14 be 7a 31 1e be
       -0.13785401 0.13380186 -0.14478597 -0.15448561
000030 58 47 ef 3c 99 da 1e 3e 2a a6 84 3d bb 29 02 be
       0.029208824 0.15513076 0.06477006 -0.12711231
000040 1c 40 60 3d a0 28 23 bc 4c 0d 2b 3d a2 cb df 3d
       0.05474864 -0.009958416 0.041760728 0.10927512
000050 ee b8 cc 3d 25 ec 10 3e cc d8 53 3d 79 16 d3 bd
       0.0999621 0.14152582 0.051720425 -0.10307021
000060 64 ca 44 3d 00 f0 a7 ba 00 b3 70 3d 5b c1 1e 3e
       0.048044577 -0.0012812614 0.058764458 0.15503447
000070 e8 2c ba 3d 80 a3 21 3c 0d b1 ab bd 80 31 8b 3b
       0.090905964 0.009865642 -0.08383379 0.004247844
000080 1a f6 83 3d 24 a0 53 bd 6e e9 c8 3d 71 77 bc bd
       0.064434245 -0.051666394 0.09810148 -0.09202469
000090 f6 38 d1 3d e9 1c df bd 82 7a cc bd b0 95 7e 3c
       0.102159426 -0.10894186 -0.09984304 0.015538618

hidden_layers.3.weight f4 [40, 40]
000000 c0 14 8d 3b 60 67 16 bd 43 8f 0a 3e 65 15 8c bd
       0.004305452 -0.03671968 0.13531213 -0.06840018
000010 c5 93 05 3e c8 49 0f 3d fa 0b d8 bd 19 f5 81 bd
       0.13044651 0.034982473 -0.10549159 -0.06345577
000020 f8 93 bb bc 00 a2 9e 3d c3 a0 02 3e 90 3a 9e bc
       -0.022897705 0.07745743 0.12756638 -0.019315034
000030 2e 8c 09 be f0 be 29 3c ac 12 0a 3d 72 38 4e bd
       -0.1343238 0.010360464 0.033709213 -0.0503468
000040 3a 89 d6 3d c3 f5 18 be 40 dc f0 3b 94 a4 fb bd
       0.10475393 -0.149375 0.0073504746 -0.1228725
000050 52 fc 50 bd 70 84 e2 bc 38 de 8c bc 42 72 62 bd
       -0.05102188 -0.027651042 -0.017195806 -0.055284746
000060 08 49 0a be 00 cc c1 b9 b2 99 e2 3d 00 b0 3f bc
       -0.13504422 -0.0003696382 0.11064471 -0.0116996765
000070 0b e2 15 3e dc 1c 04 3d 84 67 06 3d be 4f 0b be
       0.1463701 0.032254085 0.032813564 -0.13604638
000080 1c de 11 bd 12 0a d9 3d ff 4a 1b 3e dc e1 fd bd
       -0.03561221 0.10597624 0.15165327 -0.12396595
000090 00 e8 02 3d 40 20 63 bb d4 9d 40 3d c7 7e 99 bd
       0.031959534 -0.0034656674 0.047025517 -0.07494884
0000a0 f4 6b 78 3d d6 a7 ff 3d 93 9e 18 3e 9c d9 63 3d
       0.060649827 0.12483184 0.14904241 0.05562745
0000b0 f4 27 15 3d 12 9f 52 bd d8 06 01 bd 40 f9 69 3b
       0.036415055 -0.051421233 -0.031500667 0.0035701543
0000c0 f4 7d 05 be 40 3b 5a bb f6 aa c5 3d 4e 51 36 bd
       -0.13036329 -0.0033299476 0.09651749 -0.044511132
0000d0 8f a9 0a be db 8e 11 3e 2d 69 f3 bd b6 34 e7 3d
       -0.13541244 0.14214651 -0.11885295 0.11289351
0000e0 de 9c d7 bd e0 c3 04 be f8 40 ad 3c 1a 16 e6 3d
       -0.10527967 -0.12965345 0.021149144 0.11234684
0000f0 8c 3b 1e 3d 00 b5 c2 3c b0 9c bf bd 7e 42 fa 3d
       0.038631007 0.023767948 -0.09356058 0.12219714
000100 82 06 ef bd 14 bf 8a 3d 67 d7 1f be 60 39 38 bd
       -0.11671163 0.067747265 -0.15609513 -0.044976592
000110 4a b2 c7 3d d2 79 14 be 99 16 05 3e 6a 6c b6 3d
       0.09750803 -0.14499596 0.12996902 0.08907397
000120 66 86 f5 3d 80 a7 b8 bb e9 5c e6 bd 2c ec 18 be
       0.11988525 -0.005635202 -0.1124819 -0.14933842
000130 8c cf 00 bd 80 af c9 3c c0 a1 7d 3d c5 2a 17 be
       -0.031447932 0.024619818 0.061921835 -0.14762409
000140 88 8d 0b be 82 23 17 be 6e 76 fe 3d 7b c5 f9 bd
       -0.13628209 -0.14759639 0.124249324 -0.121958695
000150 5c 5c 1c be b0 eb 87 3d c8 d6 7c 3d a2 2a 99 bd
       -0.15269607 0.06636751 0.06172827 -0.07478835
000160 3c 9f 0b be a0 c2 6a 3c 17 94 10 3e da 64 ab 3d
       -0.13634962 0.014328629 0.14118992 0.08368845
000170 17 99 21 3e 2e d3 1d bd 78 f8 a8 bc 4e ec f6 3d
       0.15781055 -0.038531475 -0.020626292 0.1205679
000180 8c 94 67 bd be 90 43 bd 6e e5 ad 3d 12 78 ff bd
       -0.05653815 -0.04774546 0.08491026 -0.124740735
000190 a8 91 cd bd c0 b6 36 bb a4 43 29 3d 56 81 eb bd
       -0.10037547 -0.0027879924 0.041324273 -0.11499278
0001a0 7e 66 9d bd a2 e1 f1 3d 47 86 0e 3e 90 ef 4e bd
       -0.076855645 0.11810614 0.1391841 -0.050521433
0001b0 d2 d3 ed 3d 0a d4 05 be 1e 08 c0 bd d0 1a 87 bc
       0.11612667 -0.13069168 -0.09376548 -0.016492277
0001c0 a9 97 11 be 70 16 45 3c 34 82 24 3d a5 6d b6 bd
       -0.1421801 0.012029275 0.040163234 -0.08907632
0001d0 0e f1 d5 3d a6 10 e2 3d 50 ce ec bd a7 0f 19 3e
       0.10446368 0.11038332 -0.115627885 0.14947377
0001e0 40 e2 50 3d 2f b8 12 3e e4 cd 42 3d 20 4c 0b bc
       0.05099702 0.14328073 0.047559634 -0.008502036
0001f0 ca bd d8 bd 98 2a c9 bc cd 09 0c 3e cc b8 a9 bd
       -0.105830744 -0.024556443 0.13675614 -0.082872
000200 3b 6a 0f 3e 40 b8 93 bb 8e 15 49 bd 48 6f c7 bd
       0.14005367 -0.0045080483 -0.04909282 -0.09738022
000210 26 9b 17 be b7 50 8a bd b8 80 bd bd fc d7 82 3d
       -0.14805278 -0.067536764 -0.09253067 0.06388852
000220 62 84 f4 3d 76 43 b3 3d 50 c5 67 bc b6 16 c0 bd
       0.119393125 0.087531015 -0.014146164 -0.09379332
000230 3c a0 d1 bd cf 7e 86 bd d6 90 b6 3d 10 6f 69 3d
       -0.102356404 -0.065671556 0.08914344 0.056990683
000240 72 9d d6 3d 88 5b 89 3c 04 fb 2a 3d ae 37 e7 3d
       0.10479249 0.016767278 0.041743293 0.11289917
000250 21 86 a7 bd 12 8b 0f bd e8 5a b6 bd 4e de 54 bd
       -0.0817988 -0.035044737 -0.08904058 -0.05196982
000260 de 21 59 bd 10 13 99 bc e1 c2 c2 bd ee 25 df 3d
       -0.053010814 -0.018685848 -0.095098265 0.108959064
000270 46 12 0d be 0e d6 95 3d c0 d1 b5 3d b3 1f 0f 3e
       -0.13776502 0.07316218 0.08877897 0.13976936
000280 63 f6 10 be fc 2e 17 be 05 31 90 bd 98 e5 90 3d
       -0.14156489 -0.14764017 -0.070406 0.070750415
000290 84 a2 06 3d 1d 49 0b 3e 09 cb 1d 3e 12 28 dd 3d
       0.03286983 0.13602109 0.15409483 0.107986584
0002a0 bd c5 11 3e a4 f5 02 bd 23 03 0a 3e fb 83 12 3e
       0.14235587 -0.031972542 0.13477759 0.14308159
0002b0 bf 42 02 3e ca 9b 2c bd 89 f8 1e be 82 04 9e bd
       0.12720774 -0.04214076 -0.15524496 -0.077157035
0002c0 a3 d9 0b 3e 20 9b e6 bb 50 43 93 3d 70 5b 89 3d
       0.1365724 -0.0070375353 0.07190573 0.067068934
0002d0 6c 82 91 3d 4c 41 2d bd 08 be 37 3d 80 3d 58 bc
       0.07104954 -0.0422986 0.044858962 -0.0131982565
0002e0 a6 af c0 bd 17 8a 1d be 38 2e b6 3d 6a f0 09 be
       -0.09408502 -0.15384708 0.08895534 -0.13470617
0002f0 a0 a2 59 bd 2b fd 1f 3e 6c a5 8b 3d 74 49 1c be
       -0.053133607 0.1562392 0.06818661 -0.15262395
000300 1c 7b 80 3d e8 68 e9 bc f8 7a ba 3c e6 be 5d bd
       0.06273481 -0.028492406 0.022763714 -0.054137133
000310 da c2 ba 3d e7 63 1f be a0 87 a0 3d 00 1e ef bc
       0.09119196 -0.15565453 0.078383684 -0.02918911
000320 a0 eb 1d be fe 49 07 be 7a 56 a4 3d 4b 93 0d 3e
       -0.15421915 -0.1321182 0.080243066 0.13825719
000330 68 25 dd bd d2 e6 21 be e0 1a 27 3c be 17 9d bd
       -0.1079815 -0.15810707 0.010199279 -0.07670544
000340 38 0d 4a bd 00 05 f7 3c 00 75 01 3c 18 3b f1 bd
       -0.049329013 0.030153751 0.00790143 -0.11778849
000350 63 33 05 3e 60 81 44 bd 50 13 be 3c ba c6 02 be
       0.13007884 -0.047974944 0.023202568 -0.1277112
000360 45 a7 ad bd 7c ad 89 3d ed 52 17 3e ac 1b 69 3d
       -0.0847917 0.06722543 0.14777727 0.056911156
000370 00 1e 44 3a 18 46 7d 3d d5 cf 04 3e f2 c4 14 be
       0.0007481277 0.061834425 0.12969907 -0.14528254
000380 f9 4b 0a 3e 40 bc 79 3c 75 3d 14 3e 0a ca 13 be
       0.13505544 0.015242636 0.14476569 -0.1443254
000390 ca 03 e0 3d 22 0f 7a bd 19 e1 1e 3e b0 c6 7a 3c
       0.10938223 -0.061049588 0.15515555 0.01530616
0003a0 59 3e f8 bd fc b9 5f bd 65 3e 08 be a5 1e 8f bd
       -0.12121267 -0.054620728 -0.13305052 -0.06988267
0003b0 60 d2 c2 bc c4 e6 41 3d f3 19 0d 3e 3a da 10 be
       -0.023781955 0.047339216 0.1377943 -0.14145747
0003c0 a8 03 40 3d 38 d9 05 bd ae 96 a9 3d b1 40 b5 bd
       0.046878487 -0.03267786 0.08280693 -0.088502295
0003d0 b0 64 20 be cb ac 0c 3e 86 29 c7 3d 1d 16 07 3e
       -0.15663409 0.1373779 0.09724717 0.1319203
0003e0 7e 58 ac 3d f0 7e 2e 3c 06 21 d7 bd 60 ca 0a be
       0.08415316 0.010650381 -0.105043456 -0.13553762
0003f0 13 dd a6 bd 1a 64 77 bd 06 30 c6 3d 25 e2 bb bd
       -0.08147635 -0.0603982 0.096771285 -0.09173993

hidden_layers.3.bias f4 [40]
000000 e7 31 1d 3e 00 6c a1 bc a5 ee 06 3e 30 99 16 3d
       0.15351067 -0.019704819 0.13176973 0.036767185
000010 8c bf c8 bd bc 03 14 be a8 2b bf bd 3e 30 b4 bd
       -0.0980216 -0.1445455 -0.09334499 -0.08798264
000020 e8 d3 a6 bc 86 ac bc 3d 27 a2 95 bd c0 59 a3 3c
       -0.020364717 0.09212594 -0.07306319 0.019940257
000030 ac f1 4d 3d a6 65 f4 3d 88 a8 17 bd 4d 36 01 3e
       0.050279304 0.119334504 -0.03702596 0.1261837
000040 1c 57 a5 3d 88 d5 9a bc 3e 53 ca 3d a1 c3 03 3e
       0.080732554 -0.018900648 0.098791584 0.12867595
000050 4e 1d c0 bd 0f 95 05 be 18 ef ad 3d 7e f4 9c bd
       -0.093805894 -0.13045143 0.08492869 -0.07663821
000060 98 5e 15 bd 90 fb f9 3c 78 4e 11 be e0 6a e5 bc
       -0.036467165 0.030515462 -0.1419009 -0.028005064
000070 52 1d f5 bd e4 76 19 be 73 55 10 be fe 1a bf 3d
       -0.11968483 -0.1498676 -0.14095096 0.0933132
000080 3c de 9c 3d b0 24 49 bc 54 d1 f4 bd b6 fd c4 bd
       0.07659575 -0.012276813 -0.11953989 -0.09618704
000090 ea 2e c5 3d fa df c0 3d ae 4e f8 bd 00 60 1b bb
       0.09628089 0.0941772 -0.12124382 -0.0023708344

output_layer.weight f4 [40, 40]
000000 11 86 cf bd 5f 71 a9 bd 6f 75 d6 3d 3b 1a c4 bd
       -0.10132993 -0.08273577 0.104716174 -0.095753156
000010 be e0 c3 3c ae 27 1b 3d 2a 68 0a be 42 60 a7 bc
       0.023910876 0.03787964 -0.13516298 -0.020431641
000020 b9 53 05 3e 2f 0f ee 3c bd 2d 09 3e 23 12 db bc
       0.13020219 0.029059974 0.13396354 -0.026742047
000030 e5 a2 91 bd c3 fb d1 bd 2b c5 26 bc 10 ab 07 be
       -0.07111148 -0.10253098 -0.010178844 -0.13248849
000040 e0 bb 07 be 29 ea 89 bd cd b5 0c be c9 2e 1e be
       -0.13255262 -0.06734116 -0.13741226 -0.15447535
000050 37 c9 0f bc a0 8b 38 3c b1 ae a4 3d 1b 25 1f be
       -0.008776001 0.011263758 0.08041132 -0.15541498
000060 45 0c 1b be bc 57 0d be c6 03 04 3d 78 18 1f be
       -0.15141399 -0.13803 0.03223016 -0.15536678
000070 34 d2 b0 3d d9 7b a9 bb 55 79 03 be 06 0c e3 bd
       0.08633843 -0.0051722345 -0.12839253 -0.11086278
000080 98 2d 4a 3d fc 43 7b 3c 54 2a 0d 3e 20 2f a3 3c
       0.049359888 0.015336033 0.13785678 0.019919932
000090 7d fe e4 3d 46 62 80 3c e2 3f dd 3d c8 5f d6 3b
       0.11181352 0.01567186 0.108032 0.0065421797
0000a0 3e cf 3f 3d 20 f1 bb 3d 03 db 93 3d b9 64 d9 3c
       0.0468285 0.0917685 0.072195075 0.026537286
0000b0 ec 93 dc 3b dc 9e f0 3d 83 11 7a 3d 01 0b 15 be
       0.006731501 0.1174905 0.061051857 -0.14554979
0000c0 43 f8 d1 3c 41 b5 c6 bd 77 55 0a bd d4 81 d0 3d
       0.025631076 -0.0970254 -0.033772912 0.10181013
0000d0 2e b0 85 bd 7c 0b d2 3d 78 9a 0b 3e 57 26 b6 3d
       -0.06527744 0.10256097 0.13633144 0.088940315
0000e0 e5 6e 12 3e 3f cb dd bd 0c 69 a1 3b d3 9a d4 bb
       0.14300115 -0.10829782 0.0049258526 -0.006488183
0000f0 bd 86 eb 3d 9f 7b 1c bb 63 e7 fb 3d 97 43 a5 bd
       0.11500309 -0.0023877395 0.12299993 -0.08069532
000100 3f 99 fb 3d 21 50 9f bd ff 20 37 3b fa 76 f4 bd
       0.12285089 -0.07778955 0.0027943251 -0.119367555
000110 49 a2 7d 3d 6d 22 a3 bc 26 c3 16 be df f2 13 be
       0.061922345 -0.019913876 -0.1472288 -0.14448117
000120 c2 bd 18 3e 68 f5 10 3e 72 97 78 bd 24 c0 80 bd
       0.14916137 0.14156115 -0.060691305 -0.06286648
000130 e6 40 5f 3d 52 46 90 bd d3 15 9b 3d 42 8f 91 3d
       0.05450525 -0.070446625 0.07572522 0.071074024
000140 5b 09 11 3e 28 17 8a 3a e7 49 0a 3d f4 cb 32 3d
       0.14163725 0.0010535466 0.033761885 0.043651536
000150 ea 4b 9b 3d 35 14 29 3c a6 1a 39 3d c7 10 0a 3e
       0.07582839 0.010319759 0.04519143 0.13482963
000160 30 5d 77 3d 83 31 f8 bd f8 8d f4 bd 17 19 78 3c
       0.060391605 -0.121188186 -0.11941141 0.015142701
000170 b7 00 a7 bc 76 44 12 3e b3 ce f9 3d ea be e4 3d
       -0.020386083 0.14283928 0.12197628 0.111692265
000180 a9 7c 03 3e db e1 a5 bd 6c 58 0a be 9e 47 ab bd
       0.12840523 -0.08099719 -0.13510293 -0.08363269
000190 88 79 16 be 62 89 fa bd cc 99 15 3e b3 58 a7 3d
       -0.14694798 -0.12233235 0.1460945 0.08171215
0001a0 bc a2 d4 bd 4f 85 f8 3d f5 eb cc 3d 4e 90 e1 3c
       -0.103826016 0.121348016 0.10005943 0.02753463
0001b0 74 09 ec bd 5f 9c bf bd 63 9c c5 3d 9d 1a a6 3d
       -0.115252405 -0.09355997 0.09648969 0.08110545
0001c0 f4 09 07 3d bc 73 c3 3d d9 70 ae bd c1 d9 76 bd
       0.032968476 0.09543559 -0.08517618 -0.06026626
0001d0 ec 13 ea 3b e0 a7 13 be 8e e1 dc bc ce c5 26 be
       0.007143488 -0.14419508 -0.026963022 -0.16286394
0001e0 1e a4 1c be ce 10 ed 3d b8 8b 19 be dd d1 1b be
       -0.1529698 0.11575471 -0.14994705 -0.15216775
0001f0 9a e8 17 be ef 76 2f bd bf ad c9 3d f6 81 06 bd
       -0.14834824 -0.042838033 0.098475926 -0.032838784
000200 15 01 07 3d 73 7a be bc 7f e7 e1 3d 84 00 17 be
       0.032960016 -0.023251748 0.110304825 -0.1474629
000210 8c a0 8a 3d 9e f6 14 bd 97 a0 ca bd aa eb cb 3b
       0.06768903 -0.036368005 -0.09893911 0.0062231617
000220 45 1f 81 3d c8 2a 83 bd 30 ce f1 3d 36 c0 0c bd
       0.06304792 -0.06404644 0.11806905 -0.034362994
000230 e5 15 7e bc 40 b5 de 3d 19 ac 1b be 9c 43 84 3d
       -0.01550815 0.108744144 -0.15202369 0.06458208
000240 e8 af fc 3d bd b3 65 bd d3 c8 0a 3e b5 d1 e4 3d
       0.12338239 -0.056079615 0.13553171 0.11172811
000250 80 88 7b 3d d7 ca 6f bd b9 af f8 3d d6 c6 ce bd
       0.061409473 -0.058543053 0.121428914 -0.10096519
000260 cc d4 9e 3d db b9 0a 3e 67 74 e2 3d 20 b9 b8 3d
       0.077554315 0.1354746 0.11057358 0.09019685
000270 00 6b f3 3d cd 53 01 3e 3d 47 21 be b3 30 aa bd
       0.11885643 0.12629624 -0.15749831 -0.0831007
000280 95 79 81 3d f7 4e 30 3d b0 e8 83 bd 23 8c 07 be
       0.06322018 0.043044057 -0.06440866 -0.13237052
000290 35 b9 d5 3d c9 bc 92 3d 7f 86 1b be 36 ee 3c bd
       0.10435716 0.07164914 -0.15188025 -0.046125613
0002a0 32 ad 06 bc 3c ff 56 bd 88 06 f7 bd 31 94 eb 3d
       -0.008220004 -0.052489504 -0.120617926 0.11502875
0002b0 0b 00 14 3e 12 ad 0e 3d fb 06 15 bd cf aa 00 3e
       0.14453141 0.03483302 -0.03638361 0.12565158
0002c0 03 b6 03 3e 50 7e 1c be 7e 2d be 3d 12 7f cf 3d
       0.128624 -0.1528256 0.09286021 0.101316586
0002d0 1c ff 28 bd cd 5a fe bc fe ce 99 bd 4f af f0 bd
       -0.041258916 -0.031049157 -0.07510184 -0.117521875
0002e0 6b 2d 11 3d 21 3d dc 3d 11 42 d3 bd 96 13 65 3d
       0.035443705 0.10753847 -0.103153355 0.05592688
0002f0 0c 79 74 bd 67 d1 96 3b 35 73 cc bd 7e 43 81 3d
       -0.05968575 0.0046025994 -0.099829115 0.06311701
000300 35 59 13 be 2d 8b 72 bd 54 79 11 3e f5 3a b5 bd
       -0.14389499 -0.05921476 0.1420644 -0.08849136
000310 cd 7d 32 bd 6c 7c f8 bd 40 52 10 bd 26 2b cb 3b
       -0.043577004 -0.121331066 -0.03523469 0.006200212
000320 dd 97 65 bd ec 84 d1 3d f3 b2 14 3e 91 d4 73 3d
       -0.05605303 0.10230431 0.14521389 0.05952889
000330 dc b0 23 3b 34 54 7c bd 1b 68 fa 3d 47 b9 09 3e
       0.0024977243 -0.06160374 0.12226888 0.13449584
000340 2c 02 cc bd 25 83 de 3d 23 b6 f7 3c e2 96 90 bd
       -0.09961352 0.108648576 0.030238217 -0.070600286
000350 8b 86 c7 bd 2f e8 71 bd 00 46 01 be 20 28 ac 3c
       -0.09742459 -0.05905932 -0.12624359 0.021015227
000360 fa 12 07 3e 13 28 f5 bd 3a c6 0e 3d b5 90 16 be
       0.13190833 -0.11970534 0.034857012 -0.14703639
000370 8b b3 b9 3d 17 d0 00 bd 69 15 2c 3d d1 28 d8 3d
       0.09067448 -0.03144845 0.042012606 0.1055466
000380 b3 c3 ca 3c 4e 47 94 3b 59 d8 81 bd 9d 35 7c 3c
       0.02475152 0.0045251017 -0.06340093 0.015393642
000390 21 5a 0b 3e 44 20 2d 3b 47 c1 f7 bd 8c ab 90 3d
       0.136086 0.0026416937 -0.120974116 0.0706397
0003a0 2a 60 8a bd 5d a8 19 be 2b 4f 67 bb d6 41 1c be
       -0.06756623 -0.15005632 -0.003529499 -0.1525949
0003b0 5f b1 e7 bd 72 d8 32 3d 23 a3 0b ba 5d 0d 91 3d
       -0.11313128 0.04366345 -0.00053267385 0.07082627
0003c0 29 f1 16 be 35 97 18 be 71 99 b2 3d e8 a4 0c be
       -0.14740433 -0.14901431 0.08720673 -0.13734782
0003d0 62 d9 a8 bc 99 a0 3f 3d be fb 74 3d b2 b9 13 be
       -0.020611469 0.046784017 0.059810393 -0.14426306
0003e0 b2 95 5c bd 28 74 79 3d 1b 61 39 3c 4d 20 09 bd
       -0.053853698 0.06090179 0.011314656 -0.03347807
0003f0 e0 05 4a bd 26 99 a2 3c ba 99 18 3e 1d 53 43 bd
       -0.04932201 0.019848417 0.14902392 -0.047686685

output_layer.bias f4 [40]
000000 06 69 d6 bd 15 46 c2 bd 6a 00 58 3d 2d 2a 13 be
       -0.104692504 -0.09486023 0.05273477 -0.14371558
000010 d0 5f 1a be 9f 2c 5b bd e8 99 a7 bd ba 97 04 be
       -0.15075612 -0.05350935 -0.08183652 -0.12948504
000020 9e 29 d1 bd 1a 65 a3 bd fb bd da 3d ff 28 83 3c
       -0.10213016 -0.07978268 0.10680767 0.01601076
000030 c3 5b bc bd 20 9b f4 3d 14 5e 0e 3e 59 99 fd bd
       -0.0919719 0.1194365 0.13903075 -0.12382764
000040 91 5f e1 bd 0b 7a f5 3d ac b0 1a bd b8 16 e2 bd
       -0.11004556 0.119861685 -0.037766144 -0.110394895
000050 24 4e d0 3c ab 3b 55 bc 5e b0 6e bc 4e 26 5b bd
       0.025427885 -0.013014714 -0.014568416 -0.053503327
000060 08 2e 32 3c 08 a6 ba 3d 60 ae db bb e6 af b7 3d
       0.0108752325 0.09113699 -0.0067041367 0.08969097
000070 ca a6 c0 bd 8f 6a 0b be 8b 9b a5 bc 02 2a 0c 3d
       -0.094068125 -0.13614868 -0.02021577 0.03421975
000080 2f 1e 2a 3d 9e 4e cb bd 76 8a 14 3e 08 0e 23 bc
       0.04153269 -0.099271044 0.14505944 -0.009952076
000090 f1 3c ab 3d 65 7d 01 3c 3b 7e 02 be 0f 09 f1 bd
       0.08361233 0.007903432 -0.12743466 -0.11769306
